A3TGCN2_Checkpoints/Epoch_27.pth (torch, 35255 bytes, 17 tensors)

tgnn._attention f4 [16]
0	0x3fbd4f32	1.4789793
1	0x3f6d84ce	0.9278077
2	0x3f113b9c	0.5673158
3	0xbd280907	-0.041024234
4	0x3e785fbc	0.2425527
5	0xbdc5f731	-0.09666289
6	0xbde0ffd6	-0.10986297
7	0x3ebaaf94	0.3646208
8	0x3e3a9932	0.18222502
9	0x3e2112a2	0.15729764
10	0x3e95f740	0.292902
11	0x3ee1ab41	0.4407597
12	0x3ec29d09	0.38010433
13	0x3f205c77	0.6264109
14	0x3f4b9927	0.79530567
15	0x3fa15806	1.2604988

tgnn._base_tgcn.conv_z.bias f4 [32]
0	0x3f02fe55	0.5116933
1	0x3ef87923	0.4852992
2	0x3e362262	0.17786554
3	0xbd107278	-0.035265416
4	0xbe0b8460	-0.13624716
5	0xbebb767c	-0.36613834
6	0xbf056a9d	-0.52115804
7	0xbf057f2f	-0.5214719
8	0x3f0f6ffc	0.5603025
9	0x3f08fdbb	0.5351216
10	0xbf11d609	-0.56967217
11	0xbf0860bf	-0.5327262
12	0x3df71d35	0.12066118
13	0x3d962abc	0.0733237
14	0x3eff1821	0.49823096
15	0x3efced3e	0.4939975
16	0xbf09e7ce	-0.5386933
17	0x3f0fd947	0.56190914
18	0x3ea32ea0	0.3187151
19	0x3f12a568	0.5728364
20	0x3f05049e	0.5196017
21	0xbf04d54a	-0.51887953
22	0xbf0770e8	-0.52906656
23	0x3f05db49	0.5228773
24	0xbee27473	-0.4422947
25	0xbefc5d01	-0.49289706
26	0xbee50e78	-0.447376
27	0x3edcdeed	0.4313883
28	0x3efa8067	0.48926088
29	0xbe87ba5a	-0.26509362
30	0x3e9769cd	0.29572907
31	0x3f048123	0.51759547

tgnn._base_tgcn.conv_z.lin.weight f4 [32, 3]
0	0xbe5d92ec	-0.21638077
1	0xbebfe79f	-0.374814
2	0xbfccd407	-1.6002206
3	0x3e8ed72d	0.2789854
4	0xbf07bbbd	-0.5302084
5	0xbf6737e2	-0.90319645
6	0xbf22d9ad	-0.63613397
7	0x3ebf83df	0.37405297
8	0xbf3e7516	-0.7439741
9	0xbe6b7669	-0.22994389
10	0x3f42e67f	0.7613296
11	0x3fa78904	1.3088689
12	0x3f05c2c3	0.5225031
13	0xbf077e1f	-0.5292682
14	0x3db8b90a	0.090196684
15	0xbe20b4fe	-0.15694043
16	0x3f0545de	0.52059734
17	0x3fddc7bf	1.7326583
18	0xbed04ed4	-0.4068514
19	0xbdaeabab	-0.08528837
20	0xbeaf5768	-0.34246373
21	0xbd8d71e6	-0.0690649
22	0x3e954045	0.29150596
23	0x3f980389	1.1876079
24	0x3e607a3a	0.21921626
25	0xbf098992	-0.5372554
26	0xbf96b4fd	-1.1773983
27	0x3eafc5e2	0.3433066
28	0xbf58888b	-0.8458335
29	0xbf9f1815	-1.2429224
30	0x3e11bbcf	0.142318
31	0x3f0a29b3	0.5396988
32	0x3f4adf9d	0.79247457
33	0xbed37d47	-0.41306517
34	0x3f0d9804	0.5531008
35	0x3f37eb27	0.7184319
36	0xbe88314b	-0.26600108
37	0x3f153511	0.582841
38	0xbdd0f7d3	-0.10203519
39	0xbf55188a	-0.8324057
40	0x3d70529b	0.05867253
41	0x3e360a9d	0.17777486
42	0x3eaac6ca	0.3335479
43	0xbefe002f	-0.49609515
44	0xbf84a9a5	-1.0364271
45	0xbccabb1c	-0.024747424
46	0xbe9ad91f	-0.30243775
47	0xbfe0ed2b	-1.7572378
48	0xbe15e39d	-0.14637609
49	0x3ee5bb56	0.44869488
50	0x3f548dd4	0.8302891
51	0x3e0f0dad	0.1397006
52	0xbf2d918f	-0.6780023
53	0xbfd39b3e	-1.6531751
54	0xbef96252	-0.48707825
55	0xbe5e1ddc	-0.21691078
56	0x3d876a1a	0.06612034
57	0xbe0a9735	-0.13534243
58	0xbefa6577	-0.48905537
59	0xbfcdd96e	-1.6081979
60	0x3ebdc15b	0.3706158
61	0xbef6e2f3	-0.48220024
62	0xbf60a4f9	-0.8775173
63	0xbe094c78	-0.13408077
64	0x3ec825b4	0.39091265
65	0x3efdf06b	0.49597487
66	0xbe8a6307	-0.27028677
67	0x3f4b77a4	0.7947943
68	0x3fc07bf1	1.5037824
69	0x3e040629	0.12892975
70	0xbe664d49	-0.2249042
71	0xbfd60cee	-1.6722696
72	0x3e875dba	0.26438695
73	0x3e1b6141	0.15173818
74	0x3fb2235b	1.391704
75	0x3e39c561	0.181417
76	0x3dd5999f	0.104296915
77	0x3fa3f50d	1.2809159
78	0x3f042fbf	0.51635355
79	0x3e9d2585	0.30692688
80	0x3f3c3f39	0.7353397
81	0xbefaa6a7	-0.4895527
82	0xbecec094	-0.403813
83	0xbf22f3fe	-0.6365355
84	0x3dd9ac85	0.106286086
85	0xbd216ed0	-0.03941232
86	0xbf85723d	-1.0425488
87	0x3f332ecf	0.699933
88	0x3f7b25da	0.9810463
89	0x3fae322a	1.3609059
90	0xbcb53ffe	-0.02212524
91	0xbfa2936e	-1.2701242
92	0xbf93d3b9	-1.1548988
93	0x3b794bae	0.0038039493
94	0xbf0556d5	-0.5208562
95	0xbf9f9d79	-1.2469932

tgnn._base_tgcn.linear_z.weight f4 [32, 64]
0	0xbf4c4c7a	-0.79804194
1	0xbf32f1fc	-0.6990049
2	0x3e8e876a	0.27837688
3	0x3f4cab74	0.79949117
4	0xbe589ed8	-0.21154344
5	0x3f5b0900	0.8556061
6	0x3e3cdef9	0.18444432
7	0x3ea6dab8	0.32588744
8	0xbf426310	-0.7593241
9	0xbfa05088	-1.2524576
10	0x3fae2489	1.36049
11	0x3f1b859b	0.6075074
12	0x3d8cd279	0.06876082
13	0xbee77214	-0.45204222
14	0xbf2f3ab5	-0.68448955
15	0xbf1b2e34	-0.60617375
16	0x3f45e2ec	0.7729938
17	0xbf9a1e74	-1.2040544
18	0xbf11d5e8	-0.5696702
19	0xbfa40bf8	-1.2816153
20	0xbef10296	-0.47072285
21	0x3f2aceaf	0.66721624
22	0x3fa21b1c	1.2664523
23	0xbe997f40	-0.29979897
24	0x3ead4c35	0.33847204
25	0x3e79c689	0.24392141
26	0x3f4d6ad5	0.8024114
27	0xbf88b173	-1.0679153
28	0xbe7131e7	-0.23554192
29	0x3ee293fc	0.44253528
30	0xbf42fe7b	-0.76169556
31	0xbf90ece5	-1.1322294
32	0x3ca5dba8	0.020246342
33	0x3d64c704	0.05585386
34	0x3d376430	0.04477328
35	0x3d1089a4	0.035287514
36	0x3cbd8e88	0.023139253
37	0xbcb79138	-0.022408113
38	0x3deae07c	0.11468598
39	0xbc941b58	-0.018079445
40	0xbd60348c	-0.054737613
41	0x3d9ddff8	0.07708734
42	0xbd3d5e3c	-0.046232447
43	0x3dec22ce	0.11530076
44	0x3de290f0	0.11062801
45	0xbdaba19e	-0.083804354
46	0xbdd24a90	-0.10268128
47	0xbd276020	-0.040863156
48	0x3da5223e	0.08063172
49	0xbdd291bc	-0.10281703
50	0x3d8af502	0.06785013
51	0xbdfe2028	-0.12408477
52	0xbcc31510	-0.023813754
53	0xbd06ae1c	-0.032880887
54	0x3c592e50	0.013255671
55	0x3dcec97c	0.10097024
56	0xbdb40a88	-0.08791071
57	0x3b072f80	0.0020627677
58	0x3bc81160	0.006105587
59	0xbd56c170	-0.05243057
60	0x3c0d2900	0.008615732
61	0x3db887ca	0.09010275
62	0xbd9ca6e4	-0.07649019
63	0x3da2020c	0.07910547
64	0xbf2cb187	-0.67458385
65	0xbe5f9741	-0.21835043
66	0xbf047ac1	-0.5174981
67	0x3f5f6935	0.8726991
68	0x3d5f4c91	0.05451638
69	0x3fc4d1ad	1.5376488
70	0xbdf27e76	-0.11840527
71	0x3e5ae8b8	0.21377838
72	0xbe2cfc51	-0.16893126
73	0xbf0f99e0	-0.5609417
74	0xbd0e3930	-0.034722507
75	0x3e14b80b	0.14523332
76	0xbe0905a8	-0.13381064
77	0x3f456a51	0.7711535
78	0xbe92fbba	-0.28707677
79	0xbf28267b	-0.65683717
80	0xbded2587	-0.115794234
81	0xbf67974a	-0.90465224
82	0x3ed007e7	0.4063103
83	0xbf332939	-0.69984776
84	0xbd19ab22	-0.03751672
85	0xbe067751	-0.13131453
86	0x3f3cb2ca	0.7371031
87	0xbec95af6	-0.3932721
88	0x3eb6f75b	0.35735592
89	0x3e981651	0.29704526
90	0x3dbf3aa5	0.093373574
91	0x3d5bd33e	0.053668253
92	0x3ce4f2a2	0.027947728
93	0x3f18fed6	0.5976385
94	0xbf51ed89	-0.82003075
95	0xbee8e87b	-0.4548987
96	0x3dbfcfd2	0.093658105
97	0x3d5cda4c	0.05391912
98	0xbd9759c2	-0.07390167
99	0xbd8eab42	-0.069662586
100	0x3ce24090	0.027618676
101	0x3d10e8f8	0.035378426
102	0x3d8797c6	0.06620745
103	0xbdbb660e	-0.09150325
104	0x3df6a7ee	0.12043749
105	0xbcc94720	-0.024570048
106	0x3d339b5c	0.043849334
107	0xbd5b6d64	-0.05357112
108	0x3d433538	0.047658175
109	0x3ddaa082	0.10675146
110	0xbdb84d72	-0.089991465
111	0x3c392780	0.011300921
112	0x3c7af590	0.015317336
113	0xbc93ae30	-0.018027395
114	0xbd0c6ad4	-0.034281567
115	0x3cc63050	0.02419296
116	0x3cbd74d0	0.02312699
117	0xbd519f78	-0.051177472
118	0x3d35655c	0.044286117
119	0x3dd57bda	0.104240134
120	0x3cfa1138	0.030525789
121	0xbd82a736	-0.06379549
122	0xbc99b3e8	-0.018762544
123	0xbd0399bc	-0.032129034
124	0x3dff8eb2	0.12478389
125	0xbd84f17a	-0.064913705
126	0x3d99ab2e	0.07503353
127	0xbdfe9f46	-0.12432723
128	0x3d37e158	0.04489264
129	0xbdf1b328	-0.118017495
130	0xbc5987b0	-0.013276979
131	0xbdc19d9a	-0.09453888
132	0xbdd117b8	-0.10209602
133	0x3cb759e0	0.022381723
134	0x3dbecc76	0.093163416
135	0x3dba0ac0	0.09084082
136	0xbd598f04	-0.053114906
137	0xbd14bb34	-0.036311343
138	0xbcab8b68	-0.020940498
139	0xbb5cc780	-0.0033688247
140	0xbda78b58	-0.081808746
141	0xbb8df180	-0.0043317676
142	0x3d98f48a	0.07468517
143	0x3dd69a4a	0.10478647
144	0x3dc4cf34	0.09609833
145	0xbd78e550	-0.060765564
146	0x3d963b64	0.073355466
147	0x3d881408	0.06644446
148	0x3ddc3500	0.107522964
149	0xbd06be3c	-0.032896265
150	0xbdc35872	-0.09538354
151	0x3c6ca170	0.014442787
152	0x3d854736	0.06507723
153	0xbce7a488	-0.028276697
154	0x3c1e61f0	0.009666905
155	0xbc932458	-0.017961666
156	0xbdd9ba8a	-0.10631283
157	0x3d17105c	0.036880836
158	0x3d02d9d8	0.031946033
159	0x3b2a9d00	0.002603352
160	0xbdd4c39a	-0.103888705
161	0x3d4ce114	0.05001934
162	0x3b9fd340	0.004877478
163	0xbde1abb0	-0.11019075
164	0xbddde0b2	-0.10833873
165	0x3c60b860	0.013715833
166	0x3c726510	0.014794603
167	0x3c23daf0	0.010000929
168	0x3d82217a	0.063540414
169	0xba1b2400	-0.0005918145
170	0x3df3f7fa	0.11912532
171	0xbd11c80c	-0.03559117
172	0xbd9136f0	-0.070905566
173	0xbdb36646	-0.087597415
174	0xbd7a5b80	-0.061122417
175	0x3df685d0	0.120372415
176	0x3d80ac46	0.062828586
177	0xbd3c11f4	-0.04591556
178	0xbdacaaf8	-0.08431047
179	0xbc0933c0	-0.008374155
180	0x3db23ec4	0.08703378
181	0x3df7fda0	0.12108922
182	0xbde94b26	-0.113912866
183	0xbd6f9b30	-0.058497608
184	0xbdd43d52	-0.103632584
185	0xbcbca818	-0.023029372
186	0xbc933dc8	-0.017973796
187	0x3de6c6e8	0.11268407
188	0x3df61a1c	0.12016699
189	0x3dec2bdc	0.11531803
190	0xbd4c32cc	-0.04985313
191	0xbd5ec020	-0.054382443
192	0xbf52ea0a	-0.82388365
193	0xbf099504	-0.53743005
194	0x3eb142bf	0.34621236
195	0x3ebecceb	0.37265715
196	0xbf0de1c8	-0.5542264
197	0x3fa857b6	1.3151767
198	0xbe17bfe8	-0.148193
199	0x3e17759a	0.14790955
200	0xbef186c3	-0.47173128
201	0xbf8fef75	-1.1244951
202	0x3f436a33	0.7633392
203	0x3ea3dd48	0.32004762
204	0x3f2c94e2	0.6741468
205	0xbed90d3f	-0.42392918
206	0xbeb12f4b	-0.34606394
207	0xbec39c29	-0.38205078
208	0x3ea000d8	0.31250644
209	0xbf71206a	-0.94190085
210	0xbebcc9fb	-0.3687285
211	0xbf41d2a1	-0.7571202
212	0xbec6f5de	-0.38859457
213	0x3ebdd9a6	0.37080115
214	0x3fb05605	1.3776251
215	0xbcd49efe	-0.02595472
216	0x3e0e4ca0	0.13896418
217	0xbcedaaaf	-0.029012052
218	0x3f3ca9f6	0.7369684
219	0xbf988a06	-1.1917121
220	0x3ddb19c4	0.10698274
221	0x3f836b66	1.026715
222	0xbfdbb5f6	-1.7164905
223	0xbf62ba14	-0.8856518
224	0x3d605048	0.054764062
225	0xbdb0e9ba	-0.0863833
226	0xbdb4fa48	-0.088368
227	0x3d4ed560	0.05049646
228	0xbd3cdb48	-0.04610756
229	0x3d40e620	0.047094464
230	0x3dc69eaa	0.096982315
231	0xbd388f10	-0.04505831
232	0xbc9989f0	-0.018742532
233	0xbdc8f60e	-0.09812556
234	0xbdc6531c	-0.096838206
235	0x3c88dd20	0.016707003
236	0x3cc4a908	0.024006382
237	0xbdcbdb8e	-0.09953986
238	0xbdd33c42	-0.10314228
239	0x3d84be3c	0.06481597
240	0xbb9f6c60	-0.004865214
241	0x3dd9320a	0.10605247
242	0x3dda115a	0.10647841
243	0x3d1e80c8	0.038697034
244	0xbc7f42c0	-0.015579879
245	0x3d43942c	0.04774873
246	0x3db2cc24	0.08730343
247	0x3dec2dd2	0.11532177
248	0x3dc0d344	0.09415296
249	0xbdd7279c	-0.10505602
250	0xbd85e200	-0.06537247
251	0xbdf441da	-0.11926623
252	0xbde0a6a4	-0.10969284
253	0x3c60a5e0	0.013711423
254	0x3df5858c	0.11988363
255	0x3d0a8098	0.033814043

tgnn._base_tgcn.linear_z.bias f4 [32]
0	0xbee96ed7	-0.45592377
1	0x3ee0ee93	0.43932018
2	0x3df209fa	0.11818309
3	0x3d051cac	0.032498047
4	0xbee68aed	-0.45027867
5	0xbe3b4c29	-0.18290772
6	0xbe90ee30	-0.28306723
7	0x3c7d1da9	0.015448966
8	0xbedcefe7	-0.4315178
9	0x3ccb7d48	0.024840012
10	0xbef191e9	-0.47181633
11	0xbee74743	-0.45171556
12	0xbf169a0e	-0.5882882
13	0xbf0f4f94	-0.559808
14	0xbbc011c0	-0.005861491
15	0x3d8c6e33	0.06856956
16	0x3d792d1c	0.060834035
17	0xbde35078	-0.110993326
18	0xbef0c0b6	-0.47022027
19	0xbed60738	-0.41802382
20	0xbeb7202d	-0.35766736
21	0x3ecff0f8	0.40613532
22	0xbe9ca88a	-0.30597335
23	0xbf0d6aa6	-0.5524086
24	0x3ea02bb4	0.31283343
25	0xbef98967	-0.48737642
26	0x3dbc7f68	0.09203988
27	0xbe51babf	-0.20481394
28	0x3e420bc8	0.18949807
29	0xbefc0b4d	-0.49227372
30	0x3df53c78	0.11974424
31	0xbebab87f	-0.36468884

tgnn._base_tgcn.conv_r.bias f4 [32]
0	0x00000000	0.0
1	0x00000000	0.0
2	0x00000000	0.0
3	0x00000000	0.0
4	0x00000000	0.0
5	0x00000000	0.0
6	0x00000000	0.0
7	0x00000000	0.0
8	0x00000000	0.0
9	0x00000000	0.0
10	0x00000000	0.0
11	0x00000000	0.0
12	0x00000000	0.0
13	0x00000000	0.0
14	0x00000000	0.0
15	0x00000000	0.0
16	0x00000000	0.0
17	0x00000000	0.0
18	0x00000000	0.0
19	0x00000000	0.0
20	0x00000000	0.0
21	0x00000000	0.0
22	0x00000000	0.0
23	0x00000000	0.0
24	0x00000000	0.0
25	0x00000000	0.0
26	0x00000000	0.0
27	0x00000000	0.0
28	0x00000000	0.0
29	0x00000000	0.0
30	0x00000000	0.0
31	0x00000000	0.0

tgnn._base_tgcn.conv_r.lin.weight f4 [32, 3]
0	0x3e2dbb1e	0.16965911
1	0xbd19d140	-0.037553072
2	0x3d6d9168	0.058
3	0x3e9d845b	0.30765042
4	0xbe958766	-0.29204863
5	0xbca54bc0	-0.020177722
6	0xbe0fc728	-0.14040816
7	0xbe90129a	-0.28139192
8	0x3dc07464	0.093972
9	0x3c34dfe0	0.011039704
10	0x3dc5845c	0.09644386
11	0x3ea84d07	0.32871267
12	0xbe9065a7	-0.28202555
13	0xbd1d18a0	-0.038353562
14	0xbde90a64	-0.11378935
15	0x3e802c9b	0.2503403
16	0xbd8f5534	-0.06998673
17	0xbeb94f84	-0.36193478
18	0x3caf6ea0	0.021415055
19	0x3e071ea2	0.13195279
20	0x3e253ebe	0.16137215
21	0xbdced154	-0.1009852
22	0x3e17a1f2	0.14807871
23	0x3d8c5ea8	0.06853992
24	0x3e4e33d6	0.20136961
25	0x3e76bd72	0.24095705
26	0xbe3b6a1a	-0.18302193
27	0xbe903fa0	-0.28173542
28	0x3dbb429c	0.09143564
29	0x3e6e993a	0.23300639
30	0x3e130422	0.14357045
31	0xbe3d30cc	-0.18475646
32	0xbe9c0b49	-0.3047736
33	0x3dbbbb6c	0.09166607
34	0x3e8f6c8f	0.2801251
35	0xbe3e1b77	-0.18565165
36	0xbe735202	-0.23761752
37	0x3ea07dbf	0.31345937
38	0xbec0c99d	-0.3765382
39	0x3e9dcd8f	0.3082089
40	0xbc081760	-0.008306354
41	0x3dfacb5c	0.12245819
42	0xbe173ecc	-0.14770049
43	0xbe81fed0	-0.2538972
44	0x3ec9d953	0.39423618
45	0x3e2a6586	0.1664029
46	0xbda73474	-0.081643015
47	0xbe7794e2	-0.24177888
48	0x3e9a265d	0.30107394
49	0xbe358dc1	-0.17729856
50	0x3e7b6c5e	0.24553058
51	0x3e29eec6	0.16594991
52	0xbe8ad3b4	-0.27114642
53	0x3e2e16fa	0.17000952
54	0xbc5f86e0	-0.013642997
55	0x3e8ce079	0.2751501
56	0xbe34e29d	-0.17664571
57	0xbebe0f98	-0.37121272
58	0xbec97850	-0.39349604
59	0xbe73b836	-0.2380074
60	0x3e906677	0.28203174
61	0xbe7e96b2	-0.24862173
62	0xbdc8c428	-0.09803039
63	0xbc0bf8a0	-0.008543164
64	0xbb1da380	-0.0024053752
65	0xbda0a180	-0.07843304
66	0xbe78de44	-0.24303538
67	0xbd90ab74	-0.07063952
68	0xbe9f1f1e	-0.31078428
69	0xbeb5980f	-0.35467574
70	0x3e77e6fe	0.2420921
71	0xbe5984e0	-0.21242094
72	0x3e77a8ae	0.2418544
73	0xbe479047	-0.19488631
74	0x3e3d2cba	0.18474093
75	0xbd960f64	-0.07327154
76	0xbe1f8030	-0.15576243
77	0x3e3d74b6	0.18501553
78	0x3e1e642e	0.15467903
79	0x3dbd081c	0.09230062
80	0x3b54b580	0.0032456815
81	0xbd8479c8	-0.064685404
82	0xbecdfa35	-0.40229955
83	0xbd95e858	-0.07319707
84	0x3eb1456d	0.3462328
85	0x3e967091	0.29382756
86	0x3dbfee94	0.09371677
87	0x3e4b53f2	0.19856241
88	0xbd4ff650	-0.05077201
89	0xbe836d5e	-0.25669378
90	0xbe36b079	-0.17840756
91	0x3e30cd92	0.17265919
92	0x3ecd9f09	0.40160397
93	0x3e143f96	0.14477381
94	0xbd782570	-0.06058258
95	0xbeb693d6	-0.35659665

tgnn._base_tgcn.linear_r.weight f4 [32, 64]
0	0xbd970bf8	-0.0737533
1	0x3ceae498	0.028673455
2	0xbd037fe8	-0.032104403
3	0xbdfe962e	-0.12430988
4	0x3cc3bbe8	0.023893312
5	0x3d472720	0.048621297
6	0x3dcb6352	0.09931053
7	0xbd6555ac	-0.055989906
8	0x3dad23f2	0.08454122
9	0xbde136a2	-0.109967485
10	0x3cdda940	0.027058244
11	0x3cab0898	0.020878121
12	0xbdbc6012	-0.091980115
13	0x3d76ede4	0.060285464
14	0x3de20d46	0.11037688
15	0xbd805a34	-0.06267205
16	0xbd2f4608	-0.042791396
17	0x3c941060	0.018074214
18	0x3db702f4	0.0893611
19	0xbd8e6246	-0.06952338
20	0xbd435ea4	-0.04769768
21	0x3d373864	0.044731513
22	0x3d271ac0	0.040796995
23	0x3d72c288	0.05926755
24	0x3dcc53e4	0.09976938
25	0x3de806dc	0.11329433
26	0x3db67b4c	0.08910236
27	0x3d6b40c8	0.057434827
28	0x3d9384ee	0.07203089
29	0x3d99833c	0.07495734
30	0xbde128e2	-0.10994126
31	0x3b8fd180	0.004388988
32	0xbdd6af22	-0.10482623
33	0x3cbc22c0	0.022965789
34	0x3d5b78b0	0.053581893
35	0xbd720358	-0.05908522
36	0x3ddf665a	0.10908194
37	0x3d61f370	0.0551638
38	0x3d5f8cc0	0.05457759
39	0x3c30be30	0.010787532
40	0xbd70a9e4	-0.05875577
41	0x3cca8908	0.024723545
42	0x3d8e736a	0.06955607
43	0x3dc73ab4	0.097279936
44	0x3dd2c8a8	0.102921784
45	0x3d8c7f9a	0.068602756
46	0x3da0a05e	0.078430876
47	0xbd8dfc74	-0.06932917
48	0xbc9e22a0	-0.01930362
49	0xbd170994	-0.03687437
50	0x3da727a4	0.08161858
51	0xbdb7fa1e	-0.08983253
52	0x3dcff0e8	0.10153371
53	0xbc98ec40	-0.01866734
54	0x3df26fcc	0.1183773
55	0x3d22a514	0.039708212
56	0x3dc75700	0.09733391
57	0xbd0b7104	-0.034043327
58	0x3dd2a194	0.10284725
59	0xbda48dfa	-0.080348924
60	0x3c7b7530	0.015347764
61	0x3b14dc00	0.0022714138
62	0x3df9960e	0.12186824
63	0x3d0200ec	0.03173916
64	0xbd265380	-0.040606976
65	0xbd9a776e	-0.07542311
66	0x3dc64a0c	0.09682092
67	0xbd58f44c	-0.052967355
68	0xbd967008	-0.07345587
69	0xbdfb1ce6	-0.12261371
70	0xbc366e50	-0.011134699
71	0xbdcaceec	-0.099027485
72	0xbcba5e58	-0.022750065
73	0xbd8849e2	-0.06654717
74	0x3dfc6a38	0.12324947
75	0xbd9c8546	-0.076426074
76	0x3dad3030	0.08456457
77	0x3de936b8	0.1138739
78	0x3da30e68	0.07961732
79	0xbc8b27f8	-0.016986832
80	0xbcd47cf8	-0.025938496
81	0x3dcbc44c	0.0994955
82	0x3d9edac8	0.07756573
83	0xbd13f334	-0.03612061
84	0x3dff3852	0.12461914
85	0xbdba6e5c	-0.09103081
86	0x3da1f6ca	0.079083994
87	0xbb9b4420	-0.0047383457
88	0x3d289d20	0.04116547
89	0x3de4afea	0.111663654
90	0x3dee535e	0.11636995
91	0xbcbca678	-0.023028597
92	0xbda7c654	-0.08192125
93	0x3dbd3204	0.09238055
94	0x3dc18e04	0.094509155
95	0x3db830f6	0.089937136
96	0x3d9bb826	0.07603483
97	0x3d429468	0.047504812
98	0x3db2d5d0	0.08732188
99	0xbdd1f0c6	-0.10251002
100	0x3d1ec5a0	0.03876269
101	0x3dfa2d04	0.12215617
102	0x3da72522	0.081613794
103	0x3d094174	0.033509687
104	0xbdf23890	-0.11827195
105	0x3df27578	0.11838812
106	0xbd931e0a	-0.07183464
107	0xbdcb000a	-0.09912117
108	0x3dc13996	0.09434812
109	0xbd553c54	-0.052059487
110	0x3d435e94	0.04769762
111	0x3d1b2e1c	0.03788577
112	0x3c32f150	0.010921791
113	0xbd396e2c	-0.045271084
114	0xbdd3d532	-0.10343398
115	0x3df7b774	0.12095538
116	0xbc844628	-0.016146734
117	0x3d7d3bb8	0.06182453
118	0xbccb6920	-0.024830401
119	0x3ded9cc6	0.11602168
120	0x3dd4eaac	0.103963226
121	0xbd9ffd06	-0.07811932
122	0xbdf6d692	-0.12052645
123	0x3d0ee4fc	0.034886345
124	0xbc1a6d90	-0.009425536
125	0xbcb2baf8	-0.02181767
126	0xbdfc3794	-0.12315288
127	0xbdc2fd28	-0.09520942
128	0x3d5f4618	0.054510206
129	0xbc6467e0	-0.013940781
130	0x3dc343e8	0.095344365
131	0x3d92957a	0.07157417
132	0x3d3ff5e0	0.046865344
133	0x3ca599c0	0.020214915
134	0xbca9f0a8	-0.020744637
135	0x3ca76930	0.0204359
136	0x3db8f19a	0.09030457
137	0xbd194b1c	-0.037425146
138	0x3d808a24	0.06276348
139	0x3d9b82ac	0.07593283
140	0x3dafa004	0.085754424
141	0xbb451cc0	-0.003007695
142	0xbddfbede	-0.10925077
143	0x3d5d7db0	0.054074943
144	0x3df5d726	0.12003927
145	0x3c9cab98	0.019124791
146	0xbd40aadc	-0.047037944
147	0x3bce6620	0.0062987953
148	0xbd363bd4	-0.04449065
149	0xbb9bfe80	-0.0047605634
150	0xbd8be8e6	-0.06831531
151	0xbd1fffe0	-0.03906238
152	0x3d12e5d4	0.035863712
153	0xbca72490	-0.020403177
154	0xbda37908	-0.07982069
155	0xbd8b6eb0	-0.06808221
156	0x3cc7f1e0	0.024407327
157	0xbdb69b60	-0.08916354
158	0x3dc8820c	0.097904295
159	0x3daa62de	0.08319639
160	0xbc0cd650	-0.008596018
161	0x3d593e40	0.05303788
162	0xbda1dc6c	-0.0790337
163	0x3db182bc	0.08667514
164	0xbd778ee0	-0.06043899
165	0xbdecafa8	-0.11556941
166	0xbd636510	-0.055516303
167	0x3d8fe710	0.070264935
168	0xbd02128c	-0.03175597
169	0xbbf7a6c0	-0.00755772
170	0xbda40470	-0.08008659
171	0x3d9b4382	0.075812355
172	0xbdfcb68c	-0.123395056
173	0x3d10e204	0.035371795
174	0xbde81e64	-0.113339216
175	0x3db0003c	0.08593795
176	0x3d13c358	0.036074966
177	0xbd707274	-0.0587029
178	0x3b4c4400	0.003116846
179	0xbcd69f68	-0.026199058
180	0xbd6efbf8	-0.058345765
181	0x3de01ad4	0.10942617
182	0xbde05204	-0.10953143
183	0xbc006000	-0.007835388
184	0x3de3fc48	0.11132103
185	0x3ce363a0	0.027757466
186	0xbdd1f064	-0.10250929
187	0xbde0b8a0	-0.109727144
188	0x3bd88c80	0.006608546
189	0x3d3ce7ec	0.046119615
190	0xbd3b4ff8	-0.04573056
191	0xbdb057ee	-0.08610521
192	0x3afe5280	0.0019403249
193	0x3d12e97c	0.0358672
194	0xbdcf9854	-0.10136476
195	0xbdbc2412	-0.09186567
196	0x3c9187c0	0.017764926
197	0xbda543fc	-0.080696076
198	0xbcead9e8	-0.028668359
199	0xbd664fcc	-0.056228444
200	0x3d7df264	0.06199874
201	0x3dba98e4	0.09111193
202	0xbdf9553e	-0.12174462
203	0x3df50906	0.11964612
204	0x3def95c2	0.11698486
205	0xbde4aa30	-0.11165273
206	0x3da3929e	0.079869494
207	0xbd043d60	-0.032285094
208	0xbd1a90ac	-0.037735626
209	0x3d842178	0.06451696
210	0x3d9d21ce	0.07672463
211	0xbc896fc8	-0.016776934
212	0x3dfb4832	0.122696295
213	0xbdda1364	-0.1064823
214	0xbcdc1398	-0.026864812
215	0xbd776ec8	-0.060408384
216	0xbde0b87c	-0.109726876
217	0x3dff3f20	0.12463212
218	0xbdbb4a14	-0.09144989
219	0xbdb5c16c	-0.08874783
220	0xbdba0acc	-0.090840906
221	0x3d8efa94	0.06981388
222	0xbdca9978	-0.09892553
223	0x3cc4e560	0.024035156
224	0x3dbaa912	0.09114279
225	0x3d23c404	0.039981857
226	0xbcf4e1c0	-0.029892802
227	0xbda5bf1a	-0.0809309
228	0x3dcec654	0.10096422
229	0xbd640ffc	-0.055679306
230	0xbcd4f960	-0.025997818
231	0x3da38822	0.0798495
232	0xbd6f9484	-0.058491245
233	0x3dab87ae	0.08375488
234	0xbdecb038	-0.115570486
235	0x3d91e0ea	0.07122977
236	0x3d774814	0.060371473
237	0x3cfcf620	0.03087908
238	0x3ca51b40	0.020154595
239	0xbb2aa540	-0.0026038438
240	0x3d07de9c	0.03317128
241	0xbda25564	-0.07926443
242	0xbdc66b2c	-0.0968841
243	0xbd94552e	-0.07242809
244	0xbd6e50e4	-0.058182612
245	0x3d78e29c	0.060762987
246	0xbdbf6744	-0.09345868
247	0x3cb6e2b8	0.022324905
248	0xbc80d798	-0.015727803
249	0xbc8b2b18	-0.016988322
250	0x3cb6c680	0.022311449
251	0xbcce8de8	-0.02521415
252	0x3d99cff2	0.075103655
253	0xbd0b6298	-0.034029573
254	0xbdbc9bac	-0.092093796
255	0x3c7c4f80	0.015399814

tgnn._base_tgcn.linear_r.bias f4 [32]
0	0x3d978a1c	0.07399389
1	0xbdd0004e	-0.10156308
2	0xbd7a3594	-0.061086252
3	0x3d4da5b0	0.05020684
4	0x3d8815f2	0.06644811
5	0xbc6e6000	-0.014549255
6	0x3d8bdee4	0.068296224
7	0x3c195df0	0.009360775
8	0xbb1abfc0	-0.0023612827
9	0xbdf94ed4	-0.121732384
10	0xbdf20b78	-0.11818594
11	0x3ddfce3c	0.10928008
12	0x3d54e408	0.05197528
13	0xbdedb93e	-0.11607598
14	0x3d70b454	0.058765724
15	0xbd37261c	-0.04471408
16	0x3d1967b0	0.0374524
17	0x3d8a3e72	0.06750192
18	0x3d087a58	0.0333198
19	0xbc9cb9f0	-0.01913163
20	0xbdb530ae	-0.088471755
21	0x3d3941d8	0.04522881
22	0xbd577730	-0.0526039
23	0xbdd9b9ec	-0.10631165
24	0xbdd5dafe	-0.1044216
25	0x3d67382c	0.056450054
26	0x3dfe8ffc	0.124298066
27	0x3a7eb300	0.0009716004
28	0x3dca6b2a	0.09883721
29	0x3d139bb0	0.036037147
30	0x3d844db6	0.06460135
31	0x3d8d4022	0.06896998

tgnn._base_tgcn.conv_h.bias f4 [32]
0	0x3e9fec5d	0.31235018
1	0x3d360235	0.0444357
2	0xbe5fc2e7	-0.21851693
3	0xbdba58d4	-0.09098974
4	0x3e211423	0.15730338
5	0xbefce05f	-0.49389932
6	0x3e87c1cc	0.26515043
7	0x3e8b5c7c	0.27218997
8	0x3ef8c43e	0.4858722
9	0xbc1d64cd	-0.009606552
10	0xbe7f2fb0	-0.24920535
11	0x3e203c88	0.15648091
12	0xbec981bc	-0.39356792
13	0xbb8a7d60	-0.0042263716
14	0x3df97d77	0.12182134
15	0xbedb5745	-0.4284002
16	0x3c14e242	0.009087147
17	0xbe8e73cc	-0.2782272
18	0x3e69608f	0.2279074
19	0xbdbc30e2	-0.09189011
20	0x3dbaa0b6	0.091126844
21	0x3ef2293a	0.47297078
22	0x3d91e71a	0.07124157
23	0x3cfd760e	0.030940082
24	0xbe4f436c	-0.20240563
25	0x3e2c66fb	0.16836159
26	0xbe46d4a1	-0.19417049
27	0x3e86f5d0	0.26359415
28	0x3ed3a025	0.41333118
29	0x3ed522a8	0.41628003
30	0xbe51ff21	-0.2050748
31	0xbb451dfa	-0.0030077682

tgnn._base_tgcn.conv_h.lin.weight f4 [32, 3]
0	0x3e4d2640	0.20034122
1	0xbf2a58e7	-0.66541904
2	0x3fbe0316	1.4844692
3	0xbe9ec4ea	-0.31009609
4	0xbf86985d	-1.0515248
5	0x3f53e184	0.82765985
6	0xbe59f19c	-0.21283573
7	0xbe482e22	-0.19548848
8	0x3fffa9ed	1.9973732
9	0xbd029ef1	-0.03188986
10	0x3f81ce19	1.0141021
11	0xbf2e4223	-0.68069667
12	0x3e2fd554	0.17171222
13	0x3f3508d2	0.70716584
14	0xbf9cca41	-1.2249223
15	0x3ef2e9c8	0.47443986
16	0x3eb59874	0.35467875
17	0xbf0c4062	-0.5478574
18	0xbf06d789	-0.5267263
19	0xbf17aca7	-0.5924782
20	0x3f105323	0.56376857
21	0xbefe9283	-0.49721155
22	0xbeacd2d2	-0.33754593
23	0x3f8b0e24	1.086369
24	0x3b4e2a2c	0.0031458242
25	0x3f2dd9c5	0.67910415
26	0xbcde332a	-0.027124006
27	0x3cfa6217	0.030564351
28	0xbf8c7c17	-1.0975369
29	0x3f6b9d88	0.9203725
30	0x3f2b73dc	0.6697366
31	0x3eb95d72	0.36204106
32	0xbf977265	-1.1831785
33	0xbefde551	-0.49589017
34	0xbf80d6d7	-1.0065564
35	0xbdf54145	-0.1197534
36	0xbcdaaabb	-0.026692739
37	0x3f293e40	0.6611061
38	0xbefaee65	-0.49010006
39	0x3f163de7	0.58688205
40	0x3f934021	1.1503946
41	0xbe103279	-0.14081754
42	0x3e1cb56f	0.15303586
43	0xbf1c26d1	-0.6099673
44	0x3fda8123	1.7070659
45	0xbdc2e249	-0.09515817
46	0xbed30213	-0.4121252
47	0xbfcb7764	-1.589581
48	0xbf2e7ee8	-0.68162394
49	0x3d04a178	0.03238055
50	0x3fbf6d2a	1.4955189
51	0xbecd7901	-0.4013138
52	0xbf55acc6	-0.83466756
53	0xbf59f406	-0.85137975
54	0xbe01be5b	-0.12670271
55	0xbf42044f	-0.75787824
56	0x3f5980af	0.8496198
57	0x3db2be8f	0.087277524
58	0x3f9629fa	1.173156
59	0x3e11b670	0.1422975
60	0xbe0c59b7	-0.13706098
61	0xbf8a3f02	-1.0800478
62	0xbe9dc8a1	-0.3081713
63	0x3e1bf617	0.15230595
64	0x3e482624	0.195458
65	0x3fa56a0a	1.2922986
66	0x3f2e81a2	0.68166554
67	0x3f8631fc	1.0484004
68	0x3fbda175	1.4814898
69	0xbea19663	-0.31560048
70	0xbf70b460	-0.9402523
71	0x3f97aa3e	1.1848829
72	0x3ea87d27	0.32907984
73	0x3f0f7f84	0.5605395
74	0xbf8114f0	-1.0084515
75	0x3e0ee303	0.13953786
76	0xbf05ff5a	-0.5234276
77	0x3fcd6f35	1.6049563
78	0xbe12bc6d	-0.14329691
79	0xbf885357	-1.0650433
80	0xbf0997b6	-0.5374712
81	0xbec7f694	-0.39055312
82	0xbe426786	-0.18984804
83	0x3fb08ede	1.37936
84	0x3b8f075f	0.0043648924
85	0xbea8febc	-0.33006847
86	0x3fd3d182	1.6548312
87	0xbecf7692	-0.4052015
88	0x3f288233	0.6582367
89	0x3fa4ef6e	1.2885568
90	0x3f11cf3b	0.56956834
91	0x3ec3926a	0.38197643
92	0xbfad1d6f	-1.3524607
93	0xbd56adce	-0.052411847
94	0xbf92dcab	-1.1473593
95	0x3f350b5d	0.70720464

tgnn._base_tgcn.linear_h.weight f4 [32, 64]
0	0xbec15d3b	-0.37766442
1	0xbf613dae	-0.8798474
2	0xbf0ded35	-0.55440074
3	0x3f98385f	1.1892203
4	0x3f620b7c	0.88298774
5	0x3eb36d0f	0.35044143
6	0xbf3b4e83	-0.73166674
7	0xbf1f9413	-0.6233532
8	0x3f0d5ccb	0.55219716
9	0xbf957c93	-1.1678642
10	0x3f10241a	0.56305087
11	0xbf71e48a	-0.9448935
12	0x3e97a828	0.2962048
13	0x3f4efb70	0.80852413
14	0xbf0ab896	-0.54187906
15	0xbed1f4d9	-0.41007116
16	0xbf06bb23	-0.526293
17	0xbf112bf2	-0.5670768
18	0xbf391ea3	-0.7231237
19	0x3f98c183	1.1934055
20	0xbf6bd231	-0.921176
21	0x3e6bcf56	0.23028311
22	0x3f06d60c	0.5267036
23	0xbf918f2d	-1.1371819
24	0x3f2b0d14	0.6681683
25	0xbea76d5d	-0.32700625
26	0xbf46f3e5	-0.77715904
27	0xbec86a2d	-0.39143506
28	0xbd493799	-0.049125288
29	0x3ed0db19	0.40792158
30	0x3f01324e	0.50467384
31	0xbf8719af	-1.0554713
32	0xbd84e00e	-0.064880475
33	0x3db3566a	0.087567165
34	0x3da49d12	0.08037771
35	0xbd7ff0ac	-0.062485382
36	0xbd1ca27c	-0.038240895
37	0xbd9ca39e	-0.07648395
38	0x3dec9c56	0.11553256
39	0xbd605348	-0.054766923
40	0x3d795800	0.06087494
41	0xbd125124	-0.035721913
42	0x3dc82b7e	0.097739205
43	0x3dd31a38	0.10307735
44	0x3dc5118a	0.09622486
45	0x3c986d28	0.018606737
46	0x3d47c950	0.04877597
47	0x3cc09158	0.023506805
48	0xbcda7b08	-0.026669994
49	0xbd5757d8	-0.05257401
50	0x3bebc0a0	0.0071945935
51	0xbd9cf302	-0.076635376
52	0xbdb81144	-0.08987668
53	0xbdaecbb2	-0.085349455
54	0x3d6e604c	0.058197305
55	0xbc1faed0	-0.009746268
56	0x3de68c24	0.112571985
57	0x3d979efc	0.07403371
58	0x3d598bc4	0.053111807
59	0xbd197eac	-0.03747432
60	0xbdccfd02	-0.10009195
61	0x3deb8790	0.11500466
62	0x3b203780	0.0024447143
63	0xbde0b286	-0.10971551
64	0x3f2bbfee	0.67089736
65	0x3eb48148	0.35254884
66	0x3e5a480e	0.21316549
67	0xbfb5594d	-1.4167877
68	0xbebe6968	-0.37189794
69	0xbe80e09e	-0.2517137
70	0x3ec609fa	0.38679487
71	0x3eec032f	0.4609618
72	0xbd1409c6	-0.036142133
73	0x3f56e66c	0.83945346
74	0xbe62978b	-0.22128122
75	0x3e7109c8	0.23538888
76	0xbed47374	-0.41494334
77	0xbe82a71c	-0.2551812
78	0x3f5a9b29	0.85393006
79	0xbe32c554	-0.17458087
80	0x3d60c366	0.054873846
81	0x3de7e050	0.11322081
82	0x3fad3f13	1.3534874
83	0xbee8c509	-0.45462826
84	0x3e8e7dea	0.2783044
85	0x3e120398	0.14259183
86	0x3d4b9f32	0.049712367
87	0x3eafbb6f	0.34322688
88	0xbf3b259f	-0.7310428
89	0x3f3d625d	0.73978215
90	0x3e39eec6	0.18157491
91	0x3f1e8432	0.61920464
92	0x3eb68f3e	0.3565616
93	0xbd344908	-0.04401496
94	0xbedb5fb4	-0.42846453
95	0x3f47a295	0.77982455
96	0xbdb64c3a	-0.08901258
97	0xbc54ed40	-0.012996018
98	0xbdf54bb6	-0.11977331
99	0x3cac22e0	0.021012723
100	0xbd86b9e8	-0.065784276
101	0x3d64aff8	0.05583188
102	0xbda634da	-0.081155494
103	0xbd80683c	-0.06269881
104	0x3bd2bc00	0.0064311028
105	0x3bde7360	0.006788656
106	0x3db888bc	0.09010455
107	0xbaac2f00	-0.0013136566
108	0x3d3e5290	0.046465456
109	0x3da3c0dc	0.079957694
110	0xbdab2a68	-0.08357698
111	0x3d9ebf04	0.07751277
112	0xbd56d99c	-0.052453622
113	0x3c6a97c0	0.014318407
114	0x3cd62648	0.0261413
115	0x3cc21960	0.02369374
116	0x3ceece50	0.029151112
117	0x3d3a5ed4	0.04550059
118	0xbda88054	-0.08227602
119	0x3d00bbd0	0.031429112
120	0xbc929a28	-0.017895773
121	0x3d96cc68	0.07363206
122	0xbd907bc2	-0.07054855
123	0x3d21f8b0	0.039543808
124	0x3d5a8e54	0.05335839
125	0xbd5403ec	-0.051761553
126	0xbda9106a	-0.08255084
127	0x3dbb045a	0.09131689
128	0x3de5d3a4	0.11222008
129	0x3da7aef6	0.08187668
130	0xbdc55a36	-0.09636347
131	0x3d3d6fe4	0.046249285
132	0xbdcd638c	-0.10028753
133	0xbc88b3a8	-0.01668723
134	0xbdd2ed7c	-0.10299203
135	0x3d889688	0.066693366
136	0x3d9cfb1a	0.07665081
137	0x3da3c694	0.0799686
138	0xbd6b8dd4	-0.057508305
139	0x3df02b22	0.11726977
140	0x3db6bb82	0.08922483
141	0x3c8499c0	0.016186595
142	0xbdbdf162	-0.09274556
143	0x3d928830	0.07154882
144	0x3d15f8d0	0.03661424
145	0x3c0f7990	0.00875701
146	0xbdfa71aa	-0.12228711
147	0xbd974eba	-0.07388063
148	0xbc733e90	-0.014846459
149	0xbdea13ee	-0.114295825
150	0x3db4cbb4	0.08827916
151	0xbcc78858	-0.024357006
152	0xbc9a9d88	-0.018873945
153	0x3d2dc4e8	0.042424113
154	0x3d56e470	0.05246395
155	0xbd9e924c	-0.07742748
156	0x3c9cd498	0.019144341
157	0xbd7349d4	-0.05939658
158	0xbdd89d06	-0.10576825
159	0x3dfcf228	0.12350875
160	0x3cfb0558	0.030642197
161	0xbdae4e70	-0.085110545
162	0xbd8d94b8	-0.069131315
163	0x3d0fd70c	0.035117194
164	0xbdee355a	-0.1163127
165	0xbd2f9d50	-0.042874634
166	0x3da940c4	0.08264306
167	0xbd9bd304	-0.076086074
168	0x3dd230f4	0.10263243
169	0x3d282b9c	0.041057214
170	0xbdd3eb7a	-0.10347648
171	0x3d57ab38	0.05265352
172	0x3df3fe76	0.11913769
173	0x3d4add74	0.0495276
174	0x3dd26c58	0.10274571
175	0xbad36200	-0.0016127229
176	0xbdc09e72	-0.09405221
177	0x3d2487e4	0.040168658
178	0x3d0369a0	0.032083154
179	0x3d59d578	0.053182095
180	0xbca16128	-0.019699648
181	0xbd80a404	-0.062812835
182	0x3d13bf44	0.036071077
183	0xbdc045a4	-0.09388283
184	0x3dd41af0	0.103567004
185	0xbd546054	-0.05184968
186	0xbdffff44	-0.1249986
187	0x3d902bda	0.07039614
188	0x3bd17620	0.0063922554
189	0xbd23f020	-0.040023923
190	0xbd390864	-0.045174018
191	0xbda7f022	-0.082000986
192	0x3ef9530e	0.48696178
193	0x3cb1ae14	0.021689452
194	0x3f6712ad	0.9026287
195	0xbdc037f6	-0.09385674
196	0xbe93b4f6	-0.28849
197	0x3f2f639e	0.6851138
198	0xbe08f437	-0.1337441
199	0x3dfc5b14	0.12322059
200	0x3ca3a90a	0.019978065
201	0x3e1e432c	0.15455312
202	0xbd4c873a	-0.04993365
203	0xbed62aec	-0.41829622
204	0x3e8a6511	0.27030233
205	0x3e31a2ff	0.17347334
206	0x3f80ea31	1.007147
207	0xbf08255d	-0.5318201
208	0x3ef3f0e2	0.47644717
209	0xbe952d51	-0.29136136
210	0x3db7b2a6	0.08969621
211	0x3e8d492f	0.27594897
212	0xbea10853	-0.31451663
213	0x3ebab0b4	0.3646294
214	0x3ec54eec	0.38536775
215	0x3e2e39fc	0.17014307
216	0xbdb7992e	-0.089647636
217	0x3f5b9e0f	0.85788053
218	0xbe951ed6	-0.29125088
219	0x3f0a5fab	0.5405223
220	0x3f20f868	0.6287904
221	0x3f03beeb	0.5146319
222	0xbe8cbb1b	-0.274865
223	0xbc713de6	-0.01472423
224	0xbc96cd40	-0.018408418
225	0x3dab4216	0.08362214
226	0x3d4ba14c	0.04971437
227	0x3df22a24	0.11824444
228	0xbd281404	-0.041034713
229	0xbd6ecf48	-0.058303148
230	0xbca8ed58	-0.020620987
231	0x3dce4cea	0.10073264
232	0x3dcc16f6	0.09965317
233	0xbd83bb9c	-0.06432268
234	0x3df00750	0.11720145
235	0x3d995782	0.07487394
236	0x3d452908	0.048134834
237	0xbc653130	-0.013988778
238	0x3db54d02	0.08852579
239	0x3d8e4334	0.06946412
240	0x3d9c9006	0.07644658
241	0x3d16424c	0.03668432
242	0xbcd80648	-0.026370183
243	0x3d818732	0.063246146
244	0xbdb573b8	-0.08859962
245	0x3b8ae360	0.004238531
246	0xbdb3aa14	-0.08772674
247	0x3ca22f40	0.019797921
248	0x3dd52eee	0.10409342
249	0xbdeb2824	-0.114822656
250	0xbd057d9c	-0.032590494
251	0xbde08576	-0.10962956
252	0xbdc79e9c	-0.09747049
253	0x3d917008	0.071014464
254	0x3b187700	0.002326429
255	0x3c6d59b0	0.014486715

tgnn._base_tgcn.linear_h.bias f4 [32]
0	0x3e78007a	0.24218932
1	0x3e801620	0.2501688
2	0xbdb67e32	-0.089107886
3	0xbdc7c686	-0.09754662
4	0x3e770a8a	0.24125114
5	0x3f03af0f	0.51438993
6	0x3d98453d	0.07435081
7	0xbdd97f03	-0.10619929
8	0x3e605ae1	0.21909668
9	0x3f190095	0.59766513
10	0x3e3854de	0.18001124
11	0x3e74a4d3	0.23891
12	0x3e5cc9a8	0.21561301
13	0x3eb4dd8f	0.35325286
14	0xbccf3cb1	-0.025297495
15	0xbe015309	-0.12629332
16	0xbdaaaba8	-0.08333522
17	0xbce08178	-0.027405486
18	0x3e230f69	0.15923847
19	0x3ed27d7b	0.4111136
20	0x3ef4a223	0.4777995
21	0xbec68798	-0.38775325
22	0x3e4d5ac9	0.20054163
23	0x3e5fd4bf	0.218585
24	0x3e2d17b4	0.16903573
25	0x3f1e877b	0.61925477
26	0x3f2687f6	0.6505121
27	0x3f18a324	0.5962393
28	0x3e8d7e01	0.27635196
29	0x3e2f2c1c	0.1710667
30	0xbb634197	-0.0034676546
31	0x3ea53af9	0.32271555

linear.weight f4 [16, 32]
0	0x3eab8fa1	0.33508018
1	0xbec575a6	-0.3856632
2	0xbde4321f	-0.11142372
3	0x3f6408d7	0.8907599
4	0x3ebde1d7	0.37086365
5	0xbf140943	-0.5782663
6	0x3e9769f2	0.29573017
7	0xbd541f80	-0.051787853
8	0x3ecdfc65	0.40231624
9	0xbf53e171	-0.8276587
10	0x3e9568a4	0.29181397
11	0x3ec44f68	0.38341832
12	0x3ee6e0b1	0.450933
13	0xbeb83862	-0.35980517
14	0x3d620fc6	0.055190824
15	0x3dbc55ba	0.091960385
16	0x3c8bcec0	0.01706636
17	0xbde9bcde	-0.11412977
18	0x3f0a8278	0.5410533
19	0xbe858889	-0.2608073
20	0xbee7a700	-0.45244598
21	0xbf6dfe86	-0.92966497
22	0x3ef3a364	0.47585595
23	0x3e3e7270	0.18598342
24	0xbee9cdcc	-0.45664823
25	0xbf36bbf5	-0.7138055
26	0xbf2bbe9c	-0.6708772
27	0xbf12bfe7	-0.5732407
28	0xbf090312	-0.5352031
29	0x3e899a91	0.26875737
30	0x3da4d7a8	0.08048946
31	0x3cd24ba3	0.025670832
32	0x3e73d768	0.2381264
33	0xbefbd620	-0.49186802
34	0x3d2f3b5c	0.04278122
35	0x3f445f51	0.7670794
36	0x3eaa75be	0.33292955
37	0xbf10a56d	-0.5650242
38	0x3ea76e2a	0.32701236
39	0xbd30468e	-0.043036036
40	0x3f0c8be8	0.5490098
41	0xbf48ef79	-0.78490406
42	0x3ee3f8ea	0.44525844
43	0x3e93ffe0	0.28906155
44	0x3ec6243d	0.38699523
45	0xbeb0e003	-0.34545907
46	0xbde6732d	-0.11252437
47	0x3df094b5	0.117471136
48	0x3d155a9c	0.036463365
49	0xbd623948	-0.05523041
50	0x3f13940b	0.5764777
51	0xbea7d0df	-0.32776543
52	0xbf098bfc	-0.53729224
53	0xbf85b201	-1.0444947
54	0x3ea0dbd2	0.3141771
55	0x3f0321d4	0.5122349
56	0xbea672e2	-0.32509524
57	0xbf3db3ff	-0.7410278
58	0xbf25c639	-0.6475559
59	0xbf1e7475	-0.6189645
60	0xbf39ab42	-0.72526944
61	0x3e98c693	0.29839
62	0x3e066249	0.1312343
63	0x3e577cec	0.21043748
64	0x3f07add2	0.52999604
65	0xbede9819	-0.43475416
66	0xbdecae30	-0.11556661
67	0x3f27ea4a	0.6559187
68	0x3e90582e	0.28192276
69	0xbefd5064	-0.49475396
70	0x3f10244e	0.56305397
71	0xbdd6f8b3	-0.10496654
72	0x3ea13576	0.314861
73	0xbf49262d	-0.78573877
74	0x3e894d1d	0.26816645
75	0x3ef4cbc7	0.4781172
76	0x3eb026cb	0.34404597
77	0xbecb6f6c	-0.39733446
78	0x3d19edae	0.037580185
79	0x3d6f94a6	0.05849137
80	0xbe0eb946	-0.13937864
81	0xbe1508d6	-0.14554152
82	0x3ea0dd2e	0.31418747
83	0xbf054b67	-0.5206818
84	0xbf1ba5b4	-0.6079972
85	0xbf9766de	-1.1828268
86	0x3efa5a3c	0.48896968
87	0x3ec9c7cc	0.39410245
88	0xbf3dbf77	-0.7412028
89	0xbf12515b	-0.5715539
90	0xbf2ad3fa	-0.667297
91	0xbf369e2d	-0.7133511
92	0xbf0b562f	-0.5442838
93	0x3f022366	0.50835264
94	0x3ac7ea4b	0.001525232
95	0x3e0bc642	0.13649848
96	0x3ed9612d	0.42456952
97	0xbf1b4ef3	-0.6066734
98	0x3c015b60	0.007895321
99	0x3f05cfcc	0.522702
100	0x3ed2fd33	0.412088
101	0xbec0ce5c	-0.3765744
102	0x3e97b35b	0.29629025
103	0x3d339237	0.043840613
104	0x3eb584f4	0.35452998
105	0xbf49a570	-0.7876806
106	0x3ed6ab7b	0.41927704
107	0x3ea592a7	0.3233845
108	0x3ed1caa9	0.4097493
109	0xbf0fc24d	-0.56155854
110	0x3d3e1e79	0.04641578
111	0xbe0fdce6	-0.1404911
112	0x3e3424e9	0.17592205
113	0x3dfd0c2a	0.12355836
114	0x3ed74d55	0.42051187
115	0xbf0dc077	-0.55371803
116	0xbf123e12	-0.5712596
117	0xbfa7c324	-1.3106427
118	0x3f18897d	0.5958479
119	0x3f11727a	0.568153
120	0xbf23e9f8	-0.64028883
121	0xbf23fdc8	-0.64059114
122	0xbf37fef4	-0.718734
123	0xbf2f0b4a	-0.683766
124	0xbf29da84	-0.66349053
125	0x3e6ecbbb	0.23319905
126	0xbd368b62	-0.04456652
127	0x3ec6439b	0.38723454
128	0x3ec7ba18	0.39009166
129	0xbf2d9c78	-0.6781688
130	0xbd6c1fc0	-0.057647467
131	0x3e2cc43f	0.16871737
132	0x3ebbe4b3	0.3669792
133	0xbf09580b	-0.5364997
134	0x3ef870b4	0.48523486
135	0x3db2e958	0.08735913
136	0x3f10370f	0.5633401
137	0xbf2f472d	-0.6846798
138	0x3f08ef37	0.5349001
139	0x3ed4a389	0.41531017
140	0x3ec8c221	0.3921061
141	0xbec03662	-0.3754149
142	0x3b925c09	0.004466538
143	0xbdc24e75	-0.09487621
144	0x3e32f501	0.17476274
145	0x3dd6be0a	0.10485466
146	0x3ee408d0	0.44537973
147	0xbefb6245	-0.4909841
148	0xbf14897f	-0.580223
149	0xbfafb267	-1.3726319
150	0x3e91759f	0.2841005
151	0x3f08c47a	0.534248
152	0xbf34fa06	-0.70694005
153	0xbf4da066	-0.80322874
154	0xbf229a96	-0.6351713
155	0xbf18aff8	-0.59643507
156	0xbf4f7442	-0.8103677
157	0x3e57631b	0.210339
158	0x3bda1310	0.0066551045
159	0x3f04d34b	0.5188491
160	0x3f192f82	0.59838116
161	0xbf429a18	-0.7601638
162	0x3e2ac425	0.16676386
163	0x3de68d5b	0.1125743
164	0x3ebec865	0.37262264
165	0xbf45e6c8	-0.7730527
166	0x3f11e5be	0.56991184
167	0xbd18e6df	-0.03732955
168	0x3e9f2f85	0.31090942
169	0xbf298005	-0.6621097
170	0x3e926c33	0.28598174
171	0x3eddc7f7	0.43316624
172	0x3f1b16b4	0.6058152
173	0xbef3dc88	-0.4762919
174	0xbc1e9958	-0.009680115
175	0x3ddf83ab	0.109137855
176	0xbdbfc9d9	-0.09364671
177	0xbe09c110	-0.13452554
178	0x3e988a3f	0.29792973
179	0xbf01a894	-0.50647855
180	0xbf31a154	-0.6938679
181	0xbfb77f34	-1.4335694
182	0x3f1a5f1e	0.6030139
183	0x3e92bd83	0.2866021
184	0xbf2aa1e1	-0.6665326
185	0xbf340ca2	-0.70331776
186	0xbf09eaff	-0.538742
187	0xbf00398e	-0.5008782
188	0xbf87dda8	-1.0614519
189	0x3ef9408a	0.48682052
190	0x3d8f9d81	0.07012463
191	0x3f03876a	0.513785
192	0x3ec4d314	0.3844229
193	0xbf32aa6a	-0.6979128
194	0x3dfc2082	0.12310888
195	0xbde10e0a	-0.10989006
196	0x3f084d6a	0.53243124
197	0xbf125817	-0.57165664
198	0x3eefe658	0.46855426
199	0x3d4aa3c0	0.04947257
200	0x3f122d46	0.5710033
201	0xbf10566a	-0.5638186
202	0x3ebec663	0.37260732
203	0x3f09e03f	0.538578
204	0x3f0172f5	0.50566036
205	0xbf26e7f7	-0.651977
206	0xbdcf95b8	-0.101359785
207	0xbd2a1944	-0.041528
208	0xbdd4ea2a	-0.10396226
209	0x3da62b72	0.08113755
210	0x3eebca77	0.46052906
211	0xbf2922c2	-0.6606866
212	0xbf01f605	-0.5076602
213	0xbfbe2461	-1.4854852
214	0x3e9a3a67	0.30122682
215	0x3e9cf396	0.3065459
216	0xbf83d0d4	-1.0298104
217	0xbf1a3a49	-0.60245186
218	0xbf27a5d7	-0.65487427
219	0xbf1d4126	-0.61427534
220	0xbf85f232	-1.0464537
221	0x3ebe9296	0.3722121
222	0x3d19a392	0.03750951
223	0x3f34ac44	0.70575356
224	0x3f079fff	0.5297851
225	0xbf87d8c2	-1.0613024
226	0xbccfba30	-0.025357336
227	0xbea6c02b	-0.32568488
228	0x3ec22970	0.3792224
229	0xbf3582b0	-0.7090254
230	0x3f1802d5	0.5937932
231	0xbd7a1fa2	-0.061065324
232	0x3f06bcef	0.5263204
233	0xbf187254	-0.5954945
234	0x3f0fee06	0.5622257
235	0x3eb2a0f7	0.3488843
236	0x3ef77515	0.48331514
237	0xbf37e0d9	-0.71827465
238	0x3c295475	0.0103350775
239	0xbdb7b461	-0.089699514
240	0xbc8d7e58	-0.01727216
241	0xbcb20538	-0.021731004
242	0x3eb619aa	0.35566455
243	0xbf329edc	-0.6977365
244	0xbf13145d	-0.57452947
245	0xbfc4daf1	-1.5379316
246	0x3f08826b	0.53324
247	0x3f0e190e	0.5550698
248	0xbf542bef	-0.8287954
249	0xbf1e695c	-0.61879516
250	0xbef759a2	-0.48310572
251	0xbedac173	-0.42725715
252	0xbf8c5a31	-1.0965024
253	0x3e705d34	0.23473054
254	0x3caf65fd	0.021410936
255	0x3f0a5600	0.54037476

linear.bias f4 [16]
0	0x3e1b5e09	0.1517259
1	0x3ce94499	0.028475093
2	0x3df98367	0.12183266
3	0x3e162e0a	0.14666
4	0xbd153f80	-0.03643751
5	0xbca6d316	-0.020364325
6	0xbc3ecde7	-0.011645771
7	0xbc71a799	-0.014749431
8	0xbdcc9087	-0.09988504
9	0xbd38b7c0	-0.045097113
10	0xbde7028e	-0.11279784
11	0xbd7d2cd9	-0.06181035
12	0xbdbb93a6	-0.09159021
13	0xbca65ded	-0.02030846
14	0x3d700d0a	0.058606185
15	0xbc9065f0	-0.017626733

linear2.weight f4 [6, 21]
0	0x3f042e66	0.516333
1	0x3f407458	0.75177526
2	0x3e2c7438	0.16841209
3	0xbe002a85	-0.1251622
4	0xbec4256f	-0.3830981
5	0x3f0bc659	0.5459953
6	0xbede4da8	-0.43418622
7	0x3e74f37d	0.23921008
8	0x3d906a6b	0.070515476
9	0x3eac561b	0.33659443
10	0xbebfa74d	-0.37432328
11	0xbe1c7310	-0.15278268
12	0x3e0eab13	0.13932447
13	0x3df67cc8	0.12035519
14	0x3deeacfa	0.116540864
15	0xbe8ed46f	-0.2789645
16	0xbdceee27	-0.10104018
17	0x3e39ee11	0.18157221
18	0xbd7e22c0	-0.06204486
19	0xbe860420	-0.26175022
20	0xbe2ecd17	-0.17070423
21	0xbd2ffda6	-0.042966507
22	0x3e363c67	0.17796479
23	0x3d136863	0.035988223
24	0x3e7f9c9c	0.24962085
25	0xbe30efb0	-0.17278934
26	0x3eaf5638	0.34245467
27	0x3f01276d	0.50450784
28	0x3e8b5e3b	0.2722033
29	0x3be9156f	0.007113151
30	0xbdc80aac	-0.097676605
31	0x3eeb30b6	0.459356
32	0xbd2a492f	-0.0415737
33	0xbe29a8fc	-0.16568369
34	0x3e3ace8b	0.18242852
35	0x3d8da015	0.06915299
36	0xbe910a80	-0.28328323
37	0xbe065f05	-0.13122185
38	0xbedb76a1	-0.42863944
39	0xbab20286	-0.0013581074
40	0x3d8f3e3f	0.069942944
41	0x3e62f5cf	0.22164081
42	0x3e71d949	0.23618044
43	0x3dae5132	0.085115805
44	0xbd7e1093	-0.062027525
45	0xbd2e3eb0	-0.042540252
46	0xbe3c2aa9	-0.18375649
47	0xbe33741f	-0.17524765
48	0x3e02993b	0.12753765
49	0x3e632446	0.22181806
50	0x3e10f3f9	0.14155568
51	0xbe5c44ec	-0.21510667
52	0xbe925591	-0.28580907
53	0xbd825396	-0.06363599
54	0x3e6e110b	0.23248689
55	0xbf14b818	-0.58093405
56	0x3ebf3fe9	0.37353447
57	0xbbd7c0b3	-0.006584251
58	0x3e1e863c	0.15480894
59	0xbde3ffce	-0.11132775
60	0xbe244764	-0.16042858
61	0xbe48e017	-0.19616733
62	0xbd685819	-0.05672464
63	0xbe68f509	-0.22749723
64	0xbea69686	-0.32536715
65	0xbea694d5	-0.32535425
66	0xbe45e70a	-0.19326416
67	0x3e3dbb14	0.18528396
68	0xbe8a3d36	-0.26999825
69	0x3db896cd	0.09013138
70	0xbeef12e5	-0.46694103
71	0x3ea2731f	0.31728455
72	0x3ec06f10	0.37584734
73	0x3d52a743	0.051429044
74	0x3e7cae89	0.24675955
75	0x3ee0e768	0.4392655
76	0xbe968c82	-0.29404074
77	0xbe30b991	-0.17258288
78	0x3f169cd8	0.58833075
79	0x3ed198ce	0.40936893
80	0x3df9f29f	0.122044794
81	0xb96ae2bc	-0.00022400444
82	0x3e5bfea1	0.21483852
83	0x3e8f2285	0.27956024
84	0xbdc027dc	-0.093826026
85	0xbddc66dc	-0.10761806
86	0x3cda5a78	0.026654467
87	0x3ed57df2	0.4169765
88	0x3ecb30a0	0.39685535
89	0xbe84a48f	-0.25906798
90	0xbc415f19	-0.011802458
91	0x3e3618cd	0.17782898
92	0xbce8368f	-0.028346328
93	0xbe8ddcd7	-0.2770755
94	0xbd8bc165	-0.068239965
95	0xbeb49592	-0.35270363
96	0xbe13df4b	-0.14440648
97	0x3bc64df4	0.006051773
98	0x3edc818d	0.4306759
99	0xbdcb1aa6	-0.09917192
100	0xbe9d1664	-0.30681145
101	0x3e7999a6	0.24375018
102	0x3e6feae2	0.23429444
103	0x3e62533a	0.22102061
104	0x3d8e55b9	0.06949944
105	0xbdfcfbbd	-0.12352703
106	0xbec82337	-0.39089367
107	0xbed5532a	-0.41665012
108	0xbd6daa46	-0.058023714
109	0x3e806afe	0.2508163
110	0xbd0e9b60	-0.034816146
111	0x3dabb822	0.0838473
112	0xbea0d912	-0.31415612
113	0x3e38ca4d	0.18045922
114	0x3e4b4cc6	0.19853505
115	0xbd4b0d54	-0.049573258
116	0x3d4094e2	0.047016986
117	0x3ee0104a	0.43762428
118	0xbe99d431	-0.30044702
119	0xba6efe56	-0.00091168785
120	0x3eba0b82	0.36336905
121	0x3ecfd076	0.4058873
122	0x3e86ce09	0.26329067
123	0xbe2f8a4a	-0.17142597
124	0x3e9f7ba6	0.31149024
125	0x3e69c57c	0.2282924

linear2.bias f4 [6]
0	0xbe16b44d	-0.14717217
1	0x3e7422fd	0.23841472
2	0xbf9196e7	-1.1374177
3	0x3d629759	0.055320118
4	0x3f221214	0.63308835
5	0xbf9cbe38	-1.224555
