A3TGCN2_Checkpoints/Epoch_54.pth (torch, 35255 bytes, 17 tensors)

tgnn._attention f4 [16]
0	0x3fd37835	1.6521059
1	0x3f3c81e1	0.7363568
2	0x3eab06ce	0.3340363
3	0xbe096041	-0.13415624
4	0x3e1878da	0.14889851
5	0x3d761ce6	0.060086153
6	0x3df0b392	0.11753
7	0x3eada1ad	0.3391241
8	0x3e81932c	0.25307596
9	0x3e852469	0.2600434
10	0x3e882636	0.26591653
11	0x3e8d45bf	0.27592275
12	0x3e6b8f6a	0.23003927
13	0x3ee913c7	0.455229
14	0x3f320cac	0.69550586
15	0x3fb28783	1.3947605

tgnn._base_tgcn.conv_z.bias f4 [32]
0	0x3f12eac3	0.5738947
1	0x3ef5deb4	0.48021472
2	0x3e8b42fb	0.2719954
3	0x3ad0d740	0.001593329
4	0xbe41686f	-0.18887495
5	0xbecc21db	-0.3986958
6	0xbebc9b8a	-0.36837417
7	0xbf110714	-0.56651425
8	0x3f155947	0.5833935
9	0x3f096bed	0.53680307
10	0xbf1aa61b	-0.60409707
11	0xbf0531fd	-0.520294
12	0x3e13ad89	0.14421667
13	0x3e5daea6	0.21648654
14	0x3ef802fa	0.4843977
15	0x3f0830dc	0.53199553
16	0xbf0d983c	-0.55310416
17	0x3f18d24a	0.59695876
18	0x3ecea129	0.4035733
19	0x3f1f7509	0.62287956
20	0x3f004ed5	0.5012029
21	0xbeff37e0	-0.49847317
22	0xbf099556	-0.53743494
23	0x3f0ed6c5	0.5579646
24	0xbf04e4af	-0.51911443
25	0xbf1160a4	-0.56788087
26	0xbf0b563f	-0.54428476
27	0x3f00bd00	0.5028839
28	0x3f0e2ee5	0.55540305
29	0xbeb53ef2	-0.35399586
30	0x3eb54ce1	0.35410216
31	0x3f0f63ac	0.5601146

tgnn._base_tgcn.conv_z.lin.weight f4 [32, 3]
0	0xbeac5e81	-0.3366585
1	0xbeb36710	-0.35039568
2	0xc00899ba	-2.1343827
3	0x3ecbd408	0.39810205
4	0xbf0ea82e	-0.5572537
5	0xbf9c9152	-1.2231848
6	0xbf6b6d16	-0.91963327
7	0x3f18d3c6	0.5969814
8	0xbf8d7118	-1.1050138
9	0xbe4b8ab7	-0.19877134
10	0x3f68e5f4	0.9097588
11	0x3fb77e02	1.433533
12	0x3f3bb0f8	0.7331691
13	0xbf5db165	-0.8659881
14	0x3ed1059a	0.40824586
15	0xbe12223c	-0.14270872
16	0x3f0e6d02	0.5563508
17	0x400901ac	2.140727
18	0xbf48a118	-0.7837081
19	0xbec2ed23	-0.38071546
20	0x3f19c904	0.6007235
21	0xbc5e1ac3	-0.013556185
22	0x3e5a3c0c	0.21311969
23	0x40041c00	2.064209
24	0x3e83ef58	0.25768542
25	0xbf0c4bbe	-0.54803073
26	0xbfc30c24	-1.523808
27	0x3ee78f9f	0.45226762
28	0xbf6ba5c0	-0.9204979
29	0xbfb4e43f	-1.4132155
30	0x3e0c036f	0.13673185
31	0x3f101c09	0.5629278
32	0x3f6f83d1	0.9356051
33	0xbf107cc6	-0.5644039
34	0x3f10d7da	0.56579363
35	0x3f8785e5	1.0587736
36	0xbebd41ac	-0.36964166
37	0x3f7e0e1a	0.9924027
38	0xbedccf37	-0.43126842
39	0xbf7f68e0	-0.997694
40	0x3d9bf93f	0.07615899
41	0x3ed02704	0.40654767
42	0x3eef084c	0.46686018
43	0xbf03b22e	-0.51443756
44	0xbfbb73de	-1.4644735
45	0xbe15f9e4	-0.14646107
46	0xbe68292e	-0.22671959
47	0xc028b95d	-2.6363137
48	0xbe61a400	-0.22035217
49	0x3ed71f6a	0.42016155
50	0x3fa30300	1.273529
51	0x3e1a049b	0.1504082
52	0xbf37b6dd	-0.717634
53	0xbffcf3e8	-1.9761934
54	0xbf265de8	-0.6498704
55	0xbe923d3c	-0.28562343
56	0x3e9d071d	0.3066949
57	0xbe4d53a7	-0.20051442
58	0xbef69b15	-0.48165193
59	0xc000b6fd	-2.0111687
60	0x3ee836be	0.45354265
61	0xbee96d91	-0.45591405
62	0xbfb79f87	-1.4345559
63	0xbe861bbc	-0.26193035
64	0x3ebe9f16	0.37230748
65	0x3f847b77	1.0350178
66	0xbeabd47a	-0.33560544
67	0x3f5a5ddb	0.8529946
68	0x3fe2ec0d	1.7728287
69	0x3ddd2351	0.10797752
70	0xbdc0cba1	-0.09413839
71	0xc02da778	-2.7133465
72	0x3f08de11	0.53463846
73	0x3d2416f8	0.040060967
74	0x400f1962	2.2359242
75	0x3eaa7312	0.33290917
76	0xbbd899ce	-0.006610132
77	0x3ff61024	1.9223676
78	0x3f2a1642	0.6644021
79	0x3ea063b6	0.31326073
80	0x3f44230d	0.76615983
81	0xbf108d81	-0.5646592
82	0xbede707d	-0.43445197
83	0xbf18797a	-0.5956036
84	0x3e0fabc3	0.14030366
85	0x3e805109	0.25061825
86	0xc006b257	-2.104635
87	0x3f59b77f	0.8504562
88	0x3f8b3e53	1.0878395
89	0x3fa94c8a	1.3226483
90	0xbddf960b	-0.1091729
91	0xbfaf5654	-1.369822
92	0xbf988d2c	-1.1918082
93	0x3b80d1fb	0.0039312816
94	0xbf096886	-0.53675115
95	0xbfc514f4	-1.5397019

tgnn._base_tgcn.linear_z.weight f4 [32, 64]
0	0xbdf5cb77	-0.120016985
1	0xbf3215b3	-0.6956436
2	0x3f598596	0.8496946
3	0x3f7243ff	0.94635004
4	0xbf0dc99b	-0.5538575
5	0x3f669b6f	0.9008092
6	0x3e41624f	0.18885158
7	0x3e2a98dc	0.16659874
8	0xbf272143	-0.6528513
9	0xbfb4614f	-1.4092196
10	0x3f3b1e9a	0.7309357
11	0x3f249f06	0.6430515
12	0x3e7e6542	0.24843314
13	0x3e7f6385	0.24940307
14	0xbf34e163	-0.7065641
15	0xbeb3eb6a	-0.35140544
16	0x3f22ee63	0.63645
17	0xbf795b1b	-0.9740464
18	0x3e91ffa4	0.2851535
19	0xbf2af702	-0.66783154
20	0xbef89b4e	-0.48555988
21	0x3f0cf1cb	0.55056447
22	0x3facbfa9	1.349599
23	0xbe457731	-0.19283749
24	0xbe242e67	-0.16033326
25	0xbd8d8d94	-0.069117695
26	0xbebff32d	-0.37490216
27	0xbe85009c	-0.25977027
28	0xbe064d9c	-0.13115543
29	0x3eb3b1e8	0.3509667
30	0xbf4ad8f9	-0.79237324
31	0xbf31a740	-0.6939583
32	0x3ca5dba8	0.020246342
33	0x3d64c704	0.05585386
34	0x3d376430	0.04477328
35	0x3d1089a4	0.035287514
36	0x3cbd8e88	0.023139253
37	0xbcb79138	-0.022408113
38	0x3deae07c	0.11468598
39	0xbc941b58	-0.018079445
40	0xbd60348c	-0.054737613
41	0x3d9ddff8	0.07708734
42	0xbd3d5e3c	-0.046232447
43	0x3dec22ce	0.11530076
44	0x3de290f0	0.11062801
45	0xbdaba19e	-0.083804354
46	0xbdd24a90	-0.10268128
47	0xbd276020	-0.040863156
48	0x3da5223e	0.08063172
49	0xbdd291bc	-0.10281703
50	0x3d8af502	0.06785013
51	0xbdfe2028	-0.12408477
52	0xbcc31510	-0.023813754
53	0xbd06ae1c	-0.032880887
54	0x3c592e50	0.013255671
55	0x3dcec97c	0.10097024
56	0xbdb40a88	-0.08791071
57	0x3b072f80	0.0020627677
58	0x3bc81160	0.006105587
59	0xbd56c170	-0.05243057
60	0x3c0d2900	0.008615732
61	0x3db887ca	0.09010275
62	0xbd9ca6e4	-0.07649019
63	0x3da2020c	0.07910547
64	0xbfc03fde	-1.5019491
65	0xbefae817	-0.49005195
66	0x3e8589ac	0.26081598
67	0x4024781b	2.5698307
68	0xbfb360d7	-1.4013928
69	0x402b0ce9	2.672663
70	0xbf513c78	-0.81732893
71	0x3dc196f2	0.09452619
72	0xbee4696d	-0.44611683
73	0xbfbaf97e	-1.4607389
74	0x3f5c0520	0.8594532
75	0x3e8034c0	0.25040245
76	0x3fc557b4	1.541739
77	0xbd0691f5	-0.03285404
78	0xbecae9db	-0.39631543
79	0xbf3b61d9	-0.7319618
80	0x3c958dd1	0.0182561
81	0xbfdf6dfb	-1.7455438
82	0xbfe1ff03	-1.7655948
83	0xbfc0671e	-1.5031469
84	0xbd874fea	-0.06607039
85	0xbd990342	-0.074713245
86	0x3fdc8ec1	1.7231065
87	0xbd249e56	-0.040190063
88	0x3ef43229	0.4769452
89	0x3da3be15	0.0799524
90	0x3ffa6fac	1.956533
91	0xc02104bf	-2.5159147
92	0x3f28879f	0.6583194
93	0x40153491	2.3313334
94	0xc060ca0b	-3.5123317
95	0xbf96e145	-1.1787497
96	0x3dbfcfd2	0.093658105
97	0x3d5cda4c	0.05391912
98	0xbd9759c2	-0.07390167
99	0xbd8eab42	-0.069662586
100	0x3ce24090	0.027618676
101	0x3d10e8f8	0.035378426
102	0x3d8797c6	0.06620745
103	0xbdbb660e	-0.09150325
104	0x3df6a7ee	0.12043749
105	0xbcc94720	-0.024570048
106	0x3d339b5c	0.043849334
107	0xbd5b6d64	-0.05357112
108	0x3d433538	0.047658175
109	0x3ddaa082	0.10675146
110	0xbdb84d72	-0.089991465
111	0x3c392780	0.011300921
112	0x3c7af590	0.015317336
113	0xbc93ae30	-0.018027395
114	0xbd0c6ad4	-0.034281567
115	0x3cc63050	0.02419296
116	0x3cbd74d0	0.02312699
117	0xbd519f78	-0.051177472
118	0x3d35655c	0.044286117
119	0x3dd57bda	0.104240134
120	0x3cfa1138	0.030525789
121	0xbd82a736	-0.06379549
122	0xbc99b3e8	-0.018762544
123	0xbd0399bc	-0.032129034
124	0x3dff8eb2	0.12478389
125	0xbd84f17a	-0.064913705
126	0x3d99ab2e	0.07503353
127	0xbdfe9f46	-0.12432723
128	0x3d37e158	0.04489264
129	0xbdf1b328	-0.118017495
130	0xbc5987b0	-0.013276979
131	0xbdc19d9a	-0.09453888
132	0xbdd117b8	-0.10209602
133	0x3cb759e0	0.022381723
134	0x3dbecc76	0.093163416
135	0x3dba0ac0	0.09084082
136	0xbd598f04	-0.053114906
137	0xbd14bb34	-0.036311343
138	0xbcab8b68	-0.020940498
139	0xbb5cc780	-0.0033688247
140	0xbda78b58	-0.081808746
141	0xbb8df180	-0.0043317676
142	0x3d98f48a	0.07468517
143	0x3dd69a4a	0.10478647
144	0x3dc4cf34	0.09609833
145	0xbd78e550	-0.060765564
146	0x3d963b64	0.073355466
147	0x3d881408	0.06644446
148	0x3ddc3500	0.107522964
149	0xbd06be3c	-0.032896265
150	0xbdc35872	-0.09538354
151	0x3c6ca170	0.014442787
152	0x3d854736	0.06507723
153	0xbce7a488	-0.028276697
154	0x3c1e61f0	0.009666905
155	0xbc932458	-0.017961666
156	0xbdd9ba8a	-0.10631283
157	0x3d17105c	0.036880836
158	0x3d02d9d8	0.031946033
159	0x3b2a9d00	0.002603352
160	0xbdd4c39a	-0.103888705
161	0x3d4ce114	0.05001934
162	0x3b9fd340	0.004877478
163	0xbde1abb0	-0.11019075
164	0xbddde0b2	-0.10833873
165	0x3c60b860	0.013715833
166	0x3c726510	0.014794603
167	0x3c23daf0	0.010000929
168	0x3d82217a	0.063540414
169	0xba1b2400	-0.0005918145
170	0x3df3f7fa	0.11912532
171	0xbd11c80c	-0.03559117
172	0xbd9136f0	-0.070905566
173	0xbdb36646	-0.087597415
174	0xbd7a5b80	-0.061122417
175	0x3df685d0	0.120372415
176	0x3d80ac46	0.062828586
177	0xbd3c11f4	-0.04591556
178	0xbdacaaf8	-0.08431047
179	0xbc0933c0	-0.008374155
180	0x3db23ec4	0.08703378
181	0x3df7fda0	0.12108922
182	0xbde94b26	-0.113912866
183	0xbd6f9b30	-0.058497608
184	0xbdd43d52	-0.103632584
185	0xbcbca818	-0.023029372
186	0xbc933dc8	-0.017973796
187	0x3de6c6e8	0.11268407
188	0x3df61a1c	0.12016699
189	0x3dec2bdc	0.11531803
190	0xbd4c32cc	-0.04985313
191	0xbd5ec020	-0.054382443
192	0xbf412d63	-0.7545988
193	0xbf06d3f2	-0.5266715
194	0x3ea5c5bb	0.3237742
195	0x3e988bd3	0.29794177
196	0xbefe0c7e	-0.49618906
197	0x3fa12cb0	1.2591763
198	0xbdb98ead	-0.09060416
199	0x3e2c7c41	0.16844274
200	0xbeed0b17	-0.46297523
201	0xbf854477	-1.0411519
202	0x3f285d3f	0.6576728
203	0x3ea657c4	0.32488835
204	0x3f1672ec	0.58769107
205	0xbea4c4eb	-0.32181486
206	0xbeb530f0	-0.353889
207	0xbecafb98	-0.39645076
208	0x3e9e2462	0.30887133
209	0xbf60f311	-0.8787089
210	0xbe331b4a	-0.17490879
211	0xbf30970c	-0.6898048
212	0xbecde456	-0.4021327
213	0x3ebc0afb	0.36727127
214	0x3fa4e7fe	1.2883298
215	0xbd8cd6b4	-0.06876889
216	0x3e017db5	0.1264561
217	0xbc3a76da	-0.0113808755
218	0x3f083cca	0.53217757
219	0xbf76afd7	-0.9636206
220	0x3d5f5246	0.05452182
221	0x3f69947d	0.912422
222	0xbfcb352b	-1.58756
223	0xbf52abcc	-0.8229339
224	0x3d605048	0.054764062
225	0xbdb0e9ba	-0.0863833
226	0xbdb4fa48	-0.088368
227	0x3d4ed560	0.05049646
228	0xbd3cdb48	-0.04610756
229	0x3d40e620	0.047094464
230	0x3dc69eaa	0.096982315
231	0xbd388f10	-0.04505831
232	0xbc9989f0	-0.018742532
233	0xbdc8f60e	-0.09812556
234	0xbdc6531c	-0.096838206
235	0x3c88dd20	0.016707003
236	0x3cc4a908	0.024006382
237	0xbdcbdb8e	-0.09953986
238	0xbdd33c42	-0.10314228
239	0x3d84be3c	0.06481597
240	0xbb9f6c60	-0.004865214
241	0x3dd9320a	0.10605247
242	0x3dda115a	0.10647841
243	0x3d1e80c8	0.038697034
244	0xbc7f42c0	-0.015579879
245	0x3d43942c	0.04774873
246	0x3db2cc24	0.08730343
247	0x3dec2dd2	0.11532177
248	0x3dc0d344	0.09415296
249	0xbdd7279c	-0.10505602
250	0xbd85e200	-0.06537247
251	0xbdf441da	-0.11926623
252	0xbde0a6a4	-0.10969284
253	0x3c60a5e0	0.013711423
254	0x3df5858c	0.11988363
255	0x3d0a8098	0.033814043

tgnn._base_tgcn.linear_z.bias f4 [32]
0	0xbe8e8c8b	-0.278416
1	0x3f3f90fd	0.7483061
2	0x3df209fa	0.11818309
3	0x3c47beeb	0.0121915145
4	0xbda9ff0e	-0.08300601
5	0xbe5c1cc4	-0.21495348
6	0xbe4f5fb3	-0.2025135
7	0x3c7d1da9	0.015448966
8	0xbe5ecb72	-0.21757296
9	0xbd2d1d3a	-0.0422642
10	0xbef4db20	-0.4782343
11	0xbe63d11e	-0.2224774
12	0xbf3aa54e	-0.72908485
13	0xbf950d68	-1.1644716
14	0x3c876330	0.016526788
15	0x3d8c6e33	0.06856956
16	0x3d792d1c	0.060834035
17	0xbde35078	-0.110993326
18	0xbf04bbc1	-0.5184899
19	0xbeb9014e	-0.36133808
20	0xbea83ab4	-0.32857287
21	0x3f19a7ae	0.60021484
22	0xbe4bf511	-0.19917704
23	0xbf2f9883	-0.6859209
24	0x3f2da04c	0.6782272
25	0xbec7442b	-0.38919196
26	0xbcaa1f54	-0.020766892
27	0xbed2257b	-0.4104422
28	0x3e7847cf	0.24246143
29	0xbf08ce4f	-0.534398
30	0x3df53c78	0.11974424
31	0xbe8e12c7	-0.277487

tgnn._base_tgcn.conv_r.bias f4 [32]
0	0x00000000	0.0
1	0x00000000	0.0
2	0x00000000	0.0
3	0x00000000	0.0
4	0x00000000	0.0
5	0x00000000	0.0
6	0x00000000	0.0
7	0x00000000	0.0
8	0x00000000	0.0
9	0x00000000	0.0
10	0x00000000	0.0
11	0x00000000	0.0
12	0x00000000	0.0
13	0x00000000	0.0
14	0x00000000	0.0
15	0x00000000	0.0
16	0x00000000	0.0
17	0x00000000	0.0
18	0x00000000	0.0
19	0x00000000	0.0
20	0x00000000	0.0
21	0x00000000	0.0
22	0x00000000	0.0
23	0x00000000	0.0
24	0x00000000	0.0
25	0x00000000	0.0
26	0x00000000	0.0
27	0x00000000	0.0
28	0x00000000	0.0
29	0x00000000	0.0
30	0x00000000	0.0
31	0x00000000	0.0

tgnn._base_tgcn.conv_r.lin.weight f4 [32, 3]
0	0x3e2dbb1e	0.16965911
1	0xbd19d140	-0.037553072
2	0x3d6d9168	0.058
3	0x3e9d845b	0.30765042
4	0xbe958766	-0.29204863
5	0xbca54bc0	-0.020177722
6	0xbe0fc728	-0.14040816
7	0xbe90129a	-0.28139192
8	0x3dc07464	0.093972
9	0x3c34dfe0	0.011039704
10	0x3dc5845c	0.09644386
11	0x3ea84d07	0.32871267
12	0xbe9065a7	-0.28202555
13	0xbd1d18a0	-0.038353562
14	0xbde90a64	-0.11378935
15	0x3e802c9b	0.2503403
16	0xbd8f5534	-0.06998673
17	0xbeb94f84	-0.36193478
18	0x3caf6ea0	0.021415055
19	0x3e071ea2	0.13195279
20	0x3e253ebe	0.16137215
21	0xbdced154	-0.1009852
22	0x3e17a1f2	0.14807871
23	0x3d8c5ea8	0.06853992
24	0x3e4e33d6	0.20136961
25	0x3e76bd72	0.24095705
26	0xbe3b6a1a	-0.18302193
27	0xbe903fa0	-0.28173542
28	0x3dbb429c	0.09143564
29	0x3e6e993a	0.23300639
30	0x3e130422	0.14357045
31	0xbe3d30cc	-0.18475646
32	0xbe9c0b49	-0.3047736
33	0x3dbbbb6c	0.09166607
34	0x3e8f6c8f	0.2801251
35	0xbe3e1b77	-0.18565165
36	0xbe735202	-0.23761752
37	0x3ea07dbf	0.31345937
38	0xbec0c99d	-0.3765382
39	0x3e9dcd8f	0.3082089
40	0xbc081760	-0.008306354
41	0x3dfacb5c	0.12245819
42	0xbe173ecc	-0.14770049
43	0xbe81fed0	-0.2538972
44	0x3ec9d953	0.39423618
45	0x3e2a6586	0.1664029
46	0xbda73474	-0.081643015
47	0xbe7794e2	-0.24177888
48	0x3e9a265d	0.30107394
49	0xbe358dc1	-0.17729856
50	0x3e7b6c5e	0.24553058
51	0x3e29eec6	0.16594991
52	0xbe8ad3b4	-0.27114642
53	0x3e2e16fa	0.17000952
54	0xbc5f86e0	-0.013642997
55	0x3e8ce079	0.2751501
56	0xbe34e29d	-0.17664571
57	0xbebe0f98	-0.37121272
58	0xbec97850	-0.39349604
59	0xbe73b836	-0.2380074
60	0x3e906677	0.28203174
61	0xbe7e96b2	-0.24862173
62	0xbdc8c428	-0.09803039
63	0xbc0bf8a0	-0.008543164
64	0xbb1da380	-0.0024053752
65	0xbda0a180	-0.07843304
66	0xbe78de44	-0.24303538
67	0xbd90ab74	-0.07063952
68	0xbe9f1f1e	-0.31078428
69	0xbeb5980f	-0.35467574
70	0x3e77e6fe	0.2420921
71	0xbe5984e0	-0.21242094
72	0x3e77a8ae	0.2418544
73	0xbe479047	-0.19488631
74	0x3e3d2cba	0.18474093
75	0xbd960f64	-0.07327154
76	0xbe1f8030	-0.15576243
77	0x3e3d74b6	0.18501553
78	0x3e1e642e	0.15467903
79	0x3dbd081c	0.09230062
80	0x3b54b580	0.0032456815
81	0xbd8479c8	-0.064685404
82	0xbecdfa35	-0.40229955
83	0xbd95e858	-0.07319707
84	0x3eb1456d	0.3462328
85	0x3e967091	0.29382756
86	0x3dbfee94	0.09371677
87	0x3e4b53f2	0.19856241
88	0xbd4ff650	-0.05077201
89	0xbe836d5e	-0.25669378
90	0xbe36b079	-0.17840756
91	0x3e30cd92	0.17265919
92	0x3ecd9f09	0.40160397
93	0x3e143f96	0.14477381
94	0xbd782570	-0.06058258
95	0xbeb693d6	-0.35659665

tgnn._base_tgcn.linear_r.weight f4 [32, 64]
0	0xbd970bf8	-0.0737533
1	0x3ceae498	0.028673455
2	0xbd037fe8	-0.032104403
3	0xbdfe962e	-0.12430988
4	0x3cc3bbe8	0.023893312
5	0x3d472720	0.048621297
6	0x3dcb6352	0.09931053
7	0xbd6555ac	-0.055989906
8	0x3dad23f2	0.08454122
9	0xbde136a2	-0.109967485
10	0x3cdda940	0.027058244
11	0x3cab0898	0.020878121
12	0xbdbc6012	-0.091980115
13	0x3d76ede4	0.060285464
14	0x3de20d46	0.11037688
15	0xbd805a34	-0.06267205
16	0xbd2f4608	-0.042791396
17	0x3c941060	0.018074214
18	0x3db702f4	0.0893611
19	0xbd8e6246	-0.06952338
20	0xbd435ea4	-0.04769768
21	0x3d373864	0.044731513
22	0x3d271ac0	0.040796995
23	0x3d72c288	0.05926755
24	0x3dcc53e4	0.09976938
25	0x3de806dc	0.11329433
26	0x3db67b4c	0.08910236
27	0x3d6b40c8	0.057434827
28	0x3d9384ee	0.07203089
29	0x3d99833c	0.07495734
30	0xbde128e2	-0.10994126
31	0x3b8fd180	0.004388988
32	0xbdd6af22	-0.10482623
33	0x3cbc22c0	0.022965789
34	0x3d5b78b0	0.053581893
35	0xbd720358	-0.05908522
36	0x3ddf665a	0.10908194
37	0x3d61f370	0.0551638
38	0x3d5f8cc0	0.05457759
39	0x3c30be30	0.010787532
40	0xbd70a9e4	-0.05875577
41	0x3cca8908	0.024723545
42	0x3d8e736a	0.06955607
43	0x3dc73ab4	0.097279936
44	0x3dd2c8a8	0.102921784
45	0x3d8c7f9a	0.068602756
46	0x3da0a05e	0.078430876
47	0xbd8dfc74	-0.06932917
48	0xbc9e22a0	-0.01930362
49	0xbd170994	-0.03687437
50	0x3da727a4	0.08161858
51	0xbdb7fa1e	-0.08983253
52	0x3dcff0e8	0.10153371
53	0xbc98ec40	-0.01866734
54	0x3df26fcc	0.1183773
55	0x3d22a514	0.039708212
56	0x3dc75700	0.09733391
57	0xbd0b7104	-0.034043327
58	0x3dd2a194	0.10284725
59	0xbda48dfa	-0.080348924
60	0x3c7b7530	0.015347764
61	0x3b14dc00	0.0022714138
62	0x3df9960e	0.12186824
63	0x3d0200ec	0.03173916
64	0xbd265380	-0.040606976
65	0xbd9a776e	-0.07542311
66	0x3dc64a0c	0.09682092
67	0xbd58f44c	-0.052967355
68	0xbd967008	-0.07345587
69	0xbdfb1ce6	-0.12261371
70	0xbc366e50	-0.011134699
71	0xbdcaceec	-0.099027485
72	0xbcba5e58	-0.022750065
73	0xbd8849e2	-0.06654717
74	0x3dfc6a38	0.12324947
75	0xbd9c8546	-0.076426074
76	0x3dad3030	0.08456457
77	0x3de936b8	0.1138739
78	0x3da30e68	0.07961732
79	0xbc8b27f8	-0.016986832
80	0xbcd47cf8	-0.025938496
81	0x3dcbc44c	0.0994955
82	0x3d9edac8	0.07756573
83	0xbd13f334	-0.03612061
84	0x3dff3852	0.12461914
85	0xbdba6e5c	-0.09103081
86	0x3da1f6ca	0.079083994
87	0xbb9b4420	-0.0047383457
88	0x3d289d20	0.04116547
89	0x3de4afea	0.111663654
90	0x3dee535e	0.11636995
91	0xbcbca678	-0.023028597
92	0xbda7c654	-0.08192125
93	0x3dbd3204	0.09238055
94	0x3dc18e04	0.094509155
95	0x3db830f6	0.089937136
96	0x3d9bb826	0.07603483
97	0x3d429468	0.047504812
98	0x3db2d5d0	0.08732188
99	0xbdd1f0c6	-0.10251002
100	0x3d1ec5a0	0.03876269
101	0x3dfa2d04	0.12215617
102	0x3da72522	0.081613794
103	0x3d094174	0.033509687
104	0xbdf23890	-0.11827195
105	0x3df27578	0.11838812
106	0xbd931e0a	-0.07183464
107	0xbdcb000a	-0.09912117
108	0x3dc13996	0.09434812
109	0xbd553c54	-0.052059487
110	0x3d435e94	0.04769762
111	0x3d1b2e1c	0.03788577
112	0x3c32f150	0.010921791
113	0xbd396e2c	-0.045271084
114	0xbdd3d532	-0.10343398
115	0x3df7b774	0.12095538
116	0xbc844628	-0.016146734
117	0x3d7d3bb8	0.06182453
118	0xbccb6920	-0.024830401
119	0x3ded9cc6	0.11602168
120	0x3dd4eaac	0.103963226
121	0xbd9ffd06	-0.07811932
122	0xbdf6d692	-0.12052645
123	0x3d0ee4fc	0.034886345
124	0xbc1a6d90	-0.009425536
125	0xbcb2baf8	-0.02181767
126	0xbdfc3794	-0.12315288
127	0xbdc2fd28	-0.09520942
128	0x3d5f4618	0.054510206
129	0xbc6467e0	-0.013940781
130	0x3dc343e8	0.095344365
131	0x3d92957a	0.07157417
132	0x3d3ff5e0	0.046865344
133	0x3ca599c0	0.020214915
134	0xbca9f0a8	-0.020744637
135	0x3ca76930	0.0204359
136	0x3db8f19a	0.09030457
137	0xbd194b1c	-0.037425146
138	0x3d808a24	0.06276348
139	0x3d9b82ac	0.07593283
140	0x3dafa004	0.085754424
141	0xbb451cc0	-0.003007695
142	0xbddfbede	-0.10925077
143	0x3d5d7db0	0.054074943
144	0x3df5d726	0.12003927
145	0x3c9cab98	0.019124791
146	0xbd40aadc	-0.047037944
147	0x3bce6620	0.0062987953
148	0xbd363bd4	-0.04449065
149	0xbb9bfe80	-0.0047605634
150	0xbd8be8e6	-0.06831531
151	0xbd1fffe0	-0.03906238
152	0x3d12e5d4	0.035863712
153	0xbca72490	-0.020403177
154	0xbda37908	-0.07982069
155	0xbd8b6eb0	-0.06808221
156	0x3cc7f1e0	0.024407327
157	0xbdb69b60	-0.08916354
158	0x3dc8820c	0.097904295
159	0x3daa62de	0.08319639
160	0xbc0cd650	-0.008596018
161	0x3d593e40	0.05303788
162	0xbda1dc6c	-0.0790337
163	0x3db182bc	0.08667514
164	0xbd778ee0	-0.06043899
165	0xbdecafa8	-0.11556941
166	0xbd636510	-0.055516303
167	0x3d8fe710	0.070264935
168	0xbd02128c	-0.03175597
169	0xbbf7a6c0	-0.00755772
170	0xbda40470	-0.08008659
171	0x3d9b4382	0.075812355
172	0xbdfcb68c	-0.123395056
173	0x3d10e204	0.035371795
174	0xbde81e64	-0.113339216
175	0x3db0003c	0.08593795
176	0x3d13c358	0.036074966
177	0xbd707274	-0.0587029
178	0x3b4c4400	0.003116846
179	0xbcd69f68	-0.026199058
180	0xbd6efbf8	-0.058345765
181	0x3de01ad4	0.10942617
182	0xbde05204	-0.10953143
183	0xbc006000	-0.007835388
184	0x3de3fc48	0.11132103
185	0x3ce363a0	0.027757466
186	0xbdd1f064	-0.10250929
187	0xbde0b8a0	-0.109727144
188	0x3bd88c80	0.006608546
189	0x3d3ce7ec	0.046119615
190	0xbd3b4ff8	-0.04573056
191	0xbdb057ee	-0.08610521
192	0x3afe5280	0.0019403249
193	0x3d12e97c	0.0358672
194	0xbdcf9854	-0.10136476
195	0xbdbc2412	-0.09186567
196	0x3c9187c0	0.017764926
197	0xbda543fc	-0.080696076
198	0xbcead9e8	-0.028668359
199	0xbd664fcc	-0.056228444
200	0x3d7df264	0.06199874
201	0x3dba98e4	0.09111193
202	0xbdf9553e	-0.12174462
203	0x3df50906	0.11964612
204	0x3def95c2	0.11698486
205	0xbde4aa30	-0.11165273
206	0x3da3929e	0.079869494
207	0xbd043d60	-0.032285094
208	0xbd1a90ac	-0.037735626
209	0x3d842178	0.06451696
210	0x3d9d21ce	0.07672463
211	0xbc896fc8	-0.016776934
212	0x3dfb4832	0.122696295
213	0xbdda1364	-0.1064823
214	0xbcdc1398	-0.026864812
215	0xbd776ec8	-0.060408384
216	0xbde0b87c	-0.109726876
217	0x3dff3f20	0.12463212
218	0xbdbb4a14	-0.09144989
219	0xbdb5c16c	-0.08874783
220	0xbdba0acc	-0.090840906
221	0x3d8efa94	0.06981388
222	0xbdca9978	-0.09892553
223	0x3cc4e560	0.024035156
224	0x3dbaa912	0.09114279
225	0x3d23c404	0.039981857
226	0xbcf4e1c0	-0.029892802
227	0xbda5bf1a	-0.0809309
228	0x3dcec654	0.10096422
229	0xbd640ffc	-0.055679306
230	0xbcd4f960	-0.025997818
231	0x3da38822	0.0798495
232	0xbd6f9484	-0.058491245
233	0x3dab87ae	0.08375488
234	0xbdecb038	-0.115570486
235	0x3d91e0ea	0.07122977
236	0x3d774814	0.060371473
237	0x3cfcf620	0.03087908
238	0x3ca51b40	0.020154595
239	0xbb2aa540	-0.0026038438
240	0x3d07de9c	0.03317128
241	0xbda25564	-0.07926443
242	0xbdc66b2c	-0.0968841
243	0xbd94552e	-0.07242809
244	0xbd6e50e4	-0.058182612
245	0x3d78e29c	0.060762987
246	0xbdbf6744	-0.09345868
247	0x3cb6e2b8	0.022324905
248	0xbc80d798	-0.015727803
249	0xbc8b2b18	-0.016988322
250	0x3cb6c680	0.022311449
251	0xbcce8de8	-0.02521415
252	0x3d99cff2	0.075103655
253	0xbd0b6298	-0.034029573
254	0xbdbc9bac	-0.092093796
255	0x3c7c4f80	0.015399814

tgnn._base_tgcn.linear_r.bias f4 [32]
0	0x3d978a1c	0.07399389
1	0xbdd0004e	-0.10156308
2	0xbd7a3594	-0.061086252
3	0x3d4da5b0	0.05020684
4	0x3d8815f2	0.06644811
5	0xbc6e6000	-0.014549255
6	0x3d8bdee4	0.068296224
7	0x3c195df0	0.009360775
8	0xbb1abfc0	-0.0023612827
9	0xbdf94ed4	-0.121732384
10	0xbdf20b78	-0.11818594
11	0x3ddfce3c	0.10928008
12	0x3d54e408	0.05197528
13	0xbdedb93e	-0.11607598
14	0x3d70b454	0.058765724
15	0xbd37261c	-0.04471408
16	0x3d1967b0	0.0374524
17	0x3d8a3e72	0.06750192
18	0x3d087a58	0.0333198
19	0xbc9cb9f0	-0.01913163
20	0xbdb530ae	-0.088471755
21	0x3d3941d8	0.04522881
22	0xbd577730	-0.0526039
23	0xbdd9b9ec	-0.10631165
24	0xbdd5dafe	-0.1044216
25	0x3d67382c	0.056450054
26	0x3dfe8ffc	0.124298066
27	0x3a7eb300	0.0009716004
28	0x3dca6b2a	0.09883721
29	0x3d139bb0	0.036037147
30	0x3d844db6	0.06460135
31	0x3d8d4022	0.06896998

tgnn._base_tgcn.conv_h.bias f4 [32]
0	0x3e9f5900	0.3112259
1	0xbc7919b9	-0.015203887
2	0xbe9299e6	-0.2863304
3	0xbdc95389	-0.09830386
4	0x3e71f579	0.23628797
5	0xbf1f843b	-0.6231114
6	0x3ec4a73e	0.38408846
7	0x3eb11c5b	0.34591946
8	0x3f181722	0.594103
9	0xbd62c52a	-0.05536381
10	0xbeaad99c	-0.33369148
11	0x3e68a870	0.22720504
12	0xbee26fa8	-0.44225812
13	0x3bd358af	0.006449781
14	0x3da17b45	0.0788484
15	0xbf03e69d	-0.5152376
16	0x3dbb5b9f	0.09148335
17	0xbea00a43	-0.3125783
18	0x3e8630a3	0.26208982
19	0xbd7d8d26	-0.061902188
20	0x3dbcc03e	0.09216355
21	0x3f07e899	0.5308929
22	0x3c7f0d4d	0.015567136
23	0xbb60cf48	-0.0034303237
24	0xbe6ada54	-0.22934848
25	0x3e0ef5b4	0.13960916
26	0xbe83b6e1	-0.25725463
27	0x3eae9975	0.34101453
28	0x3eea0d98	0.45713496
29	0x3f02c6ee	0.5108479
30	0xbe87103f	-0.26379582
31	0xbd4d61fe	-0.05014228

tgnn._base_tgcn.conv_h.lin.weight f4 [32, 3]
0	0x3e706c58	0.2347883
1	0xbf32f709	-0.69908196
2	0x3fdab0c7	1.7085198
3	0xbe8d58d2	-0.27606827
4	0xbf90ade5	-1.1303068
5	0x3f8617cf	1.0476016
6	0xbd166ff6	-0.036727868
7	0xbe1d043f	-0.15333651
8	0x402fabba	2.7448564
9	0xbd84c5ee	-0.064830646
10	0x3f99e85e	1.2024038
11	0xbf2b6335	-0.6694825
12	0x3dd0c56a	0.10193904
13	0x3f2b9b79	0.6703411
14	0xbff0068a	-1.8751996
15	0x3f13a2ef	0.5767049
16	0x3eab9fe3	0.3352042
17	0xbf167b70	-0.587821
18	0xbf1f36aa	-0.62192786
19	0xbf1b35df	-0.60629076
20	0x3eea23b5	0.45730367
21	0xbf118257	-0.5683951
22	0xbea2b33c	-0.3177737
23	0x3fa66721	1.3000222
24	0xbd90be9d	-0.070676066
25	0x3f2c4491	0.67292124
26	0xbe09adb5	-0.1344517
27	0x3dd13def	0.10216891
28	0xbf9f92d8	-1.2466688
29	0x3f8f01b8	1.11724
30	0x3f44ce9c	0.7687776
31	0x3ea275e5	0.3173057
32	0xbfac0947	-1.3440331
33	0xbf268363	-0.6504423
34	0xbf87b28b	-1.0601362
35	0xbed415db	-0.41422924
36	0xbd17efba	-0.037093855
37	0x3f35e0c7	0.7104611
38	0xbf03e379	-0.5151897
39	0x3f2eb0b0	0.68238354
40	0x3f937cc6	1.1522453
41	0xbc48bd17	-0.012252114
42	0x3e5a9a10	0.21347833
43	0xbf254b59	-0.64568096
44	0x3fffe543	1.999184
45	0xbd67b998	-0.05657348
46	0xbed2c510	-0.41165972
47	0xbfe271f7	-1.7691029
48	0xbf4acb37	-0.7921633
49	0x3e20c9d2	0.15701988
50	0x3feb3dac	1.8378196
51	0xbec20b89	-0.37899426
52	0xbf558e44	-0.83420205
53	0xbf7c64ee	-0.98591506
54	0xbe09f688	-0.1347295
55	0xbf5a6610	-0.85311985
56	0x3f60f89c	0.8787935
57	0x3cee32c0	0.029076934
58	0x3faa67b2	1.3312895
59	0x3e67853c	0.22609419
60	0xbe16e4f7	-0.1473578
61	0xbf9c1a8a	-1.2195599
62	0xbf0ebc01	-0.5575562
63	0x3e15f5fb	0.14644615
64	0x3e366e76	0.17815575
65	0x3fb6bb23	1.427586
66	0x3f484eca	0.7824522
67	0x3f84899a	1.0354493
68	0x4002c9c2	2.0435643
69	0xbe8b9f9c	-0.2727021
70	0xbf8006d6	-1.0002086
71	0x3fbb85fd	1.4650265
72	0x3eb89d34	0.36057436
73	0x3f166477	0.5874705
74	0xbf9ed07c	-1.2407374
75	0x3e3a07b3	0.18167
76	0xbf0cb282	-0.5495988
77	0x3ff28a43	1.8948444
78	0xbdcce671	-0.10004891
79	0xbf8c8e4c	-1.0980926
80	0xbf0b6615	-0.5445264
81	0xbee6dd7b	-0.4509085
82	0xbe2f7904	-0.17136008
83	0x3fcfee2c	1.6244559
84	0x37b04e08	2.1017171e-05
85	0xbeafd01e	-0.34338468
86	0x3ff001dc	1.8750567
87	0xbeecbf6a	-0.46239787
88	0x3f2eff04	0.6835787
89	0x3fb12146	1.3838279
90	0x3f20742b	0.6267726
91	0x3eb54182	0.3540154
92	0xbfcc6946	-1.5969627
93	0xbc63008d	-0.013855112
94	0xbfa2eb69	-1.2728091
95	0x3f6728b8	0.90296507

tgnn._base_tgcn.linear_h.weight f4 [32, 64]
0	0xbed39d4c	-0.41330945
1	0xbf8814ef	-1.0631388
2	0xbf69616b	-0.91164273
3	0x3fa185cd	1.2618958
4	0x3f99b47b	1.2008203
5	0x3e28d7b6	0.16488537
6	0xbefa59a7	-0.48896524
7	0xbef0b1c7	-0.47010633
8	0x3f34251f	0.7036914
9	0xbfd225ca	-1.6417782
10	0x3ebd363d	0.36955443
11	0xbf09bd29	-0.5380426
12	0x3e4c9ec5	0.19982441
13	0x3f16c510	0.58894444
14	0xbf4e9803	-0.807007
15	0xbedefc15	-0.43551698
16	0xbf0bffac	-0.54687
17	0xbf0c9ed2	-0.5492984
18	0xbf28aec0	-0.6589165
19	0x3f83dd52	1.0301917
20	0xbf22fc3f	-0.63666147
21	0x3e8c3716	0.27385777
22	0x3e43ade6	0.19109306
23	0xbfd5ae7d	-1.6693875
24	0x3f12955b	0.5725915
25	0xbefd3570	-0.49454832
26	0xbf4f8303	-0.81059283
27	0xbe9ddfa4	-0.30834687
28	0xbcecec20	-0.028921187
29	0x3f0774d5	0.52912647
30	0x3ec0d0a1	0.3765917
31	0xbfb85f8d	-1.440416
32	0xbd84e00e	-0.064880475
33	0x3db3566a	0.087567165
34	0x3da49d12	0.08037771
35	0xbd7ff0ac	-0.062485382
36	0xbd1ca27c	-0.038240895
37	0xbd9ca39e	-0.07648395
38	0x3dec9c56	0.11553256
39	0xbd605348	-0.054766923
40	0x3d795800	0.06087494
41	0xbd125124	-0.035721913
42	0x3dc82b7e	0.097739205
43	0x3dd31a38	0.10307735
44	0x3dc5118a	0.09622486
45	0x3c986d28	0.018606737
46	0x3d47c950	0.04877597
47	0x3cc09158	0.023506805
48	0xbcda7b08	-0.026669994
49	0xbd5757d8	-0.05257401
50	0x3bebc0a0	0.0071945935
51	0xbd9cf302	-0.076635376
52	0xbdb81144	-0.08987668
53	0xbdaecbb2	-0.085349455
54	0x3d6e604c	0.058197305
55	0xbc1faed0	-0.009746268
56	0x3de68c24	0.112571985
57	0x3d979efc	0.07403371
58	0x3d598bc4	0.053111807
59	0xbd197eac	-0.03747432
60	0xbdccfd02	-0.10009195
61	0x3deb8790	0.11500466
62	0x3b203780	0.0024447143
63	0xbde0b286	-0.10971551
64	0x3f4739db	0.77822655
65	0x3f00ba89	0.5028463
66	0x3ec546da	0.38530618
67	0xbffdb00b	-1.9819349
68	0xbf0131c2	-0.5046655
69	0xbe933edc	-0.28758895
70	0x3f08512f	0.53248876
71	0x3f350818	0.70715475
72	0xbd9a01f9	-0.075199075
73	0x3f8db785	1.1071631
74	0xbed18835	-0.4092423
75	0x3e90843f	0.28225896
76	0xbef04077	-0.46924183
77	0xbe9c46f3	-0.3052288
78	0x3f9054fd	1.1275936
79	0xbe45b8ef	-0.19308828
80	0x3e15cd26	0.14629039
81	0x3dfaca17	0.12245577
82	0x3fd0ec24	1.6322064
83	0xbf18c701	-0.59678656
84	0x3ebb08ff	0.365303
85	0x3e254fb0	0.1614368
86	0x3d7af459	0.061268184
87	0x3f05ddea	0.5229174
88	0xbfa86045	-1.3154379
89	0x3f6e7ed5	0.9316228
90	0x3e622d1b	0.22087519
91	0x3f4bac0f	0.79559416
92	0x3edc6899	0.43048552
93	0xbd3d17be	-0.04616522
94	0xbf32d505	-0.6985629
95	0x3f781ff3	0.9692375
96	0xbdb64c3a	-0.08901258
97	0xbc54ed40	-0.012996018
98	0xbdf54bb6	-0.11977331
99	0x3cac22e0	0.021012723
100	0xbd86b9e8	-0.065784276
101	0x3d64aff8	0.05583188
102	0xbda634da	-0.081155494
103	0xbd80683c	-0.06269881
104	0x3bd2bc00	0.0064311028
105	0x3bde7360	0.006788656
106	0x3db888bc	0.09010455
107	0xbaac2f00	-0.0013136566
108	0x3d3e5290	0.046465456
109	0x3da3c0dc	0.079957694
110	0xbdab2a68	-0.08357698
111	0x3d9ebf04	0.07751277
112	0xbd56d99c	-0.052453622
113	0x3c6a97c0	0.014318407
114	0x3cd62648	0.0261413
115	0x3cc21960	0.02369374
116	0x3ceece50	0.029151112
117	0x3d3a5ed4	0.04550059
118	0xbda88054	-0.08227602
119	0x3d00bbd0	0.031429112
120	0xbc929a28	-0.017895773
121	0x3d96cc68	0.07363206
122	0xbd907bc2	-0.07054855
123	0x3d21f8b0	0.039543808
124	0x3d5a8e54	0.05335839
125	0xbd5403ec	-0.051761553
126	0xbda9106a	-0.08255084
127	0x3dbb045a	0.09131689
128	0x3de5d3a4	0.11222008
129	0x3da7aef6	0.08187668
130	0xbdc55a36	-0.09636347
131	0x3d3d6fe4	0.046249285
132	0xbdcd638c	-0.10028753
133	0xbc88b3a8	-0.01668723
134	0xbdd2ed7c	-0.10299203
135	0x3d889688	0.066693366
136	0x3d9cfb1a	0.07665081
137	0x3da3c694	0.0799686
138	0xbd6b8dd4	-0.057508305
139	0x3df02b22	0.11726977
140	0x3db6bb82	0.08922483
141	0x3c8499c0	0.016186595
142	0xbdbdf162	-0.09274556
143	0x3d928830	0.07154882
144	0x3d15f8d0	0.03661424
145	0x3c0f7990	0.00875701
146	0xbdfa71aa	-0.12228711
147	0xbd974eba	-0.07388063
148	0xbc733e90	-0.014846459
149	0xbdea13ee	-0.114295825
150	0x3db4cbb4	0.08827916
151	0xbcc78858	-0.024357006
152	0xbc9a9d88	-0.018873945
153	0x3d2dc4e8	0.042424113
154	0x3d56e470	0.05246395
155	0xbd9e924c	-0.07742748
156	0x3c9cd498	0.019144341
157	0xbd7349d4	-0.05939658
158	0xbdd89d06	-0.10576825
159	0x3dfcf228	0.12350875
160	0x3cfb0558	0.030642197
161	0xbdae4e70	-0.085110545
162	0xbd8d94b8	-0.069131315
163	0x3d0fd70c	0.035117194
164	0xbdee355a	-0.1163127
165	0xbd2f9d50	-0.042874634
166	0x3da940c4	0.08264306
167	0xbd9bd304	-0.076086074
168	0x3dd230f4	0.10263243
169	0x3d282b9c	0.041057214
170	0xbdd3eb7a	-0.10347648
171	0x3d57ab38	0.05265352
172	0x3df3fe76	0.11913769
173	0x3d4add74	0.0495276
174	0x3dd26c58	0.10274571
175	0xbad36200	-0.0016127229
176	0xbdc09e72	-0.09405221
177	0x3d2487e4	0.040168658
178	0x3d0369a0	0.032083154
179	0x3d59d578	0.053182095
180	0xbca16128	-0.019699648
181	0xbd80a404	-0.062812835
182	0x3d13bf44	0.036071077
183	0xbdc045a4	-0.09388283
184	0x3dd41af0	0.103567004
185	0xbd546054	-0.05184968
186	0xbdffff44	-0.1249986
187	0x3d902bda	0.07039614
188	0x3bd17620	0.0063922554
189	0xbd23f020	-0.040023923
190	0xbd390864	-0.045174018
191	0xbda7f022	-0.082000986
192	0x3f45d205	0.7727359
193	0xbc035a15	-0.008017083
194	0x3f794393	0.97368735
195	0xbe32a005	-0.17443855
196	0xbea4155c	-0.32047546
197	0x3f76ee3c	0.96457267
198	0xbed57b30	-0.41695547
199	0xbe390f1c	-0.1807217
200	0xbc611265	-0.013737296
201	0x3e712c86	0.2355214
202	0x3e899de6	0.2687828
203	0xbf192ada	-0.5983101
204	0x3e7d745d	0.2475142
205	0x3e93306e	0.28747886
206	0x3faa96a1	1.3327218
207	0xbf177804	-0.59167504
208	0x3e7396ee	0.23788044
209	0xbec3adc3	-0.38218507
210	0x3dc4321b	0.09579869
211	0x3e937cb3	0.28806075
212	0xbeba329e	-0.36366743
213	0x3edb92bb	0.42885384
214	0x3f1608b8	0.58607054
215	0x3e1e3c93	0.15452795
216	0x3cdcc06f	0.026947228
217	0x3f9d471e	1.2287328
218	0xbea27f7b	-0.31737885
219	0x3ea2de23	0.31810102
220	0x3f3aa14d	0.72902375
221	0x3ed362aa	0.41286212
222	0xbd5b7a52	-0.05358345
223	0x3cd123da	0.02552979
224	0xbc96cd40	-0.018408418
225	0x3dab4216	0.08362214
226	0x3d4ba14c	0.04971437
227	0x3df22a24	0.11824444
228	0xbd281404	-0.041034713
229	0xbd6ecf48	-0.058303148
230	0xbca8ed58	-0.020620987
231	0x3dce4cea	0.10073264
232	0x3dcc16f6	0.09965317
233	0xbd83bb9c	-0.06432268
234	0x3df00750	0.11720145
235	0x3d995782	0.07487394
236	0x3d452908	0.048134834
237	0xbc653130	-0.013988778
238	0x3db54d02	0.08852579
239	0x3d8e4334	0.06946412
240	0x3d9c9006	0.07644658
241	0x3d16424c	0.03668432
242	0xbcd80648	-0.026370183
243	0x3d818732	0.063246146
244	0xbdb573b8	-0.08859962
245	0x3b8ae360	0.004238531
246	0xbdb3aa14	-0.08772674
247	0x3ca22f40	0.019797921
248	0x3dd52eee	0.10409342
249	0xbdeb2824	-0.114822656
250	0xbd057d9c	-0.032590494
251	0xbde08576	-0.10962956
252	0xbdc79e9c	-0.09747049
253	0x3d917008	0.071014464
254	0x3b187700	0.002326429
255	0x3c6d59b0	0.014486715

tgnn._base_tgcn.linear_h.bias f4 [32]
0	0x3ec3d675	0.38249555
1	0x3e740d69	0.2383324
2	0xbdb67e32	-0.089107886
3	0xbe042973	-0.12906437
4	0x3ec83d8c	0.39109457
5	0x3f2c08c3	0.6720087
6	0x3e423350	0.18964887
7	0xbdd97f03	-0.10619929
8	0x3e59f8e5	0.21286352
9	0x3f32ab7c	0.69792914
10	0x3e9c157e	0.30485147
11	0x3ea975d0	0.33097696
12	0x3e858d92	0.26084572
13	0x3e8c5f9c	0.27416694
14	0xbd5bf182	-0.053697117
15	0xbe015309	-0.12629332
16	0xbdaaaba8	-0.08333522
17	0xbce08178	-0.027405486
18	0x3e1a5e6e	0.15075085
19	0x3f13f51f	0.577959
20	0x3f147038	0.5798373
21	0xbea92178	-0.33033347
22	0x3e93f19f	0.2889528
23	0x3e8a8b13	0.2705923
24	0x3e3a89a5	0.1821657
25	0x3f414d5c	0.75508666
26	0x3f3fee82	0.7497331
27	0x3eeabbea	0.45846492
28	0x3ec7a0d0	0.38989878
29	0x3e896e7e	0.2684211
30	0xbb634197	-0.0034676546
31	0x3eed1fa7	0.4631321

linear.weight f4 [16, 32]
0	0x3e94afc6	0.29040354
1	0xbf0e73bc	-0.55645347
2	0xbde4321f	-0.11142372
3	0x3faffe45	1.3749472
4	0x3f22b2d6	0.6355413
5	0xbf307cbc	-0.6894033
6	0x3f2ac8ce	0.66712654
7	0xbd541f80	-0.051787853
8	0x3f227f5a	0.63475573
9	0xbf7c5eee	-0.9858235
10	0x3e2a65bc	0.16640371
11	0x3ec420f0	0.3830638
12	0x3f4461fd	0.7671202
13	0xbf06bf3e	-0.5263556
14	0x3cd01d8f	0.02540472
15	0x3dbc55ba	0.091960385
16	0x3c8bcec0	0.01706636
17	0xbde9bcde	-0.11412977
18	0x3f3895b4	0.7210343
19	0xbf2ecf88	-0.6828542
20	0xbf7985ee	-0.97469985
21	0xbfd5b41b	-1.6695589
22	0x3f2e0294	0.67972684
23	0x3f120834	0.57043767
24	0xbe984aca	-0.2974456
25	0xbfc2b3fe	-1.5211179
26	0xbf4c692b	-0.79847974
27	0xbf42543d	-0.7590979
28	0xbf6cf933	-0.9256775
29	0x3de03ca3	0.109490655
30	0x3da4d7a8	0.08048946
31	0x3eb67fb2	0.356443
32	0x3e8d6384	0.27614987
33	0xbf276050	-0.65381336
34	0x3d2f3b5c	0.04278122
35	0x3f98ab66	1.1927307
36	0x3f2fd134	0.68678594
37	0xbf2f94dd	-0.6858652
38	0x3f308ed1	0.6896792
39	0xbd30468e	-0.043036036
40	0x3f4113ad	0.7542065
41	0xbf7dc8cc	-0.99134517
42	0x3ebb2df1	0.36558488
43	0x3ebeefa3	0.37292203
44	0x3f1a98a8	0.60389185
45	0xbf1ce8d2	-0.61292756
46	0xbe11616a	-0.14197317
47	0x3df094b5	0.117471136
48	0x3d155a9c	0.036463365
49	0xbd623948	-0.05523041
50	0x3f288ba7	0.6583809
51	0xbf438f74	-0.7639077
52	0xbf8519b8	-1.0398474
53	0xbfe0b785	-1.7556006
54	0x3f0b9d86	0.54537237
55	0x3f47c48c	0.7803428
56	0xbe3e8078	-0.18603694
57	0xbfc0f75e	-1.507549
58	0xbf4cf967	-0.8006806
59	0xbf403b91	-0.7509089
60	0xbf8821b6	-1.0635288
61	0x3e34000e	0.17578146
62	0x3e066249	0.1312343
63	0x3f139c04	0.57659936
64	0x3f0fb741	0.56139
65	0xbf3b8dec	-0.7326343
66	0xbdecae30	-0.11556661
67	0x3f85d619	1.0455962
68	0x3f1d834b	0.6152846
69	0xbf20ee43	-0.6286356
70	0x3f697223	0.91189784
71	0xbdd6f8b3	-0.10496654
72	0x3f08492c	0.5323665
73	0xbf823d75	-1.0175005
74	0x3e782725	0.24233682
75	0x3f0cd379	0.5501018
76	0x3f20ed95	0.6286252
77	0xbf3f7f5a	-0.748037
78	0x3c0c2c51	0.008555488
79	0x3d6f94a6	0.05849137
80	0xbe0eb946	-0.13937864
81	0xbe1508d6	-0.14554152
82	0x3edc18f5	0.4298779
83	0xbf62d1c0	-0.88601303
84	0xbf82e914	-1.022738
85	0xbfef5dad	-1.8700463
86	0x3f3a7e41	0.728489
87	0x3f3a707b	0.7282788
88	0xbf0bc680	-0.5459976
89	0xbfb925b0	-1.4464626
90	0xbf57a412	-0.84234726
91	0xbf57a86e	-0.8424138
92	0xbf76fa89	-0.96476036
93	0x3ee87db5	0.45408407
94	0x3ac7ea4b	0.001525232
95	0x3f0876cc	0.5330627
96	0x3f0a579e	0.54039943
97	0xbf5ae68a	-0.85508025
98	0x3c015b60	0.007895321
99	0x3f61699f	0.8805179
100	0x3f476fa3	0.7790472
101	0xbf0fb9e2	-0.5614301
102	0x3f2a36bd	0.66489774
103	0x3d339237	0.043840613
104	0x3f093b32	0.5360595
105	0xbf869997	-1.0515622
106	0x3eee518a	0.46546584
107	0x3ef11ecb	0.47093806
108	0x3f24566d	0.64194375
109	0xbf72464a	-0.946385
110	0x3c960e5a	0.01831739
111	0xbe0fdce6	-0.1404911
112	0x3e3424e9	0.17592205
113	0x3dfd0c2a	0.12355836
114	0x3f002e7b	0.50070924
115	0xbf7c6169	-0.98586136
116	0xbf7eacf0	-0.9948263
117	0xbff86f57	-1.9408978
118	0x3f54ca43	0.83121127
119	0x3f56c399	0.8389221
120	0xbeee5b81	-0.46554187
121	0xbfb37987	-1.4021462
122	0xbf68c014	-0.9091809
123	0xbf5210b2	-0.82056725
124	0xbf8d72b4	-1.105063
125	0x3e81bbc5	0.2533857
126	0xbd368b62	-0.04456652
127	0x3f55dd89	0.8354116
128	0x3f099d19	0.53755337
129	0xbf6dbc61	-0.9286557
130	0xbd6c1fc0	-0.057647467
131	0x3f12f3c7	0.57403225
132	0x3f439023	0.7639181
133	0xbf3b87bd	-0.73253995
134	0x3f6186dd	0.8809641
135	0x3db2e958	0.08735913
136	0x3f3d477e	0.73937213
137	0xbf7962a1	-0.9741612
138	0x3f20555e	0.6263026
139	0x3f165903	0.5872957
140	0x3f271877	0.65271705
141	0xbf6a9a27	-0.9164147
142	0xbcbd15c0	-0.02308166
143	0xbdc24e75	-0.09487621
144	0x3e32f501	0.17476274
145	0x3dd6be0a	0.10485466
146	0x3f02daa6	0.5111488
147	0xbf88bc60	-1.0682487
148	0xbf8a7329	-1.0816394
149	0xbffebfbc	-1.9902263
150	0x3f10f0a1	0.5661717
151	0x3f552794	0.83263516
152	0xbf014eee	-0.5051106
153	0xbfb0f365	-1.3824278
154	0xbf552754	-0.83263135
155	0xbf40a51e	-0.7525195
156	0xbfa36132	-1.2764037
157	0x3e8f8eab	0.28038535
158	0x3bda1310	0.0066551045
159	0x3f7f3c1e	0.99701107
160	0x3f473e59	0.7782951
161	0xbf854abc	-1.0413432
162	0x3e2ac425	0.16676386
163	0x3eca6ef9	0.3953779
164	0x3f4bc390	0.7959528
165	0xbf7477d5	-0.9549535
166	0x3f7179ac	0.9432628
167	0xbd18e6df	-0.03732955
168	0x3efba9dc	0.4915303
169	0xbf70e978	-0.94106245
170	0x3ed5caeb	0.41756377
171	0x3f23183c	0.63708854
172	0x3f62408f	0.8837976
173	0xbf8d3d60	-1.1034355
174	0xbd0e7f8b	-0.034789603
175	0x3ddf83ab	0.109137855
176	0xbdbfc9d9	-0.09364671
177	0xbe09c110	-0.13452554
178	0x3ec5a995	0.38605943
179	0xbf8a5f33	-1.0810302
180	0xbf96b976	-1.1775348
181	0xc001b3c4	-2.026597
182	0x3f5a233c	0.85210013
183	0x3f19e242	0.6011087
184	0xbef7b3e2	-0.48379427
185	0xbfa844a9	-1.3145953
186	0xbf38839f	-0.7207584
187	0xbf34c167	-0.7060761
188	0xbfbda97c	-1.4817348
189	0x3f1a37ac	0.602412
190	0x3d8f9d81	0.07012463
191	0x3f7d94c4	0.99055123
192	0x3f0db1f1	0.5534964
193	0xbf8957ca	-1.0729916
194	0x3dfc2082	0.12310888
195	0x3e489dd0	0.1959145
196	0x3f5ad282	0.8547746
197	0xbf4f0d70	-0.8087988
198	0x3f6babdd	0.9205912
199	0x3d4aa3c0	0.04947257
200	0x3f32692b	0.69691724
201	0xbf5f1bd8	-0.8715186
202	0x3f0a81c9	0.54104286
203	0x3f37321c	0.71560836
204	0x3f494abf	0.7862968
205	0xbfa01fb0	-1.250967
206	0xbde23fdb	-0.11047336
207	0xbd2a1944	-0.041528
208	0xbdd4ea2a	-0.10396226
209	0x3da62b72	0.08113755
210	0x3f02dda4	0.51119447
211	0xbfa1d7ff	-1.2644042
212	0xbf819fc7	-1.0126885
213	0xc004ff44	-2.0780802
214	0x3f1a7ccc	0.60346675
215	0x3f1eda5c	0.6205194
216	0xbf583138	-0.844501
217	0xbf97dfc4	-1.1865163
218	0xbf60728b	-0.8767478
219	0xbf48993b	-0.7835881
220	0xbfbe5641	-1.4870073
221	0x3f0a4cf3	0.54023665
222	0x3d19a392	0.03750951
223	0x3fa39282	1.2779086
224	0x3f4988a3	0.78724116
225	0xbfa0b014	-1.2553735
226	0xbccfba30	-0.025357336
227	0xbd3a84d4	-0.04553683
228	0x3f4d9b6f	0.803153
229	0xbf72997e	-0.9476546
230	0x3f83ae0c	1.028749
231	0xbd7a1fa2	-0.061065324
232	0x3f249ff3	0.64306563
233	0xbf643bfc	-0.8915403
234	0x3f488e75	0.7834237
235	0x3f1e17a5	0.6175483
236	0x3f32c844	0.6983683
237	0xbfb5c32a	-1.4200184
238	0x3cdd7f71	0.027038308
239	0xbdb7b461	-0.089699514
240	0xbc8d7e58	-0.01727216
241	0xbcb20538	-0.021731004
242	0x3ed84f89	0.4224818
243	0xbfa793c3	-1.3091968
244	0xbf87c74f	-1.0607699
245	0xc0024136	-2.0352302
246	0x3f4c7c96	0.79877603
247	0x3f4a379d	0.7899111
248	0xbf4802cd	-0.78129274
249	0xbf8ffd7b	-1.1249231
250	0xbf31e8d5	-0.694959
251	0xbf29b4a8	-0.66291285
252	0xbfc4ea9e	-1.53841
253	0x3ee6cf79	0.45080164
254	0x3caf65fd	0.021410936
255	0x3f8fe7fa	1.1242669

linear.bias f4 [16]
0	0x3ee2d3db	0.44302258
1	0x3e9762c5	0.29567543
2	0x3e8d5aa8	0.27608228
3	0x3e5e3029	0.21698059
4	0x3af075cc	0.0018345653
5	0xbd301a6d	-0.04299395
6	0xbd29c8d4	-0.04145129
7	0xbdf6255f	-0.12018847
8	0xbe7ea425	-0.24867304
9	0xbe7ae0f3	-0.24499874
10	0xbeb00a32	-0.34382778
11	0xbea08c39	-0.3135698
12	0xbea26371	-0.31716493
13	0xbeaf11ea	-0.34193355
14	0xbe8a6b5c	-0.27035034
15	0xbea2b91e	-0.31781858

linear2.weight f4 [6, 21]
0	0x3f3bbf82	0.7333909
1	0x3f303829	0.68835694
2	0x3d3566f8	0.04428765
3	0xbe706250	-0.23475003
4	0xbe9b0d58	-0.30283618
5	0x3ecf877f	0.40533063
6	0xbf08ee4c	-0.5348861
7	0x3f84b1d0	1.0366764
8	0x3daa8d2e	0.08327709
9	0x3ecb56bf	0.3971462
10	0xbf579506	-0.84211767
11	0xbeb143c5	-0.34622017
12	0xbd0fd463	-0.035114657
13	0xbe4c2b9d	-0.19938512
14	0x3ecc36b5	0.39885488
15	0xbf07eb5f	-0.5309352
16	0xbe9f4d4a	-0.31113654
17	0x3f02aef2	0.51048195
18	0x3c4538d4	0.012037475
19	0xbe9c2c0b	-0.30502352
20	0xbc29cf18	-0.010364316
21	0xbd29be39	-0.041441176
22	0x3ea05191	0.3131223
23	0x3d9cf4d0	0.07663882
24	0x3d6d5307	0.05794051
25	0xbf36f5a8	-0.7146859
26	0x3f07e1dc	0.5307901
27	0x3f3fc2e0	0.7490673
28	0x3e8dea76	0.27717942
29	0xbe30abf7	-0.172531
30	0x3e8ac3ee	0.27102607
31	0x3f1ebf2b	0.6201045
32	0xbd51d2e2	-0.051226504
33	0xbe33e9b7	-0.17569624
34	0x3e46d59c	0.19417423
35	0xbe37555a	-0.17903653
36	0xbeb3863e	-0.35063356
37	0x3d663620	0.05620396
38	0xbf5283a7	-0.82232136
39	0xbd8303bb	-0.06397196
40	0x3d88be68	0.06676942
41	0x3ea468db	0.32111248
42	0x3ed7a9b2	0.42121655
43	0x3c613b56	0.013747057
44	0xbd85ba5f	-0.06529688
45	0xbde92084	-0.11383155
46	0xbeaf6e1b	-0.3426369
47	0x3dd1f58e	0.10251914
48	0x3e87f8b5	0.26556936
49	0x3f25c7ef	0.647582
50	0x3e1377c4	0.14401156
51	0xbeef41b1	-0.46729806
52	0xbe0ef7df	-0.13961743
53	0xbdeaffd2	-0.11474575
54	0x3dfe8e3f	0.12429475
55	0xbec6ad89	-0.38804272
56	0x3f3983eb	0.72466916
57	0xbe9e102a	-0.30871707
58	0xbe1fe55c	-0.15614837
59	0xbe8b7dfb	-0.27244553
60	0xbe264a8c	-0.16239375
61	0xbec32d38	-0.38120437
62	0xbe4d2ccc	-0.2003662
63	0xbf012ecd	-0.5046204
64	0xbe861334	-0.26186526
65	0x3d97e2f2	0.07416333
66	0xbd195821	-0.037437562
67	0x3d9c1d74	0.07622805
68	0xbe8ece58	-0.27891803
69	0x3e405831	0.18783642
70	0xbfa1f67f	-1.265335
71	0x3e9f369f	0.3109636
72	0x3ec2d458	0.3805263
73	0x3e2b0db4	0.16704446
74	0x3f17c8c3	0.59290713
75	0x3ecabcce	0.39597172
76	0xbedd94e0	-0.43277645
77	0xbe456775	-0.19277747
78	0x3f784447	0.9697918
79	0x3f025082	0.50904095
80	0xbb9e249e	-0.0048261425
81	0xbe2b825d	-0.16748948
82	0x3ea178ec	0.3153757
83	0x3e8880d8	0.266608
84	0x3cc908d6	0.024540346
85	0xbe8b0624	-0.27153122
86	0xbe71c4a4	-0.23610169
87	0x3f0b544f	0.5442552
88	0x3f61e820	0.8824482
89	0xbeb4ead6	-0.35335416
90	0xbea59f22	-0.3234797
91	0x3ea9f2ca	0.33193046
92	0x3da74852	0.08168091
93	0xbf2088c0	-0.62708664
94	0xbe608fe1	-0.21929885
95	0xbf152227	-0.5825524
96	0x3cf32cdd	0.029684478
97	0x3e535433	0.20637588
98	0x3f022500	0.5083771
99	0xbe731fb1	-0.23742558
100	0xbeaa0414	-0.33206236
101	0x3ee73cc1	0.4516354
102	0x3ed5445e	0.41653723
103	0x3e4ce8db	0.20010702
104	0xbbc2e00b	-0.005947118
105	0xbe5bc70c	-0.21462649
106	0xbeaadc99	-0.33371428
107	0xbf156724	-0.58360505
108	0x3d0cdca4	0.034390107
109	0x3f32be29	0.6982141
110	0xbdd923e6	-0.1060255
111	0xb9aef9c2	-0.0003337395
112	0xbf64bf3c	-0.893543
113	0x3ecfd445	0.40591636
114	0x3dabd997	0.08391111
115	0x3e3de08b	0.18542688
116	0x3e20d0d8	0.15704668
117	0x3f18d344	0.59697366
118	0xbdd65c11	-0.10466779
119	0xbe0b35ad	-0.13594694
120	0x3f0b3125	0.54371864
121	0x3eb13f5a	0.34618646
122	0x3e97ac93	0.2962385
123	0xbe25e7de	-0.16201732
124	0x3e901bec	0.28146303
125	0xbd9755ea	-0.07389434

linear2.bias f4 [6]
0	0xbedb2f6f	-0.42809626
1	0x3e45e70b	0.19326417
2	0xbfe2651c	-1.7687106
3	0x3ea75308	0.32680535
4	0x3f287f2d	0.65819055
5	0xbf8ea806	-1.1145027
