A3TGCN2_Checkpoints/Epoch_39.pth (torch, 35255 bytes, 17 tensors)

tgnn._attention f4 [16]
00000000: f267 d03f e74e 5c3f 159d f23e 3ca9 a0bd
00000010: 1a32 2c3e 0b86 88bd 32ee 50bd fb6d 913e
00000020: e1de 213e 86d2 2e3e 8c3c 7d3e eb00 b03e
00000030: db76 a03e fe8a 0d3f d14d 3d3f 1188 a83f
1.6281722 0.86057895 0.4738547 -0.07844779 0.16815987 -0.06666192 -0.05100841 0.2840422
0.15807678 0.17072496 0.24730128 0.343757 0.3134068 0.5529021 0.73946863 1.3166524

tgnn._base_tgcn.conv_z.bias f4 [32]
00000000: 5dcf 0b3f 9e14 fd3e 4fb3 733e 7057 80bc
00000010: 708b 2ebe afcf cabe 1121 f2be e759 0fbf
00000020: a301 143f 2bcf 0b3f cea9 15bf daab 09bf
00000030: 4320 173e da72 093e 8ed3 023f 9702 083f
00000040: 1109 10bf 9a9f 153f 5f41 a43e b132 1a3f
00000050: 2a04 053f 019d 04bf e855 0bbf 1f9c 133f
00000060: adf1 f6be 11e8 07bf cc3b f6be cf65 ea3e
00000070: 0410 143f b7ac 98be 0521 a33e f72f 0a3f
0.54613286 0.49429792 0.2379887 -0.015666693 -0.17045379 -0.39611575 -0.47290853 -0.55996555
0.57815 0.5461299 -0.58462226 -0.5377785 0.147584 0.13422719 0.51104057 0.5312895
-0.56263834 0.5844666 0.32081124 0.602336 0.5195948 -0.5180207 -0.5442796 0.57660097
-0.4823126 -0.5308848 -0.48092496 0.457808 0.5783694 -0.2981927 0.3186113 0.5397944

tgnn._base_tgcn.conv_z.lin.weight f4 [32, 3]
00000000: f0e3 9bbe 238e b0be f16a 00c0 927b a43e
00000010: 5f94 08bf d0e1 80bf a2a6 50bf b522 033f
00000020: 5334 86bf 228d 47be 3241 553f 6a7c b13f
00000030: 3173 283f ddc3 36bf 4ff0 a13e e3ee e6bd
00000040: f6b6 073f 1653 f53f 88b1 1abf a684 65be
00000050: 485c bbbd 4e2d d3bc 6f4b 6e3e b4c6 db3f
00000060: 248e 613e df5a 08bf 6c3e acbf 3252 b83e
00000070: 23aa 5fbf 022e a6bf 34c8 193e 9b50 093f
00000080: 4907 6b3f a297 f3be 1a31 0e3f a412 4e3f
00000090: 3599 afbe 261b 473f 91ab 8ebe 1b2d 6abf
000000a0: d563 af3d d164 1a3e 08a8 c03e 3fe4 febe
000000b0: f607 97bf 1d7e e2bd 848f 83be 1d30 12c0
000000c0: ef69 27be 34d1 d53e f524 843f c33f e43d
000000d0: 60cd 2ebf 0015 ecbf 8237 06bf 9dfb 56be
000000e0: 0141 d43c cfb7 48be f216 f0be 3322 f3bf
000000f0: 6600 cc3e c864 eebe 887e 8dbf cb53 33be
00000100: 7221 bc3e cff1 3e3f d2a8 87be 2b15 503f
00000110: f800 d03f 3a4c a13d 4f11 17be d372 10c0
00000120: 09db d93e 4c2c 9b3d 1e03 0240 9f4c 923e
00000130: 837f 193d 0829 de3f 0704 163f a5fb 913e
00000140: 026c 693f 9612 06bf a895 cdbe 15bf 35bf
00000150: 6477 973d 052a 053e 3f2c d0bf ac52 483f
00000160: eda4 823f a20e b53f f35b 9abd 765c a7bf
00000170: 32f6 9abf 840f a7bc 7a89 03bf 0121 b9bf
-0.3044734 -0.34483442 -2.0065272 0.32125527 -0.53351396 -1.0068913 -0.8150426 0.51224834
-1.0484718 -0.19487432 0.83302605 1.3866093 0.6580077 -0.71392614 0.31628653 -0.11276033
0.5301355 1.9165981 -0.6042714 -0.22413883 -0.091484606 -0.025778439 0.23270963 1.7170014
0.22026879 -0.5326366 -1.345655 0.3600021 -0.87368983 -1.298279 0.15017778 0.5363862
0.9180799 -0.47576624 0.55543673 0.80497193 -0.34296575 0.777758 -0.2786527 -0.91475075
0.08563963 0.15077521 0.37628198 -0.49783513 -1.1799304 -0.110592104 -0.2569543 -2.2841866
-0.16349004 0.41761172 1.0323778 0.11144974 -0.6828213 -1.8443909 -0.5242845 -0.2099442
0.025909903 -0.19601367 -0.46892506 -1.8994812 0.39844054 -0.46561265 -1.1054239 -0.17512433
0.36744267 0.7458772 -0.26495987 0.812823 1.6250296 0.07875867 -0.14752696 -2.2570083
0.42549923 0.07576808 2.0314403 0.28574082 0.03747512 1.7356272 0.58599895 0.28512302
0.9118043 -0.5237211 -0.4015324 -0.70994693 0.07395819 0.1300431 -1.6263503 0.7825115
1.0206581 1.414509 -0.07537069 -1.3075092 -1.2106383 -0.02039314 -0.5138165 -1.4463197

tgnn._base_tgcn.linear_z.weight f4 [32, 64]
00000000: 377b adbe da7b 35bf d4e6 203f d843 583f
00000010: 617b cdbe 0fff 3c3f 800b 453e 13bd 613e
00000020: 88e4 35bf 02e5 adbf eeeb 8d3f 3715 263f
00000030: 829f 323e 81ce 53be 9377 30bf cd0a c9be
00000040: 95c2 373f e99d 84bf f655 8abe 100b 64bf
00000050: c63f f6be 80fd 203f a309 a43f d228 4abe
00000060: 2d89 f13a 0e1c 563d 6905 9b3e f6d5 45bf
00000070: 8377 26be b096 ce3e 87ba 49bf bf01 62bf
00000080: a8db a53c 04c7 643d 3064 373d a489 103d
00000090: 888e bd3c 3891 b7bc 7ce0 ea3d 581b 94bc
000000a0: 8c34 60bd f8df 9d3d 3c5e 3dbd ce22 ec3d
000000b0: f090 e23d 9ea1 abbd 904a d2bd 2060 27bd
000000c0: 3e22 a53d bc91 d2bd 02f5 8a3d 2820 febd
000000d0: 1015 c3bc 1cae 06bd 502e 593c 7cc9 ce3d
000000e0: 880a b4bd 802f 073b 6011 c83b 70c1 56bd
000000f0: 0029 0d3c ca87 b83d e4a6 9cbd 0c02 a23d
00000100: 65f3 77bf e706 b3be c9f1 1e3e 487f f53f
00000110: cbc3 6bbf 59c4 1040 8090 05bf 4093 b33d
00000120: 5c26 8ebe 181a 89bf 7967 8d3e f534 3a3e
00000130: 61b4 4f3f f0e2 133f fbdb acbe 2d76 29bf
00000140: 71aa d5bd 2436 acbf 5a16 65bd e1be 81bf
00000150: d669 1ebd 859a 2ebe ed51 a63f 9fe1 43be
00000160: 431e 793e c5dc 263d f89c 143f 242f 3bbf
00000170: ae18 d13e 61c4 b63f b6d7 febf 95f7 44bf
00000180: d2cf bf3d 4cda 5c3d c259 97bd 42ab 8ebd
00000190: 9040 e23c f8e8 103d c697 873d 0e66 bbbd
000001a0: eea7 f63d 2047 c9bc 5c9b 333d 646d 5bbd
000001b0: 3835 433d 82a0 da3d 724d b8bd 8027 393c
000001c0: 90f5 7a3c 30ae 93bc d46a 0cbd 5030 c63c
000001d0: d074 bd3c 789f 51bd 5c65 353d da7b d53d
000001e0: 3811 fa3c 36a7 82bd e8b3 99bc bc99 03bd
000001f0: b28e ff3d 7af1 84bd 2eab 993d 469f febd
00000200: 58e1 373d 28b3 f1bd b087 59bc 9a9d c1bd
00000210: b817 d1bd e059 b73c 76cc be3d c00a ba3d
00000220: 048f 59bd 34bb 14bd 688b abbc 80c7 5cbb
00000230: 588b a7bd 80f1 8dbb 8af4 983d 4a9a d63d
00000240: 34cf c43d 50e5 78bd 643b 963d 0814 883d
00000250: 0035 dc3d 3cbe 06bd 7258 c3bd 70a1 6c3c
00000260: 3647 853d 88a4 e7bc f061 1e3c 5824 93bc
00000270: 8aba d9bd 5c10 173d d8d9 023d 009d 2a3b
00000280: 9ac3 d4bd 14e1 4c3d 40d3 9f3b b0ab e1bd
00000290: b2e0 ddbd 60b8 603c 1065 723c f0da 233c
000002a0: 7a21 823d 0024 1bba faf7 f33d 0cc8 11bd
000002b0: f036 91bd 4666 b3bd 805b 7abd d085 f63d
000002c0: 46ac 803d f411 3cbd f8aa acbd c033 09bc
000002d0: c43e b23d a0fd f73d 264b e9bd 309b 6fbd
000002e0: 523d d4bd 18a8 bcbc c83d 93bc e8c6 e63d
000002f0: 1c1a f63d dc2b ec3d cc32 4cbd 20c0 5ebd
00000300: 7bd4 3cbf 31ed 09bf 2fb1 cd3e 97ee b13e
00000310: 6c51 12bf 7a70 a53f d823 f1bd 82de 133e
00000320: 101a efbe cb31 8dbf 33d7 2e3f caa1 a93e
00000330: c3f3 263f 52ec a6be 51e0 b6be acf5 babe
00000340: 4358 9c3e fc1d 68bf 4b13 53be d30b 30bf
00000350: 9b01 cdbe 6684 ba3e 1183 ac3f 6d0b 19bd
00000360: 5ac0 a03d 05cc 4ebd c11f 0c3f 80cf 80bf
00000370: bd76 b83d 7a39 743f 7d84 d3bf 235b 56bf
00000380: 4850 603d bae9 b0bd 48fa b4bd 60d5 4e3d
00000390: 48db 3cbd 20e6 403d aa9e c63d 108f 38bd
000003a0: f089 99bc 0ef6 c8bd 1c53 c6bd 20dd 883c
000003b0: 08a9 c43c 8edb cbbd 423c d3bd 3cbe 843d
000003c0: 606c 9fbb 0a32 d93d 5a11 da3d c880 1e3d
000003d0: c042 7fbc 2c94 433d 24cc b23d d22d ec3d
000003e0: 44d3 c03d 9c27 d7bd 00e2 85bd da41 f4bd
000003f0: a4a6 e0bd e0a5 603c 8c85 f53d 9880 0a3d
-0.33883068 -0.7089211 0.62852216 0.8447852 -0.40133193 0.7382669 0.19242668 0.22044782
-0.71051836 -1.3585513 1.1087625 0.6487612 0.1744366 -0.20684244 -0.68932456 -0.39266053
0.71781284 -1.036069 -0.27018708 -0.8907938 -0.4809553 0.6288681 1.2815441 -0.19742134
0.0018427722 0.05227285 0.30277565 -0.77279603 -0.16256528 0.4034934 -0.78800243 -0.88283914
0.020246342 0.05585386 0.04477328 0.035287514 0.023139253 -0.022408113 0.11468598 -0.018079445
-0.054737613 0.07708734 -0.046232447 0.11530076 0.11062801 -0.083804354 -0.10268128 -0.040863156
0.08063172 -0.10281703 0.06785013 -0.12408477 -0.023813754 -0.032880887 0.013255671 0.10097024
-0.08791071 0.0020627677 0.006105587 -0.05243057 0.008615732 0.09010275 -0.07649019 0.07910547
-0.96855766 -0.34966204 0.15521921 1.9179468 -0.9209563 2.261984 -0.52173615 0.0876832
-0.2776364 -1.0711088 0.27618006 0.18184264 0.8113461 0.57768154 -0.33761582 -0.66195947
-0.104329 -1.3454022 -0.05592952 -1.0136377 -0.03867515 -0.17051132 1.2993752 -0.19129036
0.2432795 0.040737886 0.58052015 -0.73118806 0.40839142 1.427868 -1.990958 -0.7694028
0.093658105 0.05391912 -0.07390167 -0.069662586 0.027618676 0.035378426 0.06620745 -0.09150325
0.12043749 -0.024570048 0.043849334 -0.05357112 0.047658175 0.10675146 -0.089991465 0.011300921
0.015317336 -0.018027395 -0.034281567 0.02419296 0.02312699 -0.051177472 0.044286117 0.104240134
0.030525789 -0.06379549 -0.018762544 -0.032129034 0.12478389 -0.064913705 0.07503353 -0.12432723
0.04489264 -0.118017495 -0.013276979 -0.09453888 -0.10209602 0.022381723 0.093163416 0.09084082
-0.053114906 -0.036311343 -0.020940498 -0.0033688247 -0.081808746 -0.0043317676 0.07468517 0.10478647
0.09609833 -0.060765564 0.073355466 0.06644446 0.107522964 -0.032896265 -0.09538354 0.014442787
0.06507723 -0.028276697 0.009666905 -0.017961666 -0.10631283 0.036880836 0.031946033 0.002603352
-0.103888705 0.05001934 0.004877478 -0.11019075 -0.10833873 0.013715833 0.014794603 0.010000929
0.063540414 -0.0005918145 0.11912532 -0.03559117 -0.070905566 -0.087597415 -0.061122417 0.120372415
0.062828586 -0.04591556 -0.08431047 -0.008374155 0.08703378 0.12108922 -0.113912866 -0.058497608
-0.103632584 -0.023029372 -0.017973796 0.11268407 0.12016699 0.11531803 -0.04985313 -0.054382443
-0.7376172 -0.5387755 0.40174243 0.34752342 -0.5715549 1.292495 -0.11774415 0.14440349
-0.46699572 -1.1030821 0.6829712 0.33131248 0.652157 -0.32602173 -0.35718015 -0.36515558
0.30536088 -0.9067075 -0.20612828 -0.6876804 -0.40040287 0.36429137 1.3477498 -0.037364412
0.07849188 -0.050487537 0.5473595 -1.0063324 0.090070225 0.954002 -1.6524807 -0.83732814
0.054764062 -0.0863833 -0.088368 0.05049646 -0.04610756 0.047094464 0.096982315 -0.04505831
-0.018742532 -0.09812556 -0.096838206 0.016707003 0.024006382 -0.09953986 -0.10314228 0.06481597
-0.004865214 0.10605247 0.10647841 0.038697034 -0.015579879 0.04774873 0.08730343 0.11532177
0.09415296 -0.10505602 -0.06537247 -0.11926623 -0.10969284 0.013711423 0.11988363 0.033814043

tgnn._base_tgcn.linear_z.bias f4 [32]
00000000: bb4b d0be e486 443f fa09 f23d cc56 fe3c
00000010: c400 9bbe 0034 1cbe 9a45 75be a91d 7d3c
00000020: dc2f 87be 7a93 36bc f965 efbe 0e1e c9be
00000030: 341c 31bf 8748 4abf 3063 873c 336e 8c3d
00000040: 1c2d 793d 7850 e3bd b12c f9be 8375 c0be
00000050: e1d9 a2be be7a 083f 114e 12be 60d1 24bf
00000060: cc2d 043f 4296 17bf 1aef b53d 093d adbe
00000070: f57c 783e 9d98 01bf 783c f53d bacc b7be
-0.40682778 0.76768327 0.11818309 0.031047247 -0.30274022 -0.15254211 -0.23952332 0.015448966
-0.264037 -0.01114356 -0.46757486 -0.39280742 -0.6918366 -0.7901692 0.016526788 0.06856956
0.060834035 -0.110993326 -0.4866691 -0.37589654 -0.31806853 0.5331229 -0.14287592 -0.6438198
0.5163238 -0.5921365 0.08883496 -0.3383563 0.24266417 -0.50623494 0.11974424 -0.3589838

tgnn._base_tgcn.conv_r.bias f4 [32]
00000000: 0000 0000 0000 0000 0000 0000 0000 0000
00000010: 0000 0000 0000 0000 0000 0000 0000 0000
00000020: 0000 0000 0000 0000 0000 0000 0000 0000
00000030: 0000 0000 0000 0000 0000 0000 0000 0000
00000040: 0000 0000 0000 0000 0000 0000 0000 0000
00000050: 0000 0000 0000 0000 0000 0000 0000 0000
00000060: 0000 0000 0000 0000 0000 0000 0000 0000
00000070: 0000 0000 0000 0000 0000 0000 0000 0000
0.0 0.0 0.0 0.0 0.0 0.0 0.0 0.0
0.0 0.0 0.0 0.0 0.0 0.0 0.0 0.0
0.0 0.0 0.0 0.0 0.0 0.0 0.0 0.0
0.0 0.0 0.0 0.0 0.0 0.0 0.0 0.0

tgnn._base_tgcn.conv_r.lin.weight f4 [32, 3]
00000000: 1ebb 2d3e 40d1 19bd 6891 6d3d 5b84 9d3e
00000010: 6687 95be c04b a5bc 28c7 0fbe 9a12 90be
00000020: 6474 c03d e0df 343c 5c84 c53d 074d a83e
00000030: a765 90be a018 1dbd 640a e9bd 9b2c 803e
00000040: 3455 8fbd 844f b9be a06e af3c a21e 073e
00000050: be3e 253e 54d1 cebd f2a1 173e a85e 8c3d
00000060: d633 4e3e 72bd 763e 1a6a 3bbe a03f 90be
00000070: 9c42 bb3d 3a99 6e3e 2204 133e cc30 3dbe
00000080: 490b 9cbe 6cbb bb3d 8f6c 8f3e 771b 3ebe
00000090: 0252 73be bf7d a03e 9dc9 c0be 8fcd 9d3e
000000a0: 6017 08bc 5ccb fa3d cc3e 17be d0fe 81be
000000b0: 53d9 c93e 8665 2a3e 7434 a7bd e294 77be
000000c0: 5d26 9a3e c18d 35be 5e6c 7b3e c6ee 293e
000000d0: b4d3 8abe fa16 2e3e e086 5fbc 79e0 8c3e
000000e0: 9de2 34be 980f bebe 5078 c9be 36b8 73be
000000f0: 7766 903e b296 7ebe 28c4 c8bd a0f8 0bbc
00000100: 80a3 1dbb 80a1 a0bd 44de 78be 74ab 90bd
00000110: 1e1f 9fbe 0f98 b5be fee6 773e e084 59be
00000120: aea8 773e 4790 47be ba2c 3d3e 640f 96bd
00000130: 3080 1fbe b674 3d3e 2e64 1e3e 1c08 bd3d
00000140: 80b5 543b c879 84bd 35fa cdbe 58e8 95bd
00000150: 6d45 b13e 9170 963e 94ee bf3d f253 4b3e
00000160: 50f6 4fbd 5e6d 83be 79b0 36be 92cd 303e
00000170: 099f cd3e 963f 143e 7025 78bd d693 b6be
0.16965911 -0.037553072 0.058 0.30765042 -0.29204863 -0.020177722 -0.14040816 -0.28139192
0.093972 0.011039704 0.09644386 0.32871267 -0.28202555 -0.038353562 -0.11378935 0.2503403
-0.06998673 -0.36193478 0.021415055 0.13195279 0.16137215 -0.1009852 0.14807871 0.06853992
0.20136961 0.24095705 -0.18302193 -0.28173542 0.09143564 0.23300639 0.14357045 -0.18475646
-0.3047736 0.09166607 0.2801251 -0.18565165 -0.23761752 0.31345937 -0.3765382 0.3082089
-0.008306354 0.12245819 -0.14770049 -0.2538972 0.39423618 0.1664029 -0.081643015 -0.24177888
0.30107394 -0.17729856 0.24553058 0.16594991 -0.27114642 0.17000952 -0.013642997 0.2751501
-0.17664571 -0.37121272 -0.39349604 -0.2380074 0.28203174 -0.24862173 -0.09803039 -0.008543164
-0.0024053752 -0.07843304 -0.24303538 -0.07063952 -0.31078428 -0.35467574 0.2420921 -0.21242094
0.2418544 -0.19488631 0.18474093 -0.07327154 -0.15576243 0.18501553 0.15467903 0.09230062
0.0032456815 -0.064685404 -0.40229955 -0.07319707 0.3462328 0.29382756 0.09371677 0.19856241
-0.05077201 -0.25669378 -0.17840756 0.17265919 0.40160397 0.14477381 -0.06058258 -0.35659665

tgnn._base_tgcn.linear_r.weight f4 [32, 64]
00000000: f80b 97bd 98e4 ea3c e87f 03bd 2e96 febd
00000010: e8bb c33c 2027 473d 5263 cb3d ac55 65bd
00000020: f223 ad3d a236 e1bd 40a9 dd3c 9808 ab3c
00000030: 1260 bcbd e4ed 763d 460d e23d 345a 80bd
00000040: 0846 2fbd 6010 943c f402 b73d 4662 8ebd
00000050: a45e 43bd 6438 373d c01a 273d 88c2 723d
00000060: e453 cc3d dc06 e83d 4c7b b63d c840 6b3d
00000070: ee84 933d 3c83 993d e228 e1bd 80d1 8f3b
00000080: 22af d6bd c022 bc3c b078 5b3d 5803 72bd
00000090: 5a66 df3d 70f3 613d c08c 5f3d 30be 303c
000000a0: e4a9 70bd 0889 ca3c 6a73 8e3d b43a c73d
000000b0: a8c8 d23d 9a7f 8c3d 5ea0 a03d 74fc 8dbd
000000c0: a022 9ebc 9409 17bd a427 a73d 1efa b7bd
000000d0: e8f0 cf3d 40ec 98bc cc6f f23d 14a5 223d
000000e0: 0057 c73d 0471 0bbd 94a1 d23d fa8d a4bd
000000f0: 3075 7b3c 00dc 143b 0e96 f93d ec00 023d
00000100: 8053 26bd 6e77 9abd 0c4a c63d 4cf4 58bd
00000110: 0870 96bd e61c fbbd 506e 36bc ecce cabd
00000120: 585e babc e249 88bd 386a fc3d 4685 9cbd
00000130: 3030 ad3d b836 e93d 680e a33d f827 8bbc
00000140: f87c d4bc 4cc4 cb3d c8da 9e3d 34f3 13bd
00000150: 5238 ff3d 5c6e babd caf6 a13d 2044 9bbb
00000160: 209d 283d eaaf e43d 5e53 ee3d 78a6 bcbc
00000170: 54c6 a7bd 0432 bd3d 048e c13d f630 b83d
00000180: 26b8 9b3d 6894 423d d0d5 b23d c6f0 d1bd
00000190: a0c5 1e3d 042d fa3d 2225 a73d 7441 093d
000001a0: 9038 f2bd 7875 f23d 0a1e 93bd 0a00 cbbd
000001b0: 9639 c13d 543c 55bd 945e 433d 1c2e 1b3d
000001c0: 50f1 323c 2c6e 39bd 32d5 d3bd 74b7 f73d
000001d0: 2846 84bc b83b 7d3d 2069 cbbc c69c ed3d
000001e0: acea d43d 06fd 9fbd 92d6 f6bd fce4 0e3d
000001f0: 906d 1abc f8ba b2bc 9437 fcbd 28fd c2bd
00000200: 1846 5f3d e067 64bc e843 c33d 7a95 923d
00000210: e0f5 3f3d c099 a53c a8f0 a9bc 3069 a73c
00000220: 9af1 b83d 1c4b 19bd 248a 803d ac82 9b3d
00000230: 04a0 af3d c01c 45bb debe dfbd b07d 5d3d
00000240: 26d7 f53d 98ab 9c3c dcaa 40bd 2066 ce3b
00000250: d43b 36bd 80fe 9bbb e6e8 8bbd e0ff 1fbd
00000260: d4e5 123d 9024 a7bc 0879 a3bd b06e 8bbd
00000270: e0f1 c73c 609b b6bd 0c82 c83d de62 aa3d
00000280: 50d6 0cbc 403e 593d 6cdc a1bd bc82 b13d
00000290: e08e 77bd a8af ecbd 1065 63bd 10e7 8f3d
000002a0: 8c12 02bd c0a6 f7bb 7004 a4bd 8243 9b3d
000002b0: 8cb6 fcbd 04e2 103d 641e e8bd 3c00 b03d
000002c0: 58c3 133d 7472 70bd 0044 4c3b 689f d6bc
000002d0: f8fb 6ebd d41a e03d 0452 e0bd 0060 00bc
000002e0: 48fc e33d a063 e33c 64f0 d1bd a0b8 e0bd
000002f0: 808c d83b ece7 3c3d f84f 3bbd ee57 b0bd
00000300: 8052 fe3a 7ce9 123d 5498 cfbd 1224 bcbd
00000310: c087 913c fc43 a5bd e8d9 eabc cc4f 66bd
00000320: 64f2 7d3d e498 ba3d 3e55 f9bd 0609 f53d
00000330: c295 ef3d 30aa e4bd 9e92 a33d 603d 04bd
00000340: ac90 1abd 7821 843d ce21 9d3d c86f 89bc
00000350: 3248 fb3d 6413 dabd 9813 dcbc c86e 77bd
00000360: 7cb8 e0bd 203f ff3d 144a bbbd 6cc1 b5bd
00000370: cc0a babd 94fa 8e3d 7899 cabd 60e5 c43c
00000380: 12a9 ba3d 04c4 233d c0e1 f4bc 1abf a5bd
00000390: 54c6 ce3d fc0f 64bd 60f9 d4bc 2288 a33d
000003a0: 8494 6fbd ae87 ab3d 38b0 ecbd eae0 913d
000003b0: 1448 773d 20f6 fc3c 401b a53c 40a5 2abb
000003c0: 9cde 073d 6455 a2bd 2c6b c6bd 2e55 94bd
000003d0: e450 6ebd 9ce2 783d 4467 bfbd b8e2 b63c
000003e0: 98d7 80bc 182b 8bbc 80c6 b63c e88d cebc
000003f0: f2cf 993d 9862 0bbd ac9b bcbd 804f 7c3c
-0.0737533 0.028673455 -0.032104403 -0.12430988 0.023893312 0.048621297 0.09931053 -0.055989906
0.08454122 -0.109967485 0.027058244 0.020878121 -0.091980115 0.060285464 0.11037688 -0.06267205
-0.042791396 0.018074214 0.0893611 -0.06952338 -0.04769768 0.044731513 0.040796995 0.05926755
0.09976938 0.11329433 0.08910236 0.057434827 0.07203089 0.07495734 -0.10994126 0.004388988
-0.10482623 0.022965789 0.053581893 -0.05908522 0.10908194 0.0551638 0.05457759 0.010787532
-0.05875577 0.024723545 0.06955607 0.097279936 0.102921784 0.068602756 0.078430876 -0.06932917
-0.01930362 -0.03687437 0.08161858 -0.08983253 0.10153371 -0.01866734 0.1183773 0.039708212
0.09733391 -0.034043327 0.10284725 -0.080348924 0.015347764 0.0022714138 0.12186824 0.03173916
-0.040606976 -0.07542311 0.09682092 -0.052967355 -0.07345587 -0.12261371 -0.011134699 -0.099027485
-0.022750065 -0.06654717 0.12324947 -0.076426074 0.08456457 0.1138739 0.07961732 -0.016986832
-0.025938496 0.0994955 0.07756573 -0.03612061 0.12461914 -0.09103081 0.079083994 -0.0047383457
0.04116547 0.111663654 0.11636995 -0.023028597 -0.08192125 0.09238055 0.094509155 0.089937136
0.07603483 0.047504812 0.08732188 -0.10251002 0.03876269 0.12215617 0.081613794 0.033509687
-0.11827195 0.11838812 -0.07183464 -0.09912117 0.09434812 -0.052059487 0.04769762 0.03788577
0.010921791 -0.045271084 -0.10343398 0.12095538 -0.016146734 0.06182453 -0.024830401 0.11602168
0.103963226 -0.07811932 -0.12052645 0.034886345 -0.009425536 -0.02181767 -0.12315288 -0.09520942
0.054510206 -0.013940781 0.095344365 0.07157417 0.046865344 0.020214915 -0.020744637 0.0204359
0.09030457 -0.037425146 0.06276348 0.07593283 0.085754424 -0.003007695 -0.10925077 0.054074943
0.12003927 0.019124791 -0.047037944 0.0062987953 -0.04449065 -0.0047605634 -0.06831531 -0.03906238
0.035863712 -0.020403177 -0.07982069 -0.06808221 0.024407327 -0.08916354 0.097904295 0.08319639
-0.008596018 0.05303788 -0.0790337 0.08667514 -0.06043899 -0.11556941 -0.055516303 0.070264935
-0.03175597 -0.00755772 -0.08008659 0.075812355 -0.123395056 0.035371795 -0.113339216 0.08593795
0.036074966 -0.0587029 0.003116846 -0.026199058 -0.058345765 0.10942617 -0.10953143 -0.007835388
0.11132103 0.027757466 -0.10250929 -0.109727144 0.006608546 0.046119615 -0.04573056 -0.08610521
0.0019403249 0.0358672 -0.10136476 -0.09186567 0.017764926 -0.080696076 -0.028668359 -0.056228444
0.06199874 0.09111193 -0.12174462 0.11964612 0.11698486 -0.11165273 0.079869494 -0.032285094
-0.037735626 0.06451696 0.07672463 -0.016776934 0.122696295 -0.1064823 -0.026864812 -0.060408384
-0.109726876 0.12463212 -0.09144989 -0.08874783 -0.090840906 0.06981388 -0.09892553 0.024035156
0.09114279 0.039981857 -0.029892802 -0.0809309 0.10096422 -0.055679306 -0.025997818 0.0798495
-0.058491245 0.08375488 -0.115570486 0.07122977 0.060371473 0.03087908 0.020154595 -0.0026038438
0.03317128 -0.07926443 -0.0968841 -0.07242809 -0.058182612 0.060762987 -0.09345868 0.022324905
-0.015727803 -0.016988322 0.022311449 -0.02521415 0.075103655 -0.034029573 -0.092093796 0.015399814

tgnn._base_tgcn.linear_r.bias f4 [32]
00000000: 1c8a 973d 4e00 d0bd 9435 7abd b0a5 4d3d
00000010: f215 883d 0060 6ebc e4de 8b3d f05d 193c
00000020: c0bf 1abb d44e f9bd 780b f2bd 3cce df3d
00000030: 08e4 543d 3eb9 edbd 54b4 703d 1c26 37bd
00000040: b067 193d 723e 8a3d 587a 083d f0b9 9cbc
00000050: ae30 b5bd d841 393d 3077 57bd ecb9 d9bd
00000060: feda d5bd 2c38 673d fc8f fe3d 00b3 7e3a
00000070: 2a6b ca3d b09b 133d b64d 843d 2240 8d3d
0.07399389 -0.10156308 -0.061086252 0.05020684 0.06644811 -0.014549255 0.068296224 0.009360775
-0.0023612827 -0.121732384 -0.11818594 0.10928008 0.05197528 -0.11607598 0.058765724 -0.04471408
0.0374524 0.06750192 0.0333198 -0.01913163 -0.088471755 0.04522881 -0.0526039 -0.10631165
-0.1044216 0.056450054 0.124298066 0.0009716004 0.09883721 0.036037147 0.06460135 0.06896998

tgnn._base_tgcn.conv_h.bias f4 [32]
00000000: 4998 983e 6b47 f93b c304 8cbe c884 b5bd
00000010: 8715 593e eb98 0fbf 7c5e a43e 55b1 9e3e
00000020: c18b 0d3f 8ac4 20bd c5b1 95be 88c0 3a3e
00000030: ad2e d3be 0acd 193a b84b b23d 8638 eebe
00000040: 23d7 373d 2e05 99be 9b23 793e 4f09 87bd
00000050: 6d63 a63d 5e58 ff3e 5042 373d 7675 343b
00000060: 9fca 5cbe f8cc 0f3e c273 6ebe d0f3 963e
00000070: de75 d83e 8201 ed3e 0edc 6ebe 5fa8 00bd
0.29803684 0.0076073906 -0.27347383 -0.08863217 0.21199618 -0.5609271 0.32103336 0.3099467
0.5529137 -0.039249934 -0.2923719 0.18237507 -0.41246548 0.000586704 0.087058485 -0.465275
0.044882905 -0.29886764 0.24329989 -0.06593572 0.08124433 0.49872106 0.044740975 0.0027535832
-0.21561669 0.14043033 -0.23286346 0.2948289 0.42277426 0.46290213 -0.23326132 -0.03141057

tgnn._base_tgcn.conv_h.lin.weight f4 [32, 3]
00000000: c6e5 603e 05aa 2ebf da27 d33f 0461 92be
00000010: 6789 8ebf 08ab 7f3f f2a3 c8bd 3422 35be
00000020: 7665 2140 a155 5cbd 0bca 903f 5b63 32bf
00000030: 78a4 083e c722 343f c1d3 d1bf 8908 0c3f
00000040: 79e6 a93e 6c59 14bf 7c53 16bf a2ca 18bf
00000050: be4e 0b3f 30d9 0bbf 2e21 a3be 1e72 9c3f
00000060: 754e 3abd f902 313f d1bd b3bd b45b 953d
00000070: 7176 99bf 6270 873f d353 3a3f a37b a93e
00000080: 711e a6bf 83c8 18bf b669 86bf 4c4d 72be
00000090: e964 b9bc 7ce7 2f3f d3c8 0abf 5258 203f
000000a0: c461 983f 8912 debd 24f8 4b3e 1818 22bf
000000b0: a552 f43f 3554 91bd 853e dabe 3273 ddbf
000000c0: 5bb7 3bbf e528 ce3d 8094 d93f 8f30 cbbe
000000d0: be1f 5abf 057f 75bf 6315 07be 15b4 50bf
000000e0: 1dc1 613f 5812 5f3d 0a08 a43f 7287 103e
000000f0: 481a 0fbe d27e 97bf 276c c7be ffe1 153e
00000100: 3918 4a3e 4265 b53f 841f 3b3f 2814 883f
00000110: 01e2 e73f b1ec 90be dc99 7dbf 2a28 b23f
00000120: c66e b53e e5c4 123f ca84 92bf c7ae 2d3e
00000130: 07b4 09bf eb24 e73f d03e fdbd d51c 8dbf
00000140: 6f8a 0bbf d3f6 d9be d7c0 30be d8e9 c53f
00000150: a296 95ba 3657 a8be 87d8 ea3f 75b5 e1be
00000160: a485 2f3f 5ecf ae3f e311 1a3f 29d3 b83e
00000170: 9447 c2bf f7d8 05bd cf3c 9ebf 6e3f 553f
0.21962652 -0.6822818 1.6496537 -0.28589642 -1.1135682 0.9987035 -0.09796895 -0.17688829
2.5218177 -0.0537926 1.1311659 -0.69682854 0.1334399 0.70365566 -1.6392747 0.54700524
0.3318365 -0.57948947 -0.5872114 -0.59684193 0.54417026 -0.54628277 -0.31861252 1.2222326
-0.04548498 0.6914516 -0.08776439 0.072928816 -1.198927 1.0581172 0.72784156 0.3310214
-1.297804 -0.59680957 -1.050101 -0.23662299 -0.022631126 0.6871259 -0.54212683 0.62634766
1.1904836 -0.10843379 0.19918877 -0.63318014 1.9087721 -0.07096139 -0.42625824 -1.730078
-0.73326653 0.10066394 1.6998444 -0.39685485 -0.85204685 -0.9589694 -0.13191752 -0.81524783
0.8818529 0.054460853 1.2814953 0.14114168 -0.13974869 -1.1835577 -0.389497 0.14636992
0.19735803 1.4171526 0.73094964 1.0631151 1.8115846 -0.2830558 -0.99062896 1.3918507
0.35436076 0.5733169 -1.1446774 0.16961204 -0.53790325 1.8058141 -0.12365496 -1.1024424
-0.5450811 -0.42571124 -0.17261063 1.5461988 -0.001141269 -0.32879037 1.8347329 -0.44083753
0.68563294 1.3657033 0.6018354 0.36098602 -1.5178094 -0.032677617 -1.2362307 0.8329991

tgnn._base_tgcn.linear_h.weight f4 [32, 64]
00000000: 6f66 dabe 27e5 80bf 4af2 43bf ea6b a43f
00000010: dc03 8a3f 8e43 753e 54d5 13bf 9bae 06bf
00000020: bb4b 233f 6c08 c4bf 5997 dc3e cc20 31bf
00000030: 3f16 833e a8ef 273f 6e51 3dbf 6241 d1be
00000040: c32d 03bf 5a87 09bf 55b4 34bf f62a 903f
00000050: b4a6 46bf b49f 753e 372e 993e 6758 bdbf
00000060: 33b1 1d3f 89c5 ebbe ce19 4abf 0079 b0be
00000070: c4e1 65bd 031f f73e 3353 d53e 06a1 adbf
00000080: 0ee0 84bd 6a56 b33d 129d a43d acf0 7fbd
00000090: 7ca2 1cbd 9ea3 9cbd 569c ec3d 4853 60bd
000000a0: 0058 793d 2451 12bd 7e2b c83d 381a d33d
000000b0: 8a11 c53d 286d 983c 50c9 473d 5891 c03c
000000c0: 087b dabc d857 57bd a0c0 eb3b 02f3 9cbd
000000d0: 4411 b8bd b2cb aebd 4c60 6e3d d0ae 1fbc
000000e0: 248c e63d fc9e 973d c48b 593d ac7e 19bd
000000f0: 02fd ccbd 9087 eb3d 8037 203b 86b2 e0bd
00000100: 9bf8 373f af29 db3e 78a8 7a3e 962c debf
00000110: 3c67 d4be 4172 96be 4a8f 043f 94c3 193f
00000120: f62f 46bd f0be 773f 172f a2be cd4f 953e
00000130: 8ec4 e9be 3923 95be e943 733f a183 36be
00000140: 89f7 9a3d db5d ff3d 6673 c33f 31ae 10bf
00000150: 6a12 bb3e 15b9 193e a391 093d 03a9 d73e
00000160: 0417 83bf 8335 4f3f 0f14 563e c298 333f
00000170: f657 c73e 0271 4cbd 6dbd 0abf f887 603f
00000180: 3a4c b6bd 40ed 54bc b64b f5bd e022 ac3c
00000190: e8b9 86bd f8af 643d da34 a6bd 3c68 80bd
000001a0: 00bc d23b 6073 de3b bc88 b83d 002f acba
000001b0: 9052 3e3d dcc0 a33d 682a abbd 04bf 9e3d
000001c0: 9cd9 56bd c097 6a3c 4826 d63c 6019 c23c
000001d0: 50ce ee3c d45e 3a3d 5480 a8bd d0bb 003d
000001e0: 289a 92bc 68cc 963d c27b 90bd b0f8 213d
000001f0: 548e 5a3d ec03 54bd 6a10 a9bd 5a04 bb3d
00000200: a4d3 e53d f6ae a73d 365a c5bd e46f 3d3d
00000210: 8c63 cdbd a8b3 88bc 7ced d2bd 8896 883d
00000220: 1afb 9c3d 94c6 a33d d48d 6bbd 222b f03d
00000230: 82bb b63d c099 843c 62f1 bdbd 3088 923d
00000240: d0f8 153d 9079 0f3c aa71 fabd ba4e 97bd
00000250: 903e 73bc ee13 eabd b4cb b43d 5888 c7bc
00000260: 889d 9abc e8c4 2d3d 70e4 563d 4c92 9ebd
00000270: 98d4 9c3c d449 73bd 069d d8bd 28f2 fc3d
00000280: 5805 fb3c 704e aebd b894 8dbd 0cd7 0f3d
00000290: 5a35 eebd 509d 2fbd c440 a93d 04d3 9bbd
000002a0: f430 d23d 9c2b 283d 7aeb d3bd 38ab 573d
000002b0: 76fe f33d 74dd 4a3d 586c d23d 0062 d3ba
000002c0: 729e c0bd e487 243d a069 033d 78d5 593d
000002d0: 2861 a1bc 04a4 80bd 44bf 133d a445 c0bd
000002e0: f01a d43d 5460 54bd 44ff ffbd da2b 903d
000002f0: 2076 d13b 20f0 23bd 6408 39bd 22f0 a7bd
00000300: 7a9a 363f 63e9 3e3c aa78 813f 4578 27be
00000310: 37a4 b1be 3f4d 783f 83b7 c7be 907a 10be
00000320: 8269 11bd ce0b 733e 4566 553e 6f1c 13bf
00000330: d624 973e 6312 843e 09cf a73f 4130 11bf
00000340: eebf aa3e 06fe b4be 78c7 a93d f686 953e
00000350: 8917 bbbe e656 cb3e 82d1 0d3f 15fc 343e
00000360: a790 303b fae9 983f c49b 9abe f091 b23e
00000370: cd05 323f 59fc d33e b924 e0bd 2f75 023d
00000380: 40cd 96bc 1642 ab3d 4ca1 4b3d 242a f23d
00000390: 0414 28bd 48cf 6ebd 58ed a8bc ea4c ce3d
000003a0: f616 cc3d 9cbb 83bd 5007 f03d 8257 993d
000003b0: 0829 453d 3031 65bc 024d b53d 3443 8e3d
000003c0: 0690 9c3d 4c42 163d 4806 d8bc 3287 813d
000003d0: b873 b5bd 60e3 8a3b 14aa b3bd 402f a23c
000003e0: ee2e d53d 2428 ebbd 9c7d 05bd 7685 e0bd
000003f0: 9c9e c7bd 0870 913d 0077 183b b059 6d3c
-0.42656276 -1.0069932 -0.7654158 1.2845433 1.0782428 0.23951551 -0.5774739 -0.52610177
0.6378743 -1.531507 0.4308422 -0.6919067 0.2560291 0.6560006 -0.73952377 -0.40870196
-0.512417 -0.53722155 -0.70587665 1.1263111 -0.7759812 0.23986703 0.29918072 -1.4792603
0.6159851 -0.46049145 -0.78945625 -0.34467316 -0.05612351 0.48265848 0.41665038 -1.3564765
-0.064880475 0.087567165 0.08037771 -0.062485382 -0.038240895 -0.07648395 0.11553256 -0.054766923
0.06087494 -0.035721913 0.097739205 0.10307735 0.09622486 0.018606737 0.04877597 0.023506805
-0.026669994 -0.05257401 0.0071945935 -0.076635376 -0.08987668 -0.085349455 0.058197305 -0.009746268
0.112571985 0.07403371 0.053111807 -0.03747432 -0.10009195 0.11500466 0.0024447143 -0.10971551
0.71863717 0.4280524 0.24478328 -1.7357357 -0.41485012 -0.29384044 0.5178114 0.60064054
-0.048385583 0.9677572 -0.31676552 0.29162446 -0.45657772 -0.29128435 0.950255 -0.1782365
0.07566745 0.124690734 1.5269592 -0.56515795 0.36537486 0.1501201 0.033586156 0.42121133
-1.0241399 0.8094103 0.20906089 0.70154965 0.38934296 -0.04991246 -0.5419529 0.8770747
-0.08901258 -0.012996018 -0.11977331 0.021012723 -0.065784276 0.05583188 -0.081155494 -0.06269881
0.0064311028 0.006788656 0.09010455 -0.0013136566 0.046465456 0.079957694 -0.08357698 0.07751277
-0.052453622 0.014318407 0.0261413 0.02369374 0.029151112 0.04550059 -0.08227602 0.031429112
-0.017895773 0.07363206 -0.07054855 0.039543808 0.05335839 -0.051761553 -0.08255084 0.09131689
0.11222008 0.08187668 -0.09636347 0.046249285 -0.10028753 -0.01668723 -0.10299203 0.066693366
0.07665081 0.0799686 -0.057508305 0.11726977 0.08922483 0.016186595 -0.09274556 0.07154882
0.03661424 0.00875701 -0.12228711 -0.07388063 -0.014846459 -0.114295825 0.08827916 -0.024357006
-0.018873945 0.042424113 0.05246395 -0.07742748 0.019144341 -0.05939658 -0.10576825 0.12350875
0.030642197 -0.085110545 -0.069131315 0.035117194 -0.1163127 -0.042874634 0.08264306 -0.076086074
0.10263243 0.041057214 -0.10347648 0.05265352 0.11913769 0.0495276 0.10274571 -0.0016127229
-0.09405221 0.040168658 0.032083154 0.053182095 -0.019699648 -0.062812835 0.036071077 -0.09388283
0.103567004 -0.05184968 -0.1249986 0.07039614 0.0063922554 -0.040023923 -0.045174018 -0.082000986
0.7132946 0.011652323 1.0114949 -0.16354473 -0.34695598 0.9699287 -0.39007196 -0.14109254
-0.03550101 0.23734972 0.20839794 -0.5746526 0.2952029 0.25795278 1.3110057 -0.56714255
0.33349556 -0.35350055 0.08289999 0.2920453 -0.36541393 0.39714736 0.5539781 0.17674287
0.0026941688 1.1946404 -0.30196965 0.34876966 0.695401 0.41403463 -0.10944504 0.031850036
-0.018408418 0.08362214 0.04971437 0.11824444 -0.041034713 -0.058303148 -0.020620987 0.10073264
0.09965317 -0.06432268 0.11720145 0.07487394 0.048134834 -0.013988778 0.08852579 0.06946412
0.07644658 0.03668432 -0.026370183 0.063246146 -0.08859962 0.004238531 -0.08772674 0.019797921
0.10409342 -0.114822656 -0.032590494 -0.10962956 -0.09747049 0.071014464 0.002326429 0.014486715

tgnn._base_tgcn.linear_h.bias f4 [32]
00000000: 646c a23e 3f1e 833e 327e b6bd 5437 24be
00000010: 7491 b63e 8b70 1d3f 3a8a 353e 037f d9bd
00000020: 4ec9 743e bea7 2e3f 990f 763e c175 913e
00000030: 0231 773e a3d5 983e 82f1 5bbd 0953 01be
00000040: a8ab aabd 7881 e0bc 07f2 473e de79 f73e
00000050: b56a 063f f3e7 b3be 826b 823e 1c95 7c3e
00000060: 2ea1 363e 4387 2c3f 27cf 3b3f c911 183f
00000070: cb75 a33e b734 523e 9741 63bb 149b c53e
0.3172332 0.25609013 -0.089107886 -0.16036731 0.35657847 0.6149985 0.1772851 -0.10619929
0.23904917 0.68224704 0.24029388 0.28410152 0.24139789 0.29850492 -0.053697117 -0.12629332
-0.08333522 -0.027405486 0.1952592 0.48335165 0.5250657 -0.351379 0.25472647 0.24666256
0.17834923 0.67393893 0.73362964 0.5940214 0.31925806 0.20527922 -0.0034676546 0.38594878

linear.weight f4 [16, 32]
00000000: 6487 9c3e ba0d ddbe 1f32 e4bd b07e 943f
00000010: aa48 cc3e b87a 26bf 5b83 fc3e 801f 54bd
00000020: e918 f33e 15f2 6cbf d1c1 883e d16e ba3e
00000030: 8519 233f 0ac1 c4be 8f1d d03c ba55 bc3d
00000040: c0ce 8b3c debc e9bd 8f69 1f3f 55d9 f4be
00000050: ef56 3ebf 7246 b0bf 58ec 0c3f b6cd d93e
00000060: cfe2 dabe fbc3 95bf 1645 41bf 1da0 30bf
00000070: cb56 3abf b908 773e a8d7 a43d be0d 8f3e
00000080: 7984 803e 75f6 0dbf 5c3b 2f3d 509f 7e3f
00000090: ee13 cc3e 225e 22bf 8814 033f 8e46 30bd
000000a0: 23f4 243f 02f9 66bf 106b e23e 2c64 a03e
000000b0: 32bd 023f 3177 e7be 6a61 11be b594 f03d
000000c0: 9c5a 153d 4839 62bd ad4a 243f a1b7 09bf
000000d0: 466b 4ebf 05cf bdbf 8354 d43e 19f9 2b3f
000000e0: e147 97be 6221 97bf 1cca 3dbf 0624 31bf
000000f0: 10d6 67bf f00c 933e 4962 063e d99c ed3e
00000100: 02d5 103f 5356 0abf 30ae ecbd e8b9 513f
00000110: cd3a b83e d30f 11bf be0f 3f3f b3f8 d6bd
00000120: c9e4 d43e e6b5 68bf beea 993e 8bad 053f
00000130: 47d8 f03e a048 11bf 512c 0c3c a694 6f3d
00000140: 46b9 0ebe d608 15be 74d8 c33e c731 2abf
00000150: e6d9 4fbf 513c c8bf 3db2 183f cf78 0d3f
00000160: 45ec 31bf fe67 85bf 4dc9 44bf 6a95 4bbf
00000170: 66f7 42bf cd44 083f 4bea c73a f7d9 d93e
00000180: f2ba f93e 0539 34bf 605b 013c 29a9 223f
00000190: 414e 013f 01be f0be 7d96 fa3e 3792 333d
000001a0: 0fdf e13e ef15 6cbf 41ea f13e d353 c93e
000001b0: a1f0 053f 5185 42bf 5a0e 963c e6dc 0fbe
000001c0: e924 343e 2a0c fd3d 92d7 f63e 7e85 3ebf
000001d0: ff24 48bf e154 d4bf 3727 313f 37b2 343f
000001e0: fc3e 1abf e7ab 83bf 640f 51bf 7155 43bf
000001f0: 8b93 62bf b001 903e 628b 36bd 292a 303f
00000200: 4186 f53e 7f0f 48bf c01f 6cbd bf78 a93e
00000210: 3797 fb3e 07d6 1fbf d3d2 2d3f 58e9 b23d
00000220: cd49 2c3f 0897 51bf 9b3a 1b3f c751 023f
00000230: 2af3 013f eab1 27bf c015 bdbc 754e c2bd
00000240: 01f5 323e 0abe d63d 11c7 033f d940 4fbf
00000250: df4b 5fbf cc84 dcbf 0170 cf3e f958 2b3f
00000260: 9a65 29bf ad81 8bbf 50b9 39bf f93d 26bf
00000270: 0e13 85bf 173f 8d3e 1013 da3b 31ce 4c3f
00000280: 3e35 343f ce63 5dbf 25c4 2a3e 8226 233e
00000290: e8dd 003f 4e4f 58bf 0165 413f dfe6 18bd
000002a0: c88c cd3e 5a1d 45bf 5316 c23e 9e86 0a3f
000002b0: 7d86 3a3f 766d 4ebf 8b7f 0ebd ab83 df3d
000002c0: d9c9 bfbd 10c1 09be ad3c b93e 9cca 53bf
000002d0: b531 7cbf 3379 e0bf b3dc 323f 1bba db3e
000002e0: 0d2e 22bf 3dee 7bbf 9664 1bbf e821 12bf
000002f0: db57 a5bf 7289 133f 819d 8f3d 98cc 4f3f
00000300: 3fb6 f73e f2af 51bf 8220 fc3d a30f 66bd
00000310: 0f2c 243f 76f7 2cbf 5347 343f c0a3 4a3d
00000320: fdb6 273f d856 32bf 5d47 f03e cc0f 233f
00000330: 82e5 1f3f 0d0c 7abf db3f e2bd 4419 2abd
00000340: 2aea d4bd 722b a63d 4b5f 023f 33ef 80bf
00000350: 16a3 4fbf 8ebc e4bf 1f83 d73e 0ea7 e23e
00000360: 125d 81bf 1379 60bf fccf 3ebf 8f54 30bf
00000370: abab a2bf f711 f03e 92a3 193d 4ffb 853f
00000380: 910d 283f 1f6e 8bbf 30ba cfbc 0fbe 92be
00000390: e707 033f 173a 50bf 703b 553f a21f 7abd
000003a0: 3034 1b3f bdc4 39bf ead9 2c3f 7e96 f33e
000003b0: 1cf5 143f 43df 89bf 717f dd3c 61b4 b7bd
000003c0: 587e 8dbc 3805 b2bc c2a5 d13e d379 84bf
000003d0: de4b 5bbf 2765 e6bf c688 243f a1aa 293f
000003e0: 18df 5ebf 49dd 54bf 30ba 12bf 23cb 00bf
000003f0: f61d abbf e66f b23e fd65 af3c 811a 673f
0.30572045 -0.43174535 -0.11142372 1.1601162 0.39899188 -0.65031004 0.49318966 -0.051787853
0.47479942 -0.9255689 0.2671037 0.3641267 0.63710815 -0.38428527 0.02540472 0.091960385
0.01706636 -0.11412977 0.62270445 -0.4782206 -0.743514 -1.3771498 0.5504813 0.42539757
-0.42751166 -1.1700433 -0.7549604 -0.68994313 -0.72788686 0.24124421 0.08048946 0.27940172
0.2510107 -0.5545419 0.04278122 0.9946184 0.39858955 -0.63424885 0.51203203 -0.043036036
0.64435023 -0.90223706 0.44222307 0.31326425 0.5106994 -0.45208123 -0.14197317 0.117471136
0.036463365 -0.05523041 0.64176446 -0.5379582 -0.80632436 -1.4828802 0.41470727 0.6717697
-0.29547027 -1.1807063 -0.7413652 -0.6919559 -0.9056101 0.28720808 0.1312343 0.46408728
0.56575024 -0.5403797 -0.11556661 0.81924295 0.3598236 -0.5666477 0.74633396 -0.10496654
0.415808 -0.90902555 0.30061907 0.5221793 0.47040007 -0.5675144 0.008555488 0.05849137
-0.13937864 -0.14554152 0.38251078 -0.66482204 -0.8119186 -1.5643407 0.5964697 0.55262464
-0.69501144 -1.0422361 -0.7686966 -0.7952486 -0.7615875 0.5322998 0.001525232 0.42549106
0.4877544 -0.70399505 0.007895321 0.6353937 0.5051003 -0.4701996 0.48942938 0.043840613
0.44115493 -0.9222097 0.47249034 0.39321765 0.52320296 -0.75984675 0.01831739 -0.1404911
0.17592205 0.12355836 0.48211342 -0.7442244 -0.7818145 -1.6588403 0.6920046 0.70584434
-0.60252357 -1.0286835 -0.8166411 -0.7630225 -0.8850638 0.28126287 -0.04456652 0.6881433
0.4795399 -0.78148645 -0.057647467 0.33099934 0.49138805 -0.62435955 0.6789982 0.08735913
0.6730011 -0.8187108 0.606363 0.5090603 0.50761664 -0.6550585 -0.02308166 -0.09487621
0.17476274 0.10485466 0.51475626 -0.80958325 -0.87225145 -1.7228026 0.4051514 0.66932636
-0.66170657 -1.0898949 -0.7254839 -0.6493831 -1.039644 0.27587196 0.0066551045 0.80002123
0.7039374 -0.86480415 0.16676386 0.15932658 0.503386 -0.8449601 0.75544745 -0.03732955
0.4014647 -0.7699791 0.37907657 0.5411166 0.7286146 -0.80635774 -0.034789603 0.109137855
-0.09364671 -0.13452554 0.36179104 -0.8273103 -0.98513347 -1.7536987 0.6986801 0.42915425
-0.6335152 -0.984104 -0.60700357 -0.57082987 -1.2917436 0.576316 0.07012463 0.8117156
0.4838123 -0.81909096 0.12310888 -0.056167256 0.6412973 -0.67565095 0.7042133 0.04947257
0.6551359 -0.69663763 0.46929446 0.6369598 0.62459576 -0.9767464 -0.11047336 -0.041528
-0.10396226 0.08113755 0.50926656 -1.0072998 -0.81108224 -1.7870042 0.42092225 0.44268078
-1.0106528 -0.87684745 -0.7453611 -0.68879026 -1.2708639 0.46888706 0.03750951 1.0467318
0.656457 -1.0892981 -0.025357336 -0.28660628 0.51183933 -0.8133864 0.8329382 -0.061065324
0.60626507 -0.72565824 0.6752001 0.47575754 0.5818651 -1.0771259 0.027038308 -0.089699514
-0.01727216 -0.021731004 0.40946776 -1.0349678 -0.8566264 -1.7999619 0.642712 0.66275984
-0.87059164 -0.83150154 -0.5731535 -0.5030996 -1.3368518 0.34850997 0.021410936 0.90274817

linear.bias f4 [16]
00000000: 3c1d d03e 1cb3 733e ac00 863e 6942 623e
00000010: 07a3 883a 0ce9 23bc f86c 5ebc 2384 97bd
00000020: 96ee 52be 1347 35be 853c 91be 3bc8 69be
00000030: 4501 8bbe 3232 88be 5053 3bbe 3f87 70be
0.40647304 0.23798794 0.26172388 0.22095646 0.0010424562 -0.010004293 -0.013575785 -0.0739825
-0.20598826 -0.17702894 -0.28366485 -0.22830288 -0.27149406 -0.26600796 -0.182935 -0.23489092

linear2.weight f4 [6, 21]
00000000: b801 163f 20ad 2e3f eaee b23d 9daf 2cbe
00000010: 7bb7 b3be 985f f73e f791 0abf eaaf 2c3f
00000020: 194e db3d 1989 bd3e 513a 1bbf cf27 79be
00000030: d5f3 0c3e 151d 213c 9463 9a3e 183c d4be
00000040: cf64 38be 6fa7 c63e 9ef7 d4bc df01 9cbe
00000050: cc76 0dbe 5fa0 f0bc d601 9f3e 66c3 9d3d
00000060: 2a58 003e bd5a dbbe d728 f13e c897 2c3f
00000070: a528 923e d479 c4bd 5013 653d 5147 123f
00000080: c2c9 3abd 2a47 80be c381 4e3e 5b8c 9abd
00000090: 4e07 a2be 4d57 fbbd ac0b 1bbf 28e3 8bbb
000000a0: 566c b73d abe9 833e 75a2 a53e b69f 9c3d
000000b0: 84bf 82bd 34b0 d3bd 3a0e 90be 580f 15bd
000000c0: fd3d 913e 5323 083f f85f 0f3e cd08 b8be
000000d0: f983 2cbe a354 89bd 1ce4 0f3e 2208 fcbe
000000e0: f11f 1e3f 1459 36be 4ee0 67bd 79ac 55be
000000f0: 87a2 50be a1fe b3be 1278 55be 47fe b4be
00000100: ce41 a4be 5276 2abe 3880 d8bd 3ff7 0c3e
00000110: d31f 98be a44a d33d dcd4 64bf 2639 953e
00000120: d94d c43e 186a cf3d 96f4 d13e 2f7a e13e
00000130: 53cc bbbe bf68 76be e2c0 493f 2ea8 f33e
00000140: 9642 363d b06c 86bd 07dc 903e 6c29 943e
00000150: 9d11 26bd d4ee 42be 6dd1 80bd cfe5 023f
00000160: 8028 233f 2d28 a8be f870 39be 8ba1 833e
00000170: a2a5 0e3d 57bb e2be 8881 3abe f08c f9be
00000180: 1a1a 90bd b76e 813d 596f 093f 6f42 3abe
00000190: a8b9 90be 71ac a13e b618 973e b133 4d3e
000001a0: 1dce a13d 7b5d 14be 7107 c6be 5a23 06bf
000001b0: 0d0b 3fbd b7fe e93e af09 99bd 912d 8d3d
000001c0: 2c43 23bf b07a 9f3e 8528 403e 80ae 8d3d
000001d0: 7d85 013e 3df5 0b3f 31ec 43be 3a68 22be
000001e0: d526 ed3e 67c9 d63e a03c 813e d3c4 47be
000001f0: 5a7e 8f3e 46d3 b43d
0.5859637 0.6823292 0.087369755 -0.16863866 -0.35100922 0.4831512 -0.54128975 0.67455924
0.10708255 0.3701866 -0.6063586 -0.24331592 0.1376489 0.009833594 0.30154097 -0.41452098
-0.18007205 0.38799617 -0.02599698 -0.30470178 -0.13814849 -0.029373346 0.31056088 0.07703285
0.12533632 -0.42842665 0.4710147 0.674191 0.28546634 -0.09593549 0.05592662 0.5714007
-0.045602567 -0.25054294 0.20166688 -0.07546302 -0.31646198 -0.12272511 -0.60564685 -0.0042690225
0.0895621 0.25764212 0.32350507 0.0764765 -0.06384185 -0.103363425 -0.28135854 -0.036391586
0.28367606 0.531789 0.14001453 -0.35944214 -0.16847219 -0.06705596 0.1405186 -0.49224955
0.6176749 -0.17807418 -0.056610398 -0.20866574 -0.203745 -0.35155204 -0.20846584 -0.35350248
-0.32081455 -0.16646698 -0.10571331 0.13766192 -0.2971178 0.10316971 -0.893873 0.29145163
0.38340643 0.10127658 0.41006917 0.4403853 -0.36679325 -0.24063395 0.7880994 0.47589248
0.044497095 -0.06563699 0.28292868 0.28937852 -0.04054414 -0.19036418 -0.06289945 0.5113191
0.63733673 -0.32843152 -0.181095 0.25709185 0.03482593 -0.44283554 -0.18213475 -0.4874034
-0.070362285 0.06319945 0.5368553 -0.18189405 -0.28266644 0.31576875 0.2951104 0.2003925
0.07900641 -0.14488785 -0.38677552 -0.5239769 -0.0466414 0.45702145 -0.0747255 0.06893457
-0.6377437 0.3114829 0.18765457 0.06918049 0.12648578 0.5467108 -0.19133069 -0.15860072
0.4631869 0.41950533 0.25241566 -0.19508676 0.28026086 0.0882936

linear2.bias f4 [6]
00000000: e8fb 90be 0af4 7c3e 184c bcbf e00d 1b3e
00000010: 7f98 293f 9de9 99bf
-0.2831719 0.24702469 -1.4710722 0.15142012 0.66248316 -1.2024418
