A3TGCN2_Checkpoints/Epoch_42.pth (torch, 35255 bytes, 17 tensors)

tgnn._attention f4 [16]
00000000: 57af d23f a7ec 563f f469 e53e b7be c5bd
00000010: 6553 213e 189e 61bd e066 cbbc 6d0c 8c3e
00000020: c5b9 203e 26e7 373e 92bb 7b3e 9672 a63e
00000030: 38f9 953e 24e1 083f 5ef5 3b3f d4ee aa3f
1.645976 0.8395485 0.44807398 -0.096555166 0.15754469 -0.05508241 -0.024829328 0.2735323
0.15695865 0.1795927 0.24583271 0.32509297 0.292917 0.5346854 0.73421276 1.3354135

tgnn._base_tgcn.conv_z.bias f4 [32]
00000000: 8398 0e3f 3a64 fc3e eb18 813e b3f2 3fbc
00000010: 01f1 36be 4358 cebe d8df e6be 3e8a 11bf
00000020: 53b6 143f 4966 0b3f e53f 16bf 72f4 08bf
00000030: 82e0 1a3e bd58 193e 272b 023f 6889 0a3f
00000040: 2342 10bf 8ec7 163f ac87 a53e 3706 1c3f
00000050: 5390 043f a8a9 03bf 0a7b 0bbf 9a5a 153f
00000060: 1dd5 ffbe 49cd 0abf 4680 fbbe fc82 ed3e
00000070: d61d 163f 0973 a0be 0292 a83e 8d6d 0b3f
0.55701464 0.49295217 0.25214323 -0.011715579 -0.17865373 -0.40301713 -0.45092654 -0.56851566
0.58090705 0.5445295 -0.58691245 -0.53497994 0.15124705 0.14975257 0.50847095 0.54115915
-0.56350917 0.58898246 0.32330072 0.60946983 0.5178272 -0.5143075 -0.5448462 0.5834137
-0.4996728 -0.5421949 -0.49121302 0.46388996 0.58639276 -0.31337765 0.32923895 0.54464036

tgnn._base_tgcn.conv_z.lin.weight f4 [32, 3]
00000000: 89fb 9fbe ab30 b0be eb92 02c0 6129 a93e
00000010: 3907 0abf d7a1 86bf efe3 53bf d810 093f
00000020: c827 87bf ef36 40be 609f 5a3f b607 b33f
00000030: e0c3 293f 1187 40bf 759a a83e baa6 e1bd
00000040: 6abc 093f e8bf f93f f11b 25bf 21a7 83be
00000050: 26e8 e43c 002f b7bc 6d8e 673e af91 e53f
00000060: 5d2c 633e 5237 09bf 7bb7 b1bf 2967 bc3e
00000070: 0cbc 62bf 26c1 a9bf 1f0a 183e 2f9d 0a3f
00000080: c76b 6f3f 3405 fabe 470a 0f3f 563e 5b3f
00000090: b709 afbe 1afa 523f a768 97be 549a 6cbf
000000a0: 0d79 b23d de98 3d3e bd42 c63e 60e3 00bf
000000b0: 030d 9ebf 6081 f1bd 0f35 80be db42 16c0
000000c0: e547 30be cab9 d53e 0dba 8a3f 5280 e43d
000000d0: 1eac 30bf 17a1 f0bf 8da2 07bf b8b3 5fbe
000000e0: f2f1 283d c08b 4cbe 1305 f1be 791a f7bf
000000f0: 454f cf3e 12d2 edbe 489b 96bf 2a6b 42be
00000100: 119e bc3e bd53 503f 601c 8abe f3a9 523f
00000110: 0f35 d43f 0960 a83d 58d3 0bbe 85da 15c0
00000120: fe49 e33e ebd1 813d 74bf 0440 b8cf 963e
00000130: ae47 d63c 87d0 e33f 0430 183f 7945 933e
00000140: d6f9 673f a1fd 06bf 514a d0be e8b8 34bf
00000150: 0131 b23d 27e3 223e 0595 dabf bd2c 4d3f
00000160: b83a 843f ec39 b33f 95a7 b4bd b6eb a8bf
00000170: 8eb2 9abf 6eb2 a5bc 7ca3 04bf cb50 bdbf
-0.31246594 -0.3441213 -2.0402172 0.33039382 -0.5391727 -1.051814 -0.82769674 0.53541327
-1.0559015 -0.18770956 0.85399437 1.3986728 0.66314507 -0.75206095 0.3293034 -0.11018129
0.5380312 1.951169 -0.6449576 -0.25713447 0.027942728 -0.022361279 0.22612925 1.7935084
0.22184892 -0.5360004 -1.3884119 0.36797455 -0.88568187 -1.3262069 0.14847611 0.54146093
0.9352383 -0.48832095 0.55875057 0.8564199 -0.341871 0.82412875 -0.2957203 -0.92422986
0.08714495 0.18515345 0.38722792 -0.50346947 -1.2347721 -0.117922544 -0.2504048 -2.3478305
-0.17214926 0.41743308 1.0838028 0.11157288 -0.6901263 -1.8799161 -0.5298241 -0.21845901
0.041246362 -0.19975185 -0.47074184 -1.9304954 0.40490165 -0.46449333 -1.1766138 -0.18986192
0.36839345 0.81377774 -0.26974773 0.8229057 1.6578692 0.08221442 -0.1365484 -2.3414624
0.4439239 0.06338867 2.0741854 0.29455352 0.026157226 1.7798012 0.59448266 0.2876394
0.90615594 -0.52730757 -0.406817 -0.70594645 0.08700753 0.15906964 -1.7076727 0.8014639
1.033042 1.4002051 -0.08821026 -1.3196933 -1.208574 -0.020226683 -0.5181196 -1.4790281

tgnn._base_tgcn.linear_z.weight f4 [32, 64]
00000000: a0a6 8abe 36dc 33bf 38cc 313f ec00 5f3f
00000010: d407 e5be 1a57 423f fb37 3d3e 66e3 4a3e
00000020: 6077 31bf 4069 b0bf 090d 833f 4a4e 253f
00000030: 07fb 4d3e 80d7 fabd dcd4 2fbf 7708 bcbe
00000040: 2ab7 313f affc 81bf 012d 21be 3132 53bf
00000050: 3d12 f4be e71e 1b3f b11b a63f 4e1e 3cbe
00000060: 5f41 52bd 230e 563c d024 1d3e 3835 2cbf
00000070: d30a 15be 74ec cb3e 2a1a 4cbf 81ce 54bf
00000080: a8db a53c 04c7 643d 3064 373d a489 103d
00000090: 888e bd3c 3891 b7bc 7ce0 ea3d 581b 94bc
000000a0: 8c34 60bd f8df 9d3d 3c5e 3dbd ce22 ec3d
000000b0: f090 e23d 9ea1 abbd 904a d2bd 2060 27bd
000000c0: 3e22 a53d bc91 d2bd 02f5 8a3d 2820 febd
000000d0: 1015 c3bc 1cae 06bd 502e 593c 7cc9 ce3d
000000e0: 880a b4bd 802f 073b 6011 c83b 70c1 56bd
000000f0: 0029 0d3c ca87 b83d e4a6 9cbd 0c02 a23d
00000100: cd1b 89bf 847c cbbe f0e9 843e bacc 0840
00000110: bb9b 8ebf a7fb 1940 60db 15bf 8ff8 b63d
00000120: be72 a6be 3d3d 98bf 67e3 c73e 0f84 583e
00000130: f567 823f a8b7 013f a992 bcbe ed6a 2fbf
00000140: f131 96bd ec45 babf 0241 97be d6d9 8ebf
00000150: afc6 75bd 2a31 15be ecae b63f 380a 2bbe
00000160: 0119 863e d58e d43c d86c 493f 8e48 82bf
00000170: cb5b ef3e 239c d03f b1b8 14c0 c189 5dbf
00000180: d2cf bf3d 4cda 5c3d c259 97bd 42ab 8ebd
00000190: 9040 e23c f8e8 103d c697 873d 0e66 bbbd
000001a0: eea7 f63d 2047 c9bc 5c9b 333d 646d 5bbd
000001b0: 3835 433d 82a0 da3d 724d b8bd 8027 393c
000001c0: 90f5 7a3c 30ae 93bc d46a 0cbd 5030 c63c
000001d0: d074 bd3c 789f 51bd 5c65 353d da7b d53d
000001e0: 3811 fa3c 36a7 82bd e8b3 99bc bc99 03bd
000001f0: b28e ff3d 7af1 84bd 2eab 993d 469f febd
00000200: 58e1 373d 28b3 f1bd b087 59bc 9a9d c1bd
00000210: b817 d1bd e059 b73c 76cc be3d c00a ba3d
00000220: 048f 59bd 34bb 14bd 688b abbc 80c7 5cbb
00000230: 588b a7bd 80f1 8dbb 8af4 983d 4a9a d63d
00000240: 34cf c43d 50e5 78bd 643b 963d 0814 883d
00000250: 0035 dc3d 3cbe 06bd 7258 c3bd 70a1 6c3c
00000260: 3647 853d 88a4 e7bc f061 1e3c 5824 93bc
00000270: 8aba d9bd 5c10 173d d8d9 023d 009d 2a3b
00000280: 9ac3 d4bd 14e1 4c3d 40d3 9f3b b0ab e1bd
00000290: b2e0 ddbd 60b8 603c 1065 723c f0da 233c
000002a0: 7a21 823d 0024 1bba faf7 f33d 0cc8 11bd
000002b0: f036 91bd 4666 b3bd 805b 7abd d085 f63d
000002c0: 46ac 803d f411 3cbd f8aa acbd c033 09bc
000002d0: c43e b23d a0fd f73d 264b e9bd 309b 6fbd
000002e0: 523d d4bd 18a8 bcbc c83d 93bc e8c6 e63d
000002f0: 1c1a f63d dc2b ec3d cc32 4cbd 20c0 5ebd
00000300: da25 3bbf ed3c 0dbf b8e8 d23e 9bc9 ab3e
00000310: 49cb 11bf a97a a53f 2352 d1bd bf59 1d3e
00000320: d5d5 f4be 8796 8ebf eb3c 2f3f c80d b13e
00000330: 787f 243f 6e20 9bbe 74ce bdbe 4a1d bdbe
00000340: db26 a23e 57a2 69bf 7635 3ebe 14c5 2fbf
00000350: 8d0d d4be f290 c03e db91 ad3f 5b95 41bd
00000360: 7aa1 973d 37c0 3bbd c40b 063f eb26 7bbf
00000370: 7fb9 a03d 7952 6f3f 4790 d1bf 3f82 57bf
00000380: 4850 603d bae9 b0bd 48fa b4bd 60d5 4e3d
00000390: 48db 3cbd 20e6 403d aa9e c63d 108f 38bd
000003a0: f089 99bc 0ef6 c8bd 1c53 c6bd 20dd 883c
000003b0: 08a9 c43c 8edb cbbd 423c d3bd 3cbe 843d
000003c0: 606c 9fbb 0a32 d93d 5a11 da3d c880 1e3d
000003d0: c042 7fbc 2c94 433d 24cc b23d d22d ec3d
000003e0: 44d3 c03d 9c27 d7bd 00e2 85bd da41 f4bd
000003f0: a4a6 e0bd e0a5 603c 8c85 f53d 9880 0a3d
-0.2708025 -0.7025789 0.6945224 0.8711078 -0.44732535 0.75914156 0.18478386 0.19813308
-0.69322777 -1.378212 1.0238353 0.64572585 0.2011529 -0.122481346 -0.6868417 -0.36725208
0.6942011 -1.0155238 -0.15739824 -0.8249846 -0.47670165 0.6059403 1.2977201 -0.18370935
-0.051331874 0.013064894 0.15346074 -0.67268705 -0.1455491 0.39828837 -0.79727423 -0.831276
0.020246342 0.05585386 0.04477328 0.035287514 0.023139253 -0.022408113 0.11468598 -0.018079445
-0.054737613 0.07708734 -0.046232447 0.11530076 0.11062801 -0.083804354 -0.10268128 -0.040863156
0.08063172 -0.10281703 0.06785013 -0.12408477 -0.023813754 -0.032880887 0.013255671 0.10097024
-0.08791071 0.0020627677 0.006105587 -0.05243057 0.008615732 0.09010275 -0.07649019 0.07910547
-1.0711609 -0.39743435 0.2595973 2.1374955 -1.1141275 2.4059846 -0.58537865 0.089341275
-0.32509416 -1.1893688 0.39040682 0.21144126 1.0187975 0.5067086 -0.36830643 -0.6852253
-0.07333744 -1.4552588 -0.29541785 -1.1160228 -0.060003933 -0.14569536 1.4272132 -0.16703117
0.2619095 0.025947014 0.7868171 -1.0178392 0.4674972 1.6297649 -2.3237727 -0.8653832
0.093658105 0.05391912 -0.07390167 -0.069662586 0.027618676 0.035378426 0.06620745 -0.09150325
0.12043749 -0.024570048 0.043849334 -0.05357112 0.047658175 0.10675146 -0.089991465 0.011300921
0.015317336 -0.018027395 -0.034281567 0.02419296 0.02312699 -0.051177472 0.044286117 0.104240134
0.030525789 -0.06379549 -0.018762544 -0.032129034 0.12478389 -0.064913705 0.07503353 -0.12432723
0.04489264 -0.118017495 -0.013276979 -0.09453888 -0.10209602 0.022381723 0.093163416 0.09084082
-0.053114906 -0.036311343 -0.020940498 -0.0033688247 -0.081808746 -0.0043317676 0.07468517 0.10478647
0.09609833 -0.060765564 0.073355466 0.06644446 0.107522964 -0.032896265 -0.09538354 0.014442787
0.06507723 -0.028276697 0.009666905 -0.017961666 -0.10631283 0.036880836 0.031946033 0.002603352
-0.103888705 0.05001934 0.004877478 -0.11019075 -0.10833873 0.013715833 0.014794603 0.010000929
0.063540414 -0.0005918145 0.11912532 -0.03559117 -0.070905566 -0.087597415 -0.061122417 0.120372415
0.062828586 -0.04591556 -0.08431047 -0.008374155 0.08703378 0.12108922 -0.113912866 -0.058497608
-0.103632584 -0.023029372 -0.017973796 0.11268407 0.12016699 0.11531803 -0.04985313 -0.054382443
-0.7310463 -0.5517109 0.41193175 0.3355225 -0.56950814 1.2928058 -0.102207445 0.15366267
-0.4781939 -1.1139687 0.6845233 0.34580827 0.64257 -0.3029818 -0.37071574 -0.36936408
0.3167027 -0.91263336 -0.18575081 -0.6866009 -0.41416588 0.37610584 1.3560137 -0.047261577
0.07403846 -0.045837607 0.523617 -0.9810626 0.078478806 0.9348522 -1.6372155 -0.84183115
0.054764062 -0.0863833 -0.088368 0.05049646 -0.04610756 0.047094464 0.096982315 -0.04505831
-0.018742532 -0.09812556 -0.096838206 0.016707003 0.024006382 -0.09953986 -0.10314228 0.06481597
-0.004865214 0.10605247 0.10647841 0.038697034 -0.015579879 0.04774873 0.08730343 0.11532177
0.09415296 -0.10505602 -0.06537247 -0.11926623 -0.10969284 0.013711423 0.11988363 0.033814043

tgnn._base_tgcn.linear_z.bias f4 [32]
00000000: 2d38 c1be fc4b 4a3f fa09 f23d 7257 a23c
00000010: a33d 7fbe 8344 27be ce9b 70be a91d 7d3c
00000020: 76ed 78be 9bef bcbc a9d7 ebbe 73ee b7be
00000030: e2d9 33bf 14f3 5cbf 3063 873c 336e 8c3d
00000040: 1c2d 793d 7850 e3bd 0367 f9be 5174 c0be
00000050: afa5 a4be 14f2 0c3f aedc 15be 8dd4 27bf
00000060: b538 0d3f 2772 17bf a97c 8e3d db66 babe
00000070: e792 7f3e 7c9c 01bf 783c f53d f956 b2be
-0.3773817 0.7902219 0.11818309 0.019817088 -0.24925856 -0.16334729 -0.23496935 0.015448966
-0.24309334 -0.023063472 -0.46062973 -0.3592411 -0.7025434 -0.8630841 0.016526788 0.06856956
0.060834035 -0.110993326 -0.48711404 -0.37588742 -0.32157657 0.5505688 -0.14634964 -0.655587
0.55164653 -0.5915856 0.06957371 -0.36406597 0.24958383 -0.506294 0.11974424 -0.3483198

tgnn._base_tgcn.conv_r.bias f4 [32]
00000000: 0000 0000 0000 0000 0000 0000 0000 0000
00000010: 0000 0000 0000 0000 0000 0000 0000 0000
00000020: 0000 0000 0000 0000 0000 0000 0000 0000
00000030: 0000 0000 0000 0000 0000 0000 0000 0000
00000040: 0000 0000 0000 0000 0000 0000 0000 0000
00000050: 0000 0000 0000 0000 0000 0000 0000 0000
00000060: 0000 0000 0000 0000 0000 0000 0000 0000
00000070: 0000 0000 0000 0000 0000 0000 0000 0000
0.0 0.0 0.0 0.0 0.0 0.0 0.0 0.0
0.0 0.0 0.0 0.0 0.0 0.0 0.0 0.0
0.0 0.0 0.0 0.0 0.0 0.0 0.0 0.0
0.0 0.0 0.0 0.0 0.0 0.0 0.0 0.0

tgnn._base_tgcn.conv_r.lin.weight f4 [32, 3]
00000000: 1ebb 2d3e 40d1 19bd 6891 6d3d 5b84 9d3e
00000010: 6687 95be c04b a5bc 28c7 0fbe 9a12 90be
00000020: 6474 c03d e0df 343c 5c84 c53d 074d a83e
00000030: a765 90be a018 1dbd 640a e9bd 9b2c 803e
00000040: 3455 8fbd 844f b9be a06e af3c a21e 073e
00000050: be3e 253e 54d1 cebd f2a1 173e a85e 8c3d
00000060: d633 4e3e 72bd 763e 1a6a 3bbe a03f 90be
00000070: 9c42 bb3d 3a99 6e3e 2204 133e cc30 3dbe
00000080: 490b 9cbe 6cbb bb3d 8f6c 8f3e 771b 3ebe
00000090: 0252 73be bf7d a03e 9dc9 c0be 8fcd 9d3e
000000a0: 6017 08bc 5ccb fa3d cc3e 17be d0fe 81be
000000b0: 53d9 c93e 8665 2a3e 7434 a7bd e294 77be
000000c0: 5d26 9a3e c18d 35be 5e6c 7b3e c6ee 293e
000000d0: b4d3 8abe fa16 2e3e e086 5fbc 79e0 8c3e
000000e0: 9de2 34be 980f bebe 5078 c9be 36b8 73be
000000f0: 7766 903e b296 7ebe 28c4 c8bd a0f8 0bbc
00000100: 80a3 1dbb 80a1 a0bd 44de 78be 74ab 90bd
00000110: 1e1f 9fbe 0f98 b5be fee6 773e e084 59be
00000120: aea8 773e 4790 47be ba2c 3d3e 640f 96bd
00000130: 3080 1fbe b674 3d3e 2e64 1e3e 1c08 bd3d
00000140: 80b5 543b c879 84bd 35fa cdbe 58e8 95bd
00000150: 6d45 b13e 9170 963e 94ee bf3d f253 4b3e
00000160: 50f6 4fbd 5e6d 83be 79b0 36be 92cd 303e
00000170: 099f cd3e 963f 143e 7025 78bd d693 b6be
0.16965911 -0.037553072 0.058 0.30765042 -0.29204863 -0.020177722 -0.14040816 -0.28139192
0.093972 0.011039704 0.09644386 0.32871267 -0.28202555 -0.038353562 -0.11378935 0.2503403
-0.06998673 -0.36193478 0.021415055 0.13195279 0.16137215 -0.1009852 0.14807871 0.06853992
0.20136961 0.24095705 -0.18302193 -0.28173542 0.09143564 0.23300639 0.14357045 -0.18475646
-0.3047736 0.09166607 0.2801251 -0.18565165 -0.23761752 0.31345937 -0.3765382 0.3082089
-0.008306354 0.12245819 -0.14770049 -0.2538972 0.39423618 0.1664029 -0.081643015 -0.24177888
0.30107394 -0.17729856 0.24553058 0.16594991 -0.27114642 0.17000952 -0.013642997 0.2751501
-0.17664571 -0.37121272 -0.39349604 -0.2380074 0.28203174 -0.24862173 -0.09803039 -0.008543164
-0.0024053752 -0.07843304 -0.24303538 -0.07063952 -0.31078428 -0.35467574 0.2420921 -0.21242094
0.2418544 -0.19488631 0.18474093 -0.07327154 -0.15576243 0.18501553 0.15467903 0.09230062
0.0032456815 -0.064685404 -0.40229955 -0.07319707 0.3462328 0.29382756 0.09371677 0.19856241
-0.05077201 -0.25669378 -0.17840756 0.17265919 0.40160397 0.14477381 -0.06058258 -0.35659665

tgnn._base_tgcn.linear_r.weight f4 [32, 64]
00000000: f80b 97bd 98e4 ea3c e87f 03bd 2e96 febd
00000010: e8bb c33c 2027 473d 5263 cb3d ac55 65bd
00000020: f223 ad3d a236 e1bd 40a9 dd3c 9808 ab3c
00000030: 1260 bcbd e4ed 763d 460d e23d 345a 80bd
00000040: 0846 2fbd 6010 943c f402 b73d 4662 8ebd
00000050: a45e 43bd 6438 373d c01a 273d 88c2 723d
00000060: e453 cc3d dc06 e83d 4c7b b63d c840 6b3d
00000070: ee84 933d 3c83 993d e228 e1bd 80d1 8f3b
00000080: 22af d6bd c022 bc3c b078 5b3d 5803 72bd
00000090: 5a66 df3d 70f3 613d c08c 5f3d 30be 303c
000000a0: e4a9 70bd 0889 ca3c 6a73 8e3d b43a c73d
000000b0: a8c8 d23d 9a7f 8c3d 5ea0 a03d 74fc 8dbd
000000c0: a022 9ebc 9409 17bd a427 a73d 1efa b7bd
000000d0: e8f0 cf3d 40ec 98bc cc6f f23d 14a5 223d
000000e0: 0057 c73d 0471 0bbd 94a1 d23d fa8d a4bd
000000f0: 3075 7b3c 00dc 143b 0e96 f93d ec00 023d
00000100: 8053 26bd 6e77 9abd 0c4a c63d 4cf4 58bd
00000110: 0870 96bd e61c fbbd 506e 36bc ecce cabd
00000120: 585e babc e249 88bd 386a fc3d 4685 9cbd
00000130: 3030 ad3d b836 e93d 680e a33d f827 8bbc
00000140: f87c d4bc 4cc4 cb3d c8da 9e3d 34f3 13bd
00000150: 5238 ff3d 5c6e babd caf6 a13d 2044 9bbb
00000160: 209d 283d eaaf e43d 5e53 ee3d 78a6 bcbc
00000170: 54c6 a7bd 0432 bd3d 048e c13d f630 b83d
00000180: 26b8 9b3d 6894 423d d0d5 b23d c6f0 d1bd
00000190: a0c5 1e3d 042d fa3d 2225 a73d 7441 093d
000001a0: 9038 f2bd 7875 f23d 0a1e 93bd 0a00 cbbd
000001b0: 9639 c13d 543c 55bd 945e 433d 1c2e 1b3d
000001c0: 50f1 323c 2c6e 39bd 32d5 d3bd 74b7 f73d
000001d0: 2846 84bc b83b 7d3d 2069 cbbc c69c ed3d
000001e0: acea d43d 06fd 9fbd 92d6 f6bd fce4 0e3d
000001f0: 906d 1abc f8ba b2bc 9437 fcbd 28fd c2bd
00000200: 1846 5f3d e067 64bc e843 c33d 7a95 923d
00000210: e0f5 3f3d c099 a53c a8f0 a9bc 3069 a73c
00000220: 9af1 b83d 1c4b 19bd 248a 803d ac82 9b3d
00000230: 04a0 af3d c01c 45bb debe dfbd b07d 5d3d
00000240: 26d7 f53d 98ab 9c3c dcaa 40bd 2066 ce3b
00000250: d43b 36bd 80fe 9bbb e6e8 8bbd e0ff 1fbd
00000260: d4e5 123d 9024 a7bc 0879 a3bd b06e 8bbd
00000270: e0f1 c73c 609b b6bd 0c82 c83d de62 aa3d
00000280: 50d6 0cbc 403e 593d 6cdc a1bd bc82 b13d
00000290: e08e 77bd a8af ecbd 1065 63bd 10e7 8f3d
000002a0: 8c12 02bd c0a6 f7bb 7004 a4bd 8243 9b3d
000002b0: 8cb6 fcbd 04e2 103d 641e e8bd 3c00 b03d
000002c0: 58c3 133d 7472 70bd 0044 4c3b 689f d6bc
000002d0: f8fb 6ebd d41a e03d 0452 e0bd 0060 00bc
000002e0: 48fc e33d a063 e33c 64f0 d1bd a0b8 e0bd
000002f0: 808c d83b ece7 3c3d f84f 3bbd ee57 b0bd
00000300: 8052 fe3a 7ce9 123d 5498 cfbd 1224 bcbd
00000310: c087 913c fc43 a5bd e8d9 eabc cc4f 66bd
00000320: 64f2 7d3d e498 ba3d 3e55 f9bd 0609 f53d
00000330: c295 ef3d 30aa e4bd 9e92 a33d 603d 04bd
00000340: ac90 1abd 7821 843d ce21 9d3d c86f 89bc
00000350: 3248 fb3d 6413 dabd 9813 dcbc c86e 77bd
00000360: 7cb8 e0bd 203f ff3d 144a bbbd 6cc1 b5bd
00000370: cc0a babd 94fa 8e3d 7899 cabd 60e5 c43c
00000380: 12a9 ba3d 04c4 233d c0e1 f4bc 1abf a5bd
00000390: 54c6 ce3d fc0f 64bd 60f9 d4bc 2288 a33d
000003a0: 8494 6fbd ae87 ab3d 38b0 ecbd eae0 913d
000003b0: 1448 773d 20f6 fc3c 401b a53c 40a5 2abb
000003c0: 9cde 073d 6455 a2bd 2c6b c6bd 2e55 94bd
000003d0: e450 6ebd 9ce2 783d 4467 bfbd b8e2 b63c
000003e0: 98d7 80bc 182b 8bbc 80c6 b63c e88d cebc
000003f0: f2cf 993d 9862 0bbd ac9b bcbd 804f 7c3c
-0.0737533 0.028673455 -0.032104403 -0.12430988 0.023893312 0.048621297 0.09931053 -0.055989906
0.08454122 -0.109967485 0.027058244 0.020878121 -0.091980115 0.060285464 0.11037688 -0.06267205
-0.042791396 0.018074214 0.0893611 -0.06952338 -0.04769768 0.044731513 0.040796995 0.05926755
0.09976938 0.11329433 0.08910236 0.057434827 0.07203089 0.07495734 -0.10994126 0.004388988
-0.10482623 0.022965789 0.053581893 -0.05908522 0.10908194 0.0551638 0.05457759 0.010787532
-0.05875577 0.024723545 0.06955607 0.097279936 0.102921784 0.068602756 0.078430876 -0.06932917
-0.01930362 -0.03687437 0.08161858 -0.08983253 0.10153371 -0.01866734 0.1183773 0.039708212
0.09733391 -0.034043327 0.10284725 -0.080348924 0.015347764 0.0022714138 0.12186824 0.03173916
-0.040606976 -0.07542311 0.09682092 -0.052967355 -0.07345587 -0.12261371 -0.011134699 -0.099027485
-0.022750065 -0.06654717 0.12324947 -0.076426074 0.08456457 0.1138739 0.07961732 -0.016986832
-0.025938496 0.0994955 0.07756573 -0.03612061 0.12461914 -0.09103081 0.079083994 -0.0047383457
0.04116547 0.111663654 0.11636995 -0.023028597 -0.08192125 0.09238055 0.094509155 0.089937136
0.07603483 0.047504812 0.08732188 -0.10251002 0.03876269 0.12215617 0.081613794 0.033509687
-0.11827195 0.11838812 -0.07183464 -0.09912117 0.09434812 -0.052059487 0.04769762 0.03788577
0.010921791 -0.045271084 -0.10343398 0.12095538 -0.016146734 0.06182453 -0.024830401 0.11602168
0.103963226 -0.07811932 -0.12052645 0.034886345 -0.009425536 -0.02181767 -0.12315288 -0.09520942
0.054510206 -0.013940781 0.095344365 0.07157417 0.046865344 0.020214915 -0.020744637 0.0204359
0.09030457 -0.037425146 0.06276348 0.07593283 0.085754424 -0.003007695 -0.10925077 0.054074943
0.12003927 0.019124791 -0.047037944 0.0062987953 -0.04449065 -0.0047605634 -0.06831531 -0.03906238
0.035863712 -0.020403177 -0.07982069 -0.06808221 0.024407327 -0.08916354 0.097904295 0.08319639
-0.008596018 0.05303788 -0.0790337 0.08667514 -0.06043899 -0.11556941 -0.055516303 0.070264935
-0.03175597 -0.00755772 -0.08008659 0.075812355 -0.123395056 0.035371795 -0.113339216 0.08593795
0.036074966 -0.0587029 0.003116846 -0.026199058 -0.058345765 0.10942617 -0.10953143 -0.007835388
0.11132103 0.027757466 -0.10250929 -0.109727144 0.006608546 0.046119615 -0.04573056 -0.08610521
0.0019403249 0.0358672 -0.10136476 -0.09186567 0.017764926 -0.080696076 -0.028668359 -0.056228444
0.06199874 0.09111193 -0.12174462 0.11964612 0.11698486 -0.11165273 0.079869494 -0.032285094
-0.037735626 0.06451696 0.07672463 -0.016776934 0.122696295 -0.1064823 -0.026864812 -0.060408384
-0.109726876 0.12463212 -0.09144989 -0.08874783 -0.090840906 0.06981388 -0.09892553 0.024035156
0.09114279 0.039981857 -0.029892802 -0.0809309 0.10096422 -0.055679306 -0.025997818 0.0798495
-0.058491245 0.08375488 -0.115570486 0.07122977 0.060371473 0.03087908 0.020154595 -0.0026038438
0.03317128 -0.07926443 -0.0968841 -0.07242809 -0.058182612 0.060762987 -0.09345868 0.022324905
-0.015727803 -0.016988322 0.022311449 -0.02521415 0.075103655 -0.034029573 -0.092093796 0.015399814

tgnn._base_tgcn.linear_r.bias f4 [32]
00000000: 1c8a 973d 4e00 d0bd 9435 7abd b0a5 4d3d
00000010: f215 883d 0060 6ebc e4de 8b3d f05d 193c
00000020: c0bf 1abb d44e f9bd 780b f2bd 3cce df3d
00000030: 08e4 543d 3eb9 edbd 54b4 703d 1c26 37bd
00000040: b067 193d 723e 8a3d 587a 083d f0b9 9cbc
00000050: ae30 b5bd d841 393d 3077 57bd ecb9 d9bd
00000060: feda d5bd 2c38 673d fc8f fe3d 00b3 7e3a
00000070: 2a6b ca3d b09b 133d b64d 843d 2240 8d3d
0.07399389 -0.10156308 -0.061086252 0.05020684 0.06644811 -0.014549255 0.068296224 0.009360775
-0.0023612827 -0.121732384 -0.11818594 0.10928008 0.05197528 -0.11607598 0.058765724 -0.04471408
0.0374524 0.06750192 0.0333198 -0.01913163 -0.088471755 0.04522881 -0.0526039 -0.10631165
-0.1044216 0.056450054 0.124298066 0.0009716004 0.09883721 0.036037147 0.06460135 0.06896998

tgnn._base_tgcn.conv_h.bias f4 [32]
00000000: 62f8 983e a668 aa3b a056 8fbe 4950 b9bd
00000010: 3202 613e 3f91 14bf 2215 af3e 72e3 a43e
00000020: 4e35 113f a2b0 2dbd abc8 9cbe 6a5b 4c3e
00000030: bf03 d8be 4c59 4ebb ae73 a83d f38b f4be
00000040: bc9d 693d 34ed 99be 26f7 7e3e 1531 87bd
00000050: f8e4 b13d 1bdc 013f 1352 fb3c 5735 5c3b
00000060: cd83 62be f8bc 0c3e 8a4f 73be 3605 9d3e
00000070: f503 dc3e 7b25 f43e fbf0 79be b5e3 0dbd
0.29877 0.0052004633 -0.27995777 -0.09048516 0.21973494 -0.5803413 0.3419581 0.32204777
0.5672196 -0.04240478 -0.30621848 0.19956747 -0.42190358 -0.003148633 0.08225189 -0.47763023
0.057035193 -0.30063784 0.24898967 -0.066011585 0.086862504 0.5072648 0.030678784 0.003360113
-0.2212059 0.13743961 -0.2376081 0.30668038 0.4297177 0.47684845 -0.24408333 -0.034640986

tgnn._base_tgcn.conv_h.lin.weight f4 [32, 3]
00000000: 3145 623e 2491 2fbf e4e2 d43f dd92 90be
00000010: 7272 8fbf 68d4 823f 9175 b2bd 6d5e 32be
00000020: 2b6c 2540 411d 64bd bc29 933f 0170 32bf
00000030: 6957 053e 85c0 333f 5be7 dabf 049c 0c3f
00000040: 9f99 a83e 8b09 11bf f9eb 16bf 3db1 18bf
00000050: 63fa 043f bf2c 0cbf 743d a2be 9294 9d3f
00000060: 312b 3fbd 47f8 303f fa84 f1bd db30 9f3d
00000070: a140 9bbf ba52 8a3f 3b53 3b3f 00a6 a73e
00000080: 5da4 a6bf 7f1f 1bbf fca3 86bf 96aa 89be
00000090: a54e e0bc fcc4 303f d7fd 07bf 87dd 213f
000000a0: ff7e 983f 1685 d4bd 7cba 4c3e cb40 23bf
000000b0: ea10 f73f cc4d 90bd a43d dabe 1a3f ddbf
000000c0: 0377 3dbf cf8f e23d 8ea1 dc3f e83d cabe
000000d0: d9ae 59bf f187 74bf 705e 06be 1717 53bf
000000e0: d429 613f 3442 4f3d b5a6 a53f bb38 153e
000000f0: b00c 10be 39cf 98bf e61f d3be 2d6e 183e
00000100: 2fa0 483e 26ef b43f cba8 3c3f 8c89 873f
00000110: 0607 ee3f 5de6 8ebe d3bf 7ebf d595 b53f
00000120: 420a b53e 2ea5 133f 81b6 94bf a3f8 2d3e
00000130: cf9d 0abf d0ca e93f 24fd f9bd 0765 8dbf
00000140: 76b1 08bf 2b0e dbbe 4b3e 2fbe a932 c73f
00000150: 6fe5 89b9 57fb a8be 47d4 eb3f 4cd0 e1be
00000160: f33a 303f 4d03 ae3f a752 1a3f f08f b73e
00000170: 7bb1 c3bf a2e7 f6bc c5df 9fbf a2c5 5b3f
0.22096707 -0.6858084 1.6631742 -0.28237048 -1.1206801 1.0221071 -0.0871383 -0.17418833
2.584727 -0.05569196 1.1497111 -0.69702154 0.13021626 0.70215636 -1.7101854 0.5492556
0.32929704 -0.56655186 -0.58953816 -0.59645444 0.5194456 -0.5475578 -0.3168751 1.2310965
-0.04667205 0.6912884 -0.117929414 0.0777299 -1.2129098 1.0806496 0.73173875 0.32743835
-1.301891 -0.60594934 -1.0518794 -0.2688796 -0.02738125 0.69050574 -0.53121704 0.6322865
1.1913756 -0.10376947 0.19993013 -0.6377074 1.9302037 -0.070460886 -0.42625153 -1.7284882
-0.7400972 0.110625856 1.7236803 -0.39500356 -0.8503242 -0.9551993 -0.13121963 -0.8245711
0.8795445 0.050600246 1.29415 0.14572422 -0.1406734 -1.1938239 -0.41235274 0.14885779
0.19592355 1.4135482 0.7369506 1.0588851 1.8595893 -0.27910128 -0.9951145 1.418635
0.3535939 0.5767392 -1.1618196 0.16989379 -0.54147047 1.8265018 -0.12206486 -1.1046456
-0.53395784 -0.42784247 -0.17113607 1.5562335 -0.00026301618 -0.33004257 1.8424157 -0.4410423
0.6883995 1.3594757 0.6028237 0.35852003 -1.5288538 -0.030139748 -1.2490164 0.8584844

tgnn._base_tgcn.linear_h.weight f4 [32, 64]
00000000: 0024 dabe e621 85bf 3476 4cbf ce20 a43f
00000010: c999 8d3f 41e7 6a3e 4f54 11bf f407 06bf
00000020: 7a23 263f 4b70 c7bf 8e0a dc3e fac6 2bbf
00000030: c75a 7c3e 5cac 263f eed2 41bf 3b34 d2be
00000040: ae2f 09bf c6eb 09bf 136a 33bf 3c77 8d3f
00000050: 3a73 3fbf 4a16 7a3e dc3b 8f3e 4747 c6bf
00000060: a3a6 1d3f 7f30 f1be 4a89 4abf 521a b1be
00000070: 6091 5ebd a2af f83e ae63 d73e c988 b0bf
00000080: 0ee0 84bd 6a56 b33d 129d a43d acf0 7fbd
00000090: 7ca2 1cbd 9ea3 9cbd 569c ec3d 4853 60bd
000000a0: 0058 793d 2451 12bd 7e2b c83d 381a d33d
000000b0: 8a11 c53d 286d 983c 50c9 473d 5891 c03c
000000c0: 087b dabc d857 57bd a0c0 eb3b 02f3 9cbd
000000d0: 4411 b8bd b2cb aebd 4c60 6e3d d0ae 1fbc
000000e0: 248c e63d fc9e 973d c48b 593d ac7e 19bd
000000f0: 02fd ccbd 9087 eb3d 8037 203b 86b2 e0bd
00000100: b488 3b3f db80 e33e 169a 883e f5d6 e6bf
00000110: 2d72 dcbe 6d34 97be 121d 073f 0dd5 1f3f
00000120: e071 58bd 0fe0 7f3f 0199 aabe ce33 963e
00000130: 2be7 ecbe 7911 97be 0f63 7c3f 0bda 39be
00000140: af89 ad3d a5a8 fe3d 2b37 c73f 4428 14bf
00000150: 5e8d be3e 8ee7 1c3e c667 193d 791c e23e
00000160: d404 8bbf c1a5 553f b765 593e a8c8 383f
00000170: 273e cc3e 027d 4cbd 5fbe 11bf e7f4 653f
00000180: 3a4c b6bd 40ed 54bc b64b f5bd e022 ac3c
00000190: e8b9 86bd f8af 643d da34 a6bd 3c68 80bd
000001a0: 00bc d23b 6073 de3b bc88 b83d 002f acba
000001b0: 9052 3e3d dcc0 a33d 682a abbd 04bf 9e3d
000001c0: 9cd9 56bd c097 6a3c 4826 d63c 6019 c23c
000001d0: 50ce ee3c d45e 3a3d 5480 a8bd d0bb 003d
000001e0: 289a 92bc 68cc 963d c27b 90bd b0f8 213d
000001f0: 548e 5a3d ec03 54bd 6a10 a9bd 5a04 bb3d
00000200: a4d3 e53d f6ae a73d 365a c5bd e46f 3d3d
00000210: 8c63 cdbd a8b3 88bc 7ced d2bd 8896 883d
00000220: 1afb 9c3d 94c6 a33d d48d 6bbd 222b f03d
00000230: 82bb b63d c099 843c 62f1 bdbd 3088 923d
00000240: d0f8 153d 9079 0f3c aa71 fabd ba4e 97bd
00000250: 903e 73bc ee13 eabd b4cb b43d 5888 c7bc
00000260: 889d 9abc e8c4 2d3d 70e4 563d 4c92 9ebd
00000270: 98d4 9c3c d449 73bd 069d d8bd 28f2 fc3d
00000280: 5805 fb3c 704e aebd b894 8dbd 0cd7 0f3d
00000290: 5a35 eebd 509d 2fbd c440 a93d 04d3 9bbd
000002a0: f430 d23d 9c2b 283d 7aeb d3bd 38ab 573d
000002b0: 76fe f33d 74dd 4a3d 586c d23d 0062 d3ba
000002c0: 729e c0bd e487 243d a069 033d 78d5 593d
000002d0: 2861 a1bc 04a4 80bd 44bf 133d a445 c0bd
000002e0: f01a d43d 5460 54bd 44ff ffbd da2b 903d
000002f0: 2076 d13b 20f0 23bd 6408 39bd 22f0 a7bd
00000300: 0709 3a3f 4834 de3b e811 813f e086 29be
00000310: 0b06 b0be 1672 7a3f 44c9 d0be 1508 24be
00000320: 58a3 0abd 2920 743e 2d24 6d3e f519 16bf
00000330: a0a0 943e 85ad 883e d229 a93f d43e 12bf
00000340: 0e10 9f3e b883 b8be fdc3 a63d 6019 963e
00000350: 9e97 bcbe 790a ce3e 0fea 103f 56f6 2f3e
00000360: aa1c 573c 248d 9a3f 9f37 9cbe 74dc aa3e
00000370: 7b49 333f 96d7 d13e 258f b9bd cf7d fe3c
00000380: 40cd 96bc 1642 ab3d 4ca1 4b3d 242a f23d
00000390: 0414 28bd 48cf 6ebd 58ed a8bc ea4c ce3d
000003a0: f616 cc3d 9cbb 83bd 5007 f03d 8257 993d
000003b0: 0829 453d 3031 65bc 024d b53d 3443 8e3d
000003c0: 0690 9c3d 4c42 163d 4806 d8bc 3287 813d
000003d0: b873 b5bd 60e3 8a3b 14aa b3bd 402f a23c
000003e0: ee2e d53d 2428 ebbd 9c7d 05bd 7685 e0bd
000003f0: 9c9e c7bd 0870 913d 0077 183b b059 6d3c
-0.4260559 -1.040097 -0.79867864 1.2822511 1.1062557 0.22939779 -0.5676927 -0.52355886
0.6489788 -1.5581144 0.42976803 -0.6710049 0.24644004 0.6510675 -0.7571248 -0.41055474
-0.5358838 -0.53875387 -0.7008373 1.1052012 -0.74785197 0.24422565 0.27975357 -1.5490502
0.6158239 -0.47107312 -0.79115736 -0.34590393 -0.05433786 0.48571497 0.42068237 -1.3791744
-0.064880475 0.087567165 0.08037771 -0.062485382 -0.038240895 -0.07648395 0.11553256 -0.054766923
0.06087494 -0.035721913 0.097739205 0.10307735 0.09622486 0.018606737 0.04877597 0.023506805
-0.026669994 -0.05257401 0.0071945935 -0.076635376 -0.08987668 -0.085349455 0.058197305 -0.009746268
0.112571985 0.07403371 0.053111807 -0.03747432 -0.10009195 0.11500466 0.0024447143 -0.10971551
0.7325547 0.44434246 0.26680058 -1.803435 -0.4305586 -0.29532185 0.5277873 0.62434465
-0.052842975 0.9995126 -0.33319858 0.293364 -0.46270117 -0.29505518 0.9858865 -0.18149583
0.08473527 0.1243451 1.5563711 -0.5787394 0.3721723 0.15322706 0.03745248 0.44162348
-1.0860848 0.83456045 0.21230207 0.7218118 0.39891168 -0.049923904 -0.5693111 0.89826816
-0.08901258 -0.012996018 -0.11977331 0.021012723 -0.065784276 0.05583188 -0.081155494 -0.06269881
0.0064311028 0.006788656 0.09010455 -0.0013136566 0.046465456 0.079957694 -0.08357698 0.07751277
-0.052453622 0.014318407 0.0261413 0.02369374 0.029151112 0.04550059 -0.08227602 0.031429112
-0.017895773 0.07363206 -0.07054855 0.039543808 0.05335839 -0.051761553 -0.08255084 0.09131689
0.11222008 0.08187668 -0.09636347 0.046249285 -0.10028753 -0.01668723 -0.10299203 0.066693366
0.07665081 0.0799686 -0.057508305 0.11726977 0.08922483 0.016186595 -0.09274556 0.07154882
0.03661424 0.00875701 -0.12228711 -0.07388063 -0.014846459 -0.114295825 0.08827916 -0.024357006
-0.018873945 0.042424113 0.05246395 -0.07742748 0.019144341 -0.05939658 -0.10576825 0.12350875
0.030642197 -0.085110545 -0.069131315 0.035117194 -0.1163127 -0.042874634 0.08264306 -0.076086074
0.10263243 0.041057214 -0.10347648 0.05265352 0.11913769 0.0495276 0.10274571 -0.0016127229
-0.09405221 0.040168658 0.032083154 0.053182095 -0.019699648 -0.062812835 0.036071077 -0.09388283
0.103567004 -0.05184968 -0.1249986 0.07039614 0.0063922554 -0.040023923 -0.045174018 -0.082000986
0.72670025 0.0067811348 1.008359 -0.16555357 -0.3437961 0.9783033 -0.40778553 -0.16018708
-0.033847183 0.23840393 0.23158331 -0.5863336 0.29028797 0.26694885 1.3215888 -0.5712712
0.31066936 -0.36037993 0.081428505 0.29316235 -0.36834425 0.40242365 0.56607145 0.17183813
0.013129393 1.2074323 -0.30511186 0.33371317 0.70034 0.40984792 -0.09060506 0.03106585
-0.018408418 0.08362214 0.04971437 0.11824444 -0.041034713 -0.058303148 -0.020620987 0.10073264
0.09965317 -0.06432268 0.11720145 0.07487394 0.048134834 -0.013988778 0.08852579 0.06946412
0.07644658 0.03668432 -0.026370183 0.063246146 -0.08859962 0.004238531 -0.08772674 0.019797921
0.10409342 -0.114822656 -0.032590494 -0.10962956 -0.09747049 0.071014464 0.002326429 0.014486715

tgnn._base_tgcn.linear_h.bias f4 [32]
00000000: 774a a83e 812a 823e 327e b6bd d572 21be
00000010: 93c3 b63e 43eb 233f 6f21 413e 037f d9bd
00000020: d47a 6b3e 5add 333f 48e4 813e 8bc6 923e
00000030: 7173 763e c9d2 903e 82f1 5bbd 0953 01be
00000040: a8ab aabd 7881 e0bc d276 2d3e 3bf8 013f
00000050: b16a 0a3f 4d71 afbe 783d 833e d834 7a3e
00000060: 8acc 333e bb37 323f 7325 3f3f 5f3e 133f
00000070: 547a ab3e b8cb 613e 9741 63bb 11dd ce3e
0.32869312 0.25423053 -0.089107886 -0.15766461 0.35696086 0.64030856 0.1886041 -0.10619929
0.22996074 0.7025963 0.25369477 0.286671 0.24067475 0.28285816 -0.053697117 -0.12629332
-0.08333522 -0.027405486 0.16939858 0.50769395 0.5406905 -0.3426613 0.25632834 0.24434221
0.17558494 0.6961629 0.7466652 0.57517046 0.33491766 0.22050369 -0.0034676546 0.40403035

linear.weight f4 [16, 32]
00000000: a44c 923e 487b f2be 1f32 e4bd fb8b 9b3f
00000010: 935f d73e fc62 29bf be44 0a3f 801f 54bd
00000020: 51ac 013f fc0d 72bf adf8 6e3e fb8e b33e
00000030: 98b5 2c3f f0e5 d4be 8f1d d03c ba55 bc3d
00000040: c0ce 8b3c debc e9bd 90ad 223f dc58 09bf
00000050: 070e 50bf 4206 bcbf bf63 123f 28c6 ef3e
00000060: 7a6d dcbe 53ce 9ebf ce9d 44bf 0186 33bf
00000070: b4ec 47bf 451e 4e3e a8d7 a43d c63a a03e
00000080: 3294 763e 3729 17bf 5c3b 2f3d e724 853f
00000090: 13f1 db3e 6e3e 26bf 19e4 0d3f 8e46 30bd
000000a0: 1215 2b3f 1a71 6dbf 7fe0 d33e 3f2a 9e3e
000000b0: afb6 073f 71cb fbbe 6a61 11be b594 f03d
000000c0: 9c5a 153d 4839 62bd 0ede 233f d8ba 19bf
000000d0: 1051 60bf cdf3 c7bf 5663 dd3e 8b30 323f
000000e0: 3e68 97be 65ec 9fbf a936 42bf 8340 33bf
000000f0: 9ec3 72bf 5276 803e 4962 063e cc51 ff3e
00000100: 7acd 0e3f 090e 18bf 30ae ecbd 8df5 5c3f
00000110: 8c08 c73e bb2c 15bf 7c92 483f b3f8 d6bd
00000120: 5911 e13e c277 6fbf 7e7b 903e 93c5 043f
00000130: 3d10 003f 58a0 1cbf 512c 0c3c a694 6f3d
00000140: 46b9 0ebe d608 15be 5ec1 c43e a3ad 37bf
00000150: ff44 5ebf 8454 d2bf 8a2a 1d3f 9890 163f
00000160: 055a 30bf 0f67 90bf 3386 49bf c9d5 4ebf
00000170: c50b 51bf 1513 023f 4bea c73a 3fd2 eb3e
00000180: e4b8 fb3e 6973 3ebf 605b 013c 2480 2d3f
00000190: 816d 0a3f abc9 fbbe b118 073f 3792 333d
000001a0: b8e6 ea3e ad31 74bf 6bfc ed3e 3a1a cd3e
000001b0: a815 0b3f daf0 4dbf 5a0e 963c e6dc 0fbe
000001c0: e924 343e 2a0c fd3d 758d f53e 0dc1 4cbf
000001d0: df07 56bf 23c2 dcbf ff93 353f 3f0a 3b3f
000001e0: 977d 18bf 7f55 8dbf f6a9 56bf 47c6 46bf
000001f0: 3e30 71bf 4044 893e 628b 36bd 682e 3a3f
00000200: aac8 f93e da08 51bf c01f 6cbd fb3a be3e
00000210: afc8 063f c2e2 26bf c4b1 383f 58e9 b23d
00000220: 8705 303f d5cc 5abf 6827 1b3f de0f 053f
00000230: ece5 083f 88b2 37bf c015 bdbc 754e c2bd
00000240: 01f5 323e 0abe d63d 9d51 033f 8a1d 61bf
00000250: a332 6fbf 87e0 e3bf a68d da3e f4a6 333f
00000260: b25b 25bf a4bf 92bf 4262 40bf 5534 2bbf
00000270: 0583 8cbf 02f1 8a3e 1013 da3b 4e67 583f
00000280: 49f1 383f f3cb 65bf 25c4 2a3e b009 473e
00000290: 0388 0c3f d8c2 5dbf 34c1 4a3f dfe6 18bd
000002a0: 110d d63e 93e2 4cbf ab4c c63e 37c4 0f3f
000002b0: 4988 413f 18a2 61bf 8b7f 0ebd ab83 df3d
000002c0: d9c9 bfbd 10c1 09be f495 ba3e d02d 65bf
000002d0: 3e75 85bf 9771 e7bf f2c8 373f e672 ec3e
000002e0: d716 1dbf c88a 86bf e773 20bf 2cc2 17bf
000002f0: e2ed abbf 0ca8 143f 819d 8f3d 2e22 5a3f
00000300: dd11 003f 79db 5dbf 8220 fc3d da5c b1bc
00000310: f96e 2b3f 5f84 34bf a12b 413f c0a3 4a3d
00000320: a929 2a3f 969a 3bbf b18c f83e bc47 273f
00000330: fb68 283f 08f5 84bf db3f e2bd 4419 2abd
00000340: 2aea d4bd 722b a63d 90e8 023f c769 88bf
00000350: 576c 5cbf c174 ecbf 0f8f e73e 480f f63e
00000360: a2af 7dbf a0e4 6fbf 8af2 45bf 14b4 35bf
00000370: 04c7 a9bf 620b f83e 92a3 193d 561b 8d3f
00000380: 2140 303f a9c8 8dbf 30ba cfbc 38d4 82be
00000390: 8bdf 0e3f ac7f 57bf 9731 603f a21f 7abd
000003a0: 8d76 1d3f 7146 42bf 7972 333f e714 023f
000003b0: 23e1 1a3f b973 94bf 717f dd3c 61b4 b7bd
000003c0: 587e 8dbc 3805 b2bc caff d43e 0a62 8dbf
000003d0: 8d68 69bf d568 ebbf e0f3 2a3f 2763 303f
000003e0: f80d 5dbf 33cd 63bf dbf3 18bf 8cdc 07bf
000003f0: 4afa b1bf 9dd0 be3e fd65 af3c 048e 733f
0.28574097 -0.4735968 -0.11142372 1.2152094 0.42065105 -0.66166663 0.5401114 -0.051787853
0.5065356 -0.9455259 0.2333705 0.35070023 0.6746459 -0.41581678 0.02540472 0.091960385
0.01706636 -0.11412977 0.63546085 -0.53651214 -0.81271404 -1.468941 0.5718345 0.4683087
-0.43052274 -1.2406715 -0.7680329 -0.7012635 -0.78095555 0.20128734 0.08048946 0.3129484
0.2407997 -0.59047264 0.04278122 1.0401887 0.42957363 -0.6493901 0.55426174 -0.043036036
0.66829026 -0.92750704 0.41382214 0.30891606 0.5301313 -0.4917865 -0.14197317 0.117471136
0.036463365 -0.05523041 0.64010704 -0.60050726 -0.8762369 -1.5621277 0.4323985 0.6960532
-0.29571718 -1.2494017 -0.75864655 -0.7002031 -0.9482974 0.2509027 0.1312343 0.49867094
0.5578228 -0.59396416 -0.11556661 0.8631218 0.38873708 -0.5827138 0.7834852 -0.10496654
0.43958548 -0.9354211 0.28219217 0.51863974 0.5002478 -0.61182165 0.008555488 0.05849137
-0.13937864 -0.14554152 0.38428777 -0.71749324 -0.8682403 -1.6432042 0.61393034 0.5881438
-0.6888736 -1.1281451 -0.78720397 -0.8079496 -0.81658584 0.50810367 0.001525232 0.46058843
0.49164498 -0.7439485 0.007895321 0.6777365 0.5407334 -0.49177298 0.5277205 0.043840613
0.4587915 -0.953883 0.46481642 0.40059072 0.5432992 -0.80445635 0.01831739 -0.1404911
0.17592205 0.12355836 0.47959486 -0.7998207 -0.8360576 -1.7246746 0.7092895 0.7306251
-0.59566635 -1.1041716 -0.8385309 -0.776463 -0.94214237 0.26809883 -0.04456652 0.7272706
0.48785907 -0.8165413 -0.057647467 0.37154374 0.5264997 -0.65189755 0.7214625 0.08735913
0.68758434 -0.854688 0.60607004 0.51977336 0.5347583 -0.7175679 -0.02308166 -0.09487621
0.17476274 0.10485466 0.51296407 -0.879357 -0.9343664 -1.7802895 0.42686194 0.70176625
-0.6459304 -1.1464734 -0.7514993 -0.6687673 -1.0977484 0.27137 0.0066551045 0.8453263
0.7224317 -0.89764327 0.16676386 0.19437289 0.5489504 -0.8662543 0.79201055 -0.03732955
0.41806844 -0.80033225 0.38730368 0.56158775 0.7559858 -0.8813796 -0.034789603 0.109137855
-0.09364671 -0.13452554 0.3644253 -0.8952303 -1.0426404 -1.808154 0.71790993 0.4618141
-0.61362976 -1.0511103 -0.6267685 -0.5928066 -1.3431971 0.5806892 0.07012463 0.85208404
0.5002726 -0.86663014 0.12310888 -0.02165072 0.66966206 -0.7051448 0.754572 0.04947257
0.6646982 -0.73282754 0.4854484 0.6534383 0.6578519 -1.0387278 -0.11047336 -0.041528
-0.10396226 0.08113755 0.5113611 -1.0657281 -0.86102813 -1.847313 0.45226333 0.48058534
-0.9909612 -0.9370823 -0.7732321 -0.709779 -1.326386 0.48446184 0.03750951 1.1023967
0.6884785 -1.1076862 -0.025357336 -0.25552535 0.5580985 -0.84179187 0.8757567 -0.061065324
0.6150902 -0.75888735 0.70096546 0.50813144 0.6049978 -1.1597816 0.027038308 -0.089699514
-0.01727216 -0.021731004 0.41601402 -1.1045544 -0.91175157 -1.8391367 0.66778374 0.68901294
-0.8634944 -0.88984984 -0.59747094 -0.530709 -1.3904507 0.37268534 0.021410936 0.95138574

linear.bias f4 [16]
00000000: 4724 d03e 9af9 753e d973 843e f27c 5a3e
00000010: 630e e3bb 81ee ccbc ab4a bfbc 1d66 b6bd
00000020: 8ecd 5fbe 4510 46be 9bfc 9abe 2fd5 82be
00000030: a645 93be 0cb6 94be f414 55be 7bc3 83be
0.40652677 0.24020997 0.25869635 0.21336725 -0.0069292053 -0.025016071 -0.023351034 -0.08906195
-0.21855757 -0.19342144 -0.30270848 -0.2555327 -0.28764075 -0.2904514 -0.20808774 -0.25735077

linear2.weight f4 [6, 21]
00000000: 8e71 1c3f 5080 2d3f 7060 923d 7e91 37be
00000010: 3eba adbe 534c ec3e 526d 0dbf 077d 433f
00000020: 66ab ca3d b262 bf3e ed3e 29bf a4ed 89be
00000030: 7686 e13d e726 f3bc a146 ab3e 5a73 e2be
00000040: a94b 4fbe c0f8 d73e ff6a 67bc 7722 9abe
00000050: 46bd e2bd 2921 e7bc 8bbe 9d3e a47b 9a3d
00000060: 78d0 c73d 713a febe 2ae5 fa3e 9374 323f
00000070: 1327 8f3e 3080 e0bd 1bd0 d13d ea42 153f
00000080: 1692 30bd 657a 74be 34fe 473e dc42 d3bd
00000090: 240e a4be efeb bfbd 0245 26bf 6156 a7bc
000000a0: f96d ad3d a821 883e 85ea b53e 8e4e 963d
000000b0: fb7d 6ebd f469 dabd bd7a 96be 2f64 fdbb
000000c0: e981 963e bc18 143f 36bf 133e 23ec c4be
000000d0: 5efb 1fbe 66dd 90bd 8453 0a3e 2790 f1be
000000e0: ad72 273f 1694 53be 8f14 aabd 1a07 67be
000000f0: 12c0 4fbe 2b8a bbbe 6105 5dbe d726 c5be
00000100: 7ed5 98be bbcc dabd 1bd2 a1bd 7a92 ff3d
00000110: af47 95be 37f8 fa3d 358f 7bbf e389 923e
00000120: 1bcd c63e 2a6f f73d 70b0 e73e e376 db3e
00000130: 428e c2be 86e2 70be ab78 543f e37f f73e
00000140: e5b3 153d 914c aebd 13db 943e 4d33 923e
00000150: c871 d9bc 4820 59be 89ba d0bd 62f8 043f
00000160: 81b3 313f 64de aebe 60ec 60be 9234 8e3e
00000170: be5f 4e3d 8cb2 fabe 556b 4abe b79d 04bf
00000180: 3f5a 5cbd 6f6d c03d 97eb 083f ddab 4dbe
00000190: 3edd 95be eeed ab3e 7489 a53e 98af 4c3e
000001a0: 52cc 8a3d 6789 26be 60c3 c2be 994a 0abf
000001b0: c256 e7bc 0793 043f b4e5 90bd 8991 823d
000001c0: a7ba 32bf 5d45 ac3e 4275 333e 3dd5 cd3d
000001d0: b6fa 0e3e 372c 103f 6b1d 2bbe 14c5 2abe
000001e0: f273 f73e 5098 d23e fa50 833e 57c7 43be
000001f0: a048 8e3e e12b 5d3d
0.6111077 0.67773914 0.071473 -0.17926595 -0.33931154 0.4615198 -0.55244935 0.7636265
0.09895973 0.37379986 -0.6611164 -0.26939118 0.110119745 -0.029681636 0.33452323 -0.4422863
-0.20243706 0.4218197 -0.014124631 -0.3010442 -0.11071257 -0.028214054 0.30809435 0.07543114
0.09756559 -0.49653962 0.49002963 0.6970913 0.279595 -0.1096195 0.10244771 0.5830523
-0.04310807 -0.23874815 0.19530565 -0.10315487 -0.32042038 -0.09371173 -0.6494905 -0.02042693
0.08468241 0.26588178 0.35530487 0.07339202 -0.058225613 -0.1066474 -0.29390517 -0.00773289
0.2939599 0.5785024 0.1442841 -0.38461408 -0.15623233 -0.070734784 0.13508421 -0.47180292
0.65409356 -0.20661959 -0.083047025 -0.22561303 -0.20288113 -0.3662885 -0.21584083 -0.38506195
-0.29850382 -0.106835805 -0.079014026 0.1247911 -0.29156253 0.122543745 -0.9826539 0.28620824
0.38828358 0.1208175 0.452518 0.4286414 -0.3799916 -0.23523912 0.82996625 0.48339757
0.036548514 -0.08510698 0.2907339 0.28554764 -0.026543513 -0.2120372 -0.10191829 0.519415
0.69414526 -0.34154046 -0.2196517 0.27774483 0.050384276 -0.48964345 -0.19767506 -0.51803154
-0.053797003 0.09395873 0.5348448 -0.20085092 -0.29270357 0.33579963 0.3233143 0.19988859
0.06777252 -0.16263352 -0.38039684 -0.54020077 -0.028239612 0.51786846 -0.070750624 0.06375415
-0.6981606 0.3364667 0.17525199 0.100504376 0.13962826 0.56317466 -0.16710441 -0.16676742
0.48330647 0.4113183 0.25647718 -0.19119011 0.27789783 0.053996924

linear2.bias f4 [6]
00000000: 3f51 a2be 8c9d 763e 35d4 c3bf 154b 3a3e
00000010: a9ff 293f 7a52 97bf
-0.3170261 0.24083537 -1.5299135 0.18192704 0.6640573 -1.1822045
