A3TGCN2_Checkpoints/Epoch_9.pth (torch, 35255 bytes, 17 tensors)

tgnn._attention f4 [16]
1.1955905 0.9912627 0.7443625 0.06694887 0.4462945 -0.10415711 -0.2890074 0.37085944
0.17208745 0.078638576 0.30894926 0.4977745 0.3959105 0.71203786 0.86441 1.2641817
00000000: 1c09 993f 64c3 7d3f 8a8e 3e3f 7d1c 893d
00000010: b680 e43e 5350 d5bd c7f8 93be 4ae1 bd3e
00000020: b137 303e 430d a13d 992e 9e3e 4ddc fe3e
00000030: c8b4 ca3e 1d48 363f f949 5d3f b5d0 a13f

tgnn._base_tgcn.conv_z.bias f4 [32]
0.46395525 0.4450861 0.06883428 -0.0038452258 -0.070359625 -0.3445982 -0.31439352 -0.45984223
0.51784104 0.5062816 -0.5110444 -0.47885773 0.040138833 0.05152741 0.44623557 0.44777521
-0.4726032 0.5216189 0.23461093 0.5177606 0.47713235 -0.44181985 -0.4991898 0.444863
-0.3895434 -0.424346 -0.39283395 0.3965767 0.35955763 -0.32037443 0.33660668 0.4656704
00000000: 8b8b ed3e 53e2 e33e fdf8 8c3d 2f00 7cbb
00000010: b518 90bd 2d6f b0be 30f8 a0be 7170 ebbe
00000020: 3b91 043f ac9b 013f ced3 02bf d72c f5be
00000030: 9e68 243d 680e 533d fd78 e43e cb42 e53e
00000040: 0cf9 f1be d188 053f d93d 703e f58b 043f
00000050: b14a f43e 3636 e2be ce95 ffbe 15c5 e33e
00000060: 3c72 c7be e143 d9be 8821 c9be 1a0c cb3e
00000070: f017 b83e 1e08 a4be b657 ac3e 5a6c ee3e

tgnn._base_tgcn.conv_z.lin.weight f4 [32, 3]
-0.09834409 -0.36659744 -1.1267096 0.2927879 -0.49298394 -0.69045615 -0.2041002 0.197774
-0.43316436 -0.32565328 0.7335148 1.0936843 0.19809307 -0.3372472 0.17341466 -0.18082878
0.5234907 1.079534 -0.44968364 -0.020489508 0.49623322 -0.118258215 0.30628783 0.73970807
0.2599073 -0.5127845 -0.87733966 0.38392267 -0.8184459 -0.8627239 0.048232783 0.5026007
0.602503 -0.41307774 0.53058755 0.54010266 -0.051110335 0.3658458 -0.42584312 -0.6478968
0.13092493 0.82115823 0.355545 -0.4857532 -0.76957875 0.094176255 -0.31667468 -1.2353485
-0.19016738 0.4413697 0.59594357 0.21284427 -0.6644847 -1.2508916 -0.20283552 -0.09134814
-0.069289945 -0.020637957 -0.48856744 -1.2012796 0.40239078 -0.45173755 -0.657511 -0.17070647
0.37204182 0.37827298 -0.32743585 0.77591884 1.0678267 0.21717651 -0.27653316 -1.1326482
0.101422206 0.14566593 0.924376 0.024860617 0.12180407 0.89282113 0.35466182 0.25812504
0.3655363 -0.36042514 -0.33405876 -0.27209365 0.22773655 -0.12627107 -0.68741393 0.7387764
0.92192185 0.544246 -0.051895197 -1.2213148 -0.42296296 0.08747526 -0.5010161 -0.9374521
00000000: a068 c9bd a9b2 bbbe 0538 90bf 4ce8 953e
00000010: 6468 fcbe bcc1 30bf a5ff 50be 4485 4a3e
00000020: b8c7 ddbe 07bc a6be a0c7 3b3f d9fd 8b3f
00000030: e9d8 4a3e aaab acbe 9d93 313e 2e2b 39be
00000040: 7d03 063f 2c2e 8a3f ef3c e6be 9dd9 a7bc
00000050: 4812 fe3e 5d31 f2bd c2d1 9c3e 825d 3d3f
00000060: 9212 853e d845 03bf 5599 60bf 8391 c43e
00000070: ac85 51bf 79db 5cbf bd8f 453d 71aa 003f
00000080: a33d 1a3f ed7e d3be 96d4 073f 2b44 0a3f
00000090: 1259 51bd 2450 bb3e 1c08 dabe 91dc 25bf
000000a0: 2f11 063e 6d37 523f ff09 b63e a5b4 f8be
000000b0: 1d03 45bf 7bdf c03d 2f23 a2be e61f 9ebf
000000c0: 3dbb 42be 36fb e13e c28f 183f d9f3 593e
000000d0: ab1b 2abf 371d a0bf 1db4 4fbe bc14 bbbd
000000e0: e3e7 8dbd ef10 a9bc 8325 fabe 88c3 99bf
000000f0: 2a06 ce3e 254a e7be a452 28bf adcd 2ebe
00000100: 447c be3e ffac c13e aca5 a7be 9ea2 463f
00000110: 8cae 883f 8563 5e3e c195 8dbe 9efa 90bf
00000120: 72b6 cf3d 7329 153e e8a3 6c3f 7ea8 cb3c
00000130: 6a74 f93d ed8f 643f 3c96 b53e f728 843e
00000140: 9327 bb3e a589 b8be c009 abbe dc4f 8bbe
00000150: c533 693e 344d 01be 5cfa 2fbf 7320 3d3f
00000160: 1203 6c3f b553 0b3f 0f90 54bd 0b54 9cbf
00000170: 9a8e d8be 3b26 b33d 9742 00bf dcfc 6fbf

tgnn._base_tgcn.linear_z.weight f4 [32, 64]
-0.72104675 -0.525784 0.07837415 0.8814922 -0.14732504 0.916852 0.14444706 0.23783766
-0.61575586 -0.9520739 0.7562324 0.44988653 -0.0056017605 -0.16166903 -0.58067113 -0.64929706
0.577197 -1.0487394 -0.1321376 -1.1254293 -0.36761773 0.45952445 1.0627929 -0.32523113
0.34312665 0.2253345 0.31077054 -0.52922964 -0.22904067 0.3705372 -0.6853133 -0.8834679
0.020246342 0.05585386 0.04477328 0.035287514 0.023139253 -0.022408113 0.11468598 -0.018079445
-0.054737613 0.07708734 -0.046232447 0.11530076 0.11062801 -0.083804354 -0.10268128 -0.040863156
0.08063172 -0.10281703 0.06785013 -0.12408477 -0.023813754 -0.032880887 0.013255671 0.10097024
-0.08791071 0.0020627677 0.006105587 -0.05243057 0.008615732 0.09010275 -0.07649019 0.07910547
-0.39161828 -0.546838 -0.33211562 -0.26523015 0.46929452 0.49910954 0.55271214 0.58394873
-0.4532935 -0.51899695 0.39176792 0.64605963 -0.4877938 0.12378758 -0.5770508 -0.44885668
0.3743994 -0.61285263 -0.315544 -0.51367927 -0.49097764 0.55376035 0.47756672 -0.46093822
0.38632658 0.57943535 0.39186665 -0.20880714 -0.3846001 0.042879626 -0.31609455 -0.46955144
0.093658105 0.05391912 -0.07390167 -0.069662586 0.027618676 0.035378426 0.06620745 -0.09150325
0.12043749 -0.024570048 0.043849334 -0.05357112 0.047658175 0.10675146 -0.089991465 0.011300921
0.015317336 -0.018027395 -0.034281567 0.02419296 0.02312699 -0.051177472 0.044286117 0.104240134
0.030525789 -0.06379549 -0.018762544 -0.032129034 0.12478389 -0.064913705 0.07503353 -0.12432723
0.04489264 -0.118017495 -0.013276979 -0.09453888 -0.10209602 0.022381723 0.093163416 0.09084082
-0.053114906 -0.036311343 -0.020940498 -0.0033688247 -0.081808746 -0.0043317676 0.07468517 0.10478647
0.09609833 -0.060765564 0.073355466 0.06644446 0.107522964 -0.032896265 -0.09538354 0.014442787
0.06507723 -0.028276697 0.009666905 -0.017961666 -0.10631283 0.036880836 0.031946033 0.002603352
-0.103888705 0.05001934 0.004877478 -0.11019075 -0.10833873 0.013715833 0.014794603 0.010000929
0.063540414 -0.0005918145 0.11912532 -0.03559117 -0.070905566 -0.087597415 -0.061122417 0.120372415
0.062828586 -0.04591556 -0.08431047 -0.008374155 0.08703378 0.12108922 -0.113912866 -0.058497608
-0.103632584 -0.023029372 -0.017973796 0.11268407 0.12016699 0.11531803 -0.04985313 -0.054382443
-0.5121663 -0.47325835 -0.17244034 -0.29032302 0.112569086 0.3693148 0.2346613 0.2817594
-0.44651437 -0.5111764 0.5199791 0.35405463 0.05221038 -0.29290798 -0.33414716 -0.39456826
0.3484656 -0.38647035 -0.38637313 -0.38731992 -0.48617342 0.4941962 0.67166054 -0.18007708
0.3006589 0.24110225 0.36831895 -0.59048486 -0.17941977 0.47176224 -1.0109103 -0.5480513
0.054764062 -0.0863833 -0.088368 0.05049646 -0.04610756 0.047094464 0.096982315 -0.04505831
-0.018742532 -0.09812556 -0.096838206 0.016707003 0.024006382 -0.09953986 -0.10314228 0.06481597
-0.004865214 0.10605247 0.10647841 0.038697034 -0.015579879 0.04774873 0.08730343 0.11532177
0.09415296 -0.10505602 -0.06537247 -0.11926623 -0.10969284 0.013711423 0.11988363 0.033814043
00000000: 8596 38bf c899 06bf a082 a03d 79a9 613f
00000010: 60dc 16be d0b6 6a3f eee9 133e b78b 733e
00000020: 2da2 1dbf 1dbb 73bf 7298 413f 8757 e63e
00000030: f98e b7bb 918c 25be dda6 14bf 5538 26bf
00000040: 2fc3 133f 183d 86bf 144f 07be 110e 90bf
00000050: 6438 bcbe ca46 eb3e 9909 883f b284 a6be
00000060: 4cae af3e 16be 663e 511d 9f3e 987b 07bf
00000070: a389 6abe 0db7 bd3e b170 2fbf f42a 62bf
00000080: a8db a53c 04c7 643d 3064 373d a489 103d
00000090: 888e bd3c 3891 b7bc 7ce0 ea3d 581b 94bc
000000a0: 8c34 60bd f8df 9d3d 3c5e 3dbd ce22 ec3d
000000b0: f090 e23d 9ea1 abbd 904a d2bd 2060 27bd
000000c0: 3e22 a53d bc91 d2bd 02f5 8a3d 2820 febd
000000d0: 1015 c3bc 1cae 06bd 502e 593c 7cc9 ce3d
000000e0: 880a b4bd 802f 073b 6011 c83b 70c1 56bd
000000f0: 0029 0d3c ca87 b83d e4a6 9cbd 0c02 a23d
00000100: 3182 c8be 93fd 0bbf 0f0b aabe 3fcc 87be
00000110: 5f47 f03e 498b ff3e 8b7e 0d3f aa7d 153f
00000120: 1616 e8be fcdc 04bf ce95 c83e 2a64 253f
00000130: 1cc0 f9be 5884 fd3d 9ab9 13bf 8bd0 e5be
00000140: 47b1 bf3e e9e3 1cbf fc8e a1be 7c80 03bf
00000150: 6c61 fbbe 3dc3 0d3f a083 f43e 1800 ecbe
00000160: 99cc c53e e055 143f bfa2 c83e 8ad1 55be
00000170: 4eea c4be 8ca2 2f3d 25d7 a1be 0c69 f0be
00000180: d2cf bf3d 4cda 5c3d c259 97bd 42ab 8ebd
00000190: 9040 e23c f8e8 103d c697 873d 0e66 bbbd
000001a0: eea7 f63d 2047 c9bc 5c9b 333d 646d 5bbd
000001b0: 3835 433d 82a0 da3d 724d b8bd 8027 393c
000001c0: 90f5 7a3c 30ae 93bc d46a 0cbd 5030 c63c
000001d0: d074 bd3c 789f 51bd 5c65 353d da7b d53d
000001e0: 3811 fa3c 36a7 82bd e8b3 99bc bc99 03bd
000001f0: b28e ff3d 7af1 84bd 2eab 993d 469f febd
00000200: 58e1 373d 28b3 f1bd b087 59bc 9a9d c1bd
00000210: b817 d1bd e059 b73c 76cc be3d c00a ba3d
00000220: 048f 59bd 34bb 14bd 688b abbc 80c7 5cbb
00000230: 588b a7bd 80f1 8dbb 8af4 983d 4a9a d63d
00000240: 34cf c43d 50e5 78bd 643b 963d 0814 883d
00000250: 0035 dc3d 3cbe 06bd 7258 c3bd 70a1 6c3c
00000260: 3647 853d 88a4 e7bc f061 1e3c 5824 93bc
00000270: 8aba d9bd 5c10 173d d8d9 023d 009d 2a3b
00000280: 9ac3 d4bd 14e1 4c3d 40d3 9f3b b0ab e1bd
00000290: b2e0 ddbd 60b8 603c 1065 723c f0da 233c
000002a0: 7a21 823d 0024 1bba faf7 f33d 0cc8 11bd
000002b0: f036 91bd 4666 b3bd 805b 7abd d085 f63d
000002c0: 46ac 803d f411 3cbd f8aa acbd c033 09bc
000002d0: c43e b23d a0fd f73d 264b e9bd 309b 6fbd
000002e0: 523d d4bd 18a8 bcbc c83d 93bc e8c6 e63d
000002f0: 1c1a f63d dc2b ec3d cc32 4cbd 20c0 5ebd
00000300: 551d 03bf eb4e f2be 3394 30be 38a5 94be
00000310: 9f8a e63d d416 bd3e 0d4b 703e c542 903e
00000320: 889d e4be 75dc 02bf 5a1d 053f a646 b53e
00000330: 8dda 553d 09f8 95be 5615 abbe da04 cabe
00000340: 156a b23e 71df c5be b3d2 c5be cc4e c6be
00000350: b9eb f8be 4907 fd3e f2f1 2b3f 2066 38be
00000360: f7ef 993e 82e3 763e 4d94 bc3e 042a 17bf
00000370: d1b9 37be d28a f13e 8265 81bf 174d 0cbf
00000380: 4850 603d bae9 b0bd 48fa b4bd 60d5 4e3d
00000390: 48db 3cbd 20e6 403d aa9e c63d 108f 38bd
000003a0: f089 99bc 0ef6 c8bd 1c53 c6bd 20dd 883c
000003b0: 08a9 c43c 8edb cbbd 423c d3bd 3cbe 843d
000003c0: 606c 9fbb 0a32 d93d 5a11 da3d c880 1e3d
000003d0: c042 7fbc 2c94 433d 24cc b23d d22d ec3d
000003e0: 44d3 c03d 9c27 d7bd 00e2 85bd da41 f4bd
000003f0: a4a6 e0bd e0a5 603c 8c85 f53d 9880 0a3d

tgnn._base_tgcn.linear_z.bias f4 [32]
-0.32810712 -0.41923845 0.11818309 -0.34622765 -0.36281165 -0.29645687 -0.2784421 0.015448966
-0.37937558 -0.22387357 -0.34626344 -0.33900926 -0.42415535 -0.4931689 -0.005861491 0.06856956
0.060834035 -0.110993326 -0.35892904 -0.3428061 -0.21721894 0.43891725 -0.26055005 -0.35551196
-0.3376395 -0.40323102 -0.16488214 -0.33368585 -0.28925592 -0.3469275 0.11974424 -0.31964684
00000000: a8fd a7be 6ca6 d6be fa09 f23d c044 b1be
00000010: 73c2 b9be 32c9 97be f78f 8ebe a91d 7d3c
00000020: 843d c2be 1d3f 65be 7149 b1be 9f92 adbe
00000030: e42a d9be a280 fcbe c011 c0bb 336e 8c3d
00000040: 1c2d 793d 7850 e3bd 8cc5 b7be 4884 afbe
00000050: a46e 5ebe c3b9 e03e d166 85be aa05 b6be
00000060: 16df acbe 4c74 cebe ddd6 28be dfd8 aabe
00000070: 5a19 94be 7ba0 b1be 783c f53d c0a8 a3be

tgnn._base_tgcn.conv_r.bias f4 [32]
0.0 0.0 0.0 0.0 0.0 0.0 0.0 0.0
0.0 0.0 0.0 0.0 0.0 0.0 0.0 0.0
0.0 0.0 0.0 0.0 0.0 0.0 0.0 0.0
0.0 0.0 0.0 0.0 0.0 0.0 0.0 0.0
00000000: 0000 0000 0000 0000 0000 0000 0000 0000
00000010: 0000 0000 0000 0000 0000 0000 0000 0000
00000020: 0000 0000 0000 0000 0000 0000 0000 0000
00000030: 0000 0000 0000 0000 0000 0000 0000 0000
00000040: 0000 0000 0000 0000 0000 0000 0000 0000
00000050: 0000 0000 0000 0000 0000 0000 0000 0000
00000060: 0000 0000 0000 0000 0000 0000 0000 0000
00000070: 0000 0000 0000 0000 0000 0000 0000 0000

tgnn._base_tgcn.conv_r.lin.weight f4 [32, 3]
0.16965911 -0.037553072 0.058 0.30765042 -0.29204863 -0.020177722 -0.14040816 -0.28139192
0.093972 0.011039704 0.09644386 0.32871267 -0.28202555 -0.038353562 -0.11378935 0.2503403
-0.06998673 -0.36193478 0.021415055 0.13195279 0.16137215 -0.1009852 0.14807871 0.06853992
0.20136961 0.24095705 -0.18302193 -0.28173542 0.09143564 0.23300639 0.14357045 -0.18475646
-0.3047736 0.09166607 0.2801251 -0.18565165 -0.23761752 0.31345937 -0.3765382 0.3082089
-0.008306354 0.12245819 -0.14770049 -0.2538972 0.39423618 0.1664029 -0.081643015 -0.24177888
0.30107394 -0.17729856 0.24553058 0.16594991 -0.27114642 0.17000952 -0.013642997 0.2751501
-0.17664571 -0.37121272 -0.39349604 -0.2380074 0.28203174 -0.24862173 -0.09803039 -0.008543164
-0.0024053752 -0.07843304 -0.24303538 -0.07063952 -0.31078428 -0.35467574 0.2420921 -0.21242094
0.2418544 -0.19488631 0.18474093 -0.07327154 -0.15576243 0.18501553 0.15467903 0.09230062
0.0032456815 -0.064685404 -0.40229955 -0.07319707 0.3462328 0.29382756 0.09371677 0.19856241
-0.05077201 -0.25669378 -0.17840756 0.17265919 0.40160397 0.14477381 -0.06058258 -0.35659665
00000000: 1ebb 2d3e 40d1 19bd 6891 6d3d 5b84 9d3e
00000010: 6687 95be c04b a5bc 28c7 0fbe 9a12 90be
00000020: 6474 c03d e0df 343c 5c84 c53d 074d a83e
00000030: a765 90be a018 1dbd 640a e9bd 9b2c 803e
00000040: 3455 8fbd 844f b9be a06e af3c a21e 073e
00000050: be3e 253e 54d1 cebd f2a1 173e a85e 8c3d
00000060: d633 4e3e 72bd 763e 1a6a 3bbe a03f 90be
00000070: 9c42 bb3d 3a99 6e3e 2204 133e cc30 3dbe
00000080: 490b 9cbe 6cbb bb3d 8f6c 8f3e 771b 3ebe
00000090: 0252 73be bf7d a03e 9dc9 c0be 8fcd 9d3e
000000a0: 6017 08bc 5ccb fa3d cc3e 17be d0fe 81be
000000b0: 53d9 c93e 8665 2a3e 7434 a7bd e294 77be
000000c0: 5d26 9a3e c18d 35be 5e6c 7b3e c6ee 293e
000000d0: b4d3 8abe fa16 2e3e e086 5fbc 79e0 8c3e
000000e0: 9de2 34be 980f bebe 5078 c9be 36b8 73be
000000f0: 7766 903e b296 7ebe 28c4 c8bd a0f8 0bbc
00000100: 80a3 1dbb 80a1 a0bd 44de 78be 74ab 90bd
00000110: 1e1f 9fbe 0f98 b5be fee6 773e e084 59be
00000120: aea8 773e 4790 47be ba2c 3d3e 640f 96bd
00000130: 3080 1fbe b674 3d3e 2e64 1e3e 1c08 bd3d
00000140: 80b5 543b c879 84bd 35fa cdbe 58e8 95bd
00000150: 6d45 b13e 9170 963e 94ee bf3d f253 4b3e
00000160: 50f6 4fbd 5e6d 83be 79b0 36be 92cd 303e
00000170: 099f cd3e 963f 143e 7025 78bd d693 b6be

tgnn._base_tgcn.linear_r.weight f4 [32, 64]
-0.0737533 0.028673455 -0.032104403 -0.12430988 0.023893312 0.048621297 0.09931053 -0.055989906
0.08454122 -0.109967485 0.027058244 0.020878121 -0.091980115 0.060285464 0.11037688 -0.06267205
-0.042791396 0.018074214 0.0893611 -0.06952338 -0.04769768 0.044731513 0.040796995 0.05926755
0.09976938 0.11329433 0.08910236 0.057434827 0.07203089 0.07495734 -0.10994126 0.004388988
-0.10482623 0.022965789 0.053581893 -0.05908522 0.10908194 0.0551638 0.05457759 0.010787532
-0.05875577 0.024723545 0.06955607 0.097279936 0.102921784 0.068602756 0.078430876 -0.06932917
-0.01930362 -0.03687437 0.08161858 -0.08983253 0.10153371 -0.01866734 0.1183773 0.039708212
0.09733391 -0.034043327 0.10284725 -0.080348924 0.015347764 0.0022714138 0.12186824 0.03173916
-0.040606976 -0.07542311 0.09682092 -0.052967355 -0.07345587 -0.12261371 -0.011134699 -0.099027485
-0.022750065 -0.06654717 0.12324947 -0.076426074 0.08456457 0.1138739 0.07961732 -0.016986832
-0.025938496 0.0994955 0.07756573 -0.03612061 0.12461914 -0.09103081 0.079083994 -0.0047383457
0.04116547 0.111663654 0.11636995 -0.023028597 -0.08192125 0.09238055 0.094509155 0.089937136
0.07603483 0.047504812 0.08732188 -0.10251002 0.03876269 0.12215617 0.081613794 0.033509687
-0.11827195 0.11838812 -0.07183464 -0.09912117 0.09434812 -0.052059487 0.04769762 0.03788577
0.010921791 -0.045271084 -0.10343398 0.12095538 -0.016146734 0.06182453 -0.024830401 0.11602168
0.103963226 -0.07811932 -0.12052645 0.034886345 -0.009425536 -0.02181767 -0.12315288 -0.09520942
0.054510206 -0.013940781 0.095344365 0.07157417 0.046865344 0.020214915 -0.020744637 0.0204359
0.09030457 -0.037425146 0.06276348 0.07593283 0.085754424 -0.003007695 -0.10925077 0.054074943
0.12003927 0.019124791 -0.047037944 0.0062987953 -0.04449065 -0.0047605634 -0.06831531 -0.03906238
0.035863712 -0.020403177 -0.07982069 -0.06808221 0.024407327 -0.08916354 0.097904295 0.08319639
-0.008596018 0.05303788 -0.0790337 0.08667514 -0.06043899 -0.11556941 -0.055516303 0.070264935
-0.03175597 -0.00755772 -0.08008659 0.075812355 -0.123395056 0.035371795 -0.113339216 0.08593795
0.036074966 -0.0587029 0.003116846 -0.026199058 -0.058345765 0.10942617 -0.10953143 -0.007835388
0.11132103 0.027757466 -0.10250929 -0.109727144 0.006608546 0.046119615 -0.04573056 -0.08610521
0.0019403249 0.0358672 -0.10136476 -0.09186567 0.017764926 -0.080696076 -0.028668359 -0.056228444
0.06199874 0.09111193 -0.12174462 0.11964612 0.11698486 -0.11165273 0.079869494 -0.032285094
-0.037735626 0.06451696 0.07672463 -0.016776934 0.122696295 -0.1064823 -0.026864812 -0.060408384
-0.109726876 0.12463212 -0.09144989 -0.08874783 -0.090840906 0.06981388 -0.09892553 0.024035156
0.09114279 0.039981857 -0.029892802 -0.0809309 0.10096422 -0.055679306 -0.025997818 0.0798495
-0.058491245 0.08375488 -0.115570486 0.07122977 0.060371473 0.03087908 0.020154595 -0.0026038438
0.03317128 -0.07926443 -0.0968841 -0.07242809 -0.058182612 0.060762987 -0.09345868 0.022324905
-0.015727803 -0.016988322 0.022311449 -0.02521415 0.075103655 -0.034029573 -0.092093796 0.015399814
00000000: f80b 97bd 98e4 ea3c e87f 03bd 2e96 febd
00000010: e8bb c33c 2027 473d 5263 cb3d ac55 65bd
00000020: f223 ad3d a236 e1bd 40a9 dd3c 9808 ab3c
00000030: 1260 bcbd e4ed 763d 460d e23d 345a 80bd
00000040: 0846 2fbd 6010 943c f402 b73d 4662 8ebd
00000050: a45e 43bd 6438 373d c01a 273d 88c2 723d
00000060: e453 cc3d dc06 e83d 4c7b b63d c840 6b3d
00000070: ee84 933d 3c83 993d e228 e1bd 80d1 8f3b
00000080: 22af d6bd c022 bc3c b078 5b3d 5803 72bd
00000090: 5a66 df3d 70f3 613d c08c 5f3d 30be 303c
000000a0: e4a9 70bd 0889 ca3c 6a73 8e3d b43a c73d
000000b0: a8c8 d23d 9a7f 8c3d 5ea0 a03d 74fc 8dbd
000000c0: a022 9ebc 9409 17bd a427 a73d 1efa b7bd
000000d0: e8f0 cf3d 40ec 98bc cc6f f23d 14a5 223d
000000e0: 0057 c73d 0471 0bbd 94a1 d23d fa8d a4bd
000000f0: 3075 7b3c 00dc 143b 0e96 f93d ec00 023d
00000100: 8053 26bd 6e77 9abd 0c4a c63d 4cf4 58bd
00000110: 0870 96bd e61c fbbd 506e 36bc ecce cabd
00000120: 585e babc e249 88bd 386a fc3d 4685 9cbd
00000130: 3030 ad3d b836 e93d 680e a33d f827 8bbc
00000140: f87c d4bc 4cc4 cb3d c8da 9e3d 34f3 13bd
00000150: 5238 ff3d 5c6e babd caf6 a13d 2044 9bbb
00000160: 209d 283d eaaf e43d 5e53 ee3d 78a6 bcbc
00000170: 54c6 a7bd 0432 bd3d 048e c13d f630 b83d
00000180: 26b8 9b3d 6894 423d d0d5 b23d c6f0 d1bd
00000190: a0c5 1e3d 042d fa3d 2225 a73d 7441 093d
000001a0: 9038 f2bd 7875 f23d 0a1e 93bd 0a00 cbbd
000001b0: 9639 c13d 543c 55bd 945e 433d 1c2e 1b3d
000001c0: 50f1 323c 2c6e 39bd 32d5 d3bd 74b7 f73d
000001d0: 2846 84bc b83b 7d3d 2069 cbbc c69c ed3d
000001e0: acea d43d 06fd 9fbd 92d6 f6bd fce4 0e3d
000001f0: 906d 1abc f8ba b2bc 9437 fcbd 28fd c2bd
00000200: 1846 5f3d e067 64bc e843 c33d 7a95 923d
00000210: e0f5 3f3d c099 a53c a8f0 a9bc 3069 a73c
00000220: 9af1 b83d 1c4b 19bd 248a 803d ac82 9b3d
00000230: 04a0 af3d c01c 45bb debe dfbd b07d 5d3d
00000240: 26d7 f53d 98ab 9c3c dcaa 40bd 2066 ce3b
00000250: d43b 36bd 80fe 9bbb e6e8 8bbd e0ff 1fbd
00000260: d4e5 123d 9024 a7bc 0879 a3bd b06e 8bbd
00000270: e0f1 c73c 609b b6bd 0c82 c83d de62 aa3d
00000280: 50d6 0cbc 403e 593d 6cdc a1bd bc82 b13d
00000290: e08e 77bd a8af ecbd 1065 63bd 10e7 8f3d
000002a0: 8c12 02bd c0a6 f7bb 7004 a4bd 8243 9b3d
000002b0: 8cb6 fcbd 04e2 103d 641e e8bd 3c00 b03d
000002c0: 58c3 133d 7472 70bd 0044 4c3b 689f d6bc
000002d0: f8fb 6ebd d41a e03d 0452 e0bd 0060 00bc
000002e0: 48fc e33d a063 e33c 64f0 d1bd a0b8 e0bd
000002f0: 808c d83b ece7 3c3d f84f 3bbd ee57 b0bd
00000300: 8052 fe3a 7ce9 123d 5498 cfbd 1224 bcbd
00000310: c087 913c fc43 a5bd e8d9 eabc cc4f 66bd
00000320: 64f2 7d3d e498 ba3d 3e55 f9bd 0609 f53d
00000330: c295 ef3d 30aa e4bd 9e92 a33d 603d 04bd
00000340: ac90 1abd 7821 843d ce21 9d3d c86f 89bc
00000350: 3248 fb3d 6413 dabd 9813 dcbc c86e 77bd
00000360: 7cb8 e0bd 203f ff3d 144a bbbd 6cc1 b5bd
00000370: cc0a babd 94fa 8e3d 7899 cabd 60e5 c43c
00000380: 12a9 ba3d 04c4 233d c0e1 f4bc 1abf a5bd
00000390: 54c6 ce3d fc0f 64bd 60f9 d4bc 2288 a33d
000003a0: 8494 6fbd ae87 ab3d 38b0 ecbd eae0 913d
000003b0: 1448 773d 20f6 fc3c 401b a53c 40a5 2abb
000003c0: 9cde 073d 6455 a2bd 2c6b c6bd 2e55 94bd
000003d0: e450 6ebd 9ce2 783d 4467 bfbd b8e2 b63c
000003e0: 98d7 80bc 182b 8bbc 80c6 b63c e88d cebc
000003f0: f2cf 993d 9862 0bbd ac9b bcbd 804f 7c3c

tgnn._base_tgcn.linear_r.bias f4 [32]
0.07399389 -0.10156308 -0.061086252 0.05020684 0.06644811 -0.014549255 0.068296224 0.009360775
-0.0023612827 -0.121732384 -0.11818594 0.10928008 0.05197528 -0.11607598 0.058765724 -0.04471408
0.0374524 0.06750192 0.0333198 -0.01913163 -0.088471755 0.04522881 -0.0526039 -0.10631165
-0.1044216 0.056450054 0.124298066 0.0009716004 0.09883721 0.036037147 0.06460135 0.06896998
00000000: 1c8a 973d 4e00 d0bd 9435 7abd b0a5 4d3d
00000010: f215 883d 0060 6ebc e4de 8b3d f05d 193c
00000020: c0bf 1abb d44e f9bd 780b f2bd 3cce df3d
00000030: 08e4 543d 3eb9 edbd 54b4 703d 1c26 37bd
00000040: b067 193d 723e 8a3d 587a 083d f0b9 9cbc
00000050: ae30 b5bd d841 393d 3077 57bd ecb9 d9bd
00000060: feda d5bd 2c38 673d fc8f fe3d 00b3 7e3a
00000070: 2a6b ca3d b09b 133d b64d 843d 2240 8d3d

tgnn._base_tgcn.conv_h.bias f4 [32]
0.24061723 0.042218547 -0.11950516 -0.052771546 0.090374246 -0.32859033 0.1685289 0.1750648
0.33910334 -0.01215547 -0.15868734 0.10802317 -0.27139613 0.002792978 0.108053766 -0.3011928
0.004797266 -0.19872284 0.15419048 -0.08637437 0.08463527 0.3353617 0.034384266 0.02858654
-0.13175352 0.13612247 -0.125105 0.16804819 0.3102884 0.2999582 -0.13494943 -0.0073728724
00000000: 5d64 763e 5bed 2c3d 1fbf f4bd fa26 58bd
00000010: 2216 b93d fe3c a8be d792 2c3e 3044 333e
00000020: f49e ad3e bd27 47bc ef7e 22be 403b dd3d
00000030: 6ff4 8abe 650a 373b 4b4b dd3d f135 9abe
00000040: 6232 9d3b 007e 4bbe 1ce4 1d3e 0ce5 b0bd
00000050: 4255 ad3d 87b4 ab3e 84d6 0c3d 522e ea3c
00000060: 65ea 06be b063 0b3e 861b 00be d314 2c3e
00000070: 1fde 9e3e 1f94 993e 2f30 0abe 2398 f1bb

tgnn._base_tgcn.conv_h.lin.weight f4 [32, 3]
0.20720282 -0.660215 0.45347875 -0.4017564 -0.7571553 0.52547234 -0.32293653 -0.18974967
1.2798221 -0.014354122 0.7656534 -0.5289291 0.25192472 0.49532053 -0.92695874 0.34202838
0.43598825 0.16300696 -0.4551892 -0.58325267 0.16456601 -0.41724014 -0.39466852 0.33806616
0.17228986 0.4896285 -0.7570849 -0.028880196 -0.79770166 0.73802423 0.5874249 0.4209181
-0.47069317 -0.5064074 -0.74968874 -0.05685823 -0.076285616 0.66962063 0.27109623 0.62156373
0.7696424 -0.40850303 0.12060232 -0.56383187 0.72392976 -0.2560155 -0.22370164 -0.36524376
-0.5791637 -0.09881261 0.88770217 -0.5421308 -0.5694642 0.29606113 -0.09189927 -0.662107
0.46702236 0.20372693 0.83210903 0.28273126 -0.23982257 -0.7110426 -0.21549559 0.26676214
0.056573372 0.19089688 0.89787555 0.53749776 0.3785291 -0.36646488 -0.69536483 0.83445007
0.30269524 0.49412256 -0.4544375 0.12309857 -0.49834734 0.5389265 -0.33351952 -0.7332794
0.09241156 -0.30489153 -0.2638397 0.4604664 0.052228414 -0.39783278 0.45491958 -0.25424543
0.4663545 0.44380337 0.50793195 0.44644657 -0.59726816 -0.10368567 -0.8224624 0.680802
00000000: fa2c 543e da03 29bf 5e2e e83e 04b3 cdbe
00000010: eed4 41bf 5b85 063f f057 a5be bd4d 42be
00000020: 36d1 a33f 8d2d 6bbc dc01 443f e667 07bf
00000030: 47fc 803e a79a fd3e 2b4d 6dbf 581e af3e
00000040: da39 df3e 4ceb 263e 8f0e e9be 0c50 15bf
00000050: fe83 283e 80a0 d5be fe11 cabe 0217 ad3e
00000060: c16c 303e 96b0 fa3e 51d0 41bf 2996 ecbc
00000070: 2d36 4cbf 28ef 3c3f 7a61 163f 9482 d73e
00000080: b2fe f0be eaa3 01bf 9aeb 3fbf 2de4 68bd
00000090: a23b 9cbd 426c 2b3f 20cd 8a3e cd1e 1f3f
000000a0: 4907 453f 4f27 d1be 59fe f63d 4957 10bf
000000b0: 7653 393f 7714 83be 0b12 65be 3b01 bbbe
000000c0: 1244 14bf 445e cabd 7340 633f 16c9 0abf
000000d0: 68c8 11bf 5395 973e af35 bcbd d87f 29bf
000000e0: 8e1d ef3e cb9d 503e 1905 553f 27c2 903e
000000f0: 0c94 75be e306 36bf e0aa 5cbe 0c95 883e
00000100: 7bb9 673d 797a 433e 2cdb 653f 7499 093f
00000110: 91ce c13e 49a1 bbbe 6e03 32bf 859e 553f
00000120: dffa 9a3e a2fd fc3e 08ac e8be 1a1b fc3d
00000130: 6227 ffbe 16f7 093f 12c3 aabe 33b8 3bbf
00000140: 4642 bd3d be1a 9cbe ff15 87be 41c2 eb3e
00000150: 76ed 553d bdb0 cbbe 38eb e83e 752c 82be
00000160: 04c6 ee3e 323a e33e d407 023f a594 e43e
00000170: 91e6 18bf 2759 d4bd e58c 52bf 0a49 2e3f

tgnn._base_tgcn.linear_h.weight f4 [32, 64]
-0.35229176 -0.4272241 -0.40644497 0.6946195 0.5869911 0.42089626 -0.6347614 -0.6572796
0.3675976 -0.5168519 0.5772276 -0.6614062 0.26226386 0.56460047 -0.4305756 -0.27360347
-0.5250929 -0.4036966 -0.58984786 0.7080586 -0.4862572 0.11444004 0.38360268 -0.6463485
0.567211 -0.26837888 -0.5338048 -0.47651076 -0.1047207 0.18907431 0.4695394 -0.4445797
-0.064880475 0.087567165 0.08037771 -0.062485382 -0.038240895 -0.07648395 0.11553256 -0.054766923
0.06087494 -0.035721913 0.097739205 0.10307735 0.09622486 0.018606737 0.04877597 0.023506805
-0.026669994 -0.05257401 0.0071945935 -0.076635376 -0.08987668 -0.085349455 0.058197305 -0.009746268
0.112571985 0.07403371 0.053111807 -0.03747432 -0.10009195 0.11500466 0.0024447143 -0.10971551
0.6018116 0.2416787 0.23002279 -0.9825753 -0.34400874 -0.059311256 0.13778812 0.17865856
-0.0475606 0.68391097 -0.08632167 0.09176369 -0.31477168 -0.18667045 0.7748072 -0.16223893
0.04415267 0.09269844 0.9914335 -0.24748872 0.08028378 0.118124865 0.10598965 0.24008544
-0.34880316 0.6750481 0.14129469 0.36253488 0.29193306 -0.08143237 -0.29819486 0.6439651
-0.08901258 -0.012996018 -0.11977331 0.021012723 -0.065784276 0.05583188 -0.081155494 -0.06269881
0.0064311028 0.006788656 0.09010455 -0.0013136566 0.046465456 0.079957694 -0.08357698 0.07751277
-0.052453622 0.014318407 0.0261413 0.02369374 0.029151112 0.04550059 -0.08227602 0.031429112
-0.017895773 0.07363206 -0.07054855 0.039543808 0.05335839 -0.051761553 -0.08255084 0.09131689
0.11222008 0.08187668 -0.09636347 0.046249285 -0.10028753 -0.01668723 -0.10299203 0.066693366
0.07665081 0.0799686 -0.057508305 0.11726977 0.08922483 0.016186595 -0.09274556 0.07154882
0.03661424 0.00875701 -0.12228711 -0.07388063 -0.014846459 -0.114295825 0.08827916 -0.024357006
-0.018873945 0.042424113 0.05246395 -0.07742748 0.019144341 -0.05939658 -0.10576825 0.12350875
0.030642197 -0.085110545 -0.069131315 0.035117194 -0.1163127 -0.042874634 0.08264306 -0.076086074
0.10263243 0.041057214 -0.10347648 0.05265352 0.11913769 0.0495276 0.10274571 -0.0016127229
-0.09405221 0.040168658 0.032083154 0.053182095 -0.019699648 -0.062812835 0.036071077 -0.09388283
0.103567004 -0.05184968 -0.1249986 0.07039614 0.0063922554 -0.040023923 -0.045174018 -0.082000986
0.19965364 0.057510387 0.33224422 -0.041829605 -0.058806982 -0.08618363 0.1602555 0.2540154
0.15012442 0.032760847 -0.14504415 -0.09383965 -0.15898398 0.028751707 0.40841582 -0.30226988
0.21052864 -0.14500037 0.08729214 -0.03217178 0.02845179 0.23635402 0.0063865967 0.08846315
-0.09327641 0.24991897 -0.13038567 0.322653 0.36510053 0.3514055 -0.2511491 -0.061704826
-0.018408418 0.08362214 0.04971437 0.11824444 -0.041034713 -0.058303148 -0.020620987 0.10073264
0.09965317 -0.06432268 0.11720145 0.07487394 0.048134834 -0.013988778 0.08852579 0.06946412
0.07644658 0.03668432 -0.026370183 0.063246146 -0.08859962 0.004238531 -0.08772674 0.019797921
0.10409342 -0.114822656 -0.032590494 -0.10962956 -0.09747049 0.071014464 0.002326429 0.014486715
00000000: 965f b4be 1ebd dabe 8e19 d0be 95d2 313f
00000010: 0c45 163f b77f d73e b97f 22bf 7a43 28bf
00000020: c135 bc3e 6850 04bf 30c5 133f eb51 29bf
00000030: 7347 863e a889 103f 6874 dcbe c115 8cbe
00000040: 7d6c 06bf 52b1 cebe 4500 17bf 5443 353f
00000050: b4f6 f8be 8a5f ea3d 9267 c43e 1877 25bf
00000060: bd34 113f f568 89be 6ea7 08bf 38f9 f3be
00000070: ce77 d6bd b29c 413e 7867 f03e f39f e3be
00000080: 0ee0 84bd 6a56 b33d 129d a43d acf0 7fbd
00000090: 7ca2 1cbd 9ea3 9cbd 569c ec3d 4853 60bd
000000a0: 0058 793d 2451 12bd 7e2b c83d 381a d33d
000000b0: 8a11 c53d 286d 983c 50c9 473d 5891 c03c
000000c0: 087b dabc d857 57bd a0c0 eb3b 02f3 9cbd
000000d0: 4411 b8bd b2cb aebd 4c60 6e3d d0ae 1fbc
000000e0: 248c e63d fc9e 973d c48b 593d ac7e 19bd
000000f0: 02fd ccbd 9087 eb3d 8037 203b 86b2 e0bd
00000100: 5310 1a3f 9f7a 773e 188b 6b3e 0e8a 7bbf
00000110: ea21 b0be 5cf0 72bd 5418 0d3e 45f2 363e
00000120: e7ce 42bd ca14 2f3f 6ac9 b0bd 9aee bb3d
00000130: c129 a1be 8a26 3fbe c459 463f f621 26be
00000140: 6ed9 343d aed8 bd3d 96ce 7d3f af6d 7dbe
00000150: d36b a43d 73eb f13d 1a11 d93d f5d8 753e
00000160: 5496 b2be f4cf 2c3f 8eaf 103e 2c9e b93e
00000170: 4078 953e 04c6 a6bd ffac 98be e6da 243f
00000180: 3a4c b6bd 40ed 54bc b64b f5bd e022 ac3c
00000190: e8b9 86bd f8af 643d da34 a6bd 3c68 80bd
000001a0: 00bc d23b 6073 de3b bc88 b83d 002f acba
000001b0: 9052 3e3d dcc0 a33d 682a abbd 04bf 9e3d
000001c0: 9cd9 56bd c097 6a3c 4826 d63c 6019 c23c
000001d0: 50ce ee3c d45e 3a3d 5480 a8bd d0bb 003d
000001e0: 289a 92bc 68cc 963d c27b 90bd b0f8 213d
000001f0: 548e 5a3d ec03 54bd 6a10 a9bd 5a04 bb3d
00000200: a4d3 e53d f6ae a73d 365a c5bd e46f 3d3d
00000210: 8c63 cdbd a8b3 88bc 7ced d2bd 8896 883d
00000220: 1afb 9c3d 94c6 a33d d48d 6bbd 222b f03d
00000230: 82bb b63d c099 843c 62f1 bdbd 3088 923d
00000240: d0f8 153d 9079 0f3c aa71 fabd ba4e 97bd
00000250: 903e 73bc ee13 eabd b4cb b43d 5888 c7bc
00000260: 889d 9abc e8c4 2d3d 70e4 563d 4c92 9ebd
00000270: 98d4 9c3c d449 73bd 069d d8bd 28f2 fc3d
00000280: 5805 fb3c 704e aebd b894 8dbd 0cd7 0f3d
00000290: 5a35 eebd 509d 2fbd c440 a93d 04d3 9bbd
000002a0: f430 d23d 9c2b 283d 7aeb d3bd 38ab 573d
000002b0: 76fe f33d 74dd 4a3d 586c d23d 0062 d3ba
000002c0: 729e c0bd e487 243d a069 033d 78d5 593d
000002d0: 2861 a1bc 04a4 80bd 44bf 133d a445 c0bd
000002e0: f01a d43d 5460 54bd 44ff ffbd da2b 903d
000002f0: 2076 d13b 20f0 23bd 6408 39bd 22f0 a7bd
00000300: 0172 4c3e 0390 6b3d ea1b aa3e 8555 2bbd
00000310: 97df 70bd 0b81 b0bd 051a 243e 4e0e 823e
00000320: 37ba 193e 3d30 063d 7486 14be 012f c0bd
00000330: b2cc 22be b388 eb3c e11b d13e 1ec3 9abe
00000340: d294 573e fa7a 14be 39c6 b23d 8ec6 03bd
00000350: ba13 e93c ca06 723e a846 d13b 2b2c b53d
00000360: b407 bfbd c2ea 7f3e d283 05be c632 a53e
00000370: 75ee ba3e 6ceb b33e 9d96 80be 33be 7cbd
00000380: 40cd 96bc 1642 ab3d 4ca1 4b3d 242a f23d
00000390: 0414 28bd 48cf 6ebd 58ed a8bc ea4c ce3d
000003a0: f616 cc3d 9cbb 83bd 5007 f03d 8257 993d
000003b0: 0829 453d 3031 65bc 024d b53d 3443 8e3d
000003c0: 0690 9c3d 4c42 163d 4806 d8bc 3287 813d
000003d0: b873 b5bd 60e3 8a3b 14aa b3bd 402f a23c
000003e0: ee2e d53d 2428 ebbd 9c7d 05bd 7685 e0bd
000003f0: 9c9e c7bd 0870 913d 0077 183b b059 6d3c

tgnn._base_tgcn.linear_h.bias f4 [32]
0.113944925 0.18871367 -0.089107886 0.08830787 0.13455738 0.37239626 -0.040936843 -0.10619929
0.11929215 0.42304617 0.13381074 0.11699972 0.15336773 0.28387177 -0.025297495 -0.12629332
-0.08333522 -0.027405486 0.08645434 0.31914753 0.33513567 -0.32889846 0.111979775 0.14838986
0.12161106 0.43825287 0.4499269 0.4144864 0.20217876 0.10243663 -0.0034676546 0.18473664
00000000: f55b e93d 283e 413e 327e b6bd c2da b43d
00000010: 69c9 093e b9aa be3e 64ad 27bd 037f d9bd
00000020: 714f f43d 8299 d83e af05 093e 8d9d ef3d
00000030: 6e0c 1d3e a457 913e b13c cfbc 0953 01be
00000040: a8ab aabd 7881 e0bc f90e b13d 4e67 a33e
00000050: e796 ab3e 6165 a8be a755 e53d 83f3 173e
00000060: 380f f93d ae62 e03e d25c e63e 9037 d43e
00000070: f307 4f3e 4cca d13d 9741 63bb 9a2b 3d3e

linear.weight f4 [16, 32]
0.24813737 -0.37028337 -0.11142372 0.2104225 0.2782175 -0.5004704 0.16752835 -0.051787853
0.2949777 -0.5729252 0.27018255 0.297862 0.40505877 -0.15501586 0.055190824 0.091960385
0.01706636 -0.11412977 0.39662966 -0.16817617 -0.29229236 -0.47550136 0.3570206 0.13082637
-0.41875392 -0.45118392 -0.42827895 -0.41091198 -0.3876556 0.2463143 0.08048946 -0.0006038783
0.11854952 -0.45346028 0.04278122 0.09202613 0.2217057 -0.45325723 0.20088768 -0.043036036
0.41529027 -0.47268543 0.40448216 0.17859225 0.3205432 -0.17509373 -0.11252437 0.117471136
0.036463365 -0.05523041 0.40909174 -0.2380117 -0.37838086 -0.45693925 0.17489144 0.43923402
-0.28145742 -0.4837226 -0.3574983 -0.43648943 -0.55495644 0.25712755 0.1312343 0.21885988
0.41502476 -0.43080154 -0.11556661 0.15113236 0.19077277 -0.3532109 0.47095528 -0.10496654
0.20186177 -0.4858025 0.18416566 0.3696086 0.2260537 -0.23041931 0.037580185 0.05849137
-0.13937864 -0.14554152 0.15514266 -0.41256994 -0.44575286 -0.5798771 0.36871266 0.2669459
-0.74107915 -0.32822022 -0.39244747 -0.5251495 -0.37302384 0.42108092 0.001525232 0.08849994
0.29114243 -0.61420983 0.007895321 0.23337415 0.29254982 -0.23587368 0.15955216 0.043840613
0.21840268 -0.5823136 0.32332978 0.19915438 0.28971455 -0.3172583 0.04641578 -0.1404911
0.17592205 0.12355836 0.2601975 -0.35450047 -0.3569926 -0.7705327 0.4570619 0.44242123
-0.65575683 -0.40831524 -0.5331491 -0.52679855 -0.5126559 0.13139868 -0.04456652 0.2541093
0.24320392 -0.63784105 -0.057647467 -0.20275861 0.22887275 -0.39903465 0.3249036 0.08735913
0.4068609 -0.49573964 0.44242 0.2775393 0.28614506 -0.06092198 0.004466538 -0.09487621
0.17476274 0.10485466 0.28315282 -0.22774228 -0.3145067 -0.7044851 0.12710987 0.42901087
-0.68312037 -0.55497074 -0.4683882 -0.45508423 -0.60476875 0.11243851 0.0066551045 0.3688785
0.45957342 -0.71489906 0.16676386 -0.0046435697 0.25024456 -0.61816883 0.42756352 -0.03732955
0.1754055 -0.4952329 0.15018447 0.29673752 0.454628 -0.16984604 -0.009680115 0.109137855
-0.09364671 -0.13452554 0.1544146 -0.22373998 -0.43032977 -0.68146676 0.46547145 0.1373791
-0.63436514 -0.49262083 -0.39927596 -0.37065455 -0.8515845 0.34275395 0.07012463 0.28520575
0.23671588 -0.6161092 0.12310888 -0.26007056 0.40604642 -0.38766563 0.32625604 0.04947257
0.43107772 -0.41382185 0.22262776 0.38933843 0.33334973 -0.37461966 -0.101359785 -0.041528
-0.10396226 0.08113755 0.30915368 -0.3233041 -0.19858834 -0.70133483 0.16287516 0.13769133
-0.9590367 -0.37423638 -0.5335815 -0.47942716 -0.79447067 0.2116965 0.03750951 0.45951727
0.36089364 -0.9465229 -0.025357336 -0.39740226 0.22728908 -0.48820952 0.41596603 -0.061065324
0.3628014 -0.4185685 0.42032325 0.17852123 0.31886685 -0.43921173 0.0103350775 -0.089699514
-0.01727216 -0.021731004 0.1864805 -0.3381793 -0.2529372 -0.7837623 0.3763651 0.3954281
-0.7187636 -0.3956177 -0.33249474 -0.268622 -0.84035593 0.07723979 0.021410936 0.23609622
00000000: b917 7e3e c895 bdbe 1f32 e4bd ff78 573e
00000010: 8672 8e3e d41e 00bf 8d8c 2b3e 801f 54bd
00000020: 5107 973e 3aab 12bf 5e55 8a3e 5e81 983e
00000030: dd63 cf3e 7abc 1ebe c60f 623d ba55 bc3d
00000040: c0ce 8b3c debc e9bd 0b13 cb3e 6036 2cbe
00000050: 58a7 95be ea74 f3be 67cb b63e 59f7 053e
00000060: ea66 d6be 9401 e7be 6147 dbbe 0e63 d2be
00000070: cb7a c6be d139 7c3e a8d7 a43d 964d 1eba
00000080: 17ca f23d f22b e8be 5c3b 2f3d 3278 bc3d
00000090: d206 633e 5511 e8be 80b5 4d3e 8e46 30bd
000000a0: eda0 d43e d303 f2be 4918 cf3e e3e0 363e
000000b0: 3d1e a43e c54b 33be 2d73 e6bd b594 f03d
000000c0: 9c5a 153d 4839 62bd 7974 d13e 57b9 73be
000000d0: 23bb c1be f1f3 e9be be16 333e 48e3 e03e
000000e0: 301b 90be 7daa f7be 040a b7be 8b7b dfbe
000000f0: a011 0ebf 39a6 833e 4962 063e ce1c 603e
00000100: 207e d43e 0592 dcbe 30ae ecbd 71c2 1a3e
00000110: f059 433e 0fd8 b4be 0d21 f13e b3f8 d6bd
00000120: dab4 4e3e 1bbb f8be ec95 3c3e 573d bd3e
00000130: 9f7a 673e 0af3 6bbe aeed 193d a694 6f3d
00000140: 46b9 0ebe d608 15be b8dd 1e3e 5e3c d3be
00000150: b839 e4be d372 14bf e8c7 bc3e 22ad 883e
00000160: 5db7 3dbf 7b0c a8be e0ee c8be 3370 06bf
00000170: fbfc bebe eb97 d73e 4bea c73a 753f b53d
00000180: 9f10 953e db3c 1dbf 605b 013c a2f9 6e3e
00000190: 17c9 953e df88 71be a461 233e 3792 333d
000001a0: f4a4 5f3e 8112 15bf 7b8b a53e 20ef 4b3e
000001b0: 7755 943e ae6f a2be 791e 3e3d e6dc 0fbe
000001c0: e924 343e 2a0c fd3d 9b38 853e 1681 b5be
000001d0: bcc7 b6be a241 45bf 0404 ea3e 0985 e23e
000001e0: aedf 27bf b20e d1be 767c 08bf 45dc 06bf
000001f0: 6b3d 03bf 608d 063e 628b 36bd 9d1a 823e
00000200: 730a 793e 8d49 23bf c01f 6cbd f49f 4fbe
00000210: 9e5d 6a3e 454e ccbe c459 a63e 58e9 b23d
00000220: 1250 d03e 96d1 fdbe e084 e23e a219 8e3e
00000230: 9b81 923e 5389 79bd 095c 923b 754e c2bd
00000240: 01f5 323e 0abe d63d 68f9 903e 4635 69be
00000250: 0607 a1be 2359 34bf 1729 023e 50a7 db3e
00000260: fae0 2ebf 9012 0ebf 94d0 efbe cd00 e9be
00000270: 20d2 1abf 2946 e63d 1013 da3b a5dd bc3e
00000280: 354d eb3e a003 37bf 25c4 2a3e 1629 98bb
00000290: 0e20 803e 5040 1ebf 9be9 da3e dfe6 18bd
000002a0: 809d 333e 2b8f fdbe f5c9 193e fbed 973e
000002b0: 00c5 e83e 1fec 2dbe 5899 1ebc ab83 df3d
000002c0: d9c9 bfbd 10c1 09be dc1e 1e3e 181c 65be
000002d0: 2f54 dcbe 9b74 2ebf 4652 ee3e 1bad 0c3e
000002e0: c165 22bf cc38 fcbe e66d ccbe 6fc6 bdbe
000002f0: 7101 5abf 727d af3e 819d 8f3d 7d06 923e
00000300: a665 723e 55b9 1dbf 8220 fc3d f827 85be
00000310: 51e5 cf3e 1c7c c6be 080b a73e c0a3 4a3d
00000320: 38b6 dc3e 75e0 d3be 88f8 633e 5e57 c73e
00000330: d1ac aa3e 26ce bfbe b895 cfbd 4419 2abd
00000340: 2aea d4bd 722b a63d 6449 9e3e 1d88 a5be
00000350: be5a 4bbe ae8a 33bf bfc8 263e f5fe 0c3e
00000360: 6e83 75bf e99b bfbe cc98 08bf 7a77 f5be
00000370: 6e62 4bbf f8c6 583e 92a3 193d d945 eb3e
00000380: 0dc7 b83e 534f 72bf 30ba cfbc 4f78 cbbe
00000390: 78be 683e 99f6 f9be 80f9 d43e a21f 7abd
000003a0: 1bc1 b93e 9c4e d6be 9c34 d73e 45ce 363e
000003b0: 8442 a33e 5ce0 e0be 7554 293c 61b4 b7bd
000003c0: 587e 8dbc 3805 b2bc bff4 3e3e d625 adbe
000003d0: fc80 81be a5a4 48bf edb2 c03e 8d75 ca3e
000003e0: e400 38bf 678e cabe c03c aabe d388 89be
000003f0: 9121 57bf e52f 9e3d fd65 af3c 35c3 713e

linear.bias f4 [16]
0.04365384 -0.08704838 0.013582289 0.053977076 -0.08371471 -0.11377832 -0.12955844 -0.0798429
-0.15210739 -0.028346762 -0.039924733 -0.014417086 -0.09123618 0.043232966 0.073978156 -0.044749543
00000000: 5ece 323d 6c46 b2bd 4088 5e3c 1117 5d3d
00000010: 9e72 abbd 9c04 e9bd f8aa 04be ad84 a3bd
00000020: 0ac2 1bbe 7837 e8bc 1e88 23bd a435 6cbc
00000030: 09da babd 0d15 313d dc81 973d 4c4b 37bd

linear2.weight f4 [6, 21]
0.51458824 0.56877893 0.2430484 0.026666196 -0.2657607 0.38946298 -0.4103117 -0.06578104
-0.057205882 0.36028638 -0.3034432 -0.19417422 0.0137907015 0.11249895 0.065955564 -0.20644842
0.0091858925 0.0835672 -0.032624815 -0.100522116 0.018105041 -0.03200016 0.09927133 -0.058275662
0.33516318 0.088360265 0.14879924 0.18787292 0.13672584 0.2725595 -0.10986421 0.15719499
0.038224954 0.24625432 -0.09074662 0.001900332 -0.14509635 0.1059013 -0.24786405 -0.18114264
0.035043456 0.18336055 -0.0047623613 0.013716934 -0.03780508 0.05253324 -0.11337654 -0.22415482
-0.023506321 -0.10217704 0.014418531 0.015946584 -0.27487245 -0.11516409 0.16644265 -0.43299234
0.028251639 0.12662145 0.24688536 -0.06550253 -0.03714098 -0.041396867 0.044330757 -0.16444716
-0.07626647 -0.38507432 -0.30461192 0.070178114 -0.10954005 0.2822794 -0.13567509 0.1941491
0.1335297 0.20652127 0.11425668 0.18293759 -0.056442805 0.13646008 0.35155758 0.1487937
0.09562041 0.14451638 0.13313225 0.22740749 -0.1301014 -0.1124268 0.080985405 0.3183043
0.21494922 -0.051749505 0.1293694 0.15853208 -0.018920206 -0.043036412 0.05944294 -0.21916658
-0.16757438 0.035771463 0.1675173 -0.0055069327 -0.3232374 0.192946 0.2214982 0.2293185
0.011025962 -0.14678423 -0.31773156 -0.2753446 -0.0809694 0.016091125 0.046693575 0.1769633
-0.0846863 -0.042384513 0.14318037 0.0028201558 -0.06028329 0.20328882 -0.2476038 0.20868759
0.22905636 0.25334388 0.19184706 -0.1006814 0.30379415 0.27243882
00000000: 0ebc 033f 7f9b 113f aee1 783e 1173 da3c
00000010: c911 88be b167 c73e 6014 d2be 36b8 86bd
00000020: b750 6abd 7577 b83e e85c 9bbe 9bd5 46be
00000030: 65f2 613c d965 e63d b613 873d 3767 53be
00000040: 6d80 163c 4825 ab3d 99a1 05bd 8ade cdbd
00000050: 0651 943c 9a12 03bd c44e cb3d 76b2 6ebd
00000060: 829a ab3e 3af6 b43d d45e 183e c261 403e
00000070: dc01 0c3e eb8c 8b3e 7d00 e1bd b9f7 203e
00000080: c591 1c3d 182a 7c3e 5dd9 b9bd 9014 f93a
00000090: 2394 14be c8e2 d83d 13d0 7dbe 757d 39be
000000a0: ba89 0f3d dec2 3b3e 950d 9cbb febc 603c
000000b0: 80d9 1abd 182d 573d f631 e8bd d788 65be
000000c0: 5490 c0bc 3242 d1bd b43b 6c3c 69a2 823c
000000d0: 15bc 8cbe 27db ebbd f16f 2a3e 2cb1 ddbe
000000e0: fb6f e73c 0ea9 013e 84cf 7c3e 3126 86bd
000000f0: 2421 18bd c38f 29bd 2b94 353d d664 28be
00000100: 9831 9cbd 7628 c5be 18f6 9bbe 8bb9 8f3d
00000110: 8956 e0bd ed86 903e 69ee 0abe 06cf 463e
00000120: 02bc 083e 507a 533e 68ff e93d fe53 3b3e
00000130: 9230 67bd 31bc 0b3e 5bff b33e 605d 183e
00000140: a2d4 c33d 1afc 133e d253 083e 82dd 683e
00000150: 4d39 05be 0640 e6bd addb a53d c8f8 a23e
00000160: a61b 5c3e 4af7 53bd 6979 043e 3c56 223e
00000170: 8cfe 9abc f346 30bd 717a 733d 346d 60be
00000180: 9e98 2bbe 1985 123d a889 2b3e 8073 b4bb
00000190: 5f7f a5be a393 453e 6dd0 623e 78d2 6a3e
000001a0: 3da6 343c 9b4e 16be b6ad a2be f8f9 8cbe
000001b0: 49d3 a5bd 89d1 833c c341 3f3d de35 353e
000001c0: 0370 adbd 629b 2dbd e09d 123e 5dd2 383b
000001d0: 9ceb 76bd f22a 503e da8b 7dbe 33b2 553e
000001e0: c08d 6a3e 4ab6 813e 8e73 443e 0d32 cebd
000001f0: e88a 9b3e 1a7d 8b3e

linear2.bias f4 [6]
-0.05934234 0.1421817 -0.0011556636 -0.08424341 0.45919552 -0.6640178
00000000: f410 73bd 1498 113e a379 97ba cf87 acbd
00000010: ad1b eb3e 12fd 29bf
