A3TGCN2_Checkpoints/Epoch_49.pth (torch, 35255 bytes, 17 tensors)

tgnn._attention f4 [16]
1.6482614 0.7694974 0.3783975 -0.12660892 0.14603348 0.010983832 0.065427035 0.32096478
0.22491169 0.23339817 0.26084805 0.29154798 0.2550007 0.4913686 0.70907307 1.3765537
00000000: 3bfa d23f c8fd 443f 51bd c13e c5a5 01be
00000010: cd89 153e 88f5 333c 9cfe 853d 7f55 a43e
00000020: 404f 663e eeff 6e3e e08d 853e c745 953e
00000030: 748f 823e aa94 fb3e d085 353f e932 b03f

tgnn._base_tgcn.conv_z.bias f4 [32]
0.57297117 0.49095014 0.26916808 -0.0068698134 -0.18770216 -0.40984133 -0.403789 -0.5765726
0.5868095 0.5422116 -0.5965546 -0.5318347 0.15069044 0.18581195 0.5007499 0.5490012
-0.56287235 0.59782726 0.35356188 0.6214037 0.5146186 -0.5084686 -0.5443382 0.58164376
-0.522053 -0.5619842 -0.51961464 0.48393714 0.5821987 -0.34273815 0.34946615 0.5559816
00000000: 3dae 123f d15d fb3e 66d0 893e 2c1c e1bb
00000010: ff34 40be b9d6 d1be 6fbd cebe 439a 13bf
00000020: 2639 163f 61ce 0a3f cdb7 18bf 5226 08bf
00000030: 984e 1a3e 7d45 3e3e 2531 003f 588b 0c3f
00000040: 6718 10bf 350b 193f 1006 b53e 5014 1f3f
00000050: 0bbe 033f 002b 02bf c059 0bbf 9be6 143f
00000060: 44a5 05bf 32de 0fbf 7705 05bf 9cc6 f73e
00000070: f90a 153f 607b afbe 3aed b23e cf54 0e3f

tgnn._base_tgcn.conv_z.lin.weight f4 [32, 3]
-0.32930303 -0.34724733 -2.0893471 0.36175647 -0.54675406 -1.155048 -0.87511444 0.5721225
-1.0668926 -0.18322006 0.8912338 1.4146403 0.6921383 -0.8241758 0.3608931 -0.11682005
0.5512379 2.0409906 -0.73242927 -0.3374694 0.36034632 -0.012211245 0.21515194 1.9434658
0.2363555 -0.54070055 -1.4737079 0.4073995 -0.90695834 -1.3875011 0.13982144 0.5518565
0.95099705 -0.526039 0.55853075 0.9793279 -0.3471366 0.9252666 -0.35264966 -0.953291
0.08461623 0.29428974 0.42447 -0.50903434 -1.3680605 -0.13973254 -0.23691659 -2.4851727
-0.19738081 0.41544408 1.1979841 0.1263813 -0.70595276 -1.9420278 -0.5720767 -0.25102526
0.14290601 -0.20308554 -0.47652218 -1.9787611 0.427425 -0.4554653 -1.334385 -0.22984426
0.36648178 0.95681804 -0.2985187 0.8414826 1.7302421 0.0917307 -0.111379474 -2.5361857
0.4991114 0.047280677 2.146728 0.31916296 0.004685465 1.8579172 0.62565 0.29973975
0.8455349 -0.5415751 -0.42041865 -0.66273594 0.11721367 0.21922472 -1.9169526 0.8392575
1.0641463 1.3487312 -0.11093482 -1.3480399 -1.1914225 -0.0095185265 -0.5278261 -1.5271033
00000000: 689a a8be 67ca b1be ddb7 05c0 2538 b93e
00000010: 13f8 0bbf 9dd8 93bf 8007 60bf 9f76 123f
00000020: f08f 88bf 0a9e 3bbe e627 643f ef12 b53f
00000030: fa2f 313f 2ffd 52bf fbc6 b83e 5a3f efbd
00000040: ed1d 0d3f 979f 0240 7c80 3bbf cac8 acbe
00000050: 507f b83e ac11 48bc ca50 5c3e 7dc3 f83f
00000060: 2d07 723e 5a6b 0abf 76a2 bcbf ab96 d03e
00000070: 6c2e 68bf a399 b1bf 5a2d 0f3e 7846 0d3f
00000080: 8b74 733f 7eaa 06bf dffb 0e3f 3cb5 7a3f
00000090: e3bb b1be 46de 6c3f 7f8e b4be e10a 74bf
000000a0: 464b ad3d 25ad 963e 2254 d93e 1350 02bf
000000b0: 9b1c afbf 0c16 0fbe 439a 72be 120d 1fc0
000000c0: 321e 4abe 16b5 d43e 8b57 993f 196a 013e
000000d0: 52b9 34bf 5e94 f8bf 9e73 12bf 6286 80be
000000e0: f455 123e a8f5 4fbe b7fa f3be 0b48 fdbf
000000f0: 73d7 da3e bf32 e9be 21cd aabf 4b5c 6bbe
00000100: 80a3 bb3e 07f2 743f 71d7 98be 676b 573f
00000110: 9378 dd3f 4edd bb3d ec1a e4bd de50 22c0
00000120: 888b ff3e 62a9 413d fe63 0940 5469 a33e
00000130: 8788 993b 3bd0 ed3f 992a 203f 7d77 993e
00000140: fa74 583f aaa4 0abf 1d41 d7be 10a9 29bf
00000150: b80d f03d 727c 603e b45e f5bf 94d9 563f
00000160: f235 883f 39a3 ac3f cb31 e3bd 928c acbf
00000170: 8880 98bf 98f3 1bbc 9c1f 07bf 1f78 c3bf

tgnn._base_tgcn.linear_z.weight f4 [32, 64]
-0.17654142 -0.69697344 0.7891121 0.91297996 -0.5118715 0.83167845 0.18530792 0.17741035
-0.6693236 -1.3950924 0.8496632 0.64402807 0.23044303 0.08272253 -0.6955295 -0.3527144
0.6591327 -0.9879001 0.10090294 -0.72779465 -0.4804947 0.5716607 1.3227624 -0.18520926
-0.11917132 -0.03709789 -0.15974121 -0.4365156 -0.13460068 0.3708733 -0.794875 -0.74770236
0.020246342 0.05585386 0.04477328 0.035287514 0.023139253 -0.022408113 0.11468598 -0.018079445
-0.054737613 0.07708734 -0.046232447 0.11530076 0.11062801 -0.083804354 -0.10268128 -0.040863156
0.08063172 -0.10281703 0.06785013 -0.12408477 -0.023813754 -0.032880887 0.013255671 0.10097024
-0.08791071 0.0020627677 0.006105587 -0.05243057 0.008615732 0.09010275 -0.07649019 0.07910547
-1.3586487 -0.45851848 0.25624174 2.4512334 -1.3044012 2.6102142 -0.737087 0.09799896
-0.40386653 -1.3716486 0.6866954 0.23490919 1.3513458 0.16482574 -0.38937983 -0.7360234
-0.015140164 -1.6516632 -1.2105265 -1.371092 -0.06528696 -0.10109296 1.629209 -0.099519454
0.41549876 0.06550757 1.5243284 -1.9594469 0.5847714 2.0984602 -3.0732858 -1.0712719
0.093658105 0.05391912 -0.07390167 -0.069662586 0.027618676 0.035378426 0.06620745 -0.09150325
0.12043749 -0.024570048 0.043849334 -0.05357112 0.047658175 0.10675146 -0.089991465 0.011300921
0.015317336 -0.018027395 -0.034281567 0.02419296 0.02312699 -0.051177472 0.044286117 0.104240134
0.030525789 -0.06379549 -0.018762544 -0.032129034 0.12478389 -0.064913705 0.07503353 -0.12432723
0.04489264 -0.118017495 -0.013276979 -0.09453888 -0.10209602 0.022381723 0.093163416 0.09084082
-0.053114906 -0.036311343 -0.020940498 -0.0033688247 -0.081808746 -0.0043317676 0.07468517 0.10478647
0.09609833 -0.060765564 0.073355466 0.06644446 0.107522964 -0.032896265 -0.09538354 0.014442787
0.06507723 -0.028276697 0.009666905 -0.017961666 -0.10631283 0.036880836 0.031946033 0.002603352
-0.103888705 0.05001934 0.004877478 -0.11019075 -0.10833873 0.013715833 0.014794603 0.010000929
0.063540414 -0.0005918145 0.11912532 -0.03559117 -0.070905566 -0.087597415 -0.061122417 0.120372415
0.062828586 -0.04591556 -0.08431047 -0.008374155 0.08703378 0.12108922 -0.113912866 -0.058497608
-0.103632584 -0.023029372 -0.017973796 0.11268407 0.12016699 0.11531803 -0.04985313 -0.054382443
-0.7318575 -0.550643 0.38804322 0.31448853 -0.54214007 1.2793088 -0.08798068 0.16351773
-0.4789722 -1.0938065 0.6724985 0.34741977 0.6165096 -0.29241133 -0.37329572 -0.37980112
0.3202861 -0.9022807 -0.16480623 -0.6840077 -0.41833842 0.37988707 1.3354845 -0.06069165
0.08671573 -0.031984724 0.50708723 -0.95416117 0.06291367 0.9128875 -1.6080171 -0.83567435
0.054764062 -0.0863833 -0.088368 0.05049646 -0.04610756 0.047094464 0.096982315 -0.04505831
-0.018742532 -0.09812556 -0.096838206 0.016707003 0.024006382 -0.09953986 -0.10314228 0.06481597
-0.004865214 0.10605247 0.10647841 0.038697034 -0.015579879 0.04774873 0.08730343 0.11532177
0.09415296 -0.10505602 -0.06537247 -0.11926623 -0.10969284 0.013711423 0.11988363 0.033814043
00000000: 46c7 34be da6c 32bf 4003 4a3f 0eb9 693f
00000010: 030a 03bf e1e8 543f 5cc1 3d3e 0fab 353e
00000020: cb58 2bbf 6392 b2bf 8783 593f 06df 243f
00000030: 42f9 6b3e 6e6a a93d 390e 32bf fb96 b4be
00000040: ecbc 283f 05e7 7cbf 33a6 ce3d c050 3abf
00000050: 6703 f6be 5b58 123f 4750 a93f 7fa7 3dbe
00000060: 1810 f4bd f5f3 17bd 3393 23be f97e dfbe
00000070: c3d4 09be 1be3 bd3e ee7c 4bbf 6c69 3fbf
00000080: a8db a53c 04c7 643d 3064 373d a489 103d
00000090: 888e bd3c 3891 b7bc 7ce0 ea3d 581b 94bc
000000a0: 8c34 60bd f8df 9d3d 3c5e 3dbd ce22 ec3d
000000b0: f090 e23d 9ea1 abbd 904a d2bd 2060 27bd
000000c0: 3e22 a53d bc91 d2bd 02f5 8a3d 2820 febd
000000d0: 1015 c3bc 1cae 06bd 502e 593c 7cc9 ce3d
000000e0: 880a b4bd 802f 073b 6011 c83b 70c1 56bd
000000f0: 0029 0d3c ca87 b83d e4a6 9cbd 0c02 a23d
00000100: 33e8 adbf efc2 eabe 1e32 833e 02e1 1c40
00000110: 9ef6 a6bf c00d 2740 bcb1 3cbf aeb3 c83d
00000120: 98c7 cebe 2e92 afbf 45cb 2f3f 098c 703e
00000130: e6f8 ac3f 14c8 283e cb5c c7be 086c 3cbf
00000140: 730e 78bc b369 d3bf 88f2 9abf f17f afbf
00000150: 2bb5 85bd d309 cfbd ec89 d03f dbd0 cbbd
00000160: 41bc d43e d528 863d 311d c33f 28cf fabf
00000170: 94b3 153f 2c4d 0640 b7b0 44c0 701f 89bf
00000180: d2cf bf3d 4cda 5c3d c259 97bd 42ab 8ebd
00000190: 9040 e23c f8e8 103d c697 873d 0e66 bbbd
000001a0: eea7 f63d 2047 c9bc 5c9b 333d 646d 5bbd
000001b0: 3835 433d 82a0 da3d 724d b8bd 8027 393c
000001c0: 90f5 7a3c 30ae 93bc d46a 0cbd 5030 c63c
000001d0: d074 bd3c 789f 51bd 5c65 353d da7b d53d
000001e0: 3811 fa3c 36a7 82bd e8b3 99bc bc99 03bd
000001f0: b28e ff3d 7af1 84bd 2eab 993d 469f febd
00000200: 58e1 373d 28b3 f1bd b087 59bc 9a9d c1bd
00000210: b817 d1bd e059 b73c 76cc be3d c00a ba3d
00000220: 048f 59bd 34bb 14bd 688b abbc 80c7 5cbb
00000230: 588b a7bd 80f1 8dbb 8af4 983d 4a9a d63d
00000240: 34cf c43d 50e5 78bd 643b 963d 0814 883d
00000250: 0035 dc3d 3cbe 06bd 7258 c3bd 70a1 6c3c
00000260: 3647 853d 88a4 e7bc f061 1e3c 5824 93bc
00000270: 8aba d9bd 5c10 173d d8d9 023d 009d 2a3b
00000280: 9ac3 d4bd 14e1 4c3d 40d3 9f3b b0ab e1bd
00000290: b2e0 ddbd 60b8 603c 1065 723c f0da 233c
000002a0: 7a21 823d 0024 1bba faf7 f33d 0cc8 11bd
000002b0: f036 91bd 4666 b3bd 805b 7abd d085 f63d
000002c0: 46ac 803d f411 3cbd f8aa acbd c033 09bc
000002d0: c43e b23d a0fd f73d 264b e9bd 309b 6fbd
000002e0: 523d d4bd 18a8 bcbc c83d 93bc e8c6 e63d
000002f0: 1c1a f63d dc2b ec3d cc32 4cbd 20c0 5ebd
00000300: 035b 3bbf f1f6 0cbf 9aad c63e a404 a13e
00000310: b1c9 0abf 64c0 a33f 372f b4bd 3171 273e
00000320: d83b f5be da01 8cbf dd28 2c3f 01e1 b13e
00000330: 93d3 1d3f f0b6 95be 9e20 bfbe 4b75 c2be
00000340: 8afc a33e defb 66bf f7c2 28be 211b 2fbf
00000350: 7430 d6be 8f80 c23e 28f1 aa3f cf97 78bd
00000360: 0498 b13d 6a02 03bd 78d0 013f e843 74bf
00000370: e2d8 803d ffb2 693f 81d3 cdbf c1ee 55bf
00000380: 4850 603d bae9 b0bd 48fa b4bd 60d5 4e3d
00000390: 48db 3cbd 20e6 403d aa9e c63d 108f 38bd
000003a0: f089 99bc 0ef6 c8bd 1c53 c6bd 20dd 883c
000003b0: 08a9 c43c 8edb cbbd 423c d3bd 3cbe 843d
000003c0: 606c 9fbb 0a32 d93d 5a11 da3d c880 1e3d
000003d0: c042 7fbc 2c94 433d 24cc b23d d22d ec3d
000003e0: 44d3 c03d 9c27 d7bd 00e2 85bd da41 f4bd
000003f0: a4a6 e0bd e0a5 603c 8c85 f53d 9880 0a3d

tgnn._base_tgcn.linear_z.bias f4 [32]
-0.32254663 0.7789196 0.11818309 0.010798786 -0.14182255 -0.19426896 -0.21802694 0.015448966
-0.22232851 -0.03767795 -0.46773106 -0.28584304 -0.7216382 -1.0348487 0.016526788 0.06856956
0.060834035 -0.110993326 -0.50670147 -0.3705071 -0.32692653 0.5817812 -0.17688338 -0.67663497
0.6243044 -0.514373 0.0110582495 -0.39973217 0.24928223 -0.52342457 0.11974424 -0.3049017
00000000: d524 a5be 4667 473f fa09 f23d 64ed 303c
00000010: ee39 11be 71ee 46be 7442 5fbe a91d 7d3c
00000020: 16aa 63be 3254 1abd 727a efbe 055a 92be
00000030: 48bd 38bf ec75 84bf 3063 873c 336e 8c3d
00000040: 1c2d 793d 7850 e3bd 30b7 01bf 1bb3 bdbe
00000050: ea62 a7be 9def 143f eb20 35be f337 2dbf
00000060: 6ad2 1f3f f3ad 03bf a92d 353c b2a9 ccbe
00000070: d743 7f3e 27ff 05bf 783c f53d 131c 9cbe

tgnn._base_tgcn.conv_r.bias f4 [32]
0.0 0.0 0.0 0.0 0.0 0.0 0.0 0.0
0.0 0.0 0.0 0.0 0.0 0.0 0.0 0.0
0.0 0.0 0.0 0.0 0.0 0.0 0.0 0.0
0.0 0.0 0.0 0.0 0.0 0.0 0.0 0.0
00000000: 0000 0000 0000 0000 0000 0000 0000 0000
00000010: 0000 0000 0000 0000 0000 0000 0000 0000
00000020: 0000 0000 0000 0000 0000 0000 0000 0000
00000030: 0000 0000 0000 0000 0000 0000 0000 0000
00000040: 0000 0000 0000 0000 0000 0000 0000 0000
00000050: 0000 0000 0000 0000 0000 0000 0000 0000
00000060: 0000 0000 0000 0000 0000 0000 0000 0000
00000070: 0000 0000 0000 0000 0000 0000 0000 0000

tgnn._base_tgcn.conv_r.lin.weight f4 [32, 3]
0.16965911 -0.037553072 0.058 0.30765042 -0.29204863 -0.020177722 -0.14040816 -0.28139192
0.093972 0.011039704 0.09644386 0.32871267 -0.28202555 -0.038353562 -0.11378935 0.2503403
-0.06998673 -0.36193478 0.021415055 0.13195279 0.16137215 -0.1009852 0.14807871 0.06853992
0.20136961 0.24095705 -0.18302193 -0.28173542 0.09143564 0.23300639 0.14357045 -0.18475646
-0.3047736 0.09166607 0.2801251 -0.18565165 -0.23761752 0.31345937 -0.3765382 0.3082089
-0.008306354 0.12245819 -0.14770049 -0.2538972 0.39423618 0.1664029 -0.081643015 -0.24177888
0.30107394 -0.17729856 0.24553058 0.16594991 -0.27114642 0.17000952 -0.013642997 0.2751501
-0.17664571 -0.37121272 -0.39349604 -0.2380074 0.28203174 -0.24862173 -0.09803039 -0.008543164
-0.0024053752 -0.07843304 -0.24303538 -0.07063952 -0.31078428 -0.35467574 0.2420921 -0.21242094
0.2418544 -0.19488631 0.18474093 -0.07327154 -0.15576243 0.18501553 0.15467903 0.09230062
0.0032456815 -0.064685404 -0.40229955 -0.07319707 0.3462328 0.29382756 0.09371677 0.19856241
-0.05077201 -0.25669378 -0.17840756 0.17265919 0.40160397 0.14477381 -0.06058258 -0.35659665
00000000: 1ebb 2d3e 40d1 19bd 6891 6d3d 5b84 9d3e
00000010: 6687 95be c04b a5bc 28c7 0fbe 9a12 90be
00000020: 6474 c03d e0df 343c 5c84 c53d 074d a83e
00000030: a765 90be a018 1dbd 640a e9bd 9b2c 803e
00000040: 3455 8fbd 844f b9be a06e af3c a21e 073e
00000050: be3e 253e 54d1 cebd f2a1 173e a85e 8c3d
00000060: d633 4e3e 72bd 763e 1a6a 3bbe a03f 90be
00000070: 9c42 bb3d 3a99 6e3e 2204 133e cc30 3dbe
00000080: 490b 9cbe 6cbb bb3d 8f6c 8f3e 771b 3ebe
00000090: 0252 73be bf7d a03e 9dc9 c0be 8fcd 9d3e
000000a0: 6017 08bc 5ccb fa3d cc3e 17be d0fe 81be
000000b0: 53d9 c93e 8665 2a3e 7434 a7bd e294 77be
000000c0: 5d26 9a3e c18d 35be 5e6c 7b3e c6ee 293e
000000d0: b4d3 8abe fa16 2e3e e086 5fbc 79e0 8c3e
000000e0: 9de2 34be 980f bebe 5078 c9be 36b8 73be
000000f0: 7766 903e b296 7ebe 28c4 c8bd a0f8 0bbc
00000100: 80a3 1dbb 80a1 a0bd 44de 78be 74ab 90bd
00000110: 1e1f 9fbe 0f98 b5be fee6 773e e084 59be
00000120: aea8 773e 4790 47be ba2c 3d3e 640f 96bd
00000130: 3080 1fbe b674 3d3e 2e64 1e3e 1c08 bd3d
00000140: 80b5 543b c879 84bd 35fa cdbe 58e8 95bd
00000150: 6d45 b13e 9170 963e 94ee bf3d f253 4b3e
00000160: 50f6 4fbd 5e6d 83be 79b0 36be 92cd 303e
00000170: 099f cd3e 963f 143e 7025 78bd d693 b6be

tgnn._base_tgcn.linear_r.weight f4 [32, 64]
-0.0737533 0.028673455 -0.032104403 -0.12430988 0.023893312 0.048621297 0.09931053 -0.055989906
0.08454122 -0.109967485 0.027058244 0.020878121 -0.091980115 0.060285464 0.11037688 -0.06267205
-0.042791396 0.018074214 0.0893611 -0.06952338 -0.04769768 0.044731513 0.040796995 0.05926755
0.09976938 0.11329433 0.08910236 0.057434827 0.07203089 0.07495734 -0.10994126 0.004388988
-0.10482623 0.022965789 0.053581893 -0.05908522 0.10908194 0.0551638 0.05457759 0.010787532
-0.05875577 0.024723545 0.06955607 0.097279936 0.102921784 0.068602756 0.078430876 -0.06932917
-0.01930362 -0.03687437 0.08161858 -0.08983253 0.10153371 -0.01866734 0.1183773 0.039708212
0.09733391 -0.034043327 0.10284725 -0.080348924 0.015347764 0.0022714138 0.12186824 0.03173916
-0.040606976 -0.07542311 0.09682092 -0.052967355 -0.07345587 -0.12261371 -0.011134699 -0.099027485
-0.022750065 -0.06654717 0.12324947 -0.076426074 0.08456457 0.1138739 0.07961732 -0.016986832
-0.025938496 0.0994955 0.07756573 -0.03612061 0.12461914 -0.09103081 0.079083994 -0.0047383457
0.04116547 0.111663654 0.11636995 -0.023028597 -0.08192125 0.09238055 0.094509155 0.089937136
0.07603483 0.047504812 0.08732188 -0.10251002 0.03876269 0.12215617 0.081613794 0.033509687
-0.11827195 0.11838812 -0.07183464 -0.09912117 0.09434812 -0.052059487 0.04769762 0.03788577
0.010921791 -0.045271084 -0.10343398 0.12095538 -0.016146734 0.06182453 -0.024830401 0.11602168
0.103963226 -0.07811932 -0.12052645 0.034886345 -0.009425536 -0.02181767 -0.12315288 -0.09520942
0.054510206 -0.013940781 0.095344365 0.07157417 0.046865344 0.020214915 -0.020744637 0.0204359
0.09030457 -0.037425146 0.06276348 0.07593283 0.085754424 -0.003007695 -0.10925077 0.054074943
0.12003927 0.019124791 -0.047037944 0.0062987953 -0.04449065 -0.0047605634 -0.06831531 -0.03906238
0.035863712 -0.020403177 -0.07982069 -0.06808221 0.024407327 -0.08916354 0.097904295 0.08319639
-0.008596018 0.05303788 -0.0790337 0.08667514 -0.06043899 -0.11556941 -0.055516303 0.070264935
-0.03175597 -0.00755772 -0.08008659 0.075812355 -0.123395056 0.035371795 -0.113339216 0.08593795
0.036074966 -0.0587029 0.003116846 -0.026199058 -0.058345765 0.10942617 -0.10953143 -0.007835388
0.11132103 0.027757466 -0.10250929 -0.109727144 0.006608546 0.046119615 -0.04573056 -0.08610521
0.0019403249 0.0358672 -0.10136476 -0.09186567 0.017764926 -0.080696076 -0.028668359 -0.056228444
0.06199874 0.09111193 -0.12174462 0.11964612 0.11698486 -0.11165273 0.079869494 -0.032285094
-0.037735626 0.06451696 0.07672463 -0.016776934 0.122696295 -0.1064823 -0.026864812 -0.060408384
-0.109726876 0.12463212 -0.09144989 -0.08874783 -0.090840906 0.06981388 -0.09892553 0.024035156
0.09114279 0.039981857 -0.029892802 -0.0809309 0.10096422 -0.055679306 -0.025997818 0.0798495
-0.058491245 0.08375488 -0.115570486 0.07122977 0.060371473 0.03087908 0.020154595 -0.0026038438
0.03317128 -0.07926443 -0.0968841 -0.07242809 -0.058182612 0.060762987 -0.09345868 0.022324905
-0.015727803 -0.016988322 0.022311449 -0.02521415 0.075103655 -0.034029573 -0.092093796 0.015399814
00000000: f80b 97bd 98e4 ea3c e87f 03bd 2e96 febd
00000010: e8bb c33c 2027 473d 5263 cb3d ac55 65bd
00000020: f223 ad3d a236 e1bd 40a9 dd3c 9808 ab3c
00000030: 1260 bcbd e4ed 763d 460d e23d 345a 80bd
00000040: 0846 2fbd 6010 943c f402 b73d 4662 8ebd
00000050: a45e 43bd 6438 373d c01a 273d 88c2 723d
00000060: e453 cc3d dc06 e83d 4c7b b63d c840 6b3d
00000070: ee84 933d 3c83 993d e228 e1bd 80d1 8f3b
00000080: 22af d6bd c022 bc3c b078 5b3d 5803 72bd
00000090: 5a66 df3d 70f3 613d c08c 5f3d 30be 303c
000000a0: e4a9 70bd 0889 ca3c 6a73 8e3d b43a c73d
000000b0: a8c8 d23d 9a7f 8c3d 5ea0 a03d 74fc 8dbd
000000c0: a022 9ebc 9409 17bd a427 a73d 1efa b7bd
000000d0: e8f0 cf3d 40ec 98bc cc6f f23d 14a5 223d
000000e0: 0057 c73d 0471 0bbd 94a1 d23d fa8d a4bd
000000f0: 3075 7b3c 00dc 143b 0e96 f93d ec00 023d
00000100: 8053 26bd 6e77 9abd 0c4a c63d 4cf4 58bd
00000110: 0870 96bd e61c fbbd 506e 36bc ecce cabd
00000120: 585e babc e249 88bd 386a fc3d 4685 9cbd
00000130: 3030 ad3d b836 e93d 680e a33d f827 8bbc
00000140: f87c d4bc 4cc4 cb3d c8da 9e3d 34f3 13bd
00000150: 5238 ff3d 5c6e babd caf6 a13d 2044 9bbb
00000160: 209d 283d eaaf e43d 5e53 ee3d 78a6 bcbc
00000170: 54c6 a7bd 0432 bd3d 048e c13d f630 b83d
00000180: 26b8 9b3d 6894 423d d0d5 b23d c6f0 d1bd
00000190: a0c5 1e3d 042d fa3d 2225 a73d 7441 093d
000001a0: 9038 f2bd 7875 f23d 0a1e 93bd 0a00 cbbd
000001b0: 9639 c13d 543c 55bd 945e 433d 1c2e 1b3d
000001c0: 50f1 323c 2c6e 39bd 32d5 d3bd 74b7 f73d
000001d0: 2846 84bc b83b 7d3d 2069 cbbc c69c ed3d
000001e0: acea d43d 06fd 9fbd 92d6 f6bd fce4 0e3d
000001f0: 906d 1abc f8ba b2bc 9437 fcbd 28fd c2bd
00000200: 1846 5f3d e067 64bc e843 c33d 7a95 923d
00000210: e0f5 3f3d c099 a53c a8f0 a9bc 3069 a73c
00000220: 9af1 b83d 1c4b 19bd 248a 803d ac82 9b3d
00000230: 04a0 af3d c01c 45bb debe dfbd b07d 5d3d
00000240: 26d7 f53d 98ab 9c3c dcaa 40bd 2066 ce3b
00000250: d43b 36bd 80fe 9bbb e6e8 8bbd e0ff 1fbd
00000260: d4e5 123d 9024 a7bc 0879 a3bd b06e 8bbd
00000270: e0f1 c73c 609b b6bd 0c82 c83d de62 aa3d
00000280: 50d6 0cbc 403e 593d 6cdc a1bd bc82 b13d
00000290: e08e 77bd a8af ecbd 1065 63bd 10e7 8f3d
000002a0: 8c12 02bd c0a6 f7bb 7004 a4bd 8243 9b3d
000002b0: 8cb6 fcbd 04e2 103d 641e e8bd 3c00 b03d
000002c0: 58c3 133d 7472 70bd 0044 4c3b 689f d6bc
000002d0: f8fb 6ebd d41a e03d 0452 e0bd 0060 00bc
000002e0: 48fc e33d a063 e33c 64f0 d1bd a0b8 e0bd
000002f0: 808c d83b ece7 3c3d f84f 3bbd ee57 b0bd
00000300: 8052 fe3a 7ce9 123d 5498 cfbd 1224 bcbd
00000310: c087 913c fc43 a5bd e8d9 eabc cc4f 66bd
00000320: 64f2 7d3d e498 ba3d 3e55 f9bd 0609 f53d
00000330: c295 ef3d 30aa e4bd 9e92 a33d 603d 04bd
00000340: ac90 1abd 7821 843d ce21 9d3d c86f 89bc
00000350: 3248 fb3d 6413 dabd 9813 dcbc c86e 77bd
00000360: 7cb8 e0bd 203f ff3d 144a bbbd 6cc1 b5bd
00000370: cc0a babd 94fa 8e3d 7899 cabd 60e5 c43c
00000380: 12a9 ba3d 04c4 233d c0e1 f4bc 1abf a5bd
00000390: 54c6 ce3d fc0f 64bd 60f9 d4bc 2288 a33d
000003a0: 8494 6fbd ae87 ab3d 38b0 ecbd eae0 913d
000003b0: 1448 773d 20f6 fc3c 401b a53c 40a5 2abb
000003c0: 9cde 073d 6455 a2bd 2c6b c6bd 2e55 94bd
000003d0: e450 6ebd 9ce2 783d 4467 bfbd b8e2 b63c
000003e0: 98d7 80bc 182b 8bbc 80c6 b63c e88d cebc
000003f0: f2cf 993d 9862 0bbd ac9b bcbd 804f 7c3c

tgnn._base_tgcn.linear_r.bias f4 [32]
0.07399389 -0.10156308 -0.061086252 0.05020684 0.06644811 -0.014549255 0.068296224 0.009360775
-0.0023612827 -0.121732384 -0.11818594 0.10928008 0.05197528 -0.11607598 0.058765724 -0.04471408
0.0374524 0.06750192 0.0333198 -0.01913163 -0.088471755 0.04522881 -0.0526039 -0.10631165
-0.1044216 0.056450054 0.124298066 0.0009716004 0.09883721 0.036037147 0.06460135 0.06896998
00000000: 1c8a 973d 4e00 d0bd 9435 7abd b0a5 4d3d
00000010: f215 883d 0060 6ebc e4de 8b3d f05d 193c
00000020: c0bf 1abb d44e f9bd 780b f2bd 3cce df3d
00000030: 08e4 543d 3eb9 edbd 54b4 703d 1c26 37bd
00000040: b067 193d 723e 8a3d 587a 083d f0b9 9cbc
00000050: ae30 b5bd d841 393d 3077 57bd ecb9 d9bd
00000060: feda d5bd 2c38 673d fc8f fe3d 00b3 7e3a
00000070: 2a6b ca3d b09b 133d b64d 843d 2240 8d3d

tgnn._base_tgcn.conv_h.bias f4 [32]
0.30367884 -0.009849269 -0.28649244 -0.098622 0.23221757 -0.60644436 0.3699004 0.3365502
0.5868978 -0.049333636 -0.32293153 0.21478835 -0.43379468 0.0031689892 0.077019155 -0.50246215
0.07720452 -0.30964413 0.2599069 -0.062449593 0.09003139 0.52268225 0.022438856 -0.0013827621
-0.2272342 0.13589525 -0.2526528 0.32745916 0.44482583 0.49998897 -0.25619456 -0.04355983
00000000: cb7b 9b3e d45e 21bc 23af 92be 55fa c9bd
00000010: 71ca 6d3e f03f 1bbf 9663 bd3e 4f50 ac3e
00000020: ef3e 163f 1112 4abd 4857 a5be 7af1 5b3e
00000030: 561a debe d1ae 4f3b 38bc 9d3d 5ca1 00bf
00000040: 671d 9e3d ad89 9ebe 8412 853e 25cb 7fbd
00000050: 6162 b83d 81ce 053f b1d1 b73c cc3d b5ba
00000060: 15b0 68be 2028 0b3e b55b 81be baa8 a73e
00000070: 36c0 e33e 8efe ff3e ef2b 83be cb6b 32bd

tgnn._base_tgcn.conv_h.lin.weight f4 [32, 3]
0.2268448 -0.69426584 1.6897258 -0.27615702 -1.1282015 1.0417885 -0.061374247 -0.1596741
2.6851404 -0.064725645 1.1798911 -0.6856089 0.116500825 0.68168724 -1.8199581 0.5635633
0.3319013 -0.57254934 -0.6038048 -0.60221565 0.48149654 -0.55845714 -0.3159969 1.2681115
-0.058092415 0.68207324 -0.13951409 0.09397441 -1.2338352 1.1080312 0.75067437 0.3199684
-1.3232903 -0.6324385 -1.0618163 -0.35273254 -0.034476433 0.70262045 -0.5181812 0.64901507
1.1730039 -0.05912487 0.20560114 -0.6449806 1.9707286 -0.06252034 -0.42038587 -1.745942
-0.76788485 0.13963228 1.7866567 -0.38668758 -0.8435111 -0.9657159 -0.13000011 -0.8414517
0.8779939 0.037082326 1.3184626 0.18554282 -0.13934205 -1.2143775 -0.48974365 0.14871493
0.18786262 1.4183512 0.7569896 1.051638 1.9687182 -0.27057424 -0.9982219 1.4519382
0.35619172 0.58227086 -1.206414 0.17434117 -0.54769766 1.8665724 -0.1109432 -1.105781
-0.53365284 -0.43954444 -0.17003384 1.5933634 -0.0009093855 -0.33640748 1.861125 -0.45062798
0.68907845 1.3686942 0.614018 0.35419548 -1.5647522 -0.018057551 -1.2652079 0.8919467
00000000: 014a 683e 68bb 31bf ef48 d83f 7464 8dbe
00000010: e868 90bf 5359 853f 9063 7bbd 9b81 23be
00000020: 57d9 2b40 e18e 84bd ac06 973f 1184 2fbf
00000030: fc97 ee3d 0e83 2e3f 63f4 e8bf af45 103f
00000040: f8ee a93e 9892 12bf f492 1abf ce2a 1abf
00000050: b786 f63e 0cf7 0ebf 58ca a1be 7a51 a23f
00000060: 50f2 6dbd 5a9c 2e3f c8dc 0ebe a875 c03d
00000070: 50ee 9dbf f7d3 8d3f 322c 403f e6d2 a33e
00000080: 9461 a9bf 7de7 21bf 99e9 87bf 5c99 b4be
00000090: 2937 0dbd efde 333f 86a7 04bf da25 263f
000000a0: fe24 963f eb2c 72bd 1b89 523e 731d 25bf
000000b0: d640 fc3f aa0a 80bd d13c d7be 077b dfbf
000000c0: 1a94 44bf c4fb 0e3e 2bb1 e43f eafb c5be
000000d0: 58f0 57bf 2839 77bf c01e 05be 6169 57bf
000000e0: 35c4 603f a3e3 173d 62c3 a83f f0fe 3d3e
000000f0: afaf 0ebe b970 9bbf aebf fabe ba48 183e
00000100: 0f5f 403e 888c b53f 12ca 413f 139c 863f
00000110: f5fe fb3f b588 8abe 788b 7fbf 1cd9 b93f
00000120: c35e b63e b40f 153f c66b 9abf 7e86 323e
00000130: ea35 0cbf d8eb ee3f 3036 e3bd 3b8a 8dbf
00000140: 799d 08bf f80b e1be 5a1d 2ebe 55f3 cb3f
00000150: d463 6eba 9a3d acbe 5839 ee3f b6b8 e6be
00000160: 7267 303f 5f31 af3f 4930 1d3f 1c59 b53e
00000170: cd49 c8bf 6eed 93bc 55f2 a1bf 9e56 643f

tgnn._base_tgcn.linear_h.weight f4 [32, 64]
-0.4123449 -1.0564663 -0.8768588 1.2617979 1.1718422 0.18583149 -0.51686 -0.48957416
0.6874985 -1.6062081 0.3941411 -0.587269 0.2112261 0.6169856 -0.7835749 -0.42982185
-0.5553446 -0.5498476 -0.6694483 1.0468093 -0.66812557 0.26730993 0.22730681 -1.6335313
0.58680683 -0.48090035 -0.8055935 -0.32164174 -0.03413277 0.5139794 0.39534718 -1.4129018
-0.064880475 0.087567165 0.08037771 -0.062485382 -0.038240895 -0.07648395 0.11553256 -0.054766923
0.06087494 -0.035721913 0.097739205 0.10307735 0.09622486 0.018606737 0.04877597 0.023506805
-0.026669994 -0.05257401 0.0071945935 -0.076635376 -0.08987668 -0.085349455 0.058197305 -0.009746268
0.112571985 0.07403371 0.053111807 -0.03747432 -0.10009195 0.11500466 0.0024447143 -0.10971551
0.7614527 0.47922078 0.33395597 -1.9164197 -0.47271305 -0.29453138 0.540817 0.6825125
-0.06441307 1.0634931 -0.383542 0.28918105 -0.46908313 -0.3013251 1.0704806 -0.18996789
0.12094469 0.12233587 1.6075346 -0.5907776 0.36990672 0.15963933 0.0512271 0.4895796
-1.2344819 0.893529 0.21643184 0.77204764 0.41981724 -0.04534385 -0.65001136 0.9402599
-0.08901258 -0.012996018 -0.11977331 0.021012723 -0.065784276 0.05583188 -0.081155494 -0.06269881
0.0064311028 0.006788656 0.09010455 -0.0013136566 0.046465456 0.079957694 -0.08357698 0.07751277
-0.052453622 0.014318407 0.0261413 0.02369374 0.029151112 0.04550059 -0.08227602 0.031429112
-0.017895773 0.07363206 -0.07054855 0.039543808 0.05335839 -0.051761553 -0.08255084 0.09131689
0.11222008 0.08187668 -0.09636347 0.046249285 -0.10028753 -0.01668723 -0.10299203 0.066693366
0.07665081 0.0799686 -0.057508305 0.11726977 0.08922483 0.016186595 -0.09274556 0.07154882
0.03661424 0.00875701 -0.12228711 -0.07388063 -0.014846459 -0.114295825 0.08827916 -0.024357006
-0.018873945 0.042424113 0.05246395 -0.07742748 0.019144341 -0.05939658 -0.10576825 0.12350875
0.030642197 -0.085110545 -0.069131315 0.035117194 -0.1163127 -0.042874634 0.08264306 -0.076086074
0.10263243 0.041057214 -0.10347648 0.05265352 0.11913769 0.0495276 0.10274571 -0.0016127229
-0.09405221 0.040168658 0.032083154 0.053182095 -0.019699648 -0.062812835 0.036071077 -0.09388283
0.103567004 -0.05184968 -0.1249986 0.07039614 0.0063922554 -0.040023923 -0.045174018 -0.082000986
0.758638 -0.002118129 0.9867432 -0.17313673 -0.32953578 0.9711295 -0.41605675 -0.17608282
-0.021724353 0.2380902 0.25871179 -0.59475493 0.2621354 0.28014377 1.3319309 -0.5839597
0.26160368 -0.37424377 0.09196187 0.28870445 -0.3645598 0.41915214 0.57955086 0.1613097
0.022166178 1.2245247 -0.31230327 0.32113189 0.71896696 0.4101361 -0.06476899 0.028751798
-0.018408418 0.08362214 0.04971437 0.11824444 -0.041034713 -0.058303148 -0.020620987 0.10073264
0.09965317 -0.06432268 0.11720145 0.07487394 0.048134834 -0.013988778 0.08852579 0.06946412
0.07644658 0.03668432 -0.026370183 0.063246146 -0.08859962 0.004238531 -0.08772674 0.019797921
0.10409342 -0.114822656 -0.032590494 -0.10962956 -0.09747049 0.071014464 0.002326429 0.014486715
00000000: df1e d3be 4a3a 87bf d179 60bf 9882 a13f
00000010: edfe 953f 9c4a 3e3e f050 04bf 77a9 fabe
00000020: e7ff 2f3f 3a98 cdbf ddcc c93e 4357 16bf
00000030: a84b 583e c5f2 1d3f 5d98 48bf 9c11 dcbe
00000040: 102b 0ebf d0c2 0cbf f760 2bbf d9fd 853f
00000050: 470a 2bbf d9dc 883e 1ec3 683e 8e17 d1bf
00000060: f938 163f 9238 f6be 603b 4ebf 3aae a4be
00000070: cece 0bbd 2794 033f f26a ca3e f7d9 b4bf
00000080: 0ee0 84bd 6a56 b33d 129d a43d acf0 7fbd
00000090: 7ca2 1cbd 9ea3 9cbd 569c ec3d 4853 60bd
000000a0: 0058 793d 2451 12bd 7e2b c83d 381a d33d
000000b0: 8a11 c53d 286d 983c 50c9 473d 5891 c03c
000000c0: 087b dabc d857 57bd a0c0 eb3b 02f3 9cbd
000000d0: 4411 b8bd b2cb aebd 4c60 6e3d d0ae 1fbc
000000e0: 248c e63d fc9e 973d c48b 593d ac7e 19bd
000000f0: 02fd ccbd 9087 eb3d 8037 203b 86b2 e0bd
00000100: 90ee 423f 6d5c f53e 47fc aa3e 3e4d f5bf
00000110: 7207 f2be d1cc 96be fc72 0a3f 24b9 2e3f
00000120: 00eb 83bd 8b20 883f 9e5f c4be 8a0f 943e
00000130: aa2b f0be 4947 9abe 8205 893f f186 42be
00000140: dab1 f73d 3b8b fa3d b2c3 cd3f 333d 17bf
00000150: 6a64 bd3e 7e78 233e 82d3 513d 2daa fa3e
00000160: 8103 9ebf 51be 643f 4fa0 5d3e eaa4 453f
00000170: 49f2 d63e 79ba 39bd 2567 26bf dfb4 703f
00000180: 3a4c b6bd 40ed 54bc b64b f5bd e022 ac3c
00000190: e8b9 86bd f8af 643d da34 a6bd 3c68 80bd
000001a0: 00bc d23b 6073 de3b bc88 b83d 002f acba
000001b0: 9052 3e3d dcc0 a33d 682a abbd 04bf 9e3d
000001c0: 9cd9 56bd c097 6a3c 4826 d63c 6019 c23c
000001d0: 50ce ee3c d45e 3a3d 5480 a8bd d0bb 003d
000001e0: 289a 92bc 68cc 963d c27b 90bd b0f8 213d
000001f0: 548e 5a3d ec03 54bd 6a10 a9bd 5a04 bb3d
00000200: a4d3 e53d f6ae a73d 365a c5bd e46f 3d3d
00000210: 8c63 cdbd a8b3 88bc 7ced d2bd 8896 883d
00000220: 1afb 9c3d 94c6 a33d d48d 6bbd 222b f03d
00000230: 82bb b63d c099 843c 62f1 bdbd 3088 923d
00000240: d0f8 153d 9079 0f3c aa71 fabd ba4e 97bd
00000250: 903e 73bc ee13 eabd b4cb b43d 5888 c7bc
00000260: 889d 9abc e8c4 2d3d 70e4 563d 4c92 9ebd
00000270: 98d4 9c3c d449 73bd 069d d8bd 28f2 fc3d
00000280: 5805 fb3c 704e aebd b894 8dbd 0cd7 0f3d
00000290: 5a35 eebd 509d 2fbd c440 a93d 04d3 9bbd
000002a0: f430 d23d 9c2b 283d 7aeb d3bd 38ab 573d
000002b0: 76fe f33d 74dd 4a3d 586c d23d 0062 d3ba
000002c0: 729e c0bd e487 243d a069 033d 78d5 593d
000002d0: 2861 a1bc 04a4 80bd 44bf 133d a445 c0bd
000002e0: f01a d43d 5460 54bd 44ff ffbd da2b 903d
000002f0: 2076 d13b 20f0 23bd 6408 39bd 22f0 a7bd
00000300: 1a36 423f 4fd0 0abb 349b 7c3f c14a 31be
00000310: eab8 a8be f19b 783f 6405 d5be 0e4f 34be
00000320: 45f7 b1bc ebcd 733e df75 843e dc41 18bf
00000330: 9c36 863e 016f 8f3e b67c aa3f 627e 15bf
00000340: ebf0 853e e19c bfbe 8156 bc3d 12d1 933e
00000350: 95a7 babe 1c9b d63e 725d 143f 5f2e 253e
00000360: d895 b53c 3abd 9c3f 37e6 9fbe 666b a43e
00000370: 380e 383f 5cfd d13e 9ba5 84bd e488 eb3c
00000380: 40cd 96bc 1642 ab3d 4ca1 4b3d 242a f23d
00000390: 0414 28bd 48cf 6ebd 58ed a8bc ea4c ce3d
000003a0: f616 cc3d 9cbb 83bd 5007 f03d 8257 993d
000003b0: 0829 453d 3031 65bc 024d b53d 3443 8e3d
000003c0: 0690 9c3d 4c42 163d 4806 d8bc 3287 813d
000003d0: b873 b5bd 60e3 8a3b 14aa b3bd 402f a23c
000003e0: ee2e d53d 2428 ebbd 9c7d 05bd 7685 e0bd
000003f0: 9c9e c7bd 0870 913d 0077 183b b059 6d3c

tgnn._base_tgcn.linear_h.bias f4 [32]
0.3675053 0.24662824 -0.089107886 -0.13988814 0.37541896 0.6597095 0.19187388 -0.10619929
0.22543743 0.7112858 0.2857594 0.31863824 0.25234708 0.2724711 -0.053697117 -0.12629332
-0.08333522 -0.027405486 0.1583364 0.55132115 0.5744047 -0.32872736 0.2926982 0.25906202
0.18522234 0.7331002 0.74121046 0.50118345 0.37661117 0.25770813 -0.0034676546 0.43376195
00000000: a829 bc3e 1d8c 7c3e 327e b6bd d63e 0fbe
00000010: ea36 c03e b9e2 283f 967a 443e 037f d9bd
00000020: 12d9 663e d416 363f 0e4f 923e 8d24 a33e
00000030: a333 813e 5581 8b3e 82f1 5bbd 0953 01be
00000040: a8ab aabd 7881 e0bc f022 223e 6223 0d3f
00000050: 300c 133f f44e a8be 8adc 953e c7a3 843e
00000060: edaa 3d3e 74ac 3b3f f8bf 3d3f 8f4d 003f
00000070: 2ed3 c03e 52f2 833e 9741 63bb 0c16 de3e

linear.weight f4 [16, 32]
0.27288398 -0.53434527 -0.11142372 1.3159018 0.5238912 -0.6828108 0.62671834 -0.051787853
0.5857105 -0.9814046 0.18218085 0.35348806 0.7481501 -0.49617916 0.02540472 0.091960385
0.01706636 -0.11412977 0.6871054 -0.6420895 -0.9359532 -1.6157626 0.63250077 0.54782414
-0.37461323 -1.3985215 -0.78973645 -0.7324292 -0.8649741 0.1385324 0.08048946 0.34337676
0.25182682 -0.6400706 0.04278122 1.1336266 0.55704284 -0.6780342 0.6423941 -0.043036036
0.7254389 -0.97663057 0.37995693 0.33421475 0.5872883 -0.57781535 -0.14197317 0.117471136
0.036463365 -0.05523041 0.65524215 -0.7135173 -0.99550074 -1.698631 0.49268597 0.75956076
-0.24973692 -1.3945347 -0.7886584 -0.7268801 -1.0170611 0.2033661 0.1312343 0.54936725
0.5527879 -0.6820743 -0.11556661 0.9695679 0.5002017 -0.61566424 0.85765356 -0.10496654
0.49436143 -0.992661 0.2489278 0.5275554 0.57650214 -0.71612275 0.008555488 0.05849137
-0.13937864 -0.14554152 0.40401512 -0.83458006 -0.98292613 -1.7971655 0.66841805 0.6721526
-0.6192245 -1.3134054 -0.8241167 -0.8334828 -0.90087414 0.46738446 0.001525232 0.5018722
0.5179063 -0.81582147 0.007895321 0.7959814 0.6657428 -0.53615344 0.6093687 0.043840613
0.50701 -1.0197297 0.4614295 0.43749982 0.6038011 -0.90364414 0.01831739 -0.1404911
0.17592205 0.12355836 0.48965475 -0.9212084 -0.9438883 -1.8638015 0.77267617 0.7975333
-0.5338229 -1.2744961 -0.8833941 -0.80290514 -1.0417501 0.25600493 -0.04456652 0.7918174
0.51498663 -0.88822633 -0.057647467 0.48421466 0.6429554 -0.70721745 0.8181194 0.08735913
0.7199919 -0.9310535 0.6172057 0.5538208 0.60961986 -0.8511409 -0.02308166 -0.09487621
0.17476274 0.10485466 0.51305526 -1.007863 -1.0382833 -1.907573 0.50120085 0.7849076
-0.5742227 -1.280349 -0.80443895 -0.71964926 -1.2085063 0.2765853 0.0066551045 0.9376312
0.76257217 -0.9881861 0.16676386 0.3039055 0.6805281 -0.9232486 0.8799191 -0.03732955
0.46274203 -0.88262016 0.40975353 0.60974103 0.83521426 -1.0351492 -0.034789603 0.109137855
-0.09364671 -0.13452554 0.37952366 -1.0235561 -1.1396059 -1.9328542 0.7886905 0.54873824
-0.5480251 -1.2080884 -0.6827161 -0.6602804 -1.439593 0.59774566 0.07012463 0.93462807
0.5313864 -0.98466253 0.12310888 0.09615779 0.75689983 -0.7694631 0.8582624 0.04947257
0.68329954 -0.8136337 0.51918477 0.6866101 0.7353848 -1.1762613 -0.11047336 -0.041528
-0.10396226 0.08113755 0.51113033 -1.1918525 -0.95972383 -1.9877509 0.5403621 0.56572276
-0.9101177 -1.0788722 -0.8358189 -0.756885 -1.4242829 0.51861167 0.03750951 1.2124157
0.75851905 -1.1846144 -0.025357336 -0.13838828 0.69080186 -0.90200603 0.9725397 -0.061065324
0.6381666 -0.8312856 0.7610868 0.580879 0.6658822 -1.3244058 0.027038308 -0.089699514
-0.01727216 -0.021731004 0.427833 -1.2359151 -1.0061255 -1.9494962 0.7485598 0.7550564
-0.8213257 -1.0284429 -0.65041494 -0.6043559 -1.4914955 0.42942566 0.021410936 1.0607747
00000000: 73b7 8b3e daca 08bf 1f32 e4bd 786f a83f
00000010: bc1d 063f b0cc 2ebf 9d70 203f 801f 54bd
00000020: 20f1 153f 553d 7bbf 9e8d 3a3e 63fc b43e
00000030: c486 3f3f 320b febe 8f1d d03c ba55 bc3d
00000040: c0ce 8b3c debc e9bd 24e6 2f3f fa5f 24bf
00000050: a19a 6fbf 4fd1 cebf 92eb 213f 343e 0c3f
00000060: 4ecd bfbe c102 b3bf 2b2c 4abf 7b80 3bbf
00000070: f16e 5dbf 70db 0d3e a8d7 a43d 14cf af3e
00000080: 72ef 803e abdb 23bf 5c3b 2f3d ad1a 913f
00000090: 5c9a 0e3f a693 2dbf f173 243f 8e46 30bd
000000a0: 5db6 393f 7604 7abf b789 c23e 321e ab3e
000000b0: 8758 163f b5eb 13bf 6a61 11be b594 f03d
000000c0: 9c5a 153d 4839 62bd f3bd 273f 12a9 36bf
000000d0: 23d9 7ebf be6c d9bf 5641 fc3e 9372 423f
000000e0: 09bb 7fbe 1d80 b2bf 84e5 49bf d014 3abf
000000f0: 0f2f 82bf 343f 503e 4962 063e 55a3 0c3f
00000100: 8283 0d3f 6c9c 2ebf 30ae ecbd 9a35 783f
00000110: 380d 003f 2c9c 1dbf 2f8f 5b3f b3f8 d6bd
00000120: f11c fd3e 081f 7ebf eee6 7e3e df0d 073f
00000130: a595 133f d253 37bf 512c 0c3c a694 6f3d
00000140: 46b9 0ebe d608 15be 12db ce3e 0aa7 55bf
00000150: 0ca1 7bbf 8509 e6bf 721d 2b3f 3112 2c3f
00000160: 7f85 1ebf ab1d a8bf 50f9 52bf 215f 55bf
00000170: b09f 66bf 044d ef3e 4bea c73a b27a 003f
00000180: 8295 043f add9 50bf 605b 013c 70c5 4b3f
00000190: 1f6e 2a3f 5a41 09bf 96ff 1b3f 3792 333d
000001a0: 68cb 013f 8186 82bf 7d40 ec3e faff df3e
000001b0: b592 1a3f 3955 67bf 5a0e 963c e6dc 0fbe
000001c0: e924 343e 2a0c fd3d 07b4 fa3e 50d4 6bbf
000001d0: aaa2 71bf 0c91 eebf 1bce 453f 242b 4c3f
000001e0: 9ea8 08bf b022 a3bf 1e26 62bf 318b 4dbf
000001f0: 1158 85bf 1413 833e 628b 36bd 8cb4 4a3f
00000200: 2ad6 033f cd62 63bf c01f 6cbd fcea f73e
00000210: ba98 243f 340c 35bf 4670 513f 58e9 b23d
00000220: 6451 383f 8659 6ebf 3101 1e3f 33c7 0d3f
00000230: 0c10 1c3f 5fe4 59bf c015 bdbc 754e c2bd
00000240: 01f5 323e 0abe d63d 9757 033f a801 81bf
00000250: 78e6 84bf 5a2b f4bf b34e 003f b4ef 483f
00000260: 4200 13bf 7ae2 a3bf b6ef 4dbf ef3a 38bf
00000270: 56b0 9abf 979c 8d3e 1013 da3b 9908 703f
00000280: ee37 433f c4f9 7cbf 25c4 2a3e 8099 9b3e
00000290: 1737 2e3f 055a 6cbf 6142 613f dfe6 18bd
000002a0: 86ec ec3e 65f3 61bf 37cb d13e fd17 1c3f
000002b0: 9ad0 553f c57f 84bf 8b7f 0ebd ab83 df3d
000002c0: d9c9 bfbd 10c1 09be ed50 c23e e303 83bf
000002d0: 9bde 91bf c467 f7bf 9fe7 493f 1c7a 0c3f
000002e0: 5f4b 0cbf a4a2 9abf 7bc6 2ebf 2308 29bf
000002f0: 9544 b8bf dc05 193f 819d 8f3d c943 6f3f
00000300: f008 083f d812 7cbf 8220 fc3d 60ee c43d
00000310: 30c4 413f 89fb 44bf 16b7 5b3f c0a3 4a3d
00000320: b8ec 2e3f 4c4a 50bf 4be9 043f aec5 2f3f
00000330: 2e42 3c3f bb8f 96bf db3f e2bd 4419 2abd
00000340: 2aea d4bd 722b a63d 70d9 023f 9f8e 98bf
00000350: 76b0 75bf 9f6e febf 2c55 0a3f 35d3 103f
00000360: 79fd 68bf 7c18 8abf 3af8 55bf 37c3 41bf
00000370: e74e b6bf bcc3 043f 92a3 193d 7030 9b3f
00000380: 4e2e 423f 72a1 97bf 30ba cfbc a8b5 0dbe
00000390: 64d8 303f dee9 66bf 5df8 783f a21f 7abd
000003a0: e35e 233f 22cf 54bf 96d6 423f 7cb4 143f
000003b0: 4177 2a3f 2186 a9bf 717f dd3c 61b4 b7bd
000003c0: 587e 8dbc 3805 b2bc ed0c db3e 7732 9ebf
000003d0: b8c8 80bf 1789 f9bf 9da1 3f3f 604b 413f
000003e0: 6742 52bf 04a4 83bf 9881 26bf 11b7 1abf
000003f0: 53e9 bebf aedd db3e fd65 af3c 77c7 873f

linear.bias f4 [16]
0.42242268 0.2674028 0.25199834 0.20670727 -0.00856954 -0.040473573 -0.039824862 -0.106788404
-0.23159884 -0.22598623 -0.33004895 -0.29678908 -0.3053288 -0.32473865 -0.24423695 -0.29166883
00000000: c947 d83e 05e9 883e ed05 813e 12ab 533e
00000010: 4267 0cbc 9ec7 25bd 651f 23bd e1b3 dabd
00000020: 3f28 6dbe ef68 67be 2dfc a8be bdf4 97be
00000030: 0e54 9cbe 2544 a6be 4019 7abe 9e55 95be

linear2.weight f4 [6, 21]
0.67908776 0.6821112 0.042872027 -0.21878076 -0.32241562 0.42294142 -0.55631346 0.934343
0.08086054 0.38324347 -0.7779392 -0.3226917 0.023516327 -0.1282966 0.38044217 -0.49920744
-0.26355436 0.47720948 0.0036953655 -0.29796824 -0.046441086 -0.03214145 0.303516 0.07944214
0.06987826 -0.6288973 0.52344716 0.73499894 0.28287178 -0.13702594 0.21404311 0.60596955
-0.040725596 -0.1923377 0.19110714 -0.1484179 -0.3332487 -0.000897584 -0.74497575 -0.053310115
0.07233188 0.29566023 0.4057729 0.04916543 -0.055713233 -0.110493414 -0.32418367 0.057907224
0.28297934 0.63304824 0.14612497 -0.4398912 -0.14610884 -0.092406236 0.12756069 -0.42880896
0.7075538 -0.2676782 -0.13041267 -0.2585665 -0.18839014 -0.38177523 -0.21281533 -0.4637297
-0.27409992 0.0076427925 -0.045926385 0.09629487 -0.27838174 0.16824527 -1.1599787 0.29675695
0.38397652 0.1559952 0.54196435 0.40853485 -0.40916845 -0.21402356 0.9162228 0.49631998
0.013991085 -0.1317918 0.30548263 0.27191126 0.0072880024 -0.24770495 -0.1857176 0.53386754
0.8084251 -0.36140677 -0.28987995 0.3078538 0.06816407 -0.5800003 -0.2150381 -0.56705755
-0.012113455 0.1618079 0.5197879 -0.22864905 -0.32008204 0.39503986 0.38682452 0.20263924
0.030092627 -0.18824083 -0.34698668 -0.5611171 0.015721869 0.63729465 -0.084787235 0.030813854
-0.8237064 0.37970224 0.12679902 0.15558451 0.15103027 0.58182913 -0.12583302 -0.16191684
0.5167757 0.3713645 0.27688357 -0.17803024 0.271761 -0.028733982
00000000: b2d8 2d3f d79e 2e3f 949a 2f3d 1008 60be
00000010: a913 a5be c78b d83e 8f6a 0ebf 1a31 6f3f
00000020: 369a a53d 7d38 c43e 0627 47bf d937 a5be
00000030: 50a5 c03c 2f60 03be 51c9 c23e 1e98 ffbe
00000040: 99f0 86be cd54 f43e f22d 723b 4b8f 98be
00000050: 0239 3ebd c1a6 03bd 7366 9b3e 90b2 a23d
00000060: 551c 8f3d 6aff 20bf a200 063f e428 3c3f
00000070: 92d4 903e 8750 0cbe 1e2e 5b3e d220 1b3f
00000080: e2cf 26bd 2df4 44be 97b1 433e ddfa 17be
00000090: 939f aabe d84b 6bba bbb6 3ebf b55b 5abd
000000a0: bd22 943d c760 973e 77c1 cf3e b161 493d
000000b0: 8f33 64bd 5f4a e2bd 67fb a5be 2030 6d3d
000000c0: abe2 903e 730f 223f c9a1 153e 6b39 e1be
000000d0: 8e9d 15be 7b3f bdbd 459f 023e d98c dbbe
000000e0: 3f22 353f 1e0d 89be e68a 05be d462 84be
000000f0: 58e9 40be 0b78 c3be 43ec 59be fb6d edbe
00000100: d356 8cbe 6470 fa3b 4e1d 3cbd 3f36 c53d
00000110: 0d88 8ebe 7d48 2c3e 2f7a 94bf 87f0 973e
00000120: 9298 c43e 35bd 1f3e 2dbe 0a3f 7b2b d13e
00000130: 877e d1be fe28 5bbe 948d 6a3f a71d fe3e
00000140: dd3a 653c 6ef4 06be 3868 9c3e f437 8b3e
00000150: 32d0 ee3b 5ea6 7dbe c12c 3ebe 8bab 083f
00000160: f3f4 4e3f 4f0a b9be 256b 94be 039f 9d3e
00000170: 9b99 8b3d e67a 14bf f332 5cbe af2a 11bf
00000180: 8377 46bc f8b0 253e d210 053f fa22 6abe
00000190: cbe1 a3be aa42 ca3e dd0d c63e a980 4f3e
000001a0: d084 f63c 34c2 40be 3da8 b1be 5fa5 0fbf
000001b0: 26cb 803c be25 233f eea4 adbd 566d fc3c
000001c0: 6cde 52bf 5568 c23e 9ad7 013e 8c51 1f3e
000001d0: aea7 1a3e c1f2 143f 5fda 00be 87cd 25be
000001e0: 6a4b 043f 7d23 be3e afc3 8d3e 8f4d 36be
000001f0: 4224 8b3e 8763 ebbc

linear2.bias f4 [6]
-0.38139158 0.21581155 -1.6880612 0.2676073 0.65877765 -1.14537
00000000: c245 c3be b4fd 5c3e 6412 d8bf d303 893e
00000010: a7a5 283f 7c9b 92bf
