A3TGCN2_Checkpoints/Epoch_6.pth (torch, 35255 bytes, 17 tensors)

tgnn._attention f4 [16]
1.090299 0.96379644 0.762448 0.115361795 0.5433409 0.011391637 -0.14782245 0.5414131
0.32390243 0.21549372 0.40795407 0.5410018 0.3600317 0.65449417 0.77315944 1.1507972
00000000: eb8e 8b3f 5dbb 763f cb2f 433f ce42 ec3d
00000010: 6418 0b3f fda3 3a3c c55e 17be 0d9a 0a3f
00000020: 8ad6 a53e 63aa 5c3e 5bdf d03e 187f 0a3f
00000030: 1356 b83e ee8c 273f c7ed 453f 534d 933f

tgnn._base_tgcn.conv_z.bias f4 [32]
0.41136578 0.39935735 0.11127886 0.04745162 -0.13610175 -0.29506457 -0.29629493 -0.41777018
0.4706682 0.45522034 -0.46162286 -0.43381315 0.09494109 0.026384959 0.3998491 0.39729664
-0.42702 0.47057873 0.20034249 0.46473217 0.43075755 -0.39738667 -0.44771442 0.3948636
-0.34695554 -0.374239 -0.34265485 0.33946788 0.31500417 -0.28552365 0.2972992 0.41331276
00000000: 899e d23e 9178 cc3e 2ce6 e33d a15c 423d
00000010: 425e 0bbe b412 97be f8b3 97be f9e5 d5be
00000020: 6cfb f03e a412 e93e d559 ecbe c21c debe
00000030: 7970 c23d 4525 d83c 05b9 cc3e 776a cb3e
00000040: 5ea2 dabe b2ef f03e 9526 4d3e 60f1 ed3e
00000050: 418c dc3e 4476 cbbe d33a e5be 902b ca3e
00000060: 28a4 b1be 419c bfbe 7570 afbe bcce ad3e
00000070: 3a48 a13e 2830 92be 9a37 983e bb9d d33e

tgnn._base_tgcn.conv_z.lin.weight f4 [32, 3]
0.020682458 -0.34227306 -1.1659229 0.4020827 -0.4693225 -0.7274255 -0.19511025 0.24573201
-0.41350442 -0.41935772 0.7322175 1.1287115 0.24364763 -0.36991253 0.1405285 -0.2896063
0.503835 1.1144754 -0.48981804 -0.009456127 0.54046375 -0.23688617 0.27225292 0.77245617
0.37161574 -0.48834047 -0.9140294 0.49167264 -0.80134916 -0.8983961 -0.075120255 0.473329
0.63991535 -0.5207487 0.508516 0.57729816 -0.14932542 0.34404248 -0.39190966 -0.5404412
0.20992105 0.83816195 0.46169525 -0.46644944 -0.8049376 0.2031238 -0.2997766 -1.2718651
-0.30342886 0.41604817 0.6329066 0.3228797 -0.64657146 -1.287768 -0.066603415 0.038301658
-0.10966357 0.093192115 -0.4704278 -1.2402914 0.5081199 -0.43195367 -0.6949359 -0.28486693
0.3444545 0.41849488 -0.43470564 0.75980335 1.1052569 0.3225683 -0.26287496 -1.1681741
-0.024489019 0.10717489 0.95675427 -0.08671989 0.10200235 0.93051577 0.2018991 0.19722944
0.39800814 -0.20676085 -0.27611417 -0.3102917 0.32967892 -0.112088114 -0.7256343 0.6014821
0.8445024 0.55214286 0.07209352 -1.1698881 -0.44440895 0.19977354 -0.4820034 -0.9773428
00000000: 426e a93c 6a3e afbe f63c 95bf c9dd cd3e
00000010: 0a4b f0be 8f38 3abf fbca 47be 2ca1 7b3e
00000020: dab6 d3be 0eb6 d6be 9b72 3b3f 9e79 903f
00000030: c47e 793e 2d65 bdbe b4e6 0f3e 4747 94be
00000040: 55fb 003f 21a7 8e3f 6ec9 fabe dfed 1abc
00000050: d55b 0a3f 4a92 72be bc64 8b3e b0bf 453f
00000060: 6b44 be3e c307 fabe d5fd 69bf 84bc fb3e
00000070: 3825 4dbf 49fd 65bf a6d8 99bd 2e58 f23e
00000080: 7ed1 233f c94f 05bf 1b2e 023f d0c9 133f
00000090: c3e8 18be 5626 b03e 62a8 c8be 5b5a 0abf
000000a0: 8bf5 563e c891 563f 5263 ec3e 76d2 eebe
000000b0: 6410 4ebf afff 4f3e 527c 99be 7acc a2bf
000000c0: 075b 9bbe 4404 d53e 2b06 223f 7d50 a53e
000000d0: b585 25bf 95d5 a4bf 5f67 88bd 33e2 1c3d
000000e0: 4b97 e0bd 82db be3d eadb f0be dec1 9ebf
000000f0: 2514 023f 0829 ddbe 52e7 31bf 14da 91be
00000100: 575c b03e f644 d63e bd91 debe 7982 423f
00000110: 0f79 8d3f ac27 a53e 8c97 86be bb86 95bf
00000120: 329d c8bc 827e db3d d9ed 743f 339a b1bd
00000130: 9ce6 d03d 4836 6e3f a3be 4e3e 84f6 493e
00000140: b9c7 cb3e 1eb9 53be d65e 8dbe 8ede 9ebe
00000150: adcb a83e 748e e5bd 2bc3 39bf bbfa 193f
00000160: 4f31 583f 3c59 0d3f c4a5 933d e5be 95bf
00000170: 9289 e3be 6f91 4c3e 26c9 f6be 2333 7abf

tgnn._base_tgcn.linear_z.weight f4 [32, 64]
-0.5898837 -0.49526876 0.11629003 0.9269425 -0.18737747 0.9064553 0.15198322 0.19347575
-0.5713818 -0.9178574 0.5813473 0.4319541 0.012840508 0.10854883 -0.56625456 -0.6054912
0.5233262 -0.97217786 -0.0690586 -0.9841298 -0.35391936 0.40964526 1.0253906 -0.30630645
0.28442857 0.17807938 0.11392898 -0.25728676 -0.21939166 0.31608602 -0.66469043 -0.7727886
0.020246342 0.05585386 0.04477328 0.035287514 0.023139253 -0.022408113 0.11468598 -0.018079445
-0.054737613 0.07708734 -0.046232447 0.11530076 0.11062801 -0.083804354 -0.10268128 -0.040863156
0.08063172 -0.10281703 0.06785013 -0.12408477 -0.023813754 -0.032880887 0.013255671 0.10097024
-0.08791071 0.0020627677 0.006105587 -0.05243057 0.008615732 0.09010275 -0.07649019 0.07910547
-0.3345954 -0.47738367 -0.28406772 -0.25594118 0.42411885 0.40730748 0.42463312 0.5183084
-0.3911866 -0.48417228 0.3854255 0.58180934 -0.4079903 -0.14153138 -0.49764445 -0.3453357
0.32363036 -0.55915916 -0.31008944 -0.46902832 -0.41051087 0.5021546 0.43351394 -0.3433257
0.30774033 0.49245304 0.4239612 -0.26886106 -0.27003798 0.20713176 -0.4239974 -0.4192462
0.093658105 0.05391912 -0.07390167 -0.069662586 0.027618676 0.035378426 0.06620745 -0.09150325
0.12043749 -0.024570048 0.043849334 -0.05357112 0.047658175 0.10675146 -0.089991465 0.011300921
0.015317336 -0.018027395 -0.034281567 0.02419296 0.02312699 -0.051177472 0.044286117 0.104240134
0.030525789 -0.06379549 -0.018762544 -0.032129034 0.12478389 -0.064913705 0.07503353 -0.12432723
0.04489264 -0.118017495 -0.013276979 -0.09453888 -0.10209602 0.022381723 0.093163416 0.09084082
-0.053114906 -0.036311343 -0.020940498 -0.0033688247 -0.081808746 -0.0043317676 0.07468517 0.10478647
0.09609833 -0.060765564 0.073355466 0.06644446 0.107522964 -0.032896265 -0.09538354 0.014442787
0.06507723 -0.028276697 0.009666905 -0.017961666 -0.10631283 0.036880836 0.031946033 0.002603352
-0.103888705 0.05001934 0.004877478 -0.11019075 -0.10833873 0.013715833 0.014794603 0.010000929
0.063540414 -0.0005918145 0.11912532 -0.03559117 -0.070905566 -0.087597415 -0.061122417 0.120372415
0.062828586 -0.04591556 -0.08431047 -0.008374155 0.08703378 0.12108922 -0.113912866 -0.058497608
-0.103632584 -0.023029372 -0.017973796 0.11268407 0.12016699 0.11531803 -0.04985313 -0.054382443
-0.38595355 -0.36462507 -0.23025018 -0.3083516 0.14415792 0.22573464 0.19595428 0.19477388
-0.3395924 -0.35884404 0.3699501 0.25057495 -0.012749904 -0.24138325 -0.23362455 -0.30926046
0.23924771 -0.24753973 -0.32046515 -0.24879527 -0.3941379 0.38962945 0.5196175 -0.109223105
0.23249565 0.17498969 0.22292498 -0.40692794 -0.12388798 0.37305316 -0.8124655 -0.41136825
0.054764062 -0.0863833 -0.088368 0.05049646 -0.04610756 0.047094464 0.096982315 -0.04505831
-0.018742532 -0.09812556 -0.096838206 0.016707003 0.024006382 -0.09953986 -0.10314228 0.06481597
-0.004865214 0.10605247 0.10647841 0.038697034 -0.015579879 0.04774873 0.08730343 0.11532177
0.09415296 -0.10505602 -0.06537247 -0.11926623 -0.10969284 0.013711423 0.11988363 0.033814043
00000000: 9e02 17bf de93 fdbe 7829 ee3d 1b4c 6d3f
00000010: e1df 3fbe 740d 683f 7da1 1b3e 821e 463e
00000020: 1446 12bf b4f8 6abf 2dd3 143f 1629 dd3e
00000030: fe60 523c d94e de3d 0ff6 10bf 7901 1bbf
00000040: b5f8 053f a6e0 78bf 986e 8dbd eeef 7bbf
00000050: eb34 b5be 06bd d13e 0040 833f 33d4 9cbe
00000060: 9fa0 913e 715a 363e 9953 e93d 17bb 83be
00000070: 35a8 60be 07d6 a13e 2729 2abf 79d5 45bf
00000080: a8db a53c 04c7 643d 3064 373d a489 103d
00000090: 888e bd3c 3891 b7bc 7ce0 ea3d 581b 94bc
000000a0: 8c34 60bd f8df 9d3d 3c5e 3dbd ce22 ec3d
000000b0: f090 e23d 9ea1 abbd 904a d2bd 2060 27bd
000000c0: 3e22 a53d bc91 d2bd 02f5 8a3d 2820 febd
000000d0: 1015 c3bc 1cae 06bd 502e 593c 7cc9 ce3d
000000e0: 880a b4bd 802f 073b 6011 c83b 70c1 56bd
000000f0: 0029 0d3c ca87 b83d e4a6 9cbd 0c02 a23d
00000100: 1750 abbe a26b f4be 5371 91be b90a 83be
00000110: 1b26 d93e 9b8a d03e 8369 d93e dcaf 043f
00000120: 9c49 c8be 6ee5 f7be 7e56 c53e 75f1 143f
00000130: 1be4 d0be 9aed 10be 41cb febe d7cf b0be
00000140: e1b2 a53e 0e25 0fbf 0bc4 9ebe 7b24 f0be
00000150: 7b2e d2be 348d 003f 8af5 dd3e 63c8 afbe
00000160: 2490 9d3e ce22 fc3e 7111 d93e 28a8 89be
00000170: 6b42 8abe 591a 543e 3016 d9be 70a7 d6be
00000180: d2cf bf3d 4cda 5c3d c259 97bd 42ab 8ebd
00000190: 9040 e23c f8e8 103d c697 873d 0e66 bbbd
000001a0: eea7 f63d 2047 c9bc 5c9b 333d 646d 5bbd
000001b0: 3835 433d 82a0 da3d 724d b8bd 8027 393c
000001c0: 90f5 7a3c 30ae 93bc d46a 0cbd 5030 c63c
000001d0: d074 bd3c 789f 51bd 5c65 353d da7b d53d
000001e0: 3811 fa3c 36a7 82bd e8b3 99bc bc99 03bd
000001f0: b28e ff3d 7af1 84bd 2eab 993d 469f febd
00000200: 58e1 373d 28b3 f1bd b087 59bc 9a9d c1bd
00000210: b817 d1bd e059 b73c 76cc be3d c00a ba3d
00000220: 048f 59bd 34bb 14bd 688b abbc 80c7 5cbb
00000230: 588b a7bd 80f1 8dbb 8af4 983d 4a9a d63d
00000240: 34cf c43d 50e5 78bd 643b 963d 0814 883d
00000250: 0035 dc3d 3cbe 06bd 7258 c3bd 70a1 6c3c
00000260: 3647 853d 88a4 e7bc f061 1e3c 5824 93bc
00000270: 8aba d9bd 5c10 173d d8d9 023d 009d 2a3b
00000280: 9ac3 d4bd 14e1 4c3d 40d3 9f3b b0ab e1bd
00000290: b2e0 ddbd 60b8 603c 1065 723c f0da 233c
000002a0: 7a21 823d 0024 1bba faf7 f33d 0cc8 11bd
000002b0: f036 91bd 4666 b3bd 805b 7abd d085 f63d
000002c0: 46ac 803d f411 3cbd f8aa acbd c033 09bc
000002d0: c43e b23d a0fd f73d 264b e9bd 309b 6fbd
000002e0: 523d d4bd 18a8 bcbc c83d 93bc e8c6 e63d
000002f0: 1c1a f63d dc2b ec3d cc32 4cbd 20c0 5ebd
00000300: b49b c5be 23b0 babe b4c6 6bbe 43e0 9dbe
00000310: 229e 133e fb26 673e 3da8 483e ce72 473e
00000320: 0edf adbe 68ba b7be 196a bd3e 5c4b 803e
00000330: f9e4 50bc 2c2d 77be 463b 6fbe 6357 9ebe
00000340: 5afd 743e 0e7b 7dbe 0214 a4be 30c4 7ebe
00000350: 71cc c9be 837d c73e a705 053f 5db0 dfbd
00000360: 5713 6e3e 7f30 333e 7246 643e dc58 d0be
00000370: fbb8 fdbd d300 bf3e bdfd 4fbf dc9e d2be
00000380: 4850 603d bae9 b0bd 48fa b4bd 60d5 4e3d
00000390: 48db 3cbd 20e6 403d aa9e c63d 108f 38bd
000003a0: f089 99bc 0ef6 c8bd 1c53 c6bd 20dd 883c
000003b0: 08a9 c43c 8edb cbbd 423c d3bd 3cbe 843d
000003c0: 606c 9fbb 0a32 d93d 5a11 da3d c880 1e3d
000003d0: c042 7fbc 2c94 433d 24cc b23d d22d ec3d
000003e0: 44d3 c03d 9c27 d7bd 00e2 85bd da41 f4bd
000003f0: a4a6 e0bd e0a5 603c 8c85 f53d 9880 0a3d

tgnn._base_tgcn.linear_z.bias f4 [32]
-0.27070728 -0.3954266 0.11818309 -0.27016035 -0.32663366 -0.326251 -0.24246366 0.015448966
-0.3370128 -0.24917464 -0.3029111 -0.2868174 -0.37451798 -0.4611652 -0.005861491 0.06856956
0.060834035 -0.110993326 -0.30505627 -0.40491974 -0.25440624 0.3281758 -0.20656186 -0.3000459
-0.29334453 -0.41435224 -0.18230085 -0.3529672 -0.271073 -0.30098084 0.11974424 -0.29900387
00000000: 259a 8abe 5b75 cabe fa09 f23d 7552 8abe
00000010: 873c a7be 5f0a a7be 6548 78be a91d 7d3c
00000020: f18c acbe a327 7fbe 2a17 9bbe bbd9 92be
00000030: d2c0 bfbe d81d ecbe c011 c0bb 336e 8c3d
00000040: 1c2d 793d 7850 e3bd 5630 9cbe a451 cfbe
00000050: 8941 82be a906 a83e f484 53be 9e9f 99be
00000060: 4131 96be fa25 d4be 13ad 3abe 1eb8 b4be
00000070: 15ca 8abe 291a 9abe 783c f53d 0917 99be

tgnn._base_tgcn.conv_r.bias f4 [32]
0.0 0.0 0.0 0.0 0.0 0.0 0.0 0.0
0.0 0.0 0.0 0.0 0.0 0.0 0.0 0.0
0.0 0.0 0.0 0.0 0.0 0.0 0.0 0.0
0.0 0.0 0.0 0.0 0.0 0.0 0.0 0.0
00000000: 0000 0000 0000 0000 0000 0000 0000 0000
00000010: 0000 0000 0000 0000 0000 0000 0000 0000
00000020: 0000 0000 0000 0000 0000 0000 0000 0000
00000030: 0000 0000 0000 0000 0000 0000 0000 0000
00000040: 0000 0000 0000 0000 0000 0000 0000 0000
00000050: 0000 0000 0000 0000 0000 0000 0000 0000
00000060: 0000 0000 0000 0000 0000 0000 0000 0000
00000070: 0000 0000 0000 0000 0000 0000 0000 0000

tgnn._base_tgcn.conv_r.lin.weight f4 [32, 3]
0.16965911 -0.037553072 0.058 0.30765042 -0.29204863 -0.020177722 -0.14040816 -0.28139192
0.093972 0.011039704 0.09644386 0.32871267 -0.28202555 -0.038353562 -0.11378935 0.2503403
-0.06998673 -0.36193478 0.021415055 0.13195279 0.16137215 -0.1009852 0.14807871 0.06853992
0.20136961 0.24095705 -0.18302193 -0.28173542 0.09143564 0.23300639 0.14357045 -0.18475646
-0.3047736 0.09166607 0.2801251 -0.18565165 -0.23761752 0.31345937 -0.3765382 0.3082089
-0.008306354 0.12245819 -0.14770049 -0.2538972 0.39423618 0.1664029 -0.081643015 -0.24177888
0.30107394 -0.17729856 0.24553058 0.16594991 -0.27114642 0.17000952 -0.013642997 0.2751501
-0.17664571 -0.37121272 -0.39349604 -0.2380074 0.28203174 -0.24862173 -0.09803039 -0.008543164
-0.0024053752 -0.07843304 -0.24303538 -0.07063952 -0.31078428 -0.35467574 0.2420921 -0.21242094
0.2418544 -0.19488631 0.18474093 -0.07327154 -0.15576243 0.18501553 0.15467903 0.09230062
0.0032456815 -0.064685404 -0.40229955 -0.07319707 0.3462328 0.29382756 0.09371677 0.19856241
-0.05077201 -0.25669378 -0.17840756 0.17265919 0.40160397 0.14477381 -0.06058258 -0.35659665
00000000: 1ebb 2d3e 40d1 19bd 6891 6d3d 5b84 9d3e
00000010: 6687 95be c04b a5bc 28c7 0fbe 9a12 90be
00000020: 6474 c03d e0df 343c 5c84 c53d 074d a83e
00000030: a765 90be a018 1dbd 640a e9bd 9b2c 803e
00000040: 3455 8fbd 844f b9be a06e af3c a21e 073e
00000050: be3e 253e 54d1 cebd f2a1 173e a85e 8c3d
00000060: d633 4e3e 72bd 763e 1a6a 3bbe a03f 90be
00000070: 9c42 bb3d 3a99 6e3e 2204 133e cc30 3dbe
00000080: 490b 9cbe 6cbb bb3d 8f6c 8f3e 771b 3ebe
00000090: 0252 73be bf7d a03e 9dc9 c0be 8fcd 9d3e
000000a0: 6017 08bc 5ccb fa3d cc3e 17be d0fe 81be
000000b0: 53d9 c93e 8665 2a3e 7434 a7bd e294 77be
000000c0: 5d26 9a3e c18d 35be 5e6c 7b3e c6ee 293e
000000d0: b4d3 8abe fa16 2e3e e086 5fbc 79e0 8c3e
000000e0: 9de2 34be 980f bebe 5078 c9be 36b8 73be
000000f0: 7766 903e b296 7ebe 28c4 c8bd a0f8 0bbc
00000100: 80a3 1dbb 80a1 a0bd 44de 78be 74ab 90bd
00000110: 1e1f 9fbe 0f98 b5be fee6 773e e084 59be
00000120: aea8 773e 4790 47be ba2c 3d3e 640f 96bd
00000130: 3080 1fbe b674 3d3e 2e64 1e3e 1c08 bd3d
00000140: 80b5 543b c879 84bd 35fa cdbe 58e8 95bd
00000150: 6d45 b13e 9170 963e 94ee bf3d f253 4b3e
00000160: 50f6 4fbd 5e6d 83be 79b0 36be 92cd 303e
00000170: 099f cd3e 963f 143e 7025 78bd d693 b6be

tgnn._base_tgcn.linear_r.weight f4 [32, 64]
-0.0737533 0.028673455 -0.032104403 -0.12430988 0.023893312 0.048621297 0.09931053 -0.055989906
0.08454122 -0.109967485 0.027058244 0.020878121 -0.091980115 0.060285464 0.11037688 -0.06267205
-0.042791396 0.018074214 0.0893611 -0.06952338 -0.04769768 0.044731513 0.040796995 0.05926755
0.09976938 0.11329433 0.08910236 0.057434827 0.07203089 0.07495734 -0.10994126 0.004388988
-0.10482623 0.022965789 0.053581893 -0.05908522 0.10908194 0.0551638 0.05457759 0.010787532
-0.05875577 0.024723545 0.06955607 0.097279936 0.102921784 0.068602756 0.078430876 -0.06932917
-0.01930362 -0.03687437 0.08161858 -0.08983253 0.10153371 -0.01866734 0.1183773 0.039708212
0.09733391 -0.034043327 0.10284725 -0.080348924 0.015347764 0.0022714138 0.12186824 0.03173916
-0.040606976 -0.07542311 0.09682092 -0.052967355 -0.07345587 -0.12261371 -0.011134699 -0.099027485
-0.022750065 -0.06654717 0.12324947 -0.076426074 0.08456457 0.1138739 0.07961732 -0.016986832
-0.025938496 0.0994955 0.07756573 -0.03612061 0.12461914 -0.09103081 0.079083994 -0.0047383457
0.04116547 0.111663654 0.11636995 -0.023028597 -0.08192125 0.09238055 0.094509155 0.089937136
0.07603483 0.047504812 0.08732188 -0.10251002 0.03876269 0.12215617 0.081613794 0.033509687
-0.11827195 0.11838812 -0.07183464 -0.09912117 0.09434812 -0.052059487 0.04769762 0.03788577
0.010921791 -0.045271084 -0.10343398 0.12095538 -0.016146734 0.06182453 -0.024830401 0.11602168
0.103963226 -0.07811932 -0.12052645 0.034886345 -0.009425536 -0.02181767 -0.12315288 -0.09520942
0.054510206 -0.013940781 0.095344365 0.07157417 0.046865344 0.020214915 -0.020744637 0.0204359
0.09030457 -0.037425146 0.06276348 0.07593283 0.085754424 -0.003007695 -0.10925077 0.054074943
0.12003927 0.019124791 -0.047037944 0.0062987953 -0.04449065 -0.0047605634 -0.06831531 -0.03906238
0.035863712 -0.020403177 -0.07982069 -0.06808221 0.024407327 -0.08916354 0.097904295 0.08319639
-0.008596018 0.05303788 -0.0790337 0.08667514 -0.06043899 -0.11556941 -0.055516303 0.070264935
-0.03175597 -0.00755772 -0.08008659 0.075812355 -0.123395056 0.035371795 -0.113339216 0.08593795
0.036074966 -0.0587029 0.003116846 -0.026199058 -0.058345765 0.10942617 -0.10953143 -0.007835388
0.11132103 0.027757466 -0.10250929 -0.109727144 0.006608546 0.046119615 -0.04573056 -0.08610521
0.0019403249 0.0358672 -0.10136476 -0.09186567 0.017764926 -0.080696076 -0.028668359 -0.056228444
0.06199874 0.09111193 -0.12174462 0.11964612 0.11698486 -0.11165273 0.079869494 -0.032285094
-0.037735626 0.06451696 0.07672463 -0.016776934 0.122696295 -0.1064823 -0.026864812 -0.060408384
-0.109726876 0.12463212 -0.09144989 -0.08874783 -0.090840906 0.06981388 -0.09892553 0.024035156
0.09114279 0.039981857 -0.029892802 -0.0809309 0.10096422 -0.055679306 -0.025997818 0.0798495
-0.058491245 0.08375488 -0.115570486 0.07122977 0.060371473 0.03087908 0.020154595 -0.0026038438
0.03317128 -0.07926443 -0.0968841 -0.07242809 -0.058182612 0.060762987 -0.09345868 0.022324905
-0.015727803 -0.016988322 0.022311449 -0.02521415 0.075103655 -0.034029573 -0.092093796 0.015399814
00000000: f80b 97bd 98e4 ea3c e87f 03bd 2e96 febd
00000010: e8bb c33c 2027 473d 5263 cb3d ac55 65bd
00000020: f223 ad3d a236 e1bd 40a9 dd3c 9808 ab3c
00000030: 1260 bcbd e4ed 763d 460d e23d 345a 80bd
00000040: 0846 2fbd 6010 943c f402 b73d 4662 8ebd
00000050: a45e 43bd 6438 373d c01a 273d 88c2 723d
00000060: e453 cc3d dc06 e83d 4c7b b63d c840 6b3d
00000070: ee84 933d 3c83 993d e228 e1bd 80d1 8f3b
00000080: 22af d6bd c022 bc3c b078 5b3d 5803 72bd
00000090: 5a66 df3d 70f3 613d c08c 5f3d 30be 303c
000000a0: e4a9 70bd 0889 ca3c 6a73 8e3d b43a c73d
000000b0: a8c8 d23d 9a7f 8c3d 5ea0 a03d 74fc 8dbd
000000c0: a022 9ebc 9409 17bd a427 a73d 1efa b7bd
000000d0: e8f0 cf3d 40ec 98bc cc6f f23d 14a5 223d
000000e0: 0057 c73d 0471 0bbd 94a1 d23d fa8d a4bd
000000f0: 3075 7b3c 00dc 143b 0e96 f93d ec00 023d
00000100: 8053 26bd 6e77 9abd 0c4a c63d 4cf4 58bd
00000110: 0870 96bd e61c fbbd 506e 36bc ecce cabd
00000120: 585e babc e249 88bd 386a fc3d 4685 9cbd
00000130: 3030 ad3d b836 e93d 680e a33d f827 8bbc
00000140: f87c d4bc 4cc4 cb3d c8da 9e3d 34f3 13bd
00000150: 5238 ff3d 5c6e babd caf6 a13d 2044 9bbb
00000160: 209d 283d eaaf e43d 5e53 ee3d 78a6 bcbc
00000170: 54c6 a7bd 0432 bd3d 048e c13d f630 b83d
00000180: 26b8 9b3d 6894 423d d0d5 b23d c6f0 d1bd
00000190: a0c5 1e3d 042d fa3d 2225 a73d 7441 093d
000001a0: 9038 f2bd 7875 f23d 0a1e 93bd 0a00 cbbd
000001b0: 9639 c13d 543c 55bd 945e 433d 1c2e 1b3d
000001c0: 50f1 323c 2c6e 39bd 32d5 d3bd 74b7 f73d
000001d0: 2846 84bc b83b 7d3d 2069 cbbc c69c ed3d
000001e0: acea d43d 06fd 9fbd 92d6 f6bd fce4 0e3d
000001f0: 906d 1abc f8ba b2bc 9437 fcbd 28fd c2bd
00000200: 1846 5f3d e067 64bc e843 c33d 7a95 923d
00000210: e0f5 3f3d c099 a53c a8f0 a9bc 3069 a73c
00000220: 9af1 b83d 1c4b 19bd 248a 803d ac82 9b3d
00000230: 04a0 af3d c01c 45bb debe dfbd b07d 5d3d
00000240: 26d7 f53d 98ab 9c3c dcaa 40bd 2066 ce3b
00000250: d43b 36bd 80fe 9bbb e6e8 8bbd e0ff 1fbd
00000260: d4e5 123d 9024 a7bc 0879 a3bd b06e 8bbd
00000270: e0f1 c73c 609b b6bd 0c82 c83d de62 aa3d
00000280: 50d6 0cbc 403e 593d 6cdc a1bd bc82 b13d
00000290: e08e 77bd a8af ecbd 1065 63bd 10e7 8f3d
000002a0: 8c12 02bd c0a6 f7bb 7004 a4bd 8243 9b3d
000002b0: 8cb6 fcbd 04e2 103d 641e e8bd 3c00 b03d
000002c0: 58c3 133d 7472 70bd 0044 4c3b 689f d6bc
000002d0: f8fb 6ebd d41a e03d 0452 e0bd 0060 00bc
000002e0: 48fc e33d a063 e33c 64f0 d1bd a0b8 e0bd
000002f0: 808c d83b ece7 3c3d f84f 3bbd ee57 b0bd
00000300: 8052 fe3a 7ce9 123d 5498 cfbd 1224 bcbd
00000310: c087 913c fc43 a5bd e8d9 eabc cc4f 66bd
00000320: 64f2 7d3d e498 ba3d 3e55 f9bd 0609 f53d
00000330: c295 ef3d 30aa e4bd 9e92 a33d 603d 04bd
00000340: ac90 1abd 7821 843d ce21 9d3d c86f 89bc
00000350: 3248 fb3d 6413 dabd 9813 dcbc c86e 77bd
00000360: 7cb8 e0bd 203f ff3d 144a bbbd 6cc1 b5bd
00000370: cc0a babd 94fa 8e3d 7899 cabd 60e5 c43c
00000380: 12a9 ba3d 04c4 233d c0e1 f4bc 1abf a5bd
00000390: 54c6 ce3d fc0f 64bd 60f9 d4bc 2288 a33d
000003a0: 8494 6fbd ae87 ab3d 38b0 ecbd eae0 913d
000003b0: 1448 773d 20f6 fc3c 401b a53c 40a5 2abb
000003c0: 9cde 073d 6455 a2bd 2c6b c6bd 2e55 94bd
000003d0: e450 6ebd 9ce2 783d 4467 bfbd b8e2 b63c
000003e0: 98d7 80bc 182b 8bbc 80c6 b63c e88d cebc
000003f0: f2cf 993d 9862 0bbd ac9b bcbd 804f 7c3c

tgnn._base_tgcn.linear_r.bias f4 [32]
0.07399389 -0.10156308 -0.061086252 0.05020684 0.06644811 -0.014549255 0.068296224 0.009360775
-0.0023612827 -0.121732384 -0.11818594 0.10928008 0.05197528 -0.11607598 0.058765724 -0.04471408
0.0374524 0.06750192 0.0333198 -0.01913163 -0.088471755 0.04522881 -0.0526039 -0.10631165
-0.1044216 0.056450054 0.124298066 0.0009716004 0.09883721 0.036037147 0.06460135 0.06896998
00000000: 1c8a 973d 4e00 d0bd 9435 7abd b0a5 4d3d
00000010: f215 883d 0060 6ebc e4de 8b3d f05d 193c
00000020: c0bf 1abb d44e f9bd 780b f2bd 3cce df3d
00000030: 08e4 543d 3eb9 edbd 54b4 703d 1c26 37bd
00000040: b067 193d 723e 8a3d 587a 083d f0b9 9cbc
00000050: ae30 b5bd d841 393d 3077 57bd ecb9 d9bd
00000060: feda d5bd 2c38 673d fc8f fe3d 00b3 7e3a
00000070: 2a6b ca3d b09b 133d b64d 843d 2240 8d3d

tgnn._base_tgcn.conv_h.bias f4 [32]
0.21607882 0.03905373 -0.071336396 -0.053222287 0.063514225 -0.29130366 0.14408448 0.152637
0.2978751 -0.0037018927 -0.1417242 0.085346974 -0.23898292 -0.0033271331 0.10455744 -0.26931414
0.020225732 -0.16698436 0.14133956 -0.071653344 0.06602309 0.3047117 0.038526237 0.032738484
-0.11553762 0.12471369 -0.11025943 0.15041544 0.28229412 0.27470127 -0.12320676 -0.0005660271
00000000: c443 5d3e cef6 1f3d d118 92bd 9dff 59bd
00000010: bf13 823d c125 95be e28a 133e e04c 1c3e
00000020: 1683 983e 749b 72bb 2620 11be 65ca ae3d
00000030: f0b7 74be 080c 5abb 3622 d63d 8be3 89be
00000040: 6fb0 a53c f3fd 2abe 51bb 103e fdbe 92bd
00000050: 1d37 873d 2c03 9c3e b0cd 1d3d ca18 063d
00000060: fd9e ecbd e469 ff3d b2cf e1bd 8106 1a3e
00000070: db88 903e a5a5 8c3e d353 fcbd 7061 14ba

tgnn._base_tgcn.conv_h.lin.weight f4 [32, 3]
0.20974833 -0.6614947 0.38310423 -0.39462823 -0.7067273 0.48514715 -0.3350515 -0.14952753
1.17241 -0.004262924 0.7186546 -0.36351082 0.25942677 0.4323251 -0.7945698 0.33321258
0.44135037 0.13801168 -0.44980568 -0.5734563 0.16563249 -0.41137132 -0.3894613 0.33453187
0.17651789 0.46101046 -0.7341835 -0.038647033 -0.72719586 0.5684998 0.5818944 0.4098905
-0.46538386 -0.4956721 -0.71502703 -0.03547933 -0.08271545 0.67241794 0.2891584 0.6193498
0.67502964 -0.38201496 0.116100475 -0.55158675 0.5818189 -0.25442013 -0.19878359 -0.31288907
-0.5849581 -0.07383676 0.8839396 -0.54216063 -0.5149471 0.3322283 -0.09622235 -0.64439344
0.365027 0.19545093 0.79072356 0.3461634 -0.23080766 -0.67836154 -0.23146592 0.27103975
0.041516237 0.18386054 0.8645069 0.42072555 0.1962536 -0.36795875 -0.6314766 0.7534702
0.29872522 0.47627354 -0.41773075 0.121873505 -0.49332818 0.4253459 -0.3261781 -0.6627125
0.08161564 -0.30265865 -0.25898978 0.43891293 0.057749186 -0.4040705 0.4244732 -0.25109634
0.448571 0.46843565 0.5040453 0.4359036 -0.5825371 -0.112495735 -0.7458784 0.5403376
00000000: 44c8 563e b757 29bf 3d26 c43e b60c cabe
00000010: 15ec 34bf 3565 f83e df8b abbe bf1d 19be
00000020: 8811 963f 00b0 8bbb bff9 373f 171e babe
00000030: 96d3 843e b759 dd3e ed68 4bbf d79a aa3e
00000040: adf8 e13e ef52 0d3e ee4c e6be 08ce 12bf
00000050: 909b 293e 439f d2be 7967 c7be c347 ab3e
00000060: 1bc1 343e 9009 ec3e 73f3 3bbf 5a4c 1ebd
00000070: 8229 3abf 3489 113f 08f7 143f 2bdd d13e
00000080: cb46 eebe bcc8 fdbe 030c 37bf c652 11bd
00000090: b866 a9bd 9523 2c3f 920c 943e b58d 1e3f
000000a0: bece 2c3f 7797 c3be 16c6 ed3d ca34 0dbf
000000b0: 15f2 143f 5b43 82be ed8d 4bbe ff32 a0be
000000c0: d0bf 15bf ba37 97bd de49 623f 0acb 0abf
000000d0: 93d3 03bf d419 aa3e 3910 c5bd f8f6 24bf
000000e0: d2e4 ba3e 4a24 483e dc6c 4a3f 543c b13e
000000f0: d858 6cbe 1aa9 2dbf 6705 6dbe b9c5 8a3e
00000100: ee0c 2a3d f045 3c3e 5350 5d3f 5769 d73e
00000110: b4f6 483e 1765 bcbe 73a8 21bf 6ce3 403f
00000120: 83f2 983e 20da f33e cee0 d5be d198 f93d
00000130: 8395 fcbe f0c6 d93e d100 a7be 87a7 29bf
00000140: 1a26 a73d 13f6 9abe 4f9a 84be 32b9 e03e
00000150: 698a 6c3d 54e2 cebe 8d54 d93e b38f 80be
00000160: 19ab e53e ccd6 ef3e 1d09 013f c22e df3e
00000170: 2721 15bf 2a64 e6bd e3f1 3ebf 9153 0a3f

tgnn._base_tgcn.linear_h.weight f4 [32, 64]
-0.29756585 -0.3207885 -0.38387814 0.5079798 0.5142603 0.35797232 -0.5218603 -0.5631489
0.3374904 -0.36573908 0.49497792 -0.5549264 0.18177655 0.48779488 -0.3439684 -0.2532264
-0.5045133 -0.36016092 -0.45638198 0.5542762 -0.3455869 0.105029054 0.33147648 -0.5398002
0.44068155 -0.19917445 -0.46462697 -0.41444257 -0.079224125 0.15481912 0.38103482 -0.30265763
-0.064880475 0.087567165 0.08037771 -0.062485382 -0.038240895 -0.07648395 0.11553256 -0.054766923
0.06087494 -0.035721913 0.097739205 0.10307735 0.09622486 0.018606737 0.04877597 0.023506805
-0.026669994 -0.05257401 0.0071945935 -0.076635376 -0.08987668 -0.085349455 0.058197305 -0.009746268
0.112571985 0.07403371 0.053111807 -0.03747432 -0.10009195 0.11500466 0.0024447143 -0.10971551
0.57135624 0.21559782 0.16594173 -0.7729326 -0.29137436 -0.118729986 0.14052795 0.17081466
-0.014548986 0.5595062 -0.08063024 0.09959797 -0.32254958 -0.17929676 0.69648504 -0.15744346
0.022699006 0.084954314 0.85773516 -0.26356646 0.093755186 0.11575605 0.09080382 0.1934567
-0.30300117 0.6236076 0.1327014 0.3171522 0.27438894 -0.07202145 -0.27696103 0.56116456
-0.08901258 -0.012996018 -0.11977331 0.021012723 -0.065784276 0.05583188 -0.081155494 -0.06269881
0.0064311028 0.006788656 0.09010455 -0.0013136566 0.046465456 0.079957694 -0.08357698 0.07751277
-0.052453622 0.014318407 0.0261413 0.02369374 0.029151112 0.04550059 -0.08227602 0.031429112
-0.017895773 0.07363206 -0.07054855 0.039543808 0.05335839 -0.051761553 -0.08255084 0.09131689
0.11222008 0.08187668 -0.09636347 0.046249285 -0.10028753 -0.01668723 -0.10299203 0.066693366
0.07665081 0.0799686 -0.057508305 0.11726977 0.08922483 0.016186595 -0.09274556 0.07154882
0.03661424 0.00875701 -0.12228711 -0.07388063 -0.014846459 -0.114295825 0.08827916 -0.024357006
-0.018873945 0.042424113 0.05246395 -0.07742748 0.019144341 -0.05939658 -0.10576825 0.12350875
0.030642197 -0.085110545 -0.069131315 0.035117194 -0.1163127 -0.042874634 0.08264306 -0.076086074
0.10263243 0.041057214 -0.10347648 0.05265352 0.11913769 0.0495276 0.10274571 -0.0016127229
-0.09405221 0.040168658 0.032083154 0.053182095 -0.019699648 -0.062812835 0.036071077 -0.09388283
0.103567004 -0.05184968 -0.1249986 0.07039614 0.0063922554 -0.040023923 -0.045174018 -0.082000986
0.20585349 0.06262411 0.24426897 -0.053782254 -0.03106087 -0.15062863 0.17707972 0.24942295
0.15831363 0.031743035 -0.13521123 -0.06674206 -0.25332883 0.020985996 0.38066962 -0.2767872
0.15286541 -0.13843526 0.095948756 -0.081469335 0.07263323 0.22108503 -0.015901683 0.07597892
-0.08816909 0.23539704 -0.11043946 0.27271488 0.34417292 0.2994253 -0.23466995 -0.05933768
-0.018408418 0.08362214 0.04971437 0.11824444 -0.041034713 -0.058303148 -0.020620987 0.10073264
0.09965317 -0.06432268 0.11720145 0.07487394 0.048134834 -0.013988778 0.08852579 0.06946412
0.07644658 0.03668432 -0.026370183 0.063246146 -0.08859962 0.004238531 -0.08772674 0.019797921
0.10409342 -0.114822656 -0.032590494 -0.10962956 -0.09747049 0.071014464 0.002326429 0.014486715
00000000: 8d5a 98be 643e a4be ad8b c4be f70a 023f
00000010: 90a6 033f 2648 b73e a398 05bf 872a 10bf
00000020: 8bcb ac3e 2742 bbbe bf6d fd3e a80f 0ebf
00000030: a223 3a3e 40c0 f93e a01c b0be e4a6 81be
00000040: c927 01bf 0367 b8be e6aa e9be 0ce5 0d3f
00000050: c4f0 b0be 7919 d73d 49b7 a93e 5930 0abf
00000060: 03a1 e13e 63f4 4bbe 96e3 edbe d131 d4be
00000070: 4240 a2bd e788 1e3e ff16 c33e f1f5 9abe
00000080: 0ee0 84bd 6a56 b33d 129d a43d acf0 7fbd
00000090: 7ca2 1cbd 9ea3 9cbd 569c ec3d 4853 60bd
000000a0: 0058 793d 2451 12bd 7e2b c83d 381a d33d
000000b0: 8a11 c53d 286d 983c 50c9 473d 5891 c03c
000000c0: 087b dabc d857 57bd a0c0 eb3b 02f3 9cbd
000000d0: 4411 b8bd b2cb aebd 4c60 6e3d d0ae 1fbc
000000e0: 248c e63d fc9e 973d c48b 593d ac7e 19bd
000000f0: 02fd ccbd 9087 eb3d 8037 203b 86b2 e0bd
00000100: 6744 123f adc5 5c3e a1ec 293e e9de 45bf
00000110: 052f 95be b528 f3bd 8fe6 0f3e 0aea 2e3e
00000120: df5e 6ebc cc3b 0f3f 7821 a5bd 05fa cb3d
00000130: 3825 a5be 9299 37be d84c 323f dc38 21be
00000140: 44f3 b93c 87fc ad3d 8894 5b3f 2ff2 86be
00000150: b802 c03d 8211 ed3d 5af7 b93d 8319 463e
00000160: f822 9bbe bfa4 1f3f e0e2 073e c661 a23e
00000170: b57c 8c3e fb7f 93bd d6cd 8dbe 7ba8 0f3f
00000180: 3a4c b6bd 40ed 54bc b64b f5bd e022 ac3c
00000190: e8b9 86bd f8af 643d da34 a6bd 3c68 80bd
000001a0: 00bc d23b 6073 de3b bc88 b83d 002f acba
000001b0: 9052 3e3d dcc0 a33d 682a abbd 04bf 9e3d
000001c0: 9cd9 56bd c097 6a3c 4826 d63c 6019 c23c
000001d0: 50ce ee3c d45e 3a3d 5480 a8bd d0bb 003d
000001e0: 289a 92bc 68cc 963d c27b 90bd b0f8 213d
000001f0: 548e 5a3d ec03 54bd 6a10 a9bd 5a04 bb3d
00000200: a4d3 e53d f6ae a73d 365a c5bd e46f 3d3d
00000210: 8c63 cdbd a8b3 88bc 7ced d2bd 8896 883d
00000220: 1afb 9c3d 94c6 a33d d48d 6bbd 222b f03d
00000230: 82bb b63d c099 843c 62f1 bdbd 3088 923d
00000240: d0f8 153d 9079 0f3c aa71 fabd ba4e 97bd
00000250: 903e 73bc ee13 eabd b4cb b43d 5888 c7bc
00000260: 889d 9abc e8c4 2d3d 70e4 563d 4c92 9ebd
00000270: 98d4 9c3c d449 73bd 069d d8bd 28f2 fc3d
00000280: 5805 fb3c 704e aebd b894 8dbd 0cd7 0f3d
00000290: 5a35 eebd 509d 2fbd c440 a93d 04d3 9bbd
000002a0: f430 d23d 9c2b 283d 7aeb d3bd 38ab 573d
000002b0: 76fe f33d 74dd 4a3d 586c d23d 0062 d3ba
000002c0: 729e c0bd e487 243d a069 033d 78d5 593d
000002d0: 2861 a1bc 04a4 80bd 44bf 133d a445 c0bd
000002e0: f01a d43d 5460 54bd 44ff ffbd da2b 903d
000002f0: 2076 d13b 20f0 23bd 6408 39bd 22f0 a7bd
00000300: 42cb 523e 1241 803d a521 7a3e c84a 5cbd
00000310: 5e73 febc 643e 1abe 6354 353e bb68 7f3e
00000320: f81c 223e fc04 023d d074 0abe 10b0 88bd
00000330: 51b4 81be d3ea ab3c 21e7 c23e 0db7 8dbe
00000340: c088 1c3e f9c1 0dbe c880 c43d 65d9 a6bd
00000350: bbc0 943d 1d64 623e 3f44 82bc d69a 9b3d
00000360: ff91 b4bd ec0b 713e 152e e2bd 49a1 8b3e
00000370: 6f37 b03e 464e 993e 524d 70be 110c 73bd
00000380: 40cd 96bc 1642 ab3d 4ca1 4b3d 242a f23d
00000390: 0414 28bd 48cf 6ebd 58ed a8bc ea4c ce3d
000003a0: f616 cc3d 9cbb 83bd 5007 f03d 8257 993d
000003b0: 0829 453d 3031 65bc 024d b53d 3443 8e3d
000003c0: 0690 9c3d 4c42 163d 4806 d8bc 3287 813d
000003d0: b873 b5bd 60e3 8a3b 14aa b3bd 402f a23c
000003e0: ee2e d53d 2428 ebbd 9c7d 05bd 7685 e0bd
000003f0: 9c9e c7bd 0870 913d 0077 183b b059 6d3c

tgnn._base_tgcn.linear_h.bias f4 [32]
0.11200396 0.19821353 -0.089107886 0.07755556 0.13444327 0.33358318 -0.027411204 -0.10619929
0.1206622 0.38026717 0.09985941 0.1080558 0.11856887 0.2704698 -0.025297495 -0.12629332
-0.08333522 -0.027405486 0.08933977 0.28966165 0.30691123 -0.28414005 0.10876148 0.121251665
0.13016228 0.41326565 0.4147795 0.38700467 0.20803165 0.07830302 -0.0034676546 0.14484566
00000000: 5562 e53d 7df8 4a3e 327e b6bd 73d5 9e3d
00000010: 7fab 093e 6acb aa3e 768d e0bc 037f d9bd
00000020: be1d f73d 61b2 c23e 1783 cc3d 5c4c dd3d
00000030: 3cd4 f23d 057b 8a3e b13c cfbc 0953 01be
00000040: a8ab aabd 7881 e0bc c5f7 b63d 884e 943e
00000050: 7823 9d3e ce7a 91be 57be de3d cb52 f83d
00000060: 4349 053e 8e97 d33e fb5d d43e 7a25 c63e
00000070: 4006 553e 555d a03d 9741 63bb 6c52 143e

linear.weight f4 [16, 32]
0.21867728 -0.29306644 -0.11142372 0.0624237 0.25815648 -0.46608964 0.1518938 -0.051787853
0.26843947 -0.51145244 0.25549245 0.27124697 0.37751648 -0.21692763 0.055190824 0.091960385
0.01706636 -0.11412977 0.3572306 -0.20902215 -0.28949228 -0.441549 0.33137804 0.10027494
-0.34276545 -0.41846344 -0.37780413 -0.37547204 -0.31588686 0.23030858 0.08048946 0.00742674
0.08369042 -0.35400498 0.04278122 -0.049243603 0.19594641 -0.4133256 0.17904137 -0.043036036
0.3821393 -0.40641743 0.3838255 0.14675173 0.28702143 -0.23152773 -0.11252437 0.117471136
0.036463365 -0.05523041 0.3648231 -0.27172884 -0.37018198 -0.42745188 0.14394048 0.4032297
-0.18290654 -0.4464587 -0.30317423 -0.3973494 -0.46024206 0.23603468 0.1312343 0.22110966
0.37704298 -0.3425017 -0.11556661 0.025890745 0.1616622 -0.31272522 0.44469965 -0.10496654
0.16564026 -0.42280307 0.16038713 0.33449838 0.18916541 -0.2808513 0.037580185 0.05849137
-0.13937864 -0.14554152 0.10878671 -0.4407757 -0.43482345 -0.5248457 0.3338742 0.22711101
-0.6539058 -0.29180238 -0.34150448 -0.4873965 -0.28704283 0.3977121 0.001525232 0.08398491
0.2592856 -0.5333265 0.007895321 0.13335371 0.26714623 -0.20269936 0.1336931 0.043840613
0.18715183 -0.53325224 0.30478325 0.16962774 0.26052675 -0.36094657 0.04641578 -0.1404911
0.17592205 0.12355836 0.2223086 -0.37582296 -0.3484252 -0.7080645 0.4269756 0.4108295
-0.57539773 -0.3805843 -0.49634677 -0.49900123 -0.4336899 0.11231141 -0.04456652 0.24571998
0.21527591 -0.5231037 -0.057647467 -0.2963981 0.206554 -0.36422637 0.3012193 0.08735913
0.37838423 -0.44743952 0.4265236 0.25151876 0.2604233 -0.09909646 0.004466538 -0.09487621
0.17476274 0.10485466 0.2498131 -0.2420501 -0.303153 -0.63938284 0.10057543 0.40134287
-0.5683454 -0.52662146 -0.43228176 -0.4265662 -0.49146682 0.0964201 0.0066551045 0.36077192
0.43179494 -0.6052229 0.16676386 -0.06745208 0.22710763 -0.5882461 0.4015498 -0.03732955
0.1475166 -0.4578271 0.1291147 0.27024192 0.42806715 -0.1966733 -0.009680115 0.109137855
-0.09364671 -0.13452554 0.123110816 -0.2264043 -0.41938382 -0.59145725 0.43808115 0.10909454
-0.5249453 -0.4702616 -0.3745287 -0.34992826 -0.7435992 0.32125375 0.07012463 0.267651
0.21029681 -0.49934748 0.12310888 -0.3234827 0.3838055 -0.35350335 0.3025109 0.04947257
0.40388703 -0.37355825 0.20184949 0.36316997 0.3068159 -0.404451 -0.101359785 -0.041528
-0.10396226 0.08113755 0.27812472 -0.32498792 -0.1830839 -0.63007444 0.13718131 0.109690316
-0.84246624 -0.34929693 -0.5072543 -0.45653787 -0.679201 0.19030543 0.03750951 0.4436092
0.32979554 -0.8199222 -0.025357336 -0.45450017 0.19816948 -0.45930985 0.38141525 -0.061065324
0.32924378 -0.38662797 0.4002433 0.14874108 0.29300752 -0.47190034 0.0103350775 -0.089699514
-0.01727216 -0.021731004 0.1531957 -0.3421897 -0.24051912 -0.7037464 0.3448292 0.36853158
-0.59177566 -0.37822178 -0.31426746 -0.25285938 -0.71589476 0.055059437 0.021410936 0.21105812
00000000: f0ec 5f3e ce0c 96be 1f32 e4bd feaf 7f3d
00000010: 162d 843e 4da3 eebe 0c8a 1b3e 801f 54bd
00000020: e670 893e 8cee 02bf e8cf 823e e2e0 8a3e
00000030: d749 c13e 4722 5ebe c60f 623d ba55 bc3d
00000040: c0ce 8b3c debc e9bd eee6 b63e e709 56be
00000050: 5538 94be b612 e2be 62aa a93e f35c cd3d
00000060: f47e afbe d740 d6be 8b6f c1be df3d c0be
00000070: ecbb a1be 03d6 6b3e a8d7 a43d 035c f33b
00000080: e265 ab3d 2440 b5be 5c3b 2f3d a9b3 49bd
00000090: 2da6 483e 6a9f d3be 9f56 373e 8e46 30bd
000000a0: c3a7 c33e f215 d0be c784 c43e 1646 163e
000000b0: 79f4 923e 9b15 6dbe 2d73 e6bd b594 f03d
000000c0: 9c5a 153d 4839 62bd 18ca ba3e 0b20 8bbe
000000d0: 7e88 bdbe f9da dabe 2265 133e 2074 ce3e
000000e0: da4b 3bbe 3c96 e4be a739 9bbe 6171 cbbe
000000f0: d9a4 ebbe 13b3 713e 4962 063e 926a 623e
00000100: c70b c13e 625c afbe 30ae ecbd d418 d43c
00000110: c78a 253e 851d a0be acaf e33e b3f8 d6bd
00000120: 9a9d 293e a579 d8be 863c 243e 5f43 ab3e
00000130: 94b4 413e becb 8fbe aeed 193d a694 6f3d
00000140: 46b9 0ebe d608 15be 91cb de3d 5aad e1be
00000150: 2ea1 debe 4a5c 06bf 8ff1 aa3e ca8f 683e
00000160: 5f66 27bf 1f67 95be add9 aebe 098c f9be
00000170: 47f7 92be eca0 cb3e 4bea c73a 4800 ac3d
00000180: 15c1 843e 1688 08bf 605b 013c e08d 083e
00000190: 64c7 883e 6c90 4fbe d8e6 083e 3792 333d
000001a0: bba4 3f3e 3883 08bf 8d0c 9c3e e5b2 2d3e
000001b0: c363 853e fdcd b8be 791e 3e3d e6dc 0fbe
000001c0: e924 343e 2a0c fd3d dea4 633e de6b c0be
000001d0: ca64 b2be b743 35bf 8c9c da3e 3f58 d23e
000001e0: 444d 13bf f2db c2be 2a21 febe 177d ffbe
000001f0: 9a0c debe 8603 e63d 628b 36bd 059e 7b3e
00000200: 4a71 5c3e 20ea 05bf c01f 6cbd 7ec1 97be
00000210: e482 533e e17b babe 6b39 9a3e 58e9 b23d
00000220: 94bb c13e cb16 e5be 4d61 da3e 11c7 803e
00000230: 3456 853e 16f3 cabd 095c 923b 754e c2bd
00000240: 01f5 323e 0abe d63d 01cf 7f3e fbdb 77be
00000250: df36 9bbe 98ae 23bf 7efa cd3d d07c cd3e
00000260: 167f 11bf aad0 06bf 0954 ddbe e366 dabe
00000270: 8aa1 fbbe e777 c53d 1013 da3b 19b7 b83e
00000280: 3a14 dd3e e3ef 1abf 25c4 2a3e 5124 8abd
00000290: e78e 683e 4c97 16bf ef97 cd3e dfe6 18bd
000002a0: 970e 173e 5068 eabe a536 043e 265d 8a3e
000002b0: 9e2b db3e ba64 49be 5899 1ebc ab83 df3d
000002c0: d9c9 bfbd 10c1 09be 8621 fc3d 87d6 67be
000002d0: 7ab9 d6be be69 17bf 2c4c e03e f56c df3d
000002e0: d162 06bf 21c6 f0be 3ac2 bfbe cc29 b3be
000002f0: 845c 3ebf 5f7b a43e 819d 8f3d 8d09 893e
00000300: 0c58 573e 79aa ffbe 8220 fc3d 869f a5be
00000310: 2882 c43e 64fe b4be b5e2 9a3e c0a3 4a3d
00000320: 48ca ce3e 0743 bfbe a2b1 4e3e 6af1 b93e
00000330: f916 9d3e 3414 cfbe b895 cfbd 4419 2abd
00000340: 2aea d4bd 722b a63d 5d66 8e3e d164 a6be
00000350: 597a 3bbe 8f4c 21bf 4279 0c3e 51a5 e03d
00000360: deab 57bf 0cd7 b2be 6bdb 01bf 55bf e9be
00000370: 1ee0 2dbf 6ddf 423e 92a3 193d bf20 e33e
00000380: f6da a83e 6ce6 51bf 30ba cfbc 3fb4 e8be
00000390: f1ec 4a3e a92a ebbe dc48 c33e a21f 7abd
000003a0: a492 a83e 1af4 c5be b1ec cc3e 954f 183e
000003b0: 1505 963e ec9c f1be 7554 293c 61b4 b7bd
000003c0: 587e 8dbc 3805 b2bc 55df 1c3e 7d33 afbe
000003d0: a54a 76be b928 34bf 748d b03e 2cb0 bc3e
000003e0: 9c7e 17bf 49a6 c1be aae7 a0be c976 81be
000003f0: e144 37bf 0186 613d fd65 af3c 9f1f 583e

linear.bias f4 [16]
0.04057017 -0.09901684 0.019226097 0.06578304 -0.07539485 -0.1102851 -0.1363156 -0.07297812
-0.14522786 -0.019846989 -0.029327232 -0.019050073 -0.10644414 0.03188317 0.06679962 -0.0758657
00000000: e82c 263d 57c9 cabd 0c80 9d3c 42b9 863d
00000010: 9d68 9abd 28dd e1bd 5196 0bbe 8d75 95bd
00000020: 9db6 14be 2796 a2bc aa3f f0bc e60e 9cbc
00000030: 63ff d9bd ed97 023d 3dce 883d 7a5f 9bbd

linear2.weight f4 [6, 21]
0.50776714 0.52226084 0.25514936 0.059974972 -0.22694749 0.32077023 -0.3611074 -0.08658671
-0.07026112 0.35862225 -0.25911757 -0.19750622 -0.040681854 0.14979495 0.06498831 -0.20712373
-0.016986044 0.07346321 -0.013213519 -0.097649544 0.0033475873 -0.01980728 0.10250445 -0.08889372
0.31546494 0.086982705 0.15493734 0.18278179 0.14459108 0.27604237 -0.08887816 0.14610806
0.051868074 0.26421076 -0.106990784 0.012814304 -0.1389146 0.100840524 -0.21444584 -0.19134384
0.029726159 0.15887281 -0.10017487 -0.017388774 -0.01999561 0.0934153 -0.08369207 -0.2668289
0.020796493 -0.14799626 -0.015851334 0.012235218 -0.20906349 -0.12068988 0.105336055 -0.35709366
-0.03530413 0.13450606 0.21244909 -0.11053388 0.00061622733 -0.0323156 0.019534849 -0.17888308
-0.053467482 -0.38750938 -0.30275875 0.0764841 -0.07088681 0.26508704 -0.11931431 0.1966386
0.10356011 0.196565 0.100844786 0.18327916 -0.055508357 0.15369105 0.34262776 0.15258141
0.08527065 0.15946412 0.14344265 0.25415146 -0.117114216 -0.096824825 0.08895793 0.30186898
0.18447487 -0.017206695 0.11547532 0.15400971 -0.00963711 -0.028378276 0.041361168 -0.21091817
-0.13557039 0.010836256 0.14921065 0.0029217815 -0.2922966 0.19169226 0.19565462 0.22346209
0.02403901 -0.12698601 -0.28964454 -0.22620247 -0.06325308 -0.0029092166 0.015852932 0.1821358
-0.095300876 -0.053944163 0.1329281 0.01665628 -0.075255364 0.17898418 -0.2263412 0.18909681
0.2154101 0.23598284 0.16414727 -0.09385588 0.29653135 0.26805073
00000000: 07fd 013f e3b2 053f f0a2 823e 51a8 753d
00000010: ec64 68be ff3b a43e 12e3 b8be 5f54 b1bd
00000020: 10e5 8fbd 569d b73e 0fab 84be 123f 4abe
00000030: 04a2 26bd d963 193e 9718 853d 3e18 54be
00000040: 5126 8bbc e173 963d 847d 58bc 7cfc c7bd
00000050: 3263 5b3b e042 a2bc daed d13d e90d b6bd
00000060: 9f84 a13e fd23 b23d e5a7 1e3e 262b 3b3e
00000070: af0f 143e 6d55 8d3e c105 b6bd 5a9d 153e
00000080: 9e73 543d a246 873e fc1d dbbd 16f3 513c
00000090: a13f 0ebe 7a85 ce3d b197 5bbe a4ef 43be
000000a0: 4684 f33c 8eaf 223e 7b28 cdbd e772 8ebc
000000b0: d5cd a3bc 8550 bf3d bf66 abbd cc9d 88be
000000c0: 685d aa3c 558c 17be a8da 81bc 3976 483c
000000d0: bd14 56be 412c f7bd 6eba d73d fbd4 b6be
000000e0: 109b 10bd f5bb 093e 418c 593e 965f e2bd
000000f0: 518a 213a 5d5d 04bd 8c07 a03c 202d 37be
00000100: b800 5bbd a167 c6be 3203 9bbe b2a3 9c3d
00000110: 1b2d 91bd 7db9 873e 105b f4bd a15b 493e
00000120: 5317 d43d 5648 493e b687 ce3d 88ad 3b3e
00000130: bb5c 63bd 3061 1d3e e86c af3e 4d3e 1c3e
00000140: 61a2 ae3d 904a 233e a1e2 123e 2420 823e
00000150: 94d9 efbd 184c c6bd 932f b63d 928e 9a3e
00000160: fbe6 3c3e 0ef5 8cbc 537e ec3d b9b4 1d3e
00000170: f8e4 1dbc 8f79 e8bc 546a 293d effa 57be
00000180: f7d2 0abe 8d8a 313c adca 183e 5c7b 3f3b
00000190: e6a7 95be fa4a 443e af59 483e 3fd3 643e
000001a0: 75ed c43c 9f08 02be 4a4c 94be 9fa1 67be
000001b0: d58a 81bd 8ea8 3ebb 02de 813c cf81 3a3e
000001c0: 1b2d c3bd 8ef4 5cbd 4e1e 083e c072 883c
000001d0: 7c1f 9abd a147 373e fdc5 67be 98a2 413e
000001e0: 7794 5c3e 7ca5 713e 3916 283e 8337 c0bd
000001f0: f5d2 973e f23d 893e

linear2.bias f4 [6]
-0.037199173 0.06857892 0.14331119 -0.03334965 0.35761845 -0.4591534
00000000: 295e 18bd 1b73 8c3d 2bc0 123e a599 08bd
00000010: c419 b73e 2816 ebbe
