A3TGCN2_Checkpoints/Epoch_59.pth (torch, 35255 bytes, 17 tensors)

tgnn._attention f4 [16]
1.6395093 0.69346017 0.2927478 -0.12776464 0.1725277 0.120269366 0.18181327 0.3617993
0.29157028 0.30177706 0.29087943 0.2756502 0.22299251 0.43232375 0.6743888 1.4013755
00000000: 71db d13f 9b86 313f 0ae3 953e bcd4 02be
00000010: 1aab 303e c94f f63d 422d 3a3e c23d b93e
00000020: b348 953e 8682 9a3e 26ee 943e 0622 8d3e
00000030: 2658 643e 8a59 dd3e bfa4 2c3f 4660 b33f

tgnn._base_tgcn.conv_z.bias f4 [32]
0.5723948 0.4634553 0.2868962 0.020711297 -0.20489237 -0.3830842 -0.34709048 -0.5603382
0.57733244 0.5255771 -0.6080427 -0.5032752 0.15594365 0.24433225 0.46532923 0.5163264
-0.5403101 0.5891992 0.44696155 0.6214956 0.48665112 -0.48434517 -0.5244763 0.5418268
-0.51893383 -0.5836535 -0.5657164 0.52034646 0.5410585 -0.35786623 0.35222894 0.56123805
00000000: 7788 123f 034a ed3e 0fe4 923e bdaa a93c
00000010: 4ecf 51be 9d23 c4be d8b5 b1be 5372 0fbf
00000020: 0fcc 133f 398c 063f b0a8 1bbf a5d6 00bf
00000030: b1af 1f3e 3c32 7a3e a23f ee3e f82d 043f
00000040: c351 0abf c2d5 163f 25d8 e43e 561a 1f3f
00000050: 562a f93e 17fc f7be 1444 06bf 29b5 0a3f
00000060: d9d8 04bf 516a 15bf cad2 10bf 6d35 053f
00000070: cf82 0a3f 3e3a b7be 5a57 b43e 4cad 0f3f

tgnn._base_tgcn.conv_z.lin.weight f4 [32, 3]
-0.3420836 -0.35285226 -2.1790028 0.44456503 -0.57872164 -1.2677001 -0.9609103 0.63237685
-1.1383306 -0.2186684 0.9266948 1.4749733 0.775689 -0.91187584 0.441806 -0.184466
0.5553638 2.2544916 -0.84777963 -0.4084745 0.7651014 -0.023112843 0.21445133 2.1483798
0.2851406 -0.56345534 -1.54526 0.50701207 -0.9381925 -1.4272099 0.14182347 0.5823355
0.89941055 -0.61267537 0.58779234 1.102955 -0.38980344 1.0649014 -0.4922385 -1.0695611
0.062314577 0.547272 0.5230871 -0.5266027 -1.5329232 -0.14339931 -0.2107328 -2.7872622
-0.24382795 0.43524012 1.3152572 0.18046577 -0.732743 -2.0067778 -0.7677922 -0.33227986
0.5084572 -0.19710773 -0.48878804 -2.035195 0.49392506 -0.466303 -1.4953468 -0.29613438
0.39172703 1.0736915 -0.38269833 0.86611366 1.8105168 0.13669 -0.07316487 -2.862887
0.5643465 0.030503063 2.3194358 0.34082097 -0.017852902 1.9514282 0.7161879 0.33046162
0.6731688 -0.60081416 -0.45342672 -0.50702345 0.17265815 0.2772422 -2.2441754 0.86270696
1.1124439 1.3013868 -0.10396803 -1.3934481 -1.1950315 0.019257847 -0.55052114 -1.534384
00000000: 9525 afbe 0da9 b4be c874 0bc0 079e e33e
00000010: 1a27 14bf ff43 a2bf 38fe 75bf 73e3 213f
00000020: d1b4 91bf 9cea 5fbe df3b 6d3f edcb bc3f
00000030: 8e93 463f b270 69bf 6534 e23e a8e4 3cbe
00000040: 522c 0e3f 9749 1040 1608 59bf 9223 d1be
00000050: afdd 433f 2557 bdbc 2199 5b3e 0e7f 0940
00000060: f3fd 913e 9c3e 10bf 14cb c5bf 8bcb 013f
00000070: 622d 70bf d0ae b6bf 2c3a 113e f013 153f
00000080: c53f 663f 4bd8 1cbf 8f79 163f a12d 8d3f
00000090: 5194 c7be b04e 883f af06 fcbe 61e7 88bf
000000a0: 923d 7f3d 051a 0c3f 09e9 053f 6fcf 06bf
000000b0: d436 c4bf 45d7 12be 57ca 57be 8162 32c0
000000c0: 09ae 79be cbd7 de3e 595a a83f 05cc 383e
000000d0: 0c95 3bbf 0c6f 00c0 088e 44bf 9620 aabe
000000e0: 402a 023f 9cd6 49be 6d42 fabe a340 02c0
000000f0: bfe3 fc3e 44bf eebe 8667 bfbf ed9e 97be
00000100: 7290 c83e b96e 893f 09f1 c3be a0b9 5d3f
00000110: 04bf e73f 77f8 0b3e 77d7 95bd 8a39 37c0
00000120: 0379 103f 8fe1 f93c a371 1440 1680 ae3e
00000130: 4040 92bc 66c8 f93f 1758 373f 4432 a93e
00000140: ca54 2c3f f5ce 19bf 8c27 e8be 4acc 01bf
00000150: 4ccd 303e b1f2 8d3e 92a0 0fc0 5dda 5c3f
00000160: 9064 8e3f d893 a63f 31ed d4bd 825c b2bf
00000170: cbf6 98bf a2c2 9d3c f4ee 0cbf b266 c4bf

tgnn._base_tgcn.linear_z.weight f4 [32, 64]
-0.06543875 -0.69413847 0.92154825 0.99755156 -0.6108689 0.9929815 0.18074144 0.14764802
-0.6309277 -1.4447956 0.6193242 0.63731635 0.28225717 0.42459425 -0.71526915 -0.34751904
0.6077101 -0.96816057 0.46055752 -0.61017424 -0.48458615 0.5237215 1.4036399 -0.19245625
-0.20673618 -0.111927114 -0.576668 -0.092543475 -0.116782926 0.34891242 -0.80850595 -0.64164054
0.020246342 0.05585386 0.04477328 0.035287514 0.023139253 -0.022408113 0.11468598 -0.018079445
-0.054737613 0.07708734 -0.046232447 0.11530076 0.11062801 -0.083804354 -0.10268128 -0.040863156
0.08063172 -0.10281703 0.06785013 -0.12408477 -0.023813754 -0.032880887 0.013255671 0.10097024
-0.08791071 0.0020627677 0.006105587 -0.05243057 0.008615732 0.09010275 -0.07649019 0.07910547
-1.6102792 -0.52091116 0.2887208 2.6708179 -1.50031 2.7401855 -0.87245756 0.09881383
-0.48398286 -1.5333517 0.97837245 0.26910478 1.6962857 -0.14710765 -0.41030872 -0.73698425
0.04685266 -1.8242812 -2.0956569 -1.6038301 -0.0755383 -0.051989492 1.8023484 -0.0045714783
0.5161492 0.08827883 2.2291393 -2.8754833 0.7096791 2.489074 -3.8479228 -1.2607485
0.093658105 0.05391912 -0.07390167 -0.069662586 0.027618676 0.035378426 0.06620745 -0.09150325
0.12043749 -0.024570048 0.043849334 -0.05357112 0.047658175 0.10675146 -0.089991465 0.011300921
0.015317336 -0.018027395 -0.034281567 0.02419296 0.02312699 -0.051177472 0.044286117 0.104240134
0.030525789 -0.06379549 -0.018762544 -0.032129034 0.12478389 -0.064913705 0.07503353 -0.12432723
0.04489264 -0.118017495 -0.013276979 -0.09453888 -0.10209602 0.022381723 0.093163416 0.09084082
-0.053114906 -0.036311343 -0.020940498 -0.0033688247 -0.081808746 -0.0043317676 0.07468517 0.10478647
0.09609833 -0.060765564 0.073355466 0.06644446 0.107522964 -0.032896265 -0.09538354 0.014442787
0.06507723 -0.028276697 0.009666905 -0.017961666 -0.10631283 0.036880836 0.031946033 0.002603352
-0.103888705 0.05001934 0.004877478 -0.11019075 -0.10833873 0.013715833 0.014794603 0.010000929
0.063540414 -0.0005918145 0.11912532 -0.03559117 -0.070905566 -0.087597415 -0.061122417 0.120372415
0.062828586 -0.04591556 -0.08431047 -0.008374155 0.08703378 0.12108922 -0.113912866 -0.058497608
-0.103632584 -0.023029372 -0.017973796 0.11268407 0.12016699 0.11531803 -0.04985313 -0.054382443
-0.77379626 -0.50047696 0.24815668 0.267429 -0.4328413 1.234216 -0.08191358 0.18074074
-0.44572797 -0.9741334 0.6272274 0.3024843 0.53991115 -0.33749098 -0.33603013 -0.42258984
0.298219 -0.8443405 -0.15994513 -0.689334 -0.38886514 0.35534284 1.2259868 -0.088420466
0.1728885 0.017717334 0.534464 -0.9452322 0.03383288 0.8942001 -1.5441418 -0.801949
0.054764062 -0.0863833 -0.088368 0.05049646 -0.04610756 0.047094464 0.096982315 -0.04505831
-0.018742532 -0.09812556 -0.096838206 0.016707003 0.024006382 -0.09953986 -0.10314228 0.06481597
-0.004865214 0.10605247 0.10647841 0.038697034 -0.015579879 0.04774873 0.08730343 0.11532177
0.09415296 -0.10505602 -0.06537247 -0.11926623 -0.10969284 0.013711423 0.11988363 0.033814043
00000000: c004 86bd 0fb3 31bf 96ea 6b3f 8a5f 7f3f
00000010: e761 1cbf 0934 7e3f 4914 393e 0b31 173e
00000020: 7a84 21bf 10ef b8bf 088c 1e3f 2a27 233f
00000030: 0384 903e 6b64 d93e e11b 37bf 04ee b1be
00000040: e492 1b3f 5fd9 77bf 32ce eb3e 6134 1cbf
00000050: ad1b f8be 9d12 063f 79aa b33f 4013 45be
00000060: a6b2 53be 0b3a e5bd 84a0 13bf 6f87 bdbd
00000070: e32b efbd a6a4 b23e 3ffa 4ebf 8e42 24bf
00000080: a8db a53c 04c7 643d 3064 373d a489 103d
00000090: 888e bd3c 3891 b7bc 7ce0 ea3d 581b 94bc
000000a0: 8c34 60bd f8df 9d3d 3c5e 3dbd ce22 ec3d
000000b0: f090 e23d 9ea1 abbd 904a d2bd 2060 27bd
000000c0: 3e22 a53d bc91 d2bd 02f5 8a3d 2820 febd
000000d0: 1015 c3bc 1cae 06bd 502e 593c 7cc9 ce3d
000000e0: 880a b4bd 802f 073b 6011 c83b 70c1 56bd
000000f0: 0029 0d3c ca87 b83d e4a6 9cbd 0c02 a23d
00000100: a11d cebf 6f5a 05bf 36d3 933e aeee 2a40
00000110: 280a c0bf 335f 2f40 6159 5fbf e85e ca3d
00000120: 9acc f7be de44 c4bf 9e76 7a3f 1ac8 893e
00000130: e41f d93f 63a3 16be fc13 d2be 00ab 3cbf
00000140: 93e8 3f3d 0c82 e9bf 3e1f 06c0 4e4a cdbf
00000150: d3b3 9abd eff2 54bd 5ab3 e63f 57cc 95bb
00000160: 5b22 043f 88cb b43d 38aa 0e40 eb07 38c0
00000170: 88ad 353f fd4c 1f40 5e44 76c0 3560 a1bf
00000180: d2cf bf3d 4cda 5c3d c259 97bd 42ab 8ebd
00000190: 9040 e23c f8e8 103d c697 873d 0e66 bbbd
000001a0: eea7 f63d 2047 c9bc 5c9b 333d 646d 5bbd
000001b0: 3835 433d 82a0 da3d 724d b8bd 8027 393c
000001c0: 90f5 7a3c 30ae 93bc d46a 0cbd 5030 c63c
000001d0: d074 bd3c 789f 51bd 5c65 353d da7b d53d
000001e0: 3811 fa3c 36a7 82bd e8b3 99bc bc99 03bd
000001f0: b28e ff3d 7af1 84bd 2eab 993d 469f febd
00000200: 58e1 373d 28b3 f1bd b087 59bc 9a9d c1bd
00000210: b817 d1bd e059 b73c 76cc be3d c00a ba3d
00000220: 048f 59bd 34bb 14bd 688b abbc 80c7 5cbb
00000230: 588b a7bd 80f1 8dbb 8af4 983d 4a9a d63d
00000240: 34cf c43d 50e5 78bd 643b 963d 0814 883d
00000250: 0035 dc3d 3cbe 06bd 7258 c3bd 70a1 6c3c
00000260: 3647 853d 88a4 e7bc f061 1e3c 5824 93bc
00000270: 8aba d9bd 5c10 173d d8d9 023d 009d 2a3b
00000280: 9ac3 d4bd 14e1 4c3d 40d3 9f3b b0ab e1bd
00000290: b2e0 ddbd 60b8 603c 1065 723c f0da 233c
000002a0: 7a21 823d 0024 1bba faf7 f33d 0cc8 11bd
000002b0: f036 91bd 4666 b3bd 805b 7abd d085 f63d
000002c0: 46ac 803d f411 3cbd f8aa acbd c033 09bc
000002d0: c43e b23d a0fd f73d 264b e9bd 309b 6fbd
000002e0: 523d d4bd 18a8 bcbc c83d 93bc e8c6 e63d
000002f0: 1c1a f63d dc2b ec3d cc32 4cbd 20c0 5ebd
00000300: 8317 46bf 421f 00bf c91c 7e3e 74ec 883e
00000310: 609d ddbe cafa 9d3f 4fc2 a7bd 1a14 393e
00000320: 7536 e4be ce60 79bf fa91 203f 39df 9a3e
00000330: 9e37 0a3f 9ecb acbe 240c acbe b25d d8be
00000340: 29b0 983e b326 58bf a8c8 23be 3178 30bf
00000350: 5519 c7be 7fef b53e 23ed 9c3f ca15 b5bd
00000360: af09 313e f123 913c a2d2 083f bdfa 71bf
00000370: 5994 0a3d 4cea 643f 70a6 c5bf 884c 4dbf
00000380: 4850 603d bae9 b0bd 48fa b4bd 60d5 4e3d
00000390: 48db 3cbd 20e6 403d aa9e c63d 108f 38bd
000003a0: f089 99bc 0ef6 c8bd 1c53 c6bd 20dd 883c
000003b0: 08a9 c43c 8edb cbbd 423c d3bd 3cbe 843d
000003c0: 606c 9fbb 0a32 d93d 5a11 da3d c880 1e3d
000003d0: c042 7fbc 2c94 433d 24cc b23d d22d ec3d
000003e0: 44d3 c03d 9c27 d7bd 00e2 85bd da41 f4bd
000003f0: a4a6 e0bd e0a5 603c 8c85 f53d 9880 0a3d

tgnn._base_tgcn.linear_z.bias f4 [32]
-0.221491 0.731621 0.11818309 0.009709846 -0.052797884 -0.21631044 -0.1691757 0.015448966
-0.21233591 -0.061279643 -0.48658824 -0.16241631 -0.72817916 -1.3135313 0.016526788 0.06856956
0.060834035 -0.110993326 -0.518028 -0.34541 -0.3236886 0.63609487 -0.21152504 -0.6862286
0.7089507 -0.31290993 -0.032639816 -0.42061558 0.21285509 -0.54515046 0.11974424 -0.23815688
00000000: 89ce 62be 844b 3b3f fa09 f23d 0c16 1f3c
00000010: 9842 58bd 7c80 5dbe 653c 2dbe a91d 7d3c
00000020: 966e 59be 5d00 7bbd 1822 f9be 7650 26be
00000030: f369 3abf cb21 a8bf 3063 873c 336e 8c3d
00000040: 1c2d 793d 7850 e3bd 7c9d 04bf 94d9 b0be
00000050: 83ba a5be 1dd7 223f 059a 58be adac 2fbf
00000060: cb7d 353f bb35 a0be 54b1 05bd ed5a d7be
00000070: aff6 593e fb8e 0bbf 783c f53d 66df 73be

tgnn._base_tgcn.conv_r.bias f4 [32]
0.0 0.0 0.0 0.0 0.0 0.0 0.0 0.0
0.0 0.0 0.0 0.0 0.0 0.0 0.0 0.0
0.0 0.0 0.0 0.0 0.0 0.0 0.0 0.0
0.0 0.0 0.0 0.0 0.0 0.0 0.0 0.0
00000000: 0000 0000 0000 0000 0000 0000 0000 0000
00000010: 0000 0000 0000 0000 0000 0000 0000 0000
00000020: 0000 0000 0000 0000 0000 0000 0000 0000
00000030: 0000 0000 0000 0000 0000 0000 0000 0000
00000040: 0000 0000 0000 0000 0000 0000 0000 0000
00000050: 0000 0000 0000 0000 0000 0000 0000 0000
00000060: 0000 0000 0000 0000 0000 0000 0000 0000
00000070: 0000 0000 0000 0000 0000 0000 0000 0000

tgnn._base_tgcn.conv_r.lin.weight f4 [32, 3]
0.16965911 -0.037553072 0.058 0.30765042 -0.29204863 -0.020177722 -0.14040816 -0.28139192
0.093972 0.011039704 0.09644386 0.32871267 -0.28202555 -0.038353562 -0.11378935 0.2503403
-0.06998673 -0.36193478 0.021415055 0.13195279 0.16137215 -0.1009852 0.14807871 0.06853992
0.20136961 0.24095705 -0.18302193 -0.28173542 0.09143564 0.23300639 0.14357045 -0.18475646
-0.3047736 0.09166607 0.2801251 -0.18565165 -0.23761752 0.31345937 -0.3765382 0.3082089
-0.008306354 0.12245819 -0.14770049 -0.2538972 0.39423618 0.1664029 -0.081643015 -0.24177888
0.30107394 -0.17729856 0.24553058 0.16594991 -0.27114642 0.17000952 -0.013642997 0.2751501
-0.17664571 -0.37121272 -0.39349604 -0.2380074 0.28203174 -0.24862173 -0.09803039 -0.008543164
-0.0024053752 -0.07843304 -0.24303538 -0.07063952 -0.31078428 -0.35467574 0.2420921 -0.21242094
0.2418544 -0.19488631 0.18474093 -0.07327154 -0.15576243 0.18501553 0.15467903 0.09230062
0.0032456815 -0.064685404 -0.40229955 -0.07319707 0.3462328 0.29382756 0.09371677 0.19856241
-0.05077201 -0.25669378 -0.17840756 0.17265919 0.40160397 0.14477381 -0.06058258 -0.35659665
00000000: 1ebb 2d3e 40d1 19bd 6891 6d3d 5b84 9d3e
00000010: 6687 95be c04b a5bc 28c7 0fbe 9a12 90be
00000020: 6474 c03d e0df 343c 5c84 c53d 074d a83e
00000030: a765 90be a018 1dbd 640a e9bd 9b2c 803e
00000040: 3455 8fbd 844f b9be a06e af3c a21e 073e
00000050: be3e 253e 54d1 cebd f2a1 173e a85e 8c3d
00000060: d633 4e3e 72bd 763e 1a6a 3bbe a03f 90be
00000070: 9c42 bb3d 3a99 6e3e 2204 133e cc30 3dbe
00000080: 490b 9cbe 6cbb bb3d 8f6c 8f3e 771b 3ebe
00000090: 0252 73be bf7d a03e 9dc9 c0be 8fcd 9d3e
000000a0: 6017 08bc 5ccb fa3d cc3e 17be d0fe 81be
000000b0: 53d9 c93e 8665 2a3e 7434 a7bd e294 77be
000000c0: 5d26 9a3e c18d 35be 5e6c 7b3e c6ee 293e
000000d0: b4d3 8abe fa16 2e3e e086 5fbc 79e0 8c3e
000000e0: 9de2 34be 980f bebe 5078 c9be 36b8 73be
000000f0: 7766 903e b296 7ebe 28c4 c8bd a0f8 0bbc
00000100: 80a3 1dbb 80a1 a0bd 44de 78be 74ab 90bd
00000110: 1e1f 9fbe 0f98 b5be fee6 773e e084 59be
00000120: aea8 773e 4790 47be ba2c 3d3e 640f 96bd
00000130: 3080 1fbe b674 3d3e 2e64 1e3e 1c08 bd3d
00000140: 80b5 543b c879 84bd 35fa cdbe 58e8 95bd
00000150: 6d45 b13e 9170 963e 94ee bf3d f253 4b3e
00000160: 50f6 4fbd 5e6d 83be 79b0 36be 92cd 303e
00000170: 099f cd3e 963f 143e 7025 78bd d693 b6be

tgnn._base_tgcn.linear_r.weight f4 [32, 64]
-0.0737533 0.028673455 -0.032104403 -0.12430988 0.023893312 0.048621297 0.09931053 -0.055989906
0.08454122 -0.109967485 0.027058244 0.020878121 -0.091980115 0.060285464 0.11037688 -0.06267205
-0.042791396 0.018074214 0.0893611 -0.06952338 -0.04769768 0.044731513 0.040796995 0.05926755
0.09976938 0.11329433 0.08910236 0.057434827 0.07203089 0.07495734 -0.10994126 0.004388988
-0.10482623 0.022965789 0.053581893 -0.05908522 0.10908194 0.0551638 0.05457759 0.010787532
-0.05875577 0.024723545 0.06955607 0.097279936 0.102921784 0.068602756 0.078430876 -0.06932917
-0.01930362 -0.03687437 0.08161858 -0.08983253 0.10153371 -0.01866734 0.1183773 0.039708212
0.09733391 -0.034043327 0.10284725 -0.080348924 0.015347764 0.0022714138 0.12186824 0.03173916
-0.040606976 -0.07542311 0.09682092 -0.052967355 -0.07345587 -0.12261371 -0.011134699 -0.099027485
-0.022750065 -0.06654717 0.12324947 -0.076426074 0.08456457 0.1138739 0.07961732 -0.016986832
-0.025938496 0.0994955 0.07756573 -0.03612061 0.12461914 -0.09103081 0.079083994 -0.0047383457
0.04116547 0.111663654 0.11636995 -0.023028597 -0.08192125 0.09238055 0.094509155 0.089937136
0.07603483 0.047504812 0.08732188 -0.10251002 0.03876269 0.12215617 0.081613794 0.033509687
-0.11827195 0.11838812 -0.07183464 -0.09912117 0.09434812 -0.052059487 0.04769762 0.03788577
0.010921791 -0.045271084 -0.10343398 0.12095538 -0.016146734 0.06182453 -0.024830401 0.11602168
0.103963226 -0.07811932 -0.12052645 0.034886345 -0.009425536 -0.02181767 -0.12315288 -0.09520942
0.054510206 -0.013940781 0.095344365 0.07157417 0.046865344 0.020214915 -0.020744637 0.0204359
0.09030457 -0.037425146 0.06276348 0.07593283 0.085754424 -0.003007695 -0.10925077 0.054074943
0.12003927 0.019124791 -0.047037944 0.0062987953 -0.04449065 -0.0047605634 -0.06831531 -0.03906238
0.035863712 -0.020403177 -0.07982069 -0.06808221 0.024407327 -0.08916354 0.097904295 0.08319639
-0.008596018 0.05303788 -0.0790337 0.08667514 -0.06043899 -0.11556941 -0.055516303 0.070264935
-0.03175597 -0.00755772 -0.08008659 0.075812355 -0.123395056 0.035371795 -0.113339216 0.08593795
0.036074966 -0.0587029 0.003116846 -0.026199058 -0.058345765 0.10942617 -0.10953143 -0.007835388
0.11132103 0.027757466 -0.10250929 -0.109727144 0.006608546 0.046119615 -0.04573056 -0.08610521
0.0019403249 0.0358672 -0.10136476 -0.09186567 0.017764926 -0.080696076 -0.028668359 -0.056228444
0.06199874 0.09111193 -0.12174462 0.11964612 0.11698486 -0.11165273 0.079869494 -0.032285094
-0.037735626 0.06451696 0.07672463 -0.016776934 0.122696295 -0.1064823 -0.026864812 -0.060408384
-0.109726876 0.12463212 -0.09144989 -0.08874783 -0.090840906 0.06981388 -0.09892553 0.024035156
0.09114279 0.039981857 -0.029892802 -0.0809309 0.10096422 -0.055679306 -0.025997818 0.0798495
-0.058491245 0.08375488 -0.115570486 0.07122977 0.060371473 0.03087908 0.020154595 -0.0026038438
0.03317128 -0.07926443 -0.0968841 -0.07242809 -0.058182612 0.060762987 -0.09345868 0.022324905
-0.015727803 -0.016988322 0.022311449 -0.02521415 0.075103655 -0.034029573 -0.092093796 0.015399814
00000000: f80b 97bd 98e4 ea3c e87f 03bd 2e96 febd
00000010: e8bb c33c 2027 473d 5263 cb3d ac55 65bd
00000020: f223 ad3d a236 e1bd 40a9 dd3c 9808 ab3c
00000030: 1260 bcbd e4ed 763d 460d e23d 345a 80bd
00000040: 0846 2fbd 6010 943c f402 b73d 4662 8ebd
00000050: a45e 43bd 6438 373d c01a 273d 88c2 723d
00000060: e453 cc3d dc06 e83d 4c7b b63d c840 6b3d
00000070: ee84 933d 3c83 993d e228 e1bd 80d1 8f3b
00000080: 22af d6bd c022 bc3c b078 5b3d 5803 72bd
00000090: 5a66 df3d 70f3 613d c08c 5f3d 30be 303c
000000a0: e4a9 70bd 0889 ca3c 6a73 8e3d b43a c73d
000000b0: a8c8 d23d 9a7f 8c3d 5ea0 a03d 74fc 8dbd
000000c0: a022 9ebc 9409 17bd a427 a73d 1efa b7bd
000000d0: e8f0 cf3d 40ec 98bc cc6f f23d 14a5 223d
000000e0: 0057 c73d 0471 0bbd 94a1 d23d fa8d a4bd
000000f0: 3075 7b3c 00dc 143b 0e96 f93d ec00 023d
00000100: 8053 26bd 6e77 9abd 0c4a c63d 4cf4 58bd
00000110: 0870 96bd e61c fbbd 506e 36bc ecce cabd
00000120: 585e babc e249 88bd 386a fc3d 4685 9cbd
00000130: 3030 ad3d b836 e93d 680e a33d f827 8bbc
00000140: f87c d4bc 4cc4 cb3d c8da 9e3d 34f3 13bd
00000150: 5238 ff3d 5c6e babd caf6 a13d 2044 9bbb
00000160: 209d 283d eaaf e43d 5e53 ee3d 78a6 bcbc
00000170: 54c6 a7bd 0432 bd3d 048e c13d f630 b83d
00000180: 26b8 9b3d 6894 423d d0d5 b23d c6f0 d1bd
00000190: a0c5 1e3d 042d fa3d 2225 a73d 7441 093d
000001a0: 9038 f2bd 7875 f23d 0a1e 93bd 0a00 cbbd
000001b0: 9639 c13d 543c 55bd 945e 433d 1c2e 1b3d
000001c0: 50f1 323c 2c6e 39bd 32d5 d3bd 74b7 f73d
000001d0: 2846 84bc b83b 7d3d 2069 cbbc c69c ed3d
000001e0: acea d43d 06fd 9fbd 92d6 f6bd fce4 0e3d
000001f0: 906d 1abc f8ba b2bc 9437 fcbd 28fd c2bd
00000200: 1846 5f3d e067 64bc e843 c33d 7a95 923d
00000210: e0f5 3f3d c099 a53c a8f0 a9bc 3069 a73c
00000220: 9af1 b83d 1c4b 19bd 248a 803d ac82 9b3d
00000230: 04a0 af3d c01c 45bb debe dfbd b07d 5d3d
00000240: 26d7 f53d 98ab 9c3c dcaa 40bd 2066 ce3b
00000250: d43b 36bd 80fe 9bbb e6e8 8bbd e0ff 1fbd
00000260: d4e5 123d 9024 a7bc 0879 a3bd b06e 8bbd
00000270: e0f1 c73c 609b b6bd 0c82 c83d de62 aa3d
00000280: 50d6 0cbc 403e 593d 6cdc a1bd bc82 b13d
00000290: e08e 77bd a8af ecbd 1065 63bd 10e7 8f3d
000002a0: 8c12 02bd c0a6 f7bb 7004 a4bd 8243 9b3d
000002b0: 8cb6 fcbd 04e2 103d 641e e8bd 3c00 b03d
000002c0: 58c3 133d 7472 70bd 0044 4c3b 689f d6bc
000002d0: f8fb 6ebd d41a e03d 0452 e0bd 0060 00bc
000002e0: 48fc e33d a063 e33c 64f0 d1bd a0b8 e0bd
000002f0: 808c d83b ece7 3c3d f84f 3bbd ee57 b0bd
00000300: 8052 fe3a 7ce9 123d 5498 cfbd 1224 bcbd
00000310: c087 913c fc43 a5bd e8d9 eabc cc4f 66bd
00000320: 64f2 7d3d e498 ba3d 3e55 f9bd 0609 f53d
00000330: c295 ef3d 30aa e4bd 9e92 a33d 603d 04bd
00000340: ac90 1abd 7821 843d ce21 9d3d c86f 89bc
00000350: 3248 fb3d 6413 dabd 9813 dcbc c86e 77bd
00000360: 7cb8 e0bd 203f ff3d 144a bbbd 6cc1 b5bd
00000370: cc0a babd 94fa 8e3d 7899 cabd 60e5 c43c
00000380: 12a9 ba3d 04c4 233d c0e1 f4bc 1abf a5bd
00000390: 54c6 ce3d fc0f 64bd 60f9 d4bc 2288 a33d
000003a0: 8494 6fbd ae87 ab3d 38b0 ecbd eae0 913d
000003b0: 1448 773d 20f6 fc3c 401b a53c 40a5 2abb
000003c0: 9cde 073d 6455 a2bd 2c6b c6bd 2e55 94bd
000003d0: e450 6ebd 9ce2 783d 4467 bfbd b8e2 b63c
000003e0: 98d7 80bc 182b 8bbc 80c6 b63c e88d cebc
000003f0: f2cf 993d 9862 0bbd ac9b bcbd 804f 7c3c

tgnn._base_tgcn.linear_r.bias f4 [32]
0.07399389 -0.10156308 -0.061086252 0.05020684 0.06644811 -0.014549255 0.068296224 0.009360775
-0.0023612827 -0.121732384 -0.11818594 0.10928008 0.05197528 -0.11607598 0.058765724 -0.04471408
0.0374524 0.06750192 0.0333198 -0.01913163 -0.088471755 0.04522881 -0.0526039 -0.10631165
-0.1044216 0.056450054 0.124298066 0.0009716004 0.09883721 0.036037147 0.06460135 0.06896998
00000000: 1c8a 973d 4e00 d0bd 9435 7abd b0a5 4d3d
00000010: f215 883d 0060 6ebc e4de 8b3d f05d 193c
00000020: c0bf 1abb d44e f9bd 780b f2bd 3cce df3d
00000030: 08e4 543d 3eb9 edbd 54b4 703d 1c26 37bd
00000040: b067 193d 723e 8a3d 587a 083d f0b9 9cbc
00000050: ae30 b5bd d841 393d 3077 57bd ecb9 d9bd
00000060: feda d5bd 2c38 673d fc8f fe3d 00b3 7e3a
00000070: 2a6b ca3d b09b 133d b64d 843d 2240 8d3d

tgnn._base_tgcn.conv_h.bias f4 [32]
0.3154545 -0.018644262 -0.29758403 -0.09981075 0.24551731 -0.6448823 0.40503544 0.35573903
0.6047365 -0.060256872 -0.34631774 0.24449255 -0.4555955 0.004237559 0.07222158 -0.5266008
0.097601265 -0.31413695 0.26561028 -0.06558983 0.100784056 0.54148513 0.0007127614 -0.0027664157
-0.22964266 0.13630116 -0.26209366 0.3534635 0.47014156 0.5246494 -0.2698286 -0.055251602
00000000: 4183 a13e dabb 98bc ef5c 98be 9469 ccbd
00000010: e468 7b3e 0217 25bf ce60 cf3e 6d23 b63e
00000020: 03d0 1a3f e9cf 76bd 8f50 b1be 415c 7a3e
00000030: d043 e9be 39db 8a3b e8e8 933d 4fcf 06bf
00000040: 2ce3 c73d 8fd6 a0be 12fe 873e f653 86bd
00000050: df67 ce3d c59e 0a3f 9cd8 3a3a c14c 35bb
00000060: 7227 6bbe 8892 0b3e 2431 86be 2bf9 b43e
00000070: 65b6 f03e 6c4f 063f f926 8abe 814f 62bd

tgnn._base_tgcn.conv_h.lin.weight f4 [32, 3]
0.24338512 -0.70372677 1.7048771 -0.28209442 -1.1289698 1.0357589 0.0023327267 -0.15667146
2.7873025 -0.059464246 1.2215852 -0.63029253 0.080116875 0.67217666 -1.9111447 0.58677745
0.3318441 -0.6015019 -0.64130545 -0.6016134 0.41281122 -0.57455856 -0.31620374 1.316255
-0.082016535 0.67112243 -0.12379916 0.10337853 -1.2590925 1.1084738 0.7785727 0.31138057
-1.3523614 -0.6813255 -1.0488335 -0.49871707 -0.03460644 0.71217394 -0.49779767 0.7119716
1.1271161 0.035966013 0.22192843 -0.6509943 2.0054772 -0.056086726 -0.4064611 -1.7819308
-0.7977399 0.16749959 1.8827137 -0.38134483 -0.82635146 -0.9984716 -0.14375398 -0.8613305
0.8542376 0.03393062 1.337843 0.29110238 -0.1673259 -1.2149885 -0.6404948 0.14850545
0.1736309 1.42737 0.8231312 1.0131744 2.1033468 -0.27309933 -0.9982464 1.4680482
0.36572787 0.59207696 -1.2504764 0.19095084 -0.55454177 1.9009867 -0.10137232 -1.093518
-0.56358564 -0.45434675 -0.17073192 1.641022 0.0063471305 -0.3471691 1.8714957 -0.4666544
0.6837709 1.4002248 0.63265747 0.3507276 -1.6227517 -0.016166197 -1.2825905 0.8938559
00000000: f339 793e 7027 34bf 6a39 da3f ae6e 90be
00000010: 1582 90bf bf93 843f a9e0 183b 7c6e 20be
00000020: 2a63 3240 c890 73bd e75c 9c3f da5a 21bf
00000030: 5114 a43d c513 2c3f 64a0 f4bf 0c37 163f
00000040: 78e7 a93e 07fc 19bf 982c 24bf 5603 1abf
00000050: fe5b d33e 4516 13bf 75e5 a1be 0b7b a83f
00000060: 49f8 a7bd aece 2b3f 6a8a fdbd 1fb8 d33d
00000070: f129 a1bf 78e2 8d3f 8a50 473f 466d 9f3e
00000080: 2e1a adbf 596b 2ebf 2d40 86bf d857 ffbe
00000090: 7cbf 0dbd 0851 363f 56df febe c543 363f
000000a0: 5745 903f 1951 133d 3541 633e 90a7 26bf
000000b0: bd59 0040 32bb 65bd ab1b d0be 4f16 e4bf
000000c0: af38 4cbf 0385 2b3e c3fc f03f a13f c3be
000000d0: c58b 53bf d69b 7fbf 3e34 13be 2880 5cbf
000000e0: 51af 5a3f d5fa 0a3d 703e ab3f 5f0b 953e
000000f0: 7b57 2bbe be84 9bbf 78f7 23bf d011 183e
00000100: 4ccc 313e 0fb4 b63f bab8 523f b3af 813f
00000110: 3c9d 0640 add3 8bbe 138d 7fbf 01e9 bb3f
00000120: af40 bb3e 5b92 173f 9c0f a0bf 9e88 433e
00000130: 73f6 0dbf 8853 f33f 4a9c cfbd 66f8 8bbf
00000140: 2647 10bf 23a0 e8be 59d4 2ebe 020d d23f
00000150: 97fb cf3b 26c0 b1be 2c8d ef3f 53ed eebe
00000160: 9c0b 2f3f 913a b33f d7f5 213f 9192 b33e
00000170: 54b6 cfbf f96e 84bc ed2b a4bf bed3 643f

tgnn._base_tgcn.linear_h.weight f4 [32, 64]
-0.4084047 -1.0544759 -0.95080817 1.2457728 1.2300742 0.1487249 -0.46788788 -0.46113563
0.7165114 -1.6435726 0.3607615 -0.4931916 0.18485548 0.569493 -0.81899893 -0.43854102
-0.56644607 -0.5480248 -0.64506185 0.9937065 -0.5904928 0.280004 0.15964186 -1.6986017
0.564436 -0.50061333 -0.80691904 -0.3045257 -0.023434915 0.5333894 0.3741972 -1.4340928
-0.064880475 0.087567165 0.08037771 -0.062485382 -0.038240895 -0.07648395 0.11553256 -0.054766923
0.06087494 -0.035721913 0.097739205 0.10307735 0.09622486 0.018606737 0.04877597 0.023506805
-0.026669994 -0.05257401 0.0071945935 -0.076635376 -0.08987668 -0.085349455 0.058197305 -0.009746268
0.112571985 0.07403371 0.053111807 -0.03747432 -0.10009195 0.11500466 0.0024447143 -0.10971551
0.78419894 0.53468686 0.44365934 -2.0547545 -0.54493535 -0.27057642 0.51670897 0.7178792
-0.09560578 1.15885 -0.4295108 0.28344825 -0.45957595 -0.31824312 1.173587 -0.18536948
0.17592974 0.13271654 1.6468811 -0.61397934 0.37127578 0.1527176 0.061289497 0.5638187
-1.3852346 0.9580172 0.23567732 0.8044091 0.42973945 -0.058275886 -0.74194294 1.0073423
-0.08901258 -0.012996018 -0.11977331 0.021012723 -0.065784276 0.05583188 -0.081155494 -0.06269881
0.0064311028 0.006788656 0.09010455 -0.0013136566 0.046465456 0.079957694 -0.08357698 0.07751277
-0.052453622 0.014318407 0.0261413 0.02369374 0.029151112 0.04550059 -0.08227602 0.031429112
-0.017895773 0.07363206 -0.07054855 0.039543808 0.05335839 -0.051761553 -0.08255084 0.09131689
0.11222008 0.08187668 -0.09636347 0.046249285 -0.10028753 -0.01668723 -0.10299203 0.066693366
0.07665081 0.0799686 -0.057508305 0.11726977 0.08922483 0.016186595 -0.09274556 0.07154882
0.03661424 0.00875701 -0.12228711 -0.07388063 -0.014846459 -0.114295825 0.08827916 -0.024357006
-0.018873945 0.042424113 0.05246395 -0.07742748 0.019144341 -0.05939658 -0.10576825 0.12350875
0.030642197 -0.085110545 -0.069131315 0.035117194 -0.1163127 -0.042874634 0.08264306 -0.076086074
0.10263243 0.041057214 -0.10347648 0.05265352 0.11913769 0.0495276 0.10274571 -0.0016127229
-0.09405221 0.040168658 0.032083154 0.053182095 -0.019699648 -0.062812835 0.036071077 -0.09388283
0.103567004 -0.05184968 -0.1249986 0.07039614 0.0063922554 -0.040023923 -0.045174018 -0.082000986
0.7672358 -0.011120402 0.9674367 -0.17374252 -0.31709102 0.9734149 -0.43047598 -0.20032515
-0.015918344 0.23517086 0.2903461 -0.60270226 0.25024292 0.29097196 1.3273679 -0.58610666
0.2121803 -0.38074413 0.088237986 0.28606802 -0.36178574 0.42484406 0.5854694 0.14999045
0.04087106 1.2203422 -0.3147711 0.29810497 0.7206987 0.40399635 -0.03258974 0.024882322
-0.018408418 0.08362214 0.04971437 0.11824444 -0.041034713 -0.058303148 -0.020620987 0.10073264
0.09965317 -0.06432268 0.11720145 0.07487394 0.048134834 -0.013988778 0.08852579 0.06946412
0.07644658 0.03668432 -0.026370183 0.063246146 -0.08859962 0.004238531 -0.08772674 0.019797921
0.10409342 -0.114822656 -0.032590494 -0.10962956 -0.09747049 0.071014464 0.002326429 0.014486715
00000000: 6c1a d1be 11f9 86bf 2a68 73bf 7c75 9f3f
00000010: 1273 9d3f 574b 183e 008f efbe f819 ecbe
00000020: 4b6d 373f 9660 d2bf bbb5 b83e 9c83 fcbe
00000030: c14a 3d3e 4bca 113f eaa9 51bf 7388 e0be
00000040: 9c02 11bf 5a4b 0cbf c622 25bf 8d63 7e3f
00000050: 892a 17bf af5c 8f3e 2879 233e c86b d9bf
00000060: e17e 103f 3228 00bf 3f92 4ebf cbea 9bbe
00000070: 94fa bfbc 358c 083f c796 bf3e 5a90 b7bf
00000080: 0ee0 84bd 6a56 b33d 129d a43d acf0 7fbd
00000090: 7ca2 1cbd 9ea3 9cbd 569c ec3d 4853 60bd
000000a0: 0058 793d 2451 12bd 7e2b c83d 381a d33d
000000b0: 8a11 c53d 286d 983c 50c9 473d 5891 c03c
000000c0: 087b dabc d857 57bd a0c0 eb3b 02f3 9cbd
000000d0: 4411 b8bd b2cb aebd 4c60 6e3d d0ae 1fbc
000000e0: 248c e63d fc9e 973d c48b 593d ac7e 19bd
000000f0: 02fd ccbd 9087 eb3d 8037 203b 86b2 e0bd
00000100: 43c1 483f 3de1 083f 5127 e33e 1981 03c0
00000110: e280 0bbf fe88 8abe 0a47 043f eec6 373f
00000120: f7cc c3bd 3255 943f d7e8 dbbe 2120 913e
00000130: 8a4d ebbe c3f0 a2be 1938 963f 7fd1 3dbe
00000140: ed26 343e d8e6 073e 00cd d23f c02d 1dbf
00000150: dc17 be3e 0162 1c3e b20a 7b3d 6c56 103f
00000160: 5e4f b1bf 9d40 753f 6555 713e c1ed 4d3f
00000170: cf06 dc3e b2b2 6ebd f9ef 3dbf 98f0 803f
00000180: 3a4c b6bd 40ed 54bc b64b f5bd e022 ac3c
00000190: e8b9 86bd f8af 643d da34 a6bd 3c68 80bd
000001a0: 00bc d23b 6073 de3b bc88 b83d 002f acba
000001b0: 9052 3e3d dcc0 a33d 682a abbd 04bf 9e3d
000001c0: 9cd9 56bd c097 6a3c 4826 d63c 6019 c23c
000001d0: 50ce ee3c d45e 3a3d 5480 a8bd d0bb 003d
000001e0: 289a 92bc 68cc 963d c27b 90bd b0f8 213d
000001f0: 548e 5a3d ec03 54bd 6a10 a9bd 5a04 bb3d
00000200: a4d3 e53d f6ae a73d 365a c5bd e46f 3d3d
00000210: 8c63 cdbd a8b3 88bc 7ced d2bd 8896 883d
00000220: 1afb 9c3d 94c6 a33d d48d 6bbd 222b f03d
00000230: 82bb b63d c099 843c 62f1 bdbd 3088 923d
00000240: d0f8 153d 9079 0f3c aa71 fabd ba4e 97bd
00000250: 903e 73bc ee13 eabd b4cb b43d 5888 c7bc
00000260: 889d 9abc e8c4 2d3d 70e4 563d 4c92 9ebd
00000270: 98d4 9c3c d449 73bd 069d d8bd 28f2 fc3d
00000280: 5805 fb3c 704e aebd b894 8dbd 0cd7 0f3d
00000290: 5a35 eebd 509d 2fbd c440 a93d 04d3 9bbd
000002a0: f430 d23d 9c2b 283d 7aeb d3bd 38ab 573d
000002b0: 76fe f33d 74dd 4a3d 586c d23d 0062 d3ba
000002c0: 729e c0bd e487 243d a069 033d 78d5 593d
000002d0: 2861 a1bc 04a4 80bd 44bf 133d a445 c0bd
000002e0: f01a d43d 5460 54bd 44ff ffbd da2b 903d
000002f0: 2076 d13b 20f0 23bd 6408 39bd 22f0 a7bd
00000300: 9169 443f 5932 36bc eea9 773f 8fe9 31be
00000310: c159 a2be b831 793f 5967 dcbe 0922 4dbe
00000320: 3067 82bc a1d0 703e 3ea8 943e b24a 1abf
00000330: d71f 803e 47fa 943e 31e7 a93f 160b 16bf
00000340: cb45 593e e5f0 c2be 1eb6 b43d 8277 923e
00000350: fb3b b9be 2985 d93e 53e1 153f 1997 193e
00000360: 6a68 273d 2c34 9c3f ad29 a1be 37a1 983e
00000370: b67f 383f 9cd8 ce3e d27c 05bd 03d6 cb3c
00000380: 40cd 96bc 1642 ab3d 4ca1 4b3d 242a f23d
00000390: 0414 28bd 48cf 6ebd 58ed a8bc ea4c ce3d
000003a0: f616 cc3d 9cbb 83bd 5007 f03d 8257 993d
000003b0: 0829 453d 3031 65bc 024d b53d 3443 8e3d
000003c0: 0690 9c3d 4c42 163d 4806 d8bc 3287 813d
000003d0: b873 b5bd 60e3 8a3b 14aa b3bd 402f a23c
000003e0: ee2e d53d 2428 ebbd 9c7d 05bd 7685 e0bd
000003f0: 9c9e c7bd 0870 913d 0077 183b b059 6d3c

tgnn._base_tgcn.linear_h.bias f4 [32]
0.39741638 0.22090614 -0.089107886 -0.13118401 0.39756718 0.68241 0.19521016 -0.10619929
0.20359129 0.66360074 0.31274587 0.33576167 0.26206663 0.28239772 -0.053697117 -0.12629332
-0.08333522 -0.027405486 0.14381889 0.6024541 0.5916146 -0.321516 0.29147756 0.27473608
0.18111125 0.7792543 0.76736724 0.43057284 0.41827023 0.264777 -0.0034676546 0.47413337
00000000: 297a cb3e 3835 623e 327e b6bd 1a55 06be
00000010: ed8d cb3e 6cb2 2e3f 2ce5 473e 037f d9bd
00000020: 3c7a 503e bde1 293f 3a20 a03e f4e8 ab3e
00000030: 992d 863e 6f96 903e 82f1 5bbd 0953 01be
00000040: a8ab aabd 7881 e0bc 4245 133e 6f3a 1a3f
00000050: 0e74 173f bf9d a4be 8c3c 953e 35aa 8c3e
00000060: 3a75 393e 367d 473f 2e72 443f 0b74 dc3e
00000070: 8427 d63e da90 873e 9741 63bb 9cc1 f23e

linear.weight f4 [16, 32]
0.3191829 -0.571483 -0.11142372 1.415036 0.7688764 -0.70610815 0.68101585 -0.051787853
0.65880483 -0.9837572 0.15339129 0.41884726 0.7584475 -0.568538 0.02540472 0.091960385
0.01706636 -0.11412977 0.73375124 -0.720102 -1.004675 -1.7016327 0.7027552 0.5674894
-0.221258 -1.6380901 -0.8176297 -0.81859374 -1.0145476 0.0780097 0.08048946 0.3643713
0.3140832 -0.6544787 0.04278122 1.2394716 0.83596957 -0.70095396 0.7144276 -0.043036036
0.76412296 -1.0021966 0.3560926 0.4226589 0.60744864 -0.6511786 -0.14197317 0.117471136
0.036463365 -0.05523041 0.65239924 -0.8057253 -1.0713872 -1.8002436 0.5815371 0.7899966
-0.12056489 -1.6127938 -0.8215649 -0.7976223 -1.1280029 0.14868286 0.1312343 0.5945187
0.57312787 -0.7682353 -0.11556661 1.1057477 0.7435752 -0.65470564 0.94317997 -0.10496654
0.55453545 -1.0410576 0.234469 0.5737677 0.65346354 -0.7927687 0.008555488 0.05849137
-0.13937864 -0.14554152 0.44024885 -0.9326898 -1.0555091 -1.924504 0.77194566 0.757501
-0.47675622 -1.5728431 -0.8719952 -0.87542707 -1.0551444 0.4348149 0.001525232 0.5540769
0.56971675 -0.87572134 0.007895321 0.9642867 0.90364003 -0.58902305 0.70281947 0.043840613
0.5553642 -1.069838 0.46971658 0.509627 0.6618898 -0.9931331 0.01831739 -0.1404911
0.17592205 0.12355836 0.5037818 -1.0425965 -1.0386347 -1.9979978 0.8735877 0.86188805
-0.4029104 -1.5195305 -0.93455374 -0.84655267 -1.1808116 0.24795973 -0.04456652 0.86959666
0.5623331 -0.95744514 -0.057647467 0.6672204 0.89902323 -0.7576924 0.92506206 0.08735913
0.7518263 -1.0157087 0.62860644 0.626566 0.67977667 -0.97792697 -0.02308166 -0.09487621
0.17476274 0.10485466 0.50327885 -1.1240263 -1.1217455 -2.0571473 0.6175801 0.8638013
-0.44543138 -1.4794636 -0.8619141 -0.7914571 -1.345821 0.27464938 0.0066551045 1.0389527
0.79585105 -1.0802369 0.16676386 0.49890557 0.92695874 -0.97772235 0.99562293 -0.03732955
0.5189533 -0.9942604 0.42261943 0.6708059 0.92162764 -1.1634647 -0.034789603 0.109137855
-0.09364671 -0.13452554 0.39072067 -1.1304618 -1.2094406 -2.103245 0.9068728 0.6418728
-0.42312196 -1.4061438 -0.75206757 -0.7504766 -1.5140265 0.60215914 0.07012463 1.0374743
0.58465415 -1.1548139 0.12310888 0.31208155 0.9744161 -0.83905965 0.9694525 0.04947257
0.71608007 -0.9312848 0.5605247 0.7587566 0.8251264 -1.320672 -0.11047336 -0.041528
-0.10396226 0.08113755 0.51156616 -1.3268126 -1.0578384 -2.1600008 0.6584571 0.6615605
-0.7944165 -1.277976 -0.9101353 -0.80543715 -1.5464134 0.5572997 0.03750951 1.3271213
0.8161345 -1.332408 -0.025357336 0.0673452 0.93338335 -0.98376745 1.0862399 -0.061065324
0.6560345 -0.9480966 0.8041041 0.6604714 0.7322507 -1.4923736 0.027038308 -0.089699514
-0.01727216 -0.021731004 0.42364755 -1.3619565 -1.098263 -2.1213548 0.849185 0.82431126
-0.75131696 -1.1957879 -0.7345515 -0.7115164 -1.5703895 0.47132367 0.021410936 1.1830305
00000000: f16b a33e b64c 12bf 1f32 e4bd e61f b53f
00000010: 15d5 443f 81c3 34bf 0e57 2e3f 801f 54bd
00000020: 6fa7 283f 83d7 7bbf 9b12 1d3e 2673 d63e
00000030: 9e29 423f b58b 11bf 8f1d d03c ba55 bc3d
00000040: c0ce 8b3c debc e9bd 1fd7 3b3f 9b58 38bf
00000050: 3199 80bf 1acf d9bf c4e7 333f fc46 113f
00000060: 7591 62be f0ac d1bf 2e50 51bf 5c8f 51bf
00000070: b2dc 81bf 8dc3 9f3d a8d7 a43d e08e ba3e
00000080: 83cf a03e eb8b 27bf 5c3b 2f3d 01a7 9e3f
00000090: 1a02 563f b871 33bf bae4 363f 8e46 30bd
000000a0: 909d 433f fa47 80bf c551 b63e bf66 d83e
000000b0: c181 1b3f a4b3 26bf 6a61 11be b594 f03d
000000c0: 9c5a 153d 4839 62bd a303 273f 0344 4ebf
000000d0: 3723 89bf 626e e6bf 9edf 143f 383d 4a3f
000000e0: baea f6bd 0770 cebf 1452 52bf fa30 4cbf
000000f0: 6662 90bf 5240 183e 4962 063e 6132 183f
00000100: 82b8 123f 12ab 44bf 30ae ecbd 2489 8d3f
00000110: f25a 3e3f ca9a 27bf 3e74 713f b3f8 d6bd
00000120: 09f6 0d3f 6041 85bf a418 703e 71e2 123f
00000130: 6349 273f e4f2 4abf 512c 0c3c a694 6f3d
00000140: 46b9 0ebe d608 15be 4c68 e13e c2c4 6ebf
00000150: ec1a 87bf 2656 f6bf 3b9e 453f 96eb 413f
00000160: 6419 f4be ec52 c9bf 143b 5fbf fd1b 60bf
00000170: f90e 87bf 0fa0 de3e 4bea c73a fcd7 0d3f
00000180: f5d8 113f 462f 60bf 605b 013c 7edb 763f
00000190: f454 673f 37ca 16bf faeb 333f 3792 333d
000001a0: 592c 0e3f 74f0 88bf b17e f03e ea76 023f
000001b0: 9c71 293f f93d 7ebf 5a0e 963c e6dc 0fbe
000001c0: e924 343e 2a0c fd3d d8f7 003f cd73 85bf
000001d0: fbf1 84bf 64be ffbf 72a3 5f3f b2a4 5c3f
000001e0: 464a cebe fa7f c2bf ea3e 6fbf adb7 58bf
000001f0: d624 97bf 28e9 7d3e 628b 36bd e39d 5e3f
00000200: 10f5 0f3f 201b 75bf c01f 6cbd f5ce 2a3f
00000210: 6326 663f 21f8 41bf ded0 6c3f 58e9 b23d
00000220: b077 403f be02 82bf 5aec 203f a166 203f
00000230: d805 2e3f 6c59 7abf c015 bdbc 754e c2bd
00000240: 01f5 323e 0abe d63d e2d6 003f 18e0 8fbf
00000250: 5b95 8fbf 4da8 03c0 bb19 1e3f 1522 5d3f
00000260: 950f e4be 105f bdbf 67a6 5cbf ef9c 4abf
00000270: dd43 acbf d89e 8c3e 1013 da3b 67fc 843f
00000280: e5bc 4b3f 3445 8abf 25c4 2a3e 8d70 ff3e
00000290: 2b4d 6d3f 034c 7abf 25e1 7e3f dfe6 18bd
000002a0: 20da 043f d987 7ebf 9361 d83e efb9 2b3f
000002b0: caef 6b3f 69ec 94bf 8b7f 0ebd ab83 df3d
000002c0: d9c9 bfbd 10c1 09be 8a0c c83e f9b2 90bf
000002d0: f3ce 9abf 919b 06c0 d128 683f c751 243f
000002e0: 71a3 d8be 85fc b3bf 8087 40bf 3c1f 40bf
000002f0: 9fcb c1bf 1a27 1a3f 819d 8f3d f5cb 843f
00000300: e5ab 153f f1d0 93bf 8220 fc3d 27c9 9f3e
00000310: 5573 793f 9dcc 56bf 0a2e 783f c0a3 4a3d
00000320: 0651 373f ae68 6ebf 8c7e 0f3f df3d 423f
00000330: 7c3b 533f c80b a9bf db3f e2bd 4419 2abd
00000340: 2aea d4bd 722b a63d 00f6 023f ffd4 a9bf
00000350: 4067 87bf 743d 0ac0 a590 283f 075c 293f
00000360: e15e 4bbf b894 a3bf a1fe 68bf 2131 4ebf
00000370: e0f0 c5bf 31ab 0e3f 92a3 193d 1cdf a93f
00000380: 31ee 503f 588c aabf 30ba cfbc 48ec 893d
00000390: 36f2 6e3f 2fd8 7bbf e909 8b3f a21f 7abd
000003a0: e1f1 273f 75b6 72bf c4d9 4d3f a714 293f
000003b0: c874 3b3f 1906 bfbf 717f dd3c 61b4 b7bd
000003c0: 587e 8dbc 3805 b2bc 55e8 d83e 9754 aebf
000003d0: e293 8cbf 47c4 07c0 3064 593f 1006 533f
000003e0: 4f56 40bf 940f 99bf 910b 3cbf f025 36bf
000003f0: 8602 c9bf 5651 f13e fd65 af3c 8b6d 973f

linear.bias f4 [16]
0.44968116 0.31661758 0.2857839 0.21513328 0.007237873 -0.04194857 -0.048502013 -0.12962392
-0.25889212 -0.26093853 -0.3471299 -0.33217734 -0.3187388 -0.3575547 -0.29635182 -0.3406675
00000000: 9c3c e63e b31b a23e 4452 923e e64b 5c3e
00000010: ae2b ed3b 44d2 2bbd 0caa 46bd 22bc 04be
00000020: 828d 84be bc99 85be 03bb b1be 2613 aabe
00000030: bb31 a3be 6911 b7be 6dbb 97be f86b aebe

linear2.weight f4 [6, 21]
0.7865539 0.6842164 0.038785953 -0.25028107 -0.2775858 0.39491725 -0.5272366 1.1135927
0.09301361 0.4125927 -0.90902454 -0.38175648 -0.104254544 -0.27421466 0.40983367 -0.56609267
-0.37083519 0.55220675 0.016429162 -0.31855384 0.010016379 -0.05104914 0.3526698 0.087010875
0.06603643 -0.7736792 0.55235887 0.7670998 0.27821496 -0.20661815 0.31261307 0.635227
-0.057367973 -0.1569659 0.19557145 -0.20808232 -0.36313313 0.120102994 -0.8935463 -0.066245064
0.072474554 0.36817002 0.42603764 -0.030061591 -0.08078842 -0.12081701 -0.35882005 0.14189555
0.23855625 0.64286715 0.1439347 -0.4899895 -0.14076252 -0.13971512 0.13064687 -0.34899983
0.7178936 -0.34879622 -0.17108181 -0.28391367 -0.13227019 -0.37614283 -0.17973946 -0.53211635
-0.24500613 0.11986162 -0.043495703 0.052635517 -0.2881974 0.20675151 -1.3450625 0.32961014
0.38766292 0.17245157 0.64072907 0.38940978 -0.45867148 -0.16157812 1.0236363 0.5309581
-0.024010224 -0.198664 0.33042443 0.26967922 0.036107387 -0.31836304 -0.27627182 0.5486995
0.9312274 -0.35699004 -0.35266203 0.34974787 0.08265754 -0.6716064 -0.21657313 -0.59097517
0.07004711 0.25950786 0.49088317 -0.24996349 -0.35353512 0.49747983 0.43141448 0.17983975
-0.06709302 -0.24798445 -0.32505703 -0.60363346 0.050162725 0.7512109 -0.13450836 -0.02418174
-0.95206386 0.43512434 0.04452265 0.2151361 0.16902195 0.6175574 -0.08754307 -0.0972479
0.57517606 0.32958972 0.30735114 -0.13980958 0.3002442 -0.106609285
00000000: 995b 493f ce28 2f3f 05de 1e3d d724 80be
00000010: ba1f 8ebe 9832 ca3e faf8 06bf 358a 8e3f
00000020: eb7d be3d 5a3f d33e d5b5 68bf 9675 c3be
00000030: 6883 d5bd dd65 8cbe b8d5 d13e 73eb 10bf
00000040: 1cde bdbe 6c5d 0d3f 7396 863c 7d19 a3be
00000050: bd1b 243c e718 51bd 2391 b43e c232 b23d
00000060: 1c3e 873d d70f 46bf 6467 0d3f a760 443f
00000070: 3172 8e3e b593 53be d20e a03e 3d9e 223f
00000080: aefa 6abd abbb 20be e243 483e 8813 55be
00000090: 96ec b9be 8ff8 f53d 73bf 64bf 7eab 87bd
000000a0: 8a6d 943d c880 bc3e 9b21 da3e ba43 f6bc
000000b0: 6674 a5bd e96e f7bd 43b7 b7be 114d 113e
000000c0: 1748 743e f192 243f 9e63 133e e7df fabe
000000d0: 0d24 10be 7b11 0fbe 4bc8 053e 1bb0 b2be
000000e0: e0c7 373f 6b95 b2be 1230 2fbe 225d 91be
000000f0: d671 07be cb95 c0be 9f0d 38be c738 08bf
00000100: e3e2 7abe 027a f53d 8d28 32bd 5798 573d
00000110: 9c8e 93be abb6 533e 022b acbf a9c2 a83e
00000120: c17b c63e 2597 303e d206 243f b860 c73e
00000130: fdd6 eabe bc74 25be 8406 833f dfec 073f
00000140: 17b1 c4bc 936e 4bbe 642d a93e 6513 8a3e
00000150: 57e5 133d 7b00 a3be 8073 8dbe 9277 0c3f
00000160: eb64 6e3f 66c7 b6be 1e90 b4be 2712 b33e
00000170: 5b48 a93d 66ee 2bbf 59c5 5dbe 264a 17bf
00000180: dc74 8f3d 37de 843e 0a55 fb3e 6ef6 7fbe
00000190: 8e02 b5be adb5 fe3e 5ce2 dc3e e927 383e
000001a0: 1168 89bd a3ef 7dbe e06d a6be b987 1abf
000001b0: 6e77 4d3d 5c4f 403f 8fbc 09be c918 c6bc
000001c0: 75ba 73bf 9ec8 de3e 625d 363d a34c 5c3e
000001d0: 1714 2d3e 3e18 1e3f c849 b3bd e829 c7bd
000001e0: bd3e 133f fcbf a83e 215d 9d3e 3e2a 0fbe
000001f0: 9cb9 993e f855 dabd

linear2.bias f4 [6]
-0.49139994 0.17668413 -1.8427001 0.37326849 0.67319924 -1.0766958
00000000: c698 fbbe afec 343e 99dd ebbf 0c1d bf3e
00000010: c956 2c3f 2bd1 89bf
