A3TGCN2_Checkpoints/Epoch_14.pth (torch, 35255 bytes, 17 tensors)

tgnn._attention f4 [16]
0	0x3fa122c4	1.2588735
1	0x3f72e4d5	0.9488042
2	0x3f284637	0.6573214
3	0xbc44522b	-0.011982481
4	0x3eb26ce6	0.34848708
5	0xbe18efc2	-0.1493521
6	0xbe8d6d04	-0.27622235
7	0x3eabefa5	0.33581272
8	0x3e143ec2	0.14477065
9	0x3d6256b2	0.05525846
10	0x3e8f81f2	0.28028828
11	0x3ef8b0d6	0.48572415
12	0x3ed6bf1b	0.41942677
13	0x3f3ddaa3	0.7416174
14	0x3f67f631	0.90610033
15	0x3faa23b8	1.329215

tgnn._base_tgcn.conv_z.bias f4 [32]
0	0x3f005f4f	0.5014543
1	0x3ef42055	0.47680917
2	0x3dc5ea82	0.096638694
3	0xbd35bd94	-0.04437025
4	0xbd14da19	-0.036340807
5	0xbec108ed	-0.37702122
6	0xbeb177ef	-0.34661815
7	0xbef9c078	-0.48779655
8	0x3f0d15bb	0.55111283
9	0x3f0a8b84	0.54119134
10	0xbf0c2dbf	-0.54757303
11	0xbf02d957	-0.51112884
12	0x3d105426	0.0352365
13	0x3dab4d20	0.0836432
14	0x3ef5d05a	0.48010522
15	0x3ef7815c	0.4834088
16	0xbf015889	-0.5052572
17	0x3f0ec1d4	0.5576451
18	0x3e8f9697	0.28044578
19	0x3f0e7f8d	0.5566338
20	0x3f02dc31	0.51117235
21	0xbef4054e	-0.47660297
22	0xbf08e015	-0.5346692
23	0x3ef6ece3	0.48227605
24	0xbed76685	-0.42070404
25	0xbeecaf6b	-0.46227583
26	0xbedbb4a6	-0.4291126
27	0x3ede8c27	0.43466303
28	0x3ecb8bc8	0.39755082
29	0xbea5aa4f	-0.32356498
30	0x3eb206c3	0.34770784
31	0x3f012cb3	0.5045883

tgnn._base_tgcn.conv_z.lin.weight f4 [32, 3]
0	0xbe40019c	-0.18750614
1	0xbeca8f19	-0.395623
2	0xbf95c502	-1.1700747
3	0x3e56e1aa	0.20984522
4	0xbf072eea	-0.5280596
5	0xbf385798	-0.7200866
6	0xbea2fd0a	-0.31833678
7	0x3e820569	0.25394753
8	0xbedea6b7	-0.43486568
9	0xbe7c4bea	-0.24638334
10	0x3f3e1eae	0.74265563
11	0x3f8c7bdc	1.0975299
12	0x3e66e3fd	0.22547908
13	0xbec40032	-0.382814
14	0x3e20e7d6	0.15713438
15	0xbdd44a66	-0.10365753
16	0x3f0e93d7	0.55694336
17	0x3f90631b	1.1280245
18	0xbeb60643	-0.35551652
19	0xbd32c404	-0.043643966
20	0x3ecc1d47	0.39866087
21	0xbcfe5183	-0.031044727
22	0x3eb1483a	0.34625417
23	0x3f4b3691	0.79380137
24	0x3e34cfb4	0.17657357
25	0xbf0b8e3f	-0.54513925
26	0xbf69a5e2	-0.9126874
27	0x3e9c1718	0.3048637
28	0xbf580865	-0.8438781
29	0xbf68d3e9	-0.9094835
30	0x3e0d29f4	0.13785535
31	0x3f08ed93	0.5348751
32	0x3f24f6e7	0.64439243
33	0xbea928f1	-0.33039048
34	0x3f10024b	0.562535
35	0x3f122308	0.57084703
36	0xbd55d90b	-0.05220894
37	0x3ef3c0f6	0.47608155
38	0xbeb0636d	-0.34450856
39	0xbf3719ba	-0.7152363
40	0x3d9ffe85	0.078122176
41	0x3f2c9d88	0.67427874
42	0x3e8b764d	0.27238694
43	0xbf037220	-0.51346016
44	0xbf4cb72f	-0.79967016
45	0x3bbe879a	0.005814505
46	0xbead40a0	-0.33838367
47	0xbfa30625	-1.273625
48	0xbdd61e75	-0.10455028
49	0x3ef27f27	0.47362635
50	0x3f22664a	0.6343733
51	0x3e03cfb9	0.12872209
52	0xbf30959b	-0.6897828
53	0xbfa52b12	-1.2903769
54	0xbea41691	-0.32048467
55	0xbe1a7279	-0.1508273
56	0xbe11b6f8	-0.14229953
57	0xbdde2b63	-0.10848119
58	0xbf02936a	-0.51006186
59	0xbf9eff0a	-1.2421582
60	0x3ea312e1	0.3185034
61	0xbef56aca	-0.47933036
62	0xbf2ed7aa	-0.6829783
63	0xbda9e054	-0.0829474
64	0x3ecfbbb3	0.4057289
65	0x3ed1698a	0.40900832
66	0xbe7cb1c7	-0.24677192
67	0x3f4ce58b	0.80037755
68	0x3f8e605a	1.1123154
69	0x3e03464a	0.12819782
70	0xbe96214f	-0.29322287
71	0xbf96608f	-1.1748217
72	0x3e4b7baa	0.19871393
73	0x3e3e9fd1	0.18615653
74	0x3f75130b	0.9573218
75	0x3df23434	0.11826363
76	0x3e100206	0.14063272
77	0x3f6db2bf	0.9285087
78	0x3ee614b8	0.44937682
79	0x3e9c3383	0.3050805
80	0x3ee4febf	0.44725606
81	0xbee69e4c	-0.45042646
82	0xbec3467f	-0.38139722
83	0xbeb0d74c	-0.34539258
84	0x3e050562	0.12990335
85	0xbe0c265d	-0.1368651
86	0xbf3768b2	-0.7164413
87	0x3f49ecda	0.7887703
88	0x3f816739	1.0109626
89	0x3f2ba362	0.6704618
90	0xbde26a1d	-0.11055396
91	0xbfa548fc	-1.2912898
92	0xbf0673b6	-0.5252031
93	0x3a53d97d	0.00080814195
94	0xbf06a253	-0.5259144
95	0xbf78ecac	-0.9723613

tgnn._base_tgcn.linear_z.weight f4 [32, 64]
0	0xbf6f6b5a	-0.9352318
1	0xbf1972ac	-0.599406
2	0x3d136179	0.03598163
3	0x3f570596	0.839929
4	0xbdf0541a	-0.11734791
5	0x3f7ce4a0	0.98786354
6	0x3e13f630	0.14449382
7	0x3ea2439d	0.3169221
8	0xbf32d06d	-0.6984928
9	0xbf86baa3	-1.0525707
10	0x3f886a87	1.065751
11	0x3effac48	0.49936128
12	0xbb98fd7a	-0.0046688886
13	0xbecd9b3e	-0.40157503
14	0xbf20e3e6	-0.62847745
15	0xbf39beb4	-0.72556615
16	0x3f2ce94d	0.6754349
17	0xbf99a786	-1.2004249
18	0xbea42777	-0.3206136
19	0xbfacc0cb	-1.3496336
20	0xbed019a9	-0.40644577
21	0x3f0d06a4	0.5508826
22	0x3f955a24	1.1668134
23	0xbebb28b9	-0.36554506
24	0x3ee4f213	0.44715938
25	0x3e9910ed	0.29895726
26	0x3f2ff040	0.6872597
27	0xbf6b14df	-0.9182872
28	0xbe838aad	-0.2569174
29	0x3edaa755	0.4270579
30	0xbf370ded	-0.71505624
31	0xbf8a940a	-1.0826428
32	0x3ca5dba8	0.020246342
33	0x3d64c704	0.05585386
34	0x3d376430	0.04477328
35	0x3d1089a4	0.035287514
36	0x3cbd8e88	0.023139253
37	0xbcb79138	-0.022408113
38	0x3deae07c	0.11468598
39	0xbc941b58	-0.018079445
40	0xbd60348c	-0.054737613
41	0x3d9ddff8	0.07708734
42	0xbd3d5e3c	-0.046232447
43	0x3dec22ce	0.11530076
44	0x3de290f0	0.11062801
45	0xbdaba19e	-0.083804354
46	0xbdd24a90	-0.10268128
47	0xbd276020	-0.040863156
48	0x3da5223e	0.08063172
49	0xbdd291bc	-0.10281703
50	0x3d8af502	0.06785013
51	0xbdfe2028	-0.12408477
52	0xbcc31510	-0.023813754
53	0xbd06ae1c	-0.032880887
54	0x3c592e50	0.013255671
55	0x3dcec97c	0.10097024
56	0xbdb40a88	-0.08791071
57	0x3b072f80	0.0020627677
58	0x3bc81160	0.006105587
59	0xbd56c170	-0.05243057
60	0x3c0d2900	0.008615732
61	0x3db887ca	0.09010275
62	0xbd9ca6e4	-0.07649019
63	0x3da2020c	0.07910547
64	0xbeb37cc7	-0.35056135
65	0xbee6d77c	-0.45086277
66	0xbead91c9	-0.33900288
67	0xbd866cea	-0.065637425
68	0x3ee02b62	0.43783098
69	0x3f208368	0.6270051
70	0x3f0090f6	0.5022119
71	0x3ef492f4	0.47768366
72	0xbebb89ed	-0.36628667
73	0xbef1eeac	-0.47252405
74	0x3e5378c8	0.20651543
75	0x3f062f42	0.5241586
76	0xbf03d7bd	-0.51501065
77	0x3f235860	0.63806725
78	0xbf0208ed	-0.5079487
79	0xbef16a27	-0.471513
80	0x3e6d0c52	0.23149231
81	0xbf1f1383	-0.6213915
82	0xbd5859ae	-0.0528199
83	0xbef28c79	-0.47372797
84	0xbec84323	-0.3911372
85	0x3eb9e602	0.36308295
86	0x3ef26807	0.47344992
87	0xbeec7eab	-0.4619039
88	0x3ea90920	0.33014774
89	0x3f013f8a	0.5048758
90	0x3e0c2d09	0.13689055
91	0x3d6b62d5	0.0574673
92	0xbea7b8b6	-0.3275811
93	0x3c819ffa	0.015823353
94	0xbe99f453	-0.30069217
95	0xbecbc89e	-0.39801496
96	0x3dbfcfd2	0.093658105
97	0x3d5cda4c	0.05391912
98	0xbd9759c2	-0.07390167
99	0xbd8eab42	-0.069662586
100	0x3ce24090	0.027618676
101	0x3d10e8f8	0.035378426
102	0x3d8797c6	0.06620745
103	0xbdbb660e	-0.09150325
104	0x3df6a7ee	0.12043749
105	0xbcc94720	-0.024570048
106	0x3d339b5c	0.043849334
107	0xbd5b6d64	-0.05357112
108	0x3d433538	0.047658175
109	0x3ddaa082	0.10675146
110	0xbdb84d72	-0.089991465
111	0x3c392780	0.011300921
112	0x3c7af590	0.015317336
113	0xbc93ae30	-0.018027395
114	0xbd0c6ad4	-0.034281567
115	0x3cc63050	0.02419296
116	0x3cbd74d0	0.02312699
117	0xbd519f78	-0.051177472
118	0x3d35655c	0.044286117
119	0x3dd57bda	0.104240134
120	0x3cfa1138	0.030525789
121	0xbd82a736	-0.06379549
122	0xbc99b3e8	-0.018762544
123	0xbd0399bc	-0.032129034
124	0x3dff8eb2	0.12478389
125	0xbd84f17a	-0.064913705
126	0x3d99ab2e	0.07503353
127	0xbdfe9f46	-0.12432723
128	0x3d37e158	0.04489264
129	0xbdf1b328	-0.118017495
130	0xbc5987b0	-0.013276979
131	0xbdc19d9a	-0.09453888
132	0xbdd117b8	-0.10209602
133	0x3cb759e0	0.022381723
134	0x3dbecc76	0.093163416
135	0x3dba0ac0	0.09084082
136	0xbd598f04	-0.053114906
137	0xbd14bb34	-0.036311343
138	0xbcab8b68	-0.020940498
139	0xbb5cc780	-0.0033688247
140	0xbda78b58	-0.081808746
141	0xbb8df180	-0.0043317676
142	0x3d98f48a	0.07468517
143	0x3dd69a4a	0.10478647
144	0x3dc4cf34	0.09609833
145	0xbd78e550	-0.060765564
146	0x3d963b64	0.073355466
147	0x3d881408	0.06644446
148	0x3ddc3500	0.107522964
149	0xbd06be3c	-0.032896265
150	0xbdc35872	-0.09538354
151	0x3c6ca170	0.014442787
152	0x3d854736	0.06507723
153	0xbce7a488	-0.028276697
154	0x3c1e61f0	0.009666905
155	0xbc932458	-0.017961666
156	0xbdd9ba8a	-0.10631283
157	0x3d17105c	0.036880836
158	0x3d02d9d8	0.031946033
159	0x3b2a9d00	0.002603352
160	0xbdd4c39a	-0.103888705
161	0x3d4ce114	0.05001934
162	0x3b9fd340	0.004877478
163	0xbde1abb0	-0.11019075
164	0xbddde0b2	-0.10833873
165	0x3c60b860	0.013715833
166	0x3c726510	0.014794603
167	0x3c23daf0	0.010000929
168	0x3d82217a	0.063540414
169	0xba1b2400	-0.0005918145
170	0x3df3f7fa	0.11912532
171	0xbd11c80c	-0.03559117
172	0xbd9136f0	-0.070905566
173	0xbdb36646	-0.087597415
174	0xbd7a5b80	-0.061122417
175	0x3df685d0	0.120372415
176	0x3d80ac46	0.062828586
177	0xbd3c11f4	-0.04591556
178	0xbdacaaf8	-0.08431047
179	0xbc0933c0	-0.008374155
180	0x3db23ec4	0.08703378
181	0x3df7fda0	0.12108922
182	0xbde94b26	-0.113912866
183	0xbd6f9b30	-0.058497608
184	0xbdd43d52	-0.103632584
185	0xbcbca818	-0.023029372
186	0xbc933dc8	-0.017973796
187	0x3de6c6e8	0.11268407
188	0x3df61a1c	0.12016699
189	0x3dec2bdc	0.11531803
190	0xbd4c32cc	-0.04985313
191	0xbd5ec020	-0.054382443
192	0xbf517132	-0.8181335
193	0xbf25e2af	-0.64799017
194	0xbc841157	-0.01612155
195	0xbe00b45c	-0.12568802
196	0xbd3ca5cd	-0.046056557
197	0x3f4551c7	0.7707791
198	0x3e57f683	0.2109013
199	0x3ec3d8ba	0.38251287
200	0xbf1c45b4	-0.6104386
201	0xbf58f37e	-0.8474654
202	0x3f4c7b47	0.79875606
203	0x3ef8941f	0.48550507
204	0x3e5aa959	0.21353664
205	0xbe8873e2	-0.26650912
206	0xbef88a25	-0.48542896
207	0xbf0c9d56	-0.54927576
208	0x3efd8e19	0.49522474
209	0xbf3c5c3f	-0.73578256
210	0xbf010f7b	-0.50414246
211	0xbf37429e	-0.71586025
212	0xbf169e32	-0.58835137
213	0x3f1b0a00	0.60562134
214	0x3f8471be	1.0347211
215	0xbe87888d	-0.26471367
216	0x3ecb6f3d	0.39733306
217	0x3e91f3e1	0.28506377
218	0x3f277d2a	0.6542536
219	0xbf70bfcd	-0.94042665
220	0xbe4f9015	-0.20269807
221	0x3f210130	0.62892437
222	0xbf9efa35	-1.2420107
223	0xbf5975d7	-0.84945434
224	0x3d605048	0.054764062
225	0xbdb0e9ba	-0.0863833
226	0xbdb4fa48	-0.088368
227	0x3d4ed560	0.05049646
228	0xbd3cdb48	-0.04610756
229	0x3d40e620	0.047094464
230	0x3dc69eaa	0.096982315
231	0xbd388f10	-0.04505831
232	0xbc9989f0	-0.018742532
233	0xbdc8f60e	-0.09812556
234	0xbdc6531c	-0.096838206
235	0x3c88dd20	0.016707003
236	0x3cc4a908	0.024006382
237	0xbdcbdb8e	-0.09953986
238	0xbdd33c42	-0.10314228
239	0x3d84be3c	0.06481597
240	0xbb9f6c60	-0.004865214
241	0x3dd9320a	0.10605247
242	0x3dda115a	0.10647841
243	0x3d1e80c8	0.038697034
244	0xbc7f42c0	-0.015579879
245	0x3d43942c	0.04774873
246	0x3db2cc24	0.08730343
247	0x3dec2dd2	0.11532177
248	0x3dc0d344	0.09415296
249	0xbdd7279c	-0.10505602
250	0xbd85e200	-0.06537247
251	0xbdf441da	-0.11926623
252	0xbde0a6a4	-0.10969284
253	0x3c60a5e0	0.013711423
254	0x3df5858c	0.11988363
255	0x3d0a8098	0.033814043

tgnn._base_tgcn.linear_z.bias f4 [32]
0	0xbec8cbfe	-0.39218134
1	0xbe80422f	-0.25050494
2	0x3df209fa	0.11818309
3	0xbeaa1af6	-0.33223695
4	0xbecd547c	-0.4010352
5	0xbe88b8cc	-0.2670349
6	0xbe9f8da6	-0.31162757
7	0x3c7d1da9	0.015448966
8	0xbed80f12	-0.42198998
9	0xbe2ba26f	-0.16761182
10	0xbeca654b	-0.39530405
11	0xbecb4dfd	-0.39707938
12	0xbef104b1	-0.47073892
13	0xbf00f6eb	-0.50376767
14	0xbbc011c0	-0.005861491
15	0x3d8c6e33	0.06856956
16	0x3d792d1c	0.060834035
17	0xbde35078	-0.110993326
18	0xbed2659b	-0.41093144
19	0xbe9d1153	-0.3067728
20	0xbe53c26d	-0.20679636
21	0x3f021645	0.5081523
22	0xbea135b9	-0.314863
23	0xbed25336	-0.4107911
24	0xbe3deb21	-0.18546726
25	0xbea85ac2	-0.32881743
26	0xbdcc5903	-0.09977915
27	0xbe854899	-0.2603195
28	0xbde589e7	-0.112079434
29	0xbecdc7a7	-0.40191385
30	0x3df53c78	0.11974424
31	0xbe9f3a85	-0.31099334

tgnn._base_tgcn.conv_r.bias f4 [32]
0	0x00000000	0.0
1	0x00000000	0.0
2	0x00000000	0.0
3	0x00000000	0.0
4	0x00000000	0.0
5	0x00000000	0.0
6	0x00000000	0.0
7	0x00000000	0.0
8	0x00000000	0.0
9	0x00000000	0.0
10	0x00000000	0.0
11	0x00000000	0.0
12	0x00000000	0.0
13	0x00000000	0.0
14	0x00000000	0.0
15	0x00000000	0.0
16	0x00000000	0.0
17	0x00000000	0.0
18	0x00000000	0.0
19	0x00000000	0.0
20	0x00000000	0.0
21	0x00000000	0.0
22	0x00000000	0.0
23	0x00000000	0.0
24	0x00000000	0.0
25	0x00000000	0.0
26	0x00000000	0.0
27	0x00000000	0.0
28	0x00000000	0.0
29	0x00000000	0.0
30	0x00000000	0.0
31	0x00000000	0.0

tgnn._base_tgcn.conv_r.lin.weight f4 [32, 3]
0	0x3e2dbb1e	0.16965911
1	0xbd19d140	-0.037553072
2	0x3d6d9168	0.058
3	0x3e9d845b	0.30765042
4	0xbe958766	-0.29204863
5	0xbca54bc0	-0.020177722
6	0xbe0fc728	-0.14040816
7	0xbe90129a	-0.28139192
8	0x3dc07464	0.093972
9	0x3c34dfe0	0.011039704
10	0x3dc5845c	0.09644386
11	0x3ea84d07	0.32871267
12	0xbe9065a7	-0.28202555
13	0xbd1d18a0	-0.038353562
14	0xbde90a64	-0.11378935
15	0x3e802c9b	0.2503403
16	0xbd8f5534	-0.06998673
17	0xbeb94f84	-0.36193478
18	0x3caf6ea0	0.021415055
19	0x3e071ea2	0.13195279
20	0x3e253ebe	0.16137215
21	0xbdced154	-0.1009852
22	0x3e17a1f2	0.14807871
23	0x3d8c5ea8	0.06853992
24	0x3e4e33d6	0.20136961
25	0x3e76bd72	0.24095705
26	0xbe3b6a1a	-0.18302193
27	0xbe903fa0	-0.28173542
28	0x3dbb429c	0.09143564
29	0x3e6e993a	0.23300639
30	0x3e130422	0.14357045
31	0xbe3d30cc	-0.18475646
32	0xbe9c0b49	-0.3047736
33	0x3dbbbb6c	0.09166607
34	0x3e8f6c8f	0.2801251
35	0xbe3e1b77	-0.18565165
36	0xbe735202	-0.23761752
37	0x3ea07dbf	0.31345937
38	0xbec0c99d	-0.3765382
39	0x3e9dcd8f	0.3082089
40	0xbc081760	-0.008306354
41	0x3dfacb5c	0.12245819
42	0xbe173ecc	-0.14770049
43	0xbe81fed0	-0.2538972
44	0x3ec9d953	0.39423618
45	0x3e2a6586	0.1664029
46	0xbda73474	-0.081643015
47	0xbe7794e2	-0.24177888
48	0x3e9a265d	0.30107394
49	0xbe358dc1	-0.17729856
50	0x3e7b6c5e	0.24553058
51	0x3e29eec6	0.16594991
52	0xbe8ad3b4	-0.27114642
53	0x3e2e16fa	0.17000952
54	0xbc5f86e0	-0.013642997
55	0x3e8ce079	0.2751501
56	0xbe34e29d	-0.17664571
57	0xbebe0f98	-0.37121272
58	0xbec97850	-0.39349604
59	0xbe73b836	-0.2380074
60	0x3e906677	0.28203174
61	0xbe7e96b2	-0.24862173
62	0xbdc8c428	-0.09803039
63	0xbc0bf8a0	-0.008543164
64	0xbb1da380	-0.0024053752
65	0xbda0a180	-0.07843304
66	0xbe78de44	-0.24303538
67	0xbd90ab74	-0.07063952
68	0xbe9f1f1e	-0.31078428
69	0xbeb5980f	-0.35467574
70	0x3e77e6fe	0.2420921
71	0xbe5984e0	-0.21242094
72	0x3e77a8ae	0.2418544
73	0xbe479047	-0.19488631
74	0x3e3d2cba	0.18474093
75	0xbd960f64	-0.07327154
76	0xbe1f8030	-0.15576243
77	0x3e3d74b6	0.18501553
78	0x3e1e642e	0.15467903
79	0x3dbd081c	0.09230062
80	0x3b54b580	0.0032456815
81	0xbd8479c8	-0.064685404
82	0xbecdfa35	-0.40229955
83	0xbd95e858	-0.07319707
84	0x3eb1456d	0.3462328
85	0x3e967091	0.29382756
86	0x3dbfee94	0.09371677
87	0x3e4b53f2	0.19856241
88	0xbd4ff650	-0.05077201
89	0xbe836d5e	-0.25669378
90	0xbe36b079	-0.17840756
91	0x3e30cd92	0.17265919
92	0x3ecd9f09	0.40160397
93	0x3e143f96	0.14477381
94	0xbd782570	-0.06058258
95	0xbeb693d6	-0.35659665

tgnn._base_tgcn.linear_r.weight f4 [32, 64]
0	0xbd970bf8	-0.0737533
1	0x3ceae498	0.028673455
2	0xbd037fe8	-0.032104403
3	0xbdfe962e	-0.12430988
4	0x3cc3bbe8	0.023893312
5	0x3d472720	0.048621297
6	0x3dcb6352	0.09931053
7	0xbd6555ac	-0.055989906
8	0x3dad23f2	0.08454122
9	0xbde136a2	-0.109967485
10	0x3cdda940	0.027058244
11	0x3cab0898	0.020878121
12	0xbdbc6012	-0.091980115
13	0x3d76ede4	0.060285464
14	0x3de20d46	0.11037688
15	0xbd805a34	-0.06267205
16	0xbd2f4608	-0.042791396
17	0x3c941060	0.018074214
18	0x3db702f4	0.0893611
19	0xbd8e6246	-0.06952338
20	0xbd435ea4	-0.04769768
21	0x3d373864	0.044731513
22	0x3d271ac0	0.040796995
23	0x3d72c288	0.05926755
24	0x3dcc53e4	0.09976938
25	0x3de806dc	0.11329433
26	0x3db67b4c	0.08910236
27	0x3d6b40c8	0.057434827
28	0x3d9384ee	0.07203089
29	0x3d99833c	0.07495734
30	0xbde128e2	-0.10994126
31	0x3b8fd180	0.004388988
32	0xbdd6af22	-0.10482623
33	0x3cbc22c0	0.022965789
34	0x3d5b78b0	0.053581893
35	0xbd720358	-0.05908522
36	0x3ddf665a	0.10908194
37	0x3d61f370	0.0551638
38	0x3d5f8cc0	0.05457759
39	0x3c30be30	0.010787532
40	0xbd70a9e4	-0.05875577
41	0x3cca8908	0.024723545
42	0x3d8e736a	0.06955607
43	0x3dc73ab4	0.097279936
44	0x3dd2c8a8	0.102921784
45	0x3d8c7f9a	0.068602756
46	0x3da0a05e	0.078430876
47	0xbd8dfc74	-0.06932917
48	0xbc9e22a0	-0.01930362
49	0xbd170994	-0.03687437
50	0x3da727a4	0.08161858
51	0xbdb7fa1e	-0.08983253
52	0x3dcff0e8	0.10153371
53	0xbc98ec40	-0.01866734
54	0x3df26fcc	0.1183773
55	0x3d22a514	0.039708212
56	0x3dc75700	0.09733391
57	0xbd0b7104	-0.034043327
58	0x3dd2a194	0.10284725
59	0xbda48dfa	-0.080348924
60	0x3c7b7530	0.015347764
61	0x3b14dc00	0.0022714138
62	0x3df9960e	0.12186824
63	0x3d0200ec	0.03173916
64	0xbd265380	-0.040606976
65	0xbd9a776e	-0.07542311
66	0x3dc64a0c	0.09682092
67	0xbd58f44c	-0.052967355
68	0xbd967008	-0.07345587
69	0xbdfb1ce6	-0.12261371
70	0xbc366e50	-0.011134699
71	0xbdcaceec	-0.099027485
72	0xbcba5e58	-0.022750065
73	0xbd8849e2	-0.06654717
74	0x3dfc6a38	0.12324947
75	0xbd9c8546	-0.076426074
76	0x3dad3030	0.08456457
77	0x3de936b8	0.1138739
78	0x3da30e68	0.07961732
79	0xbc8b27f8	-0.016986832
80	0xbcd47cf8	-0.025938496
81	0x3dcbc44c	0.0994955
82	0x3d9edac8	0.07756573
83	0xbd13f334	-0.03612061
84	0x3dff3852	0.12461914
85	0xbdba6e5c	-0.09103081
86	0x3da1f6ca	0.079083994
87	0xbb9b4420	-0.0047383457
88	0x3d289d20	0.04116547
89	0x3de4afea	0.111663654
90	0x3dee535e	0.11636995
91	0xbcbca678	-0.023028597
92	0xbda7c654	-0.08192125
93	0x3dbd3204	0.09238055
94	0x3dc18e04	0.094509155
95	0x3db830f6	0.089937136
96	0x3d9bb826	0.07603483
97	0x3d429468	0.047504812
98	0x3db2d5d0	0.08732188
99	0xbdd1f0c6	-0.10251002
100	0x3d1ec5a0	0.03876269
101	0x3dfa2d04	0.12215617
102	0x3da72522	0.081613794
103	0x3d094174	0.033509687
104	0xbdf23890	-0.11827195
105	0x3df27578	0.11838812
106	0xbd931e0a	-0.07183464
107	0xbdcb000a	-0.09912117
108	0x3dc13996	0.09434812
109	0xbd553c54	-0.052059487
110	0x3d435e94	0.04769762
111	0x3d1b2e1c	0.03788577
112	0x3c32f150	0.010921791
113	0xbd396e2c	-0.045271084
114	0xbdd3d532	-0.10343398
115	0x3df7b774	0.12095538
116	0xbc844628	-0.016146734
117	0x3d7d3bb8	0.06182453
118	0xbccb6920	-0.024830401
119	0x3ded9cc6	0.11602168
120	0x3dd4eaac	0.103963226
121	0xbd9ffd06	-0.07811932
122	0xbdf6d692	-0.12052645
123	0x3d0ee4fc	0.034886345
124	0xbc1a6d90	-0.009425536
125	0xbcb2baf8	-0.02181767
126	0xbdfc3794	-0.12315288
127	0xbdc2fd28	-0.09520942
128	0x3d5f4618	0.054510206
129	0xbc6467e0	-0.013940781
130	0x3dc343e8	0.095344365
131	0x3d92957a	0.07157417
132	0x3d3ff5e0	0.046865344
133	0x3ca599c0	0.020214915
134	0xbca9f0a8	-0.020744637
135	0x3ca76930	0.0204359
136	0x3db8f19a	0.09030457
137	0xbd194b1c	-0.037425146
138	0x3d808a24	0.06276348
139	0x3d9b82ac	0.07593283
140	0x3dafa004	0.085754424
141	0xbb451cc0	-0.003007695
142	0xbddfbede	-0.10925077
143	0x3d5d7db0	0.054074943
144	0x3df5d726	0.12003927
145	0x3c9cab98	0.019124791
146	0xbd40aadc	-0.047037944
147	0x3bce6620	0.0062987953
148	0xbd363bd4	-0.04449065
149	0xbb9bfe80	-0.0047605634
150	0xbd8be8e6	-0.06831531
151	0xbd1fffe0	-0.03906238
152	0x3d12e5d4	0.035863712
153	0xbca72490	-0.020403177
154	0xbda37908	-0.07982069
155	0xbd8b6eb0	-0.06808221
156	0x3cc7f1e0	0.024407327
157	0xbdb69b60	-0.08916354
158	0x3dc8820c	0.097904295
159	0x3daa62de	0.08319639
160	0xbc0cd650	-0.008596018
161	0x3d593e40	0.05303788
162	0xbda1dc6c	-0.0790337
163	0x3db182bc	0.08667514
164	0xbd778ee0	-0.06043899
165	0xbdecafa8	-0.11556941
166	0xbd636510	-0.055516303
167	0x3d8fe710	0.070264935
168	0xbd02128c	-0.03175597
169	0xbbf7a6c0	-0.00755772
170	0xbda40470	-0.08008659
171	0x3d9b4382	0.075812355
172	0xbdfcb68c	-0.123395056
173	0x3d10e204	0.035371795
174	0xbde81e64	-0.113339216
175	0x3db0003c	0.08593795
176	0x3d13c358	0.036074966
177	0xbd707274	-0.0587029
178	0x3b4c4400	0.003116846
179	0xbcd69f68	-0.026199058
180	0xbd6efbf8	-0.058345765
181	0x3de01ad4	0.10942617
182	0xbde05204	-0.10953143
183	0xbc006000	-0.007835388
184	0x3de3fc48	0.11132103
185	0x3ce363a0	0.027757466
186	0xbdd1f064	-0.10250929
187	0xbde0b8a0	-0.109727144
188	0x3bd88c80	0.006608546
189	0x3d3ce7ec	0.046119615
190	0xbd3b4ff8	-0.04573056
191	0xbdb057ee	-0.08610521
192	0x3afe5280	0.0019403249
193	0x3d12e97c	0.0358672
194	0xbdcf9854	-0.10136476
195	0xbdbc2412	-0.09186567
196	0x3c9187c0	0.017764926
197	0xbda543fc	-0.080696076
198	0xbcead9e8	-0.028668359
199	0xbd664fcc	-0.056228444
200	0x3d7df264	0.06199874
201	0x3dba98e4	0.09111193
202	0xbdf9553e	-0.12174462
203	0x3df50906	0.11964612
204	0x3def95c2	0.11698486
205	0xbde4aa30	-0.11165273
206	0x3da3929e	0.079869494
207	0xbd043d60	-0.032285094
208	0xbd1a90ac	-0.037735626
209	0x3d842178	0.06451696
210	0x3d9d21ce	0.07672463
211	0xbc896fc8	-0.016776934
212	0x3dfb4832	0.122696295
213	0xbdda1364	-0.1064823
214	0xbcdc1398	-0.026864812
215	0xbd776ec8	-0.060408384
216	0xbde0b87c	-0.109726876
217	0x3dff3f20	0.12463212
218	0xbdbb4a14	-0.09144989
219	0xbdb5c16c	-0.08874783
220	0xbdba0acc	-0.090840906
221	0x3d8efa94	0.06981388
222	0xbdca9978	-0.09892553
223	0x3cc4e560	0.024035156
224	0x3dbaa912	0.09114279
225	0x3d23c404	0.039981857
226	0xbcf4e1c0	-0.029892802
227	0xbda5bf1a	-0.0809309
228	0x3dcec654	0.10096422
229	0xbd640ffc	-0.055679306
230	0xbcd4f960	-0.025997818
231	0x3da38822	0.0798495
232	0xbd6f9484	-0.058491245
233	0x3dab87ae	0.08375488
234	0xbdecb038	-0.115570486
235	0x3d91e0ea	0.07122977
236	0x3d774814	0.060371473
237	0x3cfcf620	0.03087908
238	0x3ca51b40	0.020154595
239	0xbb2aa540	-0.0026038438
240	0x3d07de9c	0.03317128
241	0xbda25564	-0.07926443
242	0xbdc66b2c	-0.0968841
243	0xbd94552e	-0.07242809
244	0xbd6e50e4	-0.058182612
245	0x3d78e29c	0.060762987
246	0xbdbf6744	-0.09345868
247	0x3cb6e2b8	0.022324905
248	0xbc80d798	-0.015727803
249	0xbc8b2b18	-0.016988322
250	0x3cb6c680	0.022311449
251	0xbcce8de8	-0.02521415
252	0x3d99cff2	0.075103655
253	0xbd0b6298	-0.034029573
254	0xbdbc9bac	-0.092093796
255	0x3c7c4f80	0.015399814

tgnn._base_tgcn.linear_r.bias f4 [32]
0	0x3d978a1c	0.07399389
1	0xbdd0004e	-0.10156308
2	0xbd7a3594	-0.061086252
3	0x3d4da5b0	0.05020684
4	0x3d8815f2	0.06644811
5	0xbc6e6000	-0.014549255
6	0x3d8bdee4	0.068296224
7	0x3c195df0	0.009360775
8	0xbb1abfc0	-0.0023612827
9	0xbdf94ed4	-0.121732384
10	0xbdf20b78	-0.11818594
11	0x3ddfce3c	0.10928008
12	0x3d54e408	0.05197528
13	0xbdedb93e	-0.11607598
14	0x3d70b454	0.058765724
15	0xbd37261c	-0.04471408
16	0x3d1967b0	0.0374524
17	0x3d8a3e72	0.06750192
18	0x3d087a58	0.0333198
19	0xbc9cb9f0	-0.01913163
20	0xbdb530ae	-0.088471755
21	0x3d3941d8	0.04522881
22	0xbd577730	-0.0526039
23	0xbdd9b9ec	-0.10631165
24	0xbdd5dafe	-0.1044216
25	0x3d67382c	0.056450054
26	0x3dfe8ffc	0.124298066
27	0x3a7eb300	0.0009716004
28	0x3dca6b2a	0.09883721
29	0x3d139bb0	0.036037147
30	0x3d844db6	0.06460135
31	0x3d8d4022	0.06896998

tgnn._base_tgcn.conv_h.bias f4 [32]
0	0x3e8e8601	0.27836612
1	0x3d5c921e	0.053850286
2	0xbe1f8aa4	-0.15580231
3	0xbd8601ba	-0.06543298
4	0x3dd9e540	0.10639429
5	0xbebc38b1	-0.36762002
6	0x3e46c8fe	0.1941261
7	0x3e495b17	0.19663654
8	0x3ebe6585	0.37186828
9	0xbb9c6901	-0.0047732596
10	0xbe31be07	-0.17357646
11	0x3e0be708	0.1366235
12	0xbea04321	-0.31301215
13	0x3b636730	0.0034698956
14	0x3df99ad5	0.12187735
15	0xbea95bd9	-0.33077887
16	0xbcb87a15	-0.02251915
17	0xbe635d63	-0.22203593
18	0x3e33c52d	0.17555685
19	0xbddf0494	-0.10889545
20	0x3dd7bb23	0.1053374
21	0x3ebc66bc	0.3679713
22	0x3d0ac0c1	0.03387523
23	0x3d0e8e88	0.034803897
24	0xbe1cdd56	-0.15318808
25	0x3e238573	0.15968876
26	0xbe009417	-0.12556492
27	0x3e4132ab	0.18866985
28	0x3eb306b9	0.34966066
29	0x3e9fe109	0.31226376
30	0xbe138c25	-0.1440893
31	0x3ae2baa3	0.0017298054

tgnn._base_tgcn.conv_h.lin.weight f4 [32, 3]
0	0x3e501b46	0.20322904
1	0xbf23f9b5	-0.640529
2	0x3f35861f	0.7090778
3	0xbec1824c	-0.3779472
4	0xbf5a9eab	-0.8539836
5	0x3f14244c	0.57867885
6	0xbea60d83	-0.32432184
7	0xbe6a93ea	-0.22907987
8	0x3faac612	1.3341696
9	0xbc2e7eac	-0.010650318
10	0x3f505e00	0.8139343
11	0xbf25e6e0	-0.6480541
12	0x3e7a2aa6	0.24430332
13	0x3f1527b1	0.5826369
14	0xbf717ba8	-0.9432931
15	0x3eae6736	0.3406312
16	0x3ed32ccc	0.41245115
17	0x3cf8c7a9	0.030368643
18	0xbee5db59	-0.4489391
19	0xbf173cc9	-0.59077126
20	0x3e7fc83d	0.24978729
21	0xbed502cf	-0.41603705
22	0xbec54cce	-0.3853516
23	0x3ef1ecab	0.47250876
24	0x3e1e58d7	0.15463577
25	0x3f0db55c	0.5535486
26	0xbf0f23d5	-0.5591405
27	0xbccb4ed1	-0.024817856
28	0xbf61c1a3	-0.8818609
29	0x3f523e1c	0.8212602
30	0x3f15e918	0.585588
31	0x3ed70dc6	0.42002696
32	0xbf169c96	-0.5883268
33	0xbef2147d	-0.47281256
34	0xbf528cf4	-0.8224633
35	0xbdae29b2	-0.085040465
36	0xbd9eebfd	-0.07759855
37	0x3f26ae57	0.6510977
38	0x3dbf08f0	0.093278766
39	0x3f1a9faa	0.6039988
40	0x3f6b3862	0.9188291
41	0xbeaf239b	-0.34206852
42	0x3de6f370	0.11276901
43	0xbf0fc830	-0.56164837
44	0x3f7be832	0.98401177
45	0xbe655378	-0.22395122
46	0xbe947cc7	-0.29001448
47	0xbf277558	-0.6541343
48	0xbf187038	-0.5954623
49	0xbdd9a40e	-0.10626994
50	0x3f6e8c8c	0.9318321
51	0xbf020657	-0.50790924
52	0xbf2c9873	-0.6742012
53	0xbcfdd68f	-0.030986099
54	0xbdccd41d	-0.10001395
55	0xbf2ad75b	-0.66734856
56	0x3f1fef5e	0.6247462
57	0x3e2d15ad	0.169028
58	0x3f6cde47	0.9252667
59	0x3e668a94	0.22513801
60	0xbe518f06	-0.20464715
61	0xbf4cb0c5	-0.7995723
62	0xbe65b4fd	-0.22432323
63	0x3e80eefc	0.2518233
64	0x3dd7f5b8	0.10544914
65	0x3ed4e0dc	0.41577804
66	0x3f50e772	0.8160316
67	0x3f4a26e6	0.78965604
68	0x3f33d76f	0.702506
69	0xbeb67064	-0.35632622
70	0xbf49f99f	-0.78896517
71	0x3f67c6cd	0.9053772
72	0x3e993b4b	0.2992805
73	0x3f02f068	0.5114808
74	0xbf15459f	-0.5830936
75	0x3ded95e8	0.11600858
76	0xbef8a438	-0.4856279
77	0x3f4dd0c2	0.80396664
78	0xbe8ef49a	-0.2792099
79	0xbf5bbba7	-0.8583321
80	0xbdf0c41c	-0.11756155
81	0xbea1b329	-0.31582
82	0xbe786553	-0.24257402
83	0x3f20d8c8	0.6283078
84	0x3d48b261	0.04899824
85	0xbebbc0cd	-0.36670533
86	0x3f36ea04	0.7145083
87	0xbe8f8118	-0.28028178
88	0x3f05ccb4	0.5226548
89	0x3f1cb155	0.6120809
90	0x3f027d6a	0.50972617
91	0x3ee1eecb	0.44127497
92	0xbf39ee03	-0.726288
93	0xbdc8e86b	-0.09809955
94	0xbf6aca2b	-0.91714734
95	0x3f3670c6	0.7126583

tgnn._base_tgcn.linear_h.weight f4 [32, 64]
0	0xbeda7c99	-0.42673185
1	0xbf0d4e70	-0.5519781
2	0xbeb1a482	-0.34695822
3	0x3f794b0a	0.97380126
4	0x3f20747d	0.62677747
5	0x3eeec04c	0.46631086
6	0xbf3e9ba2	-0.74456227
7	0xbf3096c7	-0.6898007
8	0x3ec794ab	0.38980612
9	0xbf3bd9ce	-0.7337922
10	0x3f157887	0.58387035
11	0xbf4d4b72	-0.80193245
12	0x3ebe0aa7	0.37117502
13	0x3f2226a4	0.6334021
14	0xbf06750c	-0.5252235
15	0xbe96793c	-0.2938937
16	0xbed894d8	-0.4230106
17	0xbeddd7b6	-0.43328637
18	0xbf39885f	-0.7247371
19	0x3f78798e	0.9706048
20	0xbf3922e7	-0.7231888
21	0x3def00d7	0.11670082
22	0x3ed7c0fd	0.42139426
23	0xbf415ed0	-0.755353
24	0x3f295f20	0.66160774
25	0xbeb15939	-0.34638384
26	0xbf1bd83e	-0.60876834
27	0xbef20090	-0.47266054
28	0xbe074526	-0.13209972
29	0x3e83d5e6	0.2574913
30	0x3ef8ef65	0.48620144
31	0xbf24fb6d	-0.64446145
32	0xbd84e00e	-0.064880475
33	0x3db3566a	0.087567165
34	0x3da49d12	0.08037771
35	0xbd7ff0ac	-0.062485382
36	0xbd1ca27c	-0.038240895
37	0xbd9ca39e	-0.07648395
38	0x3dec9c56	0.11553256
39	0xbd605348	-0.054766923
40	0x3d795800	0.06087494
41	0xbd125124	-0.035721913
42	0x3dc82b7e	0.097739205
43	0x3dd31a38	0.10307735
44	0x3dc5118a	0.09622486
45	0x3c986d28	0.018606737
46	0x3d47c950	0.04877597
47	0x3cc09158	0.023506805
48	0xbcda7b08	-0.026669994
49	0xbd5757d8	-0.05257401
50	0x3bebc0a0	0.0071945935
51	0xbd9cf302	-0.076635376
52	0xbdb81144	-0.08987668
53	0xbdaecbb2	-0.085349455
54	0x3d6e604c	0.058197305
55	0xbc1faed0	-0.009746268
56	0x3de68c24	0.112571985
57	0x3d979efc	0.07403371
58	0x3d598bc4	0.053111807
59	0xbd197eac	-0.03747432
60	0xbdccfd02	-0.10009195
61	0x3deb8790	0.11500466
62	0x3b203780	0.0024447143
63	0xbde0b286	-0.10971551
64	0x3f1d402b	0.6142604
65	0x3e887310	0.26650286
66	0x3e8a24eb	0.2698129
67	0xbf898bcb	-1.0745786
68	0xbebee99f	-0.37287614
69	0xbdac6151	-0.08416999
70	0x3e335707	0.17513667
71	0x3e7df7fe	0.24801633
72	0xbd639f7f	-0.05557203
73	0x3f3bc2cf	0.7334413
74	0xbe052b59	-0.13004817
75	0x3dd34870	0.10316551
76	0xbe9f8696	-0.31157368
77	0xbe4dac68	-0.20085299
78	0x3f4f099c	0.8087404
79	0xbe2e6716	-0.17031512
80	0x3da2ebf3	0.0795516
81	0x3dc7e67c	0.09760758
82	0x3f88d94b	1.0691313
83	0xbe73adf3	-0.23796825
84	0x3d9e5180	0.07730389
85	0x3dfc6b87	0.12325197
86	0x3dd3dfb0	0.103453994
87	0x3e8e3b35	0.27779546
88	0xbedbb172	-0.42908818
89	0x3f328bc1	0.697445
90	0x3e11604c	0.1419689
91	0x3ef432e6	0.47695082
92	0x3e9e4433	0.30911407
93	0xbd5856ee	-0.052817278
94	0xbeb2ab61	-0.34896377
95	0x3f2de8e0	0.67933464
96	0xbdb64c3a	-0.08901258
97	0xbc54ed40	-0.012996018
98	0xbdf54bb6	-0.11977331
99	0x3cac22e0	0.021012723
100	0xbd86b9e8	-0.065784276
101	0x3d64aff8	0.05583188
102	0xbda634da	-0.081155494
103	0xbd80683c	-0.06269881
104	0x3bd2bc00	0.0064311028
105	0x3bde7360	0.006788656
106	0x3db888bc	0.09010455
107	0xbaac2f00	-0.0013136566
108	0x3d3e5290	0.046465456
109	0x3da3c0dc	0.079957694
110	0xbdab2a68	-0.08357698
111	0x3d9ebf04	0.07751277
112	0xbd56d99c	-0.052453622
113	0x3c6a97c0	0.014318407
114	0x3cd62648	0.0261413
115	0x3cc21960	0.02369374
116	0x3ceece50	0.029151112
117	0x3d3a5ed4	0.04550059
118	0xbda88054	-0.08227602
119	0x3d00bbd0	0.031429112
120	0xbc929a28	-0.017895773
121	0x3d96cc68	0.07363206
122	0xbd907bc2	-0.07054855
123	0x3d21f8b0	0.039543808
124	0x3d5a8e54	0.05335839
125	0xbd5403ec	-0.051761553
126	0xbda9106a	-0.08255084
127	0x3dbb045a	0.09131689
128	0x3de5d3a4	0.11222008
129	0x3da7aef6	0.08187668
130	0xbdc55a36	-0.09636347
131	0x3d3d6fe4	0.046249285
132	0xbdcd638c	-0.10028753
133	0xbc88b3a8	-0.01668723
134	0xbdd2ed7c	-0.10299203
135	0x3d889688	0.066693366
136	0x3d9cfb1a	0.07665081
137	0x3da3c694	0.0799686
138	0xbd6b8dd4	-0.057508305
139	0x3df02b22	0.11726977
140	0x3db6bb82	0.08922483
141	0x3c8499c0	0.016186595
142	0xbdbdf162	-0.09274556
143	0x3d928830	0.07154882
144	0x3d15f8d0	0.03661424
145	0x3c0f7990	0.00875701
146	0xbdfa71aa	-0.12228711
147	0xbd974eba	-0.07388063
148	0xbc733e90	-0.014846459
149	0xbdea13ee	-0.114295825
150	0x3db4cbb4	0.08827916
151	0xbcc78858	-0.024357006
152	0xbc9a9d88	-0.018873945
153	0x3d2dc4e8	0.042424113
154	0x3d56e470	0.05246395
155	0xbd9e924c	-0.07742748
156	0x3c9cd498	0.019144341
157	0xbd7349d4	-0.05939658
158	0xbdd89d06	-0.10576825
159	0x3dfcf228	0.12350875
160	0x3cfb0558	0.030642197
161	0xbdae4e70	-0.085110545
162	0xbd8d94b8	-0.069131315
163	0x3d0fd70c	0.035117194
164	0xbdee355a	-0.1163127
165	0xbd2f9d50	-0.042874634
166	0x3da940c4	0.08264306
167	0xbd9bd304	-0.076086074
168	0x3dd230f4	0.10263243
169	0x3d282b9c	0.041057214
170	0xbdd3eb7a	-0.10347648
171	0x3d57ab38	0.05265352
172	0x3df3fe76	0.11913769
173	0x3d4add74	0.0495276
174	0x3dd26c58	0.10274571
175	0xbad36200	-0.0016127229
176	0xbdc09e72	-0.09405221
177	0x3d2487e4	0.040168658
178	0x3d0369a0	0.032083154
179	0x3d59d578	0.053182095
180	0xbca16128	-0.019699648
181	0xbd80a404	-0.062812835
182	0x3d13bf44	0.036071077
183	0xbdc045a4	-0.09388283
184	0x3dd41af0	0.103567004
185	0xbd546054	-0.05184968
186	0xbdffff44	-0.1249986
187	0x3d902bda	0.07039614
188	0x3bd17620	0.0063922554
189	0xbd23f020	-0.040023923
190	0xbd390864	-0.045174018
191	0xbda7f022	-0.082000986
192	0x3e5ce86d	0.21573038
193	0x3d95e815	0.07319657
194	0x3f10271c	0.56309676
195	0xbd8652fb	-0.06558796
196	0xbe2267c9	-0.15859903
197	0x3d97c4a2	0.074105516
198	0x3e0c8a9f	0.13724755
199	0x3e92e02a	0.2868665
200	0x3dc45c27	0.09587889
201	0x3da24d27	0.07924872
202	0xbe431643	-0.19051461
203	0xbe16414e	-0.1467335
204	0x3c18ec08	0.009333618
205	0x3ce8670c	0.02836945
206	0x3f073d74	0.52828145
207	0xbeb405fe	-0.35160822
208	0x3ebe8fd1	0.37219098
209	0xbe169ec4	-0.14709002
210	0x3de8302c	0.11337313
211	0x3d73f2f1	0.05955786
212	0xbd70363b	-0.05864547
213	0x3e8170a9	0.25281265
214	0x3d848f55	0.06472651
215	0x3e182092	0.14856175
216	0xbe0c1b0d	-0.13682194
217	0x3eae09f3	0.33991966
218	0xbe24fb34	-0.16111451
219	0x3eee5878	0.4655187
220	0x3ed33620	0.41252232
221	0x3ee4694b	0.44611582
222	0xbea33da1	-0.31882957
223	0xbcf5778a	-0.029964227
224	0xbc96cd40	-0.018408418
225	0x3dab4216	0.08362214
226	0x3d4ba14c	0.04971437
227	0x3df22a24	0.11824444
228	0xbd281404	-0.041034713
229	0xbd6ecf48	-0.058303148
230	0xbca8ed58	-0.020620987
231	0x3dce4cea	0.10073264
232	0x3dcc16f6	0.09965317
233	0xbd83bb9c	-0.06432268
234	0x3df00750	0.11720145
235	0x3d995782	0.07487394
236	0x3d452908	0.048134834
237	0xbc653130	-0.013988778
238	0x3db54d02	0.08852579
239	0x3d8e4334	0.06946412
240	0x3d9c9006	0.07644658
241	0x3d16424c	0.03668432
242	0xbcd80648	-0.026370183
243	0x3d818732	0.063246146
244	0xbdb573b8	-0.08859962
245	0x3b8ae360	0.004238531
246	0xbdb3aa14	-0.08772674
247	0x3ca22f40	0.019797921
248	0x3dd52eee	0.10409342
249	0xbdeb2824	-0.114822656
250	0xbd057d9c	-0.032590494
251	0xbde08576	-0.10962956
252	0xbdc79e9c	-0.09747049
253	0x3d917008	0.071014464
254	0x3b187700	0.002326429
255	0x3c6d59b0	0.014486715

tgnn._base_tgcn.linear_h.bias f4 [32]
0	0x3de8b4a5	0.1136258
1	0x3e477095	0.1947654
2	0xbdb67e32	-0.089107886
3	0x3d842cfa	0.06453891
4	0x3e0f6034	0.14001542
5	0x3ecf41fb	0.40480027
6	0xbcc13c41	-0.023588302
7	0xbdd97f03	-0.10619929
8	0x3def559c	0.116862506
9	0x3ef06c90	0.46957827
10	0x3e18d3f6	0.14924607
11	0x3de56513	0.11200919
12	0x3e454ede	0.19268367
13	0x3e9368d5	0.28790918
14	0xbccf3cb1	-0.025297495
15	0xbe015309	-0.12629332
16	0xbdaaaba8	-0.08333522
17	0xbce08178	-0.027405486
18	0x3d97f26f	0.074192874
19	0x3ead5318	0.33852458
20	0x3eb7a7f0	0.35870314
21	0xbed17b08	-0.40914178
22	0x3dddafa2	0.10824515
23	0x3e48b9af	0.19602083
24	0x3e01dd87	0.12682162
25	0x3ef1e784	0.47246945
26	0x3efbda21	0.49189857
27	0x3ee59868	0.4484284
28	0x3e5e3ceb	0.21702926
29	0x3dfba463	0.12287214
30	0xbb634197	-0.0034676546
31	0x3e622989	0.22086157

linear.weight f4 [16, 32]
0	0x3e9594bd	0.2921504
1	0xbef13b3f	-0.47115514
2	0xbde4321f	-0.11142372
3	0x3ef5bacd	0.4799408
4	0x3e9b9ca7	0.30392954
5	0xbf065623	-0.52475184
6	0x3e41ad8e	0.18913862
7	0xbd541f80	-0.051787853
8	0x3ea9f445	0.33194175
9	0xbf232ae7	-0.6373734
10	0x3e9158ca	0.28388053
11	0x3ea972a0	0.33095264
12	0x3eddebac	0.43343866
13	0xbde47a81	-0.11156178
14	0x3d620fc6	0.055190824
15	0x3dbc55ba	0.091960385
16	0x3c8bcec0	0.01706636
17	0xbde9bcde	-0.11412977
18	0x3ee95cb4	0.4557854
19	0xbe0295ac	-0.12752408
20	0xbe942041	-0.28930858
21	0xbf144cfd	-0.57929975
22	0x3ecb40a7	0.39697763
23	0x3e28bb03	0.1647759
24	0xbf055e89	-0.52097374
25	0xbef5b0f4	-0.47986567
26	0xbefaf457	-0.49014542
27	0xbee5ea9b	-0.44905552
28	0xbefb05f7	-0.49027988
29	0x3e85abb3	0.2610756
30	0x3da4d7a8	0.08048946
31	0xbcd5ca70	-0.026097506
32	0x3e2ca947	0.16861449
33	0xbf0d076e	-0.5508946
34	0x3d2f3b5c	0.04278122
35	0x3ec02de7	0.3753502
36	0x3e807922	0.25092417
37	0xbefc535f	-0.49282357
38	0x3e66a4f2	0.22523859
39	0xbd30468e	-0.043036036
40	0x3eeafc4b	0.4589561
41	0xbf0d7700	-0.55259705
42	0x3ed60a3c	0.41804683
43	0x3e5bd7f4	0.21469098
44	0x3eb3631b	0.3503655
45	0xbe0166d5	-0.12636884
46	0xbde6732d	-0.11252437
47	0x3df094b5	0.117471136
48	0x3d155a9c	0.036463365
49	0xbd623948	-0.05523041
50	0x3ef28b46	0.47371882
51	0xbe56a781	-0.20962335
52	0xbec6806c	-0.38769853
53	0xbf148779	-0.58019215
54	0x3e5f92f2	0.21833399
55	0x3ef32a3a	0.47493154
56	0xbec2129d	-0.37904826
57	0xbf05c7d0	-0.52258015
58	0xbeddaca7	-0.43295786
59	0xbef8d289	-0.48598126
60	0xbf2841b3	-0.6572525
61	0x3e8ac56d	0.2710375
62	0x3e066249	0.1312343
63	0x3e3fcfa2	0.1873155
64	0x3eec729a	0.46181184
65	0xbf02dbe7	-0.51116794
66	0xbdecae30	-0.11556661
67	0x3ec45a3c	0.38350093
68	0x3e5dfa4d	0.21677513
69	0xbec8f34d	-0.39248124
70	0x3efc9520	0.49332523
71	0xbdd6f8b3	-0.10496654
72	0x3e779f72	0.24181917
73	0xbf0e53bf	-0.55596536
74	0x3e516ca7	0.20451604
75	0x3ecf162f	0.40446612
76	0x3e861a7f	0.2619209
77	0xbe44f18b	-0.19232766
78	0x3d19edae	0.037580185
79	0x3d6f94a6	0.05849137
80	0xbe0eb946	-0.13937864
81	0xbe1508d6	-0.14554152
82	0x3e5c914e	0.21539804
83	0xbecb2b20	-0.3968134
84	0xbeeb88e0	-0.46002865
85	0xbf3ee7fd	-0.74572736
86	0x3ed1b23c	0.40956295
87	0x3e9e2893	0.3089033
88	0xbf5231f1	-0.82107455
89	0xbeb95f13	-0.36205348
90	0xbee9bca7	-0.45651743
91	0xbf1162d5	-0.5679143
92	0xbeee59ef	-0.4655299
93	0x3ee1e1b4	0.4411751
94	0x3ac7ea4b	0.001525232
95	0x3d8cbbf4	0.06871787
96	0x3eb0af00	0.34508514
97	0xbf2fdf3e	-0.68700016
98	0x3c015b60	0.007895321
99	0x3ec55872	0.3854404
100	0x3ea94651	0.3306146
101	0xbe87d65e	-0.26530737
102	0x3e4dcaab	0.20096843
103	0x3d339237	0.043840613
104	0x3e89c6f0	0.2690959
105	0xbf20bc5a	-0.627874
106	0x3eb33fff	0.35009763
107	0x3e76a366	0.24085769
108	0x3ea7af0b	0.32750735
109	0xbe984a7a	-0.2974432
110	0x3d3e1e79	0.04641578
111	0xbe0fdce6	-0.1404911
112	0x3e3424e9	0.17592205
113	0x3dfd0c2a	0.12355836
114	0x3ea5459e	0.32279676
115	0xbeb39657	-0.35075638
116	0xbebdee69	-0.37095955
117	0xbf72309b	-0.94605416
118	0x3f01dc71	0.5072699
119	0x3ef89f85	0.48559204
120	0xbf3a76ba	-0.7283741
121	0xbedb7da2	-0.42869288
122	0xbf1275d6	-0.57211053
123	0xbf0d9b61	-0.55315214
124	0xbf190812	-0.5977794
125	0x3e220c13	0.15824918
126	0xbd368b62	-0.04456652
127	0x3e8506a3	0.25981626
128	0x3e9621b7	0.29322597
129	0xbf355159	-0.7082725
130	0xbd6c1fc0	-0.057647467
131	0x3c3eaea8	0.011638321
132	0x3e866046	0.26245326
133	0xbedfc684	-0.43706143
134	0x3eb7b64f	0.35881278
135	0x3db2e958	0.08735913
136	0x3ee86ee6	0.4539711
137	0xbf0d99c9	-0.5531278
138	0x3eedbb15	0.46431795
139	0x3ea2db6b	0.31808028
140	0x3ea4d2a0	0.32191944
141	0xbc9194fb	-0.017771235
142	0x3b925c09	0.004466538
143	0xbdc24e75	-0.09487621
144	0x3e32f501	0.17476274
145	0x3dd6be0a	0.10485466
146	0x3eafdffa	0.34350568
147	0xbe672400	-0.22572327
148	0xbea9f4e1	-0.3319464
149	0xbf61a09d	-0.881357
150	0x3e2f5b48	0.17124665
151	0x3ef0873c	0.46978176
152	0xbf40d0df	-0.7531871
153	0xbf141c09	-0.5785528
154	0xbf045df4	-0.5170586
155	0xbef91125	-0.48645893
156	0xbf30da5a	-0.6908318
157	0x3e0a2db3	0.13493995
158	0x3bda1310	0.0066551045
159	0x3ebadaa7	0.36494943
160	0x3efee830	0.4978652
161	0xbf451854	-0.76990247
162	0x3e2ac425	0.16676386
163	0x3dd72955	0.1050593
164	0x3e8cce06	0.27500933
165	0xbf264f4b	-0.6496474
166	0x3ee8f3d5	0.4549853
167	0xbd18e6df	-0.03732955
168	0x3e5713dc	0.2100367
169	0xbf07cd77	-0.5304789
170	0x3e377ec7	0.17919455
171	0x3ea94748	0.33062196
172	0x3efcc3ca	0.49368125
173	0xbe1963f2	-0.14979532
174	0xbc1e9958	-0.009680115
175	0x3ddf83ab	0.109137855
176	0xbdbfc9d9	-0.09364671
177	0xbe09c110	-0.13452554
178	0x3e4cf60a	0.20015731
179	0xbe73bea6	-0.23803195
180	0xbee6b97b	-0.45063385
181	0xbf675b66	-0.9037384
182	0x3f000915	0.5001386
183	0x3e382687	0.17983447
184	0xbf305fbc	-0.6889608
185	0xbf013ff4	-0.5048821
186	0xbed8b5c7	-0.42326185
187	0xbec60003	-0.38671884
188	0xbf6c6b87	-0.92351574
189	0x3ebec4cb	0.37259516
190	0x3d8f9d81	0.07012463
191	0x3e9950a4	0.29944336
192	0x3e8fb164	0.28065026
193	0xbf2b4705	-0.6690524
194	0x3dfc2082	0.12310888
195	0xbded1941	-0.115770824
196	0x3ede3bd5	0.43405023
197	0xbee15000	-0.44006348
198	0x3eb33a04	0.350052
199	0x3d4aa3c0	0.04947257
200	0x3ef04976	0.46931046
201	0xbef1b3d6	-0.47207516
202	0x3e853416	0.260163
203	0x3edd8907	0.43268606
204	0x3ec57320	0.38564396
205	0xbeae8b60	-0.3409071
206	0xbdcf95b8	-0.101359785
207	0xbd2a1944	-0.041528
208	0xbdd4ea2a	-0.10396226
209	0x3da62b72	0.08113755
210	0x3eba4c0f	0.36386153
211	0xbeb3cf1d	-0.35118952
212	0xbe6fbe8f	-0.23412536
213	0xbf69aeea	-0.9128252
214	0x3e4c7f5b	0.19970457
215	0x3e459500	0.1929512
216	0xbf817441	-1.0113603
217	0xbecd4e12	-0.40098625
218	0xbf13bf92	-0.5771419
219	0xbf02dbf7	-0.5111689
220	0xbf5d6897	-0.86487716
221	0x3e806533	0.2507721
222	0x3d19a392	0.03750951
223	0x3ef062ba	0.46950322
224	0x3ed0e776	0.4080159
225	0xbf804dff	-1.0023803
226	0xbccfba30	-0.025357336
227	0xbe86433d	-0.26223174
228	0x3e86d7d9	0.26336554
229	0xbf0a2c82	-0.53974164
230	0x3ee77fa1	0.4521456
231	0xbd7a1fa2	-0.061065324
232	0x3ed0f29c	0.40810096
233	0xbef14822	-0.47125345
234	0x3ee6b379	0.45058802
235	0x3e667a15	0.22507508
236	0x3eb9ee6e	0.3631472
237	0xbed099e3	-0.40742406
238	0x3c295475	0.0103350775
239	0xbdb7b461	-0.089699514
240	0xbc8d7e58	-0.01727216
241	0xbcb20538	-0.021731004
242	0x3e7933f0	0.24336219
243	0xbebe63ad	-0.37185422
244	0xbe94d809	-0.29071072
245	0xbf77ccb3	-0.9679672
246	0x3ed5c666	0.41752928
247	0x3ee29069	0.442508
248	0xbf45d3d6	-0.7727636
249	0xbed6d0a8	-0.41956067
250	0xbebe52ef	-0.37172648
251	0xbe9852de	-0.29750723
252	0xbf6a1771	-0.9144202
253	0x3de29f49	0.110655375
254	0x3caf65fd	0.021410936
255	0x3e816ec8	0.25279832

linear.bias f4 [16]
0	0x3c3ebcd7	0.011641703
1	0xbdeea439	-0.11652417
2	0xbce96322	-0.028489653
3	0x3bf107e3	0.0073556765
4	0xbdf137f7	-0.117782526
5	0xbe14cec1	-0.14531995
6	0xbe0198d0	-0.1265595
7	0xbdb4161f	-0.08793282
8	0xbe26e4a9	-0.16298164
9	0xbd311484	-0.043232456
10	0xbd86193c	-0.06547782
11	0xbc4224b7	-0.011849574
12	0xbd97cafa	-0.074117616
13	0x3d64480b	0.055732768
14	0x3dcf9dc8	0.10137516
15	0x3be4844b	0.0069737784

linear2.weight f4 [6, 21]
0	0x3f087ac0	0.533123
1	0x3f27d0b1	0.6555281
2	0x3e6e0def	0.23247503
3	0xbcd407a1	-0.025882544
4	0xbea6ce6c	-0.32579362
5	0x3ef48e36	0.47764748
6	0xbee7586b	-0.45184645
7	0xbd2ead55	-0.04264577
8	0xbd2260d1	-0.039643113
9	0x3eb89e9e	0.36058515
10	0xbeab1ddb	-0.33421215
11	0xbe3da859	-0.18521251
12	0x3d89e9ef	0.067340724
13	0x3dd203ec	0.10254654
14	0x3d4d9f31	0.050200645
15	0xbe595194	-0.21222526
16	0x3c45d8f8	0.012075655
17	0x3dbf9d42	0.093561664
18	0xbd22905e	-0.03968846
19	0xbdf6d19c	-0.120516986
20	0x3bb415c6	0.0054957597
21	0xbd4d940d	-0.05019002
22	0x3dc02d13	0.09383597
23	0xbd477c48	-0.04870251
24	0x3ea5348c	0.32266653
25	0x3d334057	0.04376253
26	0x3e27d231	0.16388775
27	0x3e5f70b0	0.2182033
28	0x3e0233ed	0.1271512
29	0x3e61f00e	0.2206423
30	0xbe0ebee6	-0.1394001
31	0x3e50e1b4	0.20398599
32	0x3c271c1b	0.010199572
33	0x3e2e8593	0.17043142
34	0xbcea4cd6	-0.028601091
35	0x3c843862	0.016140167
36	0xbe262b6c	-0.16227502
37	0x3dac086b	0.08400043
38	0xbe956515	-0.29178682
39	0xbe089024	-0.13336235
40	0x3d5f2275	0.05447622
41	0x3e5fb3ca	0.21845928
42	0x3e023af2	0.12717798
43	0x3d3dedf7	0.04636952
44	0xbd52be6f	-0.051451143
45	0x3c957a0f	0.018246679
46	0xbe00245c	-0.1251387
47	0xbe76063a	-0.24025813
48	0xbd6afc0b	-0.057369273
49	0xbd8051a7	-0.06265574
50	0x3d9a8526	0.07544927
51	0xbd10809c	-0.0352789
52	0xbeb73873	-0.35785255
53	0xbdd1cca9	-0.10244114
54	0x3e7d36f4	0.24727994
55	0xbf0cb5dc	-0.54964995
56	0x3dba10d7	0.09085243
57	0x3ddab18e	0.10678397
58	0x3e9042d9	0.28176
59	0xbd73a294	-0.05948122
60	0xbddb98a1	-0.10722471
61	0xbd969e81	-0.07354451
62	0x3d5f7140	0.054551363
63	0xbe323937	-0.17404638
64	0xbe1059fd	-0.14096828
65	0xbeb396ff	-0.35076138
66	0xbe8b38de	-0.27191824
67	0x3dcf483a	0.10121198
68	0xbe19cc52	-0.15019348
69	0x3e91acb1	0.28452066
70	0xbe083f12	-0.1330531
71	0x3e678ef7	0.2261313
72	0x3e628e56	0.2212461
73	0x3e41d22b	0.18927829
74	0x3e122c7c	0.14274782
75	0x3e6822d5	0.22669537
76	0xbdd7268e	-0.105054006
77	0x3dd38e4d	0.10329876
78	0x3ec1b58f	0.3783383
79	0x3e352751	0.1769078
80	0x3e0103f9	0.12599172
81	0x3db9cbb2	0.09072055
82	0x3defc9d2	0.11708416
83	0x3e4aa08d	0.19787808
84	0xbe0fe99d	-0.1405396
85	0xbdf77ffb	-0.12084957
86	0x3d5e275b	0.05423675
87	0x3eac9f24	0.33715165
88	0x3e82a1f3	0.25514182
89	0xbdebd20b	-0.11514672
90	0x3dfd680d	0.12373362
91	0x3e1b90ee	0.15192005
92	0xbcf1e853	-0.029529726
93	0xbddf1613	-0.10892882
94	0x3d746c2f	0.059673484
95	0xbe726191	-0.23670031
96	0xbe45bb62	-0.19309762
97	0x3d45cdff	0.048292156
98	0x3e4f1cfd	0.20225902
99	0xbca75543	-0.020426398
100	0xbeb3c3bf	-0.3511028
101	0x3e3eb59c	0.18623966
102	0x3e7cdb68	0.24693072
103	0x3e758544	0.23976618
104	0x3c212f50	0.00983794
105	0xbe03b091	-0.12860323
106	0xbeb81eb0	-0.35960913
107	0xbe9d1d56	-0.30686444
108	0xbd8a83f7	-0.067634515
109	0x3da01caf	0.07817971
110	0x3d2f9c1b	0.042873483
111	0x3e2cffed	0.16894503
112	0xbdc73cd5	-0.097284
113	0x3b4c9a04	0.003121973
114	0x3e290673	0.16506366
115	0xbc8cb3a3	-0.017175501
116	0xbd0d5feb	-0.034515303
117	0x3e82f05e	0.2557401
118	0xbe8eb015	-0.27868715
119	0x3e458567	0.1928917
120	0x3e813524	0.25235856
121	0x3e948bb2	0.2901283
122	0x3e66f6ab	0.22555034
123	0xbdf3fcff	-0.119134896
124	0x3e9e530d	0.30922738
125	0x3e8ce47b	0.27518067

linear2.bias f4 [6]
0	0xbd92ef9e	-0.071746096
1	0x3e7f5c05	0.24937446
2	0xbe8ec9fb	-0.27888474
3	0xbe2275af	-0.15865205
4	0x3f12b343	0.5730478
5	0xbf6e4f74	-0.93089986
