A3TGCN2_Checkpoints/Epoch_17.pth (torch, 35255 bytes, 17 tensors)

tgnn._attention f4 [16]
00000000: ff08 a73f acaa 6e3f 27f4 1c3f a5ca 4bbd
00000010: 1d74 963e ae3e 23be 039a 7abe 3ea0 af3e
00000020: fca9 193e e731 813d 6d98 8c3e 03b7 f53e
00000030: 7903 d83e 5aa1 3c3f 813b 673f 3869 ab3f
1.304962 0.93229175 0.61310047 -0.049753804 0.29385462 -0.15941879 -0.24472813 0.34301943
0.1500625 0.06308346 0.27460042 0.4799119 0.4219015 0.736837 0.9032517 1.3391485

tgnn._base_tgcn.conv_z.bias f4 [32]
00000000: 6b52 013f 45e2 f83e 890b b23d 7a8f 65bd
00000010: 594a efbc 558d c1be d0ab c3be 1f96 fcbe
00000020: 30da 0e3f 1c74 0b3f 5ec1 0ebf cec4 05bf
00000030: 3346 023d a70a 993d 82ff f93e 6f48 f83e
00000040: f60a 04bf 27ff 0f3f f55a 963e 0ec2 0f3f
00000050: b8f4 043f 0363 fbbe 56a1 09bf e00d f83e
00000060: 0703 dabe 236e eebe 303d debe 3cd1 df3e
00000070: d400 ce3e 3848 a0be 4394 ae3e 72e5 023f
0.50516385 0.4861013 0.086936064 -0.056045033 -0.029210256 -0.3780314 -0.3821702 -0.49333283
0.5580168 0.54474044 -0.55763805 -0.52253425 0.03180523 0.07472735 0.4882775 0.48492762
-0.51579225 0.56248707 0.2936627 0.5615548 0.5193591 -0.49098977 -0.53761804 0.48448086
-0.42580435 -0.46568403 -0.43406057 0.4371432 0.40235007 -0.313051 0.3409749 0.51131356

tgnn._base_tgcn.conv_z.lin.weight f4 [32, 3]
00000000: ec50 4bbe 1b76 ccbe 9a4b 9fbf 8274 593e
00000010: 4750 08bf 1192 43bf bae5 c4be 7ef6 833e
00000020: f680 ecbe 0fb4 75be fc72 3d3f fe05 903f
00000030: 0965 8f3e f7e8 c8be 0400 f83d f96f d3bd
00000040: 9ff1 0f3f 9fd7 9c3f aea6 b6be 154a 55bd
00000050: e22e 843e 6b7b ebbc 45bc b23e 0180 5e3f
00000060: 8b9b 323e 0d97 0cbf 815a 78bf 67ec 993e
00000070: 9624 59bf 7a7e 7cbf fae5 123e 6b43 093f
00000080: 3a19 323f a91d abbe 7a7c 103f 8486 1d3f
00000090: 7040 c4bd 0b8c f73e 9882 8abe 54db 3dbf
000000a0: 3817 8e3d 6e07 043f 7aea 8a3e 4620 04bf
000000b0: c92e 5abf 4836 05bc 6240 afbe d64e acbf
000000c0: 1687 d4bd 85e6 f23e acb7 2f3f 66e4 f83d
000000d0: c966 31bf 2606 aebf 186a b1be 7406 1fbe
000000e0: 989d 26be f8c4 f6bd 6a00 03bf 3c0e a8bf
000000f0: 974f a23e a0cd f7be 3cf5 39bf 5a88 aebd
00000100: 84e3 cf3e 21e0 e43e 2607 76be f701 4e3f
00000110: 0e77 983f f161 eb3d fd5d 97be c472 a0bf
00000120: a55c 563e 797f 433e e64b 813f 2d72 0a3e
00000130: 31d7 123e ce55 7d3f 3f9c ec3e eea3 9d3e
00000140: e628 083f 79e1 ebbe af76 c6be 4132 ddbe
00000150: 9771 e33d f5a3 0dbe 97fa 44bf e1c2 463f
00000160: 38cb 823f f59a 513f 6d83 cdbd 7f80 a6bf
00000170: a067 28bf bc23 e2bb e865 07bf c525 84bf
-0.19855088 -0.39933857 -1.2444947 0.2123585 -0.53247494 -0.76394755 -0.38456517 0.25773996
-0.4619214 -0.23994468 0.7400358 1.1251829 0.2800677 -0.39240238 0.12109378 -0.103240915
0.5622806 1.2253302 -0.35674042 -0.052072603 0.2581702 -0.028745374 0.34909263 0.8691407
0.17442147 -0.54917985 -0.970131 0.30063173 -0.8482145 -0.9863049 0.14345542 0.53618497
0.6956974 -0.33421066 0.56439936 0.6153338 -0.09582603 0.48349032 -0.2705276 -0.74162793
0.069380224 0.51573837 0.27132016 -0.51611745 -0.8522764 -0.008130617 -0.34228808 -1.3461559
-0.10377328 0.47441497 0.68639636 0.121529385 -0.6929746 -1.3595626 -0.34651256 -0.15529805
-0.16271055 -0.120492876 -0.51172507 -1.3129344 0.31701347 -0.48399067 -0.7263982 -0.08522101
0.40603268 0.44702247 -0.24026164 0.8047175 1.1911333 0.1149329 -0.29563895 -1.2535024
0.20933779 0.19091596 1.0101287 0.13520117 0.14339902 0.9895905 0.46212956 0.3078913
0.53187406 -0.4607046 -0.38762423 -0.43202403 0.1110565 -0.13832076 -0.7694487 0.7764111
1.0218267 0.8187707 -0.10034833 -1.3007964 -0.6578312 -0.0069012325 -0.5288987 -1.0324026

tgnn._base_tgcn.linear_z.weight f4 [32, 64]
00000000: 4cf9 7cbf 0016 26bf fba9 1c3d a7a4 503f
00000010: 1191 e2bd ef2b 7e3f e27a 283e ede4 b53e
00000020: 9292 3ebf 8901 8fbf 5510 993f 3b30 0b3f
00000030: 0321 12bc 5d16 ddbe 53b0 2abf 82cc 3fbf
00000040: 5eb9 3a3f 05e6 a0bf 51e6 d0be d2db b4bf
00000050: 1736 e2be b1b6 1a3f 6805 9c3f c999 c5be
00000060: e3aa f43e 5ce7 a63e a34b 483f 3b82 7fbf
00000070: 0f80 8ebe 5a46 d93e 92b5 36bf 2818 94bf
00000080: a8db a53c 04c7 643d 3064 373d a489 103d
00000090: 888e bd3c 3891 b7bc 7ce0 ea3d 581b 94bc
000000a0: 8c34 60bd f8df 9d3d 3c5e 3dbd ce22 ec3d
000000b0: f090 e23d 9ea1 abbd 904a d2bd 2060 27bd
000000c0: 3e22 a53d bc91 d2bd 02f5 8a3d 2820 febd
000000d0: 1015 c3bc 1cae 06bd 502e 593c 7cc9 ce3d
000000e0: 880a b4bd 802f 073b 6011 c83b 70c1 56bd
000000f0: 0029 0d3c ca87 b83d e4a6 9cbd 0c02 a23d
00000100: 2908 aabe 0659 b5be 7cc9 97be 72a9 603e
00000110: d437 a43e 3125 513f 22b2 b03e b916 b43e
00000120: 1d20 8bbe fe6a eebe 8a98 573d 163f c93e
00000130: 8bd5 ddbe a9a9 6c3f 5627 d9be 91f4 eebe
00000140: b621 b33d f08a 28bf f77e 713e ec19 e9be
00000150: 9728 88be f956 323e 59f9 023f 67fa d3be
00000160: 809b 7b3e ed81 c43e 7c96 75bd 1914 743e
00000170: 1b50 54be a313 f43d b344 cebe 04bd b2be
00000180: d2cf bf3d 4cda 5c3d c259 97bd 42ab 8ebd
00000190: 9040 e23c f8e8 103d c697 873d 0e66 bbbd
000001a0: eea7 f63d 2047 c9bc 5c9b 333d 646d 5bbd
000001b0: 3835 433d 82a0 da3d 724d b8bd 8027 393c
000001c0: 90f5 7a3c 30ae 93bc d46a 0cbd 5030 c63c
000001d0: d074 bd3c 789f 51bd 5c65 353d da7b d53d
000001e0: 3811 fa3c 36a7 82bd e8b3 99bc bc99 03bd
000001f0: b28e ff3d 7af1 84bd 2eab 993d 469f febd
00000200: 58e1 373d 28b3 f1bd b087 59bc 9a9d c1bd
00000210: b817 d1bd e059 b73c 76cc be3d c00a ba3d
00000220: 048f 59bd 34bb 14bd 688b abbc 80c7 5cbb
00000230: 588b a7bd 80f1 8dbb 8af4 983d 4a9a d63d
00000240: 34cf c43d 50e5 78bd 643b 963d 0814 883d
00000250: 0035 dc3d 3cbe 06bd 7258 c3bd 70a1 6c3c
00000260: 3647 853d 88a4 e7bc f061 1e3c 5824 93bc
00000270: 8aba d9bd 5c10 173d d8d9 023d 009d 2a3b
00000280: 9ac3 d4bd 14e1 4c3d 40d3 9f3b b0ab e1bd
00000290: b2e0 ddbd 60b8 603c 1065 723c f0da 233c
000002a0: 7a21 823d 0024 1bba faf7 f33d 0cc8 11bd
000002b0: f036 91bd 4666 b3bd 805b 7abd d085 f63d
000002c0: 46ac 803d f411 3cbd f8aa acbd c033 09bc
000002d0: c43e b23d a0fd f73d 264b e9bd 309b 6fbd
000002e0: 523d d4bd 18a8 bcbc c83d 93bc e8c6 e63d
000002f0: 1c1a f63d dc2b ec3d cc32 4cbd 20c0 5ebd
00000300: bce6 5cbf c0a8 20bf 8f47 183e 060a 273d
00000310: 00d8 68be 2255 773f f941 9f3d 1720 9c3e
00000320: b6ef 12bf 997c 7dbf c195 5c3f 43f5 e03e
00000330: 3e46 cb3e 5ebe b5be c5bf e3be 2987 f5be
00000340: 06ba e63e b743 5bbf 7ae3 07bf 1247 48bf
00000350: 9602 05bf baad 0a3f 021a 993f 9273 29be
00000360: 0a90 9b3e 83cf 283e 91de 463f 0ca3 8fbf
00000370: 212c adbd f16f 4b3f 736a b7bf 724f 69bf
00000380: 4850 603d bae9 b0bd 48fa b4bd 60d5 4e3d
00000390: 48db 3cbd 20e6 403d aa9e c63d 108f 38bd
000003a0: f089 99bc 0ef6 c8bd 1c53 c6bd 20dd 883c
000003b0: 08a9 c43c 8edb cbbd 423c d3bd 3cbe 843d
000003c0: 606c 9fbb 0a32 d93d 5a11 da3d c880 1e3d
000003d0: c042 7fbc 2c94 433d 24cc b23d d22d ec3d
000003e0: 44d3 c03d 9c27 d7bd 00e2 85bd da41 f4bd
000003f0: a4a6 e0bd e0a5 603c 8c85 f53d 9880 0a3d
-0.98817897 -0.6487732 0.038248044 0.8150124 -0.110628255 0.9928579 0.16453126 0.3552622
-0.744424 -1.1172343 1.1958109 0.5437047 -0.008919003 -0.43181124 -0.666753 -0.7492143
0.729391 -1.2570196 -0.40800717 -1.4129584 -0.44181892 0.60435015 1.218915 -0.3859389
0.47786626 0.32598388 0.7824041 -0.9980809 -0.27832076 0.42436486 -0.71370804 -1.1569872
0.020246342 0.05585386 0.04477328 0.035287514 0.023139253 -0.022408113 0.11468598 -0.018079445
-0.054737613 0.07708734 -0.046232447 0.11530076 0.11062801 -0.083804354 -0.10268128 -0.040863156
0.08063172 -0.10281703 0.06785013 -0.12408477 -0.023813754 -0.032880887 0.013255671 0.10097024
-0.08791071 0.0020627677 0.006105587 -0.05243057 0.008615732 0.09010275 -0.07649019 0.07910547
-0.3320935 -0.35419482 -0.29645908 0.21939638 0.32073843 0.81697375 0.34510905 0.35173586
-0.27172938 -0.46566004 0.052635707 0.39305943 -0.43326983 0.9244638 -0.42412823 -0.46670964
0.08746664 -0.65837 0.2358359 -0.4552759 -0.26593468 0.1741599 0.51161724 -0.4140198
0.24571037 0.38380376 -0.059957966 0.23835792 -0.20733683 0.11917808 -0.40286788 -0.34909832
0.093658105 0.05391912 -0.07390167 -0.069662586 0.027618676 0.035378426 0.06620745 -0.09150325
0.12043749 -0.024570048 0.043849334 -0.05357112 0.047658175 0.10675146 -0.089991465 0.011300921
0.015317336 -0.018027395 -0.034281567 0.02419296 0.02312699 -0.051177472 0.044286117 0.104240134
0.030525789 -0.06379549 -0.018762544 -0.032129034 0.12478389 -0.064913705 0.07503353 -0.12432723
0.04489264 -0.118017495 -0.013276979 -0.09453888 -0.10209602 0.022381723 0.093163416 0.09084082
-0.053114906 -0.036311343 -0.020940498 -0.0033688247 -0.081808746 -0.0043317676 0.07468517 0.10478647
0.09609833 -0.060765564 0.073355466 0.06644446 0.107522964 -0.032896265 -0.09538354 0.014442787
0.06507723 -0.028276697 0.009666905 -0.017961666 -0.10631283 0.036880836 0.031946033 0.002603352
-0.103888705 0.05001934 0.004877478 -0.11019075 -0.10833873 0.013715833 0.014794603 0.010000929
0.063540414 -0.0005918145 0.11912532 -0.03559117 -0.070905566 -0.087597415 -0.061122417 0.120372415
0.062828586 -0.04591556 -0.08431047 -0.008374155 0.08703378 0.12108922 -0.113912866 -0.058497608
-0.103632584 -0.023029372 -0.017973796 0.11268407 0.12016699 0.11531803 -0.04985313 -0.054382443
-0.8628957 -0.6275749 0.14871047 0.040781043 -0.22738647 0.9661428 0.07776255 0.30493233
-0.5739702 -0.99018246 0.86166006 0.4393712 0.39702028 -0.354968 -0.44482246 -0.47954682
0.450638 -0.856502 -0.53081477 -0.78233445 -0.5195707 0.54171336 1.1961062 -0.16547993
0.3038333 0.1648541 0.7768336 -1.1221633 -0.084556825 0.79467684 -1.4329361 -0.9113685
0.054764062 -0.0863833 -0.088368 0.05049646 -0.04610756 0.047094464 0.096982315 -0.04505831
-0.018742532 -0.09812556 -0.096838206 0.016707003 0.024006382 -0.09953986 -0.10314228 0.06481597
-0.004865214 0.10605247 0.10647841 0.038697034 -0.015579879 0.04774873 0.08730343 0.11532177
0.09415296 -0.10505602 -0.06537247 -0.11926623 -0.10969284 0.013711423 0.11988363 0.033814043

tgnn._base_tgcn.linear_z.bias f4 [32]
00000000: 3a2a dbbe 9b85 42bc fa09 f23d 161f 52be
00000010: 6e79 d9be 9899 85be 616e a7be a91d 7d3c
00000020: 1bc5 e4be edce 0fbe 7eb8 dabe 3672 dcbe
00000030: 3b4c 01bf 9057 ffbe c011 c0bb 336e 8c3d
00000040: 1c2d 793d 7850 e3bd ec89 e4be 5078 a4be
00000050: b7ac 61be 0067 e33e d56b afbe 3587 e6be
00000060: 2a63 c03c e71c a4be 7ba9 9cbd a9d8 7abe
00000070: 7046 a83d bcb6 debe 783c f53d d0f5 93be
-0.42805654 -0.011872674 0.11818309 -0.20519671 -0.42475456 -0.26093745 -0.327014 0.015448966
-0.4468163 -0.1404378 -0.4271888 -0.43055886 -0.50506943 -0.49871492 -0.005861491 0.06856956
0.060834035 -0.110993326 -0.44636476 -0.3212304 -0.22038542 0.4441452 -0.34261957 -0.4502503
0.023484785 -0.320533 -0.07649513 -0.24496712 0.0821656 -0.4349879 0.11974424 -0.28898478

tgnn._base_tgcn.conv_r.bias f4 [32]
00000000: 0000 0000 0000 0000 0000 0000 0000 0000
00000010: 0000 0000 0000 0000 0000 0000 0000 0000
00000020: 0000 0000 0000 0000 0000 0000 0000 0000
00000030: 0000 0000 0000 0000 0000 0000 0000 0000
00000040: 0000 0000 0000 0000 0000 0000 0000 0000
00000050: 0000 0000 0000 0000 0000 0000 0000 0000
00000060: 0000 0000 0000 0000 0000 0000 0000 0000
00000070: 0000 0000 0000 0000 0000 0000 0000 0000
0.0 0.0 0.0 0.0 0.0 0.0 0.0 0.0
0.0 0.0 0.0 0.0 0.0 0.0 0.0 0.0
0.0 0.0 0.0 0.0 0.0 0.0 0.0 0.0
0.0 0.0 0.0 0.0 0.0 0.0 0.0 0.0

tgnn._base_tgcn.conv_r.lin.weight f4 [32, 3]
00000000: 1ebb 2d3e 40d1 19bd 6891 6d3d 5b84 9d3e
00000010: 6687 95be c04b a5bc 28c7 0fbe 9a12 90be
00000020: 6474 c03d e0df 343c 5c84 c53d 074d a83e
00000030: a765 90be a018 1dbd 640a e9bd 9b2c 803e
00000040: 3455 8fbd 844f b9be a06e af3c a21e 073e
00000050: be3e 253e 54d1 cebd f2a1 173e a85e 8c3d
00000060: d633 4e3e 72bd 763e 1a6a 3bbe a03f 90be
00000070: 9c42 bb3d 3a99 6e3e 2204 133e cc30 3dbe
00000080: 490b 9cbe 6cbb bb3d 8f6c 8f3e 771b 3ebe
00000090: 0252 73be bf7d a03e 9dc9 c0be 8fcd 9d3e
000000a0: 6017 08bc 5ccb fa3d cc3e 17be d0fe 81be
000000b0: 53d9 c93e 8665 2a3e 7434 a7bd e294 77be
000000c0: 5d26 9a3e c18d 35be 5e6c 7b3e c6ee 293e
000000d0: b4d3 8abe fa16 2e3e e086 5fbc 79e0 8c3e
000000e0: 9de2 34be 980f bebe 5078 c9be 36b8 73be
000000f0: 7766 903e b296 7ebe 28c4 c8bd a0f8 0bbc
00000100: 80a3 1dbb 80a1 a0bd 44de 78be 74ab 90bd
00000110: 1e1f 9fbe 0f98 b5be fee6 773e e084 59be
00000120: aea8 773e 4790 47be ba2c 3d3e 640f 96bd
00000130: 3080 1fbe b674 3d3e 2e64 1e3e 1c08 bd3d
00000140: 80b5 543b c879 84bd 35fa cdbe 58e8 95bd
00000150: 6d45 b13e 9170 963e 94ee bf3d f253 4b3e
00000160: 50f6 4fbd 5e6d 83be 79b0 36be 92cd 303e
00000170: 099f cd3e 963f 143e 7025 78bd d693 b6be
0.16965911 -0.037553072 0.058 0.30765042 -0.29204863 -0.020177722 -0.14040816 -0.28139192
0.093972 0.011039704 0.09644386 0.32871267 -0.28202555 -0.038353562 -0.11378935 0.2503403
-0.06998673 -0.36193478 0.021415055 0.13195279 0.16137215 -0.1009852 0.14807871 0.06853992
0.20136961 0.24095705 -0.18302193 -0.28173542 0.09143564 0.23300639 0.14357045 -0.18475646
-0.3047736 0.09166607 0.2801251 -0.18565165 -0.23761752 0.31345937 -0.3765382 0.3082089
-0.008306354 0.12245819 -0.14770049 -0.2538972 0.39423618 0.1664029 -0.081643015 -0.24177888
0.30107394 -0.17729856 0.24553058 0.16594991 -0.27114642 0.17000952 -0.013642997 0.2751501
-0.17664571 -0.37121272 -0.39349604 -0.2380074 0.28203174 -0.24862173 -0.09803039 -0.008543164
-0.0024053752 -0.07843304 -0.24303538 -0.07063952 -0.31078428 -0.35467574 0.2420921 -0.21242094
0.2418544 -0.19488631 0.18474093 -0.07327154 -0.15576243 0.18501553 0.15467903 0.09230062
0.0032456815 -0.064685404 -0.40229955 -0.07319707 0.3462328 0.29382756 0.09371677 0.19856241
-0.05077201 -0.25669378 -0.17840756 0.17265919 0.40160397 0.14477381 -0.06058258 -0.35659665

tgnn._base_tgcn.linear_r.weight f4 [32, 64]
00000000: f80b 97bd 98e4 ea3c e87f 03bd 2e96 febd
00000010: e8bb c33c 2027 473d 5263 cb3d ac55 65bd
00000020: f223 ad3d a236 e1bd 40a9 dd3c 9808 ab3c
00000030: 1260 bcbd e4ed 763d 460d e23d 345a 80bd
00000040: 0846 2fbd 6010 943c f402 b73d 4662 8ebd
00000050: a45e 43bd 6438 373d c01a 273d 88c2 723d
00000060: e453 cc3d dc06 e83d 4c7b b63d c840 6b3d
00000070: ee84 933d 3c83 993d e228 e1bd 80d1 8f3b
00000080: 22af d6bd c022 bc3c b078 5b3d 5803 72bd
00000090: 5a66 df3d 70f3 613d c08c 5f3d 30be 303c
000000a0: e4a9 70bd 0889 ca3c 6a73 8e3d b43a c73d
000000b0: a8c8 d23d 9a7f 8c3d 5ea0 a03d 74fc 8dbd
000000c0: a022 9ebc 9409 17bd a427 a73d 1efa b7bd
000000d0: e8f0 cf3d 40ec 98bc cc6f f23d 14a5 223d
000000e0: 0057 c73d 0471 0bbd 94a1 d23d fa8d a4bd
000000f0: 3075 7b3c 00dc 143b 0e96 f93d ec00 023d
00000100: 8053 26bd 6e77 9abd 0c4a c63d 4cf4 58bd
00000110: 0870 96bd e61c fbbd 506e 36bc ecce cabd
00000120: 585e babc e249 88bd 386a fc3d 4685 9cbd
00000130: 3030 ad3d b836 e93d 680e a33d f827 8bbc
00000140: f87c d4bc 4cc4 cb3d c8da 9e3d 34f3 13bd
00000150: 5238 ff3d 5c6e babd caf6 a13d 2044 9bbb
00000160: 209d 283d eaaf e43d 5e53 ee3d 78a6 bcbc
00000170: 54c6 a7bd 0432 bd3d 048e c13d f630 b83d
00000180: 26b8 9b3d 6894 423d d0d5 b23d c6f0 d1bd
00000190: a0c5 1e3d 042d fa3d 2225 a73d 7441 093d
000001a0: 9038 f2bd 7875 f23d 0a1e 93bd 0a00 cbbd
000001b0: 9639 c13d 543c 55bd 945e 433d 1c2e 1b3d
000001c0: 50f1 323c 2c6e 39bd 32d5 d3bd 74b7 f73d
000001d0: 2846 84bc b83b 7d3d 2069 cbbc c69c ed3d
000001e0: acea d43d 06fd 9fbd 92d6 f6bd fce4 0e3d
000001f0: 906d 1abc f8ba b2bc 9437 fcbd 28fd c2bd
00000200: 1846 5f3d e067 64bc e843 c33d 7a95 923d
00000210: e0f5 3f3d c099 a53c a8f0 a9bc 3069 a73c
00000220: 9af1 b83d 1c4b 19bd 248a 803d ac82 9b3d
00000230: 04a0 af3d c01c 45bb debe dfbd b07d 5d3d
00000240: 26d7 f53d 98ab 9c3c dcaa 40bd 2066 ce3b
00000250: d43b 36bd 80fe 9bbb e6e8 8bbd e0ff 1fbd
00000260: d4e5 123d 9024 a7bc 0879 a3bd b06e 8bbd
00000270: e0f1 c73c 609b b6bd 0c82 c83d de62 aa3d
00000280: 50d6 0cbc 403e 593d 6cdc a1bd bc82 b13d
00000290: e08e 77bd a8af ecbd 1065 63bd 10e7 8f3d
000002a0: 8c12 02bd c0a6 f7bb 7004 a4bd 8243 9b3d
000002b0: 8cb6 fcbd 04e2 103d 641e e8bd 3c00 b03d
000002c0: 58c3 133d 7472 70bd 0044 4c3b 689f d6bc
000002d0: f8fb 6ebd d41a e03d 0452 e0bd 0060 00bc
000002e0: 48fc e33d a063 e33c 64f0 d1bd a0b8 e0bd
000002f0: 808c d83b ece7 3c3d f84f 3bbd ee57 b0bd
00000300: 8052 fe3a 7ce9 123d 5498 cfbd 1224 bcbd
00000310: c087 913c fc43 a5bd e8d9 eabc cc4f 66bd
00000320: 64f2 7d3d e498 ba3d 3e55 f9bd 0609 f53d
00000330: c295 ef3d 30aa e4bd 9e92 a33d 603d 04bd
00000340: ac90 1abd 7821 843d ce21 9d3d c86f 89bc
00000350: 3248 fb3d 6413 dabd 9813 dcbc c86e 77bd
00000360: 7cb8 e0bd 203f ff3d 144a bbbd 6cc1 b5bd
00000370: cc0a babd 94fa 8e3d 7899 cabd 60e5 c43c
00000380: 12a9 ba3d 04c4 233d c0e1 f4bc 1abf a5bd
00000390: 54c6 ce3d fc0f 64bd 60f9 d4bc 2288 a33d
000003a0: 8494 6fbd ae87 ab3d 38b0 ecbd eae0 913d
000003b0: 1448 773d 20f6 fc3c 401b a53c 40a5 2abb
000003c0: 9cde 073d 6455 a2bd 2c6b c6bd 2e55 94bd
000003d0: e450 6ebd 9ce2 783d 4467 bfbd b8e2 b63c
000003e0: 98d7 80bc 182b 8bbc 80c6 b63c e88d cebc
000003f0: f2cf 993d 9862 0bbd ac9b bcbd 804f 7c3c
-0.0737533 0.028673455 -0.032104403 -0.12430988 0.023893312 0.048621297 0.09931053 -0.055989906
0.08454122 -0.109967485 0.027058244 0.020878121 -0.091980115 0.060285464 0.11037688 -0.06267205
-0.042791396 0.018074214 0.0893611 -0.06952338 -0.04769768 0.044731513 0.040796995 0.05926755
0.09976938 0.11329433 0.08910236 0.057434827 0.07203089 0.07495734 -0.10994126 0.004388988
-0.10482623 0.022965789 0.053581893 -0.05908522 0.10908194 0.0551638 0.05457759 0.010787532
-0.05875577 0.024723545 0.06955607 0.097279936 0.102921784 0.068602756 0.078430876 -0.06932917
-0.01930362 -0.03687437 0.08161858 -0.08983253 0.10153371 -0.01866734 0.1183773 0.039708212
0.09733391 -0.034043327 0.10284725 -0.080348924 0.015347764 0.0022714138 0.12186824 0.03173916
-0.040606976 -0.07542311 0.09682092 -0.052967355 -0.07345587 -0.12261371 -0.011134699 -0.099027485
-0.022750065 -0.06654717 0.12324947 -0.076426074 0.08456457 0.1138739 0.07961732 -0.016986832
-0.025938496 0.0994955 0.07756573 -0.03612061 0.12461914 -0.09103081 0.079083994 -0.0047383457
0.04116547 0.111663654 0.11636995 -0.023028597 -0.08192125 0.09238055 0.094509155 0.089937136
0.07603483 0.047504812 0.08732188 -0.10251002 0.03876269 0.12215617 0.081613794 0.033509687
-0.11827195 0.11838812 -0.07183464 -0.09912117 0.09434812 -0.052059487 0.04769762 0.03788577
0.010921791 -0.045271084 -0.10343398 0.12095538 -0.016146734 0.06182453 -0.024830401 0.11602168
0.103963226 -0.07811932 -0.12052645 0.034886345 -0.009425536 -0.02181767 -0.12315288 -0.09520942
0.054510206 -0.013940781 0.095344365 0.07157417 0.046865344 0.020214915 -0.020744637 0.0204359
0.09030457 -0.037425146 0.06276348 0.07593283 0.085754424 -0.003007695 -0.10925077 0.054074943
0.12003927 0.019124791 -0.047037944 0.0062987953 -0.04449065 -0.0047605634 -0.06831531 -0.03906238
0.035863712 -0.020403177 -0.07982069 -0.06808221 0.024407327 -0.08916354 0.097904295 0.08319639
-0.008596018 0.05303788 -0.0790337 0.08667514 -0.06043899 -0.11556941 -0.055516303 0.070264935
-0.03175597 -0.00755772 -0.08008659 0.075812355 -0.123395056 0.035371795 -0.113339216 0.08593795
0.036074966 -0.0587029 0.003116846 -0.026199058 -0.058345765 0.10942617 -0.10953143 -0.007835388
0.11132103 0.027757466 -0.10250929 -0.109727144 0.006608546 0.046119615 -0.04573056 -0.08610521
0.0019403249 0.0358672 -0.10136476 -0.09186567 0.017764926 -0.080696076 -0.028668359 -0.056228444
0.06199874 0.09111193 -0.12174462 0.11964612 0.11698486 -0.11165273 0.079869494 -0.032285094
-0.037735626 0.06451696 0.07672463 -0.016776934 0.122696295 -0.1064823 -0.026864812 -0.060408384
-0.109726876 0.12463212 -0.09144989 -0.08874783 -0.090840906 0.06981388 -0.09892553 0.024035156
0.09114279 0.039981857 -0.029892802 -0.0809309 0.10096422 -0.055679306 -0.025997818 0.0798495
-0.058491245 0.08375488 -0.115570486 0.07122977 0.060371473 0.03087908 0.020154595 -0.0026038438
0.03317128 -0.07926443 -0.0968841 -0.07242809 -0.058182612 0.060762987 -0.09345868 0.022324905
-0.015727803 -0.016988322 0.022311449 -0.02521415 0.075103655 -0.034029573 -0.092093796 0.015399814

tgnn._base_tgcn.linear_r.bias f4 [32]
00000000: 1c8a 973d 4e00 d0bd 9435 7abd b0a5 4d3d
00000010: f215 883d 0060 6ebc e4de 8b3d f05d 193c
00000020: c0bf 1abb d44e f9bd 780b f2bd 3cce df3d
00000030: 08e4 543d 3eb9 edbd 54b4 703d 1c26 37bd
00000040: b067 193d 723e 8a3d 587a 083d f0b9 9cbc
00000050: ae30 b5bd d841 393d 3077 57bd ecb9 d9bd
00000060: feda d5bd 2c38 673d fc8f fe3d 00b3 7e3a
00000070: 2a6b ca3d b09b 133d b64d 843d 2240 8d3d
0.07399389 -0.10156308 -0.061086252 0.05020684 0.06644811 -0.014549255 0.068296224 0.009360775
-0.0023612827 -0.121732384 -0.11818594 0.10928008 0.05197528 -0.11607598 0.058765724 -0.04471408
0.0374524 0.06750192 0.0333198 -0.01913163 -0.088471755 0.04522881 -0.0526039 -0.10631165
-0.1044216 0.056450054 0.124298066 0.0009716004 0.09883721 0.036037147 0.06460135 0.06896998

tgnn._base_tgcn.conv_h.bias f4 [32]
00000000: 1d02 993e f542 633d 6086 25be e53f 92bd
00000010: c716 e43d d0de c5be b1ac 4f3e 08ac 543e
00000020: a66a c83e 2631 c0ba 0216 3abe 1508 0d3e
00000030: 5b8b aabe 161a f13b 74de 083e 86d5 b6be
00000040: f365 d0bc 6d53 74be 6dae 3e3e 83d9 dcbd
00000050: 1bca d03d 738c c83e 131c 4c3d 80e9 153d
00000060: 1379 26be a9b8 333e 016a 0bbe dcb9 503e
00000070: 52b1 be3e ba49 a83e e9db 1bbe 4310 8c3b
0.29884425 0.055483777 -0.16164541 -0.07141093 0.11137157 -0.38646555 0.2028072 0.2076875
0.39143866 -0.0014663085 -0.18172458 0.13772614 -0.33309445 0.007357846 0.13366109 -0.3570978
-0.025439238 -0.2385995 0.18621226 -0.107836746 0.101947986 0.39169654 0.04983146 0.036599636
-0.16257124 0.17550911 -0.13614656 0.203834 0.3724466 0.3286875 -0.15220608 0.0042743995

tgnn._base_tgcn.conv_h.lin.weight f4 [32, 3]
00000000: 5e4f 513e 8234 25bf 9fe1 6b3f bd83 b7be
00000010: ea56 6cbf aa09 1d3f a9aa a4be a17f 72be
00000020: 7eba ab3f 3933 c9bb da62 5a3f e439 2cbf
00000030: d785 713e 7ce5 203f 1c8e 73bf 657f ac3e
00000040: 2f5d d13e 7c25 b2bd 0d63 e2be 632d 1bbf
00000050: 1f4e 993e b037 d3be 7760 c6be 471d 113f
00000060: e608 0f3e 51b1 153f c184 e0be 2c59 c4bc
00000070: cc74 6ebf 57c2 573f eea9 143f 23d9 d93e
00000080: 8460 2bbf 1376 e4be 2d84 62bf 8b1d a0bd
00000090: f8b0 a3bd 9b5a 273f 085b 52bd 90cc 163f
000000a0: 4556 803f f06e 8fbe 7608 df3d 1f47 12bf
000000b0: 4df2 913f 3bd1 4ebe 067c a4be 6b2e 54bf
000000c0: b5ff 18bf 7b46 c3bd a58c 6f3f 90b4 f7be
000000d0: 2349 39bf e8af 63be 7a54 dcbd f3e6 2fbf
000000e0: b6ee 303f 65c9 143e 0879 7f3f 6d0a 403e
000000f0: 0466 31be 14ef 60bf d6ce 71be 9c09 773e
00000100: f711 013e 4ca8 133f d049 423f 54d7 673f
00000110: 591e 603f ecb1 b2be 3e74 58bf ae4d 6f3f
00000120: 9181 973e b2f8 083f 7ff4 2abf f4c7 eb3d
00000130: ffee fcbe 1e8e 803f 9cb0 7abe 7e41 6bbf
00000140: b42b 4ebe ee04 a4be 2af5 73be 454e 3e3f
00000150: fccc 503d 1bf3 b8be d55b 6e3f eadf 97be
00000160: 9b0f 0d3f 809b 323f 0cf7 013f dae1 e23e
00000170: fc52 4dbf 1ee6 c2bd 57bc 78bf 6201 363f
0.20440432 -0.64533246 0.92141145 -0.35842696 -0.9232012 0.6134287 -0.32161453 -0.23681499
1.3416288 -0.0061401394 0.85307086 -0.67275834 0.23586212 0.62850165 -0.95138717 0.33690944
0.40891406 -0.08698556 -0.44216195 -0.6061613 0.29942414 -0.41253424 -0.38745472 0.566853
0.13968238 0.5847369 -0.43851283 -0.023968302 -0.9314697 0.84280914 0.5807179 0.42548475
-0.66944146 -0.44621333 -0.88482934 -0.07818135 -0.079927385 0.6537263 -0.051356345 0.5890589
1.0026327 -0.28014326 0.10890286 -0.5713977 1.1402069 -0.20197003 -0.32125872 -0.8288333
-0.5976518 -0.095349275 0.9357398 -0.48379946 -0.7237722 -0.22235072 -0.107583 -0.68711776
0.69114244 0.14529951 0.99794054 0.18753977 -0.17324072 -0.87864804 -0.23614058 0.2412476
0.1260451 0.57678676 0.7589388 0.9056294 0.87546307 -0.3490137 -0.8455237 0.93477905
0.2959104 0.5350448 -0.6677932 0.115127474 -0.4940109 1.0043371 -0.24481434 -0.9189681
-0.20133859 -0.3203501 -0.23823991 0.7433818 0.05097674 -0.36122975 0.93108875 -0.2966302
0.5510194 0.69768524 0.5076759 0.44312936 -0.8020475 -0.095165476 -0.97162384 0.7109586

tgnn._base_tgcn.linear_h.weight f4 [32, 64]
00000000: f1b6 dbbe cf62 20bf 3c7d b5be cb10 8a3f
00000010: 9c04 2b3f a871 e63e 12f9 41bf e5bc 2abf
00000020: 4b4f d83e 5c51 5abf f23b 0e3f bac1 5ebf
00000030: 1f10 c23e 8c52 2d3f 5794 09bf 53fe a4be
00000040: 7c39 ccbe 83c8 edbe a4a3 3ebf 7eb0 8c3f
00000050: e3de 57bf 203e 0e3e dfbb e73e eb25 53bf
00000060: 8ee2 2a3f 092b b3be cb60 28bf 73cf e1be
00000070: 91fc f1bd 4cf3 9c3e 4717 ee3e 7bbc 41bf
00000080: 0ee0 84bd 6a56 b33d 129d a43d acf0 7fbd
00000090: 7ca2 1cbd 9ea3 9cbd 569c ec3d 4853 60bd
000000a0: 0058 793d 2451 12bd 7e2b c83d 381a d33d
000000b0: 8a11 c53d 286d 983c 50c9 473d 5891 c03c
000000c0: 087b dabc d857 57bd a0c0 eb3b 02f3 9cbd
000000d0: 4411 b8bd b2cb aebd 4c60 6e3d d0ae 1fbc
000000e0: 248c e63d fc9e 973d c48b 593d ac7e 19bd
000000f0: 02fd ccbd 9087 eb3d 8037 203b 86b2 e0bd
00000100: 40bb 1f3f 8fe3 8e3e 1a70 893e ca83 8cbf
00000110: 2b97 bebe 1540 07be 0399 5f3e b25b a03e
00000120: 986e 40bd 8052 3c3f 5068 27be 7005 fa3d
00000130: 0ed8 a7be 1ca6 55be f51a 513f 8ca3 35be
00000140: 4dc1 b73d e3bd c53d 62a8 8e3f 3aa4 82be
00000150: 0b0b c23d 3809 063e 4e28 c63d 2085 943e
00000160: aa7a fcbe 3cd5 343f 9e24 103e 45f3 0b3f
00000170: 9397 a53e 9151 02bd 0f23 c3be 9925 2f3f
00000180: 3a4c b6bd 40ed 54bc b64b f5bd e022 ac3c
00000190: e8b9 86bd f8af 643d da34 a6bd 3c68 80bd
000001a0: 00bc d23b 6073 de3b bc88 b83d 002f acba
000001b0: 9052 3e3d dcc0 a33d 682a abbd 04bf 9e3d
000001c0: 9cd9 56bd c097 6a3c 4826 d63c 6019 c23c
000001d0: 50ce ee3c d45e 3a3d 5480 a8bd d0bb 003d
000001e0: 289a 92bc 68cc 963d c27b 90bd b0f8 213d
000001f0: 548e 5a3d ec03 54bd 6a10 a9bd 5a04 bb3d
00000200: a4d3 e53d f6ae a73d 365a c5bd e46f 3d3d
00000210: 8c63 cdbd a8b3 88bc 7ced d2bd 8896 883d
00000220: 1afb 9c3d 94c6 a33d d48d 6bbd 222b f03d
00000230: 82bb b63d c099 843c 62f1 bdbd 3088 923d
00000240: d0f8 153d 9079 0f3c aa71 fabd ba4e 97bd
00000250: 903e 73bc ee13 eabd b4cb b43d 5888 c7bc
00000260: 889d 9abc e8c4 2d3d 70e4 563d 4c92 9ebd
00000270: 98d4 9c3c d449 73bd 069d d8bd 28f2 fc3d
00000280: 5805 fb3c 704e aebd b894 8dbd 0cd7 0f3d
00000290: 5a35 eebd 509d 2fbd c440 a93d 04d3 9bbd
000002a0: f430 d23d 9c2b 283d 7aeb d3bd 38ab 573d
000002b0: 76fe f33d 74dd 4a3d 586c d23d 0062 d3ba
000002c0: 729e c0bd e487 243d a069 033d 78d5 593d
000002d0: 2861 a1bc 04a4 80bd 44bf 133d a445 c0bd
000002e0: f01a d43d 5460 54bd 44ff ffbd da2b 903d
000002f0: 2076 d13b 20f0 23bd 6408 39bd 22f0 a7bd
00000300: 32c2 713e 7c52 823d 162b 1c3f 2189 7ebd
00000310: 4685 2ebe 0dd0 f03d de3e f33d 7e2a 953e
00000320: 34fd c83d 601c a33d b4ca 47be f9ee 36be
00000330: 3a33 493d 9111 3c3d 65e1 113f 00c8 c6be
00000340: df7d cf3e 6ce1 2cbe 01c6 ec3d 03ee cc3d
00000350: 1bc5 cdbd e653 8e3e 3bd8 d43d 4f1c 1b3e
00000360: 790f 11be 9476 c33e d6c2 41be 7d46 033f
00000370: 6ccd e63e e992 fc3e f022 a9be 1df6 10bd
00000380: 40cd 96bc 1642 ab3d 4ca1 4b3d 242a f23d
00000390: 0414 28bd 48cf 6ebd 58ed a8bc ea4c ce3d
000003a0: f616 cc3d 9cbb 83bd 5007 f03d 8257 993d
000003b0: 0829 453d 3031 65bc 024d b53d 3443 8e3d
000003c0: 0690 9c3d 4c42 163d 4806 d8bc 3287 813d
000003d0: b873 b5bd 60e3 8a3b 14aa b3bd 402f a23c
000003e0: ee2e d53d 2428 ebbd 9c7d 05bd 7685 e0bd
000003f0: 9c9e c7bd 0870 913d 0077 183b b059 6d3c
-0.4291301 -0.6265077 -0.3544711 1.0786375 0.6680391 0.45008588 -0.75770676 -0.6669448
0.42247996 -0.85280395 0.5556022 -0.87014353 0.37902924 0.6770408 -0.53741974 -0.32225284
-0.39887607 -0.4644204 -0.74468446 1.0991361 -0.84324473 0.13890886 0.45260522 -0.82479733
0.66751945 -0.3499377 -0.65772694 -0.44103584 -0.11815751 0.3065437 0.46502134 -0.75678223
-0.064880475 0.087567165 0.08037771 -0.062485382 -0.038240895 -0.07648395 0.11553256 -0.054766923
0.06087494 -0.035721913 0.097739205 0.10307735 0.09622486 0.018606737 0.04877597 0.023506805
-0.026669994 -0.05257401 0.0071945935 -0.076635376 -0.08987668 -0.085349455 0.058197305 -0.009746268
0.112571985 0.07403371 0.053111807 -0.03747432 -0.10009195 0.11500466 0.0024447143 -0.10971551
0.62395096 0.27907988 0.2684334 -1.0977719 -0.37224707 -0.13208039 0.21835713 0.31319958
-0.04698047 0.73563385 -0.16348386 0.12208068 -0.32782024 -0.20864147 0.8168176 -0.1773817
0.08972416 0.09655359 1.1145136 -0.2551592 0.094747625 0.13089454 0.09675656 0.29007816
-0.49312335 0.7063787 0.14076468 0.54668075 0.32342204 -0.03181607 -0.38112685 0.68416744
-0.08901258 -0.012996018 -0.11977331 0.021012723 -0.065784276 0.05583188 -0.081155494 -0.06269881
0.0064311028 0.006788656 0.09010455 -0.0013136566 0.046465456 0.079957694 -0.08357698 0.07751277
-0.052453622 0.014318407 0.0261413 0.02369374 0.029151112 0.04550059 -0.08227602 0.031429112
-0.017895773 0.07363206 -0.07054855 0.039543808 0.05335839 -0.051761553 -0.08255084 0.09131689
0.11222008 0.08187668 -0.09636347 0.046249285 -0.10028753 -0.01668723 -0.10299203 0.066693366
0.07665081 0.0799686 -0.057508305 0.11726977 0.08922483 0.016186595 -0.09274556 0.07154882
0.03661424 0.00875701 -0.12228711 -0.07388063 -0.014846459 -0.114295825 0.08827916 -0.024357006
-0.018873945 0.042424113 0.05246395 -0.07742748 0.019144341 -0.05939658 -0.10576825 0.12350875
0.030642197 -0.085110545 -0.069131315 0.035117194 -0.1163127 -0.042874634 0.08264306 -0.076086074
0.10263243 0.041057214 -0.10347648 0.05265352 0.11913769 0.0495276 0.10274571 -0.0016127229
-0.09405221 0.040168658 0.032083154 0.053182095 -0.019699648 -0.062812835 0.036071077 -0.09388283
0.103567004 -0.05184968 -0.1249986 0.07039614 0.0063922554 -0.040023923 -0.045174018 -0.082000986
0.23609236 0.06363389 0.61003244 -0.062142495 -0.17043027 0.117584325 0.11877225 0.2913398
0.0981392 0.079643965 -0.19510919 -0.17864598 0.04912112 0.04591519 0.5698455 -0.38824463
0.4052572 -0.16882867 0.11561204 0.10006335 -0.100473605 0.27798384 0.10392805 0.15147518
-0.14166059 0.38176405 -0.1892198 0.5127943 0.450786 0.49330834 -0.33034468 -0.035390962
-0.018408418 0.08362214 0.04971437 0.11824444 -0.041034713 -0.058303148 -0.020620987 0.10073264
0.09965317 -0.06432268 0.11720145 0.07487394 0.048134834 -0.013988778 0.08852579 0.06946412
0.07644658 0.03668432 -0.026370183 0.063246146 -0.08859962 0.004238531 -0.08772674 0.019797921
0.10409342 -0.114822656 -0.032590494 -0.10962956 -0.09747049 0.071014464 0.002326429 0.014486715

tgnn._base_tgcn.linear_h.bias f4 [32]
00000000: e97a 0a3e 2334 553e 327e b6bd de65 8a3d
00000010: c8cb 203e f9e3 d83e e632 28bb 037f d9bd
00000020: a6a8 0e3e b18a fc3e 332b 223e 071e f23d
00000030: 807a 4c3e 7350 943e b13c cfbc 0953 01be
00000040: a8ab aabd 7881 e0bc 13ec bd3d f49a b23e
00000050: 0ca4 c03e b70a ddbe 98a0 003e f381 503e
00000060: 8d59 073e 5cba fc3e e03a 043f 56c0 f03e
00000070: 91dc 653e 3e76 073e 9741 63bb 6401 703e
0.13523449 0.2082067 -0.089107886 0.06757711 0.15702736 0.4236143 -0.0025665103 -0.10619929
0.13931522 0.49324563 0.15836792 0.118221335 0.19968605 0.28967628 -0.025297495 -0.12629332
-0.08333522 -0.027405486 0.09273543 0.34883845 0.37625158 -0.43172237 0.12561262 0.20362072
0.13217755 0.4936093 0.51652336 0.4702174 0.2244742 0.132287 -0.0034676546 0.2343803

linear.weight f4 [16, 32]
00000000: edfc 933e 2217 f6be 1f32 e4bd 8269 173f
00000010: 679d 993e 6033 04bf 770a 3f3e 801f 54bd
00000020: 4cd9 a83e ed43 28bf 5c68 8a3e 6cb8 a73e
00000030: 8377 d83e 4910 e9bd c60f 623d ba55 bc3d
00000040: c0ce 8b3c debc e9bd 753a eb3e 0f1d cfbd
00000050: 58b7 8bbe bf68 23bf c19a cb3e 0b52 1f3e
00000060: 6dbb 07bf ab18 f9be e575 02bf 4898 e9be
00000070: b171 01bf afb7 7e3e a8d7 a43d c0a8 45bd
00000080: 02cc 303e 5e11 0fbf 5c3b 2f3d 9400 ff3e
00000090: 20a2 803e 3087 fcbe c538 653e 8e46 30bd
000000a0: 78fd ec3e 2f41 15bf 8082 d03e bc3e 5e3e
000000b0: 7af3 af3e f638 f6bd 2d73 e6bd b594 f03d
000000c0: 9c5a 153d 4839 62bd 10b1 f73e eb89 3fbe
000000d0: 53b8 c0be 387d 2bbf 8f18 653e 0c66 f03e
000000e0: 4995 c5be 13e6 08bf e35d ecbe 1306 00bf
000000f0: ce70 2cbf cedd 853e 4962 063e 3b0c 233e
00000100: 56c2 ed3e 1a97 01bf 30ae ecbd f9c9 f53e
00000110: 313f 5b3e 85bf cabe 2cda f93e b3f8 d6bd
00000120: cfbc 783e 2531 15bf 4273 4d3e 78df cf3e
00000130: f4d4 863e df79 42be aeed 193d a694 6f3d
00000140: 46b9 0ebe d608 15be 51b4 653e c909 c4be
00000150: c89a e8be 913c 59bf 7329 d33e 30b9 9f3e
00000160: 4a7e 50bf 7551 bfbe 3430 f6be 12a8 14bf
00000170: de8f f1be 026a e03e 4bea c73a efa9 413d
00000180: 67eb b13e dd5f 2ebf 605b 013c b323 dc3e
00000190: 71df a83e f6a8 8cbe 3894 4d3e 3792 333d
000001a0: 9df9 8a3e 41de 25bf 3010 b03e d864 773e
000001b0: 7f52 a63e 5099 a1be 791e 3e3d e6dc 0fbe
000001c0: e924 343e 2a0c fd3d 4d84 a83e d4d6 b6be
000001d0: 9232 c2be b979 84bf 529c 023f 7ec6 f73e
000001e0: 3a79 38bf 4cdb e2be 7c2a 17bf a522 11bf
000001f0: 3a3d 1abf 3d0f 1d3e 628b 36bd 0530 7f3e
00000200: 6f25 9b3e 6950 37bf c01f 6cbd bd3d a03d
00000210: 27d9 883e 9f3d e8be d859 b93e 58e9 b23d
00000220: 7fd7 ec3e e9b5 14bf 6936 ec3e 0dfa a63e
00000230: 0ff3 a53e 384e f3bc 095c 923b 754e c2bd
00000240: 01f5 323e 0abe d63d 02e5 b63e 9758 72be
00000250: 42e2 b0be b8d6 80bf afc6 373e 560b f23e
00000260: ae2d 42bf 300d 19bf 26f4 0abf a388 01bf
00000270: 11f3 35bf 1921 093e 1013 da3b 44cb b43e
00000280: 99e3 013f c006 46bf 25c4 2a3e 3abb 053e
00000290: 4f54 8f3e f0c5 29bf 8d0d eb3e dfe6 18bd
000002a0: 32f3 5e3e e495 0bbf 6c3f 3f3e 1ae8 ad3e
000002b0: cba8 013f 4b4f 29be 5899 1ebc ab83 df3d
000002c0: d9c9 bfbd 10c1 09be d9b4 593e da53 82be
000002d0: 4053 eebe c9d6 85bf 6af4 013f 639e 453e
000002e0: d2d2 30bf 9807 04bf a6b2 debe e542 cbbe
000002f0: f6f8 70bf 5893 c33e 819d 8f3d ead3 9a3e
00000300: 0908 983e cd68 2cbf 8220 fc3d 2c6f 96bd
00000310: 4303 e33e 79bb ecbe 9acd b53e c0a3 4a3d
00000320: 4f94 f63e 5ab8 fdbe b64a 8d3e c537 e63e
00000330: 1b9b d13e e339 b0be b895 cfbd 4419 2abd
00000340: 2aea d4bd 722b a63d 68a4 c43e d0b9 bebe
00000350: d54b 82be 4d56 89bf a936 583e 8730 5e3e
00000360: 4bb9 81bf 9144 d5be 57af 18bf d7f9 06bf
00000370: cb81 62bf 70b8 893e 92a3 193d 62e5 f13e
00000380: 2fcf da3e d5f0 80bf 30ba cfbc de70 65be
00000390: 07f7 8d3e afc3 11bf 977d ed3e a21f 7abd
000003a0: ca38 d93e 90cc febe d906 ec3e 003c 7b3e
000003b0: 4747 c33e 036e d6be 7554 293c 61b4 b7bd
000003c0: 587e 8dbc 3805 b2bc cf61 883e 98e9 cfbe
000003d0: b9a6 a4be 10b1 8fbf 3e10 dd3e d9d9 eb3e
000003e0: 0c5c 46bf 3e0e e2be 0870 cabe c6aa a3be
000003f0: d739 6fbf cbe6 fe3d fd65 af3c c332 853e
0.28903905 -0.48064524 -0.11142372 0.5914537 0.300029 -0.5164089 0.18656336 -0.051787853
0.32978284 -0.65728647 0.27032745 0.3275789 0.4227868 -0.11380059 0.055190824 0.091960385
0.01706636 -0.11412977 0.45943037 -0.10112964 -0.27288318 -0.63831705 0.39766505 0.1555864
-0.53020364 -0.48651633 -0.5096114 -0.45623994 -0.50564104 0.24874757 0.08048946 -0.048256636
0.17265323 -0.55885875 0.04278122 0.4980513 0.25123692 -0.4932189 0.22384937 -0.043036036
0.4628713 -0.5830259 0.40724564 0.21703619 0.34365445 -0.12022583 -0.11252437 0.117471136
0.036463365 -0.05523041 0.48377275 -0.18704955 -0.37640628 -0.66987944 0.2237265 0.46952856
-0.38590458 -0.53476065 -0.4616538 -0.5000927 -0.67359626 0.26145786 0.1312343 0.15922634
0.4643733 -0.5062119 -0.11556661 0.48005655 0.21410824 -0.39599243 0.48799264 -0.10496654
0.24290775 -0.58278114 0.20063499 0.4060018 0.26334345 -0.18991803 0.037580185 0.05849137
-0.13937864 -0.14554152 0.22432067 -0.38288715 -0.4543059 -0.8485804 0.4124256 0.31195974
-0.814427 -0.37366834 -0.4808365 -0.58068955 -0.47180074 0.43830878 0.001525232 0.047281202
0.3474991 -0.68115026 0.007895321 0.42995986 0.32982972 -0.27472657 0.20076072 0.043840613
0.27143565 -0.6479226 0.3438735 0.24159563 0.32484815 -0.3156228 0.04641578 -0.1404911
0.17592205 0.12355836 0.32913437 -0.35710776 -0.37929207 -1.0349647 0.51019776 0.48393625
-0.7205998 -0.44307935 -0.590492 -0.5669349 -0.60249674 0.15337844 -0.04456652 0.24920662
0.30301997 -0.7160707 -0.057647467 0.07824276 0.26728174 -0.45359513 0.36201358 0.08735913
0.4625816 -0.5809007 0.46135262 0.3261265 0.32412001 -0.029700384 0.004466538 -0.09487621
0.17476274 0.10485466 0.35721594 -0.23666607 -0.3454762 -1.0065527 0.17946886 0.47274274
-0.7585095 -0.5978575 -0.5427879 -0.50599116 -0.71074015 0.13391532 0.0066551045 0.3531133
0.5073791 -0.7735405 0.16676386 0.13059703 0.2799401 -0.66317654 0.45908776 -0.03732955
0.21772459 -0.5452559 0.18676537 0.33966142 0.5064818 -0.16534154 -0.009680115 0.109137855
-0.09364671 -0.13452554 0.21260394 -0.254546 -0.4654789 -1.0456172 0.5076357 0.19298701
-0.69071686 -0.5157409 -0.43495673 -0.39699474 -0.94129884 0.38198352 0.07012463 0.30239803
0.2969363 -0.67347413 0.12310888 -0.07345423 0.44338426 -0.4623678 0.35508424 0.04947257
0.48160025 -0.49554712 0.27596062 0.44964424 0.4093865 -0.34419164 -0.101359785 -0.041528
-0.10396226 0.08113755 0.38406682 -0.3725114 -0.2544848 -1.0729462 0.21114601 0.21698199
-1.0134672 -0.41653875 -0.5964255 -0.52724975 -0.884793 0.26898527 0.03750951 0.47245318
0.42736194 -1.0073496 -0.025357336 -0.22406337 0.2772753 -0.56939214 0.4638488 -0.061065324
0.4242614 -0.49765444 0.46098974 0.24534607 0.38140318 -0.41880807 0.0103350775 -0.089699514
-0.01727216 -0.021731004 0.26637122 -0.40607905 -0.3215845 -1.122591 0.43176454 0.46064642
-0.774842 -0.4415149 -0.39538598 -0.31966227 -0.9344763 0.12446364 0.021410936 0.2601529

linear.bias f4 [16]
00000000: f716 32bc 726a 0bbe 2cf8 37bd 6b6f c4bb
00000010: dbf1 0cbe 1333 18be fcce efbd b7c7 b6bd
00000020: 7819 25be d1b3 45bd 37a8 96bd 44a1 94bc
00000030: af79 95bd 2806 5d3d cee2 d33d 2792 273c
-0.010869733 -0.13614824 -0.04491441 -0.0059947274 -0.13764136 -0.14863233 -0.11709401 -0.08924811
-0.16122997 -0.04826719 -0.07356303 -0.018143304 -0.072986 0.05396095 0.10345994 0.0102277165

linear2.weight f4 [6, 21]
00000000: 60dd 063f 33a7 313f b21d 593e a7a8 89bd
00000010: ac79 babe 7207 003f 931b efbe 1bb8 1abd
00000020: d357 0bbd f80b b23e 7896 b1be e6f4 3abe
00000030: dc93 aa3d d38e d23d 8a37 fb3c efc5 60be
00000040: 7cc9 0abb 4b4f ba3d 8bde 37bd 7e72 0fbe
00000050: 9ef4 9bbc 520c 64bd ec94 a63d 0969 26bd
00000060: 32c9 9f3e 1e54 483c 5aac 413e 074e 873e
00000070: 1f7a 143e a353 413e 2fea 14be ed5f 823e
00000080: 23c1 d13a 1739 f03d febe e03c a750 483d
00000090: 2e9f 30be 1dbf 823d b5ee a0be cb9c b9bd
000000a0: ec87 923d 70d0 753e 1927 363e ef17 8a3d
000000b0: 5699 5abd eaf9 0a3c 3354 febd 95eb 80be
000000c0: de52 3dbd 41fc 22bd a0f6 d83d 9e7e 85bd
000000d0: 5782 bdbe 02d2 b6bd efca 8d3e 328b 14bf
000000e0: c976 063e 2d5c cf3d f53c 953e 1b73 70bd
000000f0: 19c5 f7bd 12d7 a8bd 4bb1 673d 962a 3cbe
00000100: 23fe 3fbe c7bc aabe 6730 7fbe eff3 f83d
00000110: d48e 38be f293 843e 96ef 16be 43db 7a3e
00000120: 66a4 8d3e 2127 223e 4fd5 1f3e 1e11 873e
00000130: 71d8 1dbe 04a9 723d 2a4b cc3e 7201 523e
00000140: 38a8 103e ba58 483d f37e df3d 4a26 403e
00000150: 8088 02be ae6a c5bd 19e6 513d 1cb2 b53e
00000160: 5881 903e 432c 08be 4354 e03d f5e9 163e
00000170: 18d7 03bd 616b 19be 0285 443d 59bb 80be
00000180: 885a 4bbe 9162 413d 46bf 6f3e 39bf 07bd
00000190: 0200 b8be f5d1 433e 847b 823e 32ca 783e
000001a0: 0d0f 733c 85e6 fdbd 3d9c c2be 6057 a7be
000001b0: 5fd1 75bd 1479 ef3d d80b 123d dfc4 213e
000001c0: 4ad4 e9bd 6ec2 0c3d 9b79 363e 308c f1bc
000001d0: 921a a1bc f7e6 933e 9939 98be 0160 2a3e
000001e0: 66b9 883e 00db 9e3e 492d 773e 4129 0abe
000001f0: ee49 9d3e 02f7 883e
0.5268154 0.6939575 0.21202734 -0.06721621 -0.36420953 0.5001136 -0.46700725 -0.037773233
-0.034019303 0.34774756 -0.3468511 -0.18257484 0.08328983 0.10281148 0.030666132 -0.21950506
-0.0021177223 0.09097155 -0.044889968 -0.14008519 -0.019037541 -0.055675812 0.08133873 -0.040627513
0.31208187 0.012227086 0.18913403 0.26426718 0.1449971 0.18879561 -0.14542459 0.2546381
0.0016002994 0.11729639 0.027434822 0.04890504 -0.17248222 0.06384108 -0.3143212 -0.09063109
0.07154831 0.24005294 0.17788352 0.06742846 -0.05336889 0.008482436 -0.124184035 -0.25179735
-0.046221606 -0.03979135 0.10593915 -0.06518291 -0.37013504 -0.089267746 0.2769389 -0.58024895
0.1313125 0.10125003 0.2914807 -0.058703523 -0.1209814 -0.082441464 0.056565564 -0.1837562
-0.18749289 -0.3334715 -0.24920808 0.12155902 -0.18023235 0.25894123 -0.14739832 0.24497704
0.2766449 0.15835239 0.15608715 0.26380247 -0.15414597 0.059243217 0.39901096 0.20508364
0.1412667 0.04891274 0.109128855 0.18764606 -0.12747383 -0.09639488 0.05124483 0.3548745
0.2822368 -0.13298135 0.10953572 0.14737685 -0.03218755 -0.14982368 0.04797841 -0.25142935
-0.19858754 0.04721314 0.23412809 -0.03314135 -0.35937506 0.19123061 0.2548486 0.24295881
0.014835131 -0.12397484 -0.38009825 -0.3268385 -0.060014125 0.11693016 0.035655826 0.15797757
-0.11417444 0.03436511 0.17819826 -0.029485792 -0.01966599 0.2888715 -0.29731444 0.16638185
0.26703948 0.3102646 0.24138369 -0.134923 0.30720466 0.26750952

linear2.bias f4 [6]
00000000: cfb1 aebd ab71 953e 42d6 e7be f74c 2fbe
00000010: e8be 1c3f 6258 85bf
-0.08530008 0.29188284 -0.45280653 -0.17119204 0.612288 -1.0417597
