A3TGCN2_Checkpoints/Epoch_30.pth (torch, 35255 bytes, 17 tensors)

tgnn._attention f4 [16]
00000000: 2693 c43f f0ff 6b3f f90f 0d3f d151 0ebd
00000010: 3a41 713e 464c a3bd d46a c3bd ee1e a93e
00000020: fcd0 283e 8d81 1b3e 915d 8c3e add0 d33e
00000030: 9b47 be3e 0f5d 1b3f 4802 453f 9cb3 a03f
1.5357406 0.92187405 0.551025 -0.034745995 0.23560038 -0.079735324 -0.0954186 0.3303141
0.16485971 0.15186138 0.27415136 0.41370144 0.37164006 0.6068887 0.76956606 1.2554812

tgnn._base_tgcn.conv_z.bias f4 [32]
00000000: f00d 053f 1019 fb3e 1ba7 573e a30d aabc
00000010: 7881 25be d89c bebe bea0 0abf a516 0abf
00000020: b322 113f 8dd8 093f 91bb 12bf b400 0abf
00000030: fb0f 143e 833e ab3d 70e8 013f cebe 013f
00000040: 8cb2 0cbf 3d7b 113f eb01 a53e 4a98 143f
00000050: 6bfd 053f 0fbb 06bf 5799 08bf 67c7 0c3f
00000060: a468 e8be d81d 02bf 4f47 e9be 8772 df3e
00000070: 422e 0c3f 5c90 84be 1e3e 943e 9e1d 063f
0.5197439 0.4904256 0.2105984 -0.020758456 -0.1616267 -0.37229037 -0.54151523 -0.539408
0.5669357 0.53846055 -0.57317454 -0.5390732 0.14459221 0.083615325 0.50745296 0.5068177
-0.5495994 0.5682867 0.32228026 0.58044875 0.5233981 -0.5262918 -0.5335898 0.54991764
-0.45392334 -0.5082679 -0.45562217 0.43642065 0.54758084 -0.25891387 0.28953642 0.5238894

tgnn._base_tgcn.conv_z.lin.weight f4 [32, 3]
00000000: 8a54 7ebe b473 b9be 9099 dbbf 8f82 963e
00000010: 391b 05bf 5547 6dbf 64b1 36bf a652 d53e
00000020: a2b8 57bf 3a58 59be c2f4 463f 902f ad3f
00000030: 0b7a 143f 79cc 14bf 7ef7 143e efff 11be
00000040: 9cb2 023f 971b e63f c358 fabe 914f 0fbe
00000050: d9e8 b3be 73a3 80bd d54a 863e b33d a73f
00000060: 73c7 643e 91f1 06bf cf23 9cbf 4840 b13e
00000070: e3f6 57bf aa79 a2bf a8c8 183e 2fae 083f
00000080: e3dd 543f 07d6 dfbe 67a2 0a3f 5be6 3a3f
00000090: 742e 96be edcc 223f 954f 05be e240 5fbf
000000a0: 0c40 803d 851a 103e e6e1 b33e 484e f7be
000000b0: ffa6 88bf 0145 5bbd 6670 91be 61fa f2bf
000000c0: 1f9f 1bbe 2755 dc3e aec3 5f3f c0f6 033e
000000d0: 1ebb 2bbf c308 dbbf bd83 03bf ae83 5bbe
000000e0: 73d9 573d d4f2 22be dcc9 f4be d6a4 d8bf
000000f0: 720a c43e 7442 efbe 283b 6dbf a496 15be
00000100: c109 bf3e ab91 0a3f 92e6 87be 513c 4a3f
00000110: e34f c63f 9fb6 ec3d f76f 42be 3a79 e8bf
00000120: fa8a a43e 32c9 043e cde0 cb3f c708 603e
00000130: 3625 a83d ab17 b43f 6439 0c3f a1e5 983e
00000140: 48a5 4c3f 0032 02bf 79ef ccbe d34f 2cbf
00000150: 105a d33d 8a2d d03c cafa 97bf df87 393f
00000160: c315 7d3f 3923 b43f 9892 19bd 3e38 a3bf
00000170: 1a2e 99bf 86e1 b6bb 6b02 03bf 71b5 a6bf
-0.24836937 -0.36221087 -1.7156239 0.29396483 -0.51994663 -0.9268697 -0.71364427 0.41664618
-0.842661 -0.21225062 0.7771722 1.353014 0.5799872 -0.581245 0.14547536 -0.14257787
0.51053786 1.797717 -0.48895845 -0.13995196 -0.35138586 -0.062811755 0.26228967 1.3065704
0.22341709 -0.5271235 -1.2198428 0.34619355 -0.84361094 -1.2693379 0.14920294 0.53390783
0.8315107 -0.43717977 0.54154056 0.73007745 -0.29332316 0.6359394 -0.1301864 -0.8720838
0.06262216 0.14072616 0.35133284 -0.4830191 -1.0675963 -0.053532604 -0.28406066 -1.898266
-0.15197419 0.43033716 0.8740796 0.12887096 -0.67082393 -1.7112049 -0.5137289 -0.2143695
0.05269761 -0.15912944 -0.47810256 -1.6925304 0.3828922 -0.46730387 -0.9266839 -0.14608246
0.3731213 0.5412852 -0.265431 0.78998286 1.549313 0.1155827 -0.18988024 -1.8161995
0.3213728 0.12967375 1.5927979 0.21878348 0.082102224 1.4069723 0.5477507 0.29862693
0.799397 -0.50857544 -0.40026453 -0.673093 0.103199124 0.02541234 -1.187341 0.7247295
0.9886133 1.4073249 -0.03749332 -1.2751539 -1.1967194 -0.0055810837 -0.51175565 -1.3024122

tgnn._base_tgcn.linear_z.weight f4 [32, 64]
00000000: 39e7 2ebf 3632 35bf 912e b83e efe1 4b3f
00000010: fd58 7cbe cb3e 4f3f 9070 4a3e 2e3b 9e3e
00000020: 0840 41bf ed79 a2bf 1aa3 a73f cd38 203f
00000030: a4f0 ab3d 3fe7 cbbe 521d 31bf d057 0ebf
00000040: 1a1d 453f 4ef1 93bf 4b9d 01bf d7dc 97bf
00000050: c16d f6be 0b6c 2b3f c3c4 a03f 998c 8fbe
00000060: 19a8 873e 6c9d 533e 183e 313f bf09 80bf
00000070: 4f4c 68be cd4d d93e 3235 42bf b45d 89bf
00000080: a8db a53c 04c7 643d 3064 373d a489 103d
00000090: 888e bd3c 3891 b7bc 7ce0 ea3d 581b 94bc
000000a0: 8c34 60bd f8df 9d3d 3c5e 3dbd ce22 ec3d
000000b0: f090 e23d 9ea1 abbd 904a d2bd 2060 27bd
000000c0: 3e22 a53d bc91 d2bd 02f5 8a3d 2820 febd
000000d0: 1015 c3bc 1cae 06bd 502e 593c 7cc9 ce3d
000000e0: 880a b4bd 802f 073b 6011 c83b 70c1 56bd
000000f0: 0029 0d3c ca87 b83d e4a6 9cbd 0c02 a23d
00000100: 2f4a 39bf 2537 36be 7aef d4be e83f 8e3f
00000110: 4b80 0abe daa2 da3f f554 92be 440f fc3d
00000120: 03f1 00be 71c5 1fbf d0e6 dcbc f0d6 953d
00000130: 5120 8f3d 51a0 263f ecef 66be 8d2e 1fbf
00000140: 5a40 3cbe 0fa7 76bf 2d18 b03e 0983 3cbf
00000150: 28a9 223d 3182 5fbe 62a1 523f 8be3 97be
00000160: 6328 a23e c39a 493e 72ab 443e 5e06 d5bd
00000170: 65f5 2c3e e0ea 503f 08dc 86bf 93f2 f3be
00000180: d2cf bf3d 4cda 5c3d c259 97bd 42ab 8ebd
00000190: 9040 e23c f8e8 103d c697 873d 0e66 bbbd
000001a0: eea7 f63d 2047 c9bc 5c9b 333d 646d 5bbd
000001b0: 3835 433d 82a0 da3d 724d b8bd 8027 393c
000001c0: 90f5 7a3c 30ae 93bc d46a 0cbd 5030 c63c
000001d0: d074 bd3c 789f 51bd 5c65 353d da7b d53d
000001e0: 3811 fa3c 36a7 82bd e8b3 99bc bc99 03bd
000001f0: b28e ff3d 7af1 84bd 2eab 993d 469f febd
00000200: 58e1 373d 28b3 f1bd b087 59bc 9a9d c1bd
00000210: b817 d1bd e059 b73c 76cc be3d c00a ba3d
00000220: 048f 59bd 34bb 14bd 688b abbc 80c7 5cbb
00000230: 588b a7bd 80f1 8dbb 8af4 983d 4a9a d63d
00000240: 34cf c43d 50e5 78bd 643b 963d 0814 883d
00000250: 0035 dc3d 3cbe 06bd 7258 c3bd 70a1 6c3c
00000260: 3647 853d 88a4 e7bc f061 1e3c 5824 93bc
00000270: 8aba d9bd 5c10 173d d8d9 023d 009d 2a3b
00000280: 9ac3 d4bd 14e1 4c3d 40d3 9f3b b0ab e1bd
00000290: b2e0 ddbd 60b8 603c 1065 723c f0da 233c
000002a0: 7a21 823d 0024 1bba faf7 f33d 0cc8 11bd
000002b0: f036 91bd 4666 b3bd 805b 7abd d085 f63d
000002c0: 46ac 803d f411 3cbd f8aa acbd c033 09bc
000002d0: c43e b23d a0fd f73d 264b e9bd 309b 6fbd
000002e0: 523d d4bd 18a8 bcbc c83d 93bc e8c6 e63d
000002f0: 1c1a f63d dc2b ec3d cc32 4cbd 20c0 5ebd
00000300: 2b06 57bf 0926 06bf 0485 9a3e c0ac bc3e
00000310: bbff 06bf 5d42 aa3f 7ba3 1bbe f1a1 183e
00000320: 6013 edbe bac0 8cbf 6370 3e3f 878d 9c3e
00000330: 70bc 273f 00cc dabe af84 acbe 010e cbbe
00000340: 03d0 9a3e 2b90 6fbf a682 b0be 8633 43bf
00000350: e7b6 c1be ce5f b73e dd14 ae3f 4086 0ebd
00000360: 554f 243e 18ba 90bc 2053 3b3f 0482 96bf
00000370: d4b3 cf3d 70da 823f c8b4 d9bf 10f6 60bf
00000380: 4850 603d bae9 b0bd 48fa b4bd 60d5 4e3d
00000390: 48db 3cbd 20e6 403d aa9e c63d 108f 38bd
000003a0: f089 99bc 0ef6 c8bd 1c53 c6bd 20dd 883c
000003b0: 08a9 c43c 8edb cbbd 423c d3bd 3cbe 843d
000003c0: 606c 9fbb 0a32 d93d 5a11 da3d c880 1e3d
000003d0: c042 7fbc 2c94 433d 24cc b23d d22d ec3d
000003e0: 44d3 c03d 9c27 d7bd 00e2 85bd da41 f4bd
000003f0: a4a6 e0bd e0a5 603c 8c85 f53d 9880 0a3d
-0.6832157 -0.7077974 0.35973027 0.7964162 -0.24643321 0.8095519 0.19769502 0.30904526
-0.7548833 -1.2693459 1.309665 0.6258667 0.08395508 -0.39824864 -0.69185364 -0.5560274
0.7699753 -1.1558015 -0.50630635 -1.186427 -0.4813061 0.66961735 1.2560047 -0.28036955
0.26495436 0.2066552 0.6923537 -1.0002974 -0.2268536 0.4244217 -0.7586242 -1.0731721
0.020246342 0.05585386 0.04477328 0.035287514 0.023139253 -0.022408113 0.11468598 -0.018079445
-0.054737613 0.07708734 -0.046232447 0.11530076 0.11062801 -0.083804354 -0.10268128 -0.040863156
0.08063172 -0.10281703 0.06785013 -0.12408477 -0.023813754 -0.032880887 0.013255671 0.10097024
-0.08791071 0.0020627677 0.006105587 -0.05243057 0.008615732 0.09010275 -0.07649019 0.07910547
-0.7237882 -0.17794473 -0.41588956 1.1113253 -0.13525502 1.7080948 -0.28580442 0.12307599
-0.12591939 -0.62410647 -0.026965529 0.07316387 0.06988586 0.65088373 -0.2255246 -0.62180406
-0.18383923 -0.9634866 0.34393445 -0.73637444 0.0397121 -0.21827008 0.822775 -0.2966579
0.31671438 0.19687943 0.19206026 -0.10401605 0.16890486 0.8160839 -1.0535898 -0.47646007
0.093658105 0.05391912 -0.07390167 -0.069662586 0.027618676 0.035378426 0.06620745 -0.09150325
0.12043749 -0.024570048 0.043849334 -0.05357112 0.047658175 0.10675146 -0.089991465 0.011300921
0.015317336 -0.018027395 -0.034281567 0.02419296 0.02312699 -0.051177472 0.044286117 0.104240134
0.030525789 -0.06379549 -0.018762544 -0.032129034 0.12478389 -0.064913705 0.07503353 -0.12432723
0.04489264 -0.118017495 -0.013276979 -0.09453888 -0.10209602 0.022381723 0.093163416 0.09084082
-0.053114906 -0.036311343 -0.020940498 -0.0033688247 -0.081808746 -0.0043317676 0.07468517 0.10478647
0.09609833 -0.060765564 0.073355466 0.06644446 0.107522964 -0.032896265 -0.09538354 0.014442787
0.06507723 -0.028276697 0.009666905 -0.017961666 -0.10631283 0.036880836 0.031946033 0.002603352
-0.103888705 0.05001934 0.004877478 -0.11019075 -0.10833873 0.013715833 0.014794603 0.010000929
0.063540414 -0.0005918145 0.11912532 -0.03559117 -0.070905566 -0.087597415 -0.061122417 0.120372415
0.062828586 -0.04591556 -0.08431047 -0.008374155 0.08703378 0.12108922 -0.113912866 -0.058497608
-0.103632584 -0.023029372 -0.017973796 0.11268407 0.12016699 0.11531803 -0.04985313 -0.054382443
-0.83993787 -0.5240179 0.30179608 0.36850548 -0.52733964 1.3301502 -0.15199082 0.14905526
-0.46303844 -1.0996315 0.7439024 0.30576727 0.6552191 -0.42733765 -0.3369498 -0.39659122
0.30236825 -0.9357936 -0.34474677 -0.76250494 -0.37834856 0.3581528 1.3600117 -0.034796
0.16045888 -0.017666861 0.73173714 -1.1758428 0.10141721 1.0222912 -1.7008295 -0.8787546
0.054764062 -0.0863833 -0.088368 0.05049646 -0.04610756 0.047094464 0.096982315 -0.04505831
-0.018742532 -0.09812556 -0.096838206 0.016707003 0.024006382 -0.09953986 -0.10314228 0.06481597
-0.004865214 0.10605247 0.10647841 0.038697034 -0.015579879 0.04774873 0.08730343 0.11532177
0.09415296 -0.10505602 -0.06537247 -0.11926623 -0.10969284 0.013711423 0.11988363 0.033814043

tgnn._base_tgcn.linear_z.bias f4 [32]
00000000: 843e eabe 90a2 163f fa09 f23d f486 1e3d
00000010: 35ec dcbe e3b8 15be a97c 72be a91d 7d3c
00000020: c40f c2be 11f1 2b3d ffba f5be 8391 e6be
00000030: 99d4 20bf 4e31 27bf c011 c0bb 336e 8c3d
00000040: 1c2d 793d 7850 e3bd 69c7 f0be 17d8 d3be
00000050: 7dd5 b6be 966d e33e 7838 70be 5b12 19bf
00000060: cdd1 bd3e bb1b 0bbf 2d76 f63d 3c80 6dbe
00000070: 3bce 493e a9c2 01bf 783c f53d 1e60 bfbe
-0.4575082 0.588418 0.11818309 0.03870292 -0.43148962 -0.1462131 -0.23680367 0.015448966
-0.37902653 0.041977946 -0.4799423 -0.45032892 -0.628244 -0.6530961 -0.005861491 0.06856956
0.060834035 -0.110993326 -0.47027138 -0.413758 -0.35709754 0.44419545 -0.23459041 -0.59793633
0.37074128 -0.5433919 0.12034259 -0.23193449 0.19707577 -0.5068765 0.11974424 -0.3737802

tgnn._base_tgcn.conv_r.bias f4 [32]
00000000: 0000 0000 0000 0000 0000 0000 0000 0000
00000010: 0000 0000 0000 0000 0000 0000 0000 0000
00000020: 0000 0000 0000 0000 0000 0000 0000 0000
00000030: 0000 0000 0000 0000 0000 0000 0000 0000
00000040: 0000 0000 0000 0000 0000 0000 0000 0000
00000050: 0000 0000 0000 0000 0000 0000 0000 0000
00000060: 0000 0000 0000 0000 0000 0000 0000 0000
00000070: 0000 0000 0000 0000 0000 0000 0000 0000
0.0 0.0 0.0 0.0 0.0 0.0 0.0 0.0
0.0 0.0 0.0 0.0 0.0 0.0 0.0 0.0
0.0 0.0 0.0 0.0 0.0 0.0 0.0 0.0
0.0 0.0 0.0 0.0 0.0 0.0 0.0 0.0

tgnn._base_tgcn.conv_r.lin.weight f4 [32, 3]
00000000: 1ebb 2d3e 40d1 19bd 6891 6d3d 5b84 9d3e
00000010: 6687 95be c04b a5bc 28c7 0fbe 9a12 90be
00000020: 6474 c03d e0df 343c 5c84 c53d 074d a83e
00000030: a765 90be a018 1dbd 640a e9bd 9b2c 803e
00000040: 3455 8fbd 844f b9be a06e af3c a21e 073e
00000050: be3e 253e 54d1 cebd f2a1 173e a85e 8c3d
00000060: d633 4e3e 72bd 763e 1a6a 3bbe a03f 90be
00000070: 9c42 bb3d 3a99 6e3e 2204 133e cc30 3dbe
00000080: 490b 9cbe 6cbb bb3d 8f6c 8f3e 771b 3ebe
00000090: 0252 73be bf7d a03e 9dc9 c0be 8fcd 9d3e
000000a0: 6017 08bc 5ccb fa3d cc3e 17be d0fe 81be
000000b0: 53d9 c93e 8665 2a3e 7434 a7bd e294 77be
000000c0: 5d26 9a3e c18d 35be 5e6c 7b3e c6ee 293e
000000d0: b4d3 8abe fa16 2e3e e086 5fbc 79e0 8c3e
000000e0: 9de2 34be 980f bebe 5078 c9be 36b8 73be
000000f0: 7766 903e b296 7ebe 28c4 c8bd a0f8 0bbc
00000100: 80a3 1dbb 80a1 a0bd 44de 78be 74ab 90bd
00000110: 1e1f 9fbe 0f98 b5be fee6 773e e084 59be
00000120: aea8 773e 4790 47be ba2c 3d3e 640f 96bd
00000130: 3080 1fbe b674 3d3e 2e64 1e3e 1c08 bd3d
00000140: 80b5 543b c879 84bd 35fa cdbe 58e8 95bd
00000150: 6d45 b13e 9170 963e 94ee bf3d f253 4b3e
00000160: 50f6 4fbd 5e6d 83be 79b0 36be 92cd 303e
00000170: 099f cd3e 963f 143e 7025 78bd d693 b6be
0.16965911 -0.037553072 0.058 0.30765042 -0.29204863 -0.020177722 -0.14040816 -0.28139192
0.093972 0.011039704 0.09644386 0.32871267 -0.28202555 -0.038353562 -0.11378935 0.2503403
-0.06998673 -0.36193478 0.021415055 0.13195279 0.16137215 -0.1009852 0.14807871 0.06853992
0.20136961 0.24095705 -0.18302193 -0.28173542 0.09143564 0.23300639 0.14357045 -0.18475646
-0.3047736 0.09166607 0.2801251 -0.18565165 -0.23761752 0.31345937 -0.3765382 0.3082089
-0.008306354 0.12245819 -0.14770049 -0.2538972 0.39423618 0.1664029 -0.081643015 -0.24177888
0.30107394 -0.17729856 0.24553058 0.16594991 -0.27114642 0.17000952 -0.013642997 0.2751501
-0.17664571 -0.37121272 -0.39349604 -0.2380074 0.28203174 -0.24862173 -0.09803039 -0.008543164
-0.0024053752 -0.07843304 -0.24303538 -0.07063952 -0.31078428 -0.35467574 0.2420921 -0.21242094
0.2418544 -0.19488631 0.18474093 -0.07327154 -0.15576243 0.18501553 0.15467903 0.09230062
0.0032456815 -0.064685404 -0.40229955 -0.07319707 0.3462328 0.29382756 0.09371677 0.19856241
-0.05077201 -0.25669378 -0.17840756 0.17265919 0.40160397 0.14477381 -0.06058258 -0.35659665

tgnn._base_tgcn.linear_r.weight f4 [32, 64]
00000000: f80b 97bd 98e4 ea3c e87f 03bd 2e96 febd
00000010: e8bb c33c 2027 473d 5263 cb3d ac55 65bd
00000020: f223 ad3d a236 e1bd 40a9 dd3c 9808 ab3c
00000030: 1260 bcbd e4ed 763d 460d e23d 345a 80bd
00000040: 0846 2fbd 6010 943c f402 b73d 4662 8ebd
00000050: a45e 43bd 6438 373d c01a 273d 88c2 723d
00000060: e453 cc3d dc06 e83d 4c7b b63d c840 6b3d
00000070: ee84 933d 3c83 993d e228 e1bd 80d1 8f3b
00000080: 22af d6bd c022 bc3c b078 5b3d 5803 72bd
00000090: 5a66 df3d 70f3 613d c08c 5f3d 30be 303c
000000a0: e4a9 70bd 0889 ca3c 6a73 8e3d b43a c73d
000000b0: a8c8 d23d 9a7f 8c3d 5ea0 a03d 74fc 8dbd
000000c0: a022 9ebc 9409 17bd a427 a73d 1efa b7bd
000000d0: e8f0 cf3d 40ec 98bc cc6f f23d 14a5 223d
000000e0: 0057 c73d 0471 0bbd 94a1 d23d fa8d a4bd
000000f0: 3075 7b3c 00dc 143b 0e96 f93d ec00 023d
00000100: 8053 26bd 6e77 9abd 0c4a c63d 4cf4 58bd
00000110: 0870 96bd e61c fbbd 506e 36bc ecce cabd
00000120: 585e babc e249 88bd 386a fc3d 4685 9cbd
00000130: 3030 ad3d b836 e93d 680e a33d f827 8bbc
00000140: f87c d4bc 4cc4 cb3d c8da 9e3d 34f3 13bd
00000150: 5238 ff3d 5c6e babd caf6 a13d 2044 9bbb
00000160: 209d 283d eaaf e43d 5e53 ee3d 78a6 bcbc
00000170: 54c6 a7bd 0432 bd3d 048e c13d f630 b83d
00000180: 26b8 9b3d 6894 423d d0d5 b23d c6f0 d1bd
00000190: a0c5 1e3d 042d fa3d 2225 a73d 7441 093d
000001a0: 9038 f2bd 7875 f23d 0a1e 93bd 0a00 cbbd
000001b0: 9639 c13d 543c 55bd 945e 433d 1c2e 1b3d
000001c0: 50f1 323c 2c6e 39bd 32d5 d3bd 74b7 f73d
000001d0: 2846 84bc b83b 7d3d 2069 cbbc c69c ed3d
000001e0: acea d43d 06fd 9fbd 92d6 f6bd fce4 0e3d
000001f0: 906d 1abc f8ba b2bc 9437 fcbd 28fd c2bd
00000200: 1846 5f3d e067 64bc e843 c33d 7a95 923d
00000210: e0f5 3f3d c099 a53c a8f0 a9bc 3069 a73c
00000220: 9af1 b83d 1c4b 19bd 248a 803d ac82 9b3d
00000230: 04a0 af3d c01c 45bb debe dfbd b07d 5d3d
00000240: 26d7 f53d 98ab 9c3c dcaa 40bd 2066 ce3b
00000250: d43b 36bd 80fe 9bbb e6e8 8bbd e0ff 1fbd
00000260: d4e5 123d 9024 a7bc 0879 a3bd b06e 8bbd
00000270: e0f1 c73c 609b b6bd 0c82 c83d de62 aa3d
00000280: 50d6 0cbc 403e 593d 6cdc a1bd bc82 b13d
00000290: e08e 77bd a8af ecbd 1065 63bd 10e7 8f3d
000002a0: 8c12 02bd c0a6 f7bb 7004 a4bd 8243 9b3d
000002b0: 8cb6 fcbd 04e2 103d 641e e8bd 3c00 b03d
000002c0: 58c3 133d 7472 70bd 0044 4c3b 689f d6bc
000002d0: f8fb 6ebd d41a e03d 0452 e0bd 0060 00bc
000002e0: 48fc e33d a063 e33c 64f0 d1bd a0b8 e0bd
000002f0: 808c d83b ece7 3c3d f84f 3bbd ee57 b0bd
00000300: 8052 fe3a 7ce9 123d 5498 cfbd 1224 bcbd
00000310: c087 913c fc43 a5bd e8d9 eabc cc4f 66bd
00000320: 64f2 7d3d e498 ba3d 3e55 f9bd 0609 f53d
00000330: c295 ef3d 30aa e4bd 9e92 a33d 603d 04bd
00000340: ac90 1abd 7821 843d ce21 9d3d c86f 89bc
00000350: 3248 fb3d 6413 dabd 9813 dcbc c86e 77bd
00000360: 7cb8 e0bd 203f ff3d 144a bbbd 6cc1 b5bd
00000370: cc0a babd 94fa 8e3d 7899 cabd 60e5 c43c
00000380: 12a9 ba3d 04c4 233d c0e1 f4bc 1abf a5bd
00000390: 54c6 ce3d fc0f 64bd 60f9 d4bc 2288 a33d
000003a0: 8494 6fbd ae87 ab3d 38b0 ecbd eae0 913d
000003b0: 1448 773d 20f6 fc3c 401b a53c 40a5 2abb
000003c0: 9cde 073d 6455 a2bd 2c6b c6bd 2e55 94bd
000003d0: e450 6ebd 9ce2 783d 4467 bfbd b8e2 b63c
000003e0: 98d7 80bc 182b 8bbc 80c6 b63c e88d cebc
000003f0: f2cf 993d 9862 0bbd ac9b bcbd 804f 7c3c
-0.0737533 0.028673455 -0.032104403 -0.12430988 0.023893312 0.048621297 0.09931053 -0.055989906
0.08454122 -0.109967485 0.027058244 0.020878121 -0.091980115 0.060285464 0.11037688 -0.06267205
-0.042791396 0.018074214 0.0893611 -0.06952338 -0.04769768 0.044731513 0.040796995 0.05926755
0.09976938 0.11329433 0.08910236 0.057434827 0.07203089 0.07495734 -0.10994126 0.004388988
-0.10482623 0.022965789 0.053581893 -0.05908522 0.10908194 0.0551638 0.05457759 0.010787532
-0.05875577 0.024723545 0.06955607 0.097279936 0.102921784 0.068602756 0.078430876 -0.06932917
-0.01930362 -0.03687437 0.08161858 -0.08983253 0.10153371 -0.01866734 0.1183773 0.039708212
0.09733391 -0.034043327 0.10284725 -0.080348924 0.015347764 0.0022714138 0.12186824 0.03173916
-0.040606976 -0.07542311 0.09682092 -0.052967355 -0.07345587 -0.12261371 -0.011134699 -0.099027485
-0.022750065 -0.06654717 0.12324947 -0.076426074 0.08456457 0.1138739 0.07961732 -0.016986832
-0.025938496 0.0994955 0.07756573 -0.03612061 0.12461914 -0.09103081 0.079083994 -0.0047383457
0.04116547 0.111663654 0.11636995 -0.023028597 -0.08192125 0.09238055 0.094509155 0.089937136
0.07603483 0.047504812 0.08732188 -0.10251002 0.03876269 0.12215617 0.081613794 0.033509687
-0.11827195 0.11838812 -0.07183464 -0.09912117 0.09434812 -0.052059487 0.04769762 0.03788577
0.010921791 -0.045271084 -0.10343398 0.12095538 -0.016146734 0.06182453 -0.024830401 0.11602168
0.103963226 -0.07811932 -0.12052645 0.034886345 -0.009425536 -0.02181767 -0.12315288 -0.09520942
0.054510206 -0.013940781 0.095344365 0.07157417 0.046865344 0.020214915 -0.020744637 0.0204359
0.09030457 -0.037425146 0.06276348 0.07593283 0.085754424 -0.003007695 -0.10925077 0.054074943
0.12003927 0.019124791 -0.047037944 0.0062987953 -0.04449065 -0.0047605634 -0.06831531 -0.03906238
0.035863712 -0.020403177 -0.07982069 -0.06808221 0.024407327 -0.08916354 0.097904295 0.08319639
-0.008596018 0.05303788 -0.0790337 0.08667514 -0.06043899 -0.11556941 -0.055516303 0.070264935
-0.03175597 -0.00755772 -0.08008659 0.075812355 -0.123395056 0.035371795 -0.113339216 0.08593795
0.036074966 -0.0587029 0.003116846 -0.026199058 -0.058345765 0.10942617 -0.10953143 -0.007835388
0.11132103 0.027757466 -0.10250929 -0.109727144 0.006608546 0.046119615 -0.04573056 -0.08610521
0.0019403249 0.0358672 -0.10136476 -0.09186567 0.017764926 -0.080696076 -0.028668359 -0.056228444
0.06199874 0.09111193 -0.12174462 0.11964612 0.11698486 -0.11165273 0.079869494 -0.032285094
-0.037735626 0.06451696 0.07672463 -0.016776934 0.122696295 -0.1064823 -0.026864812 -0.060408384
-0.109726876 0.12463212 -0.09144989 -0.08874783 -0.090840906 0.06981388 -0.09892553 0.024035156
0.09114279 0.039981857 -0.029892802 -0.0809309 0.10096422 -0.055679306 -0.025997818 0.0798495
-0.058491245 0.08375488 -0.115570486 0.07122977 0.060371473 0.03087908 0.020154595 -0.0026038438
0.03317128 -0.07926443 -0.0968841 -0.07242809 -0.058182612 0.060762987 -0.09345868 0.022324905
-0.015727803 -0.016988322 0.022311449 -0.02521415 0.075103655 -0.034029573 -0.092093796 0.015399814

tgnn._base_tgcn.linear_r.bias f4 [32]
00000000: 1c8a 973d 4e00 d0bd 9435 7abd b0a5 4d3d
00000010: f215 883d 0060 6ebc e4de 8b3d f05d 193c
00000020: c0bf 1abb d44e f9bd 780b f2bd 3cce df3d
00000030: 08e4 543d 3eb9 edbd 54b4 703d 1c26 37bd
00000040: b067 193d 723e 8a3d 587a 083d f0b9 9cbc
00000050: ae30 b5bd d841 393d 3077 57bd ecb9 d9bd
00000060: feda d5bd 2c38 673d fc8f fe3d 00b3 7e3a
00000070: 2a6b ca3d b09b 133d b64d 843d 2240 8d3d
0.07399389 -0.10156308 -0.061086252 0.05020684 0.06644811 -0.014549255 0.068296224 0.009360775
-0.0023612827 -0.121732384 -0.11818594 0.10928008 0.05197528 -0.11607598 0.058765724 -0.04471408
0.0374524 0.06750192 0.0333198 -0.01913163 -0.088471755 0.04522881 -0.0526039 -0.10631165
-0.1044216 0.056450054 0.124298066 0.0009716004 0.09883721 0.036037147 0.06460135 0.06896998

tgnn._base_tgcn.conv_h.bias f4 [32]
00000000: d430 9a3e 99a8 0e3d 44be 7abe ecb3 acbd
00000010: ae7f 363e 77cf 03bf 57b4 8e3e 9734 903e
00000020: 8066 013f b917 b6bc 31ff 85be 8eb1 2a3e
00000030: 58c0 cabe 5207 9bbb 9a0c d13d 922d ddbe
00000040: a5fa 8b3c 23d7 8fbe 5102 683e 4b5c abbd
00000050: 825c b53d 4750 f43e f71b 603d 3e03 a63c
00000060: 1d6c 4fbe cb33 1b3e d72f 51be 12f7 883e
00000070: 75a4 d23e cd22 db3e 5c30 58be d7fc 64bc
0.30115378 0.034828756 -0.24486643 -0.08432755 0.17822143 -0.5148844 0.27871963 0.28165123
0.5054703 -0.022228109 -0.26171258 0.16669294 -0.39599872 -0.0047310973 0.10207482 -0.4319883
0.01708729 -0.28093824 0.22657134 -0.08367213 0.08855535 0.47717497 0.05471417 0.020265218
-0.20256086 0.15156476 -0.20428406 0.26751 0.41141096 0.42799988 -0.21112198 -0.013976297

tgnn._base_tgcn.conv_h.lin.weight f4 [32, 3]
00000000: 2bcb 513e 7487 2bbf 0086 c63f e35e 9abe
00000010: cd19 8abf 0bb7 603f e8e1 33be ee9f 44be
00000020: 2027 0c40 5111 11bd e0de 873f 8cdc 2cbf
00000030: f6f4 243e d4d7 383f 3a27 abbf 4778 023f
00000040: c754 ad3e 35f4 12bf 2bfb 0ebf a757 16bf
00000050: 3b9e 123f 313e 06bf 5484 a6be c3ba 923f
00000060: d031 b4bc efa1 313f 6c71 a4bc b997 383d
00000070: 7948 92bf 4266 733f b0b7 323f 2466 b13e
00000080: 7e84 9ebf 2643 09bf c253 82bf 4f68 23be
00000090: f1df 9cbc d87c 2a3f d2d6 05bf 5852 1a3f
000000a0: 0e14 973f 6102 f3bd cf99 2f3e aeb5 1ebf
000000b0: c49b e43f 61ac 9ebd 2910 dabe 4138 d5bf
000000c0: 4146 35bf 86ab 753d 4a65 ca3f 2bbe cbbe
000000d0: 8a40 59bf fab0 6abf c1fb 0bbe 8a36 47bf
000000e0: 816b 5b3f 6506 953d 7b0e 9c3f df1d 173e
000000f0: 0cd5 0cbe 1acf 8fbf 6256 acbe 5e2d 133e
00000100: c8e1 4f3e 178d ae3f c249 303f 4e91 873f
00000110: d3cc cc3f b9c1 9dbe 4c88 76bf a3ce 9f3f
00000120: 4da6 b23e 4c18 103f ebb1 86bf 9a7f 193e
00000130: 6a59 07bf 3864 d73f fbb5 06be ce03 8bbf
00000140: ac09 10bf f645 d2be 23e0 36be 5710 ba3f
00000150: a6ac 06bb ff5c a6be 9e71 de3f 0475 dabe
00000160: 4006 2d3f cda2 ab3f 059c 163f a0c0 bd3e
00000170: 74b7 b6bf 91c6 44bd 94f9 97bf e845 3a3f
0.20487659 -0.6700356 1.5509644 -0.30150518 -1.0789124 0.877793 -0.17566645 -0.19201633
2.189888 -0.035416905 1.0614891 -0.6752403 0.1610907 0.7220433 -1.3371346 0.5096478
0.33853742 -0.5740388 -0.55852 -0.58727497 0.5727269 -0.52438647 -0.32522833 1.1463245
-0.021996409 0.69387716 -0.020073615 0.04506657 -1.1428367 0.9507791 0.69811535 0.3464824
-1.2384183 -0.53618085 -1.0181811 -0.1595776 -0.019149752 0.66596746 -0.52280915 0.60281897
1.1802995 -0.11865688 0.17148517 -0.6199597 1.7860036 -0.077477224 -0.42590454 -1.6657792
-0.70810324 0.05997803 1.5812161 -0.39793524 -0.84864104 -0.91676295 -0.13670255 -0.77817595
0.8571091 0.0727661 1.2191919 0.14757489 -0.13753146 -1.1235077 -0.33659655 0.14372775
0.20300972 1.3636807 0.68862545 1.0591218 1.6000007 -0.3081186 -0.9630172 1.2484936
0.34892502 0.56287074 -1.0523046 0.14990082 -0.5287081 1.6827459 -0.13155358 -1.0860536
-0.5626476 -0.41069 -0.17858939 1.4536237 -0.0020549684 -0.32492825 1.7378423 -0.426674
0.6758766 1.3409058 0.58831817 0.37061024 -1.4274735 -0.04804093 -1.187304 0.7276292

tgnn._base_tgcn.linear_h.weight f4 [32, 64]
00000000: 8b01 c6be dbbb 5dbf 0bdc 1fbf 9a5f 9f3f
00000010: 2184 763f 8635 883e 44a5 1bbf 1f11 05bf
00000020: f973 1c3f a421 aebf 7cae d93e bb99 4bbf
00000030: 7e1c 893e 1cbc 3a3f 1d36 1abf 8230 dfbe
00000040: f811 dabe 48fc 11bf 58ed 31bf 4250 993f
00000050: 92d5 63bf 1343 823e 3507 e83e 9f83 93bf
00000060: dc09 183f 9a42 b9be e99c 50bf 1c77 a0be
00000070: d444 e7bc aef0 fa3e 54b9 c33e 8ec2 9bbf
00000080: 0ee0 84bd 6a56 b33d 129d a43d acf0 7fbd
00000090: 7ca2 1cbd 9ea3 9cbd 569c ec3d 4853 60bd
000000a0: 0058 793d 2451 12bd 7e2b c83d 381a d33d
000000b0: 8a11 c53d 286d 983c 50c9 473d 5891 c03c
000000c0: 087b dabc d857 57bd a0c0 eb3b 02f3 9cbd
000000d0: 4411 b8bd b2cb aebd 4c60 6e3d d0ae 1fbc
000000e0: 248c e63d fc9e 973d c48b 593d ac7e 19bd
000000f0: 02fd ccbd 9087 eb3d 8037 203b 86b2 e0bd
00000100: a208 2d3f 4e07 c43e 8084 5f3e 93b4 c2bf
00000110: 71e1 c6be 3c68 84be 62b2 df3e 1a3c fc3e
00000120: 35d3 41bd 0dc7 623f 97e8 7fbe 454d 883e
00000130: 5779 d8be f517 8dbe 4fc1 5d3f 7bdb 28be
00000140: 42d2 703d c69e 013e c8ae b33f aa87 01bf
00000150: 818f a53e d9ac 0a3e 5cec 053d 3207 be3e
00000160: 42f1 4fbf 8529 3f3f b8e8 4d3e cee5 1f3f
00000170: 5a39 b63e 6d09 71bd b1ca eabe f1a4 513f
00000180: 3a4c b6bd 40ed 54bc b64b f5bd e022 ac3c
00000190: e8b9 86bd f8af 643d da34 a6bd 3c68 80bd
000001a0: 00bc d23b 6073 de3b bc88 b83d 002f acba
000001b0: 9052 3e3d dcc0 a33d 682a abbd 04bf 9e3d
000001c0: 9cd9 56bd c097 6a3c 4826 d63c 6019 c23c
000001d0: 50ce ee3c d45e 3a3d 5480 a8bd d0bb 003d
000001e0: 289a 92bc 68cc 963d c27b 90bd b0f8 213d
000001f0: 548e 5a3d ec03 54bd 6a10 a9bd 5a04 bb3d
00000200: a4d3 e53d f6ae a73d 365a c5bd e46f 3d3d
00000210: 8c63 cdbd a8b3 88bc 7ced d2bd 8896 883d
00000220: 1afb 9c3d 94c6 a33d d48d 6bbd 222b f03d
00000230: 82bb b63d c099 843c 62f1 bdbd 3088 923d
00000240: d0f8 153d 9079 0f3c aa71 fabd ba4e 97bd
00000250: 903e 73bc ee13 eabd b4cb b43d 5888 c7bc
00000260: 889d 9abc e8c4 2d3d 70e4 563d 4c92 9ebd
00000270: 98d4 9c3c d449 73bd 069d d8bd 28f2 fc3d
00000280: 5805 fb3c 704e aebd b894 8dbd 0cd7 0f3d
00000290: 5a35 eebd 509d 2fbd c440 a93d 04d3 9bbd
000002a0: f430 d23d 9c2b 283d 7aeb d3bd 38ab 573d
000002b0: 76fe f33d 74dd 4a3d 586c d23d 0062 d3ba
000002c0: 729e c0bd e487 243d a069 033d 78d5 593d
000002d0: 2861 a1bc 04a4 80bd 44bf 133d a445 c0bd
000002e0: f01a d43d 5460 54bd 44ff ffbd da2b 903d
000002f0: 2076 d13b 20f0 23bd 6408 39bd 22f0 a7bd
00000300: 9380 103f d661 713c 3b69 773f f3ef e1bd
00000310: bcec a3be d4cc 583f 137e 7abe 9414 123c
00000320: 738c 3ebc c955 3c3e fb9a 433d c02c fabe
00000330: ac2b a13e 7ac8 553e 84e3 903f e40d 0bbf
00000340: de87 e43e a610 a1be ef0f 8e3d 1a5b 993e
00000350: df41 b4be e0f9 bc3e ca70 e93e 6a51 313e
00000360: 3d3c 43bd c3e1 7e3f 43da 98be 3ec5 e93e
00000370: 5cde 243f 5e54 f23e 3fd3 5dbe 86d7 21ba
00000380: 40cd 96bc 1642 ab3d 4ca1 4b3d 242a f23d
00000390: 0414 28bd 48cf 6ebd 58ed a8bc ea4c ce3d
000003a0: f616 cc3d 9cbb 83bd 5007 f03d 8257 993d
000003b0: 0829 453d 3031 65bc 024d b53d 3443 8e3d
000003c0: 0690 9c3d 4c42 163d 4806 d8bc 3287 813d
000003d0: b873 b5bd 60e3 8a3b 14aa b3bd 402f a23c
000003e0: ee2e d53d 2428 ebbd 9c7d 05bd 7685 e0bd
000003f0: 9c9e c7bd 0870 913d 0077 183b b059 6d3c
-0.38673052 -0.8661477 -0.62445134 1.245105 0.9629536 0.26603335 -0.6079905 -0.5197925
0.6111446 -1.3604016 0.42515934 -0.7953145 0.2677955 0.7294328 -0.6023882 -0.43591696
-0.42591834 -0.57025576 -0.6950278 1.1977618 -0.8899776 0.254418 0.45318 -1.1524543
0.59390044 -0.36183625 -0.81489426 -0.31340873 -0.028231062 0.4901175 0.38227332 -1.2168748
-0.064880475 0.087567165 0.08037771 -0.062485382 -0.038240895 -0.07648395 0.11553256 -0.054766923
0.06087494 -0.035721913 0.097739205 0.10307735 0.09622486 0.018606737 0.04877597 0.023506805
-0.026669994 -0.05257401 0.0071945935 -0.076635376 -0.08987668 -0.085349455 0.058197305 -0.009746268
0.112571985 0.07403371 0.053111807 -0.03747432 -0.10009195 0.11500466 0.0024447143 -0.10971551
0.675913 0.38286823 0.21827888 -1.5211357 -0.38843873 -0.25860775 0.43690783 0.49264604
-0.047320563 0.8858498 -0.2499107 0.26621452 -0.42280075 -0.2755734 0.8662309 -0.16489975
0.058794267 0.12658224 1.4037714 -0.5059763 0.32336047 0.13542499 0.032696113 0.37114865
-0.81227505 0.7467273 0.20108306 0.6246003 0.3559063 -0.05884688 -0.45857766 0.81892306
-0.08901258 -0.012996018 -0.11977331 0.021012723 -0.065784276 0.05583188 -0.081155494 -0.06269881
0.0064311028 0.006788656 0.09010455 -0.0013136566 0.046465456 0.079957694 -0.08357698 0.07751277
-0.052453622 0.014318407 0.0261413 0.02369374 0.029151112 0.04550059 -0.08227602 0.031429112
-0.017895773 0.07363206 -0.07054855 0.039543808 0.05335839 -0.051761553 -0.08255084 0.09131689
0.11222008 0.08187668 -0.09636347 0.046249285 -0.10028753 -0.01668723 -0.10299203 0.066693366
0.07665081 0.0799686 -0.057508305 0.11726977 0.08922483 0.016186595 -0.09274556 0.07154882
0.03661424 0.00875701 -0.12228711 -0.07388063 -0.014846459 -0.114295825 0.08827916 -0.024357006
-0.018873945 0.042424113 0.05246395 -0.07742748 0.019144341 -0.05939658 -0.10576825 0.12350875
0.030642197 -0.085110545 -0.069131315 0.035117194 -0.1163127 -0.042874634 0.08264306 -0.076086074
0.10263243 0.041057214 -0.10347648 0.05265352 0.11913769 0.0495276 0.10274571 -0.0016127229
-0.09405221 0.040168658 0.032083154 0.053182095 -0.019699648 -0.062812835 0.036071077 -0.09388283
0.103567004 -0.05184968 -0.1249986 0.07039614 0.0063922554 -0.040023923 -0.045174018 -0.082000986
0.5644619 0.014732799 0.96644944 -0.11032095 -0.32016551 0.8468754 -0.24462156 0.008916039
-0.011630165 0.183921 0.047755223 -0.48862267 0.31478631 0.20877257 1.1319432 -0.5431807
0.44634908 -0.31458014 0.06936633 0.29952317 -0.35206506 0.3690939 0.45593864 0.17316213
-0.04766487 0.99563235 -0.2985402 0.45658296 0.64401793 0.47329992 -0.21662615 -0.0006173778
-0.018408418 0.08362214 0.04971437 0.11824444 -0.041034713 -0.058303148 -0.020620987 0.10073264
0.09965317 -0.06432268 0.11720145 0.07487394 0.048134834 -0.013988778 0.08852579 0.06946412
0.07644658 0.03668432 -0.026370183 0.063246146 -0.08859962 0.004238531 -0.08772674 0.019797921
0.10409342 -0.114822656 -0.032590494 -0.10962956 -0.09747049 0.071014464 0.002326429 0.014486715

tgnn._base_tgcn.linear_h.bias f4 [32]
00000000: eb4f 943e af34 7c3e 327e b6bd e2b8 12be
00000010: fdf9 803e 611d 0b3f bc17 c53d 037f d9bd
00000020: 40fb 603e ff8e 1d3f cbd5 403e c6e9 853e
00000030: 28d7 5f3e 3892 b03e b13c cfbc 0953 01be
00000040: a8ab aabd 7881 e0bc 91e2 223e 5670 da3e
00000050: eb3e fa3e 4d10 bfbe 5722 4e3e ca16 633e
00000060: a599 2b3e d748 223f 66b0 2e3f f4ae 1c3f
00000070: 8eb1 8f3e 2acf 2b3e 9741 63bb 67ab a83e
0.28967223 0.24629472 -0.089107886 -0.1432834 0.25190726 0.54341704 0.096236676 -0.10619929
0.21970844 0.6154632 0.18831556 0.26154917 0.2185942 0.34486556 -0.025297495 -0.12629332
-0.08333522 -0.027405486 0.1590674 0.4266383 0.48876128 -0.37317124 0.20130287 0.22176662
0.1675783 0.63392395 0.6823791 0.6120446 0.2806515 0.16778246 -0.0034676546 0.3294327

linear.weight f4 [16, 32]
00000000: 000d ad3e 89b6 b6be 1f32 e4bd c35b 783f
00000010: c394 c43e afb3 1bbf e53e b23e 801f 54bd
00000020: 50de d73e 56a2 5ebf d5ab 973e acfa c63e
00000030: cd55 f23e 092f d0be c60f 623d ba55 bc3d
00000040: c0ce 8b3c debc e9bd fbf7 0f3f d2e6 a6be
00000050: 09c3 0abf e669 84bf e28e 003f ac7f 613e
00000060: 1870 dfbe 4176 5cbf e9f0 36bf e64e 1dbf
00000070: 4dc0 10bf a10f 8c3e a8d7 a43d 2a5c cc3d
00000080: faed 7a3e b2c6 f3be 5c3b 2f3d d307 563f
00000090: 4295 b13e b6be 17bf dde8 c03e 8e46 30bd
000000a0: f982 123f 6a5c 55bf e0ac e63e db0a 993e
000000b0: c1fc cc3e e110 d3be 2d73 e6bd b594 f03d
000000c0: 9c5a 153d 4839 62bd c446 183f c718 c7be
000000d0: 5b8a 1ebf 7daf 94bf 76f2 b03e 0430 083f
000000e0: a6cb 9ebe 046b 60bf 729b 31bf 444e 26bf
000000f0: be5a 42bf ec56 9b3e 4962 063e fe9d 903e
00000100: 196c 0b3f 9ddd dbbe 30ae ecbd 384f 333f
00000110: 8739 993e d9f5 06bf 0413 1c3f b3f8 d6bd
00000120: 3b32 ad3e bbc1 56bf a5d3 913e c9b4 fd3e
00000130: 78ca bb3e 0e2b efbe aeed 193d a694 6f3d
00000140: 46b9 0ebe d608 15be 3adb ab3e 637b 10bf
00000150: 7cc3 2bbf a024 a4bf c6f0 043f 5a58 d83e
00000160: 5b8b 3abf f257 32bf 22a8 37bf 457a 3fbf
00000170: f3e4 17bf 7a5a 063f 4bea c73a 7b56 633e
00000180: dbf4 e03e 3b7c 1bbf 605b 013c 8bf3 0c3f
00000190: 9b75 da3e c667 d2be 05cd af3e 3792 333d
000001a0: 1ae1 be3e 27c4 55bf d515 df3e c437 ae3e
000001b0: ee0e dd3e a61d 22bf 791e 3e3d e6dc 0fbe
000001c0: e924 343e 2a0c fd3d 1962 df3e 2189 1cbf
000001d0: c902 23bf ef3a b3bf 2fc8 1e3f 6243 183f
000001e0: 777e 21bf 05ff 3ebf 9b54 42bf 4000 37bf
000001f0: 5bd0 36bf 1f1b 803e 628b 36bd 51de f33e
00000200: 5416 d53e bf05 31bf c01f 6cbd 0851 613e
00000210: 1bac ca3e 8fed 0fbf 04f6 0a3f 58e9 b23d
00000220: fa32 193f 4bb7 3abf 82be 0e3f 2c6c e23e
00000230: 3e17 d33e 5828 f2be 095c 923b 754e c2bd
00000240: 01f5 323e 0abe d63d b568 f03e f823 13bf
00000250: 4542 29bf a37d bdbf 5cc2 a63e 0d1f 0e3f
00000260: 7624 34bf de91 66bf ee32 2bbf d990 1cbf
00000270: 42cf 5ebf 1efc 6d3e 1013 da3b 52df 1a3f
00000280: 2004 1f3f 2604 46bf 25c4 2a3e 029c fb3d
00000290: 71f4 c93e eb64 4cbf f8d6 1f3f dfe6 18bd
000002a0: f14f ab3e ae1e 33bf af29 9e3e 7dc3 e93e
000002b0: 9beb 203f 4ba7 13bf 5899 1ebc ab83 df3d
000002c0: d9c9 bfbd 10c1 09be a126 a03e c7f3 18bf
000002d0: e194 47bf 9d89 c3bf 51c2 213f c589 9f3e
000002e0: 19b4 2abf 1a88 4bbf 9f16 11bf acaa 05bf
000002f0: 7aca 8fbf a48b 023f 819d 8f3d e658 1d3f
00000300: 7259 d13e dbc9 37bf 8220 fc3d 7240 c3bd
00000310: 3b94 0e3f 4af6 18bf 57a2 083f c0a3 4a3d
00000320: cc13 193f 61d8 18bf b944 cb3e 4916 103f
00000330: 1349 073f fbab 40bf b895 cfbd 4419 2abd
00000340: 2aea d4bd 722b a63d 4c21 f33e 2986 44bf
00000350: 96b2 19bf 038e c8bf 1f3b ab3e c67b a93e
00000360: fb2a 85bf f52e 30bf 3ce6 2cbf 73a6 21bf
00000370: dd8c 8ebf 21fd ca3e 92a3 193d bb3f 503f
00000380: 69bf 0e3f 221b 89bf 30ba cfbc 7cac a3be
00000390: c6bc ce3e 4f89 3dbf a3e4 293f a21f 7abd
000003a0: b92b 0d3f 5ade 22bf 7717 173f 92f9 c03e
000003b0: 1b86 023f 83c1 4dbf 7554 293c 61b4 b7bd
000003c0: 587e 8dbc 3805 b2bc 0ddd bd3e 4aa0 49bf
000003d0: 1c7f 26bf 9ea7 cebf bd5a 103f 4b18 153f
000003e0: 06d3 59bf 1b3f 2ebf 621b 03bf f0ae e4be
000003f0: 205b 95bf 33eb 863e fd65 af3c 6b7e 2a3f
0.3379898 -0.35686138 -0.11142372 0.9701502 0.38394746 -0.6082105 0.3481361 -0.051787853
0.42161798 -0.86966455 0.29623285 0.38863122 0.47331086 -0.40660885 0.055190824 0.091960385
0.01706636 -0.11412977 0.56237763 -0.32597977 -0.5420385 -1.0344818 0.5021802 0.22021359
-0.43640208 -0.8611794 -0.7146135 -0.61448514 -0.5654343 0.27355674 0.08048946 0.099785164
0.24504843 -0.4761253 0.04278122 0.8360569 0.34684187 -0.59275377 0.3767766 -0.043036036
0.572311 -0.8334414 0.45053768 0.29891095 0.40036586 -0.41223815 -0.11252437 0.117471136
0.036463365 -0.05523041 0.5948298 -0.3888609 -0.61929864 -1.1616055 0.34559983 0.53198266
-0.31014746 -0.8766329 -0.69377816 -0.64963174 -0.7591971 0.30339754 0.1312343 0.28245538
0.5446182 -0.42942515 -0.11556661 0.70042753 0.29926702 -0.52718884 0.60966516 -0.10496654
0.33827385 -0.8388936 0.28481784 0.4955199 0.3667791 -0.46712536 0.037580185 0.05849137
-0.13937864 -0.14554152 0.33565694 -0.56438273 -0.6709516 -1.2823677 0.5192989 0.42254907
-0.7286889 -0.69665444 -0.71740925 -0.74795943 -0.59333724 0.52481806 0.001525232 0.22200958
0.4393681 -0.60736436 0.007895321 0.5505912 0.4266785 -0.41094798 0.34336105 0.043840613
0.37281114 -0.8350243 0.43571344 0.3402692 0.43175453 -0.6332649 0.04641578 -0.1404911
0.17592205 0.12355836 0.4362953 -0.6114674 -0.63676125 -1.400236 0.62024206 0.5947782
-0.63083595 -0.7460788 -0.7591035 -0.71484756 -0.71411675 0.25020692 -0.04456652 0.4763055
0.41618598 -0.6914939 -0.057647467 0.22003567 0.3958443 -0.5622186 0.5428164 0.08735913
0.5984341 -0.7293593 0.5575944 0.44223154 0.4122867 -0.47296405 0.004466538 -0.09487621
0.17476274 0.10485466 0.46954885 -0.5747676 -0.66116744 -1.4803966 0.3257016 0.5551613
-0.70368135 -0.90066326 -0.6687459 -0.6115852 -0.87035 0.23240706 0.0066551045 0.6049701
0.6211567 -0.7735008 0.16676386 0.122856155 0.39444306 -0.7984149 0.6243739 -0.03732955
0.33459428 -0.6996869 0.30891177 0.45656958 0.62859505 -0.57677144 -0.009680115 0.109137855
-0.09364671 -0.13452554 0.31279472 -0.59746975 -0.77961546 -1.5276371 0.6318713 0.31159797
-0.6668106 -0.7950455 -0.5667514 -0.5221355 -1.1233666 0.50994325 0.07012463 0.61463773
0.40888554 -0.7179238 0.12310888 -0.09533776 0.5569493 -0.5975081 0.5337271 0.04947257
0.5979583 -0.5970517 0.3970087 0.56284004 0.5284588 -0.7526242 -0.101359785 -0.041528
-0.10396226 0.08113755 0.4748634 -0.7676721 -0.60038126 -1.5668339 0.33443543 0.33102244
-1.0403742 -0.6882165 -0.6753881 -0.63144606 -1.1136738 0.39646247 0.03750951 0.81347245
0.5576082 -1.0711405 -0.025357336 -0.31967533 0.40378398 -0.7403764 0.66364497 -0.061065324
0.5514484 -0.6362053 0.5902018 0.37690407 0.5098588 -0.803734 0.0103350775 -0.089699514
-0.01727216 -0.021731004 0.3708271 -0.78760207 -0.65037704 -1.6144903 0.56388456 0.58240193
-0.8508762 -0.6806504 -0.5121366 -0.44664717 -1.1668434 0.26351318 0.021410936 0.6659915

linear.bias f4 [16]
00000000: 22c8 753e ae51 bc3d a8cd 2d3e 5759 353e
00000010: f6b2 aebc f281 f9bb ec67 26bb 51de 8ebc
00000020: a8b0 fabd 4f4c 9fbd 945b 25be bdbc d0bd
00000030: ade8 0fbe 9bfe b5bd e4de 29bb 4b8a 94bd
0.24002126 0.09195267 0.16972983 0.17709862 -0.02132557 -0.0076143676 -0.0025391532 -0.017439993
-0.12240726 -0.077782266 -0.16148216 -0.10192249 -0.14053603 -0.08886453 -0.0025920207 -0.0725294

linear2.weight f4 [6, 21]
00000000: 6b4a 063f b434 3b3f 24c0 193e fc01 0dbe
00000010: 6560 c2be 5726 0a3f 8230 ebbe 087f b73e
00000020: 4aa0 c33d aa0b ae3e adba dbbe d5f2 2abe
00000030: c4ce 1f3e 9fd0 c83d ab5f 233e 25fa a0be
00000040: 0f83 fdbd 9c7f 6d3e 16a4 87bd 1907 95be
00000050: 0a9b 3fbe 18c5 0abd 5414 6c3e 4116 6d3d
00000060: 791a 613e cf39 6fbe 477f bf3e 763c 0f3f
00000070: d175 8e3e 09b0 1ebd 48ef 91bd 302c 003f
00000080: 3244 45bd e299 63be a044 503e ecc5 ca3c
00000090: 249c 99be 73d1 23be 0bb5 f6be 127a 453c
000000a0: f52b 9f3d f959 633e 1fb3 803e 8aac a63d
000000b0: 244a 91bd 4171 88bd d979 5dbe f418 0cbe
000000c0: 4b50 443e a446 a43e f46d 0e3e 452b 82be
000000d0: 6699 73be 2fbb 7bbd 8f48 493e eb40 0dbf
000000e0: 8f2d ea3e 75d0 67bd 2166 ae3d 596d 08be
000000f0: c7f2 2ebe 53b6 7bbe 633c e4bd b2f7 79be
00000100: 7fea a9be b73a 99be e9af 2ebe 518c 3f3e
00000110: 0668 8cbe 648e 923d 1809 14bf cf81 a63e
00000120: 6b77 c63e cf66 473d b628 903e 365f ea3e
00000130: e846 a3be 32e5 53be fb93 243f a737 e33e
00000140: fbf9 e93d 5d67 41bc d627 783e ad84 983e
00000150: d739 bebd 31bc 04be 3e83 183c 84f9 e23e
00000160: 9240 e53e 61fd 8ebe ee5b 5cbd 6d2a 4a3e
00000170: 4c2d 9bbc 0b9a 9fbe 427f cfbd d01a c5be
00000180: 94a6 f4bd 7c71 b93b eb93 f93e 1bd0 f2bd
00000190: d01a 93be d292 863e b561 743e 53bb 5b3e
000001a0: 3ac0 a93d d6bd 06be d66d cebe 63d6 e9be
000001b0: ca86 86bd d867 953e 380f 69bd ac1a a23d
000001c0: bb79 cbbe 21cb 5f3e 3e49 493e 7031 dabc
000001d0: a1e9 903d 4cd6 f03e 22cc 8dbe e40e 5fbd
000001e0: 6c76 c83e 6e4f d53e 1f49 823e 84b4 3cbe
000001f0: fe96 9a3e 38f8 473e
0.524573 0.73127294 0.15014702 -0.13770288 -0.37964168 0.5396475 -0.45935446 0.35839105
0.09552057 0.33993274 -0.4291586 -0.16694196 0.15606219 0.09805416 0.15954463 -0.31440845
-0.12378513 0.2319321 -0.06623094 -0.29106978 -0.18711486 -0.03387937 0.2305463 0.05788255
0.21982755 -0.23361896 0.37401792 0.5595163 0.27824262 -0.0387421 -0.071257174 0.50067425
-0.04816074 -0.2222667 0.20338678 0.02475258 -0.30001938 -0.15997867 -0.48185 0.01205303
0.07772056 0.2220229 0.2513666 0.08138378 -0.07094219 -0.066622265 -0.21628512 -0.13681394
0.19171254 0.32085145 0.13909131 -0.25423637 -0.23788986 -0.06145781 0.19656585 -0.5517718
0.45737883 -0.056595284 0.08515573 -0.13322963 -0.170848 -0.2458127 -0.1114433 -0.24410895
-0.3318672 -0.29927608 -0.17059292 0.1870587 -0.27423114 0.07156065 -0.57826376 0.3252091
0.38762984 0.04868203 0.2815606 0.45775765 -0.31890035 -0.206929 0.642883 0.44378397
0.11424633 -0.011804429 0.24233946 0.29788724 -0.09288376 -0.12962414 0.009308634 0.4433099
0.44775826 -0.27927688 -0.05379861 0.19742747 -0.018942498 -0.31172213 -0.101316944 -0.3849702
-0.11945835 0.0056592803 0.48745665 -0.11856099 -0.28731394 0.2628389 0.23865397 0.21458177
0.082886174 -0.13158354 -0.40318173 -0.45671377 -0.06568678 0.2918079 -0.05689928 0.079152435
-0.3974131 0.21854831 0.19656846 -0.026634902 0.07075811 0.47038496 -0.27694803 -0.05445756
0.3915285 0.41662163 0.25446412 -0.18428236 0.30193323 0.19528282

linear2.bias f4 [6]
00000000: c67d 43be d597 7d3e a5d5 9dbf fd73 a43d
00000010: 0df5 253f 472e 9ebf
-0.19090948 0.2476495 -1.2330824 0.080299355 0.6482704 -1.2357873
