A3TGCN2_Checkpoints/Epoch_38.pth (torch, 35255 bytes, 17 tensors)

tgnn._attention f4 [16]
0	0x3fd080e8	1.6289339
1	0x3f6033a4	0.875788
2	0x3ef9f9f1	0.48823503
3	0xbd9192c0	-0.071080685
4	0x3e30ef4d	0.17278786
5	0xbd8e429f	-0.06946301
6	0xbd6e922c	-0.05824487
7	0x3e90b7a9	0.28265122
8	0x3e1815a7	0.1485201
9	0x3e2334d2	0.15938118
10	0x3e7631b0	0.24042392
11	0x3eb065c2	0.34452635
12	0x3ea1f026	0.3162853
13	0x3f0e7c04	0.5565798
14	0x3f3d1bcf	0.7387056
15	0x3fa72814	1.3059106

tgnn._base_tgcn.conv_z.bias f4 [32]
0	0x3f0b7aff	0.5448455
1	0x3efc41f5	0.4926907
2	0x3e787548	0.24263489
3	0xbc383bed	-0.011244756
4	0xbe3599f9	-0.17734517
5	0xbec95f8b	-0.39330706
6	0xbefa217d	-0.48853675
7	0xbf0f7535	-0.5603822
8	0x3f137d20	0.576128
9	0x3f0b2809	0.54357964
10	0xbf1519ff	-0.5824279
11	0xbf096ba4	-0.5367987
12	0x3e206549	0.15663637
13	0x3e026013	0.12731962
14	0x3f02be1c	0.51071334
15	0x3f07fd79	0.53121144
16	0xbf0fd981	-0.5619126
17	0x3f151838	0.5824008
18	0x3ea3904e	0.31946033
19	0x3f19cc3d	0.6007727
20	0x3f04d804	0.51892114
21	0xbf04e329	-0.5190912
22	0xbf0ab3d9	-0.54180676
23	0x3f1485ab	0.5801646
24	0xbef77aac	-0.4833578
25	0xbf081fb6	-0.5317339
26	0xbef4d4ae	-0.47818512
27	0x3ee85633	0.45378265
28	0x3f1676ad	0.58774835
29	0xbe9475a8	-0.28996015
30	0x3e9f6fb4	0.3113991
31	0x3f09c367	0.53813785

tgnn._base_tgcn.conv_z.lin.weight f4 [32, 3]
0	0xbe97f386	-0.2967798
1	0xbeb028ec	-0.3440622
2	0xbffda09f	-1.9814643
3	0x3ea40f2f	0.32042834
4	0xbf0788d6	-0.5294317
5	0xbf7fdb27	-0.99943775
6	0xbf4df5e7	-0.8045334
7	0x3f013c65	0.5048278
8	0xbf834a5a	-1.0257065
9	0xbe4716e1	-0.19442321
10	0x3f5418eb	0.8285052
11	0x3fb1fb1e	1.390476
12	0x3f266f15	0.6501325
13	0xbf33a307	-0.70170635
14	0x3e9659f4	0.29365504
15	0xbdf2c452	-0.118538514
16	0x3f0651bf	0.52468485
17	0x3ff416d3	1.9069465
18	0xbf189b21	-0.5961171
19	0xbe5fb780	-0.21847343
20	0xbe1171c6	-0.14203557
21	0xbd07fa37	-0.033197608
22	0x3e6d553e	0.23177049
23	0x3fd69808	1.6765146
24	0x3e644549	0.22292055
25	0xbf079862	-0.5296689
26	0xbfaacb7c	-1.3343349
27	0x3eb7f909	0.35932186
28	0xbf5e6ab8	-0.8688159
29	0xbfa61ba7	-1.2977189
30	0x3e188099	0.14892806
31	0x3f08e975	0.5348123
32	0x3f69a1cd	0.91262513
33	0xbef2aec4	-0.4739896
34	0x3f0d33af	0.5515699
35	0x3f4be0c5	0.79639846
36	0xbeabee75	-0.33580366
37	0x3f43dc4a	0.7650801
38	0xbe822724	-0.25420487
39	0xbf691a00	-0.910553
40	0x3daa3691	0.08311189
41	0x3e115f33	0.14196472
42	0x3ec0a1a3	0.3762332
43	0xbefc8ec6	-0.49327677
44	0xbf9568e6	-1.1672637
45	0xbdd1f81d	-0.10252402
46	0xbe83b0af	-0.25720736
47	0xc00fc654	-2.24648
48	0xbe2838e8	-0.16427958
49	0x3ed4f731	0.41594842
50	0x3f820bbf	1.0159835
51	0x3dec4c46	0.115379855
52	0xbf2dd09b	-0.6789643
53	0xbfea9665	-1.8327147
54	0xbf06486d	-0.5245426
55	0xbe57e047	-0.21081649
56	0x3cd07e00	0.025450706
57	0xbe433191	-0.19061877
58	0xbeef768b	-0.4677013
59	0xbff0d2e6	-1.8814361
60	0x3ecc71af	0.39930484
61	0xbeed78cd	-0.46381226
62	0xbf8b1c01	-1.0867921
63	0xbe31d0f8	-0.17364872
64	0x3ebb0475	0.36526838
65	0x3f394c75	0.7238229
66	0xbe884116	-0.26612157
67	0x3f4ef63f	0.8084449
68	0x3fcf65f8	1.6202993
69	0x3db0e77d	0.08637903
70	0xbe16b80e	-0.14718649
71	0xc00d66c2	-2.2093968
72	0x3ed3b520	0.41349125
73	0x3da0beb0	0.07848871
74	0x3fff184b	1.9929289
75	0x3e8e1e15	0.27757326
76	0x3d25497a	0.040353276
77	0x3fd9f44b	1.7027677
78	0x3f14c356	0.5811056
79	0x3e9219ff	0.28535458
80	0x3f67ef03	0.9059908
81	0xbf05956d	-0.5218113
82	0xbecd473d	-0.40093413
83	0xbf36286b	-0.7115542
84	0x3da805d7	0.08204239
85	0x3e01c764	0.12673718
86	0xbfc974f1	-1.5738813
87	0x3f466139	0.774921
88	0x3f81dffb	1.0146478
89	0x3fb65f14	1.4247766
90	0xbd908dc4	-0.0705829
91	0xbfa6a457	-1.3018903
92	0xbf9c00ce	-1.2187746
93	0xbc8836d7	-0.016627712
94	0xbf02e066	-0.51123655
95	0xbfb77851	-1.4333593

tgnn._base_tgcn.linear_z.weight f4 [32, 64]
0	0xbeba95f4	-0.3644253
1	0xbf341c8f	-0.70356077
2	0x3f1ac427	0.60455555
3	0x3f575903	0.84120196
4	0xbec6833d	-0.38772002
5	0x3f3c6f3f	0.7360725
6	0x3e4246b7	0.18972288
7	0x3e65c6e5	0.22439153
8	0xbf35b249	-0.70975167
9	0xbfac2001	-1.3447267
10	0x3f9076c2	1.1286242
11	0x3f2469dd	0.64224035
12	0x3e2c34f7	0.1681708
13	0xbe71b714	-0.23604995
14	0xbf2f1b75	-0.6840127
15	0xbecd8886	-0.40143222
16	0x3f381e30	0.7192106
17	0xbf850088	-1.0390787
18	0xbe9c00dd	-0.3046941
19	0xbf698480	-0.91217804
20	0xbef3c983	-0.4761468
21	0x3f213c50	0.62982655
22	0x3fa2d8eb	1.2722448
23	0xbe4c9947	-0.19980346
24	0x3cb3a1d6	0.021927755
25	0x3d81e3a8	0.0634225
26	0x3eb30ef8	0.34972358
27	0xbf4dc607	-0.8038029
28	0xbe28a7e9	-0.16470303
29	0x3ed166da	0.40898782
30	0xbf49b186	-0.78786504
31	0xbf6529f8	-0.89517164
32	0x3ca5dba8	0.020246342
33	0x3d64c704	0.05585386
34	0x3d376430	0.04477328
35	0x3d1089a4	0.035287514
36	0x3cbd8e88	0.023139253
37	0xbcb79138	-0.022408113
38	0x3deae07c	0.11468598
39	0xbc941b58	-0.018079445
40	0xbd60348c	-0.054737613
41	0x3d9ddff8	0.07708734
42	0xbd3d5e3c	-0.046232447
43	0x3dec22ce	0.11530076
44	0x3de290f0	0.11062801
45	0xbdaba19e	-0.083804354
46	0xbdd24a90	-0.10268128
47	0xbd276020	-0.040863156
48	0x3da5223e	0.08063172
49	0xbdd291bc	-0.10281703
50	0x3d8af502	0.06785013
51	0xbdfe2028	-0.12408477
52	0xbcc31510	-0.023813754
53	0xbd06ae1c	-0.032880887
54	0x3c592e50	0.013255671
55	0x3dcec97c	0.10097024
56	0xbdb40a88	-0.08791071
57	0x3b072f80	0.0020627677
58	0x3bc81160	0.006105587
59	0xbd56c170	-0.05243057
60	0x3c0d2900	0.008615732
61	0x3db887ca	0.09010275
62	0xbd9ca6e4	-0.07649019
63	0x3da2020c	0.07910547
64	0xbf6e1f92	-0.9301692
65	0xbea3fdb2	-0.32029492
66	0x3dcf613b	0.10125967
67	0x3febf829	1.8435107
68	0xbf583a2a	-0.8446375
69	0x400cb67c	2.198638
70	0xbf02d20e	-0.5110177
71	0x3d9ed1e5	0.07754878
72	0xbe7f8f86	-0.24957094
73	0xbf822772	-1.0168288
74	0x3e6c3984	0.23068815
75	0x3e225970	0.1585443
76	0x3f3dbdb3	0.74117583
77	0x3f14d781	0.5814133
78	0xbea0c63f	-0.3140125
79	0xbf25481b	-0.6456315
80	0xbe00e80e	-0.12588522
81	0xbfa5e540	-1.2960587
82	0x3b8f70bc	0.0043774527
83	0xbf78d6cc	-0.97202754
84	0xbc9660f1	-0.018356772
85	0xbe425ca0	-0.18980646
86	0x3f9efd99	1.2421142
87	0xbe420884	-0.18948561
88	0x3e73f7b9	0.23824967
89	0x3d2a59f7	0.041589703
90	0x3f0602a8	0.52347803
91	0xbf2620db	-0.64893883
92	0x3ecb583e	0.3971576
93	0x3faf74d5	1.3707529
94	0xbff1a4a8	-1.8878374
95	0xbf3a1b06	-0.72697484
96	0x3dbfcfd2	0.093658105
97	0x3d5cda4c	0.05391912
98	0xbd9759c2	-0.07390167
99	0xbd8eab42	-0.069662586
100	0x3ce24090	0.027618676
101	0x3d10e8f8	0.035378426
102	0x3d8797c6	0.06620745
103	0xbdbb660e	-0.09150325
104	0x3df6a7ee	0.12043749
105	0xbcc94720	-0.024570048
106	0x3d339b5c	0.043849334
107	0xbd5b6d64	-0.05357112
108	0x3d433538	0.047658175
109	0x3ddaa082	0.10675146
110	0xbdb84d72	-0.089991465
111	0x3c392780	0.011300921
112	0x3c7af590	0.015317336
113	0xbc93ae30	-0.018027395
114	0xbd0c6ad4	-0.034281567
115	0x3cc63050	0.02419296
116	0x3cbd74d0	0.02312699
117	0xbd519f78	-0.051177472
118	0x3d35655c	0.044286117
119	0x3dd57bda	0.104240134
120	0x3cfa1138	0.030525789
121	0xbd82a736	-0.06379549
122	0xbc99b3e8	-0.018762544
123	0xbd0399bc	-0.032129034
124	0x3dff8eb2	0.12478389
125	0xbd84f17a	-0.064913705
126	0x3d99ab2e	0.07503353
127	0xbdfe9f46	-0.12432723
128	0x3d37e158	0.04489264
129	0xbdf1b328	-0.118017495
130	0xbc5987b0	-0.013276979
131	0xbdc19d9a	-0.09453888
132	0xbdd117b8	-0.10209602
133	0x3cb759e0	0.022381723
134	0x3dbecc76	0.093163416
135	0x3dba0ac0	0.09084082
136	0xbd598f04	-0.053114906
137	0xbd14bb34	-0.036311343
138	0xbcab8b68	-0.020940498
139	0xbb5cc780	-0.0033688247
140	0xbda78b58	-0.081808746
141	0xbb8df180	-0.0043317676
142	0x3d98f48a	0.07468517
143	0x3dd69a4a	0.10478647
144	0x3dc4cf34	0.09609833
145	0xbd78e550	-0.060765564
146	0x3d963b64	0.073355466
147	0x3d881408	0.06644446
148	0x3ddc3500	0.107522964
149	0xbd06be3c	-0.032896265
150	0xbdc35872	-0.09538354
151	0x3c6ca170	0.014442787
152	0x3d854736	0.06507723
153	0xbce7a488	-0.028276697
154	0x3c1e61f0	0.009666905
155	0xbc932458	-0.017961666
156	0xbdd9ba8a	-0.10631283
157	0x3d17105c	0.036880836
158	0x3d02d9d8	0.031946033
159	0x3b2a9d00	0.002603352
160	0xbdd4c39a	-0.103888705
161	0x3d4ce114	0.05001934
162	0x3b9fd340	0.004877478
163	0xbde1abb0	-0.11019075
164	0xbddde0b2	-0.10833873
165	0x3c60b860	0.013715833
166	0x3c726510	0.014794603
167	0x3c23daf0	0.010000929
168	0x3d82217a	0.063540414
169	0xba1b2400	-0.0005918145
170	0x3df3f7fa	0.11912532
171	0xbd11c80c	-0.03559117
172	0xbd9136f0	-0.070905566
173	0xbdb36646	-0.087597415
174	0xbd7a5b80	-0.061122417
175	0x3df685d0	0.120372415
176	0x3d80ac46	0.062828586
177	0xbd3c11f4	-0.04591556
178	0xbdacaaf8	-0.08431047
179	0xbc0933c0	-0.008374155
180	0x3db23ec4	0.08703378
181	0x3df7fda0	0.12108922
182	0xbde94b26	-0.113912866
183	0xbd6f9b30	-0.058497608
184	0xbdd43d52	-0.103632584
185	0xbcbca818	-0.023029372
186	0xbc933dc8	-0.017973796
187	0x3de6c6e8	0.11268407
188	0x3df61a1c	0.12016699
189	0x3dec2bdc	0.11531803
190	0xbd4c32cc	-0.04985313
191	0xbd5ec020	-0.054382443
192	0xbf3f8790	-0.74816227
193	0xbf08ff3c	-0.53514457
194	0x3ec5ff58	0.38671374
195	0x3eb20130	0.3476653
196	0xbf10119f	-0.5627689
197	0x3fa60aac	1.2972007
198	0xbdf6d9d0	-0.12053263
199	0x3e1595dc	0.14607948
200	0xbeee1c09	-0.46505764
201	0xbf8c6653	-1.0968727
202	0x3f2eb27f	0.68241113
203	0x3ea75944	0.32685292
204	0x3f25e540	0.6480293
205	0xbeaa95c0	-0.33317375
206	0xbeb55552	-0.35416657
207	0xbebe19bc	-0.3712901
208	0x3e9b5b2e	0.30343002
209	0xbf6829e3	-0.90688914
210	0xbe57a893	-0.210604
211	0xbf31924c	-0.69363856
212	0xbecb7783	-0.39739618
213	0x3eb93d0a	0.36179382
214	0x3fac0c63	1.344128
215	0xbd231b69	-0.039821062
216	0x3db8910e	0.09012042
217	0xbd382503	-0.044957172
218	0x3f0ee91d	0.5582445
219	0xbf81bf17	-1.0136441
220	0x3db652be	0.089025006
221	0x3f75055f	0.9571132
222	0xbfd36d2f	-1.6517695
223	0xbf56a440	-0.83844376
224	0x3d605048	0.054764062
225	0xbdb0e9ba	-0.0863833
226	0xbdb4fa48	-0.088368
227	0x3d4ed560	0.05049646
228	0xbd3cdb48	-0.04610756
229	0x3d40e620	0.047094464
230	0x3dc69eaa	0.096982315
231	0xbd388f10	-0.04505831
232	0xbc9989f0	-0.018742532
233	0xbdc8f60e	-0.09812556
234	0xbdc6531c	-0.096838206
235	0x3c88dd20	0.016707003
236	0x3cc4a908	0.024006382
237	0xbdcbdb8e	-0.09953986
238	0xbdd33c42	-0.10314228
239	0x3d84be3c	0.06481597
240	0xbb9f6c60	-0.004865214
241	0x3dd9320a	0.10605247
242	0x3dda115a	0.10647841
243	0x3d1e80c8	0.038697034
244	0xbc7f42c0	-0.015579879
245	0x3d43942c	0.04774873
246	0x3db2cc24	0.08730343
247	0x3dec2dd2	0.11532177
248	0x3dc0d344	0.09415296
249	0xbdd7279c	-0.10505602
250	0xbd85e200	-0.06537247
251	0xbdf441da	-0.11926623
252	0xbde0a6a4	-0.10969284
253	0x3c60a5e0	0.013711423
254	0x3df5858c	0.11988363
255	0x3d0a8098	0.033814043

tgnn._base_tgcn.linear_z.bias f4 [32]
0	0xbed1f580	-0.41007614
1	0x3f4449e9	0.7667528
2	0x3df209fa	0.11818309
3	0x3d0623b9	0.03274891
4	0xbe9ff226	-0.31239432
5	0xbe156be9	-0.14591946
6	0xbe7561de	-0.23963115
7	0x3c7d1da9	0.015448966
8	0xbe8838a9	-0.26605728
9	0x3a8361e0	0.0010023676
10	0xbeeeca93	-0.46638927
11	0xbecb1a18	-0.39668345
12	0xbf30a96e	-0.6900853
13	0xbf46759f	-0.77523226
14	0x3c876330	0.016526788
15	0x3d8c6e33	0.06856956
16	0x3d792d1c	0.060834035
17	0xbde35078	-0.110993326
18	0xbef69e4f	-0.48167655
19	0xbec4c1c7	-0.3842909
20	0xbea6664b	-0.32499918
21	0x3f0727ee	0.527953
22	0xbe0ec54a	-0.13942447
23	0xbf24c511	-0.643632
24	0x3efc49a0	0.4927492
25	0xbf183c8d	-0.59467393
26	0x3dd25b21	0.10271288
27	0xbeac3e7a	-0.33641416
28	0x3e6e714c	0.23285407
29	0xbf00c865	-0.5030578
30	0x3df53c78	0.11974424
31	0xbeb91613	-0.36149654

tgnn._base_tgcn.conv_r.bias f4 [32]
0	0x00000000	0.0
1	0x00000000	0.0
2	0x00000000	0.0
3	0x00000000	0.0
4	0x00000000	0.0
5	0x00000000	0.0
6	0x00000000	0.0
7	0x00000000	0.0
8	0x00000000	0.0
9	0x00000000	0.0
10	0x00000000	0.0
11	0x00000000	0.0
12	0x00000000	0.0
13	0x00000000	0.0
14	0x00000000	0.0
15	0x00000000	0.0
16	0x00000000	0.0
17	0x00000000	0.0
18	0x00000000	0.0
19	0x00000000	0.0
20	0x00000000	0.0
21	0x00000000	0.0
22	0x00000000	0.0
23	0x00000000	0.0
24	0x00000000	0.0
25	0x00000000	0.0
26	0x00000000	0.0
27	0x00000000	0.0
28	0x00000000	0.0
29	0x00000000	0.0
30	0x00000000	0.0
31	0x00000000	0.0

tgnn._base_tgcn.conv_r.lin.weight f4 [32, 3]
0	0x3e2dbb1e	0.16965911
1	0xbd19d140	-0.037553072
2	0x3d6d9168	0.058
3	0x3e9d845b	0.30765042
4	0xbe958766	-0.29204863
5	0xbca54bc0	-0.020177722
6	0xbe0fc728	-0.14040816
7	0xbe90129a	-0.28139192
8	0x3dc07464	0.093972
9	0x3c34dfe0	0.011039704
10	0x3dc5845c	0.09644386
11	0x3ea84d07	0.32871267
12	0xbe9065a7	-0.28202555
13	0xbd1d18a0	-0.038353562
14	0xbde90a64	-0.11378935
15	0x3e802c9b	0.2503403
16	0xbd8f5534	-0.06998673
17	0xbeb94f84	-0.36193478
18	0x3caf6ea0	0.021415055
19	0x3e071ea2	0.13195279
20	0x3e253ebe	0.16137215
21	0xbdced154	-0.1009852
22	0x3e17a1f2	0.14807871
23	0x3d8c5ea8	0.06853992
24	0x3e4e33d6	0.20136961
25	0x3e76bd72	0.24095705
26	0xbe3b6a1a	-0.18302193
27	0xbe903fa0	-0.28173542
28	0x3dbb429c	0.09143564
29	0x3e6e993a	0.23300639
30	0x3e130422	0.14357045
31	0xbe3d30cc	-0.18475646
32	0xbe9c0b49	-0.3047736
33	0x3dbbbb6c	0.09166607
34	0x3e8f6c8f	0.2801251
35	0xbe3e1b77	-0.18565165
36	0xbe735202	-0.23761752
37	0x3ea07dbf	0.31345937
38	0xbec0c99d	-0.3765382
39	0x3e9dcd8f	0.3082089
40	0xbc081760	-0.008306354
41	0x3dfacb5c	0.12245819
42	0xbe173ecc	-0.14770049
43	0xbe81fed0	-0.2538972
44	0x3ec9d953	0.39423618
45	0x3e2a6586	0.1664029
46	0xbda73474	-0.081643015
47	0xbe7794e2	-0.24177888
48	0x3e9a265d	0.30107394
49	0xbe358dc1	-0.17729856
50	0x3e7b6c5e	0.24553058
51	0x3e29eec6	0.16594991
52	0xbe8ad3b4	-0.27114642
53	0x3e2e16fa	0.17000952
54	0xbc5f86e0	-0.013642997
55	0x3e8ce079	0.2751501
56	0xbe34e29d	-0.17664571
57	0xbebe0f98	-0.37121272
58	0xbec97850	-0.39349604
59	0xbe73b836	-0.2380074
60	0x3e906677	0.28203174
61	0xbe7e96b2	-0.24862173
62	0xbdc8c428	-0.09803039
63	0xbc0bf8a0	-0.008543164
64	0xbb1da380	-0.0024053752
65	0xbda0a180	-0.07843304
66	0xbe78de44	-0.24303538
67	0xbd90ab74	-0.07063952
68	0xbe9f1f1e	-0.31078428
69	0xbeb5980f	-0.35467574
70	0x3e77e6fe	0.2420921
71	0xbe5984e0	-0.21242094
72	0x3e77a8ae	0.2418544
73	0xbe479047	-0.19488631
74	0x3e3d2cba	0.18474093
75	0xbd960f64	-0.07327154
76	0xbe1f8030	-0.15576243
77	0x3e3d74b6	0.18501553
78	0x3e1e642e	0.15467903
79	0x3dbd081c	0.09230062
80	0x3b54b580	0.0032456815
81	0xbd8479c8	-0.064685404
82	0xbecdfa35	-0.40229955
83	0xbd95e858	-0.07319707
84	0x3eb1456d	0.3462328
85	0x3e967091	0.29382756
86	0x3dbfee94	0.09371677
87	0x3e4b53f2	0.19856241
88	0xbd4ff650	-0.05077201
89	0xbe836d5e	-0.25669378
90	0xbe36b079	-0.17840756
91	0x3e30cd92	0.17265919
92	0x3ecd9f09	0.40160397
93	0x3e143f96	0.14477381
94	0xbd782570	-0.06058258
95	0xbeb693d6	-0.35659665

tgnn._base_tgcn.linear_r.weight f4 [32, 64]
0	0xbd970bf8	-0.0737533
1	0x3ceae498	0.028673455
2	0xbd037fe8	-0.032104403
3	0xbdfe962e	-0.12430988
4	0x3cc3bbe8	0.023893312
5	0x3d472720	0.048621297
6	0x3dcb6352	0.09931053
7	0xbd6555ac	-0.055989906
8	0x3dad23f2	0.08454122
9	0xbde136a2	-0.109967485
10	0x3cdda940	0.027058244
11	0x3cab0898	0.020878121
12	0xbdbc6012	-0.091980115
13	0x3d76ede4	0.060285464
14	0x3de20d46	0.11037688
15	0xbd805a34	-0.06267205
16	0xbd2f4608	-0.042791396
17	0x3c941060	0.018074214
18	0x3db702f4	0.0893611
19	0xbd8e6246	-0.06952338
20	0xbd435ea4	-0.04769768
21	0x3d373864	0.044731513
22	0x3d271ac0	0.040796995
23	0x3d72c288	0.05926755
24	0x3dcc53e4	0.09976938
25	0x3de806dc	0.11329433
26	0x3db67b4c	0.08910236
27	0x3d6b40c8	0.057434827
28	0x3d9384ee	0.07203089
29	0x3d99833c	0.07495734
30	0xbde128e2	-0.10994126
31	0x3b8fd180	0.004388988
32	0xbdd6af22	-0.10482623
33	0x3cbc22c0	0.022965789
34	0x3d5b78b0	0.053581893
35	0xbd720358	-0.05908522
36	0x3ddf665a	0.10908194
37	0x3d61f370	0.0551638
38	0x3d5f8cc0	0.05457759
39	0x3c30be30	0.010787532
40	0xbd70a9e4	-0.05875577
41	0x3cca8908	0.024723545
42	0x3d8e736a	0.06955607
43	0x3dc73ab4	0.097279936
44	0x3dd2c8a8	0.102921784
45	0x3d8c7f9a	0.068602756
46	0x3da0a05e	0.078430876
47	0xbd8dfc74	-0.06932917
48	0xbc9e22a0	-0.01930362
49	0xbd170994	-0.03687437
50	0x3da727a4	0.08161858
51	0xbdb7fa1e	-0.08983253
52	0x3dcff0e8	0.10153371
53	0xbc98ec40	-0.01866734
54	0x3df26fcc	0.1183773
55	0x3d22a514	0.039708212
56	0x3dc75700	0.09733391
57	0xbd0b7104	-0.034043327
58	0x3dd2a194	0.10284725
59	0xbda48dfa	-0.080348924
60	0x3c7b7530	0.015347764
61	0x3b14dc00	0.0022714138
62	0x3df9960e	0.12186824
63	0x3d0200ec	0.03173916
64	0xbd265380	-0.040606976
65	0xbd9a776e	-0.07542311
66	0x3dc64a0c	0.09682092
67	0xbd58f44c	-0.052967355
68	0xbd967008	-0.07345587
69	0xbdfb1ce6	-0.12261371
70	0xbc366e50	-0.011134699
71	0xbdcaceec	-0.099027485
72	0xbcba5e58	-0.022750065
73	0xbd8849e2	-0.06654717
74	0x3dfc6a38	0.12324947
75	0xbd9c8546	-0.076426074
76	0x3dad3030	0.08456457
77	0x3de936b8	0.1138739
78	0x3da30e68	0.07961732
79	0xbc8b27f8	-0.016986832
80	0xbcd47cf8	-0.025938496
81	0x3dcbc44c	0.0994955
82	0x3d9edac8	0.07756573
83	0xbd13f334	-0.03612061
84	0x3dff3852	0.12461914
85	0xbdba6e5c	-0.09103081
86	0x3da1f6ca	0.079083994
87	0xbb9b4420	-0.0047383457
88	0x3d289d20	0.04116547
89	0x3de4afea	0.111663654
90	0x3dee535e	0.11636995
91	0xbcbca678	-0.023028597
92	0xbda7c654	-0.08192125
93	0x3dbd3204	0.09238055
94	0x3dc18e04	0.094509155
95	0x3db830f6	0.089937136
96	0x3d9bb826	0.07603483
97	0x3d429468	0.047504812
98	0x3db2d5d0	0.08732188
99	0xbdd1f0c6	-0.10251002
100	0x3d1ec5a0	0.03876269
101	0x3dfa2d04	0.12215617
102	0x3da72522	0.081613794
103	0x3d094174	0.033509687
104	0xbdf23890	-0.11827195
105	0x3df27578	0.11838812
106	0xbd931e0a	-0.07183464
107	0xbdcb000a	-0.09912117
108	0x3dc13996	0.09434812
109	0xbd553c54	-0.052059487
110	0x3d435e94	0.04769762
111	0x3d1b2e1c	0.03788577
112	0x3c32f150	0.010921791
113	0xbd396e2c	-0.045271084
114	0xbdd3d532	-0.10343398
115	0x3df7b774	0.12095538
116	0xbc844628	-0.016146734
117	0x3d7d3bb8	0.06182453
118	0xbccb6920	-0.024830401
119	0x3ded9cc6	0.11602168
120	0x3dd4eaac	0.103963226
121	0xbd9ffd06	-0.07811932
122	0xbdf6d692	-0.12052645
123	0x3d0ee4fc	0.034886345
124	0xbc1a6d90	-0.009425536
125	0xbcb2baf8	-0.02181767
126	0xbdfc3794	-0.12315288
127	0xbdc2fd28	-0.09520942
128	0x3d5f4618	0.054510206
129	0xbc6467e0	-0.013940781
130	0x3dc343e8	0.095344365
131	0x3d92957a	0.07157417
132	0x3d3ff5e0	0.046865344
133	0x3ca599c0	0.020214915
134	0xbca9f0a8	-0.020744637
135	0x3ca76930	0.0204359
136	0x3db8f19a	0.09030457
137	0xbd194b1c	-0.037425146
138	0x3d808a24	0.06276348
139	0x3d9b82ac	0.07593283
140	0x3dafa004	0.085754424
141	0xbb451cc0	-0.003007695
142	0xbddfbede	-0.10925077
143	0x3d5d7db0	0.054074943
144	0x3df5d726	0.12003927
145	0x3c9cab98	0.019124791
146	0xbd40aadc	-0.047037944
147	0x3bce6620	0.0062987953
148	0xbd363bd4	-0.04449065
149	0xbb9bfe80	-0.0047605634
150	0xbd8be8e6	-0.06831531
151	0xbd1fffe0	-0.03906238
152	0x3d12e5d4	0.035863712
153	0xbca72490	-0.020403177
154	0xbda37908	-0.07982069
155	0xbd8b6eb0	-0.06808221
156	0x3cc7f1e0	0.024407327
157	0xbdb69b60	-0.08916354
158	0x3dc8820c	0.097904295
159	0x3daa62de	0.08319639
160	0xbc0cd650	-0.008596018
161	0x3d593e40	0.05303788
162	0xbda1dc6c	-0.0790337
163	0x3db182bc	0.08667514
164	0xbd778ee0	-0.06043899
165	0xbdecafa8	-0.11556941
166	0xbd636510	-0.055516303
167	0x3d8fe710	0.070264935
168	0xbd02128c	-0.03175597
169	0xbbf7a6c0	-0.00755772
170	0xbda40470	-0.08008659
171	0x3d9b4382	0.075812355
172	0xbdfcb68c	-0.123395056
173	0x3d10e204	0.035371795
174	0xbde81e64	-0.113339216
175	0x3db0003c	0.08593795
176	0x3d13c358	0.036074966
177	0xbd707274	-0.0587029
178	0x3b4c4400	0.003116846
179	0xbcd69f68	-0.026199058
180	0xbd6efbf8	-0.058345765
181	0x3de01ad4	0.10942617
182	0xbde05204	-0.10953143
183	0xbc006000	-0.007835388
184	0x3de3fc48	0.11132103
185	0x3ce363a0	0.027757466
186	0xbdd1f064	-0.10250929
187	0xbde0b8a0	-0.109727144
188	0x3bd88c80	0.006608546
189	0x3d3ce7ec	0.046119615
190	0xbd3b4ff8	-0.04573056
191	0xbdb057ee	-0.08610521
192	0x3afe5280	0.0019403249
193	0x3d12e97c	0.0358672
194	0xbdcf9854	-0.10136476
195	0xbdbc2412	-0.09186567
196	0x3c9187c0	0.017764926
197	0xbda543fc	-0.080696076
198	0xbcead9e8	-0.028668359
199	0xbd664fcc	-0.056228444
200	0x3d7df264	0.06199874
201	0x3dba98e4	0.09111193
202	0xbdf9553e	-0.12174462
203	0x3df50906	0.11964612
204	0x3def95c2	0.11698486
205	0xbde4aa30	-0.11165273
206	0x3da3929e	0.079869494
207	0xbd043d60	-0.032285094
208	0xbd1a90ac	-0.037735626
209	0x3d842178	0.06451696
210	0x3d9d21ce	0.07672463
211	0xbc896fc8	-0.016776934
212	0x3dfb4832	0.122696295
213	0xbdda1364	-0.1064823
214	0xbcdc1398	-0.026864812
215	0xbd776ec8	-0.060408384
216	0xbde0b87c	-0.109726876
217	0x3dff3f20	0.12463212
218	0xbdbb4a14	-0.09144989
219	0xbdb5c16c	-0.08874783
220	0xbdba0acc	-0.090840906
221	0x3d8efa94	0.06981388
222	0xbdca9978	-0.09892553
223	0x3cc4e560	0.024035156
224	0x3dbaa912	0.09114279
225	0x3d23c404	0.039981857
226	0xbcf4e1c0	-0.029892802
227	0xbda5bf1a	-0.0809309
228	0x3dcec654	0.10096422
229	0xbd640ffc	-0.055679306
230	0xbcd4f960	-0.025997818
231	0x3da38822	0.0798495
232	0xbd6f9484	-0.058491245
233	0x3dab87ae	0.08375488
234	0xbdecb038	-0.115570486
235	0x3d91e0ea	0.07122977
236	0x3d774814	0.060371473
237	0x3cfcf620	0.03087908
238	0x3ca51b40	0.020154595
239	0xbb2aa540	-0.0026038438
240	0x3d07de9c	0.03317128
241	0xbda25564	-0.07926443
242	0xbdc66b2c	-0.0968841
243	0xbd94552e	-0.07242809
244	0xbd6e50e4	-0.058182612
245	0x3d78e29c	0.060762987
246	0xbdbf6744	-0.09345868
247	0x3cb6e2b8	0.022324905
248	0xbc80d798	-0.015727803
249	0xbc8b2b18	-0.016988322
250	0x3cb6c680	0.022311449
251	0xbcce8de8	-0.02521415
252	0x3d99cff2	0.075103655
253	0xbd0b6298	-0.034029573
254	0xbdbc9bac	-0.092093796
255	0x3c7c4f80	0.015399814

tgnn._base_tgcn.linear_r.bias f4 [32]
0	0x3d978a1c	0.07399389
1	0xbdd0004e	-0.10156308
2	0xbd7a3594	-0.061086252
3	0x3d4da5b0	0.05020684
4	0x3d8815f2	0.06644811
5	0xbc6e6000	-0.014549255
6	0x3d8bdee4	0.068296224
7	0x3c195df0	0.009360775
8	0xbb1abfc0	-0.0023612827
9	0xbdf94ed4	-0.121732384
10	0xbdf20b78	-0.11818594
11	0x3ddfce3c	0.10928008
12	0x3d54e408	0.05197528
13	0xbdedb93e	-0.11607598
14	0x3d70b454	0.058765724
15	0xbd37261c	-0.04471408
16	0x3d1967b0	0.0374524
17	0x3d8a3e72	0.06750192
18	0x3d087a58	0.0333198
19	0xbc9cb9f0	-0.01913163
20	0xbdb530ae	-0.088471755
21	0x3d3941d8	0.04522881
22	0xbd577730	-0.0526039
23	0xbdd9b9ec	-0.10631165
24	0xbdd5dafe	-0.1044216
25	0x3d67382c	0.056450054
26	0x3dfe8ffc	0.124298066
27	0x3a7eb300	0.0009716004
28	0x3dca6b2a	0.09883721
29	0x3d139bb0	0.036037147
30	0x3d844db6	0.06460135
31	0x3d8d4022	0.06896998

tgnn._base_tgcn.conv_h.bias f4 [32]
0	0x3e997277	0.29970142
1	0x3c98cbe6	0.018651914
2	0xbe8b0d9b	-0.27158818
3	0xbdbe015c	-0.09277603
4	0x3e525047	0.20538436
5	0xbf0f5380	-0.55986786
6	0x3ea5e291	0.3239942
7	0x3e9f6a05	0.31135574
8	0x3f0c180b	0.54724187
9	0xbd03214e	-0.032014184
10	0xbe962e02	-0.29331976
11	0x3e44ddce	0.19225237
12	0xbed4a434	-0.41531527
13	0xbc14deee	-0.009086354
14	0x3db6dd5f	0.08928942
15	0xbeebcab2	-0.46053082
16	0x3d289c7a	0.041164853
17	0xbe9556a5	-0.29167667
18	0x3e7c4874	0.24637014
19	0xbd9b8bb1	-0.075950034
20	0x3db96de2	0.090541616
21	0x3efe5a90	0.4967847
22	0x3d1aa457	0.037754383
23	0x3c2cb384	0.010540847
24	0xbe613b62	-0.21995309
25	0x3e11661e	0.14199111
26	0xbe6518db	-0.22372763
27	0x3e967a10	0.2939
28	0x3ed84f4c	0.42248
29	0x3eeac0d9	0.45850256
30	0xbe704ece	-0.23467562
31	0xbcc00324	-0.023438998

tgnn._base_tgcn.conv_h.lin.weight f4 [32, 3]
0	0x3e5fe334	0.21864015
1	0xbf2e0677	-0.67978615
2	0x3fd239ae	1.6423852
3	0xbe91c4ac	-0.2847036
4	0xbf8dda98	-1.1082335
5	0x3f7d4e1f	0.9894733
6	0xbddabc4e	-0.106804475
7	0xbe382912	-0.17984417
8	0x401fa30e	2.494327
9	0xbd585450	-0.05281478
10	0x3f8f5959	1.1199142
11	0xbf323838	-0.69617033
12	0x3e0b5471	0.1360643
13	0x3f356dd7	0.7087073
14	0xbfce3dc5	-1.61126
15	0x3f0bc406	0.54595983
16	0x3ea9ec0d	0.33187905
17	0xbf15ed6e	-0.58565414
18	0xbf15e4bd	-0.5855215
19	0xbf183452	-0.59454834
20	0x3f0de051	0.55420405
21	0xbf0be1ec	-0.54641604
22	0xbea36843	-0.31915483
23	0x3f9c3217	1.2202786
24	0xbd3c6fa2	-0.0460049
25	0x3f317361	0.6931668
26	0xbd9a762c	-0.07542071
27	0x3d937583	0.07200148
28	0xbf98416d	-1.1894966
29	0x3f862fac	1.0483298
30	0x3f3a461e	0.7276324
31	0x3eaaf734	0.33391726
32	0xbfa626e8	-1.2980623
33	0xbf164475	-0.5869821
34	0xbf85b6b4	-1.0446382
35	0xbe668ab5	-0.2251385
36	0xbcb53e93	-0.022124564
37	0x3f2eb42c	0.6824367
38	0xbf0b7870	-0.5448065
39	0x3f1f6673	0.622657
40	0x3f98d807	1.1940926
41	0xbde98066	-0.11401443
42	0x3e4b09e4	0.19827992
43	0xbf21821e	-0.6308917
44	0x3ff2f4e5	1.8980986
45	0xbd8d7e97	-0.06908911
46	0xbedaa3d3	-0.42703113
47	0xbfdd72bc	-1.7300639
48	0xbf3bf807	-0.73425335
49	0x3dbb9330	0.09158933
50	0x3fd8b872	1.6931288
51	0xbec9bf2c	-0.39403665
52	0xbf5a0eec	-0.8517902
53	0xbf757653	-0.95883673
54	0xbe07964f	-0.13240932
55	0xbf4f07b1	-0.8087111
56	0x3f61c53b	0.88191575
57	0x3d580eed	0.05274861
58	0x3fa2a232	1.2705748
59	0x3e1002cd	0.14063568
60	0xbe0b278a	-0.13589302
61	0xbf9642d2	-1.1739142
62	0xbec349b1	-0.3814216
63	0x3e132b40	0.14371967
64	0x3e4bd349	0.19904818
65	0x3fb58bba	1.4183266
66	0x3f38ee4e	0.72238624
67	0x3f880fdc	1.062984
68	0x3fe553c4	1.7916188
69	0xbe91ca7f	-0.28474805
70	0xbf7ccd92	-0.98751175
71	0x3fb0dd1e	1.381748
72	0x3eb5a34a	0.35476142
73	0x3f1237cd	0.57116395
74	0xbf91bc9b	-1.1385683
75	0x3e2c987b	0.16855042
76	0xbf094163	-0.536154
77	0x3fe5d624	1.7955976
78	0xbdf6531e	-0.12027572
79	0xbf8cc335	-1.0997072
80	0xbf0cd1ef	-0.55007833
81	0xbeda5cfc	-0.42649066
82	0xbe31b79b	-0.17355196
83	0x3fc57c8c	1.5428634
84	0xbb3b02b7	-0.0028535554
85	0xbea7c9cd	-0.3277115
86	0x3fea4d48	1.8304834
87	0xbee2ab71	-0.44271424
88	0x3f2f30c2	0.68433774
89	0x3faf5259	1.3697006
90	0x3f1a6620	0.6031208
91	0x3eb99899	0.36249235
92	0xbfc1edad	-1.5150658
93	0xbd044bf4	-0.032298997
94	0xbf9d49f7	-1.2288197
95	0x3f52af3f	0.82298654

tgnn._base_tgcn.linear_h.weight f4 [32, 64]
0	0xbedbfedb	-0.42967877
1	0xbf7cfaf6	-0.98820436
2	0xbf3fd7c2	-0.74938595
3	0x3fa48f74	1.2856278
4	0x3f8811fe	1.0630491
5	0x3e7cdef8	0.24694431
6	0xbf158a35	-0.5841401
7	0xbf07ca43	-0.53043
8	0x3f212bab	0.6295726
9	0xbfc21912	-1.5163901
10	0x3ede5ba8	0.43429303
11	0xbf3367fc	-0.7008054
12	0x3e8695e3	0.2628623
13	0x3f275c56	0.6537527
14	0xbf3c1430	-0.73468304
15	0xbecee810	-0.40411425
16	0xbf00dffc	-0.50341773
17	0xbf0855df	-0.5325603
18	0xbf35dab6	-0.7103685
19	0x3f9113e0	1.133419
20	0xbf492e1e	-0.78585994
21	0x3e701545	0.23445614
22	0x3e9b603a	0.30346853
23	0xbfb92a2e	-1.4465997
24	0x3f1e7273	0.61893386
25	0xbeeafe67	-0.4589722
26	0xbf48b7da	-0.78405535
27	0xbeb20d93	-0.3477598
28	0xbd76ebab	-0.060283344
29	0x3ef46154	0.47730505
30	0x3ed61166	0.4181015
31	0xbfaba71b	-1.3410372
32	0xbd84e00e	-0.064880475
33	0x3db3566a	0.087567165
34	0x3da49d12	0.08037771
35	0xbd7ff0ac	-0.062485382
36	0xbd1ca27c	-0.038240895
37	0xbd9ca39e	-0.07648395
38	0x3dec9c56	0.11553256
39	0xbd605348	-0.054766923
40	0x3d795800	0.06087494
41	0xbd125124	-0.035721913
42	0x3dc82b7e	0.097739205
43	0x3dd31a38	0.10307735
44	0x3dc5118a	0.09622486
45	0x3c986d28	0.018606737
46	0x3d47c950	0.04877597
47	0x3cc09158	0.023506805
48	0xbcda7b08	-0.026669994
49	0xbd5757d8	-0.05257401
50	0x3bebc0a0	0.0071945935
51	0xbd9cf302	-0.076635376
52	0xbdb81144	-0.08987668
53	0xbdaecbb2	-0.085349455
54	0x3d6e604c	0.058197305
55	0xbc1faed0	-0.009746268
56	0x3de68c24	0.112571985
57	0x3d979efc	0.07403371
58	0x3d598bc4	0.053111807
59	0xbd197eac	-0.03747432
60	0xbdccfd02	-0.10009195
61	0x3deb8790	0.11500466
62	0x3b203780	0.0024447143
63	0xbde0b286	-0.10971551
64	0x3f378ca1	0.7169896
65	0x3ed641c2	0.41847044
66	0x3e6f4227	0.23365079
67	0xbfd9b371	-1.7007886
68	0xbecf60e7	-0.40503618
69	0xbe9a513a	-0.30140096
70	0x3f05eee7	0.5231766
71	0x3f1b2731	0.60606676
72	0xbd29f592	-0.04149396
73	0x3f72e95c	0.9488733
74	0xbea316f4	-0.3185345
75	0x3e9429ab	0.2893804
76	0xbeeacadd	-0.45857897
77	0xbe92e134	-0.2868744
78	0x3f707c65	0.9393981
79	0xbe3a5f05	-0.1820031
80	0x3d964313	0.07337012
81	0x3df72f3b	0.12069555
82	0x3fc2caed	1.5218178
83	0xbf0dcb0e	-0.5538796
84	0x3eb72a58	0.35774493
85	0x3e1d4044	0.15356547
86	0x3d11266d	0.035437036
87	0x3ed23bee	0.41061348
88	0xbf8200a6	-1.0156448
89	0x3f4dac05	0.80340606
90	0x3e4fb9d6	0.20285735
91	0x3f347f19	0.70506436
92	0x3ec8067c	0.39067447
93	0xbd2dc26b	-0.04242174
94	0xbf0a0cbd	-0.5392569
95	0x3f5d07ad	0.8633984
96	0xbdb64c3a	-0.08901258
97	0xbc54ed40	-0.012996018
98	0xbdf54bb6	-0.11977331
99	0x3cac22e0	0.021012723
100	0xbd86b9e8	-0.065784276
101	0x3d64aff8	0.05583188
102	0xbda634da	-0.081155494
103	0xbd80683c	-0.06269881
104	0x3bd2bc00	0.0064311028
105	0x3bde7360	0.006788656
106	0x3db888bc	0.09010455
107	0xbaac2f00	-0.0013136566
108	0x3d3e5290	0.046465456
109	0x3da3c0dc	0.079957694
110	0xbdab2a68	-0.08357698
111	0x3d9ebf04	0.07751277
112	0xbd56d99c	-0.052453622
113	0x3c6a97c0	0.014318407
114	0x3cd62648	0.0261413
115	0x3cc21960	0.02369374
116	0x3ceece50	0.029151112
117	0x3d3a5ed4	0.04550059
118	0xbda88054	-0.08227602
119	0x3d00bbd0	0.031429112
120	0xbc929a28	-0.017895773
121	0x3d96cc68	0.07363206
122	0xbd907bc2	-0.07054855
123	0x3d21f8b0	0.039543808
124	0x3d5a8e54	0.05335839
125	0xbd5403ec	-0.051761553
126	0xbda9106a	-0.08255084
127	0x3dbb045a	0.09131689
128	0x3de5d3a4	0.11222008
129	0x3da7aef6	0.08187668
130	0xbdc55a36	-0.09636347
131	0x3d3d6fe4	0.046249285
132	0xbdcd638c	-0.10028753
133	0xbc88b3a8	-0.01668723
134	0xbdd2ed7c	-0.10299203
135	0x3d889688	0.066693366
136	0x3d9cfb1a	0.07665081
137	0x3da3c694	0.0799686
138	0xbd6b8dd4	-0.057508305
139	0x3df02b22	0.11726977
140	0x3db6bb82	0.08922483
141	0x3c8499c0	0.016186595
142	0xbdbdf162	-0.09274556
143	0x3d928830	0.07154882
144	0x3d15f8d0	0.03661424
145	0x3c0f7990	0.00875701
146	0xbdfa71aa	-0.12228711
147	0xbd974eba	-0.07388063
148	0xbc733e90	-0.014846459
149	0xbdea13ee	-0.114295825
150	0x3db4cbb4	0.08827916
151	0xbcc78858	-0.024357006
152	0xbc9a9d88	-0.018873945
153	0x3d2dc4e8	0.042424113
154	0x3d56e470	0.05246395
155	0xbd9e924c	-0.07742748
156	0x3c9cd498	0.019144341
157	0xbd7349d4	-0.05939658
158	0xbdd89d06	-0.10576825
159	0x3dfcf228	0.12350875
160	0x3cfb0558	0.030642197
161	0xbdae4e70	-0.085110545
162	0xbd8d94b8	-0.069131315
163	0x3d0fd70c	0.035117194
164	0xbdee355a	-0.1163127
165	0xbd2f9d50	-0.042874634
166	0x3da940c4	0.08264306
167	0xbd9bd304	-0.076086074
168	0x3dd230f4	0.10263243
169	0x3d282b9c	0.041057214
170	0xbdd3eb7a	-0.10347648
171	0x3d57ab38	0.05265352
172	0x3df3fe76	0.11913769
173	0x3d4add74	0.0495276
174	0x3dd26c58	0.10274571
175	0xbad36200	-0.0016127229
176	0xbdc09e72	-0.09405221
177	0x3d2487e4	0.040168658
178	0x3d0369a0	0.032083154
179	0x3d59d578	0.053182095
180	0xbca16128	-0.019699648
181	0xbd80a404	-0.062812835
182	0x3d13bf44	0.036071077
183	0xbdc045a4	-0.09388283
184	0x3dd41af0	0.103567004
185	0xbd546054	-0.05184968
186	0xbdffff44	-0.1249986
187	0x3d902bda	0.07039614
188	0x3bd17620	0.0063922554
189	0xbd23f020	-0.040023923
190	0xbd390864	-0.045174018
191	0xbda7f022	-0.082000986
192	0x3f3053ac	0.68877673
193	0x3be3a26b	0.006946852
194	0x3f8191c4	1.0122609
195	0xbe1a9a45	-0.15097912
196	0xbeb0bc4e	-0.34518665
197	0x3f79c0ba	0.975597
198	0xbeca6ae2	-0.3953467
199	0xbe1509cf	-0.14554523
200	0xbd178588	-0.03699258
201	0x3e6a45f5	0.22878249
202	0x3e557723	0.20846228
203	0xbf13f237	-0.57791466
204	0x3e9f9f9b	0.31176457
205	0x3e84a15c	0.25904357
206	0x3fa53e73	1.2909683
207	0xbf0fcdbd	-0.56173307
208	0x3eaf9af6	0.34297913
209	0xbeb39b35	-0.3507935
210	0x3d8967df	0.06709265
211	0x3e9a2466	0.30105895
212	0xbebf41cd	-0.3735489
213	0x3ec7abd4	0.38998282
214	0x3f0d13c5	0.5510829
215	0x3e304ca2	0.17216733
216	0x3c393060	0.011303037
217	0x3f95cdac	1.1703391
218	0xbe9b52b4	-0.30336535
219	0x3eaf5b92	0.3424955
220	0x3f2e5076	0.68091524
221	0x3ed46c8f	0.41489074
222	0xbddc4653	-0.10755601
223	0x3cc9674f	0.024585394
224	0xbc96cd40	-0.018408418
225	0x3dab4216	0.08362214
226	0x3d4ba14c	0.04971437
227	0x3df22a24	0.11824444
228	0xbd281404	-0.041034713
229	0xbd6ecf48	-0.058303148
230	0xbca8ed58	-0.020620987
231	0x3dce4cea	0.10073264
232	0x3dcc16f6	0.09965317
233	0xbd83bb9c	-0.06432268
234	0x3df00750	0.11720145
235	0x3d995782	0.07487394
236	0x3d452908	0.048134834
237	0xbc653130	-0.013988778
238	0x3db54d02	0.08852579
239	0x3d8e4334	0.06946412
240	0x3d9c9006	0.07644658
241	0x3d16424c	0.03668432
242	0xbcd80648	-0.026370183
243	0x3d818732	0.063246146
244	0xbdb573b8	-0.08859962
245	0x3b8ae360	0.004238531
246	0xbdb3aa14	-0.08772674
247	0x3ca22f40	0.019797921
248	0x3dd52eee	0.10409342
249	0xbdeb2824	-0.114822656
250	0xbd057d9c	-0.032590494
251	0xbde08576	-0.10962956
252	0xbdc79e9c	-0.09747049
253	0x3d917008	0.071014464
254	0x3b187700	0.002326429
255	0x3c6d59b0	0.014486715

tgnn._base_tgcn.linear_h.bias f4 [32]
0	0x3e9e4dab	0.3091863
1	0x3e85e8d3	0.26154193
2	0xbdb67e32	-0.089107886
3	0xbe2a4d45	-0.16631038
4	0x3eb5201a	0.35376054
5	0x3f1c5d03	0.61079425
6	0x3e21bdae	0.15795013
7	0xbdd97f03	-0.10619929
8	0x3e68999c	0.22714847
9	0x3f2d87e9	0.6778551
10	0x3e6ed253	0.2332242
11	0x3e8c7fdc	0.274413
12	0x3e6ba70e	0.23012945
13	0x3e9bebf3	0.30453452
14	0xbd5bf182	-0.053697117
15	0xbe015309	-0.12629332
16	0xbdaaaba8	-0.08333522
17	0xbce08178	-0.027405486
18	0x3e3dc26d	0.18531199
19	0x3ef378b7	0.47553036
20	0x3f03f94d	0.5155228
21	0xbeb48af3	-0.3526226
22	0x3e73ffc2	0.23828033
23	0x3e715dea	0.23570982
24	0x3e3564db	0.17714255
25	0x3f2c6e33	0.6735565
26	0x3f3af6ef	0.7303304
27	0x3f1b3930	0.60634136
28	0x3ea2e04e	0.31811756
29	0x3e4e0cf2	0.20122126
30	0xbb634197	-0.0034676546
31	0x3ec4147e	0.38296884

linear.weight f4 [16, 32]
0	0x3e9e8c88	0.30966592
1	0xbeda8607	-0.4268038
2	0xbde4321f	-0.11142372
3	0x3f92142f	1.141241
4	0x3ec9b0e7	0.39392778
5	0xbf265a99	-0.6498199
6	0x3ef1b95d	0.47211733
7	0xbd541f80	-0.051787853
8	0x3eee7ad4	0.46578085
9	0xbf6bfdff	-0.9218444
10	0x3e8a8bfe	0.2705993
11	0x3ebb9278	0.36635184
12	0x3f1cafa6	0.6120552
13	0xbec9704c	-0.39343488
14	0x3cd01d8f	0.02540472
15	0x3dbc55ba	0.091960385
16	0x3c8bcec0	0.01706636
17	0xbde9bcde	-0.11412977
18	0x3f1cd181	0.6125718
19	0xbef077f8	-0.4696653
20	0xbf3b0ac1	-0.73063284
21	0xbfab3fa8	-1.3378801
22	0x3f0ae1da	0.5425087
23	0x3ecb90f6	0.39759034
24	0xbede5cca	-0.43430167
25	0xbf935bc3	-1.1512378
26	0xbf4149e4	-0.75503373
27	0xbf30784d	-0.68933564
28	0xbf3765c4	-0.7163966
29	0x3e7bd809	0.2459413
30	0x3da4d7a8	0.08048946
31	0x3e841696	0.25798482
32	0x3e7e3c92	0.24827793
33	0xbf0c4531	-0.5479308
34	0x3d2f3b5c	0.04278122
35	0x3f7aa059	0.9790092
36	0x3ec5ef4c	0.38659132
37	0xbf21db2d	-0.6322506
38	0x3efc0788	0.49224496
39	0xbd30468e	-0.043036036
40	0x3f223d15	0.63374454
41	0xbf65758c	-0.8963249
42	0x3ee21505	0.44156662
43	0x3e9e278e	0.30889553
44	0x3efbd3d6	0.49185055
45	0xbee8e037	-0.45483562
46	0xbe11616a	-0.14197317
47	0x3df094b5	0.117471136
48	0x3d155a9c	0.036463365
49	0xbd623948	-0.05523041
50	0x3f220bb8	0.6329913
51	0xbf07832c	-0.5293453
52	0xbf4b7149	-0.79469734
53	0xbfb8f760	-1.4450493
54	0x3ecf70c0	0.4051571
55	0x3f269eda	0.6508614
56	0xbe999d0a	-0.30002624
57	0xbf94d38c	-1.1627059
58	0xbf3d5504	-0.7395785
59	0xbf31752f	-0.6931943
60	0xbf64dd69	-0.89400345
61	0x3e93b220	0.28846836
62	0x3e066249	0.1312343
63	0x3ee2905c	0.44250762
64	0x3f0f00a7	0.5586037
65	0xbf0751c4	-0.5285914
66	0xbdecae30	-0.11556661
67	0x3f4d7037	0.8024935
68	0x3eb07d2c	0.344705
69	0xbf10e4f5	-0.5659936
70	0x3f39c8c1	0.7257195
71	0xbdd6f8b3	-0.10496654
72	0x3ece2129	0.40259674
73	0xbf67742a	-0.9041163
74	0x3e96a10a	0.29419738
75	0x3f038cca	0.513867
76	0x3ee5a7cf	0.4485459
77	0xbf1194c1	-0.56867605
78	0x3c0c2c51	0.008555488
79	0x3d6f94a6	0.05849137
80	0xbe0eb946	-0.13937864
81	0xbe1508d6	-0.14554152
82	0x3ebde85d	0.37091342
83	0xbf29904f	-0.6623582
84	0xbf4e9d4a	-0.80708754
85	0xbfc37e71	-1.5272962
86	0x3f15b20f	0.5847482
87	0x3f075171	0.52858645
88	0xbf33a172	-0.7016822
89	0xbf82d8ca	-1.0222409
90	0xbf447fe3	-0.7675764
91	0xbf4c2ebe	-0.7975882
92	0xbf3f2b1b	-0.7467515
93	0x3f07034f	0.52739424
94	0x3ac7ea4b	0.001525232
95	0x3ecd9fb5	0.4016091
96	0x3ef357e4	0.47527993
97	0xbf320ffe	-0.6955565
98	0x3c015b60	0.007895321
99	0x3f1e8f71	0.61937624
100	0x3ef87532	0.48526913
101	0xbeef78e6	-0.46771926
102	0x3eeeda32	0.46650845
103	0x3d339237	0.043840613
104	0x3eda817c	0.42676914
105	0xbf6a552f	-0.9153623
106	0x3eecd925	0.46259418
107	0x3ec26963	0.3797103
108	0x3f015021	0.5051289
109	0xbf41cf54	-0.7570698
110	0x3c960e5a	0.01831739
111	0xbe0fdce6	-0.1404911
112	0x3e3424e9	0.17592205
113	0x3dfd0c2a	0.12355836
114	0x3ef07b50	0.4696908
115	0xbf3d751d	-0.74006826
116	0xbf470662	-0.77744114
117	0xbfcfd646	-1.6237266
118	0x3f2d8638	0.67782927
119	0x3f2faf8e	0.6862725
120	0xbf1bd696	-0.6087431
121	0xbf81b6b4	-1.0133882
122	0xbf507251	-0.81424433
123	0xbf4437a2	-0.7664739
124	0xbf5e7901	-0.8690339
125	0x3e8baeef	0.272819
126	0xbd368b62	-0.04456652
127	0x3f29b024	0.66284394
128	0x3eeb7177	0.45985004
129	0xbf464ec6	-0.7746395
130	0xbd6c1fc0	-0.057647467
131	0x3e9fc405	0.3120424
132	0x3eee3a80	0.46529007
133	0xbf1f9f20	-0.6235218
134	0x3f270056	0.6523489
135	0x3db2e958	0.08735913
136	0x3f27955c	0.6546228
137	0xbf505941	-0.8138619
138	0x3f16cd30	0.5890684
139	0x3efa2b93	0.4886137
140	0x3ef722e8	0.4826882
141	0xbf267b21	-0.6503163
142	0xbcbd15c0	-0.02308166
143	0xbdc24e75	-0.09487621
144	0x3e32f501	0.17476274
145	0x3dd6be0a	0.10485466
146	0x3efe9b58	0.49727893
147	0xbf4d28f5	-0.8014062
148	0xbf5ded6b	-0.86690396
149	0xbfd88f18	-1.6918669
150	0x3ec5c014	0.38623106
151	0x3f248c9b	0.64277047
152	0xbf2bd201	-0.67117316
153	0xbf8b2b08	-1.0872507
154	0xbf39a229	-0.7251306
155	0xbf27d43c	-0.6555822
156	0xbf831e36	-1.0243595
157	0x3e8501c2	0.25977904
158	0x3bda1310	0.0066551045
159	0x3f453e7b	0.7704846
160	0x3f2f637f	0.68511194
161	0xbf5b0b52	-0.8556415
162	0x3e2ac425	0.16676386
163	0x3e16cd9e	0.14726874
164	0x3ef50687	0.47856542
165	0xbf57d634	-0.84311223
166	0x3f3bd670	0.7337408
167	0xbd18e6df	-0.03732955
168	0x3ec5e51c	0.3865136
169	0xbf43b03c	-0.7644079
170	0x3eb9cbac	0.36288202
171	0x3f05932a	0.5217768
172	0x3f3511ba	0.70730174
173	0xbf4b05db	-0.7930581
174	0xbd0e7f8b	-0.034789603
175	0x3ddf83ab	0.109137855
176	0xbdbfc9d9	-0.09364671
177	0xbe09c110	-0.13452554
178	0x3eb1a5f3	0.34696922
179	0xbf50ee5d	-0.81613714
180	0xbf7a1b6d	-0.976981
181	0xbfdcdc31	-1.7254697
182	0x3f2f224f	0.68411726
183	0x3ecffcd1	0.4062257
184	0xbf24363b	-0.6414525
185	0xbf7a1fae	-0.9770459
186	0xbf1b1ff2	-0.6059562
187	0xbf128279	-0.57230335
188	0xbfa363f9	-1.2764884
189	0x3f0fa10a	0.561051
190	0x3d8f9d81	0.07012463
191	0x3f497611	0.7869578
192	0x3ef09a4e	0.46992725
193	0xbf4e807d	-0.8066481
194	0x3dfc2082	0.12310888
195	0xbd8813ad	-0.06644378
196	0x3f200418	0.62506247
197	0xbf2b5e50	-0.66940784
198	0x3f2e3646	0.68051565
199	0x3d4aa3c0	0.04947257
200	0x3f2534c7	0.64533657
201	0xbf3003d0	-0.6875582
202	0x3ee95cb0	0.45578527
203	0x3f1f821e	0.6230792
204	0x3f1b4a87	0.60660595
205	0xbf7588c4	-0.9591181
206	0xbde23fdb	-0.11047336
207	0xbd2a1944	-0.041528
208	0xbdd4ea2a	-0.10396226
209	0x3da62b72	0.08113755
210	0x3effd4f3	0.49967155
211	0xbf7e5341	-0.99345785
212	0xbf4c926f	-0.7991094
213	0xbfe12ffc	-1.7592769
214	0x3ecfb0f3	0.4056469
215	0x3ed8a6f2	0.4231487
216	0xbf826101	-1.0185853
217	0xbf5d9a29	-0.86563355
218	0xbf3d74ef	-0.7400655
219	0xbf2fce56	-0.6867422
220	0xbfa0e796	-1.2570674
221	0x3ee93320	0.45546818
222	0x3d19a392	0.03750951
223	0x3f829703	1.0202335
224	0x3f23fb7a	0.640556
225	0xbf8af2e1	-1.0855371
226	0xbccfba30	-0.025357336
227	0xbe970fc1	-0.29504207
228	0x3efc67e5	0.49298015
229	0xbf4e7b71	-0.80657107
230	0x3f508743	0.81456393
231	0xbd7a1fa2	-0.061065324
232	0x3f194476	0.5987009
233	0xbf378347	-0.7168469
234	0x3f29602f	0.6616239
235	0x3eeb6b49	0.4598029
236	0x3f123de2	0.57125676
237	0xbf8653f2	-1.0494368
238	0x3cdd7f71	0.027038308
239	0xbdb7b461	-0.089699514
240	0xbc8d7e58	-0.01727216
241	0xbcb20538	-0.021731004
242	0x3ecdb61f	0.4017801
243	0xbf821cc9	-1.0165035
244	0xbf575f7f	-0.8413009
245	0xbfe3a22b	-1.7783865
246	0x3f2189ad	0.631007
247	0x3f26b7e2	0.6512433
248	0xbf5eeebc	-0.8708303
249	0xbf5152ab	-0.81766766
250	0xbf116853	-0.5679981
251	0xbeff152a	-0.49820834
252	0xbfa8d0dc	-1.3188739
253	0x3eabb073	0.33533058
254	0x3caf65fd	0.021410936
255	0x3f61a814	0.8814709

linear.bias f4 [16]
0	0x3ec7d1ae	0.3902716
1	0x3e63fff8	0.22265613
2	0x3e7f8d98	0.24956357
3	0x3e5a70f8	0.21332157
4	0xbc2c49ca	-0.01051564
5	0xbc883149	-0.016625063
6	0xbc806464	-0.01567287
7	0xbd8fa0be	-0.07013081
8	0xbe4d1ca6	-0.2003046
9	0xbe2d7e1a	-0.16942635
10	0xbe8c03e9	-0.27346733
11	0xbe61a784	-0.22036558
12	0xbe8628a4	-0.2620288
13	0xbe820dad	-0.2540106
14	0xbe2ac926	-0.16678295
15	0xbe6196c6	-0.22030172

linear2.weight f4 [6, 21]
0	0x3f130c3a	0.5744053
1	0x3f2f26fc	0.6841886
2	0x3dbd9fa1	0.092589624
3	0xbe288c31	-0.16459729
4	0xbeb4e7f3	-0.35333213
5	0x3efb39e3	0.49067602
6	0xbf0905ea	-0.5352465
7	0x3f24e0ed	0.6440571
8	0x3dd9f49b	0.10642358
9	0x3ebb036c	0.36526048
10	0xbf16d874	-0.5892403
11	0xbe74a787	-0.23892032
12	0x3e0de28e	0.13855955
13	0x3ca6f8ef	0.020382373
14	0x3e936f57	0.28795883
15	0xbed20274	-0.41017497
16	0xbe37b2d2	-0.17939308
17	0x3ebe8b6f	0.37215754
18	0xbd090346	-0.033450387
19	0xbe9f3d28	-0.31101346
20	0xbe1c1708	-0.1524316
21	0xbd07428a	-0.03302244
22	0x3e9879d5	0.2978045
23	0x3d90653b	0.07050558
24	0x3e04491c	0.12918514
25	0xbed25cf9	-0.41086558
26	0x3ee83bf5	0.45358244
27	0x3f2a3fb8	0.6650348
28	0x3e916940	0.28400612
29	0xbdba6d5e	-0.091028914
30	0x3d0ce5e9	0.034398947
31	0x3f113037	0.56714195
32	0xbd38decd	-0.045134354
33	0xbe8118d2	-0.2521425
34	0x3e50cb1e	0.20389983
35	0xbd8b5042	-0.06802417
36	0xbea13485	-0.31485382
37	0xbe073f85	-0.13207825
38	0xbf197acd	-0.59953004
39	0xba3f5823	-0.0007299205
40	0x3db73358	0.0894534
41	0x3e81489a	0.25250703
42	0x3ea152c8	0.3150847
43	0x3d9a176a	0.07523997
44	0xbd887b50	-0.06664145
45	0xbdd29d11	-0.10283864
46	0xbe8ec84e	-0.27887195
47	0xbd4e55eb	-0.050374907
48	0x3e8e0236	0.27736062
49	0x3f02be46	0.51071584
50	0x3e0ac31e	0.13550994
51	0xbeb217e0	-0.3478384
52	0xbe30d9e8	-0.17270625
53	0xbd8d5d96	-0.06902616
54	0x3e0effea	0.13964811
55	0xbefdb3ad	-0.49551144
56	0x3f1a4ca6	0.60273206
57	0xbe2e1ab5	-0.17002375
58	0xbd47f5c1	-0.048818354
59	0xbe4d2066	-0.2003189
60	0xbe4e0b7c	-0.20121568
61	0xbeb10799	-0.3457611
62	0xbe51e954	-0.20499164
63	0xbea69402	-0.32534796
64	0xbe9d6287	-0.30739233
65	0xbe2f2343	-0.17103295
66	0xbdd5942e	-0.10428654
67	0x3e18c91e	0.1492047
68	0xbe9346a0	-0.2876482
69	0x3dc2d9af	0.09514176
70	0xbf5ca4e4	-0.86189103
71	0x3e98865d	0.2979001
72	0x3ecb3a8f	0.39693114
73	0x3dbfb5b6	0.093608305
74	0x3ecb0bad	0.39657345
75	0x3ee606e7	0.4492714
76	0xbeb8fc94	-0.36130202
77	0xbe752103	-0.23938374
78	0x3f468113	0.775407
79	0x3ef5c5a0	0.48002338
80	0x3d85b782	0.06529142
81	0xbd67432e	-0.056460552
82	0x3e91127a	0.2833441
83	0x3e984691	0.29741338
84	0xbd66cd45	-0.056348104
85	0xbe4605d9	-0.19338168
86	0xbd6c25cc	-0.057653233
87	0x3f00bfa8	0.50292444
88	0x3f1d3f4b	0.614247
89	0xbea6555a	-0.32486993
90	0xbe2952b6	-0.16535458
91	0x3e8071a6	0.25086707
92	0x3ce16f2b	0.02751883
93	0xbedd563f	-0.43229863
94	0xbe31dc78	-0.17369258
95	0xbef32349	-0.47487858
96	0xbd9bd7db	-0.076095305
97	0x3d5f06b4	0.054449752
98	0x3f09ba3c	0.53799796
99	0xbe3126b9	-0.17299928
100	0xbe8f8714	-0.28032744
101	0x3e9bbe75	0.30418745
102	0x3e932b99	0.287442
103	0x3e4fd136	0.20294651
104	0x3da8c389	0.0824042
105	0xbe141f9b	-0.14465182
106	0xbec69021	-0.38781837
107	0xbf046f32	-0.5173217
108	0xbd436e77	-0.04771277
109	0x3ee26660	0.4421873
110	0xbd861c27	-0.065483384
111	0x3d8dd328	0.069250405
112	0xbf1cae27	-0.61203235
113	0x3e9bc44f	0.3042321
114	0x3e444e9e	0.19170615
115	0x3d64a997	0.055825796
116	0x3df7c486	0.12098031
117	0x3f0ab0ac	0.5417583
118	0xbe503bb0	-0.20335269
119	0xbe1cb78c	-0.15304393
120	0x3ee977d8	0.45599246
121	0x3ed821d9	0.42213324
122	0x3e813c40	0.2524128
123	0xbe4a732c	-0.19770497
124	0x3e8fd73c	0.28093898
125	0x3dcc07ca	0.09962423

linear2.bias f4 [6]
0	0xbe8c1ed4	-0.2736727
1	0x3e7d0adb	0.24711172
2	0xbfb7075d	-1.4299122
3	0x3e124128	0.14282668
4	0x3f29a6d1	0.66270167
5	0xbf9b1a8a	-1.2117474
