A3TGCN2_Checkpoints/Epoch_7.pth (torch, 35255 bytes, 17 tensors)

tgnn._attention f4 [16]
00000000: a13c 923f faff 7c3f 1652 463f 44ab e03d
00000010: eb26 033f 97bf 06bd 7c35 52be 2eb7 ef3e
00000020: bab9 823e 6e7a 213e b404 b93e 091a 043f
00000030: 2c57 be3e 0553 2c3f 5921 4d3f 70fc 973f
1.1424752 0.9882809 0.77469003 0.10970166 0.5123126 -0.032897558 -0.20528215 0.46819443
0.25532323 0.1576936 0.361364 0.51602226 0.37175882 0.6731418 0.8012901 1.1873913

tgnn._base_tgcn.conv_z.bias f4 [32]
00000000: 2da4 db3e 74a6 d43e 8681 bf3d d379 f73c
00000010: 0278 ebbd 56b9 9fbe de92 9ebe e56b ddbe
00000020: 5641 f93e cac2 f13e 29d6 f4be bb4e e6be
00000030: 0d15 9f3d 7c07 b53c d1f5 d43e 7510 d43e
00000040: 13c4 e2be b4c0 f93e 7cce 533e cefb f63e
00000050: acb7 e43e 508c d3be be03 eebe b7ee d23e
00000060: f12e b9be c83b c8be 04a0 b7be 7bdd b63e
00000070: 5427 a93e c224 98be a116 9f3e e6a1 dc3e
0.42898694 0.41533244 0.093508765 0.030209458 -0.11497499 -0.31196088 -0.30971426 -0.4324638
0.4868266 0.47218925 -0.4781964 -0.44981942 0.07767687 0.022098295 0.41593793 0.41418806
-0.44290218 0.48779833 0.20684236 0.48238987 0.4467138 -0.41317987 -0.4648723 0.4119775
-0.36168626 -0.3910811 -0.3586427 0.3571585 0.33037817 -0.29715544 0.31071952 0.4309227

tgnn._base_tgcn.conv_z.lin.weight f4 [32, 3]
00000000: 8b36 b6bc f9ab b3be 3ce6 92bf c022 ba3e
00000010: f537 f4be e0bc 35bf bf96 43be 82f9 683e
00000020: 5283 d7be 49b4 c5be eab5 3b3f fd92 8e3f
00000030: a031 673e 8b53 b7be ca27 1b3e 6c43 80be
00000040: e1a7 023f 7a91 8c3f d954 f7be 604b 79bc
00000050: d984 043f 85ba 47be ee25 913e bf57 413f
00000060: bacf a93e 0f49 febe 6093 65bf 7287 e73e
00000070: ebd2 4ebf bad7 61bf d587 fbbc bea9 f73e
00000080: 612a 1f3f a163 f7be 38fc 033f 5837 0f3f
00000090: ef56 ebbd d1c0 b03e 2216 cfbe 4be5 12bf
000000a0: d88b 3b3e 40eb 533f 6c27 d93e 9d21 f2be
000000b0: d5cd 49bf ade0 273e f4c4 9cbe 3aa5 a0bf
000000c0: dcf2 86be 9953 d93e 2b69 1d3f e702 913e
000000d0: df32 27bf 60a7 a2bf a0e8 d6bd 87b6 42bc
000000e0: ff8a bdbd cf28 553d e06a f4be 0b78 9cbf
000000f0: 49fc f03e 19a4 e0be 4386 2dbf a665 7bbe
00000100: c5d0 b43e 5f36 cc3e 1a93 cabe c617 443f
00000110: 744d 8b3f 9b0b 923e bd3b 89be c05b 93bf
00000120: 3833 9f3c a71c f53d f19a 703f 8db6 40bd
00000130: ed23 e03d e7ab 693f ed43 843e a619 613e
00000140: 9533 c23e aec2 87be 83dd 98be 1d42 95be
00000150: 53b9 963e 7131 f1bd ebf6 34bf c68c 273f
00000160: 88c7 5e3f c524 0b3f c2f4 d33c 8ddc 97bf
00000170: 1aeb dcbe 6649 233e e44f fabe 638c 75bf
-0.022242805 -0.35092142 -1.1476512 0.36354637 -0.47698942 -0.70991325 -0.19100474 0.2275143
-0.42092377 -0.3861411 0.73324454 1.1138607 0.22577524 -0.35805926 0.15151897 -0.2505144
0.5103741 1.0981896 -0.4830692 -0.015215725 0.5176521 -0.19504745 0.2834925 0.75524515
0.33166295 -0.49665114 -0.89678 0.45220524 -0.80790585 -0.882198 -0.030704418 0.4837169
0.6217404 -0.48318198 0.5155673 0.5594382 -0.11491191 0.34522107 -0.40446573 -0.57381123
0.18315065 0.8278084 0.4241289 -0.4729127 -0.788297 0.16394301 -0.30619013 -1.2550423
-0.26357162 0.42446592 0.614886 0.28322527 -0.65312 -1.2707329 -0.104935884 -0.011884338
-0.09255027 0.05204087 -0.4773779 -1.2224134 0.47067478 -0.43875197 -0.6778299 -0.24550495
0.3531553 0.39885232 -0.39565355 0.76598775 1.0883012 0.2852448 -0.2680339 -1.1512375
0.019433603 0.119683556 0.9398642 -0.047049094 0.10944352 0.9127793 0.25833073 0.2198244
0.3792998 -0.26515716 -0.298565 -0.29152003 0.29438266 -0.11777008 -0.70689267 0.6544918
0.8702321 0.5435298 0.025873546 -1.1864182 -0.43148118 0.15945968 -0.48889077 -0.9591734

tgnn._base_tgcn.linear_z.weight f4 [32, 64]
00000000: cfe5 1fbf 846f 00bf d225 d53d 011e 693f
00000010: 90f0 31be 54e7 663f 476a 183e 0618 523e
00000020: 5823 15bf 358d 6cbf 2d47 213f fafc de3e
00000030: f7b8 b13b f13e 9d3c a75f 11bf 0e96 1dbf
00000040: b7a8 093f 384b 7dbf 06e9 adbd 42cb 82bf
00000050: ef68 b6be f1be d83e 7c11 843f 498a 9ebe
00000060: 885c 993e 504c 433e 1376 283e 4ba1 a8be
00000070: acd3 61be ef04 ab3e 61c3 2bbf 10ff 4cbf
00000080: a8db a53c 04c7 643d 3064 373d a489 103d
00000090: 888e bd3c 3891 b7bc 7ce0 ea3d 581b 94bc
000000a0: 8c34 60bd f8df 9d3d 3c5e 3dbd ce22 ec3d
000000b0: f090 e23d 9ea1 abbd 904a d2bd 2060 27bd
000000c0: 3e22 a53d bc91 d2bd 02f5 8a3d 2820 febd
000000d0: 1015 c3bc 1cae 06bd 502e 593c 7cc9 ce3d
000000e0: 880a b4bd 802f 073b 6011 c83b 70c1 56bd
000000f0: 0029 0d3c ca87 b83d e4a6 9cbd 0c02 a23d
00000100: 1149 babe 43c4 03bf 054c 9fbe 9e32 92be
00000110: 8a76 e83e 7512 e13e d13a fc3e 8666 0e3f
00000120: 593e d9be 6811 00bf 4b71 cb3e 232f 1e3f
00000130: bab8 e4be 7c5d 82bd d1b7 09bf 2a85 c9be
00000140: 1da5 b53e 79fa 14bf f6c3 a8be 4c57 fbbe
00000150: 2c6b e8be 71a0 093f cc31 e73e a7fc ccbe
00000160: 6de1 b33e 2d6a 0a3f f59b d93e 4d33 84be
00000170: d97b a9be c92c fa3d df59 bbbe 25f4 e3be
00000180: d2cf bf3d 4cda 5c3d c259 97bd 42ab 8ebd
00000190: 9040 e23c f8e8 103d c697 873d 0e66 bbbd
000001a0: eea7 f63d 2047 c9bc 5c9b 333d 646d 5bbd
000001b0: 3835 433d 82a0 da3d 724d b8bd 8027 393c
000001c0: 90f5 7a3c 30ae 93bc d46a 0cbd 5030 c63c
000001d0: d074 bd3c 789f 51bd 5c65 353d da7b d53d
000001e0: 3811 fa3c 36a7 82bd e8b3 99bc bc99 03bd
000001f0: b28e ff3d 7af1 84bd 2eab 993d 469f febd
00000200: 58e1 373d 28b3 f1bd b087 59bc 9a9d c1bd
00000210: b817 d1bd e059 b73c 76cc be3d c00a ba3d
00000220: 048f 59bd 34bb 14bd 688b abbc 80c7 5cbb
00000230: 588b a7bd 80f1 8dbb 8af4 983d 4a9a d63d
00000240: 34cf c43d 50e5 78bd 643b 963d 0814 883d
00000250: 0035 dc3d 3cbe 06bd 7258 c3bd 70a1 6c3c
00000260: 3647 853d 88a4 e7bc f061 1e3c 5824 93bc
00000270: 8aba d9bd 5c10 173d d8d9 023d 009d 2a3b
00000280: 9ac3 d4bd 14e1 4c3d 40d3 9f3b b0ab e1bd
00000290: b2e0 ddbd 60b8 603c 1065 723c f0da 233c
000002a0: 7a21 823d 0024 1bba faf7 f33d 0cc8 11bd
000002b0: f036 91bd 4666 b3bd 805b 7abd d085 f63d
000002c0: 46ac 803d f411 3cbd f8aa acbd c033 09bc
000002d0: c43e b23d a0fd f73d 264b e9bd 309b 6fbd
000002e0: 523d d4bd 18a8 bcbc c83d 93bc e8c6 e63d
000002f0: 1c1a f63d dc2b ec3d cc32 4cbd 20c0 5ebd
00000300: 997e d2be d755 c6be 145e 5abe 8e76 9bbe
00000310: 3cdf 083e 5534 823e aae6 4b3e 44c8 583e
00000320: ac41 b9be cab7 c9be 058e cf3e 199e 8b3e
00000330: a002 293c 4a36 8ebe 1cf6 81be d74a a5be
00000340: f595 863e 99da 8dbe c26c aabe 5359 8ebe
00000350: 7247 d3be 2d3c d33e a4c0 0d3f 5b09 f5bd
00000360: 7e7e 783e 377b 3d3e 97dd 833e 78c2 e7be
00000370: a656 06be 59a0 d43e f5ac 63bf beaa e1be
00000380: 4850 603d bae9 b0bd 48fa b4bd 60d5 4e3d
00000390: 48db 3cbd 20e6 403d aa9e c63d 108f 38bd
000003a0: f089 99bc 0ef6 c8bd 1c53 c6bd 20dd 883c
000003b0: 08a9 c43c 8edb cbbd 423c d3bd 3cbe 843d
000003c0: 606c 9fbb 0a32 d93d 5a11 da3d c880 1e3d
000003d0: c042 7fbc 2c94 433d 24cc b23d d22d ec3d
000003e0: 44d3 c03d 9c27 d7bd 00e2 85bd da41 f4bd
000003f0: a4a6 e0bd e0a5 603c 8c85 f53d 9880 0a3d
-0.62460035 -0.5017016 0.10407604 0.9106141 -0.17376924 0.9019673 0.14884292 0.20516977
-0.58257055 -0.92402965 0.6299923 0.4355238 0.005423661 0.019195052 -0.5678658 -0.6155709
0.53773063 -0.989429 -0.08491711 -1.0218279 -0.35626933 0.42333177 1.0317836 -0.30964878
0.29953408 0.1907208 0.16451292 -0.32935557 -0.22053403 0.33402202 -0.67095 -0.80076694
0.020246342 0.05585386 0.04477328 0.035287514 0.023139253 -0.022408113 0.11468598 -0.018079445
-0.054737613 0.07708734 -0.046232447 0.11530076 0.11062801 -0.083804354 -0.10268128 -0.040863156
0.08063172 -0.10281703 0.06785013 -0.12408477 -0.023813754 -0.032880887 0.013255671 0.10097024
-0.08791071 0.0020627677 0.006105587 -0.05243057 0.008615732 0.09010275 -0.07649019 0.07910547
-0.3638387 -0.51471347 -0.31112686 -0.28554243 0.45402938 0.43959394 0.49263623 0.5562519
-0.4243038 -0.5002656 0.39734873 0.61790675 -0.44672185 -0.06365487 -0.53796107 -0.3935941
0.35477534 -0.5819469 -0.32962006 -0.4909004 -0.45394266 0.5376044 0.4515518 -0.40036508
0.35132924 0.5406826 0.42501798 -0.2582039 -0.331023 0.12215573 -0.36592004 -0.44522205
0.093658105 0.05391912 -0.07390167 -0.069662586 0.027618676 0.035378426 0.06620745 -0.09150325
0.12043749 -0.024570048 0.043849334 -0.05357112 0.047658175 0.10675146 -0.089991465 0.011300921
0.015317336 -0.018027395 -0.034281567 0.02419296 0.02312699 -0.051177472 0.044286117 0.104240134
0.030525789 -0.06379549 -0.018762544 -0.032129034 0.12478389 -0.064913705 0.07503353 -0.12432723
0.04489264 -0.118017495 -0.013276979 -0.09453888 -0.10209602 0.022381723 0.093163416 0.09084082
-0.053114906 -0.036311343 -0.020940498 -0.0033688247 -0.081808746 -0.0043317676 0.07468517 0.10478647
0.09609833 -0.060765564 0.073355466 0.06644446 0.107522964 -0.032896265 -0.09538354 0.014442787
0.06507723 -0.028276697 0.009666905 -0.017961666 -0.10631283 0.036880836 0.031946033 0.002603352
-0.103888705 0.05001934 0.004877478 -0.11019075 -0.10833873 0.013715833 0.014794603 0.010000929
0.063540414 -0.0005918145 0.11912532 -0.03559117 -0.070905566 -0.087597415 -0.061122417 0.120372415
0.062828586 -0.04591556 -0.08431047 -0.008374155 0.08703378 0.12108922 -0.113912866 -0.058497608
-0.103632584 -0.023029372 -0.017973796 0.11268407 0.12016699 0.11531803 -0.04985313 -0.054382443
-0.4111221 -0.38737366 -0.2132495 -0.30363888 0.13366407 0.2543055 0.1991221 0.21170145
-0.36182916 -0.39398032 0.4053804 0.27269056 0.010315567 -0.27775794 -0.2538308 -0.3228366
0.26286283 -0.2770584 -0.332861 -0.27802524 -0.41265446 0.41256848 0.5537207 -0.11964675
0.24267003 0.18504034 0.25754997 -0.45265555 -0.13118991 0.41528586 -0.88935786 -0.44075578
0.054764062 -0.0863833 -0.088368 0.05049646 -0.04610756 0.047094464 0.096982315 -0.04505831
-0.018742532 -0.09812556 -0.096838206 0.016707003 0.024006382 -0.09953986 -0.10314228 0.06481597
-0.004865214 0.10605247 0.10647841 0.038697034 -0.015579879 0.04774873 0.08730343 0.11532177
0.09415296 -0.10505602 -0.06537247 -0.11926623 -0.10969284 0.013711423 0.11988363 0.033814043

tgnn._base_tgcn.linear_z.bias f4 [32]
00000000: a27a 94be b7c5 d4be fa09 f23d 7878 93be
00000010: 265e adbe 37b0 a1be d26e 81be a91d 7d3c
00000020: 8797 b4be 9a61 70be ba0d a3be 644f 9cbe
00000030: 371d cabe 067f f2be c011 c0bb 336e 8c3d
00000040: 1c2d 793d 7850 e3bd 8d41 a7be 0ed8 cbbe
00000050: d8f1 76be efac b73e d572 66be ae05 a5be
00000060: f6c9 a4be 8bc4 d4be 7519 37be fbaa b3be
00000070: d774 94be 5017 a2be 783c f53d a14b 9bbe
-0.2899981 -0.41557094 0.11818309 -0.28802848 -0.33860892 -0.31579754 -0.25279862 0.015448966
-0.35271856 -0.23474732 -0.3184641 -0.3052932 -0.39475414 -0.47362536 -0.005861491 0.06856956
0.060834035 -0.110993326 -0.326672 -0.39813274 -0.24115694 0.35874125 -0.22504742 -0.32230896
-0.32185334 -0.415562 -0.17880805 -0.35091385 -0.28995392 -0.3165841 0.11974424 -0.30331138

tgnn._base_tgcn.conv_r.bias f4 [32]
00000000: 0000 0000 0000 0000 0000 0000 0000 0000
00000010: 0000 0000 0000 0000 0000 0000 0000 0000
00000020: 0000 0000 0000 0000 0000 0000 0000 0000
00000030: 0000 0000 0000 0000 0000 0000 0000 0000
00000040: 0000 0000 0000 0000 0000 0000 0000 0000
00000050: 0000 0000 0000 0000 0000 0000 0000 0000
00000060: 0000 0000 0000 0000 0000 0000 0000 0000
00000070: 0000 0000 0000 0000 0000 0000 0000 0000
0.0 0.0 0.0 0.0 0.0 0.0 0.0 0.0
0.0 0.0 0.0 0.0 0.0 0.0 0.0 0.0
0.0 0.0 0.0 0.0 0.0 0.0 0.0 0.0
0.0 0.0 0.0 0.0 0.0 0.0 0.0 0.0

tgnn._base_tgcn.conv_r.lin.weight f4 [32, 3]
00000000: 1ebb 2d3e 40d1 19bd 6891 6d3d 5b84 9d3e
00000010: 6687 95be c04b a5bc 28c7 0fbe 9a12 90be
00000020: 6474 c03d e0df 343c 5c84 c53d 074d a83e
00000030: a765 90be a018 1dbd 640a e9bd 9b2c 803e
00000040: 3455 8fbd 844f b9be a06e af3c a21e 073e
00000050: be3e 253e 54d1 cebd f2a1 173e a85e 8c3d
00000060: d633 4e3e 72bd 763e 1a6a 3bbe a03f 90be
00000070: 9c42 bb3d 3a99 6e3e 2204 133e cc30 3dbe
00000080: 490b 9cbe 6cbb bb3d 8f6c 8f3e 771b 3ebe
00000090: 0252 73be bf7d a03e 9dc9 c0be 8fcd 9d3e
000000a0: 6017 08bc 5ccb fa3d cc3e 17be d0fe 81be
000000b0: 53d9 c93e 8665 2a3e 7434 a7bd e294 77be
000000c0: 5d26 9a3e c18d 35be 5e6c 7b3e c6ee 293e
000000d0: b4d3 8abe fa16 2e3e e086 5fbc 79e0 8c3e
000000e0: 9de2 34be 980f bebe 5078 c9be 36b8 73be
000000f0: 7766 903e b296 7ebe 28c4 c8bd a0f8 0bbc
00000100: 80a3 1dbb 80a1 a0bd 44de 78be 74ab 90bd
00000110: 1e1f 9fbe 0f98 b5be fee6 773e e084 59be
00000120: aea8 773e 4790 47be ba2c 3d3e 640f 96bd
00000130: 3080 1fbe b674 3d3e 2e64 1e3e 1c08 bd3d
00000140: 80b5 543b c879 84bd 35fa cdbe 58e8 95bd
00000150: 6d45 b13e 9170 963e 94ee bf3d f253 4b3e
00000160: 50f6 4fbd 5e6d 83be 79b0 36be 92cd 303e
00000170: 099f cd3e 963f 143e 7025 78bd d693 b6be
0.16965911 -0.037553072 0.058 0.30765042 -0.29204863 -0.020177722 -0.14040816 -0.28139192
0.093972 0.011039704 0.09644386 0.32871267 -0.28202555 -0.038353562 -0.11378935 0.2503403
-0.06998673 -0.36193478 0.021415055 0.13195279 0.16137215 -0.1009852 0.14807871 0.06853992
0.20136961 0.24095705 -0.18302193 -0.28173542 0.09143564 0.23300639 0.14357045 -0.18475646
-0.3047736 0.09166607 0.2801251 -0.18565165 -0.23761752 0.31345937 -0.3765382 0.3082089
-0.008306354 0.12245819 -0.14770049 -0.2538972 0.39423618 0.1664029 -0.081643015 -0.24177888
0.30107394 -0.17729856 0.24553058 0.16594991 -0.27114642 0.17000952 -0.013642997 0.2751501
-0.17664571 -0.37121272 -0.39349604 -0.2380074 0.28203174 -0.24862173 -0.09803039 -0.008543164
-0.0024053752 -0.07843304 -0.24303538 -0.07063952 -0.31078428 -0.35467574 0.2420921 -0.21242094
0.2418544 -0.19488631 0.18474093 -0.07327154 -0.15576243 0.18501553 0.15467903 0.09230062
0.0032456815 -0.064685404 -0.40229955 -0.07319707 0.3462328 0.29382756 0.09371677 0.19856241
-0.05077201 -0.25669378 -0.17840756 0.17265919 0.40160397 0.14477381 -0.06058258 -0.35659665

tgnn._base_tgcn.linear_r.weight f4 [32, 64]
00000000: f80b 97bd 98e4 ea3c e87f 03bd 2e96 febd
00000010: e8bb c33c 2027 473d 5263 cb3d ac55 65bd
00000020: f223 ad3d a236 e1bd 40a9 dd3c 9808 ab3c
00000030: 1260 bcbd e4ed 763d 460d e23d 345a 80bd
00000040: 0846 2fbd 6010 943c f402 b73d 4662 8ebd
00000050: a45e 43bd 6438 373d c01a 273d 88c2 723d
00000060: e453 cc3d dc06 e83d 4c7b b63d c840 6b3d
00000070: ee84 933d 3c83 993d e228 e1bd 80d1 8f3b
00000080: 22af d6bd c022 bc3c b078 5b3d 5803 72bd
00000090: 5a66 df3d 70f3 613d c08c 5f3d 30be 303c
000000a0: e4a9 70bd 0889 ca3c 6a73 8e3d b43a c73d
000000b0: a8c8 d23d 9a7f 8c3d 5ea0 a03d 74fc 8dbd
000000c0: a022 9ebc 9409 17bd a427 a73d 1efa b7bd
000000d0: e8f0 cf3d 40ec 98bc cc6f f23d 14a5 223d
000000e0: 0057 c73d 0471 0bbd 94a1 d23d fa8d a4bd
000000f0: 3075 7b3c 00dc 143b 0e96 f93d ec00 023d
00000100: 8053 26bd 6e77 9abd 0c4a c63d 4cf4 58bd
00000110: 0870 96bd e61c fbbd 506e 36bc ecce cabd
00000120: 585e babc e249 88bd 386a fc3d 4685 9cbd
00000130: 3030 ad3d b836 e93d 680e a33d f827 8bbc
00000140: f87c d4bc 4cc4 cb3d c8da 9e3d 34f3 13bd
00000150: 5238 ff3d 5c6e babd caf6 a13d 2044 9bbb
00000160: 209d 283d eaaf e43d 5e53 ee3d 78a6 bcbc
00000170: 54c6 a7bd 0432 bd3d 048e c13d f630 b83d
00000180: 26b8 9b3d 6894 423d d0d5 b23d c6f0 d1bd
00000190: a0c5 1e3d 042d fa3d 2225 a73d 7441 093d
000001a0: 9038 f2bd 7875 f23d 0a1e 93bd 0a00 cbbd
000001b0: 9639 c13d 543c 55bd 945e 433d 1c2e 1b3d
000001c0: 50f1 323c 2c6e 39bd 32d5 d3bd 74b7 f73d
000001d0: 2846 84bc b83b 7d3d 2069 cbbc c69c ed3d
000001e0: acea d43d 06fd 9fbd 92d6 f6bd fce4 0e3d
000001f0: 906d 1abc f8ba b2bc 9437 fcbd 28fd c2bd
00000200: 1846 5f3d e067 64bc e843 c33d 7a95 923d
00000210: e0f5 3f3d c099 a53c a8f0 a9bc 3069 a73c
00000220: 9af1 b83d 1c4b 19bd 248a 803d ac82 9b3d
00000230: 04a0 af3d c01c 45bb debe dfbd b07d 5d3d
00000240: 26d7 f53d 98ab 9c3c dcaa 40bd 2066 ce3b
00000250: d43b 36bd 80fe 9bbb e6e8 8bbd e0ff 1fbd
00000260: d4e5 123d 9024 a7bc 0879 a3bd b06e 8bbd
00000270: e0f1 c73c 609b b6bd 0c82 c83d de62 aa3d
00000280: 50d6 0cbc 403e 593d 6cdc a1bd bc82 b13d
00000290: e08e 77bd a8af ecbd 1065 63bd 10e7 8f3d
000002a0: 8c12 02bd c0a6 f7bb 7004 a4bd 8243 9b3d
000002b0: 8cb6 fcbd 04e2 103d 641e e8bd 3c00 b03d
000002c0: 58c3 133d 7472 70bd 0044 4c3b 689f d6bc
000002d0: f8fb 6ebd d41a e03d 0452 e0bd 0060 00bc
000002e0: 48fc e33d a063 e33c 64f0 d1bd a0b8 e0bd
000002f0: 808c d83b ece7 3c3d f84f 3bbd ee57 b0bd
00000300: 8052 fe3a 7ce9 123d 5498 cfbd 1224 bcbd
00000310: c087 913c fc43 a5bd e8d9 eabc cc4f 66bd
00000320: 64f2 7d3d e498 ba3d 3e55 f9bd 0609 f53d
00000330: c295 ef3d 30aa e4bd 9e92 a33d 603d 04bd
00000340: ac90 1abd 7821 843d ce21 9d3d c86f 89bc
00000350: 3248 fb3d 6413 dabd 9813 dcbc c86e 77bd
00000360: 7cb8 e0bd 203f ff3d 144a bbbd 6cc1 b5bd
00000370: cc0a babd 94fa 8e3d 7899 cabd 60e5 c43c
00000380: 12a9 ba3d 04c4 233d c0e1 f4bc 1abf a5bd
00000390: 54c6 ce3d fc0f 64bd 60f9 d4bc 2288 a33d
000003a0: 8494 6fbd ae87 ab3d 38b0 ecbd eae0 913d
000003b0: 1448 773d 20f6 fc3c 401b a53c 40a5 2abb
000003c0: 9cde 073d 6455 a2bd 2c6b c6bd 2e55 94bd
000003d0: e450 6ebd 9ce2 783d 4467 bfbd b8e2 b63c
000003e0: 98d7 80bc 182b 8bbc 80c6 b63c e88d cebc
000003f0: f2cf 993d 9862 0bbd ac9b bcbd 804f 7c3c
-0.0737533 0.028673455 -0.032104403 -0.12430988 0.023893312 0.048621297 0.09931053 -0.055989906
0.08454122 -0.109967485 0.027058244 0.020878121 -0.091980115 0.060285464 0.11037688 -0.06267205
-0.042791396 0.018074214 0.0893611 -0.06952338 -0.04769768 0.044731513 0.040796995 0.05926755
0.09976938 0.11329433 0.08910236 0.057434827 0.07203089 0.07495734 -0.10994126 0.004388988
-0.10482623 0.022965789 0.053581893 -0.05908522 0.10908194 0.0551638 0.05457759 0.010787532
-0.05875577 0.024723545 0.06955607 0.097279936 0.102921784 0.068602756 0.078430876 -0.06932917
-0.01930362 -0.03687437 0.08161858 -0.08983253 0.10153371 -0.01866734 0.1183773 0.039708212
0.09733391 -0.034043327 0.10284725 -0.080348924 0.015347764 0.0022714138 0.12186824 0.03173916
-0.040606976 -0.07542311 0.09682092 -0.052967355 -0.07345587 -0.12261371 -0.011134699 -0.099027485
-0.022750065 -0.06654717 0.12324947 -0.076426074 0.08456457 0.1138739 0.07961732 -0.016986832
-0.025938496 0.0994955 0.07756573 -0.03612061 0.12461914 -0.09103081 0.079083994 -0.0047383457
0.04116547 0.111663654 0.11636995 -0.023028597 -0.08192125 0.09238055 0.094509155 0.089937136
0.07603483 0.047504812 0.08732188 -0.10251002 0.03876269 0.12215617 0.081613794 0.033509687
-0.11827195 0.11838812 -0.07183464 -0.09912117 0.09434812 -0.052059487 0.04769762 0.03788577
0.010921791 -0.045271084 -0.10343398 0.12095538 -0.016146734 0.06182453 -0.024830401 0.11602168
0.103963226 -0.07811932 -0.12052645 0.034886345 -0.009425536 -0.02181767 -0.12315288 -0.09520942
0.054510206 -0.013940781 0.095344365 0.07157417 0.046865344 0.020214915 -0.020744637 0.0204359
0.09030457 -0.037425146 0.06276348 0.07593283 0.085754424 -0.003007695 -0.10925077 0.054074943
0.12003927 0.019124791 -0.047037944 0.0062987953 -0.04449065 -0.0047605634 -0.06831531 -0.03906238
0.035863712 -0.020403177 -0.07982069 -0.06808221 0.024407327 -0.08916354 0.097904295 0.08319639
-0.008596018 0.05303788 -0.0790337 0.08667514 -0.06043899 -0.11556941 -0.055516303 0.070264935
-0.03175597 -0.00755772 -0.08008659 0.075812355 -0.123395056 0.035371795 -0.113339216 0.08593795
0.036074966 -0.0587029 0.003116846 -0.026199058 -0.058345765 0.10942617 -0.10953143 -0.007835388
0.11132103 0.027757466 -0.10250929 -0.109727144 0.006608546 0.046119615 -0.04573056 -0.08610521
0.0019403249 0.0358672 -0.10136476 -0.09186567 0.017764926 -0.080696076 -0.028668359 -0.056228444
0.06199874 0.09111193 -0.12174462 0.11964612 0.11698486 -0.11165273 0.079869494 -0.032285094
-0.037735626 0.06451696 0.07672463 -0.016776934 0.122696295 -0.1064823 -0.026864812 -0.060408384
-0.109726876 0.12463212 -0.09144989 -0.08874783 -0.090840906 0.06981388 -0.09892553 0.024035156
0.09114279 0.039981857 -0.029892802 -0.0809309 0.10096422 -0.055679306 -0.025997818 0.0798495
-0.058491245 0.08375488 -0.115570486 0.07122977 0.060371473 0.03087908 0.020154595 -0.0026038438
0.03317128 -0.07926443 -0.0968841 -0.07242809 -0.058182612 0.060762987 -0.09345868 0.022324905
-0.015727803 -0.016988322 0.022311449 -0.02521415 0.075103655 -0.034029573 -0.092093796 0.015399814

tgnn._base_tgcn.linear_r.bias f4 [32]
00000000: 1c8a 973d 4e00 d0bd 9435 7abd b0a5 4d3d
00000010: f215 883d 0060 6ebc e4de 8b3d f05d 193c
00000020: c0bf 1abb d44e f9bd 780b f2bd 3cce df3d
00000030: 08e4 543d 3eb9 edbd 54b4 703d 1c26 37bd
00000040: b067 193d 723e 8a3d 587a 083d f0b9 9cbc
00000050: ae30 b5bd d841 393d 3077 57bd ecb9 d9bd
00000060: feda d5bd 2c38 673d fc8f fe3d 00b3 7e3a
00000070: 2a6b ca3d b09b 133d b64d 843d 2240 8d3d
0.07399389 -0.10156308 -0.061086252 0.05020684 0.06644811 -0.014549255 0.068296224 0.009360775
-0.0023612827 -0.121732384 -0.11818594 0.10928008 0.05197528 -0.11607598 0.058765724 -0.04471408
0.0374524 0.06750192 0.0333198 -0.01913163 -0.088471755 0.04522881 -0.0526039 -0.10631165
-0.1044216 0.056450054 0.124298066 0.0009716004 0.09883721 0.036037147 0.06460135 0.06896998

tgnn._base_tgcn.conv_h.bias f4 [32]
00000000: 5bdc 643e 6763 343d 69d4 a8bd b0fe 69bd
00000010: f5be 8d3d 30bc 9abe 1b93 1d3e 2534 243e
00000020: d998 9d3e 3671 f0ba ccdf 17be 3a93 c33d
00000030: 65d1 7ebe 6148 e1bb c3ee dd3d d994 8dbe
00000040: d0b7 9c3c bfcb 2ebe 51ce 173e abd9 a2bd
00000050: 8e5a 9b3d f2df 9f3e 7dba f03c 3820 153d
00000060: 1457 fbbd 7151 043e d1d5 ddbd 5d4e 213e
00000070: 2358 943e 9cf6 8f3e 6852 03be ed71 013b
0.22349684 0.04404011 -0.08243639 -0.057127655 0.06921188 -0.302217 0.15388148 0.16035517
0.30780676 -0.0018344286 -0.14831465 0.095495656 -0.24884565 -0.0068750833 0.10836556 -0.27652624
0.019130617 -0.1706991 0.14824797 -0.07951673 0.07585631 0.31225544 0.0293858 0.03640768
-0.12272468 0.12921692 -0.10831798 0.1575255 0.28973493 0.28117836 -0.12824404 0.0019751743

tgnn._base_tgcn.conv_h.lin.weight f4 [32, 3]
00000000: 5aab 533e 9322 2abf 388b c83e 8a9f ccbe
00000010: 9034 39bf 1cbd fd3e e1fc a7be e7cd 25be
00000020: 11b5 9c3f 08d2 31bc bf50 3c3f 7d55 d9be
00000030: d373 843e 7455 eb3e 15c2 5abf bbe5 ae3e
00000040: c0b0 e23e a207 2b3e 83e1 e8be faea 13bf
00000050: b530 1a3e 62ff d5be 0bb7 c9be 7ab9 a33e
00000060: 3341 303e fb06 f03e a048 44bf c857 03bd
00000070: c160 40bf ecae 233f cdbf 163f 0588 d53e
00000080: b0ba e7be e717 01bf 8c65 3abf 1041 52bd
00000090: d337 9ebd 3399 2c3f 50bb 993e 44f1 1e3f
000000a0: b337 343f 3a0e c9be b42a f43d 7867 0ebf
000000b0: 7d5b 1f3f 8f6d 81be 61a3 50be 9625 9ebe
000000c0: 4d81 16bf 1b4c abbd 1b44 603f 5e1f 0abf
000000d0: 9055 07bf b6eb b03e a410 c1bd 210e 27bf
000000e0: 67f8 c83e 0abe 4d3e 193b 4e3f 98d2 a63e
000000f0: e18a 72be 2452 30bf c6e4 6fbe 5267 883e
00000100: 2301 333d 651f 2a3e 5c17 623f 58f8 e53e
00000110: d72e 853e 06de bbbe fc8e 26bf cba9 473f
00000120: 833c 9b3e 4e29 f83e ec3f d6be 0979 f93d
00000130: 9dfb febe d8f2 e73e 2e80 a7be a4e8 2ebf
00000140: 5e02 db3d 1fb7 9cbe 2e92 86be 805f dc3e
00000150: 7b25 563d 90b1 cfbe 60f7 d43e f8cc 82be
00000160: b7d4 e73e 807c e03e e37c 023f ff7b e23e
00000170: 03f3 12bf e3c8 d9bd 9cb3 45bf 1fa2 193f
0.20670834 -0.66459006 0.39168715 -0.3996547 -0.7234583 0.49558342 -0.3281012 -0.16191827
1.2242757 -0.010853298 0.7356071 -0.42448035 0.25869617 0.45963633 -0.85452396 0.34159645
0.44275475 0.1670213 -0.45484552 -0.5778042 0.15057643 -0.41796404 -0.39397463 0.31977445
0.17212372 0.46880326 -0.76673317 -0.032066137 -0.75147635 0.63938785 0.58886415 0.41705337
-0.4525962 -0.504271 -0.728112 -0.05133158 -0.077254914 0.67421263 0.3002572 0.6208689
0.7039749 -0.39268667 0.119222075 -0.5562663 0.62248975 -0.252789 -0.20374824 -0.3088805
-0.5879105 -0.08364125 0.8760392 -0.5395411 -0.52864933 0.34554833 -0.09427002 -0.65255934
0.39252016 0.20092025 0.80558926 0.32582545 -0.2368579 -0.68875337 -0.23427114 0.26641327
0.043702256 0.16613539 0.88316894 0.44916034 0.26012298 -0.36692828 -0.65061927 0.7799346
0.30319604 0.48469013 -0.41845644 0.12181289 -0.4980134 0.45302463 -0.3271498 -0.6832373
0.10693811 -0.3060846 -0.262834 0.4304161 0.052281838 -0.40565157 0.41594982 -0.25547004
0.45279476 0.43844986 0.5097181 0.44235227 -0.57402056 -0.10634019 -0.7722719 0.60013

tgnn._base_tgcn.linear_h.weight f4 [32, 64]
00000000: b545 a3be d759 b7be d3e0 c9be 833a 113f
00000010: 58eb 093f 1f92 c83e f759 11bf 42d7 1bbf
00000020: 0eda af3e d526 d3be 7abc 083f 3702 18bf
00000030: 9163 5b3e dd00 043f 6456 c0be 3f6d 83be
00000040: f67d 05bf aa98 bfbe 5a44 02bf 2411 1b3f
00000050: 2b70 c9be c1bc d63d 281d b43e 8eda 13bf
00000060: e185 fc3e 3b12 67be 0a15 f9be 29d4 e6be
00000070: 768c bebd 8687 223e 8c9c d73e 5ce1 b1be
00000080: 0ee0 84bd 6a56 b33d 129d a43d acf0 7fbd
00000090: 7ca2 1cbd 9ea3 9cbd 569c ec3d 4853 60bd
000000a0: 0058 793d 2451 12bd 7e2b c83d 381a d33d
000000b0: 8a11 c53d 286d 983c 50c9 473d 5891 c03c
000000c0: 087b dabc d857 57bd a0c0 eb3b 02f3 9cbd
000000d0: 4411 b8bd b2cb aebd 4c60 6e3d d0ae 1fbc
000000e0: 248c e63d fc9e 973d c48b 593d ac7e 19bd
000000f0: 02fd ccbd 9087 eb3d 8037 203b 86b2 e0bd
00000100: b77e 163f 4e01 663e 35a4 423e a020 5bbf
00000110: 3623 9fbe 650a c6bd c8f7 0c3e 2c7d 303e
00000120: 52ba d5bc 6ce5 1b3f 5dff a4bd 1f31 c13d
00000130: d693 a5be c327 38be e1b1 3b3f 5bfe 25be
00000140: b44c eb3c 475e af3d cdcf 6b3f d2d4 82be
00000150: 59f7 b13d 6ff0 f43d db8d cc3d d4d9 573e
00000160: 504d a4be a824 263f 6e31 093e 0027 ac3e
00000170: eaec 913e 67fd 97bd 3533 91be 74ff 173f
00000180: 3a4c b6bd 40ed 54bc b64b f5bd e022 ac3c
00000190: e8b9 86bd f8af 643d da34 a6bd 3c68 80bd
000001a0: 00bc d23b 6073 de3b bc88 b83d 002f acba
000001b0: 9052 3e3d dcc0 a33d 682a abbd 04bf 9e3d
000001c0: 9cd9 56bd c097 6a3c 4826 d63c 6019 c23c
000001d0: 50ce ee3c d45e 3a3d 5480 a8bd d0bb 003d
000001e0: 289a 92bc 68cc 963d c27b 90bd b0f8 213d
000001f0: 548e 5a3d ec03 54bd 6a10 a9bd 5a04 bb3d
00000200: a4d3 e53d f6ae a73d 365a c5bd e46f 3d3d
00000210: 8c63 cdbd a8b3 88bc 7ced d2bd 8896 883d
00000220: 1afb 9c3d 94c6 a33d d48d 6bbd 222b f03d
00000230: 82bb b63d c099 843c 62f1 bdbd 3088 923d
00000240: d0f8 153d 9079 0f3c aa71 fabd ba4e 97bd
00000250: 903e 73bc ee13 eabd b4cb b43d 5888 c7bc
00000260: 889d 9abc e8c4 2d3d 70e4 563d 4c92 9ebd
00000270: 98d4 9c3c d449 73bd 069d d8bd 28f2 fc3d
00000280: 5805 fb3c 704e aebd b894 8dbd 0cd7 0f3d
00000290: 5a35 eebd 509d 2fbd c440 a93d 04d3 9bbd
000002a0: f430 d23d 9c2b 283d 7aeb d3bd 38ab 573d
000002b0: 76fe f33d 74dd 4a3d 586c d23d 0062 d3ba
000002c0: 729e c0bd e487 243d a069 033d 78d5 593d
000002d0: 2861 a1bc 04a4 80bd 44bf 133d a445 c0bd
000002e0: f01a d43d 5460 54bd 44ff ffbd da2b 903d
000002f0: 2076 d13b 20f0 23bd 6408 39bd 22f0 a7bd
00000300: 6e7c 493e dade 743d 6436 863e cfe0 38bd
00000310: 6ba0 0dbd 93f3 09be 86a2 303e 869c 7f3e
00000320: 9dca 213e 8192 dd3c 7879 0cbe e62c 96bd
00000330: a62a 65be 642d be3c 6702 c13e 1d3c 90be
00000340: 1f6e 2a3e c05c 0fbe 8f52 b43d 1c1c 8cbd
00000350: 5c03 7b3d cc04 653e 1b63 4ebc 04b5 9c3d
00000360: cc14 b2bd 4b5f 6a3e 7234 edbd fa8e 903e
00000370: 699b b03e 4722 a03e a11f 73be 39b9 82bd
00000380: 40cd 96bc 1642 ab3d 4ca1 4b3d 242a f23d
00000390: 0414 28bd 48cf 6ebd 58ed a8bc ea4c ce3d
000003a0: f616 cc3d 9cbb 83bd 5007 f03d 8257 993d
000003b0: 0829 453d 3031 65bc 024d b53d 3443 8e3d
000003c0: 0690 9c3d 4c42 163d 4806 d8bc 3287 813d
000003d0: b873 b5bd 60e3 8a3b 14aa b3bd 402f a23c
000003e0: ee2e d53d 2428 ebbd 9c7d 05bd 7685 e0bd
000003f0: 9c9e c7bd 0870 913d 0077 183b b059 6d3c
-0.3188912 -0.3581073 -0.3942934 0.56729907 0.5387473 0.39173982 -0.567779 -0.6087533
0.3434605 -0.41240564 0.5341259 -0.5937838 0.214247 0.5156382 -0.3756591 -0.25669286
-0.52145326 -0.3742116 -0.50885546 0.6057303 -0.3934339 0.10485221 0.35178494 -0.57755363
0.49320891 -0.22565548 -0.48648864 -0.4508374 -0.093041345 0.1587201 0.42111623 -0.34742248
-0.064880475 0.087567165 0.08037771 -0.062485382 -0.038240895 -0.07648395 0.11553256 -0.054766923
0.06087494 -0.035721913 0.097739205 0.10307735 0.09622486 0.018606737 0.04877597 0.023506805
-0.026669994 -0.05257401 0.0071945935 -0.076635376 -0.08987668 -0.085349455 0.058197305 -0.009746268
0.112571985 0.07403371 0.053111807 -0.03747432 -0.10009195 0.11500466 0.0024447143 -0.10971551
0.587871 0.22461435 0.19007953 -0.85596657 -0.3108155 -0.09669951 0.13766396 0.1723525
-0.026089821 0.60896945 -0.08056519 0.09433197 -0.32339352 -0.17983918 0.73318297 -0.1621031
0.028723098 0.08562904 0.92113954 -0.25552994 0.08689756 0.119599216 0.09987994 0.21079189
-0.32090235 0.64899683 0.13397762 0.33623505 0.28501064 -0.074213795 -0.2835938 0.59374166
-0.08901258 -0.012996018 -0.11977331 0.021012723 -0.065784276 0.05583188 -0.081155494 -0.06269881
0.0064311028 0.006788656 0.09010455 -0.0013136566 0.046465456 0.079957694 -0.08357698 0.07751277
-0.052453622 0.014318407 0.0261413 0.02369374 0.029151112 0.04550059 -0.08227602 0.031429112
-0.017895773 0.07363206 -0.07054855 0.039543808 0.05335839 -0.051761553 -0.08255084 0.09131689
0.11222008 0.08187668 -0.09636347 0.046249285 -0.10028753 -0.01668723 -0.10299203 0.066693366
0.07665081 0.0799686 -0.057508305 0.11726977 0.08922483 0.016186595 -0.09274556 0.07154882
0.03661424 0.00875701 -0.12228711 -0.07388063 -0.014846459 -0.114295825 0.08827916 -0.024357006
-0.018873945 0.042424113 0.05246395 -0.07742748 0.019144341 -0.05939658 -0.10576825 0.12350875
0.030642197 -0.085110545 -0.069131315 0.035117194 -0.1163127 -0.042874634 0.08264306 -0.076086074
0.10263243 0.041057214 -0.10347648 0.05265352 0.11913769 0.0495276 0.10274571 -0.0016127229
-0.09405221 0.040168658 0.032083154 0.053182095 -0.019699648 -0.062812835 0.036071077 -0.09388283
0.103567004 -0.05184968 -0.1249986 0.07039614 0.0063922554 -0.040023923 -0.045174018 -0.082000986
0.19676372 0.05978284 0.26213372 -0.04513627 -0.034576815 -0.13471822 0.17249498 0.24962053
0.15799947 0.027047398 -0.13718212 -0.073327824 -0.2237955 0.023215003 0.37697145 -0.28170863
0.1664357 -0.14000225 0.08804809 -0.06841299 0.0612825 0.22365111 -0.012596871 0.076517135
-0.08695373 0.22887914 -0.11582269 0.28234082 0.3449357 0.31276152 -0.23742534 -0.06382985
-0.018408418 0.08362214 0.04971437 0.11824444 -0.041034713 -0.058303148 -0.020620987 0.10073264
0.09965317 -0.06432268 0.11720145 0.07487394 0.048134834 -0.013988778 0.08852579 0.06946412
0.07644658 0.03668432 -0.026370183 0.063246146 -0.08859962 0.004238531 -0.08772674 0.019797921
0.10409342 -0.114822656 -0.032590494 -0.10962956 -0.09747049 0.071014464 0.002326429 0.014486715

tgnn._base_tgcn.linear_h.bias f4 [32]
00000000: 1a85 dc3d 756c 493e 327e b6bd 71e8 a33d
00000010: 1caf 053e a72b b13e 5037 21bd 037f d9bd
00000020: 83ce eb3d 3295 c93e 7cd6 e03d e79b d83d
00000030: d339 fe3d c5b0 883e b13c cfbc 0953 01be
00000040: a8ab aabd 7881 e0bc e697 ac3d 77b4 953e
00000050: afa6 a13e 687a 96be eaa6 d63d 55c9 ff3d
00000060: 5585 053e 63b9 d83e 2e04 da3e 707d cb3e
00000070: be73 573e 66e8 a93d 9741 63bb 0782 1d3e
0.107675746 0.1967028 -0.089107886 0.08003319 0.1305508 0.34603617 -0.03935939 -0.10619929
0.11513998 0.3937164 0.1097841 0.10576611 0.12413373 0.26697364 -0.025297495 -0.12629332
-0.08333522 -0.027405486 0.0842741 0.29239246 0.31572482 -0.29390264 0.10481055 0.12489573
0.13039143 0.4232894 0.42581314 0.3974414 0.21040246 0.082962796 -0.0034676546 0.15381633

linear.weight f4 [16, 32]
00000000: 67ad 6b3e 85c8 a9be 1f32 e4bd 541c ca3d
00000010: 3a8d 883e f33e f9be 6c12 223e 801f 54bd
00000020: 430e 8f3e e3e9 0abf 5488 863e ad64 903e
00000030: 7769 c73e 78d9 56be c60f 623d ba55 bc3d
00000040: c0ce 8b3c debc e9bd 5e9f be3e 7daf 53be
00000050: 8566 98be 6b9d e3be dee5 ae3e 85dc e73d
00000060: db0a c3be 16bd e1be 30f3 cebe b3f8 cbbe
00000070: 198f b4be d9f0 723e a8d7 a43d 8f78 d83b
00000080: b4a8 c23d c4e3 ccbe 5c3b 2f3d 4da1 48bc
00000090: 8faa 513e b788 ddbe cfbe 3e3e 8e46 30bd
000000a0: 6775 c93e 036b dfbe 8a3f c83e a71e 213e
000000b0: 90ed 983e cafa 63be 2d73 e6bd b594 f03d
000000c0: 9c5a 153d 4839 62bd a33b c23e 2a17 89be
000000d0: 7ef7 c0be 3961 dbbe b7db 1d3e d2d0 d43e
000000e0: ed36 6abe ac48 efbe 57dd a7be ba3b d6be
000000f0: f922 01bf 52ab 783e 4962 063e 2996 623e
00000100: 6792 c53e 4c4c c2be 30ae ecbd 376c 6d3d
00000110: 8128 2c3e ec02 abbe 8a6d e63e b3f8 d6bd
00000120: 4994 323e 7815 e8be 24ec 283e fb6e af3e
00000130: 4ae0 4a3e c3bf 8bbe aeed 193d a694 6f3d
00000140: 46b9 0ebe d608 15be d4a5 f63d 3e47 e0be
00000150: a066 e3be 67b0 08bf c50e af3e 9fa4 723e
00000160: cdbb 30bf 37a5 a0be e2e0 bbbe d66d 02bf
00000170: a53f a5be 0594 cd3e 4bea c73a c2c8 a93d
00000180: ad48 8a3e 2faa 11bf 605b 013c 81fd 253e
00000190: 3279 8d3e e157 5fbe e228 123e 3792 333d
000001a0: 48f4 4a3e 7237 0ebf 8478 9f3e d52c 383e
000001b0: 91a3 8a3e 5fee b3be 791e 3e3d e6dc 0fbe
000001c0: e924 343e 2a0c fd3d 1aca 703e d232 bebe
000001d0: 7649 b5be b4b4 38bf 7aee df3e 28f2 d73e
000001e0: 534a 1cbf 7ac4 cabe 0d80 03bf d2ae 03bf
000001f0: 1396 efbe d018 f33d 628b 36bd 8271 7f3e
00000200: ea4f 663e 4485 14bf c01f 6cbd 3bbc 8bbe
00000210: 52e7 5b3e c436 c3be a19d 9e3e 58e9 b23d
00000220: d9ed c63e a49f f0be 6b39 dd3e f95b 853e
00000230: 7ed3 893e b3ee c0bd 095c 923b 754e c2bd
00000240: 01f5 323e 0abe d63d da9f 853e 52bd 77be
00000250: f56b 9fbe 8627 28bf 472b e13d a044 d23e
00000260: 700f 20bf d11d 0bbf 14ad e6be ed0b e3be
00000270: 90ff 0bbf c7de cf3d 1013 da3b b692 ba3e
00000280: 98ba e03e f3cb 27bf 25c4 2a3e fd05 4fbd
00000290: 78ce 6e3e 7d59 1abf ee36 d13e dfe6 18bd
000002a0: f2c1 1e3e cbd6 f3be 5fdf 083e b5cc 8d3e
000002b0: 2279 de3e 2a7f 45be 5899 1ebc ab83 df3d
000002c0: d9c9 bfbd 10c1 09be 7f63 063e 1a0f 6abe
000002d0: 0571 dabe c669 1dbf fefb e33e 46ab ed3d
000002e0: 5f35 13bf 80be f7be fbe0 c6be 93e1 b9be
000002f0: 94bf 4abf 3ebd a63e 819d 8f3d b521 8b3e
00000300: 6237 5d3e ea43 0dbf 8220 fc3d 079a 9cbe
00000310: 0f1e c73e 3b0b bcbe b701 9e3e c0a3 4a3d
00000320: 3213 d23e 2cae c7be 5035 523e 3ed1 bc3e
00000330: b0b9 9f3e 5ee3 cbbe b895 cfbd 4419 2abd
00000340: 2aea d4bd 722b a63d 74e4 913e e45d a6be
00000350: 84c1 42be d7d0 25bf 4b81 123e d0fe eb3d
00000360: 9219 65bf bd16 b9be 70e2 04bf 97bf efbe
00000370: 1dde 3abf 8182 463e 92a3 193d 15ea e43e
00000380: 022c ae3e a4a4 5fbf 30ba cfbc 546f ddbe
00000390: 12a4 553e 90a3 eebe 9ff2 c93e a21f 7abd
000003a0: 327b ae3e 5b6f cabe c616 d03e 6c5b 223e
000003b0: fe02 9a3e 3581 eabe 7554 293c 61b4 b7bd
000003c0: 587e 8dbc 3805 b2bc 348f 273e 5465 abbe
000003d0: 4fcf 76be b043 3abf a028 b63e d2c9 c03e
000003e0: 6057 25bf 7bbc c3be 3de4 a2be 2b7e 83be
000003f0: 777e 44bf cb51 7e3d fd65 af3c 8934 623e
0.23015366 -0.33160797 -0.11142372 0.098686844 0.26670247 -0.4868084 0.1582734 -0.051787853
0.27940568 -0.5426313 0.26275885 0.2820181 0.3894765 -0.20981395 0.055190824 0.091960385
0.01706636 -0.11412977 0.37230963 -0.20672412 -0.29765716 -0.44456038 0.3415975 0.11321358
-0.3809422 -0.44089574 -0.40419912 -0.3983818 -0.35265425 0.23724689 0.08048946 0.0066061686
0.09504834 -0.4001752 0.04278122 -0.012245488 0.20475219 -0.43268368 0.18627475 -0.043036036
0.39347383 -0.4363633 0.39110976 0.15734349 0.29868746 -0.22263637 -0.11252437 0.117471136
0.036463365 -0.05523041 0.37936124 -0.26775485 -0.37688822 -0.42847613 0.15415846 0.41565567
-0.22872515 -0.46735132 -0.32786056 -0.41842443 -0.5044399 0.24284104 0.1312343 0.22127594
0.3858826 -0.37948835 -0.11556661 0.05796453 0.16812326 -0.33400667 0.45005447 -0.10496654
0.17439379 -0.4532888 0.1649633 0.3426436 0.19812122 -0.2729474 0.037580185 0.05849137
-0.13937864 -0.14554152 0.12043348 -0.43804353 -0.44414234 -0.5339417 0.34190956 0.2369561
-0.6903656 -0.3137605 -0.3669501 -0.50948846 -0.3227512 0.40151992 0.001525232 0.08290245
0.27008572 -0.56900305 0.007895321 0.16209985 0.27631527 -0.21810867 0.14273408 0.043840613
0.19819748 -0.5555335 0.31146634 0.17985852 0.27077916 -0.351428 0.04641578 -0.1404911
0.17592205 0.12355836 0.23514596 -0.37148148 -0.3540761 -0.7215073 0.4373663 0.42176938
-0.6105091 -0.39603025 -0.51367265 -0.5143863 -0.46794185 0.11869967 -0.04456652 0.24945644
0.22491422 -0.5801585 -0.057647467 -0.27292046 0.2147496 -0.3812772 0.30979636 0.08735913
0.38853338 -0.46996796 0.4320787 0.26046732 0.26919168 -0.09420528 0.004466538 -0.09487621
0.17476274 0.10485466 0.2609852 -0.24193314 -0.31137052 -0.6568531 0.109945826 0.41067982
-0.62523556 -0.5434237 -0.45053923 -0.44345036 -0.5468683 0.10149913 0.0066551045 0.36440057
0.4389236 -0.65545577 0.16676386 -0.05054282 0.23320949 -0.602928 0.4086222 -0.03732955
0.15503672 -0.47624812 0.1336646 0.27695242 0.43451792 -0.1928679 -0.009680115 0.109137855
-0.09364671 -0.13452554 0.13123892 -0.22857323 -0.42664352 -0.6148952 0.44528192 0.116049334
-0.5750331 -0.48387527 -0.3884352 -0.36304912 -0.79198575 0.32566255 0.07012463 0.27174154
0.21603158 -0.55181754 0.12310888 -0.30586264 0.3889012 -0.36727318 0.30860683 0.04947257
0.4103027 -0.3900007 0.2052815 0.3687839 0.31196356 -0.39821905 -0.101359785 -0.041528
-0.10396226 0.08113755 0.28494608 -0.32493508 -0.19019133 -0.6477179 0.14307134 0.11523211
-0.8949214 -0.3615016 -0.51908016 -0.4682586 -0.7299517 0.19385721 0.03750951 0.4470984
0.3401795 -0.87360597 -0.025357336 -0.43249 0.20863369 -0.46609163 0.39442918 -0.061065324
0.34078366 -0.39538082 0.40642375 0.15855187 0.30080408 -0.45801702 0.0103350775 -0.089699514
-0.01727216 -0.021731004 0.16363221 -0.33475745 -0.2410252 -0.7275953 0.3557787 0.37653977
-0.6458645 -0.38229737 -0.31814757 -0.25682196 -0.7675547 0.062089723 0.021410936 0.22090353

linear.bias f4 [16]
00000000: c343 343d 2cbe c1bd 8110 6e3c 3643 803d
00000010: 0a3a a3bd a5c0 e8bd bdde 0cbe 2289 9ebd
00000020: d9f5 13be c454 bfbc 7a2f edbc 632d 6cbc
00000030: 2a6b c2bd 9a0e 2c3d 3578 8f3d d817 79bd
0.044009935 -0.094601005 0.014530302 0.062628195 -0.079700544 -0.11364869 -0.13756843 -0.07741
-0.14449252 -0.02335585 -0.028953303 -0.014415118 -0.09493096 0.042006113 0.070053495 -0.060813755

linear2.weight f4 [6, 21]
00000000: 0fe6 023f ed8e 093f 8fd9 803e b9a8 493d
00000010: 3161 75be 8203 b03e 22d8 c1be 1c3b a2bd
00000020: 5e45 87bd 4747 b83e 1cf6 8cbe 1dbb 49be
00000030: eddd b0bc 11b9 0a3e 8a0f 893d 65cc 53be
00000040: ccc7 d8bb a672 a13d f144 a6bc 9e23 c8bd
00000050: d7d4 2a3c 0eb4 c3bc 3ed8 ce3d 0b0e 99bd
00000060: 3f0f a73e f07b bd3d c9be 1c3e 5923 3f3e
00000070: b15e 123e 4f0b 903e 626c c4bd ef59 1a3e
00000080: c17e 503d 7c7b 873e a499 d0bd f492 093c
00000090: 380e 0dbe ee4f dc3d 9e96 68be a185 40be
000000a0: f3c4 083d 2c51 2e3e 4507 95bd edcc 37bc
000000b0: f287 08bd d588 923d 9a0c d3bd 5ed0 80be
000000c0: 634c 66b9 e269 09be 234f 7ebc 0c29 643c
000000d0: 2b59 70be 3705 01be 50d2 ee3d 9967 c4be
000000e0: 04aa 46bc 52c4 003e 549e 5d3e 1b07 c0bd
000000f0: 023e 64bc d8b1 23bd 044e b73c 85f8 2bbe
00000100: 3206 64bd c808 c6be aace 9bbe a69e 923d
00000110: 28e1 aebd cf53 8a3e ffca 01be 9148 453e
00000120: 0328 e93d ed89 4d3e fb2e d43d fb23 383e
00000130: cf67 59bd 8aba 163e b532 b03e e564 183e
00000140: 3933 b93d 55de 1f3e f3c2 0e3e 45e2 793e
00000150: 863b 01be 27cf d8bd 9cd5 ac3d b482 9c3e
00000160: 7b58 463e 681f f1bc 5833 f63d 7a02 1f3e
00000170: 5ce5 71bc 3053 0cbd 38f2 413d fedb 5bbe
00000180: 9ff5 18be f20d 993c 50e6 1d3e f31c aaba
00000190: 8192 9cbe 2708 423e c34d 503e c63d 653e
000001a0: 86af 883c c57e 10be 608d 99be 0ba4 7ebe
000001b0: 2f92 96bd 4eea 163a 8b31 043d ce67 373e
000001c0: 150c b6bd 5ed7 58bd e2e4 0a3e ede7 313c
000001d0: d49f 91bd 5beb 3d3e a55f 70be c0fb 4b3e
000001e0: 5669 603e 013a 763e 9025 323e a39d c5bd
000001f0: 5dd7 983e b48c 893e
0.5113229 0.5373371 0.25165984 0.049233172 -0.23962857 0.34377676 -0.3786021 -0.079214305
-0.066050276 0.3599188 -0.27531517 -0.19700284 -0.021590197 0.1354716 0.06692417 -0.20683439
-0.0066156145 0.078831956 -0.020296546 -0.097724184 0.010426722 -0.023889568 0.10099839 -0.074733816
0.3262882 0.09252155 0.15307154 0.18665828 0.14293934 0.28133628 -0.09590985 0.1507337
0.050902132 0.264614 -0.101855546 0.008396853 -0.13774955 0.10757433 -0.22713706 -0.18800975
0.03339095 0.17023152 -0.07276777 -0.011218292 -0.033332773 0.07155005 -0.10305138 -0.25158972
-0.00021962966 -0.13419297 -0.015521797 0.013925802 -0.23471515 -0.12599646 0.11661208 -0.3836029
-0.012125496 0.1257489 0.21642429 -0.09376355 -0.013930799 -0.039964527 0.022376068 -0.16794021
-0.05566997 -0.38678575 -0.3043111 0.07159166 -0.08539039 0.27017066 -0.12675093 0.19265963
0.11384585 0.20072146 0.10360523 0.17982475 -0.053077515 0.14719597 0.34413686 0.14882238
0.09042973 0.15612157 0.13941555 0.24402721 -0.12620363 -0.10586386 0.0843918 0.3056847
0.1936969 -0.029433921 0.12021512 0.15528288 -0.014764156 -0.03425902 0.04735014 -0.21470639
-0.14937447 0.018683407 0.15419888 -0.0012978598 -0.30580524 0.18948422 0.20342164 0.22386846
0.016685259 -0.14110859 -0.29990673 -0.24867265 -0.07352101 0.000575696 0.03227381 0.17910692
-0.08889023 -0.052939765 0.13563874 0.010858518 -0.07110563 0.18546812 -0.23473985 0.19920254
0.21915182 0.24045564 0.17397141 -0.096492074 0.2985181 0.2686516

linear2.bias f4 [6]
00000000: d8ef 36bd 392e c03d 98f3 df3d a31c 4fbd
00000010: 1db8 c83e e3b1 07bf
-0.044662327 0.09383816 0.10935134 -0.05056442 0.39202967 -0.5300581
