A3TGCN2_Checkpoints/Epoch_2.pth (torch, 35255 bytes, 17 tensors)

tgnn._attention f4 [16]
000000 6b 0f 45 3f f4 ce 3c 3f 7b 58 24 3f 8c d5 b1 3d
       0.7697665 0.73753285 0.6419751 0.08683309
000010 aa 32 28 3f 67 f6 66 3e df 82 20 3e 11 a3 75 3f
       0.6570231 0.22554933 0.15674923 0.95951945
000020 83 18 3b 3f 1c 7d 0f 3f 3e 46 25 3f 1b 1c 24 3f
       0.73084277 0.56050277 0.64560306 0.64105386
000030 16 b6 9f 3e 74 19 06 3f 90 54 19 3f be da 73 3f
       0.31193608 0.5238259 0.5989466 0.9525565

tgnn._base_tgcn.conv_z.bias f4 [32]
000000 b3 e0 9f 3e 5e 7b 9e 3e e4 63 89 3e b2 94 23 3e
       0.3122612 0.30953497 0.26834023 0.15974692
000010 41 4e 98 be 61 df 42 be 97 f5 82 be ac 70 b0 be
       -0.29747203 -0.19030525 -0.25577995 -0.34460962
000020 ca d6 c1 3e a2 11 b3 3e c3 cc bd be 9c 96 af be
       0.37859184 0.3497439 -0.37070283 -0.34294593
000030 62 e8 85 3e 10 aa ed 3d 68 70 9d 3e ea a2 9a 3e
       0.26153857 0.116047025 0.30749822 0.3020242
000040 dc c0 ad be ef a5 bc 3e 46 b8 8e 3e 13 8f b8 3e
       -0.33936203 0.36845347 0.27874964 0.36046657
000050 02 8c ad 3e 20 ff 9f be 4a 34 af be 2b 75 99 3e
       0.3389588 -0.31249332 -0.3421958 0.29972205
000060 96 33 95 be b4 5d 96 be 49 57 9a be d0 b6 95 3e
       -0.2914092 -0.29368365 -0.30144718 0.29241037
000070 ab 3f 7a 3e 9d d5 48 be 14 f0 4e 3e ef 0a 9f 3e
       0.2443835 -0.19612737 0.2020877 0.3106303

tgnn._base_tgcn.conv_z.lin.weight f4 [32, 3]
000000 eb 59 2d 3e 68 bf 77 be 1b 1a 90 bf 43 92 0a 3f
       0.16928832 -0.2419411 -1.1257967 0.5412943
000010 ac 94 bf be b9 8f 30 bf 46 b3 2a be c4 48 bd 3e
       -0.37418115 -0.68969303 -0.1666995 0.36969578
000020 a7 24 e7 be ae 5c 04 bf 5e c8 30 3f 7a a5 8c 3f
       -0.4514515 -0.5170392 0.69055736 1.0988
000030 8c 53 7b 3e be 79 e3 be 67 59 34 3e 54 7b d7 be
       0.2454359 -0.4442882 0.1761223 -0.4208628
000040 6e 14 d9 3e 9d 81 89 3f 05 6d 12 bf 6d 68 b3 bd
       0.423984 1.074268 -0.571976 -0.08760152
000050 2a be 0a 3f 16 55 ca be 8a f4 1c 3e 02 c0 3b 3f
       0.5419642 -0.3951804 0.15327659 0.73339856
000060 34 dd 03 3f 6b 3f c8 be df 42 60 bf 6d 3c 20 3f
       0.51509404 -0.39110884 -0.8760204 0.625922
000070 a3 39 38 bf d8 3c 5b bf 41 0d 70 be de 8f b9 3e
       -0.71962947 -0.85639715 -0.23442556 0.36242574
000080 91 fc 18 3f f0 c7 27 bf a0 e2 d5 3e b5 ab 0a 3f
       0.59760386 -0.65539455 0.41774464 0.54168254
000090 bb 97 24 be 91 a8 d6 3e 27 9d d3 be b6 69 08 bf
       -0.16073506 0.4192548 -0.41330835 -0.532863
0000a0 86 e6 66 3e 24 47 52 3f 7e 63 18 3f e9 27 c2 be
       0.22548875 0.821398 0.59526813 -0.37921074
0000b0 6f 4b 44 bf d1 70 ae 3e 3a 03 58 be 4a ea 9d bf
       -0.766776 0.34070447 -0.21094981 -1.2337124
0000c0 9c 85 e4 be fd e9 a2 3e 63 e7 18 3f ca 1c eb 3e
       -0.44633186 0.31819144 0.5972807 0.45920402
0000d0 da dc 0f bf 4d bc 9f bf c4 2d 00 3d ca eb 91 3e
       -0.5619637 -1.247934 0.031293646 0.28500205
0000e0 8f ef 27 be bc af 6e 3e 42 22 c4 be e0 c2 99 bf
       -0.16399978 0.23309225 -0.38307387 -1.2012596
0000f0 ab dc 23 3f 2c 8a af be 44 4b 29 bf 6f b2 d7 be
       0.6400859 -0.34285104 -0.6613047 -0.42128322
000100 a8 e3 7b 3e 40 79 c9 3e a0 d5 10 bf 6e 3c 2e 3f
       0.24598563 0.3935032 -0.56575966 0.6806096
000110 6c b7 88 3f 7a e7 e9 3e b7 c2 34 be 7f 06 90 bf
       1.0680976 0.45684415 -0.17652403 -1.1251982
000120 ac 4d 44 be 2f 6b d3 bc 67 0b 6d 3f 70 50 6d be
       -0.19170254 -0.025807945 0.92595524 -0.23175216
000130 d5 34 fb 39 21 28 65 3f 98 ec a9 bc f0 17 b1 bc
       0.00047913814 0.89514357 -0.0207427 -0.02161786
000140 85 a7 b7 3e 69 18 07 3d 21 12 28 bd af 27 86 be
       0.35869995 0.032982264 -0.041032914 -0.2620215
000150 7e 2b f2 3e fe c0 19 bc 08 ba 31 bf cc 77 ca 3e
       0.47298807 -0.009384392 -0.69424486 0.39544523
000160 7d 71 2b 3f b0 0f f2 3e 8c 56 6e 3e c7 1b 87 bf
       0.66970044 0.47277594 0.23275203 -1.0555352
000170 87 6f cb be 02 f1 ac 3e 14 71 c9 be 80 4d 70 bf
       -0.39733526 0.33777624 -0.39344084 -0.93868256

tgnn._base_tgcn.linear_z.weight f4 [32, 64]
000000 14 d4 c5 be 2b 9c c6 be 23 9f 11 3e 78 5b 6b 3f
       -0.38638365 -0.38791022 0.14220862 0.91936445
000010 df 78 57 be 7f cb 41 3f 7a ce 24 3e 2a c9 f9 3d
       -0.21042202 0.75701135 0.1609439 0.12196572
000020 f3 54 e5 be 16 61 3b bf 40 20 aa 3e f9 3c b0 3e
       -0.44791374 -0.73195016 0.3322773 0.34421518
000030 b8 ec cb 3c 78 05 88 3e f4 47 f4 be 22 c7 00 bf
       0.02489315 0.26566672 -0.47711146 -0.5030385
000040 49 f1 d0 3e 1b fc 40 bf 42 b3 28 bd 3f 28 3a bf
       0.40809086 -0.7538468 -0.04118658 -0.7271766
000050 d2 5a 91 be 54 12 a2 3e f2 20 55 3f cd d8 7c be
       -0.28389603 0.31654608 0.83253396 -0.24692078
000060 c2 cd 65 3e de a7 f7 3d ef bc 4f bc fd 70 aa bd
       0.22441772 0.12092565 -0.012679323 -0.08322332
000070 6a 5d 52 be 75 79 38 3e 3a 1d 0e bf 12 3d 0d bf
       -0.20543447 0.18015082 -0.55513346 -0.5517131
000080 a8 db a5 3c 04 c7 64 3d 30 64 37 3d a4 89 10 3d
       0.020246342 0.05585386 0.04477328 0.035287514
000090 88 8e bd 3c 38 91 b7 bc 7c e0 ea 3d 58 1b 94 bc
       0.023139253 -0.022408113 0.11468598 -0.018079445
0000a0 8c 34 60 bd f8 df 9d 3d 3c 5e 3d bd ce 22 ec 3d
       -0.054737613 0.07708734 -0.046232447 0.11530076
0000b0 f0 90 e2 3d 9e a1 ab bd 90 4a d2 bd 20 60 27 bd
       0.11062801 -0.083804354 -0.10268128 -0.040863156
0000c0 3e 22 a5 3d bc 91 d2 bd 02 f5 8a 3d 28 20 fe bd
       0.08063172 -0.10281703 0.06785013 -0.12408477
0000d0 10 15 c3 bc 1c ae 06 bd 50 2e 59 3c 7c c9 ce 3d
       -0.023813754 -0.032880887 0.013255671 0.10097024
0000e0 88 0a b4 bd 80 2f 07 3b 60 11 c8 3b 70 c1 56 bd
       -0.08791071 0.0020627677 0.006105587 -0.05243057
0000f0 00 29 0d 3c ca 87 b8 3d e4 a6 9c bd 0c 02 a2 3d
       0.008615732 0.09010275 -0.07649019 0.07910547
000100 7b 2c 5b be 81 34 a4 be ef 9b 8c be ce 6e be be
       -0.21403687 -0.32071307 -0.27462718 -0.37193912
000110 6e 75 d9 3e fb 1d 23 3e bb f9 79 3e d0 9e cd 3e
       0.42472404 0.15929405 0.24411671 0.40160227
000120 13 7d 88 be 8b 43 b7 be 88 0c a2 3e 6a 58 e2 3e
       -0.26657924 -0.3579372 0.31650186 0.4420808
000130 a7 26 c6 be f8 ab e1 be 44 32 ae be 17 39 3b be
       -0.38701364 -0.44076514 -0.34022725 -0.18283497
000140 35 cb 53 3e 59 00 df be d5 da 8d be 0a fb bc be
       0.20682986 -0.43554953 -0.27706018 -0.36910278
000150 78 7e 83 be 62 7f bf 3e 61 68 99 3e 56 8c 24 be
       -0.25682425 0.37401873 0.29962447 -0.16069159
000160 52 19 40 3e 5c da ba 3e b0 89 cf 3e f7 d0 86 be
       0.18759659 0.3649472 0.40534735 -0.26331303
000170 dd 82 b7 bd ba a7 bd 3e 90 56 dc be 7f af 92 be
       -0.08960507 0.37042028 -0.43034792 -0.28649518
000180 d2 cf bf 3d 4c da 5c 3d c2 59 97 bd 42 ab 8e bd
       0.093658105 0.05391912 -0.07390167 -0.069662586
000190 90 40 e2 3c f8 e8 10 3d c6 97 87 3d 0e 66 bb bd
       0.027618676 0.035378426 0.06620745 -0.09150325
0001a0 ee a7 f6 3d 20 47 c9 bc 5c 9b 33 3d 64 6d 5b bd
       0.12043749 -0.024570048 0.043849334 -0.05357112
0001b0 38 35 43 3d 82 a0 da 3d 72 4d b8 bd 80 27 39 3c
       0.047658175 0.10675146 -0.089991465 0.011300921
0001c0 90 f5 7a 3c 30 ae 93 bc d4 6a 0c bd 50 30 c6 3c
       0.015317336 -0.018027395 -0.034281567 0.02419296
0001d0 d0 74 bd 3c 78 9f 51 bd 5c 65 35 3d da 7b d5 3d
       0.02312699 -0.051177472 0.044286117 0.104240134
0001e0 38 11 fa 3c 36 a7 82 bd e8 b3 99 bc bc 99 03 bd
       0.030525789 -0.06379549 -0.018762544 -0.032129034
0001f0 b2 8e ff 3d 7a f1 84 bd 2e ab 99 3d 46 9f fe bd
       0.12478389 -0.064913705 0.07503353 -0.12432723
000200 58 e1 37 3d 28 b3 f1 bd b0 87 59 bc 9a 9d c1 bd
       0.04489264 -0.118017495 -0.013276979 -0.09453888
000210 b8 17 d1 bd e0 59 b7 3c 76 cc be 3d c0 0a ba 3d
       -0.10209602 0.022381723 0.093163416 0.09084082
000220 04 8f 59 bd 34 bb 14 bd 68 8b ab bc 80 c7 5c bb
       -0.053114906 -0.036311343 -0.020940498 -0.0033688247
000230 58 8b a7 bd 80 f1 8d bb 8a f4 98 3d 4a 9a d6 3d
       -0.081808746 -0.0043317676 0.07468517 0.10478647
000240 34 cf c4 3d 50 e5 78 bd 64 3b 96 3d 08 14 88 3d
       0.09609833 -0.060765564 0.073355466 0.06644446
000250 00 35 dc 3d 3c be 06 bd 72 58 c3 bd 70 a1 6c 3c
       0.107522964 -0.032896265 -0.09538354 0.014442787
000260 36 47 85 3d 88 a4 e7 bc f0 61 1e 3c 58 24 93 bc
       0.06507723 -0.028276697 0.009666905 -0.017961666
000270 8a ba d9 bd 5c 10 17 3d d8 d9 02 3d 00 9d 2a 3b
       -0.10631283 0.036880836 0.031946033 0.002603352
000280 9a c3 d4 bd 14 e1 4c 3d 40 d3 9f 3b b0 ab e1 bd
       -0.103888705 0.05001934 0.004877478 -0.11019075
000290 b2 e0 dd bd 60 b8 60 3c 10 65 72 3c f0 da 23 3c
       -0.10833873 0.013715833 0.014794603 0.010000929
0002a0 7a 21 82 3d 00 24 1b ba fa f7 f3 3d 0c c8 11 bd
       0.063540414 -0.0005918145 0.11912532 -0.03559117
0002b0 f0 36 91 bd 46 66 b3 bd 80 5b 7a bd d0 85 f6 3d
       -0.070905566 -0.087597415 -0.061122417 0.120372415
0002c0 46 ac 80 3d f4 11 3c bd f8 aa ac bd c0 33 09 bc
       0.062828586 -0.04591556 -0.08431047 -0.008374155
0002d0 c4 3e b2 3d a0 fd f7 3d 26 4b e9 bd 30 9b 6f bd
       0.08703378 0.12108922 -0.113912866 -0.058497608
0002e0 52 3d d4 bd 18 a8 bc bc c8 3d 93 bc e8 c6 e6 3d
       -0.103632584 -0.023029372 -0.017973796 0.11268407
0002f0 1c 1a f6 3d dc 2b ec 3d cc 32 4c bd 20 c0 5e bd
       0.12016699 0.11531803 -0.04985313 -0.054382443
000300 e9 23 ac be e8 a6 83 be 2e 3d a4 be fd 40 b3 be
       -0.33621147 -0.25713277 -0.32077926 -0.3501052
000310 91 3d 53 3e e9 fd f1 3d 47 f0 19 3e 79 b9 01 3e
       0.20628954 0.11816008 0.15033065 0.12668408
000320 9f 32 77 be f8 8a 4f be dd 10 82 3e 21 ce 0a 3e
       -0.24140404 -0.20267856 0.2540349 0.13555194
000330 c7 c6 d6 bd 70 84 84 be a0 fd 05 be 6b de 88 be
       -0.104871325 -0.25882292 -0.13085032 -0.2673219
000340 7d d5 0b 3e 47 54 0b be 9c 3a 9e be fc 0e 2c be
       0.13655658 -0.13606368 -0.3090409 -0.16802591
000350 c9 9f 96 be e9 9d 92 3e 01 48 c0 3e 1d e5 76 bd
       -0.2941878 0.286361 0.37554935 -0.060277093
000360 31 17 64 3e 53 d0 1a 3e 3b e8 2f 3e a2 77 a9 be
       0.22274472 0.15118532 0.17178433 -0.33099085
000370 ba 89 9f bd ba 61 9a 3e 18 46 f7 be 78 79 9d be
       -0.07789941 0.30152684 -0.48295665 -0.30756736
000380 48 50 60 3d ba e9 b0 bd 48 fa b4 bd 60 d5 4e 3d
       0.054764062 -0.0863833 -0.088368 0.05049646
000390 48 db 3c bd 20 e6 40 3d aa 9e c6 3d 10 8f 38 bd
       -0.04610756 0.047094464 0.096982315 -0.04505831
0003a0 f0 89 99 bc 0e f6 c8 bd 1c 53 c6 bd 20 dd 88 3c
       -0.018742532 -0.09812556 -0.096838206 0.016707003
0003b0 08 a9 c4 3c 8e db cb bd 42 3c d3 bd 3c be 84 3d
       0.024006382 -0.09953986 -0.10314228 0.06481597
0003c0 60 6c 9f bb 0a 32 d9 3d 5a 11 da 3d c8 80 1e 3d
       -0.004865214 0.10605247 0.10647841 0.038697034
0003d0 c0 42 7f bc 2c 94 43 3d 24 cc b2 3d d2 2d ec 3d
       -0.015579879 0.04774873 0.08730343 0.11532177
0003e0 44 d3 c0 3d 9c 27 d7 bd 00 e2 85 bd da 41 f4 bd
       0.09415296 -0.10505602 -0.06537247 -0.11926623
0003f0 a4 a6 e0 bd e0 a5 60 3c 8c 85 f5 3d 98 80 0a 3d
       -0.10969284 0.013711423 0.11988363 0.033814043

tgnn._base_tgcn.linear_z.bias f4 [32]
000000 9e 92 3f be 86 48 bc be fa 09 f2 3d d3 5f 47 be
       -0.18708274 -0.3677408 0.11818309 -0.19470148
000010 5f 95 82 be cf dc ca be 75 c3 2b be a9 1d 7d 3c
       -0.25504586 -0.3962159 -0.1677378 0.015448966
000020 32 16 68 be da 9b a4 be 43 07 5e be c1 c2 4e be
       -0.22664717 -0.32150155 -0.21682458 -0.2019148
000030 70 42 8b be 58 95 da be c0 11 c0 bb 8c 3e 8b 3d
       -0.27199125 -0.42692065 -0.005861491 0.06799039
000040 1c 2d 79 3d 78 50 e3 bd 39 0e 53 be 39 80 d0 be
       0.060834035 -0.110993326 -0.20610894 -0.40722826
000050 c0 cb 8e be 91 01 18 be 33 64 e4 bd 32 64 49 be
       -0.27889824 -0.14844348 -0.11151924 -0.19667128
000060 11 83 7f be dc 88 d8 be 50 d8 75 be a4 15 c7 be
       -0.24952342 -0.42291915 -0.24008298 -0.38883698
000070 3e a5 82 be 85 76 68 be 78 3c f5 3d 3b 82 7a be
       -0.25516695 -0.22701462 0.11974424 -0.24463741

tgnn._base_tgcn.conv_r.bias f4 [32]
000000 00 00 00 00 00 00 00 00 00 00 00 00 00 00 00 00
       0.0 0.0 0.0 0.0
000010 00 00 00 00 00 00 00 00 00 00 00 00 00 00 00 00
       0.0 0.0 0.0 0.0
000020 00 00 00 00 00 00 00 00 00 00 00 00 00 00 00 00
       0.0 0.0 0.0 0.0
000030 00 00 00 00 00 00 00 00 00 00 00 00 00 00 00 00
       0.0 0.0 0.0 0.0
000040 00 00 00 00 00 00 00 00 00 00 00 00 00 00 00 00
       0.0 0.0 0.0 0.0
000050 00 00 00 00 00 00 00 00 00 00 00 00 00 00 00 00
       0.0 0.0 0.0 0.0
000060 00 00 00 00 00 00 00 00 00 00 00 00 00 00 00 00
       0.0 0.0 0.0 0.0
000070 00 00 00 00 00 00 00 00 00 00 00 00 00 00 00 00
       0.0 0.0 0.0 0.0

tgnn._base_tgcn.conv_r.lin.weight f4 [32, 3]
000000 1e bb 2d 3e 40 d1 19 bd 68 91 6d 3d 5b 84 9d 3e
       0.16965911 -0.037553072 0.058 0.30765042
000010 66 87 95 be c0 4b a5 bc 28 c7 0f be 9a 12 90 be
       -0.29204863 -0.020177722 -0.14040816 -0.28139192
000020 64 74 c0 3d e0 df 34 3c 5c 84 c5 3d 07 4d a8 3e
       0.093972 0.011039704 0.09644386 0.32871267
000030 a7 65 90 be a0 18 1d bd 64 0a e9 bd 9b 2c 80 3e
       -0.28202555 -0.038353562 -0.11378935 0.2503403
000040 34 55 8f bd 84 4f b9 be a0 6e af 3c a2 1e 07 3e
       -0.06998673 -0.36193478 0.021415055 0.13195279
000050 be 3e 25 3e 54 d1 ce bd f2 a1 17 3e a8 5e 8c 3d
       0.16137215 -0.1009852 0.14807871 0.06853992
000060 d6 33 4e 3e 72 bd 76 3e 1a 6a 3b be a0 3f 90 be
       0.20136961 0.24095705 -0.18302193 -0.28173542
000070 9c 42 bb 3d 3a 99 6e 3e 22 04 13 3e cc 30 3d be
       0.09143564 0.23300639 0.14357045 -0.18475646
000080 49 0b 9c be 6c bb bb 3d 8f 6c 8f 3e 77 1b 3e be
       -0.3047736 0.09166607 0.2801251 -0.18565165
000090 02 52 73 be bf 7d a0 3e 9d c9 c0 be 8f cd 9d 3e
       -0.23761752 0.31345937 -0.3765382 0.3082089
0000a0 60 17 08 bc 5c cb fa 3d cc 3e 17 be d0 fe 81 be
       -0.008306354 0.12245819 -0.14770049 -0.2538972
0000b0 53 d9 c9 3e 86 65 2a 3e 74 34 a7 bd e2 94 77 be
       0.39423618 0.1664029 -0.081643015 -0.24177888
0000c0 5d 26 9a 3e c1 8d 35 be 5e 6c 7b 3e c6 ee 29 3e
       0.30107394 -0.17729856 0.24553058 0.16594991
0000d0 b4 d3 8a be fa 16 2e 3e e0 86 5f bc 79 e0 8c 3e
       -0.27114642 0.17000952 -0.013642997 0.2751501
0000e0 9d e2 34 be 98 0f be be 50 78 c9 be 36 b8 73 be
       -0.17664571 -0.37121272 -0.39349604 -0.2380074
0000f0 77 66 90 3e b2 96 7e be 28 c4 c8 bd a0 f8 0b bc
       0.28203174 -0.24862173 -0.09803039 -0.008543164
000100 80 a3 1d bb 80 a1 a0 bd 44 de 78 be 74 ab 90 bd
       -0.0024053752 -0.07843304 -0.24303538 -0.07063952
000110 1e 1f 9f be 0f 98 b5 be fe e6 77 3e e0 84 59 be
       -0.31078428 -0.35467574 0.2420921 -0.21242094
000120 ae a8 77 3e 47 90 47 be ba 2c 3d 3e 64 0f 96 bd
       0.2418544 -0.19488631 0.18474093 -0.07327154
000130 30 80 1f be b6 74 3d 3e 2e 64 1e 3e 1c 08 bd 3d
       -0.15576243 0.18501553 0.15467903 0.09230062
000140 80 b5 54 3b c8 79 84 bd 35 fa cd be 58 e8 95 bd
       0.0032456815 -0.064685404 -0.40229955 -0.07319707
000150 6d 45 b1 3e 91 70 96 3e 94 ee bf 3d f2 53 4b 3e
       0.3462328 0.29382756 0.09371677 0.19856241
000160 50 f6 4f bd 5e 6d 83 be 79 b0 36 be 92 cd 30 3e
       -0.05077201 -0.25669378 -0.17840756 0.17265919
000170 09 9f cd 3e 96 3f 14 3e 70 25 78 bd d6 93 b6 be
       0.40160397 0.14477381 -0.06058258 -0.35659665

tgnn._base_tgcn.linear_r.weight f4 [32, 64]
000000 f8 0b 97 bd 98 e4 ea 3c e8 7f 03 bd 2e 96 fe bd
       -0.0737533 0.028673455 -0.032104403 -0.12430988
000010 e8 bb c3 3c 20 27 47 3d 52 63 cb 3d ac 55 65 bd
       0.023893312 0.048621297 0.09931053 -0.055989906
000020 f2 23 ad 3d a2 36 e1 bd 40 a9 dd 3c 98 08 ab 3c
       0.08454122 -0.109967485 0.027058244 0.020878121
000030 12 60 bc bd e4 ed 76 3d 46 0d e2 3d 34 5a 80 bd
       -0.091980115 0.060285464 0.11037688 -0.06267205
000040 08 46 2f bd 60 10 94 3c f4 02 b7 3d 46 62 8e bd
       -0.042791396 0.018074214 0.0893611 -0.06952338
000050 a4 5e 43 bd 64 38 37 3d c0 1a 27 3d 88 c2 72 3d
       -0.04769768 0.044731513 0.040796995 0.05926755
000060 e4 53 cc 3d dc 06 e8 3d 4c 7b b6 3d c8 40 6b 3d
       0.09976938 0.11329433 0.08910236 0.057434827
000070 ee 84 93 3d 3c 83 99 3d e2 28 e1 bd 80 d1 8f 3b
       0.07203089 0.07495734 -0.10994126 0.004388988
000080 22 af d6 bd c0 22 bc 3c b0 78 5b 3d 58 03 72 bd
       -0.10482623 0.022965789 0.053581893 -0.05908522
000090 5a 66 df 3d 70 f3 61 3d c0 8c 5f 3d 30 be 30 3c
       0.10908194 0.0551638 0.05457759 0.010787532
0000a0 e4 a9 70 bd 08 89 ca 3c 6a 73 8e 3d b4 3a c7 3d
       -0.05875577 0.024723545 0.06955607 0.097279936
0000b0 a8 c8 d2 3d 9a 7f 8c 3d 5e a0 a0 3d 74 fc 8d bd
       0.102921784 0.068602756 0.078430876 -0.06932917
0000c0 a0 22 9e bc 94 09 17 bd a4 27 a7 3d 1e fa b7 bd
       -0.01930362 -0.03687437 0.08161858 -0.08983253
0000d0 e8 f0 cf 3d 40 ec 98 bc cc 6f f2 3d 14 a5 22 3d
       0.10153371 -0.01866734 0.1183773 0.039708212
0000e0 00 57 c7 3d 04 71 0b bd 94 a1 d2 3d fa 8d a4 bd
       0.09733391 -0.034043327 0.10284725 -0.080348924
0000f0 30 75 7b 3c 00 dc 14 3b 0e 96 f9 3d ec 00 02 3d
       0.015347764 0.0022714138 0.12186824 0.03173916
000100 80 53 26 bd 6e 77 9a bd 0c 4a c6 3d 4c f4 58 bd
       -0.040606976 -0.07542311 0.09682092 -0.052967355
000110 08 70 96 bd e6 1c fb bd 50 6e 36 bc ec ce ca bd
       -0.07345587 -0.12261371 -0.011134699 -0.099027485
000120 58 5e ba bc e2 49 88 bd 38 6a fc 3d 46 85 9c bd
       -0.022750065 -0.06654717 0.12324947 -0.076426074
000130 30 30 ad 3d b8 36 e9 3d 68 0e a3 3d f8 27 8b bc
       0.08456457 0.1138739 0.07961732 -0.016986832
000140 f8 7c d4 bc 4c c4 cb 3d c8 da 9e 3d 34 f3 13 bd
       -0.025938496 0.0994955 0.07756573 -0.03612061
000150 52 38 ff 3d 5c 6e ba bd ca f6 a1 3d 20 44 9b bb
       0.12461914 -0.09103081 0.079083994 -0.0047383457
000160 20 9d 28 3d ea af e4 3d 5e 53 ee 3d 78 a6 bc bc
       0.04116547 0.111663654 0.11636995 -0.023028597
000170 54 c6 a7 bd 04 32 bd 3d 04 8e c1 3d f6 30 b8 3d
       -0.08192125 0.09238055 0.094509155 0.089937136
000180 26 b8 9b 3d 68 94 42 3d d0 d5 b2 3d c6 f0 d1 bd
       0.07603483 0.047504812 0.08732188 -0.10251002
000190 a0 c5 1e 3d 04 2d fa 3d 22 25 a7 3d 74 41 09 3d
       0.03876269 0.12215617 0.081613794 0.033509687
0001a0 90 38 f2 bd 78 75 f2 3d 0a 1e 93 bd 0a 00 cb bd
       -0.11827195 0.11838812 -0.07183464 -0.09912117
0001b0 96 39 c1 3d 54 3c 55 bd 94 5e 43 3d 1c 2e 1b 3d
       0.09434812 -0.052059487 0.04769762 0.03788577
0001c0 50 f1 32 3c 2c 6e 39 bd 32 d5 d3 bd 74 b7 f7 3d
       0.010921791 -0.045271084 -0.10343398 0.12095538
0001d0 28 46 84 bc b8 3b 7d 3d 20 69 cb bc c6 9c ed 3d
       -0.016146734 0.06182453 -0.024830401 0.11602168
0001e0 ac ea d4 3d 06 fd 9f bd 92 d6 f6 bd fc e4 0e 3d
       0.103963226 -0.07811932 -0.12052645 0.034886345
0001f0 90 6d 1a bc f8 ba b2 bc 94 37 fc bd 28 fd c2 bd
       -0.009425536 -0.02181767 -0.12315288 -0.09520942
000200 18 46 5f 3d e0 67 64 bc e8 43 c3 3d 7a 95 92 3d
       0.054510206 -0.013940781 0.095344365 0.07157417
000210 e0 f5 3f 3d c0 99 a5 3c a8 f0 a9 bc 30 69 a7 3c
       0.046865344 0.020214915 -0.020744637 0.0204359
000220 9a f1 b8 3d 1c 4b 19 bd 24 8a 80 3d ac 82 9b 3d
       0.09030457 -0.037425146 0.06276348 0.07593283
000230 04 a0 af 3d c0 1c 45 bb de be df bd b0 7d 5d 3d
       0.085754424 -0.003007695 -0.10925077 0.054074943
000240 26 d7 f5 3d 98 ab 9c 3c dc aa 40 bd 20 66 ce 3b
       0.12003927 0.019124791 -0.047037944 0.0062987953
000250 d4 3b 36 bd 80 fe 9b bb e6 e8 8b bd e0 ff 1f bd
       -0.04449065 -0.0047605634 -0.06831531 -0.03906238
000260 d4 e5 12 3d 90 24 a7 bc 08 79 a3 bd b0 6e 8b bd
       0.035863712 -0.020403177 -0.07982069 -0.06808221
000270 e0 f1 c7 3c 60 9b b6 bd 0c 82 c8 3d de 62 aa 3d
       0.024407327 -0.08916354 0.097904295 0.08319639
000280 50 d6 0c bc 40 3e 59 3d 6c dc a1 bd bc 82 b1 3d
       -0.008596018 0.05303788 -0.0790337 0.08667514
000290 e0 8e 77 bd a8 af ec bd 10 65 63 bd 10 e7 8f 3d
       -0.06043899 -0.11556941 -0.055516303 0.070264935
0002a0 8c 12 02 bd c0 a6 f7 bb 70 04 a4 bd 82 43 9b 3d
       -0.03175597 -0.00755772 -0.08008659 0.075812355
0002b0 8c b6 fc bd 04 e2 10 3d 64 1e e8 bd 3c 00 b0 3d
       -0.123395056 0.035371795 -0.113339216 0.08593795
0002c0 58 c3 13 3d 74 72 70 bd 00 44 4c 3b 68 9f d6 bc
       0.036074966 -0.0587029 0.003116846 -0.026199058
0002d0 f8 fb 6e bd d4 1a e0 3d 04 52 e0 bd 00 60 00 bc
       -0.058345765 0.10942617 -0.10953143 -0.007835388
0002e0 48 fc e3 3d a0 63 e3 3c 64 f0 d1 bd a0 b8 e0 bd
       0.11132103 0.027757466 -0.10250929 -0.109727144
0002f0 80 8c d8 3b ec e7 3c 3d f8 4f 3b bd ee 57 b0 bd
       0.006608546 0.046119615 -0.04573056 -0.08610521
000300 80 52 fe 3a 7c e9 12 3d 54 98 cf bd 12 24 bc bd
       0.0019403249 0.0358672 -0.10136476 -0.09186567
000310 c0 87 91 3c fc 43 a5 bd e8 d9 ea bc cc 4f 66 bd
       0.017764926 -0.080696076 -0.028668359 -0.056228444
000320 64 f2 7d 3d e4 98 ba 3d 3e 55 f9 bd 06 09 f5 3d
       0.06199874 0.09111193 -0.12174462 0.11964612
000330 c2 95 ef 3d 30 aa e4 bd 9e 92 a3 3d 60 3d 04 bd
       0.11698486 -0.11165273 0.079869494 -0.032285094
000340 ac 90 1a bd 78 21 84 3d ce 21 9d 3d c8 6f 89 bc
       -0.037735626 0.06451696 0.07672463 -0.016776934
000350 32 48 fb 3d 64 13 da bd 98 13 dc bc c8 6e 77 bd
       0.122696295 -0.1064823 -0.026864812 -0.060408384
000360 7c b8 e0 bd 20 3f ff 3d 14 4a bb bd 6c c1 b5 bd
       -0.109726876 0.12463212 -0.09144989 -0.08874783
000370 cc 0a ba bd 94 fa 8e 3d 78 99 ca bd 60 e5 c4 3c
       -0.090840906 0.06981388 -0.09892553 0.024035156
000380 12 a9 ba 3d 04 c4 23 3d c0 e1 f4 bc 1a bf a5 bd
       0.09114279 0.039981857 -0.029892802 -0.0809309
000390 54 c6 ce 3d fc 0f 64 bd 60 f9 d4 bc 22 88 a3 3d
       0.10096422 -0.055679306 -0.025997818 0.0798495
0003a0 84 94 6f bd ae 87 ab 3d 38 b0 ec bd ea e0 91 3d
       -0.058491245 0.08375488 -0.115570486 0.07122977
0003b0 14 48 77 3d 20 f6 fc 3c 40 1b a5 3c 40 a5 2a bb
       0.060371473 0.03087908 0.020154595 -0.0026038438
0003c0 9c de 07 3d 64 55 a2 bd 2c 6b c6 bd 2e 55 94 bd
       0.03317128 -0.07926443 -0.0968841 -0.07242809
0003d0 e4 50 6e bd 9c e2 78 3d 44 67 bf bd b8 e2 b6 3c
       -0.058182612 0.060762987 -0.09345868 0.022324905
0003e0 98 d7 80 bc 18 2b 8b bc 80 c6 b6 3c e8 8d ce bc
       -0.015727803 -0.016988322 0.022311449 -0.02521415
0003f0 f2 cf 99 3d 98 62 0b bd ac 9b bc bd 80 4f 7c 3c
       0.075103655 -0.034029573 -0.092093796 0.015399814

tgnn._base_tgcn.linear_r.bias f4 [32]
000000 1c 8a 97 3d 4e 00 d0 bd 94 35 7a bd b0 a5 4d 3d
       0.07399389 -0.10156308 -0.061086252 0.05020684
000010 f2 15 88 3d 00 60 6e bc e4 de 8b 3d f0 5d 19 3c
       0.06644811 -0.014549255 0.068296224 0.009360775
000020 c0 bf 1a bb d4 4e f9 bd 78 0b f2 bd 3c ce df 3d
       -0.0023612827 -0.121732384 -0.11818594 0.10928008
000030 08 e4 54 3d 3e b9 ed bd 54 b4 70 3d 1c 26 37 bd
       0.05197528 -0.11607598 0.058765724 -0.04471408
000040 b0 67 19 3d 72 3e 8a 3d 58 7a 08 3d f0 b9 9c bc
       0.0374524 0.06750192 0.0333198 -0.01913163
000050 ae 30 b5 bd d8 41 39 3d 30 77 57 bd ec b9 d9 bd
       -0.088471755 0.04522881 -0.0526039 -0.10631165
000060 fe da d5 bd 2c 38 67 3d fc 8f fe 3d 00 b3 7e 3a
       -0.1044216 0.056450054 0.124298066 0.0009716004
000070 2a 6b ca 3d b0 9b 13 3d b6 4d 84 3d 22 40 8d 3d
       0.09883721 0.036037147 0.06460135 0.06896998

tgnn._base_tgcn.conv_h.bias f4 [32]
000000 1b 8e 2e 3e a7 ff 04 3d 46 70 51 ba fd c6 5b bd
       0.17046396 0.03247037 -0.00079894473 -0.053656567
000010 b2 69 07 3c a9 12 61 be 1a e2 cd 3d 5d e9 df 3d
       0.008264946 -0.21979775 0.10052891 0.109331824
000020 7a 13 3d 3e 07 f4 76 3c 20 de e2 bd 06 aa 79 3d
       0.18464461 0.015072829 -0.11077523 0.060953163
000030 a1 c3 34 be df a1 df bc 20 b4 ab 3d e6 bb 46 be
       -0.17652752 -0.027298866 0.083839655 -0.19407615
000040 92 d3 0c 3d 5a ac 9f bd 47 17 ea 3d 57 54 8f bd
       0.034381457 -0.07796545 0.11430221 -0.069985084
000050 59 6a 34 3d 80 72 6a 3e 4b 98 6d 3b 63 8c 15 3d
       0.044046734 0.22895241 0.0036254104 0.036510836
000060 69 71 ac bd 43 97 c4 3d 43 3a 1e bd f1 08 f0 3d
       -0.08420069 0.095991634 -0.03862978 0.117204554
000070 3f ef 66 3e de 57 4f 3e 9c 24 c0 bd 1c a0 bc 3c
       0.22552203 0.20248362 -0.09381983 0.023025565

tgnn._base_tgcn.conv_h.lin.weight f4 [32, 3]
000000 bc e0 7d 3e 76 36 26 bf a2 38 0b 3f 7a cd ae be
       0.2479276 -0.6492685 0.5438329 -0.3414114
000010 a7 00 29 bf f9 bd 13 3f 08 16 b5 be 83 a2 03 be
       -0.6601662 0.5771175 -0.3536837 -0.12854962
000020 17 3c 6c 3f 81 7c 1f 3c a6 a9 25 3f 41 9d 98 be
       0.9227919 0.009734274 0.6471199 -0.29807475
000030 e8 57 80 3e 25 55 b3 3e d9 cf 0d bf e2 68 85 3e
       0.25067067 0.35025898 -0.55395275 0.26056582
000040 7e 28 e2 3e 80 30 2a be 47 37 c8 be 8c 74 10 bf
       0.44171518 -0.16620064 -0.39104673 -0.56427836
000050 2e 3e b8 3e 2d a5 b4 be bd 75 c6 be 8d ec 03 3f
       0.3598494 -0.3528227 -0.38761702 0.5153282
000060 0b d9 4f 3e af f9 da 3e 9c 8e c3 be 67 19 3f bd
       0.20297639 0.42768618 -0.3819474 -0.046655085
000070 c3 45 23 bf f9 cf e2 3e 24 15 07 3f 7d 7b ce 3e
       -0.6377832 0.44299296 0.52766633 0.4032859
000080 46 62 18 bf 9f 0c d6 be d4 a4 2b bf df 8c 2d 3e
       -0.59524953 -0.41806504 -0.6704838 0.1694827
000090 47 cd 0f be 13 af 2a 3f c4 29 16 3d d6 bb 18 3f
       -0.14043151 0.6667339 0.036660925 0.59661615
0000a0 be 4b 14 3f 53 b3 af be 46 a2 02 3e 82 39 08 bf
       0.57928073 -0.343165 0.12757215 -0.5321275
0000b0 0a 8d 1a 3f d2 3f 8f be 3b 76 33 be 54 78 ff be
       0.6037146 -0.2797838 -0.1752557 -0.4989649
0000c0 dc b9 0c bf 88 f9 ae bd 91 58 5e 3f 12 dd 0c bf
       -0.549711 -0.08543688 0.8685389 -0.55024827
0000d0 c8 7d ea be 99 f8 dd 3d 0b 0d a7 bd 38 a2 1b bf
       -0.45799088 0.10838432 -0.081567846 -0.607944
0000e0 a4 6a e0 3e 7a 4e 1f 3e f4 95 37 3f 60 15 97 3e
       0.4383136 0.1555728 0.71713185 0.29508495
0000f0 d2 b5 26 be 0e 6b 23 bf 19 4e a8 bd fe 6d a2 3e
       -0.16280296 -0.6383523 -0.08218021 0.31724542
000100 35 fc bc 3c 20 40 e1 3e 5e 58 3c 3f cd de b1 3e
       0.02306948 0.43994236 0.7357234 0.34740296
000110 c7 07 84 3d ca 18 b0 be 2c aa 13 bf 1e 4d 42 3f
       0.06446796 -0.34393913 -0.57681537 0.7589892
000120 ad 2e 7f 3e 1a 2a e9 3e d8 56 11 bf 7e c4 12 3e
       0.24920149 0.45539933 -0.5677314 0.14332768
000130 3b da f3 be 39 73 fd 3e 27 09 93 be 5e d5 0c bf
       -0.47627434 0.4950197 -0.2871792 -0.5501307
000140 72 fe 05 bd 2b fb 87 be 90 98 81 be 8e 4e 11 3f
       -0.03271336 -0.26558813 -0.25311708 0.5676049
000150 0d 4e df 3d 6b 37 d0 be 58 68 22 3f 0c 59 56 be
       0.10903559 -0.4066728 0.63440466 -0.20932406
000160 3f 84 d2 3e 48 5c 2f 3f 84 0a ea 3e 6c 37 de 3e
       0.4111652 0.68500185 0.45711148 0.4340166
000170 e7 59 31 bf 28 1e ff bd df b4 22 bf 0f 97 dd 3e
       -0.69277805 -0.12456924 -0.6355724 0.4327931

tgnn._base_tgcn.linear_h.weight f4 [32, 64]
000000 84 61 a3 be b2 c1 3f be 6c c3 86 be 5f 74 c6 3e
       -0.31910336 -0.18726233 -0.2632097 0.3876066
000010 c4 19 c1 3e e5 3e 88 3e 5e b7 be be 3b b1 d1 be
       0.3771497 0.26610485 -0.37249273 -0.4095553
000020 ad 72 83 3e 38 0f 78 be 06 ba af 3e b4 cf d2 be
       0.25673428 -0.24224555 0.34321612 -0.4117409
000030 6c ea 24 3e 17 9f b5 3e 4e b4 ae be 29 8e 35 be
       0.1610505 0.35472938 -0.34121937 -0.17730011
000040 5d 86 bf be 5e 00 7c be 4c 25 b3 be bd f7 c9 3e
       -0.374072 -0.24609515 -0.34989393 0.39446822
000050 49 a0 47 be 71 8b 1d 3d bf b9 48 3e 40 8c cf be
       -0.19494738 0.03846306 0.19602107 -0.4053669
000060 b9 36 94 3e 93 9c 57 be df fc ab be 07 47 94 be
       0.28948 -0.21055822 -0.33591363 -0.2896044
000070 2a e2 d4 bd 2d 7f e7 3d 19 64 70 3e 70 7b 2d be
       -0.103947 0.11303554 0.23475684 -0.16941619
000080 0e e0 84 bd 6a 56 b3 3d 12 9d a4 3d ac f0 7f bd
       -0.064880475 0.087567165 0.08037771 -0.062485382
000090 7c a2 1c bd 9e a3 9c bd 56 9c ec 3d 48 53 60 bd
       -0.038240895 -0.07648395 0.11553256 -0.054766923
0000a0 00 58 79 3d 24 51 12 bd 7e 2b c8 3d 38 1a d3 3d
       0.06087494 -0.035721913 0.097739205 0.10307735
0000b0 8a 11 c5 3d 28 6d 98 3c 50 c9 47 3d 58 91 c0 3c
       0.09622486 0.018606737 0.04877597 0.023506805
0000c0 08 7b da bc d8 57 57 bd a0 c0 eb 3b 02 f3 9c bd
       -0.026669994 -0.05257401 0.0071945935 -0.076635376
0000d0 44 11 b8 bd b2 cb ae bd 4c 60 6e 3d d0 ae 1f bc
       -0.08987668 -0.085349455 0.058197305 -0.009746268
0000e0 24 8c e6 3d fc 9e 97 3d c4 8b 59 3d ac 7e 19 bd
       0.112571985 0.07403371 0.053111807 -0.03747432
0000f0 02 fd cc bd 90 87 eb 3d 80 37 20 3b 86 b2 e0 bd
       -0.10009195 0.11500466 0.0024447143 -0.10971551
000100 5d ae d1 3e e7 54 24 3e 06 fa c2 3d cc 7d 87 be
       0.4095334 0.16048013 0.095203444 -0.26463163
000110 9a 87 46 be e1 d5 bf be b7 30 4a 3e 7b c6 81 3e
       -0.19387665 -0.37467864 0.19745146 0.2534674
000120 ec 68 b1 3d fc 8a 4f 3e 95 dd 2b be 8e 96 11 3e
       0.086625904 0.20267862 -0.16783746 0.14217588
000130 36 11 78 be 59 f9 58 be 3a 15 c5 3e 6e 78 0a be
       -0.24225315 -0.21188869 0.38492757 -0.13522503
000140 83 c0 a4 3d 0c 69 d0 3d ae 0d e5 3e 0b db 87 be
       0.08044531 0.10176286 0.44737 -0.26534304
000150 44 47 ae 3d 17 cc b5 3d f2 25 0b bc 9e bd db 3d
       0.085096866 0.08876818 -0.008492934 0.10729526
000160 0e e9 73 be c1 25 ca 3e 53 a3 f0 3d 70 a9 cf 3e
       -0.23819372 0.3948193 0.117499016 0.40558958
000170 1e d1 4d 3e 28 42 6a 3d f8 90 9f be ed c5 a5 3e
       0.20099303 0.057191998 -0.3116529 0.32377568
000180 3a 4c b6 bd 40 ed 54 bc b6 4b f5 bd e0 22 ac 3c
       -0.08901258 -0.012996018 -0.11977331 0.021012723
000190 e8 b9 86 bd f8 af 64 3d da 34 a6 bd 3c 68 80 bd
       -0.065784276 0.05583188 -0.081155494 -0.06269881
0001a0 00 bc d2 3b 60 73 de 3b bc 88 b8 3d 00 2f ac ba
       0.0064311028 0.006788656 0.09010455 -0.0013136566
0001b0 90 52 3e 3d dc c0 a3 3d 68 2a ab bd 04 bf 9e 3d
       0.046465456 0.079957694 -0.08357698 0.07751277
0001c0 9c d9 56 bd c0 97 6a 3c 48 26 d6 3c 60 19 c2 3c
       -0.052453622 0.014318407 0.0261413 0.02369374
0001d0 50 ce ee 3c d4 5e 3a 3d 54 80 a8 bd d0 bb 00 3d
       0.029151112 0.04550059 -0.08227602 0.031429112
0001e0 28 9a 92 bc 68 cc 96 3d c2 7b 90 bd b0 f8 21 3d
       -0.017895773 0.07363206 -0.07054855 0.039543808
0001f0 54 8e 5a 3d ec 03 54 bd 6a 10 a9 bd 5a 04 bb 3d
       0.05335839 -0.051761553 -0.08255084 0.09131689
000200 a4 d3 e5 3d f6 ae a7 3d 36 5a c5 bd e4 6f 3d 3d
       0.11222008 0.08187668 -0.09636347 0.046249285
000210 8c 63 cd bd a8 b3 88 bc 7c ed d2 bd 88 96 88 3d
       -0.10028753 -0.01668723 -0.10299203 0.066693366
000220 1a fb 9c 3d 94 c6 a3 3d d4 8d 6b bd 22 2b f0 3d
       0.07665081 0.0799686 -0.057508305 0.11726977
000230 82 bb b6 3d c0 99 84 3c 62 f1 bd bd 30 88 92 3d
       0.08922483 0.016186595 -0.09274556 0.07154882
000240 d0 f8 15 3d 90 79 0f 3c aa 71 fa bd ba 4e 97 bd
       0.03661424 0.00875701 -0.12228711 -0.07388063
000250 90 3e 73 bc ee 13 ea bd b4 cb b4 3d 58 88 c7 bc
       -0.014846459 -0.114295825 0.08827916 -0.024357006
000260 88 9d 9a bc e8 c4 2d 3d 70 e4 56 3d 4c 92 9e bd
       -0.018873945 0.042424113 0.05246395 -0.07742748
000270 98 d4 9c 3c d4 49 73 bd 06 9d d8 bd 28 f2 fc 3d
       0.019144341 -0.05939658 -0.10576825 0.12350875
000280 58 05 fb 3c 70 4e ae bd b8 94 8d bd 0c d7 0f 3d
       0.030642197 -0.085110545 -0.069131315 0.035117194
000290 5a 35 ee bd 50 9d 2f bd c4 40 a9 3d 04 d3 9b bd
       -0.1163127 -0.042874634 0.08264306 -0.076086074
0002a0 f4 30 d2 3d 9c 2b 28 3d 7a eb d3 bd 38 ab 57 3d
       0.10263243 0.041057214 -0.10347648 0.05265352
0002b0 76 fe f3 3d 74 dd 4a 3d 58 6c d2 3d 00 62 d3 ba
       0.11913769 0.0495276 0.10274571 -0.0016127229
0002c0 72 9e c0 bd e4 87 24 3d a0 69 03 3d 78 d5 59 3d
       -0.09405221 0.040168658 0.032083154 0.053182095
0002d0 28 61 a1 bc 04 a4 80 bd 44 bf 13 3d a4 45 c0 bd
       -0.019699648 -0.062812835 0.036071077 -0.09388283
0002e0 f0 1a d4 3d 54 60 54 bd 44 ff ff bd da 2b 90 3d
       0.103567004 -0.05184968 -0.1249986 0.07039614
0002f0 20 76 d1 3b 20 f0 23 bd 64 08 39 bd 22 f0 a7 bd
       0.0063922554 -0.040023923 -0.045174018 -0.082000986
000300 86 c3 7e 3e 53 05 7c 3d ea ad 36 3e 39 01 bd bd
       0.24879274 0.061528515 0.1783978 -0.09228749
000310 d4 f2 a1 bc 9a 59 bc bd 87 6b 28 3e 0f 1e 57 3e
       -0.01976911 -0.09196778 0.16447268 0.2100756
000320 8a 49 15 3e be b1 74 3d 4c 64 c2 bd d5 00 85 bd
       0.14578834 0.05973982 -0.09491786 -0.06494299
000330 52 6a ad be d0 21 f8 3c 1f 35 dd 3e b4 2d 85 be
       -0.33870178 0.03028956 0.4320459 -0.2601143
000340 c2 71 a2 3d 2b d2 10 be 5a 3e e3 3d 34 5c e9 bd
       0.07931854 -0.14142673 0.11095877 -0.113945395
000350 93 41 c9 3d f9 3b 57 3e 69 79 00 bb 0b 89 85 3d
       0.098269604 0.21018972 -0.0019603616 0.065202795
000360 76 89 8b bd b0 e3 92 3e d9 14 c6 bd 03 18 33 3e
       -0.06813328 0.28689337 -0.09671945 0.17489628
000370 f4 f1 a7 3e 27 29 69 3e e6 ac 4a be 0c be 23 bd
       0.32801783 0.22769605 -0.19792518 -0.039976165
000380 40 cd 96 bc 16 42 ab 3d 4c a1 4b 3d 24 2a f2 3d
       -0.018408418 0.08362214 0.04971437 0.11824444
000390 04 14 28 bd 48 cf 6e bd 58 ed a8 bc ea 4c ce 3d
       -0.041034713 -0.058303148 -0.020620987 0.10073264
0003a0 f6 16 cc 3d 9c bb 83 bd 50 07 f0 3d 82 57 99 3d
       0.09965317 -0.06432268 0.11720145 0.07487394
0003b0 08 29 45 3d 30 31 65 bc 02 4d b5 3d 34 43 8e 3d
       0.048134834 -0.013988778 0.08852579 0.06946412
0003c0 06 90 9c 3d 4c 42 16 3d 48 06 d8 bc 32 87 81 3d
       0.07644658 0.03668432 -0.026370183 0.063246146
0003d0 b8 73 b5 bd 60 e3 8a 3b 14 aa b3 bd 40 2f a2 3c
       -0.08859962 0.004238531 -0.08772674 0.019797921
0003e0 ee 2e d5 3d 24 28 eb bd 9c 7d 05 bd 76 85 e0 bd
       0.10409342 -0.114822656 -0.032590494 -0.10962956
0003f0 9c 9e c7 bd 08 70 91 3d 00 77 18 3b b0 59 6d 3c
       -0.09747049 0.071014464 0.002326429 0.014486715

tgnn._base_tgcn.linear_h.bias f4 [32]
000000 69 76 aa 3d 5a c3 82 3e 32 7e b6 bd 4c c5 36 3d
       0.08323366 0.25539666 -0.089107886 0.04462175
000010 b5 f8 d9 3d f5 1e 82 3e 5d 00 3a bd 03 7f d9 bd
       0.1064314 0.25414243 -0.045410503 -0.10619929
000020 ea 9e b9 3d b5 a1 96 3e 8a 27 5c 3d 97 4e b2 3d
       0.090635136 0.29420248 0.053748645 0.08706396
000030 f9 3e b3 3d 2e 41 56 3e b1 3c cf bc 50 22 ce bd
       0.087522455 0.20923302 -0.025297495 -0.10065138
000040 a8 ab aa bd 78 81 e0 bc 4b 9b 9b 3d b6 7a 63 3e
       -0.08333522 -0.027405486 0.07597979 0.2221478
000050 1f bc 6f 3e 69 c3 7e be 6c 71 aa 3d 20 6a c4 3d
       0.23411606 -0.2487923 0.08322415 0.09590554
000060 a2 a2 3e 3e 5c fb a9 3e 85 44 aa 3e c5 7e 9d 3e
       0.18616727 0.33199584 0.332554 0.3076078
000070 80 40 88 3e e0 6a 02 3d 97 41 63 bb 1d 56 b5 3d
       0.2661171 0.031840205 -0.0034676546 0.088543154

linear.weight f4 [16, 32]
000000 1d 4d 1f 3e db 6e 61 be 1f 32 e4 bd a9 2a ef bb
       0.1555676 -0.22014944 -0.11142372 -0.0072987867
000010 7c 94 53 3e 77 a7 c5 be cf 8e e0 3d 80 1f 54 bd
       0.20662111 -0.38604328 0.109647386 -0.051787853
000020 78 4a 5e 3e 94 fd ca be 15 df 50 3e 67 bb 57 3e
       0.21708095 -0.3964659 0.20397599 0.21067582
000030 b8 b0 9e 3e 98 9c 64 be c6 0f 62 3d 2a 25 b0 3d
       0.309942 -0.22325361 0.055190824 0.086008385
000040 c0 ce 8b 3c de bc e9 bd 92 15 93 3e 3d 71 4c be
       0.01706636 -0.11412977 0.28727394 -0.19965072
000050 d5 4f 81 be fe 47 a6 be c9 8a 8e 3e ff 7c 05 3d
       -0.2525622 -0.324768 0.2784026 0.03258991
000060 cc b6 8b be 43 16 a2 be 4e 2a 8f be ee 17 90 be
       -0.272879 -0.3165761 -0.27961963 -0.28143257
000070 9f 4b 82 be 06 58 33 3e a8 d7 a4 3d ec 84 dc bc
       -0.2544832 0.17514047 0.08048946 -0.02691885
000080 b7 08 c2 3c d1 75 7f be 5c 3b 2f 3d e8 e1 ee bd
       0.023685796 -0.24947287 0.04278122 -0.11664182
000090 b2 f7 14 3e 7f b6 a8 be 35 d7 0b 3e 8e 46 30 bd
       0.14547613 -0.32951733 0.13656314 -0.043036036
0000a0 b1 08 a9 3e da c2 93 be 1f 43 aa 3e 7f 22 b5 3d
       0.33014444 -0.28859597 0.33254334 0.0884447
0000b0 1e 0e 63 3e 1d 16 71 be 2d 73 e6 bd fa e1 e3 3d
       0.22173354 -0.23543592 -0.11252437 0.11127086
0000c0 9c 5a 15 3d 48 39 62 bd 5e 3f 98 3e ff 22 85 be
       0.036463365 -0.05523041 0.29735845 -0.26003262
0000d0 e8 6e a9 be 19 cd c6 be 6e 16 be 3d 51 27 ad 3e
       -0.33092427 -0.38828352 0.09281622 0.3381906
0000e0 4e d7 a7 bd 97 b2 ae be 4d b0 4f be a6 c9 99 be
       -0.08195363 -0.34120628 -0.20282097 -0.30036658
0000f0 5b c8 bd be f6 2f 3a 3e 49 62 06 3e 4f 51 3f 3e
       -0.37066922 0.18182358 0.1312343 0.1868336
000100 e4 99 9d 3e 3b 27 63 be 30 ae ec bd ee 98 21 bd
       0.30781472 -0.22182934 -0.11556661 -0.039452486
000110 b6 d7 d0 3d 40 f6 75 be 12 81 c7 3e b3 f8 d6 bd
       0.101973936 -0.24019718 0.3896566 -0.10496654
000120 b2 46 d9 3d 29 3f a4 be e3 02 d5 3d 78 7c 89 3e
       0.10609187 -0.32079437 0.10400941 0.26852775
000130 0a 44 f4 3d 77 18 93 be ae ed 19 3d 80 c4 54 3d
       0.1192704 -0.28729603 0.037580185 0.05194521
000140 46 b9 0e be d6 08 15 be 7f 8b 17 3d 49 c9 dd be
       -0.13937864 -0.14554152 0.03699827 -0.4331763
000150 d4 b9 cd be cc 2e bb be 60 5c 8b 3e d1 01 21 3e
       -0.40180838 -0.3655914 0.27218914 0.15723349
000160 de 16 09 bf d9 b6 4d be 82 da 82 be 92 74 cf be
       -0.5355052 -0.20089282 -0.25557333 -0.40518624
000170 60 6c 37 be 3c f9 ac 3e 4b ea c7 3a e3 4e 12 3d
       -0.17912436 0.337839 0.001525232 0.035719763
000180 dc 61 46 3e 64 53 ce be 60 5b 01 3c 4d 3d c4 3d
       0.19373268 -0.40297997 0.007895321 0.09582005
000190 06 e2 54 3e 2d f1 02 be d3 65 9c 3d 37 92 33 3d
       0.20789346 -0.12787314 0.07636609 0.043840613
0001a0 4a bf 02 3e 93 d8 de be 57 d5 7f 3e df 5c d8 3d
       0.12768283 -0.43524608 0.24983726 0.10564589
0001b0 f3 25 47 3e 10 a1 b4 be 79 1e 3e 3d c0 19 17 be
       0.1944807 -0.3527913 0.04641578 -0.14755917
0001c0 e9 24 34 3e 2a 0c fd 3d 4b d6 1d 3e 98 6c b4 be
       0.17592205 0.12355836 0.15413778 -0.352391
0001d0 6f 16 9d be 54 50 16 bf 80 af bb 3e aa 8a b0 3e
       -0.30681178 -0.5871632 0.36657333 0.34480792
0001e0 ab 2d e4 be 78 d7 94 be 1f f8 d3 be 31 8f d6 be
       -0.44566092 -0.2907064 -0.4140024 -0.4190612
0001f0 07 6e a3 be 74 96 5c 3d 62 8b 36 bd 50 76 47 3e
       -0.31919882 0.05385442 -0.04456652 0.19478726
000200 86 f9 1c 3e b3 9a 8c be c0 1f 6c bd 66 d4 ab be
       0.1532956 -0.27461776 -0.057647467 -0.33560485
000210 8d ed 18 3e 03 71 9b be 55 71 79 3e 58 e9 b2 3d
       0.14934368 -0.3035966 0.24359639 0.08735913
000220 0b ba a3 3e 62 8f bb be 1f 71 bf 3e bf e9 43 3e
       0.31977877 -0.3663283 0.37390992 0.19132136
000230 07 c3 4b 3e d6 df ca bd 09 5c 92 3b 84 6d d0 bd
       0.19898616 -0.099059746 0.004466538 -0.101771384
000240 01 f5 32 3e 0a be d6 3d 3d 04 3f 3e 23 67 6a be
       0.17476274 0.10485466 0.1865396 -0.22890906
000250 56 ff 8b be 32 d0 0b bf 58 c3 2c 3d b0 2b ae 3e
       -0.27343243 -0.54614556 0.04217848 0.34017706
000260 d4 37 a1 be 07 5a e8 be e8 75 bb be 4e 94 b9 be
       -0.31487906 -0.45381185 -0.36613393 -0.3624596
000270 3b 7b 86 be 0a d2 2a 3d 10 13 da 3b 27 4d 9e 3e
       -0.26265892 0.041704215 0.0066551045 0.30918238
000280 30 cb bc 3e 60 6a b7 be 25 c4 2a 3e 8b a1 9e bd
       0.3687377 -0.35823345 0.16676386 -0.077456556
000290 3c 01 2c 3e e6 f8 06 bf 65 d2 ad 3e df e6 18 bd
       0.16797346 -0.5272354 0.3394958 -0.03732955
0002a0 52 88 b4 3d c7 76 c3 be 50 03 99 3d cf 0c 56 3e
       0.088150635 -0.38176557 0.07471335 0.20903324
0002b0 c1 13 bc 3e be cc 3a be 58 99 1e bc fe 55 d0 3d
       0.3673382 -0.18242165 -0.009680115 0.10172652
0002c0 d9 c9 bf bd 10 c1 09 be e6 0b 7a 3d 42 27 49 be
       -0.09364671 -0.13452554 0.061046503 -0.19643882
0002d0 72 80 c3 be 3b 63 e7 be 63 64 c1 3e 91 fa 44 3d
       -0.38183933 -0.45192894 0.377719 0.04809052
0002e0 19 1f 8c be f4 3f cd be 2e 0d a0 be 78 72 94 be
       -0.27367476 -0.40087855 -0.31260055 -0.28993583
0002f0 cc 70 04 bf 9f 7b 86 3e 81 9d 8f 3d a0 07 57 3e
       -0.51734614 0.2626619 0.07012463 0.20999002
000300 8a 9f 1b 3e 06 83 7c be 82 20 fc 3d d2 9b b2 be
       0.15197578 -0.24659356 0.12310888 -0.34884506
000310 17 1b a7 3e d9 ad 95 be 67 b1 77 3e c0 a3 4a 3d
       0.32637855 -0.29234198 0.24188767 0.04947257
000320 52 d5 b0 3e 22 33 99 be 4b 02 19 3e b7 a5 9b 3e
       0.3453775 -0.29921824 0.14942281 0.30399868
000330 bf d5 7e 3e 57 14 cd be b8 95 cf bd 90 a0 49 bd
       0.24886225 -0.4005458 -0.101359785 -0.04922539
000340 2a ea d4 bd 72 2b a6 3d cc eb 5e 3e 26 fd 9a be
       -0.10396226 0.08113755 0.21769637 -0.30271262
000350 fe 3c 1a be c7 30 17 bf 13 af a1 3d e7 ab 4f 3d
       -0.15062329 -0.59058803 0.07894721 0.05070105
000360 4b 72 15 bf 15 05 90 be 48 82 e6 be 52 e0 cb be
       -0.5837752 -0.28128877 -0.45021272 -0.3981958
000370 9a ae e5 be f0 dd 0a 3e 92 a3 19 3d 31 d7 c6 3e
       -0.44859773 0.13561225 0.03750951 0.38836053
000380 5a f8 8a 3e a9 99 12 bf 30 ba cf bc 91 37 f6 be
       0.27142602 -0.57265717 -0.025357336 -0.4808927
000390 ee 65 0e 3e d0 c5 ca be 27 ea a0 3e a2 1f 7a bd
       0.1390607 -0.39604044 0.31428644 -0.061065324
0003a0 c0 96 8a 3e 60 d9 9f be 2e 35 b5 3e 52 66 b9 3d
       0.27068138 -0.3122053 0.35392135 0.09052719
0003b0 b7 ed 76 3e df 95 f0 be 75 54 29 3c 04 c8 c7 bd
       0.24114119 -0.46989343 0.0103350775 -0.09754947
0003c0 58 7e 8d bc 38 05 b2 bc ac cb c4 3d 87 a2 a4 be
       -0.01727216 -0.021731004 0.0960916 -0.3215525
0003d0 a9 8e 55 be 02 6e 1e bf 03 a8 91 3e 8f 87 a1 3e
       -0.20855202 -0.6188661 0.28448495 0.31548735
0003e0 fc fd aa be 71 92 9f be ec d2 83 be ee d6 46 be
       -0.333969 -0.31166413 -0.25746858 -0.19417927
0003f0 1c 79 fa be 38 9e 92 3b fd 65 af 3c 62 ef 1a 3e
       -0.48920524 0.0044744276 0.021410936 0.1513038

linear.bias f4 [16]
000000 f6 51 64 3d cc 91 e8 bd 53 29 86 3d 07 ed cb 3d
       0.055742227 -0.113559335 0.06550851 0.09957319
000010 63 e0 42 bd 44 fc a9 bd 5d ec 0d be d7 53 12 bd
       -0.047577273 -0.08300069 -0.13859697 -0.035724487
000020 d7 a3 fe bd 49 3a f8 3c ea 03 ca ba da 86 37 3a
       -0.12433594 0.03030123 -0.0015412543 0.00070009904
000030 b0 ac 17 be ba d6 b2 3c 9d 57 a1 3d 55 69 1f be
       -0.14811969 0.021830905 0.07878039 -0.15567525

linear2.weight f4 [6, 21]
000000 cd da db 3e c5 92 e5 3e ab 02 73 3e 1c 39 c1 3d
       0.4294037 0.4483854 0.23731486 0.09434721
000010 1e 61 28 be 86 90 92 3e d2 b4 87 be b9 0d 74 bd
       -0.16443297 0.28625888 -0.26505142 -0.0595834
000020 16 b3 88 bd cb 74 b4 3e d9 dd 3a be 10 2f 35 be
       -0.06674783 0.35245356 -0.1824869 -0.17693734
000030 93 8e db bd 3a 5b 55 3e 5a 24 9a 3d 0e 02 53 be
       -0.10720553 0.20835581 0.07526465 -0.20606253
000040 1e 4d 9c bd ae dd 32 3d 95 e0 88 3c 4d fa e5 bd
       -0.076318964 0.04366844 0.016708652 -0.11229382
000050 5d 5d 75 bd fb e9 1f 3d 7a dd c4 3d 41 5d 2c be
       -0.05990349 0.0390415 0.09612556 -0.16832449
000060 02 8a 74 3e 31 87 d7 3c 48 6e 03 3e 3b 0c 37 3e
       0.23880771 0.026309581 0.12835038 0.1787576
000070 6b ff 0f 3e cf c5 5b 3e 84 7c 70 bd 0b 5b 28 3e
       0.14062278 0.21462177 -0.058712497 0.1644098
000080 a2 b5 89 3d 82 32 72 3e 08 57 93 bd 52 3d 86 3d
       0.06724097 0.2365208 -0.07194334 0.06554665
000090 e7 d7 db bd db 87 a6 3d f8 6f 18 be b0 e4 05 be
       -0.107345395 0.08131381 -0.14886463 -0.13075519
0000a0 3f 3f 99 3d 9d 4f 19 3e 50 a6 21 be 25 da 1c bd
       0.07482766 0.14971776 -0.157861 -0.038293976
0000b0 9e 09 24 3d 5b 0d 30 3e 24 e9 80 bc 8e 3c e2 be
       0.040048234 0.17192595 -0.01573617 -0.44186825
0000c0 ae 22 7e 3d 77 df 91 be 45 c9 ea bc 3d 1f 35 bd
       0.062044792 -0.28490803 -0.028660426 -0.044219244
0000d0 a6 3a 2d be 34 5a 05 be 29 e6 64 3d 98 f7 a8 be
       -0.16916904 -0.13022691 0.05588356 -0.330014
0000e0 e9 40 61 be a7 fd 0a 3e 1d 51 3c 3e dc 00 67 be
       -0.21997418 0.13573323 0.18390317 -0.22558922
0000f0 38 b4 3e bc a3 14 27 bd 0a 4c 3e bc 23 6c 89 be
       -0.011639647 -0.040791165 -0.011614809 -0.26840314
000100 2d 7e 85 bc cc a1 b3 be 89 a6 80 be ca e5 14 3e
       -0.016295517 -0.3508438 -0.25127056 0.14540783
000110 e4 bc 60 3d d3 90 65 3e 01 f6 b1 bd 10 17 6d 3e
       0.05486764 0.22418527 -0.086895 0.23153329
000120 5b b0 b3 3d d2 c0 12 3e e0 89 8e 3d 5d b3 4f 3e
       0.087738715 0.14331368 0.06959891 0.20283265
000130 ae f9 e9 bd 9d 9f 26 3e 33 0b 9c 3e f9 1a 21 3e
       -0.11424576 0.16271825 0.30477294 0.15732946
000140 68 63 92 3d 4c 9f e8 3d 05 92 e8 3d 37 e3 87 3e
       0.071478665 0.113585085 0.11355976 0.2654054
000150 68 34 82 bc ec 91 08 bd c1 f9 de 3d f6 47 89 3e
       -0.01589413 -0.033342287 0.108874805 0.26812714
000160 13 0b e7 3d 96 2c 67 bc 40 d8 9e 3d 6a 14 01 3e
       0.11281409 -0.014109751 0.0775609 0.12605444
000170 ee 18 9a 3b 04 e7 09 bc 53 f3 eb 3b e5 74 52 be
       0.004702679 -0.008416895 0.0072006374 -0.20552404
000180 59 d9 8f bd 53 14 a4 bc af 9f fd 3d 06 c5 67 3c
       -0.07023878 -0.020029223 0.12383973 0.014146095
000190 06 ce 65 be 0e 61 61 3e 30 e9 27 3e cb c2 66 3e
       -0.22441873 0.2200968 0.16397548 0.22535245
0001a0 c3 b3 9d 3d c5 eb a3 bd 39 50 ab be cb 61 e5 bd
       0.077003025 -0.08003954 -0.33459643 -0.11200293
0001b0 f9 d2 65 3c fd 3d ac 3c 42 60 07 be e1 82 62 3e
       0.014027351 0.021025652 -0.13220313 0.22120239
0001c0 5f ac 01 be c6 c8 05 bc 38 c7 8c 3d 11 51 44 3d
       -0.1266341 -0.008165544 0.068739355 0.047928873
0001d0 ef 3a 99 bd 5c a4 38 3e 17 1d 52 be e6 71 ce 3d
       -0.07481944 0.18031448 -0.2051891 0.10080318
0001e0 71 58 53 3e 5d d1 6e 3e 04 d0 42 3d 24 fd e3 bd
       0.20639206 0.23322053 0.04756166 -0.11132267
0001f0 e3 7c 8e 3e 25 b0 85 3e
       0.27829656 0.2611095

linear2.bias f4 [6]
000000 c4 c3 11 bd de e7 ec 3a d7 dc 16 3e a4 5a 84 3c
       -0.035587087 0.0018074473 0.14732681 0.016156502
000010 1f 32 5e 3e 2c 7a 0d be
       0.21698807 -0.13816136
