A3TGCN2_Checkpoints/Epoch_26.pth (torch, 35255 bytes, 17 tensors)

tgnn._attention f4 [16]
0	0x3fbabacb	1.4588255
1	0x3f6ba645	0.9205058
2	0x3f106666	0.5640625
3	0xbd41f14f	-0.04734927
4	0x3e7b66b4	0.24550897
5	0xbdd2009c	-0.102540225
6	0xbdf8e032	-0.12152137
7	0x3ebe37aa	0.37151843
8	0x3e422c70	0.18962264
9	0x3e1d18c0	0.15341473
10	0x3e9857ff	0.29754636
11	0x3ee56c74	0.44809306
12	0x3ec7254a	0.38895637
13	0x3f23e64e	0.6402329
14	0x3f4f75ec	0.8103931
15	0x3fa25732	1.268286

tgnn._base_tgcn.conv_z.bias f4 [32]
0	0x3f02ee5b	0.5114495
1	0x3ef894f7	0.4855115
2	0x3e2e05a6	0.16994342
3	0xbd2496d3	-0.0401829
4	0xbe041423	-0.12898307
5	0xbebb45e1	-0.3657675
6	0xbf0338ee	-0.5125874
7	0xbf04a223	-0.518099
8	0x3f0f5ebd	0.56003934
9	0x3f09207f	0.5356521
10	0xbf11fa08	-0.5702214
11	0xbf084127	-0.53224415
12	0x3de51cbc	0.11187121
13	0x3d968819	0.07350177
14	0x3efe607c	0.49682987
15	0x3efc4d1c	0.4927758
16	0xbf097fc5	-0.53710586
17	0x3f0fccfd	0.5617216
18	0x3ea4145e	0.3204679
19	0x3f1284ed	0.5723408
20	0x3f0543dd	0.52056676
21	0xbf04d9a6	-0.51894605
22	0xbf078ac4	-0.52946115
23	0x3f045c40	0.5170326
24	0xbee298b8	-0.4425714
25	0xbefb73cf	-0.49111792
26	0xbee51934	-0.4474579
27	0x3edd4690	0.43217897
28	0x3ef4637e	0.47732157
29	0xbe89a548	-0.26883912
30	0x3e9953fc	0.29946887
31	0x3f046766	0.51720273

tgnn._base_tgcn.conv_z.lin.weight f4 [32, 3]
0	0xbe570fb5	-0.21002086
1	0xbec093e2	-0.37612826
2	0xbfc8a39b	-1.5674928
3	0x3e88ff5c	0.26757324
4	0xbf07e763	-0.53087443
5	0xbf6698a0	-0.9007664
6	0xbf17e873	-0.59339064
7	0x3eb9647d	0.3620948
8	0xbf32b020	-0.69799995
9	0xbe68b358	-0.22724664
10	0x3f415fba	0.7553669
11	0x3fa62acf	1.2981814
12	0x3ef7bc5d	0.48385897
13	0xbf038afd	-0.51383954
14	0x3d87b1d7	0.06625717
15	0xbe1f5f98	-0.1556381
16	0x3f05a6a6	0.5220741
17	0x3fdab463	1.70863
18	0xbec82091	-0.39087346
19	0xbd884736	-0.066542074
20	0xbea95fb5	-0.3308083
21	0xbd8a96a1	-0.067670114
22	0x3e984d33	0.29746398
23	0x3f946b96	1.1595333
24	0x3e597be6	0.2123867
25	0xbf09c1a7	-0.53811115
26	0xbf95a84d	-1.1691986
27	0x3eabe162	0.3357039
28	0xbf5847a7	-0.8448433
29	0xbf9e523d	-1.2368847
30	0x3e1481ba	0.14502612
31	0x3f09f2da	0.5388619
32	0x3f491bc9	0.7855802
33	0xbecc5659	-0.39909628
34	0x3f0deebe	0.55442417
35	0x3f388b69	0.72087723
36	0xbe773dbc	-0.24144644
37	0x3f110675	0.5665048
38	0xbdb9b212	-0.09067167
39	0xbf5236ed	-0.8211506
40	0x3d7a9470	0.061176717
41	0x3e45023e	0.19239137
42	0x3ea554ff	0.3229141
43	0xbeff17ca	-0.49822837
44	0xbf83f3e5	-1.0308806
45	0xbc93aa66	-0.018025588
46	0xbe9c8701	-0.3057175
47	0xbfdbbbd4	-1.7166696
48	0xbe0f52e2	-0.13996461
49	0x3ee714b9	0.45132998
50	0x3f52d2f5	0.82353145
51	0x3e0cbc15	0.13743623
52	0xbf2dabf2	-0.6784049
53	0xbfd19be4	-1.6375699
54	0xbef4ae7c	-0.4778937
55	0xbe5b2e8e	-0.21404478
56	0x3d8aff98	0.06787032
57	0xbe06c0d1	-0.13159491
58	0xbefaef34	-0.49010623
59	0xbfcad558	-1.5846357
60	0x3eb97039	0.36218432
61	0xbef75809	-0.48309353
62	0xbf5e4a3d	-0.8683203
63	0xbe01e212	-0.12683895
64	0x3ec90dd7	0.3926837
65	0x3efb1570	0.49039793
66	0xbe881220	-0.26576328
67	0x3f4b629b	0.79447335
68	0x3fbeccf2	1.4906294
69	0x3e07ca84	0.13260847
70	0xbe6e9fbb	-0.2330312
71	0xbfd0bb9c	-1.6307254
72	0x3e7cc2b2	0.24683645
73	0x3e1e9cb8	0.15489471
74	0x3faa7b54	1.3318887
75	0x3e2dafa8	0.16961539
76	0x3ddd76b5	0.10813657
77	0x3f9f34ce	1.243799
78	0x3f02313f	0.50856394
79	0x3e9cf494	0.30655348
80	0x3f372e48	0.71554995
81	0xbef986bf	-0.48735616
82	0xbecdca52	-0.4019342
83	0xbf204eb7	-0.6262011
84	0x3deb937e	0.11502741
85	0xbd5d0247	-0.05395725
86	0xbf7f1eb5	-0.9965623
87	0x3f339a57	0.7015738
88	0x3f7a2922	0.97719014
89	0x3fabfbff	1.3436278
90	0xbcdbb562	-0.026819889
91	0xbfa22732	-1.2668211
92	0xbf91e406	-1.1397712
93	0x3af25904	0.0018489663
94	0xbf057669	-0.52133805
95	0xbf9df083	-1.2339023

tgnn._base_tgcn.linear_z.weight f4 [32, 64]
0	0xbf57caae	-0.8429364
1	0xbf313b54	-0.6923115
2	0x3e742615	0.23842652
3	0x3f4c7d13	0.7987835
4	0xbe46a6d7	-0.19399582
5	0x3f5e7db9	0.8691059
6	0x3e37648a	0.17909446
7	0x3eaa0e2c	0.33213937
8	0xbf4232e6	-0.75858915
9	0xbf9e4641	-1.236519
10	0x3fb08a19	1.3792144
11	0x3f1901ec	0.5976856
12	0x3d787821	0.06066144
13	0xbef30eba	-0.47472173
14	0xbf2ddb05	-0.6791232
15	0xbf20034e	-0.6250504
16	0x3f45c23a	0.7724949
17	0xbf9ba2de	-1.2159078
18	0xbf192072	-0.5981513
19	0xbfa8a290	-1.317461
20	0xbeedd207	-0.464493
21	0x3f2a3865	0.664923
22	0x3fa17cbc	1.2616191
23	0xbe9d4655	-0.30717722
24	0x3ebc4d7f	0.36777875
25	0x3e84a12d	0.25904217
26	0x3f58a619	0.84628445
27	0xbf8c22ea	-1.0948155
28	0xbe74ea0d	-0.23917408
29	0x3ee5eb03	0.44905862
30	0xbf42d8e0	-0.76112175
31	0xbf936ad1	-1.1516973
32	0x3ca5dba8	0.020246342
33	0x3d64c704	0.05585386
34	0x3d376430	0.04477328
35	0x3d1089a4	0.035287514
36	0x3cbd8e88	0.023139253
37	0xbcb79138	-0.022408113
38	0x3deae07c	0.11468598
39	0xbc941b58	-0.018079445
40	0xbd60348c	-0.054737613
41	0x3d9ddff8	0.07708734
42	0xbd3d5e3c	-0.046232447
43	0x3dec22ce	0.11530076
44	0x3de290f0	0.11062801
45	0xbdaba19e	-0.083804354
46	0xbdd24a90	-0.10268128
47	0xbd276020	-0.040863156
48	0x3da5223e	0.08063172
49	0xbdd291bc	-0.10281703
50	0x3d8af502	0.06785013
51	0xbdfe2028	-0.12408477
52	0xbcc31510	-0.023813754
53	0xbd06ae1c	-0.032880887
54	0x3c592e50	0.013255671
55	0x3dcec97c	0.10097024
56	0xbdb40a88	-0.08791071
57	0x3b072f80	0.0020627677
58	0x3bc81160	0.006105587
59	0xbd56c170	-0.05243057
60	0x3c0d2900	0.008615732
61	0x3db887ca	0.09010275
62	0xbd9ca6e4	-0.07649019
63	0x3da2020c	0.07910547
64	0xbf2586e2	-0.6465894
65	0xbe6b187e	-0.22958562
66	0xbf06a08e	-0.52588737
67	0x3f4f5fe9	0.8100572
68	0x3dc488dd	0.09596417
69	0x3fbb9f80	1.465805
70	0xbd941b10	-0.07231724
71	0x3e6c81c3	0.23096375
72	0xbe36e913	-0.17862348
73	0xbf0b6c79	-0.5446239
74	0xbcf31170	-0.0296714
75	0x3e2a8f70	0.1665628
76	0xbe357179	-0.17719068
77	0x3f4b7878	0.79480696
78	0xbe99f09c	-0.30066383
79	0xbf25b3ef	-0.6472768
80	0xbdc5928d	-0.09647093
81	0xbf616261	-0.8804074
82	0x3eccb26c	0.39979875
83	0xbf2e23f0	-0.68023586
84	0xbd6c52ec	-0.057696268
85	0xbdd486c1	-0.10377265
86	0x3f35abe5	0.70965415
87	0xbecf4f06	-0.40489978
88	0x3eb5127a	0.3536566
89	0x3ea02763	0.3128005
90	0x3d98e644	0.07465795
91	0x3da818de	0.08207868
92	0xbad880dc	-0.0016517895
93	0x3f0bea24	0.54654145
94	0xbf44f49c	-0.76935744
95	0xbee3e31c	-0.44509208
96	0x3dbfcfd2	0.093658105
97	0x3d5cda4c	0.05391912
98	0xbd9759c2	-0.07390167
99	0xbd8eab42	-0.069662586
100	0x3ce24090	0.027618676
101	0x3d10e8f8	0.035378426
102	0x3d8797c6	0.06620745
103	0xbdbb660e	-0.09150325
104	0x3df6a7ee	0.12043749
105	0xbcc94720	-0.024570048
106	0x3d339b5c	0.043849334
107	0xbd5b6d64	-0.05357112
108	0x3d433538	0.047658175
109	0x3ddaa082	0.10675146
110	0xbdb84d72	-0.089991465
111	0x3c392780	0.011300921
112	0x3c7af590	0.015317336
113	0xbc93ae30	-0.018027395
114	0xbd0c6ad4	-0.034281567
115	0x3cc63050	0.02419296
116	0x3cbd74d0	0.02312699
117	0xbd519f78	-0.051177472
118	0x3d35655c	0.044286117
119	0x3dd57bda	0.104240134
120	0x3cfa1138	0.030525789
121	0xbd82a736	-0.06379549
122	0xbc99b3e8	-0.018762544
123	0xbd0399bc	-0.032129034
124	0x3dff8eb2	0.12478389
125	0xbd84f17a	-0.064913705
126	0x3d99ab2e	0.07503353
127	0xbdfe9f46	-0.12432723
128	0x3d37e158	0.04489264
129	0xbdf1b328	-0.118017495
130	0xbc5987b0	-0.013276979
131	0xbdc19d9a	-0.09453888
132	0xbdd117b8	-0.10209602
133	0x3cb759e0	0.022381723
134	0x3dbecc76	0.093163416
135	0x3dba0ac0	0.09084082
136	0xbd598f04	-0.053114906
137	0xbd14bb34	-0.036311343
138	0xbcab8b68	-0.020940498
139	0xbb5cc780	-0.0033688247
140	0xbda78b58	-0.081808746
141	0xbb8df180	-0.0043317676
142	0x3d98f48a	0.07468517
143	0x3dd69a4a	0.10478647
144	0x3dc4cf34	0.09609833
145	0xbd78e550	-0.060765564
146	0x3d963b64	0.073355466
147	0x3d881408	0.06644446
148	0x3ddc3500	0.107522964
149	0xbd06be3c	-0.032896265
150	0xbdc35872	-0.09538354
151	0x3c6ca170	0.014442787
152	0x3d854736	0.06507723
153	0xbce7a488	-0.028276697
154	0x3c1e61f0	0.009666905
155	0xbc932458	-0.017961666
156	0xbdd9ba8a	-0.10631283
157	0x3d17105c	0.036880836
158	0x3d02d9d8	0.031946033
159	0x3b2a9d00	0.002603352
160	0xbdd4c39a	-0.103888705
161	0x3d4ce114	0.05001934
162	0x3b9fd340	0.004877478
163	0xbde1abb0	-0.11019075
164	0xbddde0b2	-0.10833873
165	0x3c60b860	0.013715833
166	0x3c726510	0.014794603
167	0x3c23daf0	0.010000929
168	0x3d82217a	0.063540414
169	0xba1b2400	-0.0005918145
170	0x3df3f7fa	0.11912532
171	0xbd11c80c	-0.03559117
172	0xbd9136f0	-0.070905566
173	0xbdb36646	-0.087597415
174	0xbd7a5b80	-0.061122417
175	0x3df685d0	0.120372415
176	0x3d80ac46	0.062828586
177	0xbd3c11f4	-0.04591556
178	0xbdacaaf8	-0.08431047
179	0xbc0933c0	-0.008374155
180	0x3db23ec4	0.08703378
181	0x3df7fda0	0.12108922
182	0xbde94b26	-0.113912866
183	0xbd6f9b30	-0.058497608
184	0xbdd43d52	-0.103632584
185	0xbcbca818	-0.023029372
186	0xbc933dc8	-0.017973796
187	0x3de6c6e8	0.11268407
188	0x3df61a1c	0.12016699
189	0x3dec2bdc	0.11531803
190	0xbd4c32cc	-0.04985313
191	0xbd5ec020	-0.054382443
192	0xbf529dbb	-0.8227193
193	0xbf0ad624	-0.54233
194	0x3eaf3e18	0.3422706
195	0x3eb60ea7	0.35558054
196	0xbf0ad68c	-0.5423362
197	0x3fa5addc	1.2943683
198	0xbe0d2c93	-0.13786535
199	0x3e1cd072	0.1531389
200	0xbef3c954	-0.4761454
201	0xbf8fd1d1	-1.1235906
202	0x3f465de6	0.7748703
203	0x3ea72d01	0.32651523
204	0x3f2a5dd2	0.6654941
205	0xbedaa6bd	-0.42705336
206	0xbeb33d38	-0.35007644
207	0xbec2c14f	-0.38038108
208	0x3ea3e5bd	0.32011214
209	0xbf704eb4	-0.9387009
210	0xbec6a9c3	-0.38801393
211	0xbf41fa89	-0.7577291
212	0xbec9c3d5	-0.3940722
213	0x3ec2e5b9	0.3806589
214	0x3fafb6a2	1.372761
215	0xbce114fa	-0.027475823
216	0x3e10689f	0.1410241
217	0xbcc40283	-0.023926979
218	0x3f3fc5ae	0.7491101
219	0xbf99b9ba	-1.2009804
220	0x3dced97d	0.10100076
221	0x3f828182	1.0195773
222	0xbfda95ff	-1.7077025
223	0xbf637753	-0.8885395
224	0x3d605048	0.054764062
225	0xbdb0e9ba	-0.0863833
226	0xbdb4fa48	-0.088368
227	0x3d4ed560	0.05049646
228	0xbd3cdb48	-0.04610756
229	0x3d40e620	0.047094464
230	0x3dc69eaa	0.096982315
231	0xbd388f10	-0.04505831
232	0xbc9989f0	-0.018742532
233	0xbdc8f60e	-0.09812556
234	0xbdc6531c	-0.096838206
235	0x3c88dd20	0.016707003
236	0x3cc4a908	0.024006382
237	0xbdcbdb8e	-0.09953986
238	0xbdd33c42	-0.10314228
239	0x3d84be3c	0.06481597
240	0xbb9f6c60	-0.004865214
241	0x3dd9320a	0.10605247
242	0x3dda115a	0.10647841
243	0x3d1e80c8	0.038697034
244	0xbc7f42c0	-0.015579879
245	0x3d43942c	0.04774873
246	0x3db2cc24	0.08730343
247	0x3dec2dd2	0.11532177
248	0x3dc0d344	0.09415296
249	0xbdd7279c	-0.10505602
250	0xbd85e200	-0.06537247
251	0xbdf441da	-0.11926623
252	0xbde0a6a4	-0.10969284
253	0x3c60a5e0	0.013711423
254	0x3df5858c	0.11988363
255	0x3d0a8098	0.033814043

tgnn._base_tgcn.linear_z.bias f4 [32]
0	0xbee94d6e	-0.45566887
1	0x3ecbb2a8	0.3978474
2	0x3df209fa	0.11818309
3	0x3cab3717	0.020900292
4	0xbee8076b	-0.4531816
5	0xbe4b1dd6	-0.198356
6	0xbea161d5	-0.31519952
7	0x3c7d1da9	0.015448966
8	0xbee402e0	-0.44533443
9	0x3c95bbf2	0.018278096
10	0xbeeffea0	-0.4687395
11	0xbee6e8d3	-0.45099506
12	0xbf139d94	-0.5766232
13	0xbf0a281f	-0.5396747
14	0xbbc011c0	-0.005861491
15	0x3d8c6e33	0.06856956
16	0x3d792d1c	0.060834035
17	0xbde35078	-0.110993326
18	0xbef16104	-0.4714433
19	0xbed60ff7	-0.41809055
20	0xbeb4b7a0	-0.35296345
21	0x3ecb8bf7	0.39755222
22	0xbea6f204	-0.32606518
23	0xbf098c0c	-0.5372932
24	0x3e987e69	0.29783943
25	0xbeedc142	-0.46436507
26	0x3da84106	0.08215527
27	0xbe4bf1e7	-0.19916497
28	0x3e414791	0.18874957
29	0xbef914e5	-0.48648754
30	0x3df53c78	0.11974424
31	0xbeba0caf	-0.36337802

tgnn._base_tgcn.conv_r.bias f4 [32]
0	0x00000000	0.0
1	0x00000000	0.0
2	0x00000000	0.0
3	0x00000000	0.0
4	0x00000000	0.0
5	0x00000000	0.0
6	0x00000000	0.0
7	0x00000000	0.0
8	0x00000000	0.0
9	0x00000000	0.0
10	0x00000000	0.0
11	0x00000000	0.0
12	0x00000000	0.0
13	0x00000000	0.0
14	0x00000000	0.0
15	0x00000000	0.0
16	0x00000000	0.0
17	0x00000000	0.0
18	0x00000000	0.0
19	0x00000000	0.0
20	0x00000000	0.0
21	0x00000000	0.0
22	0x00000000	0.0
23	0x00000000	0.0
24	0x00000000	0.0
25	0x00000000	0.0
26	0x00000000	0.0
27	0x00000000	0.0
28	0x00000000	0.0
29	0x00000000	0.0
30	0x00000000	0.0
31	0x00000000	0.0

tgnn._base_tgcn.conv_r.lin.weight f4 [32, 3]
0	0x3e2dbb1e	0.16965911
1	0xbd19d140	-0.037553072
2	0x3d6d9168	0.058
3	0x3e9d845b	0.30765042
4	0xbe958766	-0.29204863
5	0xbca54bc0	-0.020177722
6	0xbe0fc728	-0.14040816
7	0xbe90129a	-0.28139192
8	0x3dc07464	0.093972
9	0x3c34dfe0	0.011039704
10	0x3dc5845c	0.09644386
11	0x3ea84d07	0.32871267
12	0xbe9065a7	-0.28202555
13	0xbd1d18a0	-0.038353562
14	0xbde90a64	-0.11378935
15	0x3e802c9b	0.2503403
16	0xbd8f5534	-0.06998673
17	0xbeb94f84	-0.36193478
18	0x3caf6ea0	0.021415055
19	0x3e071ea2	0.13195279
20	0x3e253ebe	0.16137215
21	0xbdced154	-0.1009852
22	0x3e17a1f2	0.14807871
23	0x3d8c5ea8	0.06853992
24	0x3e4e33d6	0.20136961
25	0x3e76bd72	0.24095705
26	0xbe3b6a1a	-0.18302193
27	0xbe903fa0	-0.28173542
28	0x3dbb429c	0.09143564
29	0x3e6e993a	0.23300639
30	0x3e130422	0.14357045
31	0xbe3d30cc	-0.18475646
32	0xbe9c0b49	-0.3047736
33	0x3dbbbb6c	0.09166607
34	0x3e8f6c8f	0.2801251
35	0xbe3e1b77	-0.18565165
36	0xbe735202	-0.23761752
37	0x3ea07dbf	0.31345937
38	0xbec0c99d	-0.3765382
39	0x3e9dcd8f	0.3082089
40	0xbc081760	-0.008306354
41	0x3dfacb5c	0.12245819
42	0xbe173ecc	-0.14770049
43	0xbe81fed0	-0.2538972
44	0x3ec9d953	0.39423618
45	0x3e2a6586	0.1664029
46	0xbda73474	-0.081643015
47	0xbe7794e2	-0.24177888
48	0x3e9a265d	0.30107394
49	0xbe358dc1	-0.17729856
50	0x3e7b6c5e	0.24553058
51	0x3e29eec6	0.16594991
52	0xbe8ad3b4	-0.27114642
53	0x3e2e16fa	0.17000952
54	0xbc5f86e0	-0.013642997
55	0x3e8ce079	0.2751501
56	0xbe34e29d	-0.17664571
57	0xbebe0f98	-0.37121272
58	0xbec97850	-0.39349604
59	0xbe73b836	-0.2380074
60	0x3e906677	0.28203174
61	0xbe7e96b2	-0.24862173
62	0xbdc8c428	-0.09803039
63	0xbc0bf8a0	-0.008543164
64	0xbb1da380	-0.0024053752
65	0xbda0a180	-0.07843304
66	0xbe78de44	-0.24303538
67	0xbd90ab74	-0.07063952
68	0xbe9f1f1e	-0.31078428
69	0xbeb5980f	-0.35467574
70	0x3e77e6fe	0.2420921
71	0xbe5984e0	-0.21242094
72	0x3e77a8ae	0.2418544
73	0xbe479047	-0.19488631
74	0x3e3d2cba	0.18474093
75	0xbd960f64	-0.07327154
76	0xbe1f8030	-0.15576243
77	0x3e3d74b6	0.18501553
78	0x3e1e642e	0.15467903
79	0x3dbd081c	0.09230062
80	0x3b54b580	0.0032456815
81	0xbd8479c8	-0.064685404
82	0xbecdfa35	-0.40229955
83	0xbd95e858	-0.07319707
84	0x3eb1456d	0.3462328
85	0x3e967091	0.29382756
86	0x3dbfee94	0.09371677
87	0x3e4b53f2	0.19856241
88	0xbd4ff650	-0.05077201
89	0xbe836d5e	-0.25669378
90	0xbe36b079	-0.17840756
91	0x3e30cd92	0.17265919
92	0x3ecd9f09	0.40160397
93	0x3e143f96	0.14477381
94	0xbd782570	-0.06058258
95	0xbeb693d6	-0.35659665

tgnn._base_tgcn.linear_r.weight f4 [32, 64]
0	0xbd970bf8	-0.0737533
1	0x3ceae498	0.028673455
2	0xbd037fe8	-0.032104403
3	0xbdfe962e	-0.12430988
4	0x3cc3bbe8	0.023893312
5	0x3d472720	0.048621297
6	0x3dcb6352	0.09931053
7	0xbd6555ac	-0.055989906
8	0x3dad23f2	0.08454122
9	0xbde136a2	-0.109967485
10	0x3cdda940	0.027058244
11	0x3cab0898	0.020878121
12	0xbdbc6012	-0.091980115
13	0x3d76ede4	0.060285464
14	0x3de20d46	0.11037688
15	0xbd805a34	-0.06267205
16	0xbd2f4608	-0.042791396
17	0x3c941060	0.018074214
18	0x3db702f4	0.0893611
19	0xbd8e6246	-0.06952338
20	0xbd435ea4	-0.04769768
21	0x3d373864	0.044731513
22	0x3d271ac0	0.040796995
23	0x3d72c288	0.05926755
24	0x3dcc53e4	0.09976938
25	0x3de806dc	0.11329433
26	0x3db67b4c	0.08910236
27	0x3d6b40c8	0.057434827
28	0x3d9384ee	0.07203089
29	0x3d99833c	0.07495734
30	0xbde128e2	-0.10994126
31	0x3b8fd180	0.004388988
32	0xbdd6af22	-0.10482623
33	0x3cbc22c0	0.022965789
34	0x3d5b78b0	0.053581893
35	0xbd720358	-0.05908522
36	0x3ddf665a	0.10908194
37	0x3d61f370	0.0551638
38	0x3d5f8cc0	0.05457759
39	0x3c30be30	0.010787532
40	0xbd70a9e4	-0.05875577
41	0x3cca8908	0.024723545
42	0x3d8e736a	0.06955607
43	0x3dc73ab4	0.097279936
44	0x3dd2c8a8	0.102921784
45	0x3d8c7f9a	0.068602756
46	0x3da0a05e	0.078430876
47	0xbd8dfc74	-0.06932917
48	0xbc9e22a0	-0.01930362
49	0xbd170994	-0.03687437
50	0x3da727a4	0.08161858
51	0xbdb7fa1e	-0.08983253
52	0x3dcff0e8	0.10153371
53	0xbc98ec40	-0.01866734
54	0x3df26fcc	0.1183773
55	0x3d22a514	0.039708212
56	0x3dc75700	0.09733391
57	0xbd0b7104	-0.034043327
58	0x3dd2a194	0.10284725
59	0xbda48dfa	-0.080348924
60	0x3c7b7530	0.015347764
61	0x3b14dc00	0.0022714138
62	0x3df9960e	0.12186824
63	0x3d0200ec	0.03173916
64	0xbd265380	-0.040606976
65	0xbd9a776e	-0.07542311
66	0x3dc64a0c	0.09682092
67	0xbd58f44c	-0.052967355
68	0xbd967008	-0.07345587
69	0xbdfb1ce6	-0.12261371
70	0xbc366e50	-0.011134699
71	0xbdcaceec	-0.099027485
72	0xbcba5e58	-0.022750065
73	0xbd8849e2	-0.06654717
74	0x3dfc6a38	0.12324947
75	0xbd9c8546	-0.076426074
76	0x3dad3030	0.08456457
77	0x3de936b8	0.1138739
78	0x3da30e68	0.07961732
79	0xbc8b27f8	-0.016986832
80	0xbcd47cf8	-0.025938496
81	0x3dcbc44c	0.0994955
82	0x3d9edac8	0.07756573
83	0xbd13f334	-0.03612061
84	0x3dff3852	0.12461914
85	0xbdba6e5c	-0.09103081
86	0x3da1f6ca	0.079083994
87	0xbb9b4420	-0.0047383457
88	0x3d289d20	0.04116547
89	0x3de4afea	0.111663654
90	0x3dee535e	0.11636995
91	0xbcbca678	-0.023028597
92	0xbda7c654	-0.08192125
93	0x3dbd3204	0.09238055
94	0x3dc18e04	0.094509155
95	0x3db830f6	0.089937136
96	0x3d9bb826	0.07603483
97	0x3d429468	0.047504812
98	0x3db2d5d0	0.08732188
99	0xbdd1f0c6	-0.10251002
100	0x3d1ec5a0	0.03876269
101	0x3dfa2d04	0.12215617
102	0x3da72522	0.081613794
103	0x3d094174	0.033509687
104	0xbdf23890	-0.11827195
105	0x3df27578	0.11838812
106	0xbd931e0a	-0.07183464
107	0xbdcb000a	-0.09912117
108	0x3dc13996	0.09434812
109	0xbd553c54	-0.052059487
110	0x3d435e94	0.04769762
111	0x3d1b2e1c	0.03788577
112	0x3c32f150	0.010921791
113	0xbd396e2c	-0.045271084
114	0xbdd3d532	-0.10343398
115	0x3df7b774	0.12095538
116	0xbc844628	-0.016146734
117	0x3d7d3bb8	0.06182453
118	0xbccb6920	-0.024830401
119	0x3ded9cc6	0.11602168
120	0x3dd4eaac	0.103963226
121	0xbd9ffd06	-0.07811932
122	0xbdf6d692	-0.12052645
123	0x3d0ee4fc	0.034886345
124	0xbc1a6d90	-0.009425536
125	0xbcb2baf8	-0.02181767
126	0xbdfc3794	-0.12315288
127	0xbdc2fd28	-0.09520942
128	0x3d5f4618	0.054510206
129	0xbc6467e0	-0.013940781
130	0x3dc343e8	0.095344365
131	0x3d92957a	0.07157417
132	0x3d3ff5e0	0.046865344
133	0x3ca599c0	0.020214915
134	0xbca9f0a8	-0.020744637
135	0x3ca76930	0.0204359
136	0x3db8f19a	0.09030457
137	0xbd194b1c	-0.037425146
138	0x3d808a24	0.06276348
139	0x3d9b82ac	0.07593283
140	0x3dafa004	0.085754424
141	0xbb451cc0	-0.003007695
142	0xbddfbede	-0.10925077
143	0x3d5d7db0	0.054074943
144	0x3df5d726	0.12003927
145	0x3c9cab98	0.019124791
146	0xbd40aadc	-0.047037944
147	0x3bce6620	0.0062987953
148	0xbd363bd4	-0.04449065
149	0xbb9bfe80	-0.0047605634
150	0xbd8be8e6	-0.06831531
151	0xbd1fffe0	-0.03906238
152	0x3d12e5d4	0.035863712
153	0xbca72490	-0.020403177
154	0xbda37908	-0.07982069
155	0xbd8b6eb0	-0.06808221
156	0x3cc7f1e0	0.024407327
157	0xbdb69b60	-0.08916354
158	0x3dc8820c	0.097904295
159	0x3daa62de	0.08319639
160	0xbc0cd650	-0.008596018
161	0x3d593e40	0.05303788
162	0xbda1dc6c	-0.0790337
163	0x3db182bc	0.08667514
164	0xbd778ee0	-0.06043899
165	0xbdecafa8	-0.11556941
166	0xbd636510	-0.055516303
167	0x3d8fe710	0.070264935
168	0xbd02128c	-0.03175597
169	0xbbf7a6c0	-0.00755772
170	0xbda40470	-0.08008659
171	0x3d9b4382	0.075812355
172	0xbdfcb68c	-0.123395056
173	0x3d10e204	0.035371795
174	0xbde81e64	-0.113339216
175	0x3db0003c	0.08593795
176	0x3d13c358	0.036074966
177	0xbd707274	-0.0587029
178	0x3b4c4400	0.003116846
179	0xbcd69f68	-0.026199058
180	0xbd6efbf8	-0.058345765
181	0x3de01ad4	0.10942617
182	0xbde05204	-0.10953143
183	0xbc006000	-0.007835388
184	0x3de3fc48	0.11132103
185	0x3ce363a0	0.027757466
186	0xbdd1f064	-0.10250929
187	0xbde0b8a0	-0.109727144
188	0x3bd88c80	0.006608546
189	0x3d3ce7ec	0.046119615
190	0xbd3b4ff8	-0.04573056
191	0xbdb057ee	-0.08610521
192	0x3afe5280	0.0019403249
193	0x3d12e97c	0.0358672
194	0xbdcf9854	-0.10136476
195	0xbdbc2412	-0.09186567
196	0x3c9187c0	0.017764926
197	0xbda543fc	-0.080696076
198	0xbcead9e8	-0.028668359
199	0xbd664fcc	-0.056228444
200	0x3d7df264	0.06199874
201	0x3dba98e4	0.09111193
202	0xbdf9553e	-0.12174462
203	0x3df50906	0.11964612
204	0x3def95c2	0.11698486
205	0xbde4aa30	-0.11165273
206	0x3da3929e	0.079869494
207	0xbd043d60	-0.032285094
208	0xbd1a90ac	-0.037735626
209	0x3d842178	0.06451696
210	0x3d9d21ce	0.07672463
211	0xbc896fc8	-0.016776934
212	0x3dfb4832	0.122696295
213	0xbdda1364	-0.1064823
214	0xbcdc1398	-0.026864812
215	0xbd776ec8	-0.060408384
216	0xbde0b87c	-0.109726876
217	0x3dff3f20	0.12463212
218	0xbdbb4a14	-0.09144989
219	0xbdb5c16c	-0.08874783
220	0xbdba0acc	-0.090840906
221	0x3d8efa94	0.06981388
222	0xbdca9978	-0.09892553
223	0x3cc4e560	0.024035156
224	0x3dbaa912	0.09114279
225	0x3d23c404	0.039981857
226	0xbcf4e1c0	-0.029892802
227	0xbda5bf1a	-0.0809309
228	0x3dcec654	0.10096422
229	0xbd640ffc	-0.055679306
230	0xbcd4f960	-0.025997818
231	0x3da38822	0.0798495
232	0xbd6f9484	-0.058491245
233	0x3dab87ae	0.08375488
234	0xbdecb038	-0.115570486
235	0x3d91e0ea	0.07122977
236	0x3d774814	0.060371473
237	0x3cfcf620	0.03087908
238	0x3ca51b40	0.020154595
239	0xbb2aa540	-0.0026038438
240	0x3d07de9c	0.03317128
241	0xbda25564	-0.07926443
242	0xbdc66b2c	-0.0968841
243	0xbd94552e	-0.07242809
244	0xbd6e50e4	-0.058182612
245	0x3d78e29c	0.060762987
246	0xbdbf6744	-0.09345868
247	0x3cb6e2b8	0.022324905
248	0xbc80d798	-0.015727803
249	0xbc8b2b18	-0.016988322
250	0x3cb6c680	0.022311449
251	0xbcce8de8	-0.02521415
252	0x3d99cff2	0.075103655
253	0xbd0b6298	-0.034029573
254	0xbdbc9bac	-0.092093796
255	0x3c7c4f80	0.015399814

tgnn._base_tgcn.linear_r.bias f4 [32]
0	0x3d978a1c	0.07399389
1	0xbdd0004e	-0.10156308
2	0xbd7a3594	-0.061086252
3	0x3d4da5b0	0.05020684
4	0x3d8815f2	0.06644811
5	0xbc6e6000	-0.014549255
6	0x3d8bdee4	0.068296224
7	0x3c195df0	0.009360775
8	0xbb1abfc0	-0.0023612827
9	0xbdf94ed4	-0.121732384
10	0xbdf20b78	-0.11818594
11	0x3ddfce3c	0.10928008
12	0x3d54e408	0.05197528
13	0xbdedb93e	-0.11607598
14	0x3d70b454	0.058765724
15	0xbd37261c	-0.04471408
16	0x3d1967b0	0.0374524
17	0x3d8a3e72	0.06750192
18	0x3d087a58	0.0333198
19	0xbc9cb9f0	-0.01913163
20	0xbdb530ae	-0.088471755
21	0x3d3941d8	0.04522881
22	0xbd577730	-0.0526039
23	0xbdd9b9ec	-0.10631165
24	0xbdd5dafe	-0.1044216
25	0x3d67382c	0.056450054
26	0x3dfe8ffc	0.124298066
27	0x3a7eb300	0.0009716004
28	0x3dca6b2a	0.09883721
29	0x3d139bb0	0.036037147
30	0x3d844db6	0.06460135
31	0x3d8d4022	0.06896998

tgnn._base_tgcn.conv_h.bias f4 [32]
0	0x3ea0fccf	0.31442878
1	0x3d4a5884	0.04940082
2	0xbe56afbb	-0.20965473
3	0xbdab7203	-0.083713554
4	0x3e193614	0.14962035
5	0xbefb2a81	-0.49055865
6	0x3e85c082	0.26123434
7	0x3e8a5bd1	0.27023175
8	0x3ef4ef5e	0.47838873
9	0xbc2a62f4	-0.010399569
10	0xbe7dcc62	-0.24784997
11	0x3e21eba5	0.15812548
12	0xbec878f0	-0.39154768
13	0xbb84d877	-0.004054125
14	0x3dffe45a	0.124947265
15	0xbed9e35c	-0.42556274
16	0x3c4730b3	0.012157607
17	0xbe8d10b9	-0.2755182
18	0x3e60e45a	0.21962109
19	0xbdc06c0d	-0.09395609
20	0x3dbfdfcc	0.09368858
21	0x3ef0d740	0.47039223
22	0x3d874416	0.06604783
23	0x3d0c1191	0.03419644
24	0xbe4b4344	-0.19849879
25	0x3e305931	0.17221524
26	0xbe3fce5b	-0.18731062
27	0x3e8622fd	0.2619857
28	0x3ed481c5	0.41505256
29	0x3ed3c0f6	0.41358155
30	0xbe5127b9	-0.20425309
31	0xbb635723	-0.0034689389

tgnn._base_tgcn.conv_h.lin.weight f4 [32, 3]
0	0x3e4a74dc	0.19771141
1	0xbf2a172e	-0.6644162
2	0x3fba0653	1.453318
3	0xbea132b3	-0.31483993
4	0xbf8629ae	-1.048147
5	0x3f4f89f1	0.81069857
6	0xbe687238	-0.22699821
7	0xbe5175b0	-0.2045505
8	0x3ff567a9	1.917226
9	0xbca0cc5c	-0.019628696
10	0x3f80e7e7	1.0070771
11	0xbf2d3459	-0.67658
12	0x3e360952	0.17776993
13	0x3f35d169	0.7102266
14	0xbf985708	-1.190156
15	0x3ee8ce70	0.4547
16	0x3eb9e4ac	0.36307275
17	0xbf082428	-0.5318017
18	0xbf038bec	-0.5138538
19	0xbf19bae9	-0.6005083
20	0x3f0d86df	0.5528392
21	0xbef7cc11	-0.48397878
22	0xbeb16180	-0.346447
23	0x3f87296b	1.0559515
24	0x3c884905	0.01663638
25	0x3f2bffc0	0.6718712
26	0xbd31bf2b	-0.043395203
27	0x3c91b60b	0.017787
28	0xbf8b5df2	-1.0888045
29	0x3f6891d4	0.90847516
30	0x3f27ace9	0.65498215
31	0x3ebe962e	0.37223953
32	0xbf93b73c	-1.1540294
33	0xbef4fe5c	-0.4785031
34	0xbf80d47e	-1.0064847
35	0xbdd3d5e6	-0.10343532
36	0xbcf99049	-0.030464308
37	0x3f294a1a	0.66128695
38	0xbef0d736	-0.47039193
39	0x3f15b2ad	0.5847576
40	0x3f93b24c	1.1538787
41	0xbe1cc633	-0.15309982
42	0x3e1096b2	0.14119986
43	0xbf1b68a9	-0.60706574
44	0x3fd5b24d	1.6695038
45	0xbdd874c4	-0.10569146
46	0xbeceb4d6	-0.40372342
47	0xbfc5bc41	-1.5448076
48	0xbf2a459a	-0.66512454
49	0x3c8c4ab0	0.017125458
50	0x3fba1135	1.4536501
51	0xbecfba00	-0.40571594
52	0xbf543d94	-0.8290646
53	0xbf4fbf08	-0.81150866
54	0xbe06bc46	-0.13157758
55	0xbf423fc1	-0.7587853
56	0x3f56ac49	0.83856636
57	0x3dc6d27b	0.09708115
58	0x3f9495ed	1.1608254
59	0x3e0ecfba	0.13946429
60	0xbe0e98c8	-0.13925469
61	0xbf88cf0e	-1.0688188
62	0xbe96ef90	-0.29479647
63	0x3e233831	0.15939404
64	0x3e423856	0.18966803
65	0x3fa01888	1.2507486
66	0x3f2d0d5f	0.6759853
67	0x3f85682b	1.0422415
68	0x3fb649ad	1.4241234
69	0xbea49b78	-0.32149863
70	0xbf70a124	-0.9399588
71	0x3f947c72	1.1600478
72	0x3ea6c6eb	0.32573637
73	0x3f10cb6d	0.56560403
74	0xbf7c5090	-0.9856043
75	0x3e082eee	0.13299152
76	0xbf058ff7	-0.521728
77	0x3fc8e0b7	1.5693578
78	0xbe1a20cb	-0.15051572
79	0xbf870db4	-1.0551057
80	0xbf03cf94	-0.51488614
81	0xbec2d299	-0.38051298
82	0xbe4a55a1	-0.19759227
83	0x3fab73f2	1.3394759
84	0x3c296312	0.010338562
85	0xbeaae7d7	-0.33380005
86	0x3fce7c2d	1.6131645
87	0xbec8bd37	-0.3920686
88	0x3f25e9d5	0.64809924
89	0x3fa0b28e	1.255449
90	0x3f0f70c0	0.5603142
91	0x3ec83a2a	0.39106876
92	0xbfa8478d	-1.3146836
93	0xbd7c4d93	-0.061597418
94	0xbf91ceff	-1.1391295
95	0x3f3395ca	0.70150435

tgnn._base_tgcn.linear_h.weight f4 [32, 64]
0	0xbecc2135	-0.39869085
1	0xbf5ce379	-0.86284596
2	0xbf03a6bb	-0.51426286
3	0x3f99cb5a	1.2015183
4	0x3f57f1ea	0.84353507
5	0x3ec3e009	0.38256863
6	0xbf438b40	-0.76384354
7	0xbf26b1ee	-0.6511525
8	0x3f058488	0.5215535
9	0xbf924f03	-1.1430362
10	0x3f1679dd	0.587797
11	0xbf76d045	-0.96411544
12	0x3ea5d0ca	0.32385856
13	0x3f4ade0a	0.79245055
14	0xbf0df200	-0.5544739
15	0xbec5b647	-0.3861563
16	0xbf0257ee	-0.5091542
17	0xbf0b5162	-0.54421055
18	0xbf3f676d	-0.7476719
19	0x3f9aa742	1.2082293
20	0xbf6fe987	-0.9371571
21	0x3e5209c3	0.20511536
22	0x3f036f45	0.5134166
23	0xbf8e1a6e	-1.1101816
24	0x3f31776e	0.6932286
25	0xbeafbb8c	-0.34322774
26	0xbf40b690	-0.7527857
27	0xbed52b24	-0.41634476
28	0xbd94e43d	-0.072700955
29	0x3ec2ddb5	0.38059774
30	0x3f068d80	0.5255966
31	0xbf83c1bd	-1.0293499
32	0xbd84e00e	-0.064880475
33	0x3db3566a	0.087567165
34	0x3da49d12	0.08037771
35	0xbd7ff0ac	-0.062485382
36	0xbd1ca27c	-0.038240895
37	0xbd9ca39e	-0.07648395
38	0x3dec9c56	0.11553256
39	0xbd605348	-0.054766923
40	0x3d795800	0.06087494
41	0xbd125124	-0.035721913
42	0x3dc82b7e	0.097739205
43	0x3dd31a38	0.10307735
44	0x3dc5118a	0.09622486
45	0x3c986d28	0.018606737
46	0x3d47c950	0.04877597
47	0x3cc09158	0.023506805
48	0xbcda7b08	-0.026669994
49	0xbd5757d8	-0.05257401
50	0x3bebc0a0	0.0071945935
51	0xbd9cf302	-0.076635376
52	0xbdb81144	-0.08987668
53	0xbdaecbb2	-0.085349455
54	0x3d6e604c	0.058197305
55	0xbc1faed0	-0.009746268
56	0x3de68c24	0.112571985
57	0x3d979efc	0.07403371
58	0x3d598bc4	0.053111807
59	0xbd197eac	-0.03747432
60	0xbdccfd02	-0.10009195
61	0x3deb8790	0.11500466
62	0x3b203780	0.0024447143
63	0xbde0b286	-0.10971551
64	0x3f27c976	0.6554178
65	0x3eb65e2f	0.3561873
66	0x3e69908c	0.22809047
67	0xbfb14dba	-1.3851845
68	0xbec33f14	-0.38134062
69	0xbe7306c8	-0.23733056
70	0x3ec514f9	0.38492563
71	0x3ee9f6ca	0.45696098
72	0xbd3c1d5d	-0.04592644
73	0x3f55cc95	0.8351529
74	0xbe6b6950	-0.22989392
75	0x3e7393b2	0.2378681
76	0xbecb6ddf	-0.39732262
77	0xbe862883	-0.26202783
78	0x3f566ea2	0.8376256
79	0xbe291737	-0.16512762
80	0x3d91fd86	0.07128434
81	0x3df9d427	0.12198668
82	0x3fa93239	1.3218452
83	0xbee43cec	-0.4457773
84	0x3e8b5e95	0.27220598
85	0x3e06bdbe	0.13158318
86	0x3d2ed9c2	0.04268814
87	0x3eb27c9f	0.34860703
88	0xbf37cf33	-0.71800536
89	0x3f399940	0.72499466
90	0x3e3fefba	0.18743792
91	0x3f1cd453	0.6126148
92	0x3eb00a9b	0.3438309
93	0xbd4a9c42	-0.049465425
94	0xbedff662	-0.43742663
95	0x3f475390	0.7786188
96	0xbdb64c3a	-0.08901258
97	0xbc54ed40	-0.012996018
98	0xbdf54bb6	-0.11977331
99	0x3cac22e0	0.021012723
100	0xbd86b9e8	-0.065784276
101	0x3d64aff8	0.05583188
102	0xbda634da	-0.081155494
103	0xbd80683c	-0.06269881
104	0x3bd2bc00	0.0064311028
105	0x3bde7360	0.006788656
106	0x3db888bc	0.09010455
107	0xbaac2f00	-0.0013136566
108	0x3d3e5290	0.046465456
109	0x3da3c0dc	0.079957694
110	0xbdab2a68	-0.08357698
111	0x3d9ebf04	0.07751277
112	0xbd56d99c	-0.052453622
113	0x3c6a97c0	0.014318407
114	0x3cd62648	0.0261413
115	0x3cc21960	0.02369374
116	0x3ceece50	0.029151112
117	0x3d3a5ed4	0.04550059
118	0xbda88054	-0.08227602
119	0x3d00bbd0	0.031429112
120	0xbc929a28	-0.017895773
121	0x3d96cc68	0.07363206
122	0xbd907bc2	-0.07054855
123	0x3d21f8b0	0.039543808
124	0x3d5a8e54	0.05335839
125	0xbd5403ec	-0.051761553
126	0xbda9106a	-0.08255084
127	0x3dbb045a	0.09131689
128	0x3de5d3a4	0.11222008
129	0x3da7aef6	0.08187668
130	0xbdc55a36	-0.09636347
131	0x3d3d6fe4	0.046249285
132	0xbdcd638c	-0.10028753
133	0xbc88b3a8	-0.01668723
134	0xbdd2ed7c	-0.10299203
135	0x3d889688	0.066693366
136	0x3d9cfb1a	0.07665081
137	0x3da3c694	0.0799686
138	0xbd6b8dd4	-0.057508305
139	0x3df02b22	0.11726977
140	0x3db6bb82	0.08922483
141	0x3c8499c0	0.016186595
142	0xbdbdf162	-0.09274556
143	0x3d928830	0.07154882
144	0x3d15f8d0	0.03661424
145	0x3c0f7990	0.00875701
146	0xbdfa71aa	-0.12228711
147	0xbd974eba	-0.07388063
148	0xbc733e90	-0.014846459
149	0xbdea13ee	-0.114295825
150	0x3db4cbb4	0.08827916
151	0xbcc78858	-0.024357006
152	0xbc9a9d88	-0.018873945
153	0x3d2dc4e8	0.042424113
154	0x3d56e470	0.05246395
155	0xbd9e924c	-0.07742748
156	0x3c9cd498	0.019144341
157	0xbd7349d4	-0.05939658
158	0xbdd89d06	-0.10576825
159	0x3dfcf228	0.12350875
160	0x3cfb0558	0.030642197
161	0xbdae4e70	-0.085110545
162	0xbd8d94b8	-0.069131315
163	0x3d0fd70c	0.035117194
164	0xbdee355a	-0.1163127
165	0xbd2f9d50	-0.042874634
166	0x3da940c4	0.08264306
167	0xbd9bd304	-0.076086074
168	0x3dd230f4	0.10263243
169	0x3d282b9c	0.041057214
170	0xbdd3eb7a	-0.10347648
171	0x3d57ab38	0.05265352
172	0x3df3fe76	0.11913769
173	0x3d4add74	0.0495276
174	0x3dd26c58	0.10274571
175	0xbad36200	-0.0016127229
176	0xbdc09e72	-0.09405221
177	0x3d2487e4	0.040168658
178	0x3d0369a0	0.032083154
179	0x3d59d578	0.053182095
180	0xbca16128	-0.019699648
181	0xbd80a404	-0.062812835
182	0x3d13bf44	0.036071077
183	0xbdc045a4	-0.09388283
184	0x3dd41af0	0.103567004
185	0xbd546054	-0.05184968
186	0xbdffff44	-0.1249986
187	0x3d902bda	0.07039614
188	0x3bd17620	0.0063922554
189	0xbd23f020	-0.040023923
190	0xbd390864	-0.045174018
191	0xbda7f022	-0.082000986
192	0x3ee996f8	0.45622993
193	0x3ccf76f6	0.02532528
194	0x3f5fbdb7	0.87398857
195	0xbdb52013	-0.08844008
196	0xbe8cfee6	-0.27538222
197	0x3f1e3031	0.61792284
198	0xbdc39ee1	-0.09551788
199	0x3e21da50	0.15805936
200	0x3cff7cc8	0.03118743
201	0x3e134c2f	0.1438453
202	0xbda2922f	-0.079380386
203	0xbec7c694	-0.3901869
204	0x3e801cd3	0.2502199
205	0x3e229e5c	0.15880722
206	0x3f746764	0.9547026
207	0xbf05ce0e	-0.5226754
208	0x3ef5d234	0.48011935
209	0xbe8f4297	-0.27980492
210	0x3dc4e0b8	0.09613174
211	0x3e86610e	0.26245922
212	0xbe9767c4	-0.29571354
213	0x3eb81cbf	0.35959432
214	0x3eb5fc17	0.35543892
215	0x3e2ccace	0.16874239
216	0xbdd1712b	-0.10226663
217	0x3f4cf0cb	0.8005492
218	0xbe91ecd0	-0.28500986
219	0x3f0f459f	0.5596561
220	0x3f1de64e	0.6167954
221	0x3f067a08	0.52529955
222	0xbe950854	-0.29107916
223	0xbc9c83c9	-0.019105809
224	0xbc96cd40	-0.018408418
225	0x3dab4216	0.08362214
226	0x3d4ba14c	0.04971437
227	0x3df22a24	0.11824444
228	0xbd281404	-0.041034713
229	0xbd6ecf48	-0.058303148
230	0xbca8ed58	-0.020620987
231	0x3dce4cea	0.10073264
232	0x3dcc16f6	0.09965317
233	0xbd83bb9c	-0.06432268
234	0x3df00750	0.11720145
235	0x3d995782	0.07487394
236	0x3d452908	0.048134834
237	0xbc653130	-0.013988778
238	0x3db54d02	0.08852579
239	0x3d8e4334	0.06946412
240	0x3d9c9006	0.07644658
241	0x3d16424c	0.03668432
242	0xbcd80648	-0.026370183
243	0x3d818732	0.063246146
244	0xbdb573b8	-0.08859962
245	0x3b8ae360	0.004238531
246	0xbdb3aa14	-0.08772674
247	0x3ca22f40	0.019797921
248	0x3dd52eee	0.10409342
249	0xbdeb2824	-0.114822656
250	0xbd057d9c	-0.032590494
251	0xbde08576	-0.10962956
252	0xbdc79e9c	-0.09747049
253	0x3d917008	0.071014464
254	0x3b187700	0.002326429
255	0x3c6d59b0	0.014486715

tgnn._base_tgcn.linear_h.bias f4 [32]
0	0x3e5a3eb8	0.21312988
1	0x3e730f89	0.23736395
2	0xbdb67e32	-0.089107886
3	0xbda1685a	-0.078812316
4	0x3e61de0e	0.22057363
5	0x3f033133	0.5124695
6	0x3d549bd0	0.051906407
7	0xbdd97f03	-0.10619929
8	0x3e4da9ad	0.20084257
9	0x3f1947a8	0.59874964
10	0x3e2f0a92	0.17093876
11	0x3e4e0d8f	0.2012236
12	0x3e547dda	0.20751134
13	0x3eb5b21a	0.35487443
14	0xbccf3cb1	-0.025297495
15	0xbe015309	-0.12629332
16	0xbdaaaba8	-0.08333522
17	0xbce08178	-0.027405486
18	0x3e0f932c	0.14020985
19	0x3ed3321e	0.41249174
20	0x3ef34227	0.47511408
21	0xbecae725	-0.39629474
22	0x3e3b8cd5	0.18315442
23	0x3e56468c	0.20925349
24	0x3e210986	0.15726289
25	0x3f1cfe4c	0.61325526
26	0x3f244077	0.64160866
27	0x3f16dec3	0.5893366
28	0x3e85519e	0.2603883
29	0x3e26e060	0.1629653
30	0xbb634197	-0.0034676546
31	0x3e9f1c7b	0.31076416

linear.weight f4 [16, 32]
0	0x3ea92740	0.33037758
1	0xbece0620	-0.40239048
2	0xbde4321f	-0.11142372
3	0x3f5b7877	0.8573069
4	0x3eb9789a	0.36224824
5	0xbf12714c	-0.5720413
6	0x3e8cd1ba	0.2750376
7	0xbd541f80	-0.051787853
8	0x3ec905a2	0.3926211
9	0xbf508df2	-0.8146659
10	0x3e9352f6	0.28774232
11	0x3ec14810	0.37750292
12	0x3ee3cf27	0.44493982
13	0xbeab0962	-0.33405596
14	0x3d620fc6	0.055190824
15	0x3dbc55ba	0.091960385
16	0x3c8bcec0	0.01706636
17	0xbde9bcde	-0.11412977
18	0x3f07f0c2	0.5310174
19	0xbe71adc8	-0.23601449
20	0xbed83d64	-0.42234337
21	0xbf6535c1	-0.89535147
22	0x3eedc211	0.46437123
23	0x3e36fe7f	0.1787052
24	0xbef02c61	-0.46908858
25	0xbf2c1b61	-0.67229277
26	0xbf288b53	-0.6583759
27	0xbf0fee8b	-0.5622336
28	0xbf08371f	-0.5320911
29	0x3e87d2c6	0.26527995
30	0x3da4d7a8	0.08048946
31	0x39daf835	0.0004176513
32	0x3e6b7837	0.22995077
33	0xbf016dc9	-0.50558144
34	0x3d2f3b5c	0.04278122
35	0x3f3c75fb	0.73617524
36	0x3ea49c5a	0.32150537
37	0xbf0f93e7	-0.56085056
38	0x3e9c592a	0.30536777
39	0xbd30468e	-0.043036036
40	0x3f09512f	0.536395
41	0xbf4576e1	-0.7713452
42	0x3ee020f3	0.43775138
43	0x3e8f33d6	0.27969235
44	0x3ec1fe5e	0.3788938
45	0xbea3f9af	-0.3202643
46	0xbde6732d	-0.11252437
47	0x3df094b5	0.117471136
48	0x3d155a9c	0.036463365
49	0xbd623948	-0.05523041
50	0x3f107ff5	0.56445247
51	0xbe9d5fb8	-0.3073709
52	0xbf033b06	-0.5126194
53	0xbf80ad94	-1.0052972
54	0x3e997bf0	0.2997737
55	0x3f00f099	0.5036712
56	0xbeac8b42	-0.33699995
57	0xbf34e54b	-0.70662373
58	0xbf22ac65	-0.63544303
59	0xbf1cae58	-0.6120353
60	0xbf38b58a	-0.72152007
61	0x3e953243	0.2913991
62	0x3e066249	0.1312343
63	0x3e3c41e8	0.18384516
64	0x3f062a9d	0.5240877
65	0xbee1e4e2	-0.44119936
66	0xbdecae30	-0.11556661
67	0x3f23a2e1	0.6392041
68	0x3e8c70a1	0.2742968
69	0xbef80614	-0.48442137
70	0x3f0c3c7c	0.5477979
71	0xbdd6f8b3	-0.10496654
72	0x3e9d2a57	0.30696365
73	0xbf446c14	-0.76727414
74	0x3e852163	0.26002035
75	0x3ef11905	0.470894
76	0x3eab3d86	0.33445376
77	0xbebebf98	-0.3725555
78	0x3d19edae	0.037580185
79	0x3d6f94a6	0.05849137
80	0xbe0eb946	-0.13937864
81	0xbe1508d6	-0.14554152
82	0x3e9c5b91	0.3053861
83	0xbf00913a	-0.502216
84	0xbf160ac2	-0.58610165
85	0xbf936890	-1.1516285
86	0x3ef59293	0.4796339
87	0x3ec47337	0.38369152
88	0xbf3f552d	-0.7473934
89	0xbf09e8f1	-0.53871065
90	0xbf268465	-0.6504577
91	0xbf337d67	-0.70113224
92	0xbf07afa6	-0.53002393
93	0x3f000cf9	0.50019795
94	0x3ac7ea4b	0.001525232
95	0x3ddbe93b	0.107378446
96	0x3ed6071e	0.41802305
97	0xbf1cbc32	-0.61224663
98	0x3c015b60	0.007895321
99	0x3f02cb32	0.510913
100	0x3ecedde9	0.4040368
101	0xbebc0150	-0.3671975
102	0x3e8f4d41	0.27988628
103	0x3d339237	0.043840613
104	0x3eb16ecf	0.34654853
105	0xbf464dd5	-0.7746251
106	0x3ed289ce	0.41120762
107	0x3ea19ef3	0.3156658
108	0x3ecd1ded	0.40061894
109	0xbf0900dc	-0.53516936
110	0x3d3e1e79	0.04641578
111	0xbe0fdce6	-0.1404911
112	0x3e3424e9	0.17592205
113	0x3dfd0c2a	0.12355836
114	0x3ed330ba	0.41248113
115	0xbf08140b	-0.53155583
116	0xbf0c5758	-0.54820776
117	0xbfa430dc	-1.2827411
118	0x3f162f43	0.58665866
119	0x3f0efe24	0.5585654
120	0xbf25adbd	-0.6471823
121	0xbf1c71ed	-0.61111337
122	0xbf3529e6	-0.70767057
123	0xbf2c959b	-0.6741578
124	0xbf268302	-0.6504365
125	0x3e666760	0.22500372
126	0xbd368b62	-0.04456652
127	0x3eb627f3	0.35577354
128	0x3ec3db0b	0.38253054
129	0xbf2e8d64	-0.68184495
130	0xbd6c1fc0	-0.057647467
131	0x3e1e7632	0.15474775
132	0x3eb70def	0.35752818
133	0xbf067e0d	-0.5253609
134	0x3eef5578	0.46744895
135	0x3db2e958	0.08735913
136	0x3f0db31b	0.5535142
137	0xbf2b4aa0	-0.66910744
138	0x3f072914	0.52797055
139	0x3ed05c8f	0.40695617
140	0x3ec5d428	0.38638425
141	0xbeaa9fc6	-0.33325022
142	0x3b925c09	0.004466538
143	0xbdc24e75	-0.09487621
144	0x3e32f501	0.17476274
145	0x3dd6be0a	0.10485466
146	0x3ee04104	0.43799603
147	0xbee9600b	-0.45581087
148	0xbf0be6dc	-0.5464914
149	0xbfab9081	-1.3403474
150	0x3e8bb312	0.27285057
151	0x3f0780dc	0.52931
152	0xbf36ae64	-0.7135985
153	0xbf4494d2	-0.7678958
154	0xbf1f4aa4	-0.6222327
155	0xbf1647a2	-0.58703053
156	0xbf4bef6a	-0.7966219
157	0x3e50741a	0.20356789
158	0x3bda1310	0.0066551045
159	0x3efaafb2	0.4896217
160	0x3f176a5d	0.5914667
161	0xbf437f84	-0.7636645
162	0x3e2ac425	0.16676386
163	0x3de0fbe9	0.10985548
164	0x3ebafceb	0.36521086
165	0xbf42edbf	-0.7614402
166	0x3f0df0cf	0.5544557
167	0xbd18e6df	-0.03732955
168	0x3e9bab7c	0.3040427
169	0xbf25e3f2	-0.6480094
170	0x3e8e0838	0.27740645
171	0x3ed9b753	0.42522678
172	0x3f18f838	0.5975375
173	0xbee226a1	-0.44170097
174	0xbc1e9958	-0.009680115
175	0x3ddf83ab	0.109137855
176	0xbdbfc9d9	-0.09364671
177	0xbe09c110	-0.13452554
178	0x3e95fffe	0.2929687
179	0xbef28ea5	-0.47374454
180	0xbf29ec04	-0.66375756
181	0xbfb4533b	-1.40879
182	0x3f185f0f	0.5952005
183	0x3e8ea913	0.27863368
184	0xbf2bf5b0	-0.67171764
185	0xbf2c7e53	-0.67380255
186	0xbf06f4d1	-0.5271731
187	0xbefb953e	-0.491373
188	0xbf860d53	-1.0472816
189	0x3ef4b717	0.47795936
190	0x3d8f9d81	0.07012463
191	0x3ef4418d	0.4770626
192	0x3ec13154	0.37732947
193	0xbf3219cd	-0.6957062
194	0x3dfc2082	0.12310888
195	0xbde4848c	-0.11158094
196	0x3f065c03	0.5248415
197	0xbf0f1b44	-0.5590098
198	0x3ee7a505	0.45243087
199	0x3d4aa3c0	0.04947257
200	0x3f105ec9	0.5639463
201	0xbf0d60fc	-0.5522611
202	0x3eba7cdb	0.36423382
203	0x3f07e32a	0.53081
204	0x3efee9dd	0.497878
205	0xbf1d6890	-0.61487675
206	0xbdcf95b8	-0.101359785
207	0xbd2a1944	-0.041528
208	0xbdd4ea2a	-0.10396226
209	0x3da62b72	0.08113755
210	0x3ee98620	0.45610142
211	0xbf1f549d	-0.62238485
212	0xbef2ad98	-0.47398067
213	0xbfbaff6c	-1.4609199
214	0x3e963548	0.29337525
215	0x3e9933aa	0.2992223
216	0xbf83b9ba	-1.0291054
217	0xbf12b6f9	-0.57310444
218	0xbf2550f2	-0.6457664
219	0xbf1aef37	-0.6052126
220	0xbf837eea	-1.0273106
221	0x3eba259f	0.36356828
222	0x3d19a392	0.03750951
223	0x3f2b239d	0.66851217
224	0x3f05ae01	0.52218634
225	0xbf870d97	-1.0551022
226	0xbccfba30	-0.025357336
227	0xbea5139c	-0.32241523
228	0x3ebe5850	0.37176752
229	0xbf319610	-0.693696
230	0x3f13d7d1	0.57751185
231	0xbd7a1fa2	-0.061065324
232	0x3f0508d4	0.51966596
233	0xbf14590b	-0.5794837
234	0x3f0d8d93	0.5529415
235	0x3eae6295	0.34059587
236	0x3ef2d3f5	0.47427335
237	0xbf3012bf	-0.68778604
238	0x3c295475	0.0103350775
239	0xbdb7b461	-0.089699514
240	0xbc8d7e58	-0.01727216
241	0xbcb20538	-0.021731004
242	0x3eb3c775	0.3511311
243	0xbf2a2078	-0.66455793
244	0xbf0bcb04	-0.5460665
245	0xbfc21bf1	-1.5164777
246	0x3f06a6b7	0.52598137
247	0x3f0be7d1	0.546506
248	0xbf51fe62	-0.8202878
249	0xbf18925f	-0.59598345
250	0xbef086d8	-0.46977878
251	0xbed56d28	-0.41684842
252	0xbf8969af	-1.0735377
253	0x3e6636ac	0.22481793
254	0x3caf65fd	0.021410936
255	0x3efe5606	0.49675006

linear.bias f4 [16]
0	0x3dfc492b	0.12318643
1	0x3b6072f5	0.0034248207
2	0x3dcd8ef1	0.100370295
3	0x3e064713	0.1311305
4	0xbd3dbfa6	-0.04632535
5	0xbd0a7e7c	-0.03381203
6	0xbca54686	-0.02017523
7	0xbcad7b78	-0.021177039
8	0xbdcd42ed	-0.10022531
9	0xbd257d76	-0.040402852
10	0xbdd3fcf1	-0.10350979
11	0xbd5fb7d1	-0.05461866
12	0xbda7ad7e	-0.08187388
13	0xbc04317f	-0.008068441
14	0x3d90001c	0.07031271
15	0xbc09cdad	-0.008410853

linear2.weight f4 [6, 21]
0	0x3f028ef8	0.50999403
1	0x3f400b86	0.75017583
2	0x3e2da838	0.16958702
3	0xbdfc3762	-0.12315251
4	0xbec5518c	-0.38538778
5	0x3f0cf173	0.5505592
6	0xbedccf91	-0.4312711
7	0x3e4c494e	0.19949839
8	0x3d6f40cd	0.05841141
9	0x3eaae875	0.33380476
10	0xbeb999e3	-0.3625022
11	0xbe1a9e66	-0.15099487
12	0x3e072c48	0.13200486
13	0x3dfa7fbb	0.12231394
14	0x3dd55522	0.104166284
15	0xbe899aea	-0.26876003
16	0xbdbde1b6	-0.092715666
17	0x3e26ba41	0.16281988
18	0xbd7ed28c	-0.062212512
19	0xbe80c780	-0.25152206
20	0xbe267148	-0.16254151
21	0xbd481689	-0.048849616
22	0x3e223b2d	0.15842886
23	0x3cc55dfd	0.024092669
24	0x3e820bf3	0.25399742
25	0xbe21c146	-0.15796384
26	0x3ea73ad8	0.32662082
27	0x3ef68549	0.48148564
28	0x3e88387f	0.26605603
29	0x3caa5bb1	0.020795675
30	0xbde26fde	-0.11056493
31	0x3ee0f534	0.43937075
32	0xbd2c5698	-0.04207477
33	0xbe168abd	-0.14701362
34	0x3e2c214e	0.1680958
35	0x3d9fc75b	0.07801696
36	0xbe8efd64	-0.27927697
37	0xbdf9284b	-0.121658884
38	0xbed525b4	-0.41630328
39	0xbc43d90e	-0.011953605
40	0x3d831276	0.064000055
41	0x3e5f9549	0.21834292
42	0x3e6cc60d	0.23122425
43	0x3daa76fc	0.08323476
44	0xbd7cfbb9	-0.0617635
45	0xbd1851a4	-0.037187234
46	0xbe32a23f	-0.17444704
47	0xbe461e7b	-0.19347565
48	0x3dd490f0	0.10379207
49	0x3e3f6f67	0.1869484
50	0x3e113e2c	0.14183873
51	0xbe4fe73b	-0.20303051
52	0xbe9abd51	-0.30222562
53	0xbd84f20f	-0.064914815
54	0x3e7a3f5a	0.24438229
55	0xbf16c0c7	-0.58887905
56	0x3eaf6f50	0.34264612
57	0x3c210da9	0.009829917
58	0x3e364635	0.1780022
59	0xbdd9924f	-0.10623609
60	0xbe206911	-0.1566508
61	0xbe37e48d	-0.17958279
62	0xbd1dc04f	-0.038513478
63	0xbe69f862	-0.22848657
64	0xbea7b26d	-0.32753316
65	0xbeac21c4	-0.3361951
66	0xbe523152	-0.20526627
67	0x3e374b82	0.17899898
68	0xbe897522	-0.26847178
69	0x3dd0a331	0.10187376
70	0xbedc1abd	-0.4298915
71	0x3e9f9aa9	0.31172684
72	0x3ebcaaeb	0.3684915
73	0x3d678c4d	0.056530286
74	0x3e73426e	0.2375581
75	0x3edc1e7c	0.42992008
76	0xbe91c390	-0.28469515
77	0xbe1e4908	-0.15457547
78	0x3f11f7c6	0.570187
79	0x3ec9dfae	0.39428467
80	0x3dfab329	0.12241203
81	0x3b3eca0f	0.0029112136
82	0x3e513d6e	0.2043359
83	0x3e8aac0b	0.27084383
84	0xbda99518	-0.082803905
85	0xbdb11f17	-0.08648508
86	0x3d3747a1	0.044746045
87	0x3ed756b5	0.4205834
88	0x3ec85717	0.39128944
89	0xbe7bd5d9	-0.24593295
90	0x3b9c7c91	0.0047755917
91	0x3e2f959d	0.17146917
92	0xbccd2654	-0.02504269
93	0xbe8333b9	-0.256254
94	0xbd54d979	-0.05196521
95	0xbeadc9be	-0.3394298
96	0xbe185f5d	-0.14880128
97	0x3c7a2da0	0.015269667
98	0x3ed10caf	0.4082999
99	0xbdb64780	-0.08900356
100	0xbe9e6b9e	-0.3094148
101	0x3e7c3871	0.24630906
102	0x3e772185	0.2413388
103	0x3e6ab348	0.22919953
104	0x3d8f076a	0.06983836
105	0xbdf28cde	-0.118432745
106	0xbec46b9d	-0.38363352
107	0xbece2cf8	-0.40268683
108	0xbd5e2bf5	-0.05424114
109	0x3e748f00	0.23882675
110	0xbce0235d	-0.027360613
111	0x3db11772	0.0864705
112	0xbe930889	-0.2871745
113	0x3e2b79de	0.16745707
114	0x3e4cc614	0.19997436
115	0xbd61ee75	-0.05515905
116	0x3d212d55	0.039349873
117	0x3ed9fccc	0.4257568
118	0xbe9d407e	-0.30713266
119	0x3c8b9e4f	0.01704326
120	0x3eb4fcb0	0.35349035
121	0x3ecd63ef	0.40115306
122	0x3e891410	0.2677312
123	0xbe2c0521	-0.16798832
124	0x3ea08a67	0.31355593
125	0x3e74385a	0.23849621

linear2.bias f4 [6]
0	0xbe0efd9f	-0.13963936
1	0x3e6c539f	0.23078774
2	0xbf8b26bf	-1.0871199
3	0x3d35b69a	0.044363596
4	0x3f2376da	0.6385323
5	0xbf9bd556	-1.217448
