A3TGCN2_Checkpoints/Epoch_10.pth (torch, 35255 bytes, 17 tensors)

tgnn._attention f4 [16]
00000000: 1db3 9b3f 8b57 7d3f 29b0 3b3f 5498 563d
00000010: b036 d93e 9d95 f5bd a803 99be d305 b23e
00000020: 14ef 183e 8241 6f3d 6a93 943e 3f44 fb3e
00000030: faba cd3e a8dc 383f dc15 613f 83e7 a33f
1.2164036 0.98961705 0.73315674 0.052391365 0.42424536 -0.11991427 -0.29885602 0.3477007
0.14934951 0.058412082 0.29018718 0.49075505 0.40181714 0.72211695 0.8792398 1.2805027

tgnn._base_tgcn.conv_z.bias f4 [32]
00000000: 4701 f53e 8f10 ea3e 1343 b63d 03f9 9abc
00000010: 60a7 74bd 8bef b6be 1f60 a6be fc1b f1be
00000020: 95d1 073f 0923 053f 944b 06bf b93b fbbe
00000030: d4da 263d 17b8 833d a706 eb3e 6bd5 ec3e
00000040: 9f39 f8be d01b 093f ef2c 803e 8367 083f
00000050: 2b0d fb3e 5879 e8be 8c64 03bf f96b eb3e
00000060: 2bdb cdbe 7e30 e1be 05ee cfbe 1c88 d23e
00000070: 27ef bf3e 63b4 a5be e589 af3e 55eb f53e
0.47852537 0.45715758 0.08899512 -0.018917566 -0.059729934 -0.35729632 -0.3249521 -0.47091663
0.5305417 0.52006584 -0.52459073 -0.49069002 0.040736035 0.06431597 0.45903513 0.46256575
-0.4848146 0.53558064 0.25034282 0.53282946 0.49033484 -0.45405078 -0.513253 0.45980814
-0.40206274 -0.4398231 -0.40611282 0.41119468 0.37487146 -0.32364187 0.34284893 0.48031107

tgnn._base_tgcn.conv_z.lin.weight f4 [32, 3]
00000000: a962 01be c0d4 bebe 12c4 90bf 5425 883e
00000010: eb0b 00bf 7e9f 31bf b9cf 51be 0c4f 613e
00000020: f0d6 dabe c1e5 9abe 3baa 3b3f 6feb 8b3f
00000030: 9723 393e b97b afbe 184e 313e bf1e 1ebe
00000040: 99b9 073f 26ca 8a3f 3f16 dfbe 85f6 fdbc
00000050: 57e5 f53e 48a8 b7bd f8c0 a13e 821d 3f3f
00000060: a0bf 6e3e a203 05bf 738d 61bf 40a6 b73e
00000070: 94a6 52bf 73f5 5dbf 5e22 9e3d 5098 023f
00000080: d4a9 1b3f 1dc4 c5be 588e 093f 7213 0b3f
00000090: 77e6 a9bc 7499 cd3e da97 d1be 7a7a 2cbf
000000a0: 8f83 e43d 2a42 4d3f fac7 a83e 0f69 fbbe
000000b0: 29b6 45bf d06a 8c3d 52c1 a3be f27c 9ebf
000000c0: ca78 26be e4a3 e53e 08b1 193f a003 3f3e
000000d0: 3f4a 2bbf e599 a0bf 6ce4 75be 748c e6bd
000000e0: 0a3d a4bd 2e15 42bd 881a fcbe df33 9abf
000000f0: ecef c03e ccc7 e9be 60b7 28bf 9ec5 11be
00000100: 7082 c23e de2f c33e 9da9 9abe 62ac 473f
00000110: 4325 893f 6497 443e 5fa1 8ebe ff54 91bf
00000120: 779e 063e 0525 1f3e cef9 6d3f 9e83 503d
00000130: 7927 ff3d 2730 653f c9a3 c63e 5f8c 8b3e
00000140: a93e c23e 3538 c9be 6100 b2be 0121 91be
00000150: 1117 503e 7781 01be 1c14 30bf c369 443f
00000160: b9dd 723f fe2f 113f f7df a2bd 35ba 9ebf
00000170: 51cd e0be 6019 783d 9176 01bf 7dbc 70bf
-0.12635292 -0.3727169 -1.1309836 0.2659098 -0.50018185 -0.6938399 -0.20489396 0.2200281
-0.4274211 -0.30253413 0.73306626 1.0931224 0.18079983 -0.3427408 0.17314947 -0.15441416
0.53017575 1.0842941 -0.4357166 -0.031001339 0.48026535 -0.08967644 0.31592536 0.746544
0.23315287 -0.5195867 -0.8810646 0.35869026 -0.8228543 -0.8670265 0.07721399 0.5101366
0.6080601 -0.38626185 0.53732824 0.54326546 -0.020739777 0.40156138 -0.40936166 -0.67374384
0.11157905 0.80179083 0.3296507 -0.4910359 -0.7723108 0.0685631 -0.3198343 -1.238188
-0.16257015 0.448516 0.60035753 0.18653727 -0.66910166 -1.2546965 -0.24012917 -0.11257258
-0.08019455 -0.04738348 -0.49238992 -1.204708 0.37683046 -0.45660245 -0.6590481 -0.14235541
0.3799014 0.38122457 -0.3020753 0.7799741 1.0714496 0.19198376 -0.2785749 -1.1354064
0.13146387 0.15541466 0.92959297 0.05090677 0.12458701 0.895266 0.38796833 0.27255532
0.3793843 -0.39300695 -0.34765914 -0.28345492 0.20321299 -0.12647043 -0.68780684 0.7672388
0.9486957 0.56713855 -0.07952874 -1.2400576 -0.43906644 0.060571074 -0.5057154 -0.9403761

tgnn._base_tgcn.linear_z.weight f4 [32, 64]
00000000: dc88 47bf bc83 0bbf d858 873d 0989 5e3f
00000010: 7831 0bbe 1de1 6f3f 1d84 143e 15c2 843e
00000020: 2a79 23bf 7bca 79bf 21ca 543f 03c6 ec3e
00000030: 5610 15bc feae 6ebe 6801 18bf 154a 2cbf
00000040: 6552 1a3f fe97 8bbf 7f62 2abe f5ff 97bf
00000050: 0dac c1be d121 f73e 2361 8b3f 584a adbe
00000060: 7621 be3e 71fa 7c3e a612 cd3e 53de 22bf
00000070: 3f62 73be 338c c53e d113 31bf 86cf 6fbf
00000080: a8db a53c 04c7 643d 3064 373d a489 103d
00000090: 888e bd3c 3891 b7bc 7ce0 ea3d 581b 94bc
000000a0: 8c34 60bd f8df 9d3d 3c5e 3dbd ce22 ec3d
000000b0: f090 e23d 9ea1 abbd 904a d2bd 2060 27bd
000000c0: 3e22 a53d bc91 d2bd 02f5 8a3d 2820 febd
000000d0: 1015 c3bc 1cae 06bd 502e 593c 7cc9 ce3d
000000e0: 880a b4bd 802f 073b 6011 c83b 70c1 56bd
000000f0: 0029 0d3c ca87 b83d e4a6 9cbd 0c02 a23d
00000100: 839f cbbe 490c 0ebf ba93 afbe 4847 84be
00000110: a89c f53e 15fa 043f dd11 143f 1f74 173f
00000120: 4540 ecbe ce29 05bf aac1 c13e d019 273f
00000130: 8b92 03bf 7baf 6c3e cd0e 17bf e0c6 f1be
00000140: 8b99 c03e 3354 1fbf f04b 97be beb7 04bf
00000150: e6c2 00bf b05d 0d3f 0c5f f73e 0c36 f9be
00000160: add7 cb3e 0ef4 173f 88ff b83e 2c93 2cbe
00000170: a2cf cfbe 68d7 9f3b 9260 93be fa22 f2be
00000180: d2cf bf3d 4cda 5c3d c259 97bd 42ab 8ebd
00000190: 9040 e23c f8e8 103d c697 873d 0e66 bbbd
000001a0: eea7 f63d 2047 c9bc 5c9b 333d 646d 5bbd
000001b0: 3835 433d 82a0 da3d 724d b8bd 8027 393c
000001c0: 90f5 7a3c 30ae 93bc d46a 0cbd 5030 c63c
000001d0: d074 bd3c 789f 51bd 5c65 353d da7b d53d
000001e0: 3811 fa3c 36a7 82bd e8b3 99bc bc99 03bd
000001f0: b28e ff3d 7af1 84bd 2eab 993d 469f febd
00000200: 58e1 373d 28b3 f1bd b087 59bc 9a9d c1bd
00000210: b817 d1bd e059 b73c 76cc be3d c00a ba3d
00000220: 048f 59bd 34bb 14bd 688b abbc 80c7 5cbb
00000230: 588b a7bd 80f1 8dbb 8af4 983d 4a9a d63d
00000240: 34cf c43d 50e5 78bd 643b 963d 0814 883d
00000250: 0035 dc3d 3cbe 06bd 7258 c3bd 70a1 6c3c
00000260: 3647 853d 88a4 e7bc f061 1e3c 5824 93bc
00000270: 8aba d9bd 5c10 173d d8d9 023d 009d 2a3b
00000280: 9ac3 d4bd 14e1 4c3d 40d3 9f3b b0ab e1bd
00000290: b2e0 ddbd 60b8 603c 1065 723c f0da 233c
000002a0: 7a21 823d 0024 1bba faf7 f33d 0cc8 11bd
000002b0: f036 91bd 4666 b3bd 805b 7abd d085 f63d
000002c0: 46ac 803d f411 3cbd f8aa acbd c033 09bc
000002d0: c43e b23d a0fd f73d 264b e9bd 309b 6fbd
000002e0: 523d d4bd 18a8 bcbc c83d 93bc e8c6 e63d
000002f0: 1c1a f63d dc2b ec3d cc32 4cbd 20c0 5ebd
00000300: 451e 12bf d7e6 04bf fe27 25be 44af 92be
00000310: bc23 db3d c404 dc3e bd39 833e 9249 a43e
00000320: 5311 fcbe caf2 11bf 9e77 143f 6f05 cb3e
00000330: 69e8 793d 3d89 93be ef50 c1be 7d65 e0be
00000340: 6dab c93e 0203 e4be f79a d6be 1d91 e5be
00000350: 358e 06bf 0d70 093f 1e61 3b3f 81c2 5dbe
00000360: 96b6 ac3e 39ef 8c3e 8908 db3e 740b 29bf
00000370: f19d 55be d95a f73e 5365 85bf ad3e 1bbf
00000380: 4850 603d bae9 b0bd 48fa b4bd 60d5 4e3d
00000390: 48db 3cbd 20e6 403d aa9e c63d 108f 38bd
000003a0: f089 99bc 0ef6 c8bd 1c53 c6bd 20dd 883c
000003b0: 08a9 c43c 8edb cbbd 423c d3bd 3cbe 843d
000003c0: 606c 9fbb 0a32 d93d 5a11 da3d c880 1e3d
000003d0: c042 7fbc 2c94 433d 24cc b23d d22d ec3d
000003e0: 44d3 c03d 9c27 d7bd 00e2 85bd da41 f4bd
000003f0: a4a6 e0bd e0a5 603c 8c85 f53d 9880 0a3d
-0.77943206 -0.54497886 0.066087425 0.8692785 -0.1359309 0.9370287 0.14503522 0.25929323
-0.63856757 -0.97574586 0.83120924 0.4624482 -0.009098133 -0.23308942 -0.59377146 -0.6730054
0.60281974 -1.0905759 -0.16639136 -1.1874987 -0.37826577 0.48267987 1.0889019 -0.33845782
0.37134904 0.24704911 0.4005329 -0.6362049 -0.23767947 0.38583526 -0.6917086 -0.9367603
0.020246342 0.05585386 0.04477328 0.035287514 0.023139253 -0.022408113 0.11468598 -0.018079445
-0.054737613 0.07708734 -0.046232447 0.11530076 0.11062801 -0.083804354 -0.10268128 -0.040863156
0.08063172 -0.10281703 0.06785013 -0.12408477 -0.023813754 -0.032880887 0.013255671 0.10097024
-0.08791071 0.0020627677 0.006105587 -0.05243057 0.008615732 0.09010275 -0.07649019 0.07910547
-0.39770135 -0.55487496 -0.34292394 -0.25835633 0.47971082 0.51944095 0.5783976 0.5916156
-0.46142784 -0.52016914 0.37843066 0.6527376 -0.5139548 0.23113815 -0.5900696 -0.47222042
0.37617144 -0.6223785 -0.29550123 -0.5184287 -0.5029739 0.5522108 0.48314703 -0.48674047
0.39812985 0.5935677 0.36132455 -0.16853017 -0.405881 0.0048779733 -0.28784615 -0.4729231
0.093658105 0.05391912 -0.07390167 -0.069662586 0.027618676 0.035378426 0.06620745 -0.09150325
0.12043749 -0.024570048 0.043849334 -0.05357112 0.047658175 0.10675146 -0.089991465 0.011300921
0.015317336 -0.018027395 -0.034281567 0.02419296 0.02312699 -0.051177472 0.044286117 0.104240134
0.030525789 -0.06379549 -0.018762544 -0.032129034 0.12478389 -0.064913705 0.07503353 -0.12432723
0.04489264 -0.118017495 -0.013276979 -0.09453888 -0.10209602 0.022381723 0.093163416 0.09084082
-0.053114906 -0.036311343 -0.020940498 -0.0033688247 -0.081808746 -0.0043317676 0.07468517 0.10478647
0.09609833 -0.060765564 0.073355466 0.06644446 0.107522964 -0.032896265 -0.09538354 0.014442787
0.06507723 -0.028276697 0.009666905 -0.017961666 -0.10631283 0.036880836 0.031946033 0.002603352
-0.103888705 0.05001934 0.004877478 -0.11019075 -0.10833873 0.013715833 0.014794603 0.010000929
0.063540414 -0.0005918145 0.11912532 -0.03559117 -0.070905566 -0.087597415 -0.061122417 0.120372415
0.062828586 -0.04591556 -0.08431047 -0.008374155 0.08703378 0.12108922 -0.113912866 -0.058497608
-0.103632584 -0.023029372 -0.017973796 0.11268407 0.12016699 0.11531803 -0.04985313 -0.054382443
-0.5707744 -0.51914734 -0.16128537 -0.28649342 0.10700175 0.42972386 0.25629988 0.3208738
-0.49231967 -0.5701109 0.5799502 0.39652583 0.06101266 -0.28815642 -0.3775706 -0.4382743
0.393886 -0.44533545 -0.41915104 -0.44837275 -0.5256074 0.536866 0.73195064 -0.21656229
0.33733052 0.27526262 0.4277995 -0.660331 -0.20861031 0.483115 -1.0421547 -0.6064251
0.054764062 -0.0863833 -0.088368 0.05049646 -0.04610756 0.047094464 0.096982315 -0.04505831
-0.018742532 -0.09812556 -0.096838206 0.016707003 0.024006382 -0.09953986 -0.10314228 0.06481597
-0.004865214 0.10605247 0.10647841 0.038697034 -0.015579879 0.04774873 0.08730343 0.11532177
0.09415296 -0.10505602 -0.06537247 -0.11926623 -0.10969284 0.013711423 0.11988363 0.033814043

tgnn._base_tgcn.linear_z.bias f4 [32]
00000000: 8180 b1be 790e d6be fa09 f23d 9815 c0be
00000010: 233f c0be 9610 90be f34e 96be a91d 7d3c
00000020: 828f c9be 9c5f 56be 3dad b8be b63e b6be
00000030: a1d9 dfbe 9ef6 f9be c011 c0bb 336e 8c3d
00000040: 1c2d 793d 7850 e3bd 5a13 bfbe bcbf 9dbe
00000050: 0644 4fbe 8b00 f33e 7976 8ebe c3f7 bdbe
00000060: cc46 adbe db4d c4be 737f 15be dd01 9dbe
00000070: 1b52 92be f971 b9be 783c f53d adcf a8be
-0.34668353 -0.41807917 0.11818309 -0.37516475 -0.3754817 -0.28137654 -0.29357108 0.015448966
-0.393673 -0.2093491 -0.3606967 -0.3559472 -0.43720725 -0.48820966 -0.005861491 0.06856956
0.060834035 -0.110993326 -0.37319452 -0.30810344 -0.20240793 0.47461352 -0.27824762 -0.3710309
-0.33843076 -0.3834065 -0.145994 -0.30665484 -0.28578267 -0.36219767 0.11974424 -0.32970944

tgnn._base_tgcn.conv_r.bias f4 [32]
00000000: 0000 0000 0000 0000 0000 0000 0000 0000
00000010: 0000 0000 0000 0000 0000 0000 0000 0000
00000020: 0000 0000 0000 0000 0000 0000 0000 0000
00000030: 0000 0000 0000 0000 0000 0000 0000 0000
00000040: 0000 0000 0000 0000 0000 0000 0000 0000
00000050: 0000 0000 0000 0000 0000 0000 0000 0000
00000060: 0000 0000 0000 0000 0000 0000 0000 0000
00000070: 0000 0000 0000 0000 0000 0000 0000 0000
0.0 0.0 0.0 0.0 0.0 0.0 0.0 0.0
0.0 0.0 0.0 0.0 0.0 0.0 0.0 0.0
0.0 0.0 0.0 0.0 0.0 0.0 0.0 0.0
0.0 0.0 0.0 0.0 0.0 0.0 0.0 0.0

tgnn._base_tgcn.conv_r.lin.weight f4 [32, 3]
00000000: 1ebb 2d3e 40d1 19bd 6891 6d3d 5b84 9d3e
00000010: 6687 95be c04b a5bc 28c7 0fbe 9a12 90be
00000020: 6474 c03d e0df 343c 5c84 c53d 074d a83e
00000030: a765 90be a018 1dbd 640a e9bd 9b2c 803e
00000040: 3455 8fbd 844f b9be a06e af3c a21e 073e
00000050: be3e 253e 54d1 cebd f2a1 173e a85e 8c3d
00000060: d633 4e3e 72bd 763e 1a6a 3bbe a03f 90be
00000070: 9c42 bb3d 3a99 6e3e 2204 133e cc30 3dbe
00000080: 490b 9cbe 6cbb bb3d 8f6c 8f3e 771b 3ebe
00000090: 0252 73be bf7d a03e 9dc9 c0be 8fcd 9d3e
000000a0: 6017 08bc 5ccb fa3d cc3e 17be d0fe 81be
000000b0: 53d9 c93e 8665 2a3e 7434 a7bd e294 77be
000000c0: 5d26 9a3e c18d 35be 5e6c 7b3e c6ee 293e
000000d0: b4d3 8abe fa16 2e3e e086 5fbc 79e0 8c3e
000000e0: 9de2 34be 980f bebe 5078 c9be 36b8 73be
000000f0: 7766 903e b296 7ebe 28c4 c8bd a0f8 0bbc
00000100: 80a3 1dbb 80a1 a0bd 44de 78be 74ab 90bd
00000110: 1e1f 9fbe 0f98 b5be fee6 773e e084 59be
00000120: aea8 773e 4790 47be ba2c 3d3e 640f 96bd
00000130: 3080 1fbe b674 3d3e 2e64 1e3e 1c08 bd3d
00000140: 80b5 543b c879 84bd 35fa cdbe 58e8 95bd
00000150: 6d45 b13e 9170 963e 94ee bf3d f253 4b3e
00000160: 50f6 4fbd 5e6d 83be 79b0 36be 92cd 303e
00000170: 099f cd3e 963f 143e 7025 78bd d693 b6be
0.16965911 -0.037553072 0.058 0.30765042 -0.29204863 -0.020177722 -0.14040816 -0.28139192
0.093972 0.011039704 0.09644386 0.32871267 -0.28202555 -0.038353562 -0.11378935 0.2503403
-0.06998673 -0.36193478 0.021415055 0.13195279 0.16137215 -0.1009852 0.14807871 0.06853992
0.20136961 0.24095705 -0.18302193 -0.28173542 0.09143564 0.23300639 0.14357045 -0.18475646
-0.3047736 0.09166607 0.2801251 -0.18565165 -0.23761752 0.31345937 -0.3765382 0.3082089
-0.008306354 0.12245819 -0.14770049 -0.2538972 0.39423618 0.1664029 -0.081643015 -0.24177888
0.30107394 -0.17729856 0.24553058 0.16594991 -0.27114642 0.17000952 -0.013642997 0.2751501
-0.17664571 -0.37121272 -0.39349604 -0.2380074 0.28203174 -0.24862173 -0.09803039 -0.008543164
-0.0024053752 -0.07843304 -0.24303538 -0.07063952 -0.31078428 -0.35467574 0.2420921 -0.21242094
0.2418544 -0.19488631 0.18474093 -0.07327154 -0.15576243 0.18501553 0.15467903 0.09230062
0.0032456815 -0.064685404 -0.40229955 -0.07319707 0.3462328 0.29382756 0.09371677 0.19856241
-0.05077201 -0.25669378 -0.17840756 0.17265919 0.40160397 0.14477381 -0.06058258 -0.35659665

tgnn._base_tgcn.linear_r.weight f4 [32, 64]
00000000: f80b 97bd 98e4 ea3c e87f 03bd 2e96 febd
00000010: e8bb c33c 2027 473d 5263 cb3d ac55 65bd
00000020: f223 ad3d a236 e1bd 40a9 dd3c 9808 ab3c
00000030: 1260 bcbd e4ed 763d 460d e23d 345a 80bd
00000040: 0846 2fbd 6010 943c f402 b73d 4662 8ebd
00000050: a45e 43bd 6438 373d c01a 273d 88c2 723d
00000060: e453 cc3d dc06 e83d 4c7b b63d c840 6b3d
00000070: ee84 933d 3c83 993d e228 e1bd 80d1 8f3b
00000080: 22af d6bd c022 bc3c b078 5b3d 5803 72bd
00000090: 5a66 df3d 70f3 613d c08c 5f3d 30be 303c
000000a0: e4a9 70bd 0889 ca3c 6a73 8e3d b43a c73d
000000b0: a8c8 d23d 9a7f 8c3d 5ea0 a03d 74fc 8dbd
000000c0: a022 9ebc 9409 17bd a427 a73d 1efa b7bd
000000d0: e8f0 cf3d 40ec 98bc cc6f f23d 14a5 223d
000000e0: 0057 c73d 0471 0bbd 94a1 d23d fa8d a4bd
000000f0: 3075 7b3c 00dc 143b 0e96 f93d ec00 023d
00000100: 8053 26bd 6e77 9abd 0c4a c63d 4cf4 58bd
00000110: 0870 96bd e61c fbbd 506e 36bc ecce cabd
00000120: 585e babc e249 88bd 386a fc3d 4685 9cbd
00000130: 3030 ad3d b836 e93d 680e a33d f827 8bbc
00000140: f87c d4bc 4cc4 cb3d c8da 9e3d 34f3 13bd
00000150: 5238 ff3d 5c6e babd caf6 a13d 2044 9bbb
00000160: 209d 283d eaaf e43d 5e53 ee3d 78a6 bcbc
00000170: 54c6 a7bd 0432 bd3d 048e c13d f630 b83d
00000180: 26b8 9b3d 6894 423d d0d5 b23d c6f0 d1bd
00000190: a0c5 1e3d 042d fa3d 2225 a73d 7441 093d
000001a0: 9038 f2bd 7875 f23d 0a1e 93bd 0a00 cbbd
000001b0: 9639 c13d 543c 55bd 945e 433d 1c2e 1b3d
000001c0: 50f1 323c 2c6e 39bd 32d5 d3bd 74b7 f73d
000001d0: 2846 84bc b83b 7d3d 2069 cbbc c69c ed3d
000001e0: acea d43d 06fd 9fbd 92d6 f6bd fce4 0e3d
000001f0: 906d 1abc f8ba b2bc 9437 fcbd 28fd c2bd
00000200: 1846 5f3d e067 64bc e843 c33d 7a95 923d
00000210: e0f5 3f3d c099 a53c a8f0 a9bc 3069 a73c
00000220: 9af1 b83d 1c4b 19bd 248a 803d ac82 9b3d
00000230: 04a0 af3d c01c 45bb debe dfbd b07d 5d3d
00000240: 26d7 f53d 98ab 9c3c dcaa 40bd 2066 ce3b
00000250: d43b 36bd 80fe 9bbb e6e8 8bbd e0ff 1fbd
00000260: d4e5 123d 9024 a7bc 0879 a3bd b06e 8bbd
00000270: e0f1 c73c 609b b6bd 0c82 c83d de62 aa3d
00000280: 50d6 0cbc 403e 593d 6cdc a1bd bc82 b13d
00000290: e08e 77bd a8af ecbd 1065 63bd 10e7 8f3d
000002a0: 8c12 02bd c0a6 f7bb 7004 a4bd 8243 9b3d
000002b0: 8cb6 fcbd 04e2 103d 641e e8bd 3c00 b03d
000002c0: 58c3 133d 7472 70bd 0044 4c3b 689f d6bc
000002d0: f8fb 6ebd d41a e03d 0452 e0bd 0060 00bc
000002e0: 48fc e33d a063 e33c 64f0 d1bd a0b8 e0bd
000002f0: 808c d83b ece7 3c3d f84f 3bbd ee57 b0bd
00000300: 8052 fe3a 7ce9 123d 5498 cfbd 1224 bcbd
00000310: c087 913c fc43 a5bd e8d9 eabc cc4f 66bd
00000320: 64f2 7d3d e498 ba3d 3e55 f9bd 0609 f53d
00000330: c295 ef3d 30aa e4bd 9e92 a33d 603d 04bd
00000340: ac90 1abd 7821 843d ce21 9d3d c86f 89bc
00000350: 3248 fb3d 6413 dabd 9813 dcbc c86e 77bd
00000360: 7cb8 e0bd 203f ff3d 144a bbbd 6cc1 b5bd
00000370: cc0a babd 94fa 8e3d 7899 cabd 60e5 c43c
00000380: 12a9 ba3d 04c4 233d c0e1 f4bc 1abf a5bd
00000390: 54c6 ce3d fc0f 64bd 60f9 d4bc 2288 a33d
000003a0: 8494 6fbd ae87 ab3d 38b0 ecbd eae0 913d
000003b0: 1448 773d 20f6 fc3c 401b a53c 40a5 2abb
000003c0: 9cde 073d 6455 a2bd 2c6b c6bd 2e55 94bd
000003d0: e450 6ebd 9ce2 783d 4467 bfbd b8e2 b63c
000003e0: 98d7 80bc 182b 8bbc 80c6 b63c e88d cebc
000003f0: f2cf 993d 9862 0bbd ac9b bcbd 804f 7c3c
-0.0737533 0.028673455 -0.032104403 -0.12430988 0.023893312 0.048621297 0.09931053 -0.055989906
0.08454122 -0.109967485 0.027058244 0.020878121 -0.091980115 0.060285464 0.11037688 -0.06267205
-0.042791396 0.018074214 0.0893611 -0.06952338 -0.04769768 0.044731513 0.040796995 0.05926755
0.09976938 0.11329433 0.08910236 0.057434827 0.07203089 0.07495734 -0.10994126 0.004388988
-0.10482623 0.022965789 0.053581893 -0.05908522 0.10908194 0.0551638 0.05457759 0.010787532
-0.05875577 0.024723545 0.06955607 0.097279936 0.102921784 0.068602756 0.078430876 -0.06932917
-0.01930362 -0.03687437 0.08161858 -0.08983253 0.10153371 -0.01866734 0.1183773 0.039708212
0.09733391 -0.034043327 0.10284725 -0.080348924 0.015347764 0.0022714138 0.12186824 0.03173916
-0.040606976 -0.07542311 0.09682092 -0.052967355 -0.07345587 -0.12261371 -0.011134699 -0.099027485
-0.022750065 -0.06654717 0.12324947 -0.076426074 0.08456457 0.1138739 0.07961732 -0.016986832
-0.025938496 0.0994955 0.07756573 -0.03612061 0.12461914 -0.09103081 0.079083994 -0.0047383457
0.04116547 0.111663654 0.11636995 -0.023028597 -0.08192125 0.09238055 0.094509155 0.089937136
0.07603483 0.047504812 0.08732188 -0.10251002 0.03876269 0.12215617 0.081613794 0.033509687
-0.11827195 0.11838812 -0.07183464 -0.09912117 0.09434812 -0.052059487 0.04769762 0.03788577
0.010921791 -0.045271084 -0.10343398 0.12095538 -0.016146734 0.06182453 -0.024830401 0.11602168
0.103963226 -0.07811932 -0.12052645 0.034886345 -0.009425536 -0.02181767 -0.12315288 -0.09520942
0.054510206 -0.013940781 0.095344365 0.07157417 0.046865344 0.020214915 -0.020744637 0.0204359
0.09030457 -0.037425146 0.06276348 0.07593283 0.085754424 -0.003007695 -0.10925077 0.054074943
0.12003927 0.019124791 -0.047037944 0.0062987953 -0.04449065 -0.0047605634 -0.06831531 -0.03906238
0.035863712 -0.020403177 -0.07982069 -0.06808221 0.024407327 -0.08916354 0.097904295 0.08319639
-0.008596018 0.05303788 -0.0790337 0.08667514 -0.06043899 -0.11556941 -0.055516303 0.070264935
-0.03175597 -0.00755772 -0.08008659 0.075812355 -0.123395056 0.035371795 -0.113339216 0.08593795
0.036074966 -0.0587029 0.003116846 -0.026199058 -0.058345765 0.10942617 -0.10953143 -0.007835388
0.11132103 0.027757466 -0.10250929 -0.109727144 0.006608546 0.046119615 -0.04573056 -0.08610521
0.0019403249 0.0358672 -0.10136476 -0.09186567 0.017764926 -0.080696076 -0.028668359 -0.056228444
0.06199874 0.09111193 -0.12174462 0.11964612 0.11698486 -0.11165273 0.079869494 -0.032285094
-0.037735626 0.06451696 0.07672463 -0.016776934 0.122696295 -0.1064823 -0.026864812 -0.060408384
-0.109726876 0.12463212 -0.09144989 -0.08874783 -0.090840906 0.06981388 -0.09892553 0.024035156
0.09114279 0.039981857 -0.029892802 -0.0809309 0.10096422 -0.055679306 -0.025997818 0.0798495
-0.058491245 0.08375488 -0.115570486 0.07122977 0.060371473 0.03087908 0.020154595 -0.0026038438
0.03317128 -0.07926443 -0.0968841 -0.07242809 -0.058182612 0.060762987 -0.09345868 0.022324905
-0.015727803 -0.016988322 0.022311449 -0.02521415 0.075103655 -0.034029573 -0.092093796 0.015399814

tgnn._base_tgcn.linear_r.bias f4 [32]
00000000: 1c8a 973d 4e00 d0bd 9435 7abd b0a5 4d3d
00000010: f215 883d 0060 6ebc e4de 8b3d f05d 193c
00000020: c0bf 1abb d44e f9bd 780b f2bd 3cce df3d
00000030: 08e4 543d 3eb9 edbd 54b4 703d 1c26 37bd
00000040: b067 193d 723e 8a3d 587a 083d f0b9 9cbc
00000050: ae30 b5bd d841 393d 3077 57bd ecb9 d9bd
00000060: feda d5bd 2c38 673d fc8f fe3d 00b3 7e3a
00000070: 2a6b ca3d b09b 133d b64d 843d 2240 8d3d
0.07399389 -0.10156308 -0.061086252 0.05020684 0.06644811 -0.014549255 0.068296224 0.009360775
-0.0023612827 -0.121732384 -0.11818594 0.10928008 0.05197528 -0.11607598 0.058765724 -0.04471408
0.0374524 0.06750192 0.0333198 -0.01913163 -0.088471755 0.04522881 -0.0526039 -0.10631165
-0.1044216 0.056450054 0.124298066 0.0009716004 0.09883721 0.036037147 0.06460135 0.06896998

tgnn._base_tgcn.conv_h.bias f4 [32]
00000000: f080 7c3e c74b 353d f675 05be d6b5 5ebd
00000010: dd0f c33d 1f15 acbe 105d 323e ad47 373e
00000020: 69c8 b03e 7055 3ebc 1623 25be afac ec3d
00000030: 1cc2 8ebe 789a 273b 204e df3d 3832 9cbe
00000040: 997f c2ba 5061 4fbe 1889 213e 8453 bcbd
00000050: de8c b93d 3824 ae3e b81e f93c 0813 f03c
00000060: 58d8 0abe b335 0e3e ce96 fcbd 25e5 2e3e
00000070: 92c4 a13e e630 9a3e 87d6 0abe 13d4 c3bb
0.24658561 0.04426172 -0.1303328 -0.05437263 0.0952451 -0.33609864 0.17418313 0.17898436
0.345279 -0.01161705 -0.16126665 0.11556374 -0.2788247 0.0025574248 0.10903573 -0.30507064
-0.0014839052 -0.20251966 0.15774953 -0.09195617 0.090600714 0.34012008 0.030410156 0.02930595
-0.13559091 0.13887672 -0.12333451 0.17079599 0.31595284 0.30115432 -0.13558398 -0.005976209

tgnn._base_tgcn.conv_h.lin.weight f4 [32, 3]
00000000: 0046 503e 1d90 28bf 1222 003f 359a cbbe
00000010: 26a2 46bf 6206 0c3f 7728 a3be e2de 4dbe
00000020: 2c50 a63f d242 83bc f4e6 463f 7c26 13bf
00000030: ad37 7d3e f56b 033f f9a1 72bf d47f b13e
00000040: ff08 de3e 001a 123e c598 e9be 801a 16bf
00000050: ba04 3d3e 8d32 d7be c3ca cabe c1fc b93e
00000060: 5f14 283e fcb0 ff3e ccf1 3abf 5b45 ccbc
00000070: 4104 51bf 378d 463f 69eb 163f e71c d93e
00000080: 3659 fdbe 00b1 00bf 5736 43bf 62ed 5dbd
00000090: 25dd 94bd 43fc 2a3f 4ae1 753e 665e 1d3f
000000a0: ae74 4c3f 8121 d4be 4a83 f53d b90f 11bf
000000b0: 45b7 483f 8e89 7cbe e5b2 6ebe b5f4 d3be
000000c0: e566 14bf 8e34 d8bd 2e2b 673f bb98 07bf
000000d0: 0573 16bf 360b 7d3e 1f15 bdbd 1a5f 2abf
000000e0: 5be8 023f d68c 4c3e 203d 593f 76a7 843e
000000f0: e354 71be 136c 39bf d73e 4fbe d8fc 843e
00000100: 2046 803d 608e 653e 3188 613f d3e1 143f
00000110: f3e1 df3e 68ab b9be 3f4b 37bf 56d5 5c3f
00000120: 0870 9b3e b9d6 ff3e 3b75 f8be d666 f73d
00000130: 6030 ffbe 6b26 183f 7b29 a3be f980 41bf
00000140: feb4 813d 8e0e 9ebe d003 87be 4f39 fc3e
00000150: 5e9a 3e3d 5f1e cabe ef59 fd3e 6799 86be
00000160: 0c70 f23e b8ab ef3e 5489 023f c911 e63e
00000170: 7eba 1fbf 0191 cbbd 6a86 57bf f181 353f
0.20339203 -0.658449 0.5005199 -0.39766088 -0.7759117 0.5469724 -0.3186681 -0.20104554
1.2993217 -0.016023073 0.77696157 -0.574806 0.2472827 0.51336604 -0.947784 0.34667838
0.43366238 0.1426773 -0.45624366 -0.58634186 0.18458834 -0.42030755 -0.3960782 0.36325648
0.16414021 0.49939716 -0.730252 -0.024935415 -0.81647116 0.77559227 0.5895296 0.42404863
-0.49482125 -0.5027008 -0.7625479 -0.054181464 -0.072687425 0.6679117 0.24011722 0.61472166
0.7986554 -0.4143181 0.11987932 -0.56664616 0.7840465 -0.24661848 -0.2331043 -0.41397634
-0.57969505 -0.10556899 0.9030026 -0.52967423 -0.58769256 0.24711308 -0.09232544 -0.66551363
0.51135796 0.199756 0.84858894 0.25909013 -0.23567538 -0.72430533 -0.20238815 0.25974154
0.06263375 0.22417593 0.88098437 0.5815708 0.43727073 -0.36263585 -0.7159919 0.86263025
0.3035891 0.49968508 -0.4852694 0.12080161 -0.49841595 0.5943362 -0.31867585 -0.7558742
0.0633335 -0.3087048 -0.26370096 0.49262473 0.046533935 -0.39476296 0.49482676 -0.26288912
0.4735111 0.46810699 0.50990796 0.44935444 -0.6239394 -0.09939767 -0.84189475 0.709014

tgnn._base_tgcn.linear_h.weight f4 [32, 64]
00000000: ea2c c3be 10da e7be 03e0 c6be 141c 443f
00000010: 9fc3 173f 0a8e e23e 7286 2abf ab9b 2dbf
00000020: f25d bb3e 66d7 10bf 56c7 163f 4d60 30bf
00000030: 6432 993e 567c 133f 6c35 efbe 7e40 8abe
00000040: 5ac0 00bf 04c2 cebe 74ee 22bf f2c0 423f
00000050: fe60 08bf 75cc da3d c125 c53e a3a8 2bbf
00000060: 3731 1a3f 39b5 99be d767 0bbf b6ae fabe
00000070: ce98 f8bd 3440 493e a100 f83e 4dd1 f9be
00000080: 0ee0 84bd 6a56 b33d 129d a43d acf0 7fbd
00000090: 7ca2 1cbd 9ea3 9cbd 569c ec3d 4853 60bd
000000a0: 0058 793d 2451 12bd 7e2b c83d 381a d33d
000000b0: 8a11 c53d 286d 983c 50c9 473d 5891 c03c
000000c0: 087b dabc d857 57bd a0c0 eb3b 02f3 9cbd
000000d0: 4411 b8bd b2cb aebd 4c60 6e3d d0ae 1fbc
000000e0: 248c e63d fc9e 973d c48b 593d ac7e 19bd
000000f0: 02fd ccbd 9087 eb3d 8037 203b 86b2 e0bd
00000100: de49 1b3f 3bbe 7d3e fcfc 7a3e b090 83bf
00000110: 9d38 b6be cd84 4fbd db67 0e3e ae09 3d3e
00000120: f851 5cbd 00a1 353f 0f07 babd b758 b93d
00000130: fb4b 9fbe e4bc 41be 7929 4a3f 2393 27be
00000140: a6b6 543d f578 c13d 81e7 813f faf2 77be
00000150: d30f 9c3d 4ad7 f23d 42a9 dd3d d29f 803e
00000160: c45b b9be ea32 2f3f a3e5 113e 9fab c23e
00000170: ec4a 973e 0b12 a3bd 11aa 9cbe ee1f 293f
00000180: 3a4c b6bd 40ed 54bc b64b f5bd e022 ac3c
00000190: e8b9 86bd f8af 643d da34 a6bd 3c68 80bd
000001a0: 00bc d23b 6073 de3b bc88 b83d 002f acba
000001b0: 9052 3e3d dcc0 a33d 682a abbd 04bf 9e3d
000001c0: 9cd9 56bd c097 6a3c 4826 d63c 6019 c23c
000001d0: 50ce ee3c d45e 3a3d 5480 a8bd d0bb 003d
000001e0: 289a 92bc 68cc 963d c27b 90bd b0f8 213d
000001f0: 548e 5a3d ec03 54bd 6a10 a9bd 5a04 bb3d
00000200: a4d3 e53d f6ae a73d 365a c5bd e46f 3d3d
00000210: 8c63 cdbd a8b3 88bc 7ced d2bd 8896 883d
00000220: 1afb 9c3d 94c6 a33d d48d 6bbd 222b f03d
00000230: 82bb b63d c099 843c 62f1 bdbd 3088 923d
00000240: d0f8 153d 9079 0f3c aa71 fabd ba4e 97bd
00000250: 903e 73bc ee13 eabd b4cb b43d 5888 c7bc
00000260: 889d 9abc e8c4 2d3d 70e4 563d 4c92 9ebd
00000270: 98d4 9c3c d449 73bd 069d d8bd 28f2 fc3d
00000280: 5805 fb3c 704e aebd b894 8dbd 0cd7 0f3d
00000290: 5a35 eebd 509d 2fbd c440 a93d 04d3 9bbd
000002a0: f430 d23d 9c2b 283d 7aeb d3bd 38ab 573d
000002b0: 76fe f33d 74dd 4a3d 586c d23d 0062 d3ba
000002c0: 729e c0bd e487 243d a069 033d 78d5 593d
000002d0: 2861 a1bc 04a4 80bd 44bf 133d a445 c0bd
000002e0: f01a d43d 5460 54bd 44ff ffbd da2b 903d
000002f0: 2076 d13b 20f0 23bd 6408 39bd 22f0 a7bd
00000300: 41aa 493e 3d48 8a3d f4bb c93e 17fe 4abd
00000310: ab7b b5bd 56a1 67bd a5e8 253e 1df5 883e
00000320: b7b6 063e e095 423d 55ff 25be 05f7 c7bd
00000330: d791 f0bd bd78 a93c 78db dc3e 7a18 9cbe
00000340: e781 823e 2ff7 0bbe 9751 c23d fa03 8fbc
00000350: 6d3b 823c 7d4d 6e3e e6e1 0d3c 693f de3d
00000360: ffae ddbd 3cef 863e 7c2f 04be f0a4 b73e
00000370: e8b7 bc3e a010 bc3e 3e7a 8bbe c6c2 49bd
00000380: 40cd 96bc 1642 ab3d 4ca1 4b3d 242a f23d
00000390: 0414 28bd 48cf 6ebd 58ed a8bc ea4c ce3d
000003a0: f616 cc3d 9cbb 83bd 5007 f03d 8257 993d
000003b0: 0829 453d 3031 65bc 024d b53d 3443 8e3d
000003c0: 0690 9c3d 4c42 163d 4806 d8bc 3287 813d
000003d0: b873 b5bd 60e3 8a3b 14aa b3bd 402f a23c
000003e0: ee2e d53d 2428 ebbd 9c7d 05bd 7685 e0bd
000003f0: 9c9e c7bd 0870 913d 0077 183b b059 6d3c
-0.38120204 -0.45283556 -0.38842782 0.76605344 0.5928287 0.44248992 -0.666114 -0.67815655
0.36595112 -0.5657867 0.5889791 -0.68896943 0.29921257 0.57611597 -0.46720445 -0.2700233
-0.50293505 -0.40382397 -0.636451 0.7607566 -0.53273 0.10683528 0.38505366 -0.67054194
0.60231346 -0.30021074 -0.5445532 -0.4896142 -0.1213852 0.19653398 0.4843798 -0.48792496
-0.064880475 0.087567165 0.08037771 -0.062485382 -0.038240895 -0.07648395 0.11553256 -0.054766923
0.06087494 -0.035721913 0.097739205 0.10307735 0.09622486 0.018606737 0.04877597 0.023506805
-0.026669994 -0.05257401 0.0071945935 -0.076635376 -0.08987668 -0.085349455 0.058197305 -0.009746268
0.112571985 0.07403371 0.053111807 -0.03747432 -0.10009195 0.11500466 0.0024447143 -0.10971551
0.6065959 0.24779598 0.24510568 -1.027853 -0.35590068 -0.050663758 0.13906805 0.18460724
-0.05378911 0.7094879 -0.090833776 0.09050124 -0.31112656 -0.18919712 0.7896953 -0.16364722
0.051932 0.09446899 1.0148774 -0.24213782 0.07620206 0.118574694 0.10823299 0.25121933
-0.36202824 0.68437064 0.14247756 0.38021562 0.29549348 -0.07962426 -0.305985 0.66064346
-0.08901258 -0.012996018 -0.11977331 0.021012723 -0.065784276 0.05583188 -0.081155494 -0.06269881
0.0064311028 0.006788656 0.09010455 -0.0013136566 0.046465456 0.079957694 -0.08357698 0.07751277
-0.052453622 0.014318407 0.0261413 0.02369374 0.029151112 0.04550059 -0.08227602 0.031429112
-0.017895773 0.07363206 -0.07054855 0.039543808 0.05335839 -0.051761553 -0.08255084 0.09131689
0.11222008 0.08187668 -0.09636347 0.046249285 -0.10028753 -0.01668723 -0.10299203 0.066693366
0.07665081 0.0799686 -0.057508305 0.11726977 0.08922483 0.016186595 -0.09274556 0.07154882
0.03661424 0.00875701 -0.12228711 -0.07388063 -0.014846459 -0.114295825 0.08827916 -0.024357006
-0.018873945 0.042424113 0.05246395 -0.07742748 0.019144341 -0.05939658 -0.10576825 0.12350875
0.030642197 -0.085110545 -0.069131315 0.035117194 -0.1163127 -0.042874634 0.08264306 -0.076086074
0.10263243 0.041057214 -0.10347648 0.05265352 0.11913769 0.0495276 0.10274571 -0.0016127229
-0.09405221 0.040168658 0.032083154 0.053182095 -0.019699648 -0.062812835 0.036071077 -0.09388283
0.103567004 -0.05184968 -0.1249986 0.07039614 0.0063922554 -0.040023923 -0.045174018 -0.082000986
0.19693853 0.067520596 0.3940121 -0.049558725 -0.088614784 -0.056550346 0.16202028 0.26749507
0.13155638 0.047506213 -0.16210683 -0.09763912 -0.11746567 0.020687455 0.4313619 -0.30487424
0.25489733 -0.13668512 0.09488218 -0.01745795 0.015897477 0.23271747 0.008659815 0.10851938
-0.108243935 0.26354396 -0.12908739 0.35868025 0.3685906 0.36731434 -0.272417 -0.049258016
-0.018408418 0.08362214 0.04971437 0.11824444 -0.041034713 -0.058303148 -0.020620987 0.10073264
0.09965317 -0.06432268 0.11720145 0.07487394 0.048134834 -0.013988778 0.08852579 0.06946412
0.07644658 0.03668432 -0.026370183 0.063246146 -0.08859962 0.004238531 -0.08772674 0.019797921
0.10409342 -0.114822656 -0.032590494 -0.10962956 -0.09747049 0.071014464 0.002326429 0.014486715

tgnn._base_tgcn.linear_h.bias f4 [32]
00000000: d7e4 da3d 2eb0 3f3e 327e b6bd fc12 a53d
00000010: 809b 063e 4a81 c23e ae8a 43bd 037f d9bd
00000020: 4c5e e73d d311 de3e 1e80 0c3e da05 f33d
00000030: 7669 2c3e d8cb 8f3e b13c cfbc 0953 01be
00000040: a8ab aabd 7881 e0bc 27cc a03d 4bd7 a43e
00000050: 6873 ae3e 10e8 b0be 44d8 dd3d 1e67 243e
00000060: 95f6 f63d 43e3 e23e d07f ea3e 4dba d73e
00000070: 42c5 513e d70a de3d 9741 63bb 250a 4e3e
0.10688179 0.18719551 -0.089107886 0.080602616 0.13145256 0.37989265 -0.047739677 -0.10619929
0.112972826 0.43372974 0.13720748 0.118663505 0.16837105 0.28085208 -0.025297495 -0.12629332
-0.08333522 -0.027405486 0.07851439 0.32195505 0.34072423 -0.3455205 0.10832265 0.16054961
0.120587505 0.44314012 0.45800638 0.42134324 0.20485404 0.10841911 -0.0034676546 0.20121057

linear.weight f4 [16, 32]
00000000: 9f14 853e f0d2 cbbe 1f32 e4bd 10fd 883e
00000010: af4a 923e 75e0 02bf 1100 323e 801f 54bd
00000020: 083e 9c3e 5c4f 17bf bd35 8d3e 8270 9d3e
00000030: 7d43 d43e fbbb 0cbe c60f 623d ba55 bc3d
00000040: c0ce 8b3c debc e9bd 17e1 d23e ff49 24be
00000050: acb6 97be c36c fcbe 39fa bb3e 7720 113e
00000060: 3fb0 e4be 14bc eabe 0011 e4be 0f2c d8be
00000070: 9494 d4be 7919 813e a8d7 a43d dfab 9cbb
00000080: 6594 033e 9a5e f3be 5c3b 2f3d 2e47 1a3e
00000090: a8d4 683e 4545 eebe 76a2 523e 8e46 30bd
000000a0: f714 d93e 6fe0 fbbe f7dc d03e c8af 3e3e
000000b0: f40f a83e 4f39 20be 2d73 e6bd b594 f03d
000000c0: 9c5a 153d 4839 62bd b83d d83e 1de2 6cbe
000000d0: 0b3a c4be 8828 f3be 4974 3b3e 0a79 e53e
000000e0: 324a 9bbe ab9e fbbe 8122 c0be 6173 e5be
000000f0: b7ab 13bf 0e80 853e 4962 063e 76c8 593e
00000100: a0da d83e c43b e7be 30ae ecbd 9247 4c3e
00000110: 40ca 473e b0a1 bbbe e71b f33e b3f8 d6bd
00000120: 682f 563e 8639 01bf 83f3 3f3e 498d c03e
00000130: ffd9 6e3e 759b 5cbe aeed 193d a694 6f3d
00000140: 46b9 0ebe d608 15be 009d 2a3e efc6 d1be
00000150: 33c0 e7be 26d2 1abf fb63 c03e b30f 8d3e
00000160: d402 43bf 6944 acbe 0cae d1be e76b 09bf
00000170: c94e cabe d834 d93e 4bea c73a 6c88 aa3d
00000180: c85b 9b3e 0a97 21bf 605b 013c f13f 8b3e
00000190: f37a 9a3e 273e 79be 5db8 2d3e 3792 333d
000001a0: 7fb6 6b3e 68dc 17bf 6254 a93e f2a2 563e
000001b0: 0ab6 993e d4ca 9abe 791e 3e3d e6dc 0fbe
000001c0: e924 343e 2a0c fd3d 8c81 8c3e 7c7c b3be
000001d0: 4b25 b8be 09be 4cbf 34de ef3e 2081 e83e
000001e0: 4438 2cbf aa64 d2be 0bb3 0abf 7622 08bf
000001f0: 81d5 07bf 9331 0e3e 628b 36bd ed7e 833e
00000200: 9380 843e 945b 29bf c01f 6cbd bf49 24be
00000210: 85f2 763e 1810 d1be 179b ac3e 58e9 b23d
00000220: 3618 d83e 8c27 02bf d61a e83e 4370 953e
00000230: d707 9a3e cf89 35bd 095c 923b 754e c2bd
00000240: 01f5 323e 0abe d63d 773c 9a3e f94e 66be
00000250: 3cfb a2be 5349 3abf 35d9 103e 73c5 e33e
00000260: 46fd 34bf 6dde 0ebf 74ed f4be 9002 ecbe
00000270: bd29 21bf 3a73 fc3d 1013 da3b 094e bf3e
00000280: 1675 f33e 944d 3cbf 25c4 2a3e 2a57 cd3c
00000290: 85e4 863e 3d03 1fbf 2812 e23e dfe6 18bd
000002a0: 416d 433e 748e ffbe 5a40 283e c9b3 9f3e
000002b0: bc14 f13e ac14 1dbe 5899 1ebc ab83 df3d
000002c0: d9c9 bfbd 10c1 09be 790d 303e 510b 61be
000002d0: 52e0 dbbe 3437 38bf f42c f63e 242b 1e3e
000002e0: 67b4 27bf 469c fabe 73b6 ccbe 69dd bcbe
000002f0: 2bad 5fbf 8ab6 b63e 819d 8f3d b18d 973e
00000300: fe4f 813e 5e6a 24bf 8220 fc3d 4c76 6cbe
00000310: 2f71 d63e da09 cbbe 5257 ad3e c0a3 4a3d
00000320: fb77 e43e b3e6 d8be fb94 723e 5f51 cf3e
00000330: b361 b33e 9097 b8be b895 cfbd 4419 2abd
00000340: 2aea d4bd 722b a63d cf84 a73e 4722 a6be
00000350: 63c3 4fbe ad73 3cbf 88dd 353e 9a2d 1f3e
00000360: 3b3c 7cbf d9be c0be f415 0abf 4428 f7be
00000370: 6964 52bf 8168 673e 92a3 193d 65ea ef3e
00000380: 3bd0 c13e 699a 78bf 30ba cfbc 2bf3 bdbe
00000390: b5c9 783e 6676 fdbe 1b35 dd3e a21f 7abd
000003a0: daec c23e c9bd d9be bfa6 de3e b591 483e
000003b0: e91a ac3e 3f5a d9be 7554 293c 61b4 b7bd
000003c0: 587e 8dbc 3805 b2bc 22fa 523e 237f adbe
000003d0: bbfb 82be f6ef 4fbf f75c c93e 90a5 d33e
000003e0: 433a 3ebf b289 cabe 8ea8 abbe 00e5 89be
000003f0: 62d6 5dbf d89e bc3d fd65 af3c 4a47 7e3e
0.25992295 -0.3980937 -0.11142372 0.2675557 0.28572604 -0.51123744 0.17382838 -0.051787853
0.30516076 -0.5910547 0.27580062 0.307499 0.4145774 -0.13743584 0.055190824 0.091960385
0.01706636 -0.11412977 0.41187355 -0.16043852 -0.29631555 -0.4930173 0.36714342 0.1417254
-0.44665715 -0.45846617 -0.4454422 -0.42221114 -0.41519606 0.25214747 0.08048946 -0.004781231
0.12849577 -0.47533113 0.04278122 0.15066215 0.22737372 -0.46537223 0.20569786 -0.043036036
0.42398807 -0.49194667 0.40793583 0.18621743 0.3282467 -0.15646861 -0.11252437 0.117471136
0.036463365 -0.05523041 0.42234588 -0.2313313 -0.38325533 -0.4749186 0.18306078 0.44818908
-0.30330044 -0.49144492 -0.37526324 -0.4481459 -0.5768389 0.2607426 0.1312343 0.21267876
0.42354298 -0.45162785 -0.11556661 0.19949177 0.19510746 -0.36646795 0.47482225 -0.10496654
0.20916522 -0.504784 0.18745236 0.37607792 0.23325346 -0.21543677 0.037580185 0.05849137
-0.13937864 -0.14554152 0.16661453 -0.40972087 -0.45263824 -0.6047691 0.3757628 0.2755104
-0.7617619 -0.33645943 -0.409531 -0.5368027 -0.39513233 0.4242313 0.001525232 0.08326802
0.3034346 -0.6312109 0.007895321 0.2719722 0.30171928 -0.24340115 0.1696486 0.043840613
0.23018835 -0.5932069 0.3307219 0.20960596 0.30021697 -0.3023287 0.04641578 -0.1404911
0.17592205 0.12355836 0.27442586 -0.35055912 -0.35965952 -0.7997747 0.46849215 0.45411015
-0.67273355 -0.41092426 -0.5417945 -0.53177583 -0.53060156 0.13886099 -0.04456652 0.25682774
0.25879344 -0.6615536 -0.057647467 -0.16043757 0.24115951 -0.4083259 0.33712074 0.08735913
0.4220597 -0.50841594 0.45332974 0.2918721 0.30084106 -0.044320878 0.004466538 -0.09487621
0.17476274 0.10485466 0.30124256 -0.22491063 -0.31832302 -0.72768134 0.14145358 0.4448658
-0.70698965 -0.55808145 -0.47837412 -0.46095705 -0.6295431 0.12326665 0.0066551045 0.37364224
0.47550267 -0.73555875 0.16676386 0.025065977 0.26346222 -0.62114316 0.44154477 -0.03732955
0.19084646 -0.4991337 0.16430798 0.31191853 0.47086132 -0.15339917 -0.009680115 0.109137855
-0.09364671 -0.13452554 0.1719264 -0.21976973 -0.4294458 -0.71959233 0.48081172 0.15446144
-0.6550965 -0.48947352 -0.39982948 -0.36887673 -0.8737361 0.3568614 0.07012463 0.2960029
0.25256342 -0.64224803 0.12310888 -0.23092002 0.41883227 -0.39655954 0.33855683 0.04947257
0.44622788 -0.4236351 0.23689644 0.4049177 0.35035476 -0.36053133 -0.101359785 -0.041528
-0.10396226 0.08113755 0.32718512 -0.32448027 -0.20289378 -0.7361401 0.17760289 0.1554474
-0.98529404 -0.37645605 -0.5393975 -0.48272908 -0.82184464 0.22598459 0.03750951 0.46858516
0.3785418 -0.9711061 -0.025357336 -0.37099585 0.24295695 -0.49504393 0.4320458 -0.061065324
0.38071328 -0.42527607 0.43486592 0.19586833 0.3361428 -0.42451665 0.0103350775 -0.089699514
-0.01727216 -0.021731004 0.2060323 -0.3388606 -0.2558268 -0.81225526 0.3932874 0.41337252
-0.7430765 -0.39558178 -0.33527035 -0.26932526 -0.8665525 0.092099845 0.021410936 0.24831882

linear.bias f4 [16]
00000000: 9d34 2e3d 5c85 b4bd eacf 093c 3d11 4b3d
00000010: 6a67 a2bd 39f6 e0bd aa04 f9bd 527c 93bd
00000020: 627b 11be bab9 b2bc 31ca 09bd 37d3 c2bb
00000030: 069f a2bd 06af 6a3d 3f5c b23d 1582 d8bc
0.042530645 -0.08814499 0.008411387 0.049576987 -0.07929881 -0.10984463 -0.12159093 -0.072014466
-0.14207223 -0.021817077 -0.03364009 -0.005945589 -0.079404876 0.05729582 0.08709001 -0.026429215

linear2.weight f4 [6, 21]
00000000: c03b 053f 5280 163f 9e9d 783e 887a 933c
00000010: 4df7 8dbe 830c d33e 5650 d8be c9db 74bd
00000020: df84 5abd c993 b93e a757 a0be b506 46be
00000030: 3b7c e03c 7fac da3d 1e1b 843d eebf 54be
00000040: 262a 543c 599d b23d 620f 14bd e37d d4bd
00000050: 92d7 953c 458a 06bd 1901 c83d 8d15 4bbd
00000060: 8374 ae3e 1cb5 b33d f2a6 173e ddc5 483e
00000070: 8ffc 0e3e 2f54 8a3e 0824 edbd de52 2c3e
00000080: 97b3 1a3d 6e50 753e a333 9ebd a0e5 b03b
00000090: 8770 12be 79d8 dd3d bfbf 83be 5d10 2ebe
000000a0: 2239 2e3d 6a67 473e 3eac 003d 3514 e03c
000000b0: 6283 15bd 5956 423d fec7 e9bd 70bf 5fbe
000000c0: 41df 09bd 8677 babd 5902 003d 3adf 503c
000000d0: a5c8 96be 85fb dfbd ac1e 443e 1492 eabe
000000e0: 172b 333d a048 023e 685a 863e 7480 63bd
000000f0: 4d30 4abd fea8 2dbd ae89 613d 9674 26be
00000100: 9879 a9bd 0bc2 c2be f21e 9abe a959 973d
00000110: b26c e8bd 4bd7 923e a70c 0cbe 2995 4b3e
00000120: f58f 1b3e fc30 543e 8434 f73d 7985 413e
00000130: 155d 7bbd c68a 083e 7ac6 b63e 5e77 1c3e
00000140: 320c d73d e28b 0c3e ed3c 063e 8603 633e
00000150: 3499 0fbe c892 f9bd 6ce0 8f3d 800c a23e
00000160: 3ee0 5e3e 5592 90bd 05d9 ff3d c558 1c3e
00000170: 4684 dfbc 039e 6fbd 7018 673d e9d4 69be
00000180: 828a 39be 26cb 0f3d 8bb4 2b3e e014 6fbc
00000190: 1e9f acbe 497a 3f3e 9889 633e a275 663e
000001a0: 3049 323b 5450 19be d3a8 a8be 5ac8 93be
000001b0: 54f0 adbd f214 bb3c 9e75 3e3d 60a0 303e
000001c0: 3fa0 b7bd 7990 1ebd 87d4 133e 8039 93bb
000001d0: 5b11 6ebd 55a8 563e 9f95 83be aaf9 523e
000001e0: eb60 6c3e 63d7 833e bbaf 493e 7097 d9bd
000001f0: 732c 9b3e e1f5 8a3e
0.52044296 0.5878955 0.24278876 0.018002763 -0.27727738 0.41220483 -0.4224879 -0.059779916
-0.053349372 0.36245564 -0.31316873 -0.19338496 0.027402988 0.10677432 0.06450485 -0.2077634
0.012949502 0.08721418 -0.036147483 -0.103755735 0.018291268 -0.032846708 0.09765834 -0.0495811
0.34073266 0.08774778 0.14809778 0.19606729 0.13963531 0.27017352 -0.11579138 0.16828486
0.037768926 0.23956463 -0.07724693 0.005398467 -0.14300738 0.108323045 -0.25732228 -0.1699843
0.042534955 0.19473043 0.031414263 0.027353385 -0.03650225 0.04744563 -0.114150986 -0.21850371
-0.033660177 -0.091048285 0.03125224 0.012748534 -0.29449955 -0.109366454 0.19152325 -0.45814574
0.043742266 0.12723017 0.2624085 -0.055542424 -0.04936247 -0.04239749 0.055062942 -0.16255412
-0.08275145 -0.38038668 -0.30101734 0.07390148 -0.11348857 0.2867988 -0.13676701 0.19881119
0.15191634 0.20721811 0.120705634 0.18898572 -0.061368067 0.13334188 0.356983 0.1527991
0.10500373 0.13725236 0.13109179 0.22169313 -0.14023286 -0.121861994 0.07025227 0.31650162
0.21765229 -0.070591606 0.12492565 0.15268238 -0.027284753 -0.0585003 0.05641979 -0.22835125
-0.18119243 0.035105847 0.1676809 -0.014592379 -0.33715147 0.18698992 0.22220457 0.22505811
0.0027204268 -0.14972049 -0.32941303 -0.28863794 -0.084931046 0.022837136 0.046498887 0.17248678
-0.089661114 -0.038712 0.14436541 -0.0044929385 -0.05812202 0.20962651 -0.2570009 0.20603052
0.23083846 0.25750265 0.19695942 -0.106245875 0.3030735 0.27140716

linear2.bias f4 [6]
00000000: 8c03 7dbd 149b 2c3e 62c2 8dbd 4265 ccbd
00000010: 40f3 f73e dae8 3abf
-0.06177096 0.16856033 -0.06921841 -0.09980251 0.48427773 -0.73011553
