A3TGCN2_Checkpoints/Epoch_21.pth (torch, 35255 bytes, 17 tensors)

tgnn._attention f4 [16]
1.3594205 0.9131403 0.57079405 -0.073294535 0.24888417 -0.1587769 -0.19906807 0.35895088
0.16914414 0.100405715 0.2890017 0.47761482 0.42382565 0.71773416 0.8830373 1.3253579
00000000: 7e01 ae3f 90c3 693f 8f1f 123f 721b 96bd
00000010: 7edb 7e3e 6996 22be 80d8 4bbe 69c8 b73e
00000020: 1f34 2d3e 83a1 cd3d 08f8 933e ee89 f43e
00000030: adff d83e 6dbd 373f bc0e 623f 54a5 a93f

tgnn._base_tgcn.conv_z.bias f4 [32]
0.49839854 0.49097693 0.07375608 -0.053957377 -0.036640927 -0.36584508 -0.45083842 -0.49801123
0.55896837 0.53997374 -0.56282943 -0.5332857 0.03532915 0.05614373 0.4924076 0.4769781
-0.52556425 0.55753666 0.3015172 0.55744153 0.52335125 -0.508308 -0.53087366 0.4810906
-0.4232769 -0.46277958 -0.4292784 0.42770272 0.41134542 -0.2954753 0.3266883 0.50920725
00000000: 182e ff3e 5461 fb3e 6d0d 973d 6902 5dbd
00000010: cc14 16bd 0c50 bbbe 4bd4 e6be 54fb febe
00000020: 8d18 0f3f b83b 0a3f 9715 10bf 6985 08bf
00000030: 4cb5 103d f8f6 653d d91c fc3e 7936 f43e
00000040: 618b 06bf b9ba 0e3f 7660 9a3e 7db4 0e3f
00000050: 59fa 053f 7920 02bf 56e7 07bf 8251 f63e
00000060: c0b7 d8be 72f1 ecbe 61ca dbbe dafb da3e
00000070: de9b d23e 8a48 97be b043 a73e 685b 023f

tgnn._base_tgcn.conv_z.lin.weight f4 [32, 3]
-0.20561342 -0.39861873 -1.4068037 0.2328339 -0.53177977 -0.8457006 -0.48127314 0.26483724
-0.55773014 -0.23014033 0.74149674 1.2152293 0.36788628 -0.4068269 0.06937548 -0.12402677
0.5539993 1.4689631 -0.364764 -0.047614414 -0.067999996 -0.04365825 0.33735445 1.0132682
0.18685415 -0.54758734 -1.0830868 0.3115076 -0.84766483 -1.1348857 0.14666235 0.53741693
0.76890105 -0.35854393 0.55896115 0.6873541 -0.16586134 0.48126036 -0.15097217 -0.78449297
0.057273123 0.27949005 0.28795364 -0.5118789 -0.95437086 -0.015973631 -0.3393332 -1.5152276
-0.11667022 0.46724683 0.774125 0.12370717 -0.69199365 -1.509822 -0.40904087 -0.18224756
-0.07668479 -0.12927727 -0.50989693 -1.4601349 0.33209723 -0.4857204 -0.8037283 -0.10277493
0.39992967 0.48865512 -0.2469085 0.8036814 1.3567054 0.11534454 -0.2878138 -1.4254264
0.22045724 0.1892462 1.137627 0.15168084 0.14231855 1.1121349 0.4836962 0.31277508
0.66115606 -0.47472712 -0.39689377 -0.5717253 0.105707705 -0.12856954 -0.8595503 0.7362156
1.0000793 1.1073343 -0.06282937 -1.2825686 -0.9220639 -0.0077409362 -0.5305558 -1.1502602
00000000: 538c 52be c117 ccbe 2512 b4bf 036c 6e3e
00000010: b822 08bf d67f 58bf 6f69 f6be bf98 873e
00000020: 67c7 0ebf e8a9 6bbe bbd2 3d3f a28c 9b3f
00000030: 975b bc3e 9e4b d0be bb14 8e3d bf01 febd
00000040: e6d2 0d3f fc06 bc3f 59c2 babe 5507 43bd
00000050: 9543 8bbd fed2 32bd b9b9 ac3e c6b2 813f
00000060: b256 3f3e af2e 0cbf 97a2 8abf ed7d 9f3e
00000070: 9000 59bf ef43 91bf a82e 163e 2894 093f
00000080: b3d6 443f 1293 b7be 1418 0f3f 70f6 2f3f
00000090: 8ed7 29be c267 f63e 7398 1abe 88d4 48bf
000000a0: 3997 6a3d 5219 8f3e a96e 933e 7f0a 03bf
000000b0: a651 74bf 22db 82bc 15bd adbe faf2 c1bf
000000c0: ccf0 eebd fa3a ef3e 0e2d 463f 2f5a fd3d
000000d0: 7f26 31bf d941 c1bf ce6d d1be 1b9f 3abe
000000e0: ea0c 9dbd 4361 04be 9b88 02bf b3e5 babf
000000f0: a608 aa3e 58b0 f8be 23c1 4dbf aa7b d2bd
00000100: 95c3 cc3e 0131 fa3e 95d5 7cbe 10be 4d3f
00000110: 86a8 ad3f c239 ec3d 555c 93be 5f74 b6bf
00000120: 8bbf 613e c1c9 413e c39d 913f 3952 1b3e
00000130: f4bb 113e 705a 8e3f 07a7 f73e 0e24 a03e
00000140: 8641 293f 6f0f f3be a935 cbbe 975c 12bf
00000150: 487d d83d bca7 03be 7d0b 5cbf a078 3c3f
00000160: 9902 803f 21bd 8d3f afac 80bd 352b a4bf
00000170: 610c 6cbf aea7 fdbb 81d2 07bf ba3b 93bf

tgnn._base_tgcn.linear_z.weight f4 [32, 64]
-0.98198664 -0.68218726 0.09019137 0.7970949 -0.12930897 0.95385367 0.17464326 0.36683208
-0.76850986 -1.1780628 1.3363684 0.5772127 0.01239651 -0.4743903 -0.6839265 -0.72232634
0.768702 -1.2691994 -0.5413573 -1.4239858 -0.4614024 0.64921874 1.2508856 -0.36799386
0.46671042 0.3204632 0.87001497 -1.083101 -0.27409026 0.43714967 -0.73156124 -1.1977444
0.020246342 0.05585386 0.04477328 0.035287514 0.023139253 -0.022408113 0.11468598 -0.018079445
-0.054737613 0.07708734 -0.046232447 0.11530076 0.11062801 -0.083804354 -0.10268128 -0.040863156
0.08063172 -0.10281703 0.06785013 -0.12408477 -0.023813754 -0.032880887 0.013255671 0.10097024
-0.08791071 0.0020627677 0.006105587 -0.05243057 0.008615732 0.09010275 -0.07649019 0.07910547
-0.4517744 -0.30748424 -0.41382998 0.48984143 0.2518838 1.0871736 0.18584283 0.31031534
-0.23988207 -0.49428165 -0.007796241 0.30419433 -0.36695787 0.98519355 -0.38734594 -0.5638188
0.011169883 -0.75577116 0.38570923 -0.54544836 -0.18803136 0.052254528 0.5923572 -0.44353607
0.291415 0.36532888 -0.07843773 0.25965422 -0.14708492 0.26331538 -0.52451307 -0.38476428
0.093658105 0.05391912 -0.07390167 -0.069662586 0.027618676 0.035378426 0.06620745 -0.09150325
0.12043749 -0.024570048 0.043849334 -0.05357112 0.047658175 0.10675146 -0.089991465 0.011300921
0.015317336 -0.018027395 -0.034281567 0.02419296 0.02312699 -0.051177472 0.044286117 0.104240134
0.030525789 -0.06379549 -0.018762544 -0.032129034 0.12478389 -0.064913705 0.07503353 -0.12432723
0.04489264 -0.118017495 -0.013276979 -0.09453888 -0.10209602 0.022381723 0.093163416 0.09084082
-0.053114906 -0.036311343 -0.020940498 -0.0033688247 -0.081808746 -0.0043317676 0.07468517 0.10478647
0.09609833 -0.060765564 0.073355466 0.06644446 0.107522964 -0.032896265 -0.09538354 0.014442787
0.06507723 -0.028276697 0.009666905 -0.017961666 -0.10631283 0.036880836 0.031946033 0.002603352
-0.103888705 0.05001934 0.004877478 -0.11019075 -0.10833873 0.013715833 0.014794603 0.010000929
0.063540414 -0.0005918145 0.11912532 -0.03559117 -0.070905566 -0.087597415 -0.061122417 0.120372415
0.062828586 -0.04591556 -0.08431047 -0.008374155 0.08703378 0.12108922 -0.113912866 -0.058497608
-0.103632584 -0.023029372 -0.017973796 0.11268407 0.12016699 0.11531803 -0.04985313 -0.054382443
-0.85071063 -0.5965875 0.26031822 0.19104269 -0.3861118 1.139163 -0.028155997 0.23406856
-0.5341151 -1.088413 0.8454837 0.39375702 0.535775 -0.39754674 -0.4062312 -0.42671013
0.3973865 -0.9199204 -0.4730212 -0.7851315 -0.46281007 0.4725234 1.3133883 -0.09455635
0.21920346 0.0683228 0.78830004 -1.1894441 0.0067866626 0.91207933 -1.5774316 -0.9187338
0.054764062 -0.0863833 -0.088368 0.05049646 -0.04610756 0.047094464 0.096982315 -0.04505831
-0.018742532 -0.09812556 -0.096838206 0.016707003 0.024006382 -0.09953986 -0.10314228 0.06481597
-0.004865214 0.10605247 0.10647841 0.038697034 -0.015579879 0.04774873 0.08730343 0.11532177
0.09415296 -0.10505602 -0.06537247 -0.11926623 -0.10969284 0.013711423 0.11988363 0.033814043
00000000: 7a63 7bbf d3a3 2ebf 41b6 b83d 690e 4c3f
00000010: 9269 04be c12f 743f afd5 323e 6ad1 bb3e
00000020: 10bd 44bf c3ca 96bf 1f0e ab3f 36c4 133f
00000030: bb1a 4b3c 49e3 f2be cf15 2fbf 61ea 38bf
00000040: a7c9 443f 2075 a2bf 6496 0abf 2b45 b6bf
00000050: ef3c ecbe 3333 263f 051d a03f b169 bcbe
00000060: abf4 ee3e c113 a43e 4db9 5e3f 0ea3 8abf
00000070: 8f55 8cbe 15d2 df3e 9947 3bbf b04f 99bf
00000080: a8db a53c 04c7 643d 3064 373d a489 103d
00000090: 888e bd3c 3891 b7bc 7ce0 ea3d 581b 94bc
000000a0: 8c34 60bd f8df 9d3d 3c5e 3dbd ce22 ec3d
000000b0: f090 e23d 9ea1 abbd 904a d2bd 2060 27bd
000000c0: 3e22 a53d bc91 d2bd 02f5 8a3d 2820 febd
000000d0: 1015 c3bc 1cae 06bd 502e 593c 7cc9 ce3d
000000e0: 880a b4bd 802f 073b 6011 c83b 70c1 56bd
000000f0: 0029 0d3c ca87 b83d e4a6 9cbd 0c02 a23d
00000100: f94e e7be 936e 9dbe 86e1 d3be 7fcc fa3e
00000110: eaf6 803e 8128 8b3f 954d 3e3e a7e1 9e3e
00000120: a5a3 75be 7c12 fdbe 9c77 ffbb 5cbf 9b3e
00000130: e7e1 bbbe a535 7c3f 3552 c6be 6e56 10bf
00000140: e301 373c 387a 41bf ae7b c53e 81a2 0bbf
00000150: 4b8b 40be d808 563d b9a4 173f 2917 e3be
00000160: 5934 953e 630c bb3e f6a3 a0bd 66f1 843e
00000170: 6e9d 16be 46d1 863e 7d46 06bf d3ff c4be
00000180: d2cf bf3d 4cda 5c3d c259 97bd 42ab 8ebd
00000190: 9040 e23c f8e8 103d c697 873d 0e66 bbbd
000001a0: eea7 f63d 2047 c9bc 5c9b 333d 646d 5bbd
000001b0: 3835 433d 82a0 da3d 724d b8bd 8027 393c
000001c0: 90f5 7a3c 30ae 93bc d46a 0cbd 5030 c63c
000001d0: d074 bd3c 789f 51bd 5c65 353d da7b d53d
000001e0: 3811 fa3c 36a7 82bd e8b3 99bc bc99 03bd
000001f0: b28e ff3d 7af1 84bd 2eab 993d 469f febd
00000200: 58e1 373d 28b3 f1bd b087 59bc 9a9d c1bd
00000210: b817 d1bd e059 b73c 76cc be3d c00a ba3d
00000220: 048f 59bd 34bb 14bd 688b abbc 80c7 5cbb
00000230: 588b a7bd 80f1 8dbb 8af4 983d 4a9a d63d
00000240: 34cf c43d 50e5 78bd 643b 963d 0814 883d
00000250: 0035 dc3d 3cbe 06bd 7258 c3bd 70a1 6c3c
00000260: 3647 853d 88a4 e7bc f061 1e3c 5824 93bc
00000270: 8aba d9bd 5c10 173d d8d9 023d 009d 2a3b
00000280: 9ac3 d4bd 14e1 4c3d 40d3 9f3b b0ab e1bd
00000290: b2e0 ddbd 60b8 603c 1065 723c f0da 233c
000002a0: 7a21 823d 0024 1bba faf7 f33d 0cc8 11bd
000002b0: f036 91bd 4666 b3bd 805b 7abd d085 f63d
000002c0: 46ac 803d f411 3cbd f8aa acbd c033 09bc
000002d0: c43e b23d a0fd f73d 264b e9bd 309b 6fbd
000002e0: 523d d4bd 18a8 bcbc c83d 93bc e8c6 e63d
000002f0: 1c1a f63d dc2b ec3d cc32 4cbd 20c0 5ebd
00000300: 2cc8 59bf f5b9 18bf 6e48 853e b2a0 433e
00000310: 72b0 c5be 18d0 913f 68a7 e6bc abaf 6f3e
00000320: c4bb 08bf 1e51 8bbf 9f71 583f 859a c93e
00000330: 8d28 093f 3f8b cbbe 89fd cfbe c079 dabe
00000340: 3e76 cb3e e77f 6bbf d62f f2be 61fe 48bf
00000350: 71f5 ecbe 96ee f13e 1c1d a83f c2a6 c1bd
00000360: df76 603e d3ec 8b3d 08ce 493f b43f 98bf
00000370: a762 de3b 087e 693f 47e9 c9bf 2332 6bbf
00000380: 4850 603d bae9 b0bd 48fa b4bd 60d5 4e3d
00000390: 48db 3cbd 20e6 403d aa9e c63d 108f 38bd
000003a0: f089 99bc 0ef6 c8bd 1c53 c6bd 20dd 883c
000003b0: 08a9 c43c 8edb cbbd 423c d3bd 3cbe 843d
000003c0: 606c 9fbb 0a32 d93d 5a11 da3d c880 1e3d
000003d0: c042 7fbc 2c94 433d 24cc b23d d22d ec3d
000003e0: 44d3 c03d 9c27 d7bd 00e2 85bd da41 f4bd
000003f0: a4a6 e0bd e0a5 603c 8c85 f53d 9880 0a3d

tgnn._base_tgcn.linear_z.bias f4 [32]
-0.45368916 0.1719423 0.11818309 -0.097280905 -0.4453243 -0.26687983 -0.3475397 0.015448966
-0.46519658 -0.08397354 -0.45223016 -0.4526206 -0.5371247 -0.49855295 -0.005861491 0.06856956
0.060834035 -0.110993326 -0.47267345 -0.3704517 -0.27674523 0.36050338 -0.35991576 -0.48709527
0.17948526 -0.35467362 -0.02580335 -0.23411748 0.18795528 -0.46053654 0.11974424 -0.29461688
00000000: f249 e8be a411 303e fa09 f23d 363b c7bd
00000010: 8c01 e4be 79a4 88be b9f0 b1be a91d 7d3c
00000020: 3f2e eebe 52fa abbd b68a e7be e3bd e7be
00000030: 0181 09bf 5542 ffbe c011 c0bb 336e 8c3d
00000040: 1c2d 793d 7850 e3bd 4102 f2be d8ab bdbe
00000050: 8db1 8dbe e693 b83e e146 b8be 8d64 f9be
00000060: fcca 373e c897 b5be 8c61 d3bc 7ebc 6fbe
00000070: 5977 403e 72cb ebbe 783c f53d 06d8 96be

tgnn._base_tgcn.conv_r.bias f4 [32]
0.0 0.0 0.0 0.0 0.0 0.0 0.0 0.0
0.0 0.0 0.0 0.0 0.0 0.0 0.0 0.0
0.0 0.0 0.0 0.0 0.0 0.0 0.0 0.0
0.0 0.0 0.0 0.0 0.0 0.0 0.0 0.0
00000000: 0000 0000 0000 0000 0000 0000 0000 0000
00000010: 0000 0000 0000 0000 0000 0000 0000 0000
00000020: 0000 0000 0000 0000 0000 0000 0000 0000
00000030: 0000 0000 0000 0000 0000 0000 0000 0000
00000040: 0000 0000 0000 0000 0000 0000 0000 0000
00000050: 0000 0000 0000 0000 0000 0000 0000 0000
00000060: 0000 0000 0000 0000 0000 0000 0000 0000
00000070: 0000 0000 0000 0000 0000 0000 0000 0000

tgnn._base_tgcn.conv_r.lin.weight f4 [32, 3]
0.16965911 -0.037553072 0.058 0.30765042 -0.29204863 -0.020177722 -0.14040816 -0.28139192
0.093972 0.011039704 0.09644386 0.32871267 -0.28202555 -0.038353562 -0.11378935 0.2503403
-0.06998673 -0.36193478 0.021415055 0.13195279 0.16137215 -0.1009852 0.14807871 0.06853992
0.20136961 0.24095705 -0.18302193 -0.28173542 0.09143564 0.23300639 0.14357045 -0.18475646
-0.3047736 0.09166607 0.2801251 -0.18565165 -0.23761752 0.31345937 -0.3765382 0.3082089
-0.008306354 0.12245819 -0.14770049 -0.2538972 0.39423618 0.1664029 -0.081643015 -0.24177888
0.30107394 -0.17729856 0.24553058 0.16594991 -0.27114642 0.17000952 -0.013642997 0.2751501
-0.17664571 -0.37121272 -0.39349604 -0.2380074 0.28203174 -0.24862173 -0.09803039 -0.008543164
-0.0024053752 -0.07843304 -0.24303538 -0.07063952 -0.31078428 -0.35467574 0.2420921 -0.21242094
0.2418544 -0.19488631 0.18474093 -0.07327154 -0.15576243 0.18501553 0.15467903 0.09230062
0.0032456815 -0.064685404 -0.40229955 -0.07319707 0.3462328 0.29382756 0.09371677 0.19856241
-0.05077201 -0.25669378 -0.17840756 0.17265919 0.40160397 0.14477381 -0.06058258 -0.35659665
00000000: 1ebb 2d3e 40d1 19bd 6891 6d3d 5b84 9d3e
00000010: 6687 95be c04b a5bc 28c7 0fbe 9a12 90be
00000020: 6474 c03d e0df 343c 5c84 c53d 074d a83e
00000030: a765 90be a018 1dbd 640a e9bd 9b2c 803e
00000040: 3455 8fbd 844f b9be a06e af3c a21e 073e
00000050: be3e 253e 54d1 cebd f2a1 173e a85e 8c3d
00000060: d633 4e3e 72bd 763e 1a6a 3bbe a03f 90be
00000070: 9c42 bb3d 3a99 6e3e 2204 133e cc30 3dbe
00000080: 490b 9cbe 6cbb bb3d 8f6c 8f3e 771b 3ebe
00000090: 0252 73be bf7d a03e 9dc9 c0be 8fcd 9d3e
000000a0: 6017 08bc 5ccb fa3d cc3e 17be d0fe 81be
000000b0: 53d9 c93e 8665 2a3e 7434 a7bd e294 77be
000000c0: 5d26 9a3e c18d 35be 5e6c 7b3e c6ee 293e
000000d0: b4d3 8abe fa16 2e3e e086 5fbc 79e0 8c3e
000000e0: 9de2 34be 980f bebe 5078 c9be 36b8 73be
000000f0: 7766 903e b296 7ebe 28c4 c8bd a0f8 0bbc
00000100: 80a3 1dbb 80a1 a0bd 44de 78be 74ab 90bd
00000110: 1e1f 9fbe 0f98 b5be fee6 773e e084 59be
00000120: aea8 773e 4790 47be ba2c 3d3e 640f 96bd
00000130: 3080 1fbe b674 3d3e 2e64 1e3e 1c08 bd3d
00000140: 80b5 543b c879 84bd 35fa cdbe 58e8 95bd
00000150: 6d45 b13e 9170 963e 94ee bf3d f253 4b3e
00000160: 50f6 4fbd 5e6d 83be 79b0 36be 92cd 303e
00000170: 099f cd3e 963f 143e 7025 78bd d693 b6be

tgnn._base_tgcn.linear_r.weight f4 [32, 64]
-0.0737533 0.028673455 -0.032104403 -0.12430988 0.023893312 0.048621297 0.09931053 -0.055989906
0.08454122 -0.109967485 0.027058244 0.020878121 -0.091980115 0.060285464 0.11037688 -0.06267205
-0.042791396 0.018074214 0.0893611 -0.06952338 -0.04769768 0.044731513 0.040796995 0.05926755
0.09976938 0.11329433 0.08910236 0.057434827 0.07203089 0.07495734 -0.10994126 0.004388988
-0.10482623 0.022965789 0.053581893 -0.05908522 0.10908194 0.0551638 0.05457759 0.010787532
-0.05875577 0.024723545 0.06955607 0.097279936 0.102921784 0.068602756 0.078430876 -0.06932917
-0.01930362 -0.03687437 0.08161858 -0.08983253 0.10153371 -0.01866734 0.1183773 0.039708212
0.09733391 -0.034043327 0.10284725 -0.080348924 0.015347764 0.0022714138 0.12186824 0.03173916
-0.040606976 -0.07542311 0.09682092 -0.052967355 -0.07345587 -0.12261371 -0.011134699 -0.099027485
-0.022750065 -0.06654717 0.12324947 -0.076426074 0.08456457 0.1138739 0.07961732 -0.016986832
-0.025938496 0.0994955 0.07756573 -0.03612061 0.12461914 -0.09103081 0.079083994 -0.0047383457
0.04116547 0.111663654 0.11636995 -0.023028597 -0.08192125 0.09238055 0.094509155 0.089937136
0.07603483 0.047504812 0.08732188 -0.10251002 0.03876269 0.12215617 0.081613794 0.033509687
-0.11827195 0.11838812 -0.07183464 -0.09912117 0.09434812 -0.052059487 0.04769762 0.03788577
0.010921791 -0.045271084 -0.10343398 0.12095538 -0.016146734 0.06182453 -0.024830401 0.11602168
0.103963226 -0.07811932 -0.12052645 0.034886345 -0.009425536 -0.02181767 -0.12315288 -0.09520942
0.054510206 -0.013940781 0.095344365 0.07157417 0.046865344 0.020214915 -0.020744637 0.0204359
0.09030457 -0.037425146 0.06276348 0.07593283 0.085754424 -0.003007695 -0.10925077 0.054074943
0.12003927 0.019124791 -0.047037944 0.0062987953 -0.04449065 -0.0047605634 -0.06831531 -0.03906238
0.035863712 -0.020403177 -0.07982069 -0.06808221 0.024407327 -0.08916354 0.097904295 0.08319639
-0.008596018 0.05303788 -0.0790337 0.08667514 -0.06043899 -0.11556941 -0.055516303 0.070264935
-0.03175597 -0.00755772 -0.08008659 0.075812355 -0.123395056 0.035371795 -0.113339216 0.08593795
0.036074966 -0.0587029 0.003116846 -0.026199058 -0.058345765 0.10942617 -0.10953143 -0.007835388
0.11132103 0.027757466 -0.10250929 -0.109727144 0.006608546 0.046119615 -0.04573056 -0.08610521
0.0019403249 0.0358672 -0.10136476 -0.09186567 0.017764926 -0.080696076 -0.028668359 -0.056228444
0.06199874 0.09111193 -0.12174462 0.11964612 0.11698486 -0.11165273 0.079869494 -0.032285094
-0.037735626 0.06451696 0.07672463 -0.016776934 0.122696295 -0.1064823 -0.026864812 -0.060408384
-0.109726876 0.12463212 -0.09144989 -0.08874783 -0.090840906 0.06981388 -0.09892553 0.024035156
0.09114279 0.039981857 -0.029892802 -0.0809309 0.10096422 -0.055679306 -0.025997818 0.0798495
-0.058491245 0.08375488 -0.115570486 0.07122977 0.060371473 0.03087908 0.020154595 -0.0026038438
0.03317128 -0.07926443 -0.0968841 -0.07242809 -0.058182612 0.060762987 -0.09345868 0.022324905
-0.015727803 -0.016988322 0.022311449 -0.02521415 0.075103655 -0.034029573 -0.092093796 0.015399814
00000000: f80b 97bd 98e4 ea3c e87f 03bd 2e96 febd
00000010: e8bb c33c 2027 473d 5263 cb3d ac55 65bd
00000020: f223 ad3d a236 e1bd 40a9 dd3c 9808 ab3c
00000030: 1260 bcbd e4ed 763d 460d e23d 345a 80bd
00000040: 0846 2fbd 6010 943c f402 b73d 4662 8ebd
00000050: a45e 43bd 6438 373d c01a 273d 88c2 723d
00000060: e453 cc3d dc06 e83d 4c7b b63d c840 6b3d
00000070: ee84 933d 3c83 993d e228 e1bd 80d1 8f3b
00000080: 22af d6bd c022 bc3c b078 5b3d 5803 72bd
00000090: 5a66 df3d 70f3 613d c08c 5f3d 30be 303c
000000a0: e4a9 70bd 0889 ca3c 6a73 8e3d b43a c73d
000000b0: a8c8 d23d 9a7f 8c3d 5ea0 a03d 74fc 8dbd
000000c0: a022 9ebc 9409 17bd a427 a73d 1efa b7bd
000000d0: e8f0 cf3d 40ec 98bc cc6f f23d 14a5 223d
000000e0: 0057 c73d 0471 0bbd 94a1 d23d fa8d a4bd
000000f0: 3075 7b3c 00dc 143b 0e96 f93d ec00 023d
00000100: 8053 26bd 6e77 9abd 0c4a c63d 4cf4 58bd
00000110: 0870 96bd e61c fbbd 506e 36bc ecce cabd
00000120: 585e babc e249 88bd 386a fc3d 4685 9cbd
00000130: 3030 ad3d b836 e93d 680e a33d f827 8bbc
00000140: f87c d4bc 4cc4 cb3d c8da 9e3d 34f3 13bd
00000150: 5238 ff3d 5c6e babd caf6 a13d 2044 9bbb
00000160: 209d 283d eaaf e43d 5e53 ee3d 78a6 bcbc
00000170: 54c6 a7bd 0432 bd3d 048e c13d f630 b83d
00000180: 26b8 9b3d 6894 423d d0d5 b23d c6f0 d1bd
00000190: a0c5 1e3d 042d fa3d 2225 a73d 7441 093d
000001a0: 9038 f2bd 7875 f23d 0a1e 93bd 0a00 cbbd
000001b0: 9639 c13d 543c 55bd 945e 433d 1c2e 1b3d
000001c0: 50f1 323c 2c6e 39bd 32d5 d3bd 74b7 f73d
000001d0: 2846 84bc b83b 7d3d 2069 cbbc c69c ed3d
000001e0: acea d43d 06fd 9fbd 92d6 f6bd fce4 0e3d
000001f0: 906d 1abc f8ba b2bc 9437 fcbd 28fd c2bd
00000200: 1846 5f3d e067 64bc e843 c33d 7a95 923d
00000210: e0f5 3f3d c099 a53c a8f0 a9bc 3069 a73c
00000220: 9af1 b83d 1c4b 19bd 248a 803d ac82 9b3d
00000230: 04a0 af3d c01c 45bb debe dfbd b07d 5d3d
00000240: 26d7 f53d 98ab 9c3c dcaa 40bd 2066 ce3b
00000250: d43b 36bd 80fe 9bbb e6e8 8bbd e0ff 1fbd
00000260: d4e5 123d 9024 a7bc 0879 a3bd b06e 8bbd
00000270: e0f1 c73c 609b b6bd 0c82 c83d de62 aa3d
00000280: 50d6 0cbc 403e 593d 6cdc a1bd bc82 b13d
00000290: e08e 77bd a8af ecbd 1065 63bd 10e7 8f3d
000002a0: 8c12 02bd c0a6 f7bb 7004 a4bd 8243 9b3d
000002b0: 8cb6 fcbd 04e2 103d 641e e8bd 3c00 b03d
000002c0: 58c3 133d 7472 70bd 0044 4c3b 689f d6bc
000002d0: f8fb 6ebd d41a e03d 0452 e0bd 0060 00bc
000002e0: 48fc e33d a063 e33c 64f0 d1bd a0b8 e0bd
000002f0: 808c d83b ece7 3c3d f84f 3bbd ee57 b0bd
00000300: 8052 fe3a 7ce9 123d 5498 cfbd 1224 bcbd
00000310: c087 913c fc43 a5bd e8d9 eabc cc4f 66bd
00000320: 64f2 7d3d e498 ba3d 3e55 f9bd 0609 f53d
00000330: c295 ef3d 30aa e4bd 9e92 a33d 603d 04bd
00000340: ac90 1abd 7821 843d ce21 9d3d c86f 89bc
00000350: 3248 fb3d 6413 dabd 9813 dcbc c86e 77bd
00000360: 7cb8 e0bd 203f ff3d 144a bbbd 6cc1 b5bd
00000370: cc0a babd 94fa 8e3d 7899 cabd 60e5 c43c
00000380: 12a9 ba3d 04c4 233d c0e1 f4bc 1abf a5bd
00000390: 54c6 ce3d fc0f 64bd 60f9 d4bc 2288 a33d
000003a0: 8494 6fbd ae87 ab3d 38b0 ecbd eae0 913d
000003b0: 1448 773d 20f6 fc3c 401b a53c 40a5 2abb
000003c0: 9cde 073d 6455 a2bd 2c6b c6bd 2e55 94bd
000003d0: e450 6ebd 9ce2 783d 4467 bfbd b8e2 b63c
000003e0: 98d7 80bc 182b 8bbc 80c6 b63c e88d cebc
000003f0: f2cf 993d 9862 0bbd ac9b bcbd 804f 7c3c

tgnn._base_tgcn.linear_r.bias f4 [32]
0.07399389 -0.10156308 -0.061086252 0.05020684 0.06644811 -0.014549255 0.068296224 0.009360775
-0.0023612827 -0.121732384 -0.11818594 0.10928008 0.05197528 -0.11607598 0.058765724 -0.04471408
0.0374524 0.06750192 0.0333198 -0.01913163 -0.088471755 0.04522881 -0.0526039 -0.10631165
-0.1044216 0.056450054 0.124298066 0.0009716004 0.09883721 0.036037147 0.06460135 0.06896998
00000000: 1c8a 973d 4e00 d0bd 9435 7abd b0a5 4d3d
00000010: f215 883d 0060 6ebc e4de 8b3d f05d 193c
00000020: c0bf 1abb d44e f9bd 780b f2bd 3cce df3d
00000030: 08e4 543d 3eb9 edbd 54b4 703d 1c26 37bd
00000040: b067 193d 723e 8a3d 587a 083d f0b9 9cbc
00000050: ae30 b5bd d841 393d 3077 57bd ecb9 d9bd
00000060: feda d5bd 2c38 673d fc8f fe3d 00b3 7e3a
00000070: 2a6b ca3d b09b 133d b64d 843d 2240 8d3d

tgnn._base_tgcn.conv_h.bias f4 [32]
0.31502646 0.05216693 -0.17274164 -0.07422767 0.12326609 -0.43535128 0.22483525 0.23745918
0.43207595 -0.005043789 -0.2129001 0.13974158 -0.36425388 0.008106768 0.13868248 -0.40033126
-0.0055692047 -0.2639368 0.19922687 -0.09783829 0.092966974 0.43823028 0.07157001 0.035905793
-0.177874 0.18424101 -0.16340071 0.23483074 0.40260082 0.3750734 -0.17839321 -0.00030598382
00000000: 264b a13e feac 553d 2fe3 30be ad04 98bd
00000010: ef72 fc3d 5de6 debe 363b 663e 8028 733e
00000020: 0f39 dd3e 5e46 a5bb 7c02 5abe 6b18 0f3e
00000030: 7c7f babe 40d2 043c c802 0e3e 38f8 ccbe
00000040: e07d b6bb b922 87be 2102 4c3e 715f c8bd
00000050: 7865 be3d b85f e03e 4c93 923d f411 133d
00000060: 9a24 36be ada9 3c3e 8452 27be 7877 703e
00000070: b221 ce3e 9f09 c03e b6ac 36be 746c a0b9

tgnn._base_tgcn.conv_h.lin.weight f4 [32, 3]
0.20195653 -0.6626228 1.2344557 -0.34206316 -0.9979234 0.70170116 -0.28887576 -0.22307506
1.5016866 0.0042587114 0.9231244 -0.69000405 0.21519168 0.6699939 -1.0210053 0.36260763
0.40337586 -0.34028476 -0.4596076 -0.6201126 0.4351298 -0.4264649 -0.38171822 0.8063472
0.09886248 0.61952895 -0.21052566 -0.022040272 -1.0049648 0.8714682 0.5927952 0.41403022
-0.8975189 -0.44409162 -0.961795 -0.062313214 -0.064704284 0.6666265 -0.30151466 0.58488333
1.0852903 -0.21599622 0.11087015 -0.59291995 1.4242742 -0.17098767 -0.35524252 -1.1948726
-0.6029287 -0.051037252 1.1200147 -0.45550486 -0.77465403 -0.52946115 -0.12748802 -0.728637
0.7874698 0.13315858 1.0800604 0.14264056 -0.15605606 -0.9776948 -0.24552001 0.21557286
0.14996868 0.9215184 0.70700914 0.98821056 1.1308439 -0.34430486 -0.90204954 1.0248309
0.30547297 0.56529385 -0.8359426 0.118620165 -0.51482975 1.3278668 -0.20835951 -0.9863366
-0.35422167 -0.33312252 -0.23142198 1.0345653 0.047026373 -0.35784036 1.3005211 -0.3224726
0.59056556 0.9604923 0.5176169 0.42876962 -1.0271646 -0.09363727 -1.0527636 0.703884
00000000: b1cd 4e3e a6a1 29bf a502 9e3f e722 afbe
00000010: e877 7fbf b0a2 333f 86e7 93be ca6d 64be
00000020: 4437 c03f a98c 8b3b e151 6c3f 1ba4 30bf
00000030: 355b 5c3e b884 2b3f 4db0 82bf b5a7 b93e
00000040: 4887 ce3e ce39 aebe b051 ebbe b3bf 1ebf
00000050: 55c9 de3e 9b59 dabe 9270 c3be c56c 4e3f
00000060: 6978 ca3d 7399 1e3f 0a94 57be cd8d b4bc
00000070: b0a2 80bf 8a18 5f3f 6dc1 173f c5fb d33e
00000080: ccc3 65bf fa5f e3be 3238 76bf 243c 7fbd
00000090: ae83 84bd 09a8 2a3f 2160 9abe eaba 153f
000000a0: cbea 8a3f 1d2e 5dbe e40f e33d 9ac9 17bf
000000b0: 9e4e b63f 6417 2fbe 59e2 b5be 96f1 98bf
000000c0: 8959 1abf 700c 51bd a45c 8f3f ef37 e9be
000000d0: ba4f 46bf c48a 07bf 388c 02be f487 3abf
000000e0: 9f97 493f b95a 083e 6b3f 8a3f 5e10 123e
000000f0: 29cd 1fbe 354a 7abf 9969 7bbe 22bf 5c3e
00000100: 6491 193e a1e8 6b3f 8dfe 343f 5efb 7c3f
00000110: 7ebf 903f ba48 b0be b8ec 66bf a92d 833f
00000120: f466 9c3e 19b7 103f 5600 56bf 21ef f23d
00000130: e2cb 03bf 8af7 a93f 325c 55be 8e80 7cbf
00000140: 8b5c b5be 098f aabe e2f9 6cbe a36c 843f
00000150: ba9e 403d da36 b7be 7a77 a63f 211b a5be
00000160: 4e2f 173f d3e2 753f 8b82 043f b187 db3e
00000170: 217a 83bf e6c4 bfbd f5c0 86bf be31 343f

tgnn._base_tgcn.linear_h.weight f4 [32, 64]
-0.40372396 -0.7305968 -0.42108962 1.1292354 0.74433357 0.41666442 -0.7711678 -0.65759367
0.4731283 -0.962585 0.57694393 -0.9395059 0.34763265 0.74273604 -0.5286109 -0.3621097
-0.45348445 -0.51235914 -0.7398484 1.164998 -0.907554 0.17881566 0.49742344 -0.94293845
0.6765633 -0.33185512 -0.71103704 -0.42170423 -0.086977325 0.34762534 0.4967721 -0.8670673
-0.064880475 0.087567165 0.08037771 -0.062485382 -0.038240895 -0.07648395 0.11553256 -0.054766923
0.06087494 -0.035721913 0.097739205 0.10307735 0.09622486 0.018606737 0.04877597 0.023506805
-0.026669994 -0.05257401 0.0071945935 -0.076635376 -0.08987668 -0.085349455 0.058197305 -0.009746268
0.112571985 0.07403371 0.053111807 -0.03747432 -0.10009195 0.11500466 0.0024447143 -0.10971551
0.6272522 0.32158113 0.26845455 -1.1969466 -0.38506564 -0.19003178 0.31501177 0.42391127
-0.050139073 0.77211285 -0.22572178 0.18204452 -0.34811205 -0.24156687 0.8151393 -0.16837458
0.10785047 0.11426936 1.1953589 -0.3331016 0.16931546 0.1256908 0.064625785 0.32731745
-0.62311155 0.70538306 0.1634261 0.6140622 0.32821006 -0.029134346 -0.43926263 0.723108
-0.08901258 -0.012996018 -0.11977331 0.021012723 -0.065784276 0.05583188 -0.081155494 -0.06269881
0.0064311028 0.006788656 0.09010455 -0.0013136566 0.046465456 0.079957694 -0.08357698 0.07751277
-0.052453622 0.014318407 0.0261413 0.02369374 0.029151112 0.04550059 -0.08227602 0.031429112
-0.017895773 0.07363206 -0.07054855 0.039543808 0.05335839 -0.051761553 -0.08255084 0.09131689
0.11222008 0.08187668 -0.09636347 0.046249285 -0.10028753 -0.01668723 -0.10299203 0.066693366
0.07665081 0.0799686 -0.057508305 0.11726977 0.08922483 0.016186595 -0.09274556 0.07154882
0.03661424 0.00875701 -0.12228711 -0.07388063 -0.014846459 -0.114295825 0.08827916 -0.024357006
-0.018873945 0.042424113 0.05246395 -0.07742748 0.019144341 -0.05939658 -0.10576825 0.12350875
0.030642197 -0.085110545 -0.069131315 0.035117194 -0.1163127 -0.042874634 0.08264306 -0.076086074
0.10263243 0.041057214 -0.10347648 0.05265352 0.11913769 0.0495276 0.10274571 -0.0016127229
-0.09405221 0.040168658 0.032083154 0.053182095 -0.019699648 -0.062812835 0.036071077 -0.09388283
0.103567004 -0.05184968 -0.1249986 0.07039614 0.0063922554 -0.040023923 -0.045174018 -0.082000986
0.31180358 0.039050702 0.7020557 -0.0655438 -0.20000918 0.3023235 0.041536376 0.24667278
0.083871245 0.09457031 -0.15448748 -0.2638038 0.1290521 0.09594634 0.6966291 -0.45426467
0.4321164 -0.2203363 0.10875679 0.17565286 -0.18673809 0.32199195 0.20785017 0.15017837
-0.12552765 0.5193367 -0.23920833 0.53720856 0.5246839 0.5278579 -0.31419572 -0.037986092
-0.018408418 0.08362214 0.04971437 0.11824444 -0.041034713 -0.058303148 -0.020620987 0.10073264
0.09965317 -0.06432268 0.11720145 0.07487394 0.048134834 -0.013988778 0.08852579 0.06946412
0.07644658 0.03668432 -0.026370183 0.063246146 -0.08859962 0.004238531 -0.08772674 0.019797921
0.10409342 -0.114822656 -0.032590494 -0.10962956 -0.09747049 0.071014464 0.002326429 0.014486715
00000000: e8b4 cebe 6408 3bbf 0f99 d7be c98a 903f
00000010: a58c 3e3f 0a55 d53e 416b 45bf 0f58 28bf
00000020: df3d f23e f86b 76bf 99b2 133f 7583 70bf
00000030: e8fc b13e f323 3e3f 0b53 07bf 7166 b9be
00000040: 1d2f e8be f829 03bf b466 3dbf a81e 953f
00000050: 7555 68bf 741b 373e 49ae fe3e 6a64 71bf
00000060: 4133 2d3f eae8 a9be 8606 36bf 9ee9 d7be
00000070: 2b21 b2bd f3fb b13e ea58 fe3e 1ff8 5dbf
00000080: 0ee0 84bd 6a56 b33d 129d a43d acf0 7fbd
00000090: 7ca2 1cbd 9ea3 9cbd 569c ec3d 4853 60bd
000000a0: 0058 793d 2451 12bd 7e2b c83d 381a d33d
000000b0: 8a11 c53d 286d 983c 50c9 473d 5891 c03c
000000c0: 087b dabc d857 57bd a0c0 eb3b 02f3 9cbd
000000d0: 4411 b8bd b2cb aebd 4c60 6e3d d0ae 1fbc
000000e0: 248c e63d fc9e 973d c48b 593d ac7e 19bd
000000f0: 02fd ccbd 9087 eb3d 8037 203b 86b2 e0bd
00000100: 9a93 203f 48a6 a43e e072 893e 8c35 99bf
00000110: 5327 c5be b197 42be 3949 a13e e60a d93e
00000120: a15e 4dbd 30a9 453f 9c23 67be e169 3a3e
00000130: be3b b2be 4e5d 77be f8ac 503f 636a 2cbe
00000140: b5e0 dc3d 0e06 ea3d 8501 993f 4b8c aabe
00000150: 0861 2d3e 17b5 003e 865a 843d 2796 a73e
00000160: 3d84 1fbf fc93 343f 2c59 273e 2e33 1d3f
00000170: 260b a83e 27ab eebc 08e7 e0be 9b1d 393f
00000180: 3a4c b6bd 40ed 54bc b64b f5bd e022 ac3c
00000190: e8b9 86bd f8af 643d da34 a6bd 3c68 80bd
000001a0: 00bc d23b 6073 de3b bc88 b83d 002f acba
000001b0: 9052 3e3d dcc0 a33d 682a abbd 04bf 9e3d
000001c0: 9cd9 56bd c097 6a3c 4826 d63c 6019 c23c
000001d0: 50ce ee3c d45e 3a3d 5480 a8bd d0bb 003d
000001e0: 289a 92bc 68cc 963d c27b 90bd b0f8 213d
000001f0: 548e 5a3d ec03 54bd 6a10 a9bd 5a04 bb3d
00000200: a4d3 e53d f6ae a73d 365a c5bd e46f 3d3d
00000210: 8c63 cdbd a8b3 88bc 7ced d2bd 8896 883d
00000220: 1afb 9c3d 94c6 a33d d48d 6bbd 222b f03d
00000230: 82bb b63d c099 843c 62f1 bdbd 3088 923d
00000240: d0f8 153d 9079 0f3c aa71 fabd ba4e 97bd
00000250: 903e 73bc ee13 eabd b4cb b43d 5888 c7bc
00000260: 889d 9abc e8c4 2d3d 70e4 563d 4c92 9ebd
00000270: 98d4 9c3c d449 73bd 069d d8bd 28f2 fc3d
00000280: 5805 fb3c 704e aebd b894 8dbd 0cd7 0f3d
00000290: 5a35 eebd 509d 2fbd c440 a93d 04d3 9bbd
000002a0: f430 d23d 9c2b 283d 7aeb d3bd 38ab 573d
000002b0: 76fe f33d 74dd 4a3d 586c d23d 0062 d3ba
000002c0: 729e c0bd e487 243d a069 033d 78d5 593d
000002d0: 2861 a1bc 04a4 80bd 44bf 133d a445 c0bd
000002e0: f01a d43d 5460 54bd 44ff ffbd da2b 903d
000002f0: 2076 d13b 20f0 23bd 6408 39bd 22f0 a7bd
00000300: b8a4 9f3e a1f3 1f3d ecb9 333f d43b 86bd
00000310: 35cf 4cbe 25ca 9a3e 0c22 2a3d ca97 7c3e
00000320: b0c4 ab3d 14ae c13d f731 1ebe 4b11 87be
00000330: 3c26 043e 847f c43d 4956 323f 6195 e8be
00000340: 5c3e dd3e d79f 61be e1bb de3d 58de 333e
00000350: 4538 3fbe 21dc a43e add6 543e 5cc8 193e
00000360: 528a 00be 40f3 043f 07f3 74be 8086 093f
00000370: af51 063f b221 073f 43de a0be 4e97 1bbd
00000380: 40cd 96bc 1642 ab3d 4ca1 4b3d 242a f23d
00000390: 0414 28bd 48cf 6ebd 58ed a8bc ea4c ce3d
000003a0: f616 cc3d 9cbb 83bd 5007 f03d 8257 993d
000003b0: 0829 453d 3031 65bc 024d b53d 3443 8e3d
000003c0: 0690 9c3d 4c42 163d 4806 d8bc 3287 813d
000003d0: b873 b5bd 60e3 8a3b 14aa b3bd 402f a23c
000003e0: ee2e d53d 2428 ebbd 9c7d 05bd 7685 e0bd
000003f0: 9c9e c7bd 0870 913d 0077 183b b059 6d3c

tgnn._base_tgcn.linear_h.bias f4 [32]
0.17500895 0.21627086 -0.089107886 0.023638206 0.19271582 0.47331697 0.032855585 -0.10619929
0.17525308 0.5262391 0.15366921 0.15008725 0.19338723 0.33171454 -0.025297495 -0.12629332
-0.08333522 -0.027405486 0.11998137 0.39524576 0.43427968 -0.42512065 0.15771882 0.19562565
0.14015916 0.5557368 0.55638874 0.5241015 0.2344686 0.13507584 -0.0034676546 0.24416721
00000000: 8c35 333e 1c76 5d3e 327e b6bd e9a4 c13c
00000010: 4c57 453e 9a56 f23e 9493 063d 037f d9bd
00000020: 8b75 333e 9bb7 063f 765b 1d3e 79b0 193e
00000030: 4d07 463e 7dd6 a93e b13c cfbc 0953 01be
00000040: a8ab aabd 7881 e0bc cbb8 f53d a75d ca3e
00000050: e859 de3e 6aa9 d9be 0b81 213e 1752 483e
00000060: e285 0f3e c444 0e3f 7e6f 0e3f 842b 063f
00000070: 8918 703e 5251 0a3e 9741 63bb f806 7a3e

linear.weight f4 [16, 32]
0.28877681 -0.46419638 -0.11142372 0.7099411 0.306008 -0.52207947 0.19723777 -0.051787853
0.33564806 -0.71090126 0.25612342 0.33003637 0.41047 -0.16572477 0.055190824 0.091960385
0.01706636 -0.11412977 0.46906498 -0.11680989 -0.29162458 -0.7504575 0.40452644 0.14306837
-0.5169016 -0.52358943 -0.5605718 -0.48420382 -0.52328044 0.23753732 0.08048946 -0.061422102
0.18451668 -0.5580395 0.04278122 0.61245525 0.26515743 -0.50688547 0.23559786 -0.043036036
0.47856256 -0.6491284 0.40290508 0.23016652 0.34265164 -0.15640163 -0.11252437 0.117471136
0.036463365 -0.05523041 0.50373995 -0.19931105 -0.39397177 -0.8288641 0.23964071 0.46795613
-0.3845717 -0.5724339 -0.5227191 -0.53362226 -0.7086146 0.25990826 0.1312343 0.13400367
0.48291108 -0.49341488 -0.11556661 0.5620565 0.22970253 -0.41700497 0.49719498 -0.10496654
0.26104712 -0.6438351 0.2137362 0.42592657 0.28281254 -0.22459048 0.037580185 0.05849137
-0.13937864 -0.14554152 0.25114495 -0.40343586 -0.4779845 -1.0019844 0.4313127 0.3314809
-0.7995555 -0.41199726 -0.53606224 -0.61477655 -0.5006527 0.4545867 0.001525232 0.035668015
0.3728281 -0.6556799 0.007895321 0.46524137 0.35406667 -0.30067798 0.22190817 0.043840613
0.29700756 -0.6867383 0.36221233 0.26768705 0.34819472 -0.37203252 0.04641578 -0.1404911
0.17592205 0.12355836 0.35982302 -0.4052146 -0.4222553 -1.1555734 0.5357521 0.50669897
-0.69274575 -0.4851488 -0.62558264 -0.59785926 -0.61771387 0.17602667 -0.04456652 0.2637195
0.33279842 -0.70640737 -0.057647467 0.10125218 0.29775298 -0.47442317 0.39268035 0.08735913
0.49427876 -0.6043765 0.48189446 0.35574389 0.34692335 -0.10251089 0.004466538 -0.09487621
0.17476274 0.10485466 0.38890302 -0.29106042 -0.39071915 -1.1836023 0.21110263 0.4940129
-0.74495107 -0.6341565 -0.5631643 -0.5285985 -0.7449638 0.15857545 0.0066551045 0.3806612
0.53931516 -0.7751811 0.16676386 0.11438079 0.30966997 -0.69603294 0.48727003 -0.03732955
0.24895653 -0.5689327 0.21888694 0.3718201 0.54242295 -0.23883872 -0.009680115 0.109137855
-0.09364671 -0.13452554 0.24550284 -0.32131836 -0.52128446 -1.237873 0.5384766 0.22732963
-0.68821406 -0.5552769 -0.45507774 -0.42437848 -0.98430026 0.41850024 0.07012463 0.34388703
0.3303007 -0.690029 0.12310888 -0.102974 0.4730307 -0.5016406 0.38287267 0.04947257
0.5129145 -0.51465297 0.3123297 0.4834711 0.45078865 -0.41103646 -0.101359785 -0.041528
-0.10396226 0.08113755 0.4178812 -0.44766256 -0.31695473 -1.2890769 0.24149966 0.25665215
-1.0255035 -0.45706835 -0.6121917 -0.55501086 -0.9447879 0.31036645 0.03750951 0.5206844
0.46867782 -1.0349818 -0.025357336 -0.27986458 0.31610367 -0.61773515 0.5041669 -0.061065324
0.46439028 -0.5163008 0.49628112 0.28707567 0.42125845 -0.4974979 0.0103350775 -0.089699514
-0.01727216 -0.021731004 0.3073442 -0.49579006 -0.3959805 -1.347682 0.47019833 0.49819475
-0.7984778 -0.4877586 -0.41227448 -0.35293582 -0.99318933 0.16565518 0.021410936 0.3265253
00000000: 8eda 933e 26ab edbe 1f32 e4bd b3be 353f
00000010: 15ad 9c3e 00a7 05bf b3f8 493e 801f 54bd
00000020: 10da ab3e a0fd 35bf 9c22 833e 87fa a83e
00000030: 2029 d23e c1b3 29be c60f 623d ba55 bc3d
00000040: c0ce 8b3c debc e9bd 4929 f03e 063a efbd
00000050: d14f 95be fc1d 40bf 171e cf3e 8480 123e
00000060: aa53 04bf f509 06bf a281 0fbf 90e9 f7be
00000070: b5f5 05bf fc3c 733e a8d7 a43d be95 7bbd
00000080: f1f1 3c3e addb 0ebf 5c3b 2f3d dec9 1c3f
00000090: b7c2 873e 3fc3 01bf 9140 713e 8e46 30bd
000000a0: 2706 f53e 472d 26bf 9349 ce3e c6b0 6b3e
000000b0: 0970 af3e c027 20be 2d73 e6bd b594 f03d
000000c0: 9c5a 153d 4839 62bd 1af5 003f 3218 4cbe
000000d0: abb6 c9be 7030 54bf 6064 753e f297 ef3e
000000e0: 95e6 c4be 078b 12bf ebd0 05bf 789b 08bf
000000f0: c467 35bf b212 853e 4962 063e 4238 093e
00000100: 1f40 f73e e0a0 fcbe 30ae ecbd efe2 0f3f
00000110: 2437 6b3e ad81 d5be 5790 fe3e b3f8 d6bd
00000120: f8a7 853e 61d2 24bf aadd 5a3e 0c13 da3e
00000130: cecc 903e 0cfb 65be aeed 193d a694 6f3d
00000140: 46b9 0ebe d608 15be 1296 803e 258f cebe
00000150: 62ba f4be 0641 80bf 05d5 dc3e ddb7 a93e
00000160: abaf 4cbf 4ef1 d2be 603b 09bf ff61 1dbf
00000170: c62a 00bf 97bf e83e 4bea c73a a018 123d
00000180: 53e3 be3e a3da 27bf 605b 013c 1e34 ee3e
00000190: 3a48 b53e 77f2 99be e53b 633e 3792 333d
000001a0: 6011 983e 15ce 2fbf e573 b93e 470e 893e
000001b0: 9446 b23e 0c7b bebe 791e 3e3d e6dc 0fbe
000001c0: e924 343e 2a0c fd3d b93a b83e 4a78 cfbe
000001d0: d931 d8be d4e9 93bf 0d27 093f 06b7 013f
000001e0: c957 31bf 6c65 f8be 2f26 20bf 4e0d 19bf
000001f0: 7f22 1ebf 5640 343e 628b 36bd 3e06 873e
00000200: 8e64 aa3e 1dd7 34bf c01f 6cbd 4e5d cf3d
00000210: 1473 983e 98e7 f2be 660d c93e 58e9 b23d
00000220: 1b12 fd3e 6bb8 1abf dfba f63e 1024 b63e
00000230: f09f b13e 3bf1 d1bd 095c 923b 754e c2bd
00000240: 01f5 323e 0abe d63d 4c1e c73e df05 95be
00000250: 570c c8be 4880 97bf 4a2b 583e 42ef fc3e
00000260: 1db5 3ebf 1558 22bf 892b 10bf 3b52 07bf
00000270: f3b5 3ebf 9a61 223e 1013 da3b 06e6 c23e
00000280: 8f10 0a3f 4572 46bf 25c4 2a3e 7a40 ea3d
00000290: 108d 9e3e 372f 32bf 757b f93e dfe6 18bd
000002a0: 76ee 7e3e 93a5 11bf e623 603e 345f be3e
000002b0: 3bdc 0a3f 2392 74be 5899 1ebc ab83 df3d
000002c0: d9c9 bfbd 10c1 09be 1965 7b3e d783 a4be
000002d0: e672 05bf 9f72 9ebf 9ad9 093f 19c9 683e
000002e0: cc2e 30bf a026 0ebf f3ff e8be 2348 d9be
000002f0: 1afb 7bbf aa45 d63e 819d 8f3d f611 b03e
00000300: 2c1d a93e bea5 30bf 8220 fc3d 08e4 d2bd
00000310: 1431 f23e 856b 00bf e307 c43e c0a3 4a3d
00000320: 5d4e 033f 4cc0 03bf aee9 9f3e 8689 f73e
00000330: c5cd e63e 5f73 d2be b895 cfbd 4419 2abd
00000340: 2aea d4bd 722b a63d 86f4 d53e 0734 e5be
00000350: e447 a2be 7900 a5bf b04b 773e e967 833e
00000360: b343 83bf dd04 eabe 98b8 1cbf 3115 0ebf
00000370: 9fdd 71bf 5ae8 9e3e 92a3 193d 934b 053f
00000380: 8af6 ef3e 497a 84bf 30ba cfbc 694a 8fbe
00000390: 57d8 a13e e423 1ebf 1511 013f a21f 7abd
000003a0: 90c4 ed3e 4a2c 04bf 8f18 fe3e 95fb 923e
000003b0: 30af d73e 0bb8 febe 7554 293c 61b4 b7bd
000003c0: 587e 8dbc 3805 b2bc 385c 9d3e 32d8 fdbe
000003d0: f5bd cabe d880 acbf d6bd f03e 6213 ff3e
000003e0: 0b69 4cbf 7fbb f9be a415 d3be 01b4 b4be
000003f0: a841 7ebf 83a1 293e fd65 af3c 532e a73e

linear.bias f4 [16]
-0.0066108718 -0.11661362 -0.011820853 0.037480492 -0.11327257 -0.10780646 -0.074100845 -0.06215186
-0.13365111 -0.032818023 -0.07181831 -0.017627098 -0.056095995 0.04330983 0.108429894 0.013312863
00000000: 03a0 d8bb 1fd3 eebd 40ac 41bc 2585 193d
00000010: 73fb e7bd a2c9 dcbd 2fc2 97bd f392 7ebd
00000020: d6db 08be 316c 06bd 7a15 93bd b466 90bc
00000030: eac4 65bd a665 313d 7e10 de3d 321e 5a3c

linear2.weight f4 [6, 21]
0.515657 0.7344191 0.19304737 -0.09789333 -0.38279983 0.53497297 -0.45052084 0.022280721
-0.0015058999 0.33861545 -0.34150085 -0.1631021 0.10603001 0.11897799 0.04019554 -0.22825377
-0.032969587 0.10630528 -0.048318118 -0.17853892 -0.074857034 -0.0620921 0.09210904 -0.02451595
0.28467664 -0.06128956 0.25169405 0.3581197 0.20638885 0.119527765 -0.14218089 0.33716077
-0.0217511 -0.0015230543 0.0971925 0.093617454 -0.22061285 -0.018098403 -0.34912577 -0.05111265
0.06491622 0.23041308 0.21112877 0.07653823 -0.054491874 -0.0074096196 -0.13579157 -0.2573294
-0.012014486 0.016211042 0.1276485 -0.12498541 -0.36918977 -0.08211134 0.28337774 -0.6060456
0.19184095 0.07224785 0.26852748 -0.076957345 -0.14157298 -0.113972425 0.033467565 -0.1934909
-0.2457861 -0.33089557 -0.22652599 0.15398358 -0.22726566 0.19164081 -0.23979868 0.28142244
0.34672213 0.10815582 0.18971585 0.34845117 -0.21730907 -0.03379004 0.46620485 0.29138118
0.15818289 0.020006068 0.14271103 0.22038223 -0.10673982 -0.0905627 0.054709624 0.3835855
0.32591462 -0.18713251 0.07033888 0.14753398 -0.035714556 -0.21466449 0.010059295 -0.28420514
-0.19034599 0.03431263 0.2931396 -0.055602454 -0.3518716 0.19205882 0.2519535 0.24065557
0.032122225 -0.12227887 -0.3826127 -0.352304 -0.0514502 0.1716039 0.014548621 0.124017544
-0.16721518 0.089610435 0.19383773 -0.051776804 0.0033245229 0.3488818 -0.31663987 0.10750963
0.2997958 0.3512531 0.25999326 -0.15313925 0.31015608 0.2605011
00000000: 1902 043f e402 3c3f 36ae 453e 4c7c c8bd
00000010: 57fe c3be fdf3 083f abaa e6be 0f86 b63c
00000020: 9e61 c5ba 015f ad3e 33d9 aebe 3d04 27be
00000030: 4326 d93d bbaa f33d 14a4 243d 5bbb 69be
00000040: 1e0b 07bd 95b6 d93d 38e9 45bd e8d2 36be
00000050: a54e 99bd 4954 7ebd aaa3 bc3d acd5 c8bc
00000060: 23c1 913e c30a 7bbd 0bde 803e 775b b73e
00000070: 9957 533e f9ca f43d de97 11be 56a0 ac3e
00000080: 5d2f b2bc 39a1 c7ba dd0c c73d 82ba bf3d
00000090: 56e8 61be 1a43 94bc 9dc0 b2be 805b 51bd
000000a0: ccf2 843d 68f1 6b3e 2432 583e 13c0 9c3d
000000b0: df32 5fbd 65cc f2bb f20c 0bbe aec0 83be
000000c0: 68d8 44bc 05cd 843c 4ab6 023e 5af8 ffbd
000000d0: 7106 bdbe fd29 a8bd e316 913e ce25 1bbf
000000e0: f471 443e aef6 933d 6f7c 893e d09b 9dbd
000000f0: 82f8 10be 606a e9bd 4915 093d 7a22 46be
00000100: 5aaf 7bbe 256b a9be 6ef6 67be dfad 1d3e
00000110: 54b8 68be 7d3d 443e c98d 75be 9a16 903e
00000120: 9085 b13e cc80 dd3d df44 423e 3168 b23e
00000130: 4586 5ebe 6d67 0abd 67b2 ee3e ea2f 953e
00000140: b2fa 213e c4e3 a33c d722 123e e1ab 613e
00000150: 689a dabd f078 b9bd 3317 603d 5265 c43e
00000160: 48de a63e aa9f 3fbe d50d 903d 2613 173e
00000170: 6d49 12bd 02d1 5bbe becf 243c 5683 91be
00000180: 0fea 42be 668b 0c3d 6516 963e 66bf 63bd
00000190: 8428 b4be 11ab 443e 0d00 813e 6a6e 763e
000001a0: 9892 033d 586d fabd d0e5 c3be 3161 b4be
000001b0: 72bd 52bd efb8 2f3e 575d 6e3c e9fc fd3d
000001c0: 753a 2bbe ad85 b73d 667d 463e ea13 54bd
000001d0: 3de0 593b a3a0 b23e 9f1e a2be 022e dc3d
000001e0: d67e 993e 72d7 b33e d61d 853e 89d0 1cbe
000001f0: c7cc 9e3e 6660 853e

linear2.bias f4 [6]
-0.10075929 0.26866367 -0.7244242 -0.08766769 0.6328572 -1.1429641
00000000: e35a cebd 498e 893e dd73 39bf 1e8b b3bd
00000010: ee02 223f a64c 92bf
