A3TGCN2_Checkpoints/Epoch_3.pth (torch, 35255 bytes, 17 tensors)

tgnn._attention f4 [16]
0.8716934 0.82122886 0.69842595 0.110805586 0.6426923 0.17644238 0.07862088 0.8469493
0.6187463 0.46606746 0.582342 0.61902875 0.325123 0.5544511 0.6331749 0.98510736
00000000: 4c27 5f3f 0e3c 523f 0bcc 323f 0aee e23d
00000010: 7c87 243f 50ad 343e fc03 a13d abd1 583f
00000020: 2866 1e3f 65a0 ee3e 5e14 153f ab78 1e3f
00000030: 8676 a63e 82f0 0d3f c017 223f ff2f 7c3f

tgnn._base_tgcn.conv_z.bias f4 [32]
0.34155405 0.3374611 0.20554729 0.11883907 -0.2366663 -0.22535038 -0.26475066 -0.36313826
0.40692377 0.38424692 -0.3971735 -0.37115645 0.19883516 0.073013924 0.33621073 0.33118466
-0.36583433 0.40147457 0.23521532 0.39370337 0.36747834 -0.33754772 -0.3768782 0.32824314
-0.30099973 -0.31456065 -0.2964752 0.285933 0.2623828 -0.22367127 0.23372577 0.34303686
00000000: 2ce0 ae3e b4c7 ac3e fd7a 523e e661 f33d
00000010: a758 72be 40c2 66be 668d 87be 42ed b9be
00000020: 5058 d03e 03bc c43e 535a cbbe 3808 bebe
00000030: 729b 4b3e 5388 953d d023 ac3e 0991 a93e
00000040: a34e bbbe 138e cd3e 49dc 703e 7d93 c93e
00000050: 1f26 bc3e 0ed3 acbe 2ef6 c0be 7c0f a83e
00000060: a31c 9abe 180e a1be 99cb 97be cf65 923e
00000070: 0a57 863e 150a 65be cf55 6f3e 87a2 af3e

tgnn._base_tgcn.conv_z.lin.weight f4 [32, 3]
0.15760681 -0.29097092 -1.1836101 0.5298054 -0.42085046 -0.74525505 -0.2119034 0.32184106
-0.428003 -0.52126896 0.71517134 1.1402377 0.28454462 -0.42136353 0.14418714 -0.41523346
0.46388265 1.1275269 -0.5562905 -0.038484424 0.58683175 -0.37518188 0.20865878 0.7906386
0.50319386 -0.43771952 -0.93048203 0.61905223 -0.75978065 -0.90898615 -0.21891049 0.41416973
0.6573026 -0.64487225 0.46274373 0.5955959 -0.20360312 0.38455167 -0.38980252 -0.54676986
0.24310009 0.8631315 0.58537143 -0.42314017 -0.82041204 0.33020285 -0.25557303 -1.2869118
-0.43366686 0.3650293 0.65164 0.45136172 -0.6036636 -1.3010879 -0.009376341 0.2088339
-0.1497614 0.22487617 -0.42575246 -1.2548516 0.6302535 -0.3872842 -0.71339387 -0.40992984
0.293254 0.44569245 -0.55981773 0.7197969 1.1189812 0.4460282 -0.22163762 -1.1812936
-0.16624135 0.035936356 0.98117346 -0.21625966 0.04960733 0.946138 0.021851875 0.07113451
0.41409236 -0.014275202 -0.14550346 -0.32351166 0.45355445 -0.06136332 -0.7461834 0.4205813
0.7357684 0.5419016 0.22089393 -1.1005142 -0.44950557 0.32944152 -0.4374054 -0.99368227
00000000: ae63 213e 24fa 94be 8980 97bf 54a1 073f
00000010: b679 d7be 09c9 3ebf 34fd 58be 5ac8 a43e
00000020: 3623 dbbe e271 05bf 7815 373f 4ff3 913f
00000030: d5af 913e f6bc d7be cba5 133e 7b99 d4be
00000040: 0782 ed3e cd52 903f 0e69 0ebf d8a1 1dbd
00000050: 9b3a 163f d717 c0be a6aa 553e 4b67 4a3f
00000060: 50d1 003f c61c e0be 1234 6ebf 357a 1e3f
00000070: fc80 42bf 51b3 68bf 122a 60be 0e0e d43e
00000080: fc44 283f 5916 25bf bfec ec3e f978 183f
00000090: 567d 50be f5e3 c43e 3294 c7be 1cf9 0bbf
000000a0: 3bef 783e 30f6 5c3f e7da 153f d4a5 d8be
000000b0: 8606 52bf 5910 a93e 78da 82be 87b9 a4bf
000000c0: 9509 debe 1fe5 ba3e e1d1 263f e218 e73e
000000d0: b389 1abf 0c8a a6bf 399f 19bc 8ed8 553e
000000e0: 0d5b 19be f045 663e 3afc d9be fa9e a0bf
000000f0: 4b58 213f 1d4a c6be fba0 36bf 53e2 d1be
00000100: 6325 963e cd31 e43e 3750 0fbf 9c44 383f
00000110: c73a 8f3f cf5d e43e f9f4 62be a134 97bf
00000120: 2c3b 2abe 0032 133d 2f2e 7b3f 2c73 5dbe
00000130: 0e31 4b3d 1a36 723f b402 b33c f8ae 913d
00000140: ea03 d43e 89e2 69bc dcfe 14be 52a3 a5be
00000150: 4a38 e83e 1b58 7bbd e005 3fbf 6f56 d73e
00000160: 515b 3c3f 10ba 0a3f 0532 623e a6dd 8cbf
00000170: 9825 e6be 8fac a83e 9af3 dfbe f661 7ebf

tgnn._base_tgcn.linear_z.weight f4 [32, 64]
-0.47914335 -0.4631787 0.1433754 0.95096654 -0.21584675 0.8689453 0.1715304 0.16330974
-0.52466786 -0.84709233 0.4347935 0.4108506 0.029436061 0.29438385 -0.5480996 -0.5682865
0.475252 -0.87574595 -0.04306538 -0.8473856 -0.34117097 0.37080827 0.9506949 -0.29503193
0.2525645 0.15092722 0.016173929 -0.12079865 -0.22644463 0.23037018 -0.6125556 -0.6665413
0.020246342 0.05585386 0.04477328 0.035287514 0.023139253 -0.022408113 0.11468598 -0.018079445
-0.054737613 0.07708734 -0.046232447 0.11530076 0.11062801 -0.083804354 -0.10268128 -0.040863156
0.08063172 -0.10281703 0.06785013 -0.12408477 -0.023813754 -0.032880887 0.013255671 0.10097024
-0.08791071 0.0020627677 0.006105587 -0.05243057 0.008615732 0.09010275 -0.07649019 0.07910547
-0.24020134 -0.34945703 -0.25381815 -0.28484988 0.39829236 0.23491493 0.25492856 0.4146854
-0.28773662 -0.39198843 0.33046678 0.46468794 -0.36529002 -0.3644851 -0.36794963 -0.2110463
0.22483921 -0.46646565 -0.2612381 -0.3926239 -0.2798199 0.39090818 0.33671492 -0.18793342
0.19802934 0.37602085 0.40186858 -0.2610601 -0.10706187 0.39501357 -0.4843203 -0.31773135
0.093658105 0.05391912 -0.07390167 -0.069662586 0.027618676 0.035378426 0.06620745 -0.09150325
0.12043749 -0.024570048 0.043849334 -0.05357112 0.047658175 0.10675146 -0.089991465 0.011300921
0.015317336 -0.018027395 -0.034281567 0.02419296 0.02312699 -0.051177472 0.044286117 0.104240134
0.030525789 -0.06379549 -0.018762544 -0.032129034 0.12478389 -0.064913705 0.07503353 -0.12432723
0.04489264 -0.118017495 -0.013276979 -0.09453888 -0.10209602 0.022381723 0.093163416 0.09084082
-0.053114906 -0.036311343 -0.020940498 -0.0033688247 -0.081808746 -0.0043317676 0.07468517 0.10478647
0.09609833 -0.060765564 0.073355466 0.06644446 0.107522964 -0.032896265 -0.09538354 0.014442787
0.06507723 -0.028276697 0.009666905 -0.017961666 -0.10631283 0.036880836 0.031946033 0.002603352
-0.103888705 0.05001934 0.004877478 -0.11019075 -0.10833873 0.013715833 0.014794603 0.010000929
0.063540414 -0.0005918145 0.11912532 -0.03559117 -0.070905566 -0.087597415 -0.061122417 0.120372415
0.062828586 -0.04591556 -0.08431047 -0.008374155 0.08703378 0.12108922 -0.113912866 -0.058497608
-0.103632584 -0.023029372 -0.017973796 0.11268407 0.12016699 0.11531803 -0.04985313 -0.054382443
-0.33534324 -0.27546638 -0.27669078 -0.29567552 0.16381627 0.147152 0.14732455 0.12986009
-0.25616747 -0.23942599 0.2701537 0.15566412 -0.059715472 -0.21805492 -0.14859919 -0.26641425
0.15115686 -0.15902108 -0.2886684 -0.17810173 -0.30968034 0.29979622 0.40987882 -0.061121445
0.20747666 0.13968092 0.16240425 -0.3278817 -0.07577559 0.33929688 -0.60424703 -0.3252924
0.054764062 -0.0863833 -0.088368 0.05049646 -0.04610756 0.047094464 0.096982315 -0.04505831
-0.018742532 -0.09812556 -0.096838206 0.016707003 0.024006382 -0.09953986 -0.10314228 0.06481597
-0.004865214 0.10605247 0.10647841 0.038697034 -0.015579879 0.04774873 0.08730343 0.11532177
0.09415296 -0.10505602 -0.06537247 -0.11926623 -0.10969284 0.013711423 0.11988363 0.033814043
00000000: 4752 f5be c225 edbe 00d1 123e 8b72 733f
00000010: ee06 5dbe 3373 5e3f aaa5 2f3e ab3a 273e
00000020: a250 06bf 0bdb 58bf 419d de3e 035b d23e
00000030: e523 f13c 7bb9 963e 4150 0cbf 397b 11bf
00000040: 3b54 f33e e330 60bf 5365 30bd 43ee 58bf
00000050: f6ad aebe 95da bd3e be60 733f 6d0e 97be
00000060: 2250 813e aa8c 1a3e 307f 843c 4865 f7bd
00000070: 1ae1 67be 29e6 6b3e 72d0 1cbf 73a2 2abf
00000080: a8db a53c 04c7 643d 3064 373d a489 103d
00000090: 888e bd3c 3891 b7bc 7ce0 ea3d 581b 94bc
000000a0: 8c34 60bd f8df 9d3d 3c5e 3dbd ce22 ec3d
000000b0: f090 e23d 9ea1 abbd 904a d2bd 2060 27bd
000000c0: 3e22 a53d bc91 d2bd 02f5 8a3d 2820 febd
000000d0: 1015 c3bc 1cae 06bd 502e 593c 7cc9 ce3d
000000e0: 880a b4bd 802f 073b 6011 c83b 70c1 56bd
000000f0: 0029 0d3c ca87 b83d e4a6 9cbd 0c02 a23d
00000100: 57f7 75be 08ec b2be 74f4 81be d8d7 91be
00000110: faec cb3e 8a8d 703e ff85 823e a551 d43e
00000120: 3752 93be b5b2 c8be f132 a93e 94eb ed3e
00000130: 4b07 bbbe cb9d babe e563 bcbe 851c 58be
00000140: 403c 663e 96d4 eebe 00c1 85be 0006 c9be
00000150: 8e44 8fbe 1e25 c83e e665 ac3e 9e71 40be
00000160: 34c8 4a3e ce85 c03e b8c1 cd3e aba9 85be
00000170: 4143 dbbd 383f ca3e d5f8 f7be afad a2be
00000180: d2cf bf3d 4cda 5c3d c259 97bd 42ab 8ebd
00000190: 9040 e23c f8e8 103d c697 873d 0e66 bbbd
000001a0: eea7 f63d 2047 c9bc 5c9b 333d 646d 5bbd
000001b0: 3835 433d 82a0 da3d 724d b8bd 8027 393c
000001c0: 90f5 7a3c 30ae 93bc d46a 0cbd 5030 c63c
000001d0: d074 bd3c 789f 51bd 5c65 353d da7b d53d
000001e0: 3811 fa3c 36a7 82bd e8b3 99bc bc99 03bd
000001f0: b28e ff3d 7af1 84bd 2eab 993d 469f febd
00000200: 58e1 373d 28b3 f1bd b087 59bc 9a9d c1bd
00000210: b817 d1bd e059 b73c 76cc be3d c00a ba3d
00000220: 048f 59bd 34bb 14bd 688b abbc 80c7 5cbb
00000230: 588b a7bd 80f1 8dbb 8af4 983d 4a9a d63d
00000240: 34cf c43d 50e5 78bd 643b 963d 0814 883d
00000250: 0035 dc3d 3cbe 06bd 7258 c3bd 70a1 6c3c
00000260: 3647 853d 88a4 e7bc f061 1e3c 5824 93bc
00000270: 8aba d9bd 5c10 173d d8d9 023d 009d 2a3b
00000280: 9ac3 d4bd 14e1 4c3d 40d3 9f3b b0ab e1bd
00000290: b2e0 ddbd 60b8 603c 1065 723c f0da 233c
000002a0: 7a21 823d 0024 1bba faf7 f33d 0cc8 11bd
000002b0: f036 91bd 4666 b3bd 805b 7abd d085 f63d
000002c0: 46ac 803d f411 3cbd f8aa acbd c033 09bc
000002d0: c43e b23d a0fd f73d 264b e9bd 309b 6fbd
000002e0: 523d d4bd 18a8 bcbc c83d 93bc e8c6 e63d
000002f0: 1c1a f63d dc2b ec3d cc32 4cbd 20c0 5ebd
00000300: 1cb2 abbe ee09 8dbe 6aaa 8dbe c862 97be
00000310: 74bf 273e 04af 163e 3fdc 163e 0bfa 043e
00000320: 6228 83be 162c 75be 9651 8a3e 6a66 1f3e
00000330: 3698 74bd ca49 5fbe 632a 18be 7367 88be
00000340: ddc8 1a3e 6cd6 22be 58cc 93be 4d60 36be
00000350: 6c8e 9ebe e47e 993e a3db d13e 7b5a 7abd
00000360: c374 543e 8408 0f3e 4d4d 263e 1ce0 a7be
00000370: 3c30 9bbd 52b8 ad3e efaf 1abf ba8c a6be
00000380: 4850 603d bae9 b0bd 48fa b4bd 60d5 4e3d
00000390: 48db 3cbd 20e6 403d aa9e c63d 108f 38bd
000003a0: f089 99bc 0ef6 c8bd 1c53 c6bd 20dd 883c
000003b0: 08a9 c43c 8edb cbbd 423c d3bd 3cbe 843d
000003c0: 606c 9fbb 0a32 d93d 5a11 da3d c880 1e3d
000003d0: c042 7fbc 2c94 433d 24cc b23d d22d ec3d
000003e0: 44d3 c03d 9c27 d7bd 00e2 85bd da41 f4bd
000003f0: a4a6 e0bd e0a5 603c 8c85 f53d 9880 0a3d

tgnn._base_tgcn.linear_z.bias f4 [32]
-0.21452413 -0.36347097 0.11818309 -0.19316165 -0.28146496 -0.36674 -0.1987517 0.015448966
-0.2678712 -0.28379908 -0.24255164 -0.22779419 -0.30464998 -0.4252077 -0.005861491 0.06856956
0.060834035 -0.110993326 -0.23230466 -0.3976425 -0.26444718 0.090005636 -0.14225799 -0.22535545
-0.23678058 -0.41734588 -0.21345985 -0.3686228 -0.24242875 -0.25289088 0.11974424 -0.26788017
00000000: 37ac 5bbe de18 babe fa09 f23d 2bcc 45be
00000010: 2d1c 90be 58c5 bbbe 9185 4bbe a91d 7d3c
00000020: 6a26 89be 1d4e 91be 755f 78be e142 69be
00000030: 15fb 9bbe d3b4 d9be c011 c0bb 336e 8c3d
00000040: 1c2d 793d 7850 e3bd 46e1 6dbe cc97 cbbe
00000050: 9f65 87be e054 b83d 14ac 11be 94c3 66be
00000060: 9c76 72be 5cae d5be 3895 5abe 21bc bcbe
00000070: 3e3f 78be ea7a 81be 783c f53d 9727 89be

tgnn._base_tgcn.conv_r.bias f4 [32]
0.0 0.0 0.0 0.0 0.0 0.0 0.0 0.0
0.0 0.0 0.0 0.0 0.0 0.0 0.0 0.0
0.0 0.0 0.0 0.0 0.0 0.0 0.0 0.0
0.0 0.0 0.0 0.0 0.0 0.0 0.0 0.0
00000000: 0000 0000 0000 0000 0000 0000 0000 0000
00000010: 0000 0000 0000 0000 0000 0000 0000 0000
00000020: 0000 0000 0000 0000 0000 0000 0000 0000
00000030: 0000 0000 0000 0000 0000 0000 0000 0000
00000040: 0000 0000 0000 0000 0000 0000 0000 0000
00000050: 0000 0000 0000 0000 0000 0000 0000 0000
00000060: 0000 0000 0000 0000 0000 0000 0000 0000
00000070: 0000 0000 0000 0000 0000 0000 0000 0000

tgnn._base_tgcn.conv_r.lin.weight f4 [32, 3]
0.16965911 -0.037553072 0.058 0.30765042 -0.29204863 -0.020177722 -0.14040816 -0.28139192
0.093972 0.011039704 0.09644386 0.32871267 -0.28202555 -0.038353562 -0.11378935 0.2503403
-0.06998673 -0.36193478 0.021415055 0.13195279 0.16137215 -0.1009852 0.14807871 0.06853992
0.20136961 0.24095705 -0.18302193 -0.28173542 0.09143564 0.23300639 0.14357045 -0.18475646
-0.3047736 0.09166607 0.2801251 -0.18565165 -0.23761752 0.31345937 -0.3765382 0.3082089
-0.008306354 0.12245819 -0.14770049 -0.2538972 0.39423618 0.1664029 -0.081643015 -0.24177888
0.30107394 -0.17729856 0.24553058 0.16594991 -0.27114642 0.17000952 -0.013642997 0.2751501
-0.17664571 -0.37121272 -0.39349604 -0.2380074 0.28203174 -0.24862173 -0.09803039 -0.008543164
-0.0024053752 -0.07843304 -0.24303538 -0.07063952 -0.31078428 -0.35467574 0.2420921 -0.21242094
0.2418544 -0.19488631 0.18474093 -0.07327154 -0.15576243 0.18501553 0.15467903 0.09230062
0.0032456815 -0.064685404 -0.40229955 -0.07319707 0.3462328 0.29382756 0.09371677 0.19856241
-0.05077201 -0.25669378 -0.17840756 0.17265919 0.40160397 0.14477381 -0.06058258 -0.35659665
00000000: 1ebb 2d3e 40d1 19bd 6891 6d3d 5b84 9d3e
00000010: 6687 95be c04b a5bc 28c7 0fbe 9a12 90be
00000020: 6474 c03d e0df 343c 5c84 c53d 074d a83e
00000030: a765 90be a018 1dbd 640a e9bd 9b2c 803e
00000040: 3455 8fbd 844f b9be a06e af3c a21e 073e
00000050: be3e 253e 54d1 cebd f2a1 173e a85e 8c3d
00000060: d633 4e3e 72bd 763e 1a6a 3bbe a03f 90be
00000070: 9c42 bb3d 3a99 6e3e 2204 133e cc30 3dbe
00000080: 490b 9cbe 6cbb bb3d 8f6c 8f3e 771b 3ebe
00000090: 0252 73be bf7d a03e 9dc9 c0be 8fcd 9d3e
000000a0: 6017 08bc 5ccb fa3d cc3e 17be d0fe 81be
000000b0: 53d9 c93e 8665 2a3e 7434 a7bd e294 77be
000000c0: 5d26 9a3e c18d 35be 5e6c 7b3e c6ee 293e
000000d0: b4d3 8abe fa16 2e3e e086 5fbc 79e0 8c3e
000000e0: 9de2 34be 980f bebe 5078 c9be 36b8 73be
000000f0: 7766 903e b296 7ebe 28c4 c8bd a0f8 0bbc
00000100: 80a3 1dbb 80a1 a0bd 44de 78be 74ab 90bd
00000110: 1e1f 9fbe 0f98 b5be fee6 773e e084 59be
00000120: aea8 773e 4790 47be ba2c 3d3e 640f 96bd
00000130: 3080 1fbe b674 3d3e 2e64 1e3e 1c08 bd3d
00000140: 80b5 543b c879 84bd 35fa cdbe 58e8 95bd
00000150: 6d45 b13e 9170 963e 94ee bf3d f253 4b3e
00000160: 50f6 4fbd 5e6d 83be 79b0 36be 92cd 303e
00000170: 099f cd3e 963f 143e 7025 78bd d693 b6be

tgnn._base_tgcn.linear_r.weight f4 [32, 64]
-0.0737533 0.028673455 -0.032104403 -0.12430988 0.023893312 0.048621297 0.09931053 -0.055989906
0.08454122 -0.109967485 0.027058244 0.020878121 -0.091980115 0.060285464 0.11037688 -0.06267205
-0.042791396 0.018074214 0.0893611 -0.06952338 -0.04769768 0.044731513 0.040796995 0.05926755
0.09976938 0.11329433 0.08910236 0.057434827 0.07203089 0.07495734 -0.10994126 0.004388988
-0.10482623 0.022965789 0.053581893 -0.05908522 0.10908194 0.0551638 0.05457759 0.010787532
-0.05875577 0.024723545 0.06955607 0.097279936 0.102921784 0.068602756 0.078430876 -0.06932917
-0.01930362 -0.03687437 0.08161858 -0.08983253 0.10153371 -0.01866734 0.1183773 0.039708212
0.09733391 -0.034043327 0.10284725 -0.080348924 0.015347764 0.0022714138 0.12186824 0.03173916
-0.040606976 -0.07542311 0.09682092 -0.052967355 -0.07345587 -0.12261371 -0.011134699 -0.099027485
-0.022750065 -0.06654717 0.12324947 -0.076426074 0.08456457 0.1138739 0.07961732 -0.016986832
-0.025938496 0.0994955 0.07756573 -0.03612061 0.12461914 -0.09103081 0.079083994 -0.0047383457
0.04116547 0.111663654 0.11636995 -0.023028597 -0.08192125 0.09238055 0.094509155 0.089937136
0.07603483 0.047504812 0.08732188 -0.10251002 0.03876269 0.12215617 0.081613794 0.033509687
-0.11827195 0.11838812 -0.07183464 -0.09912117 0.09434812 -0.052059487 0.04769762 0.03788577
0.010921791 -0.045271084 -0.10343398 0.12095538 -0.016146734 0.06182453 -0.024830401 0.11602168
0.103963226 -0.07811932 -0.12052645 0.034886345 -0.009425536 -0.02181767 -0.12315288 -0.09520942
0.054510206 -0.013940781 0.095344365 0.07157417 0.046865344 0.020214915 -0.020744637 0.0204359
0.09030457 -0.037425146 0.06276348 0.07593283 0.085754424 -0.003007695 -0.10925077 0.054074943
0.12003927 0.019124791 -0.047037944 0.0062987953 -0.04449065 -0.0047605634 -0.06831531 -0.03906238
0.035863712 -0.020403177 -0.07982069 -0.06808221 0.024407327 -0.08916354 0.097904295 0.08319639
-0.008596018 0.05303788 -0.0790337 0.08667514 -0.06043899 -0.11556941 -0.055516303 0.070264935
-0.03175597 -0.00755772 -0.08008659 0.075812355 -0.123395056 0.035371795 -0.113339216 0.08593795
0.036074966 -0.0587029 0.003116846 -0.026199058 -0.058345765 0.10942617 -0.10953143 -0.007835388
0.11132103 0.027757466 -0.10250929 -0.109727144 0.006608546 0.046119615 -0.04573056 -0.08610521
0.0019403249 0.0358672 -0.10136476 -0.09186567 0.017764926 -0.080696076 -0.028668359 -0.056228444
0.06199874 0.09111193 -0.12174462 0.11964612 0.11698486 -0.11165273 0.079869494 -0.032285094
-0.037735626 0.06451696 0.07672463 -0.016776934 0.122696295 -0.1064823 -0.026864812 -0.060408384
-0.109726876 0.12463212 -0.09144989 -0.08874783 -0.090840906 0.06981388 -0.09892553 0.024035156
0.09114279 0.039981857 -0.029892802 -0.0809309 0.10096422 -0.055679306 -0.025997818 0.0798495
-0.058491245 0.08375488 -0.115570486 0.07122977 0.060371473 0.03087908 0.020154595 -0.0026038438
0.03317128 -0.07926443 -0.0968841 -0.07242809 -0.058182612 0.060762987 -0.09345868 0.022324905
-0.015727803 -0.016988322 0.022311449 -0.02521415 0.075103655 -0.034029573 -0.092093796 0.015399814
00000000: f80b 97bd 98e4 ea3c e87f 03bd 2e96 febd
00000010: e8bb c33c 2027 473d 5263 cb3d ac55 65bd
00000020: f223 ad3d a236 e1bd 40a9 dd3c 9808 ab3c
00000030: 1260 bcbd e4ed 763d 460d e23d 345a 80bd
00000040: 0846 2fbd 6010 943c f402 b73d 4662 8ebd
00000050: a45e 43bd 6438 373d c01a 273d 88c2 723d
00000060: e453 cc3d dc06 e83d 4c7b b63d c840 6b3d
00000070: ee84 933d 3c83 993d e228 e1bd 80d1 8f3b
00000080: 22af d6bd c022 bc3c b078 5b3d 5803 72bd
00000090: 5a66 df3d 70f3 613d c08c 5f3d 30be 303c
000000a0: e4a9 70bd 0889 ca3c 6a73 8e3d b43a c73d
000000b0: a8c8 d23d 9a7f 8c3d 5ea0 a03d 74fc 8dbd
000000c0: a022 9ebc 9409 17bd a427 a73d 1efa b7bd
000000d0: e8f0 cf3d 40ec 98bc cc6f f23d 14a5 223d
000000e0: 0057 c73d 0471 0bbd 94a1 d23d fa8d a4bd
000000f0: 3075 7b3c 00dc 143b 0e96 f93d ec00 023d
00000100: 8053 26bd 6e77 9abd 0c4a c63d 4cf4 58bd
00000110: 0870 96bd e61c fbbd 506e 36bc ecce cabd
00000120: 585e babc e249 88bd 386a fc3d 4685 9cbd
00000130: 3030 ad3d b836 e93d 680e a33d f827 8bbc
00000140: f87c d4bc 4cc4 cb3d c8da 9e3d 34f3 13bd
00000150: 5238 ff3d 5c6e babd caf6 a13d 2044 9bbb
00000160: 209d 283d eaaf e43d 5e53 ee3d 78a6 bcbc
00000170: 54c6 a7bd 0432 bd3d 048e c13d f630 b83d
00000180: 26b8 9b3d 6894 423d d0d5 b23d c6f0 d1bd
00000190: a0c5 1e3d 042d fa3d 2225 a73d 7441 093d
000001a0: 9038 f2bd 7875 f23d 0a1e 93bd 0a00 cbbd
000001b0: 9639 c13d 543c 55bd 945e 433d 1c2e 1b3d
000001c0: 50f1 323c 2c6e 39bd 32d5 d3bd 74b7 f73d
000001d0: 2846 84bc b83b 7d3d 2069 cbbc c69c ed3d
000001e0: acea d43d 06fd 9fbd 92d6 f6bd fce4 0e3d
000001f0: 906d 1abc f8ba b2bc 9437 fcbd 28fd c2bd
00000200: 1846 5f3d e067 64bc e843 c33d 7a95 923d
00000210: e0f5 3f3d c099 a53c a8f0 a9bc 3069 a73c
00000220: 9af1 b83d 1c4b 19bd 248a 803d ac82 9b3d
00000230: 04a0 af3d c01c 45bb debe dfbd b07d 5d3d
00000240: 26d7 f53d 98ab 9c3c dcaa 40bd 2066 ce3b
00000250: d43b 36bd 80fe 9bbb e6e8 8bbd e0ff 1fbd
00000260: d4e5 123d 9024 a7bc 0879 a3bd b06e 8bbd
00000270: e0f1 c73c 609b b6bd 0c82 c83d de62 aa3d
00000280: 50d6 0cbc 403e 593d 6cdc a1bd bc82 b13d
00000290: e08e 77bd a8af ecbd 1065 63bd 10e7 8f3d
000002a0: 8c12 02bd c0a6 f7bb 7004 a4bd 8243 9b3d
000002b0: 8cb6 fcbd 04e2 103d 641e e8bd 3c00 b03d
000002c0: 58c3 133d 7472 70bd 0044 4c3b 689f d6bc
000002d0: f8fb 6ebd d41a e03d 0452 e0bd 0060 00bc
000002e0: 48fc e33d a063 e33c 64f0 d1bd a0b8 e0bd
000002f0: 808c d83b ece7 3c3d f84f 3bbd ee57 b0bd
00000300: 8052 fe3a 7ce9 123d 5498 cfbd 1224 bcbd
00000310: c087 913c fc43 a5bd e8d9 eabc cc4f 66bd
00000320: 64f2 7d3d e498 ba3d 3e55 f9bd 0609 f53d
00000330: c295 ef3d 30aa e4bd 9e92 a33d 603d 04bd
00000340: ac90 1abd 7821 843d ce21 9d3d c86f 89bc
00000350: 3248 fb3d 6413 dabd 9813 dcbc c86e 77bd
00000360: 7cb8 e0bd 203f ff3d 144a bbbd 6cc1 b5bd
00000370: cc0a babd 94fa 8e3d 7899 cabd 60e5 c43c
00000380: 12a9 ba3d 04c4 233d c0e1 f4bc 1abf a5bd
00000390: 54c6 ce3d fc0f 64bd 60f9 d4bc 2288 a33d
000003a0: 8494 6fbd ae87 ab3d 38b0 ecbd eae0 913d
000003b0: 1448 773d 20f6 fc3c 401b a53c 40a5 2abb
000003c0: 9cde 073d 6455 a2bd 2c6b c6bd 2e55 94bd
000003d0: e450 6ebd 9ce2 783d 4467 bfbd b8e2 b63c
000003e0: 98d7 80bc 182b 8bbc 80c6 b63c e88d cebc
000003f0: f2cf 993d 9862 0bbd ac9b bcbd 804f 7c3c

tgnn._base_tgcn.linear_r.bias f4 [32]
0.07399389 -0.10156308 -0.061086252 0.05020684 0.06644811 -0.014549255 0.068296224 0.009360775
-0.0023612827 -0.121732384 -0.11818594 0.10928008 0.05197528 -0.11607598 0.058765724 -0.04471408
0.0374524 0.06750192 0.0333198 -0.01913163 -0.088471755 0.04522881 -0.0526039 -0.10631165
-0.1044216 0.056450054 0.124298066 0.0009716004 0.09883721 0.036037147 0.06460135 0.06896998
00000000: 1c8a 973d 4e00 d0bd 9435 7abd b0a5 4d3d
00000010: f215 883d 0060 6ebc e4de 8b3d f05d 193c
00000020: c0bf 1abb d44e f9bd 780b f2bd 3cce df3d
00000030: 08e4 543d 3eb9 edbd 54b4 703d 1c26 37bd
00000040: b067 193d 723e 8a3d 587a 083d f0b9 9cbc
00000050: ae30 b5bd d841 393d 3077 57bd ecb9 d9bd
00000060: feda d5bd 2c38 673d fc8f fe3d 00b3 7e3a
00000070: 2a6b ca3d b09b 133d b64d 843d 2240 8d3d

tgnn._base_tgcn.conv_h.bias f4 [32]
0.18773942 0.035832323 -0.021545596 -0.05798512 0.02567167 -0.23994827 0.112890616 0.12119808
0.22553708 0.014938022 -0.116679065 0.06692902 -0.19800271 -0.015162277 0.095397055 -0.22080514
0.024597082 -0.112868994 0.12559427 -0.06836933 0.04988861 0.25575083 0.028638264 0.036102604
-0.0947984 0.10910044 -0.06584871 0.12464092 0.24476144 0.22184461 -0.10037507 0.019006602
00000000: c33e 403e eac4 123d 6480 b0bc ce81 6dbd
00000010: 654d d23c 00b5 75be 3233 e73d b336 f83d
00000020: 31f3 663e 9bbe 743c 6ff5 eebd 1512 893d
00000030: 39c1 4abe 336b 78bc 885f c33d be1a 62be
00000040: d27f c93c dc27 e7bd c99b 003e 3805 8cbd
00000050: 0058 4c3d c6f1 823e cb9a ea3c 53e0 133d
00000060: aa25 c2bd 0d70 df3d b0db 86bd bd43 ff3d
00000070: bea2 7a3e 3c2b 633e 7291 cdbd bcb3 9b3c

tgnn._base_tgcn.conv_h.lin.weight f4 [32, 3]
0.22759727 -0.65344715 0.4469693 -0.36486354 -0.66967237 0.50863177 -0.35306078 -0.13202637
1.0005502 0.019971423 0.66312337 -0.24246044 0.26021394 0.36699608 -0.5979382 0.28840962
0.44577652 -0.051638775 -0.41482186 -0.5677604 0.2827605 -0.3753613 -0.38975206 0.44841477
0.19560452 0.43168524 -0.5084675 -0.06033828 -0.6537997 0.39423233 0.5466417 0.4078982
-0.5565221 -0.44808468 -0.6822242 0.06940626 -0.114336625 0.66985923 0.1580394 0.60585636
0.604116 -0.35353583 0.112792104 -0.53612566 0.5440364 -0.2661559 -0.17947093 -0.42156315
-0.55885065 -0.08166695 0.9147345 -0.54678816 -0.47083825 0.19417758 -0.09729068 -0.6174483
0.36320958 0.17539227 0.7404622 0.3798718 -0.19169651 -0.6489065 -0.16853282 0.29664415
0.02650795 0.33882153 0.7615626 0.3620276 0.05561121 -0.3595475 -0.58870715 0.72375387
0.27157652 0.46041274 -0.49034116 0.12706022 -0.48092893 0.4229788 -0.30560216 -0.5778794
-0.048512556 -0.28083086 -0.25815427 0.52569145 0.086353295 -0.40744418 0.5418351 -0.22395657
0.4169366 0.6407626 0.4746409 0.43698198 -0.6584605 -0.13425109 -0.6586405 0.3900555
00000000: 420f 693e 5048 27bf 29d9 e43e 65cf babe
00000010: a66f 2bbf b135 023f 62c4 b4be ec31 07be
00000020: 0712 803f 1c9b a33c 74c2 293f 8d47 78be
00000030: c33a 853e e9e6 bb3e 7a12 19bf 6daa 933e
00000040: d23c e43e 2e83 53bd 8863 d4be bf58 11bf
00000050: fcc5 903e 5b2f c0be 958d c7be 9f96 e53e
00000060: 8d4c 483e d905 dd3e ed2a 02bf 4625 77bd
00000070: 6b5f 27bf d2d8 c93e b6f0 0b3f 08d8 d03e
00000080: 3b78 0ebf 5b6b e5be 3fa6 2ebf df24 8e3d
00000090: 5229 eabd e57b 2b3f 15d5 213e 6719 1b3f
000000a0: 59a7 1a3f a602 b5be 8cff e63d 883f 09bf
000000b0: f845 0b3f 9645 88be 3ac7 37be 20d7 d7be
000000c0: d610 0fbf 0041 a7bd 0a2c 6a3f 4ffa 0bbf
000000d0: b611 f1be 7dd6 463e 5640 c7bd 1711 1ebf
000000e0: 9bf6 b93e 089a 333e ee8e 3d3f 8e7e c23e
000000f0: 174c 44be bd1e 26bf de93 2cbe bee1 973e
00000100: 3327 d93c 047a ad3e c4f5 423f ae5b b93e
00000110: 95c8 633d 9c16 b8be 83b5 16bf ef47 393f
00000120: 140c 8b3e 38bb eb3e ff0d fbbe 131c 023e
00000130: 513c f6be ad90 d83e e377 9cbe e8ef 13bf
00000140: 1ab5 46bd 10c9 8fbe cc2c 84be b793 063f
00000150: ffd9 b03d 869c d0be b5b5 0a3f df54 65be
00000160: b778 d53e 0509 243f 2204 f33e 1abc df3e
00000170: de90 28bf 1e79 09be aa9c 28bf 5bb5 c73e

tgnn._base_tgcn.linear_h.weight f4 [32, 64]
-0.29327393 -0.21649072 -0.29893667 0.39859182 0.41335738 0.28251082 -0.40514842 -0.44194797
0.28504515 -0.2592328 0.37990567 -0.44612196 0.14771211 0.39161247 -0.31636712 -0.20811097
-0.4134869 -0.28449392 -0.35800812 0.42920497 -0.2272284 0.06762004 0.24015285 -0.43399915
0.31585467 -0.1838273 -0.37460086 -0.31419075 -0.08209646 0.12825347 0.2679411 -0.19263063
-0.064880475 0.087567165 0.08037771 -0.062485382 -0.038240895 -0.07648395 0.11553256 -0.054766923
0.06087494 -0.035721913 0.097739205 0.10307735 0.09622486 0.018606737 0.04877597 0.023506805
-0.026669994 -0.05257401 0.0071945935 -0.076635376 -0.08987668 -0.085349455 0.058197305 -0.009746268
0.112571985 0.07403371 0.053111807 -0.03747432 -0.10009195 0.11500466 0.0024447143 -0.10971551
0.46818563 0.18016301 0.093155466 -0.40880436 -0.21522804 -0.31021094 0.1851457 0.2270575
0.055584997 0.31279325 -0.13466811 0.13579033 -0.28789702 -0.1980624 0.4892059 -0.14105393
0.045824338 0.09236049 0.5720798 -0.28373548 0.107139274 0.09835438 0.025659723 0.13014135
-0.25977087 0.4749639 0.124677025 0.3606265 0.22611876 0.0035636297 -0.29464298 0.39872983
-0.08901258 -0.012996018 -0.11977331 0.021012723 -0.065784276 0.05583188 -0.081155494 -0.06269881
0.0064311028 0.006788656 0.09010455 -0.0013136566 0.046465456 0.079957694 -0.08357698 0.07751277
-0.052453622 0.014318407 0.0261413 0.02369374 0.029151112 0.04550059 -0.08227602 0.031429112
-0.017895773 0.07363206 -0.07054855 0.039543808 0.05335839 -0.051761553 -0.08255084 0.09131689
0.11222008 0.08187668 -0.09636347 0.046249285 -0.10028753 -0.01668723 -0.10299203 0.066693366
0.07665081 0.0799686 -0.057508305 0.11726977 0.08922483 0.016186595 -0.09274556 0.07154882
0.03661424 0.00875701 -0.12228711 -0.07388063 -0.014846459 -0.114295825 0.08827916 -0.024357006
-0.018873945 0.042424113 0.05246395 -0.07742748 0.019144341 -0.05939658 -0.10576825 0.12350875
0.030642197 -0.085110545 -0.069131315 0.035117194 -0.1163127 -0.042874634 0.08264306 -0.076086074
0.10263243 0.041057214 -0.10347648 0.05265352 0.11913769 0.0495276 0.10274571 -0.0016127229
-0.09405221 0.040168658 0.032083154 0.053182095 -0.019699648 -0.062812835 0.036071077 -0.09388283
0.103567004 -0.05184968 -0.1249986 0.07039614 0.0063922554 -0.040023923 -0.045174018 -0.082000986
0.23673025 0.06493304 0.1993616 -0.08456864 -0.02591495 -0.11577301 0.17142525 0.22422555
0.14679866 0.054544553 -0.10929107 -0.06183143 -0.31740314 0.02399353 0.4165239 -0.26177108
0.10183909 -0.1370788 0.110615715 -0.1089618 0.0946324 0.21062365 -0.009873211 0.07121483
-0.07699429 0.27141598 -0.096841045 0.20603247 0.33104417 0.24522714 -0.21101668 -0.04214761
-0.018408418 0.08362214 0.04971437 0.11824444 -0.041034713 -0.058303148 -0.020620987 0.10073264
0.09965317 -0.06432268 0.11720145 0.07487394 0.048134834 -0.013988778 0.08852579 0.06946412
0.07644658 0.03668432 -0.026370183 0.063246146 -0.08859962 0.004238531 -0.08772674 0.019797921
0.10409342 -0.114822656 -0.032590494 -0.10962956 -0.09747049 0.071014464 0.002326429 0.014486715
00000000: 0028 96be beaf 5dbe 3a0e 99be 3a14 cc3e
00000010: 94a3 d33e 42a5 903e 9d6f cfbe 0147 e2be
00000020: 70f1 913e 29ba 84be ff82 c23e 196a e4be
00000030: d841 173e 6e81 c83e dffa a1be 0b1b 55be
00000040: 8eb4 d3be 30a9 91be d74c b7be c1c0 db3e
00000050: 90ae 68be 607c 8a3d a1ea 753e 2335 debe
00000060: b4b7 a13e 393d 3cbe afcb bfbe 9cdd a0be
00000070: 3022 a8bd e154 033e 932f 893e f740 45be
00000080: 0ee0 84bd 6a56 b33d 129d a43d acf0 7fbd
00000090: 7ca2 1cbd 9ea3 9cbd 569c ec3d 4853 60bd
000000a0: 0058 793d 2451 12bd 7e2b c83d 381a d33d
000000b0: 8a11 c53d 286d 983c 50c9 473d 5891 c03c
000000c0: 087b dabc d857 57bd a0c0 eb3b 02f3 9cbd
000000d0: 4411 b8bd b2cb aebd 4c60 6e3d d0ae 1fbc
000000e0: 248c e63d fc9e 973d c48b 593d ac7e 19bd
000000f0: 02fd ccbd 9087 eb3d 8037 203b 86b2 e0bd
00000100: 07b6 ef3e a77c 383e 4bc8 be3d ce4e d1be
00000110: bd64 5cbe f8d3 9ebe d696 3d3e c381 683e
00000120: 18ad 633d 7026 a03e 70e6 09be 9f0c 0b3e
00000130: 3d67 93be dfd0 4abe 3279 fa3e 7170 10be
00000140: 4db2 3b3d 7f27 bd3d d273 123f c745 91be
00000150: d66b db3d 056e c93d 5734 d23c c643 053e
00000160: b000 85be 782e f33e ab56 ff3d 09a4 b83e
00000170: ad8b 673e c98b 693b 72db 96be 5126 cc3e
00000180: 3a4c b6bd 40ed 54bc b64b f5bd e022 ac3c
00000190: e8b9 86bd f8af 643d da34 a6bd 3c68 80bd
000001a0: 00bc d23b 6073 de3b bc88 b83d 002f acba
000001b0: 9052 3e3d dcc0 a33d 682a abbd 04bf 9e3d
000001c0: 9cd9 56bd c097 6a3c 4826 d63c 6019 c23c
000001d0: 50ce ee3c d45e 3a3d 5480 a8bd d0bb 003d
000001e0: 289a 92bc 68cc 963d c27b 90bd b0f8 213d
000001f0: 548e 5a3d ec03 54bd 6a10 a9bd 5a04 bb3d
00000200: a4d3 e53d f6ae a73d 365a c5bd e46f 3d3d
00000210: 8c63 cdbd a8b3 88bc 7ced d2bd 8896 883d
00000220: 1afb 9c3d 94c6 a33d d48d 6bbd 222b f03d
00000230: 82bb b63d c099 843c 62f1 bdbd 3088 923d
00000240: d0f8 153d 9079 0f3c aa71 fabd ba4e 97bd
00000250: 903e 73bc ee13 eabd b4cb b43d 5888 c7bc
00000260: 889d 9abc e8c4 2d3d 70e4 563d 4c92 9ebd
00000270: 98d4 9c3c d449 73bd 069d d8bd 28f2 fc3d
00000280: 5805 fb3c 704e aebd b894 8dbd 0cd7 0f3d
00000290: 5a35 eebd 509d 2fbd c440 a93d 04d3 9bbd
000002a0: f430 d23d 9c2b 283d 7aeb d3bd 38ab 573d
000002b0: 76fe f33d 74dd 4a3d 586c d23d 0062 d3ba
000002c0: 729e c0bd e487 243d a069 033d 78d5 593d
000002d0: 2861 a1bc 04a4 80bd 44bf 133d a445 c0bd
000002e0: f01a d43d 5460 54bd 44ff ffbd da2b 903d
000002f0: 2076 d13b 20f0 23bd 6408 39bd 22f0 a7bd
00000300: 6a69 723e 9dfb 843d 7325 4c3e 5332 adbd
00000310: 974b d4bc 661a edbd 1a8a 2f3e 629b 653e
00000320: 6352 163e 1c6a 5f3d ffd3 dfbd f442 7dbd
00000330: aa82 a2be 148e c43c 9f42 d53e dc06 86be
00000340: 0391 d03d 635e 0cbe 7e8a e23d 5d27 dfbd
00000350: a2ce c13d baad 573e 40c3 21bc 15d9 913d
00000360: 2faf 9dbd 09f7 8a3e 9954 c6bd 2dfa 523e
00000370: 9f7e a93e d31c 7b3e c214 58be f9a2 2cbd
00000380: 40cd 96bc 1642 ab3d 4ca1 4b3d 242a f23d
00000390: 0414 28bd 48cf 6ebd 58ed a8bc ea4c ce3d
000003a0: f616 cc3d 9cbb 83bd 5007 f03d 8257 993d
000003b0: 0829 453d 3031 65bc 024d b53d 3443 8e3d
000003c0: 0690 9c3d 4c42 163d 4806 d8bc 3287 813d
000003d0: b873 b5bd 60e3 8a3b 14aa b3bd 402f a23c
000003e0: ee2e d53d 2428 ebbd 9c7d 05bd 7685 e0bd
000003f0: 9c9e c7bd 0870 913d 0077 183b b059 6d3c

tgnn._base_tgcn.linear_h.bias f4 [32]
0.09699976 0.23377015 -0.089107886 0.05288873 0.12036791 0.28338945 -0.029411772 -0.10619929
0.10342784 0.32388833 0.0628028 0.096280694 0.093766585 0.22926816 -0.025297495 -0.12629332
-0.08333522 -0.027405486 0.081017226 0.24289462 0.2567297 -0.26496258 0.09444008 0.099617675
0.16415803 0.3614427 0.36328128 0.3368878 0.24307041 0.043789707 -0.0034676546 0.108253784
00000000: cfa7 c63d 7161 6f3e 327e b6bd daa1 583d
00000010: 7383 f63d 6c18 913e f5f0 f0bc 037f d9bd
00000020: fad1 d33d b1d4 a53e c19e 803d d02e c53d
00000030: b208 c03d 46c5 6a3e b13c cfbc 0953 01be
00000040: a8ab aabd 7881 e0bc 5cec a53d 5eb9 783e
00000050: 1372 833e 2da9 87be cd69 c13d 5a04 cc3d
00000060: 0b19 283e 040f b93e 0100 ba3e 8f7c ac3e
00000070: 73e7 783e d65c 333d 9741 63bb 29b4 dd3d

linear.weight f4 [16, 32]
0.17164692 -0.22292145 -0.11142372 -0.0021813442 0.21881327 -0.41083312 0.118772626 -0.051787853
0.22647935 -0.42926887 0.21638581 0.2259088 0.32669026 -0.23142132 0.055190824 0.091960385
0.01706636 -0.11412977 0.30370763 -0.21139741 -0.26913974 -0.38086474 0.28984565 0.0489186
-0.27572763 -0.3510982 -0.30870068 -0.31068155 -0.25618142 0.18987791 0.08048946 -0.01721447
0.04008433 -0.2501679 0.04278122 -0.11521876 0.1585282 -0.35938403 0.14652868 -0.043036036
0.34112284 -0.3264088 0.34653524 0.104353994 0.23944856 -0.24752174 -0.11252437 0.117471136
0.036463365 -0.05523041 0.31471696 -0.27594674 -0.35156292 -0.40980005 0.105076045 0.35564145
-0.08225441 -0.38082856 -0.23659052 -0.33498833 -0.36967644 0.19739722 0.1312343 0.19719274
0.32814074 -0.24070749 -0.11556661 -0.03794227 0.11877962 -0.26598734 0.40443146 -0.10496654
0.1205495 -0.35352513 0.120096594 0.28762284 0.13934867 -0.2975394 0.037580185 0.05849137
-0.13937864 -0.14554152 0.056426294 -0.44693828 -0.41968635 -0.42956623 0.2884815 0.17685622
-0.5547522 -0.23506725 -0.2847135 -0.43381986 -0.19610865 0.35663623 0.001525232 0.05089468
0.21526715 -0.42578632 0.007895321 0.09800245 0.22693445 -0.14720985 0.09431745 0.043840613
0.14470753 -0.46067378 0.26749873 0.12650207 0.21568325 -0.35958079 0.04641578 -0.1404911
0.17592205 0.12355836 0.17488761 -0.36248004 -0.32014304 -0.63970286 0.38492277 0.36546987
-0.4692982 -0.3174257 -0.4363845 -0.43991867 -0.3391644 0.074652925 -0.04456652 0.21270394
0.16887605 -0.33348176 -0.057647467 -0.3345314 0.16285665 -0.32065353 0.25647867 0.08735913
0.33167797 -0.38907275 0.38628557 0.20634393 0.21422227 -0.10529901 0.004466538 -0.09487621
0.17476274 0.10485466 0.20143645 -0.2377153 -0.28521892 -0.5802562 0.05524228 0.35501027
-0.37672904 -0.4775039 -0.38602838 -0.3809254 -0.3175311 0.056315307 0.0066551045 0.3220008
0.3914601 -0.41410688 0.16676386 -0.079187065 0.18883382 -0.54262865 0.36020887 -0.03732955
0.10740024 -0.40180296 0.09397508 0.23110813 0.3892684 -0.18926188 -0.009680115 0.109137855
-0.09364671 -0.13452554 0.0825907 -0.20641094 -0.39334908 -0.49462306 0.3978412 0.06979148
-0.33188647 -0.42166004 -0.32995853 -0.305159 -0.5683847 0.28537917 0.07012463 0.23031092
0.17126991 -0.30168584 0.12310888 -0.34227505 0.34493098 -0.30396262 0.2606809 0.04947257
0.36238888 -0.3150907 0.16639243 0.3236898 0.26794925 -0.40101916 -0.101359785 -0.041528
-0.10396226 0.08113755 0.23697497 -0.3068865 -0.15622717 -0.60337216 0.0969473 0.06998141
-0.6406293 -0.29825628 -0.46192968 -0.41032737 -0.4973757 0.15495376 0.03750951 0.40654
0.28985968 -0.62718976 -0.025357336 -0.47247595 0.1571614 -0.4074055 0.33379948 -0.061065324
0.28691408 -0.3275954 0.36881343 0.10926566 0.25824797 -0.4688363 0.0103350775 -0.089699514
-0.01727216 -0.021731004 0.113749534 -0.3244487 -0.21265298 -0.64614624 0.3023419 0.33283892
-0.3915835 -0.327742 -0.2682034 -0.20692387 -0.53845125 0.022081483 0.021410936 0.1697635
00000000: 36c4 2f3e 8545 64be 1f32 e4bd e2f4 0ebb
00000010: 9610 603e b858 d2be 103f f33d 801f 54bd
00000020: 34ea 673e 21c9 dbbe 3e94 5d3e a354 673e
00000030: f243 a73e b6f9 6cbe c60f 623d ba55 bc3d
00000040: c0ce 8b3c debc e9bd 917f 9b3e 9078 58be
00000050: afcc 89be b400 c3be a666 943e df5e 483d
00000060: 2c2c 8dbe 25c3 b3be 040e 9ebe a711 9fbe
00000070: 362a 83be 5b6f 423e a8d7 a43d 5c05 8dbc
00000080: 772f 243d 0216 80be 5c3b 2f3d d0f7 ebbd
00000090: 3755 223e 2f01 b8be 9d0b 163e 8e46 30bd
000000a0: a7a7 ae3e 0e1f a7be 116d b13e 8cb7 d53d
000000b0: 0132 753e 5776 7dbe 2d73 e6bd b594 f03d
000000c0: 9c5a 153d 4839 62bd 9522 a13e e448 8dbe
000000d0: 0e00 b4be 50d1 d1be 1c32 d73d a316 b63e
000000e0: 0075 a8bd f6fb c2be c944 72be 9783 abbe
000000f0: 3b46 bdbe 7f22 4a3e 4962 063e e5ec 493e
00000100: 1002 a83e 067c 76be 30ae ecbd 5b69 1bbd
00000110: bb42 f33d 7e2f 88be a411 cf3e b3f8 d6bd
00000120: a8e2 f63d 3f01 b5be 34f5 f53d 4d43 933e
00000130: 6bb1 0e3e 1657 98be aeed 193d a694 6f3d
00000140: 46b9 0ebe d608 15be 421f 673d 18d5 e4be
00000150: 21e1 d6be 1bf0 dbbe d9b3 933e cc19 353e
00000160: 3d04 0ebf 78b5 70be f8c5 91be a31d debe
00000170: b5d0 48be 0699 b63e 4bea c73a f176 503d
00000180: fe6e 5c3e aa00 dabe 605b 013c 82b5 c83d
00000190: 8161 683e 2ebe 16be 8229 c13d 3792 333d
000001a0: 362e 143e 6fdd ebbe 98f5 883e c289 013e
000001b0: 12dc 5c3e f91a b8be 791e 3e3d e6dc 0fbe
000001c0: e924 343e 2a0c fd3d bd15 333e fc96 b9be
000001d0: cae9 a3be 91c3 23bf 9914 c53e de1e bb3e
000001e0: db47 f0be 9f85 a2be ca6d dfbe 053d e1be
000001f0: f5a6 adbe a2e3 983d 628b 36bd 10cf 593e
00000200: d8ed 2c3e 1fbe aabe c01f 6cbd b347 abbe
00000210: e5c3 263e b32c a4be 2c51 833e 58e9 b23d
00000220: b2d1 a93e 8b34 c7be 39c7 c53e d34b 533e
00000230: 155d 5b3e 02a7 d7bd 095c 923b 754e c2bd
00000240: 01f5 323e 0abe d63d 5b45 4e3e a46b 73be
00000250: 3708 92be ac8b 14bf bb45 623d e8c3 b53e
00000260: a1e2 c0be 647b f4be 83a5 c5be a708 c3be
00000270: 7093 a2be e1aa 663d 1013 da3b 4add a43e
00000280: 756d c83e d105 d4be 25c4 2a3e d42c a2bd
00000290: a75d 413e b6e9 0abf 4c6d b83e dfe6 18bd
000002a0: a8f4 db3d 1eb9 cdbe 0276 c03d 9ca7 6c3e
000002b0: 304e c73e decd 41be 5899 1ebc ab83 df3d
000002c0: d9c9 bfbd 10c1 09be 5025 a93d 645d 53be
000002d0: 0d65 c9be 3c3f fdbe d7b1 cb3e d6ee 8e3d
000002e0: 06ed a9be d3e3 d7be 53f0 a8be cd3d 9cbe
000002f0: a981 11bf 381d 923e 819d 8f3d a0d6 6b3e
00000300: 6161 2f3e 9176 9abe 8220 fc3d ad3e afbe
00000310: cb9a b03e fda0 9bbe f877 853e c0a3 4a3d
00000320: 098b b93e 9153 a1be c762 2a3e abba a53e
00000330: a530 893e 6252 cdbe b895 cfbd 4419 2abd
00000340: 2aea d4bd 722b a63d 91a9 723e 3a20 9dbe
00000350: 04fa 1fbe 9976 1abf 4e8c c63d 6a52 8f3d
00000360: 4800 24bf 0cb5 98be 0c82 ecbe 6e16 d2be
00000370: 07a8 febe 33ac 1e3e 92a3 193d 0326 d03e
00000380: 7d68 943e 828f 20bf 30ba cfbc 5ee8 f1be
00000390: ebee 203e 7497 d0be c4e7 aa3e a21f 7abd
000003a0: 67e6 923e 96ba a7be 1dd5 bc3e adc6 df3d
000003b0: 1439 843e 500b f0be 7554 293c 61b4 b7bd
000003c0: 587e 8dbc 3805 b2bc 84f5 e83d 241e a6be
000003d0: b4c1 59be d769 25bf 8fcc 9a3e dd69 aa3e
000003e0: a27d c8be cdcd a7be f551 89be dae3 53be
000003f0: f1d7 09bf 3ae4 b43c fd65 af3c 7cd6 2d3e

linear.bias f4 [16]
0.035329405 -0.11937881 0.037591226 0.075056866 -0.07247749 -0.101634264 -0.14909236 -0.058981366
-0.14269437 0.0022143873 -0.023019724 -0.014712648 -0.14255732 0.015417045 0.06682258 -0.13713491
00000000: 91b5 103d e17c f4bd 42f9 193d 6ab7 993d
00000010: 146f 94bd a025 d0bd abab 18be 7296 71bd
00000020: 791e 12be 411f 113b dc93 bcbc 510d 71bc
00000030: 8cfa 11be c697 7c3c 47da 883d 186d 0cbe

linear2.weight f4 [6, 21]
0.46612835 0.4707124 0.24876104 0.08656747 -0.18407257 0.27102593 -0.29438058 -0.08558155
-0.07163632 0.35094175 -0.202564 -0.1875419 -0.09368477 0.19627592 0.062246058 -0.20792292
-0.0596146 0.048858352 0.009310258 -0.10723056 -0.039232276 0.021379938 0.10236456 -0.13881281
0.27051702 0.05530335 0.1455311 0.18371572 0.15080695 0.24462657 -0.06286596 0.15803966
0.06609686 0.25381786 -0.08605913 0.050167825 -0.11905055 0.088120915 -0.16409977 -0.15610337
0.05442478 0.14748059 -0.15362486 -0.030724626 0.031303473 0.16292447 -0.024281958 -0.37990355
0.06555039 -0.2331288 -0.021735342 -0.020199087 -0.16296628 -0.12187316 0.0661856 -0.31922147
-0.16006073 0.1389262 0.18850873 -0.1909774 0.0014111256 -0.03695823 -0.006959525 -0.24644886
-0.03747961 -0.37126112 -0.27621037 0.116882585 0.013766304 0.2399304 -0.09222888 0.22011821
0.08430487 0.16389337 0.08500021 0.20022899 -0.09239038 0.16697566 0.3248772 0.16244774
0.07030897 0.13757904 0.134364 0.2727954 -0.052847486 -0.048925076 0.10121884 0.27794725
0.1347825 -0.000270203 0.083099686 0.13348317 -0.004558969 -0.010056552 0.010913071 -0.21226391
-0.095010325 -0.018115245 0.12932648 0.0063440735 -0.24913923 0.21408136 0.1667777 0.21922621
0.054960564 -0.0932822 -0.31450865 -0.14955668 -0.016968818 0.0012788281 -0.08536275 0.20197219
-0.122903414 -0.03620532 0.091567256 0.035908554 -0.08307713 0.16774385 -0.20923015 0.12902199
0.20309219 0.22499351 0.08727546 -0.103410475 0.28112122 0.25853655
00000000: 60a8 ee3e 3701 f13e 37bb 7e3e 494a b13d
00000010: 857d 3cbe e9c3 8a3e 0db9 96be 6145 afbd
00000020: 10b6 92bd a3ae b33e f06c 4fbe fc0a 40be
00000030: cddd bfbd 8efc 483e b9f5 7e3d bfe9 54be
00000040: 702e 74bd b21f 483d 0d8a 183c b29b dbbd
00000050: 06b2 20bd fb24 af3c 83a4 d13d f224 0ebe
00000060: 3581 8a3e c485 623d 1b06 153e f91f 3c3e
00000070: 236d 1a3e 637f 7a3e debf 80bd 26d5 213e
00000080: ca5d 873d 6af4 813e c53f b0bd c77c 4d3d
00000090: c6d0 f3bd bd78 b43d c509 28be 90d9 1fbe
000000a0: 85ec 5e3d 2705 173e d64f 1dbe 36b2 fbbc
000000b0: 1238 003d acd5 263e f5ea c6bc b882 c2be
000000c0: 483f 863d 51b9 6ebe 510e b2bc 8e78 a5bc
000000d0: a2e0 26be a398 f9bd 518c 873d ff70 a3be
000000e0: f6e6 23be ab42 0e3e 6f08 413e 948f 43be
000000f0: 85f5 b83a 8361 17bd ba0c e4bb 175d 7cbe
00000100: 3884 19bd f015 bebe 726b 8dbe 2360 ef3d
00000110: 108c 613c 51b0 753e 7fe2 bcbd ab66 613e
00000120: 08a8 ac3d aad3 273e 9714 ae3d d408 4d3e
00000130: 2b37 bdbd abfb 2a3e 4e56 a63e b358 263e
00000140: 26fe 8f3d 85e1 0c3e b796 093e d7ab 8b3e
00000150: 9b76 58bd a965 48bd d34b cf3d 1a4f 8e3e
00000160: 6c04 0a3e 08aa 8db9 2b30 aa3d d0af 083e
00000170: 6763 95bb 3cc4 24bc bdcc 323c b65b 59be
00000180: c694 c2bd 6c66 94bc 296e 043e f2e1 cf3b
00000190: 5b1e 7fbe 2538 5b3e c6c7 2a3e d67c 603e
000001a0: 541e 613d bd0a bfbd 4707 a1be 6325 19be
000001b0: 3102 8bbc 5a9e a73a aad2 aebd ccd1 4e3e
000001c0: c9b4 fbbd 084c 14bd 9d87 bb3d d914 133d
000001d0: 5824 aabd 0bc5 2b3e 6e40 56be 571e 043e
000001e0: 66f7 4f3e b364 663e 7abd b23d dfc8 d3bd
000001f0: 1fef 8f3e e75e 843e

linear2.bias f4 [6]
-0.029052338 0.014730476 0.18044417 0.0049563996 0.24703364 -0.2261447
00000000: 2bff edbc 1858 713c 5bc6 383e 4b69 a23b
00000010: 63f6 7c3e 7a92 67be
