A3TGCN2_Checkpoints/Epoch_18.pth (torch, 35255 bytes, 17 tensors)

tgnn._attention f4 [16]
00000000: 4e9f a83f 3a43 6d3f d4dc 193f 76b3 6dbd
00000010: 4f3c 903e e42a 26be a7b8 6ebe 9542 b23e
00000020: d53f 213e c238 953d 32a0 8e3e 1e64 f53e
00000030: 8564 d83e f119 3b3f feca 653f 1174 ab3f
1.3173616 0.92680705 0.6010258 -0.058032475 0.28171012 -0.16227299 -0.23312627 0.34816423
0.15747006 0.07286216 0.27856594 0.47927946 0.4226419 0.7308646 0.89762866 1.3394796

tgnn._base_tgcn.conv_z.bias f4 [32]
00000000: b10d 013f d214 fa3e b871 a63d 5425 6abd
00000010: fa25 e6bc 4160 c0be 3487 ccbe 2735 fdbe
00000020: 8c23 0f3f 8f59 0b3f 904f 0fbf c6af 06bf
00000030: ace2 f93c fae9 8e3d ebe7 fa3e bd6f f73e
00000040: fccc 04bf f5e1 0f3f b62d 983e fe9f 0f3f
00000050: ea84 053f 4efb fdbe 5a67 09bf 7a78 f73e
00000060: 3706 dabe ad2d eebe 28f8 ddbe 8621 df3e
00000070: 67a5 ce3e 11d5 9dbe dfbf ac3e 70fd 023f
0.50411516 0.4884401 0.08127159 -0.057164505 -0.02809428 -0.37573436 -0.39946902 -0.49454615
0.55913615 0.5443353 -0.5598078 -0.5261196 0.030503593 0.06978221 0.49005064 0.48327437
-0.5187528 0.5620416 0.29722375 0.56103504 0.52155936 -0.49605793 -0.53673327 0.48334104
-0.42582867 -0.46519223 -0.4335339 0.43580264 0.40360567 -0.3082662 0.33740136 0.51167965

tgnn._base_tgcn.conv_z.lin.weight f4 [32, 3]
00000000: 37b6 4dbe db57 ccbe 5aac a4bf 0c8e 5e3e
00000010: 3939 08bf 45a3 49bf 39fc d1be ac25 853e
00000020: 7801 fabe 56d2 73be 4227 3d3f 5729 933f
00000030: a432 9a3e 8e44 cbbe 49d5 e63d 4a62 d9bd
00000040: 7edd 0f3f 12e0 a33f a608 bbbe 3884 67bd
00000050: 791d 443e d030 01bd fac2 b13e d649 683f
00000060: 763f 353e 8c7b 0cbf 3d25 80bf 46cc 9a3e
00000070: 621e 59bf f853 83bf 4ae4 123e 3e0b 093f
00000080: 1dea 383f 6a27 aebe e31b 103f c553 233f
00000090: 80a3 e6bd 4234 f83e 38d3 7abe 8cf0 40bf
000000a0: 2785 883d 6bf3 e43e 39c0 8c3e ceda 03bf
000000b0: 8192 61bf ccbe 36bc 5e0d afbe c1b1 b1bf
000000c0: 05d1 dabd 77fd f13e 54a7 363f 2b44 f83d
000000d0: b554 31bf d705 b3bf 8af8 b6be 02fb 20be
000000e0: 1ce3 27be 7d74 fcbd 2ed0 02bf 2c2a adbf
000000f0: 1a3d a43e 06b1 f7be d0eb 3fbf 6903 b9bd
00000100: bfc9 ce3e c23a ee3e 708c 76be 00fb 4d3f
00000110: fbe5 9d3f 26ed e73d 57c7 96be 9005 a6bf
00000120: 0ab9 583e 8617 433e d27c 853f 07d9 0e3e
00000130: 1234 123e 2217 833f 28ee ee3e 759e 9d3e
00000140: 57bb 123f 1d6d edbe 1c0f c7be bcb7 f2be
00000150: 9bd5 dd3d c4ca 0bbe 0a0b 4cbf 0505 453f
00000160: 0fbf 823f afa9 623f 05ec bfbd ae6e a6bf
00000170: 3822 38bf c3fc f0bb a558 07bf 4171 88bf
-0.2008904 -0.39910778 -1.2865098 0.21733874 -0.53212315 -0.78764755 -0.41012743 0.26005304
-0.48829246 -0.23810706 0.7388803 1.1496991 0.3011676 -0.3970074 0.1127115 -0.1061445
0.56197345 1.2802756 -0.36530036 -0.056522578 0.19151868 -0.03154069 0.34719068 0.90737665
0.1769999 -0.5487602 -1.0011364 0.30233973 -0.84811985 -1.026 0.14344898 0.5353278
0.7223223 -0.34014446 0.5629255 0.637997 -0.11261654 0.4847737 -0.24494636 -0.75367045
0.06666022 0.44716963 0.27490404 -0.51505744 -0.8811417 -0.011153888 -0.34189886 -1.3882371
-0.106843986 0.4726369 0.7134907 0.12122377 -0.6926988 -1.3986157 -0.35736495 -0.15720752
-0.16395229 -0.12326906 -0.51098907 -1.3528495 0.32077867 -0.48377246 -0.74969196 -0.090338536
0.40388295 0.46529204 -0.2407701 0.8046112 1.233581 0.11324529 -0.2944896 -1.2970448
0.21164337 0.19051942 1.0428717 0.13949977 0.14277676 1.0241435 0.46666074 0.30784956
0.5731711 -0.4637231 -0.38878715 -0.47405803 0.10831758 -0.13651568 -0.79704344 0.76960784
1.0214556 0.88540167 -0.09371189 -1.3002527 -0.71927214 -0.0073543503 -0.52869636 -1.0659562

tgnn._base_tgcn.linear_z.weight f4 [32, 64]
00000000: 152b 80bf 472d 2abf 2419 383d 3704 4f3f
00000010: 1aae e4bd ec60 7e3f 26dd 2e3e 258c bb3e
00000020: a432 42bf 1fc2 91bf 5b55 9e3f 4dda 0e3f
00000030: efeb 06bc 8912 e0be b7c9 2dbf 2d28 41bf
00000040: 56fe 3e3f 001d a3bf eaa7 debe 7e14 b7bf
00000050: 49e0 e7be f7f4 1e3f 4a29 9e3f a61a c8be
00000060: 9b5c f83e 9031 aa3e d057 4e3f 2255 82bf
00000070: 3460 91be b2fd d83e f9dc 36bf 7202 97bf
00000080: a8db a53c 04c7 643d 3064 373d a489 103d
00000090: 888e bd3c 3891 b7bc 7ce0 ea3d 581b 94bc
000000a0: 8c34 60bd f8df 9d3d 3c5e 3dbd ce22 ec3d
000000b0: f090 e23d 9ea1 abbd 904a d2bd 2060 27bd
000000c0: 3e22 a53d bc91 d2bd 02f5 8a3d 2820 febd
000000d0: 1015 c3bc 1cae 06bd 502e 593c 7cc9 ce3d
000000e0: 880a b4bd 802f 073b 6011 c83b 70c1 56bd
000000f0: 0029 0d3c ca87 b83d e4a6 9cbd 0c02 a23d
00000100: b060 b1be 42fc acbe f9f0 9ebe a6f9 923e
00000110: b862 9b3e ebdb 5f3f 66c9 9f3e abc4 ab3e
00000120: 8b66 84be 2f2f eebe 5700 a83c 2d1f bc3e
00000130: de0a dabe 2e32 7d3f ea49 d3be 2322 f9be
00000140: c3cf 793d f1dd 2cbf ae82 9d3e 5719 eebe
00000150: bc45 7abe 6a09 0b3e 3b33 063f 7ade d7be
00000160: be61 7c3e 5e39 bf3e 4814 cebd 2280 8f3e
00000170: d7eb 45be dfa7 0d3e 8ad8 d6be 34a2 b1be
00000180: d2cf bf3d 4cda 5c3d c259 97bd 42ab 8ebd
00000190: 9040 e23c f8e8 103d c697 873d 0e66 bbbd
000001a0: eea7 f63d 2047 c9bc 5c9b 333d 646d 5bbd
000001b0: 3835 433d 82a0 da3d 724d b8bd 8027 393c
000001c0: 90f5 7a3c 30ae 93bc d46a 0cbd 5030 c63c
000001d0: d074 bd3c 789f 51bd 5c65 353d da7b d53d
000001e0: 3811 fa3c 36a7 82bd e8b3 99bc bc99 03bd
000001f0: b28e ff3d 7af1 84bd 2eab 993d 469f febd
00000200: 58e1 373d 28b3 f1bd b087 59bc 9a9d c1bd
00000210: b817 d1bd e059 b73c 76cc be3d c00a ba3d
00000220: 048f 59bd 34bb 14bd 688b abbc 80c7 5cbb
00000230: 588b a7bd 80f1 8dbb 8af4 983d 4a9a d63d
00000240: 34cf c43d 50e5 78bd 643b 963d 0814 883d
00000250: 0035 dc3d 3cbe 06bd 7258 c3bd 70a1 6c3c
00000260: 3647 853d 88a4 e7bc f061 1e3c 5824 93bc
00000270: 8aba d9bd 5c10 173d d8d9 023d 009d 2a3b
00000280: 9ac3 d4bd 14e1 4c3d 40d3 9f3b b0ab e1bd
00000290: b2e0 ddbd 60b8 603c 1065 723c f0da 233c
000002a0: 7a21 823d 0024 1bba faf7 f33d 0cc8 11bd
000002b0: f036 91bd 4666 b3bd 805b 7abd d085 f63d
000002c0: 46ac 803d f411 3cbd f8aa acbd c033 09bc
000002d0: c43e b23d a0fd f73d 264b e9bd 309b 6fbd
000002e0: 523d d4bd 18a8 bcbc c83d 93bc e8c6 e63d
000002f0: 1c1a f63d dc2b ec3d cc32 4cbd 20c0 5ebd
00000300: 9669 5dbf fed2 1fbf 18a6 423e 42f7 a43d
00000310: a266 8cbe 01b3 813f ea9e 463d 093b 933e
00000320: de22 11bf 8175 83bf c0f6 5e3f 54c9 dc3e
00000330: 7732 e13e ad44 bebe 9f01 e0be 006c edbe
00000340: ade4 e13e 7fd4 61bf 4e64 07bf 9558 4abf
00000350: eba3 01bf c324 073f 6547 9e3f 4399 13be
00000360: c074 8f3e 408b 0c3e ab25 4b3f 23e6 93bf
00000370: ac14 70bd b49b 543f ef0e bdbf 3f03 6cbf
00000380: 4850 603d bae9 b0bd 48fa b4bd 60d5 4e3d
00000390: 48db 3cbd 20e6 403d aa9e c63d 108f 38bd
000003a0: f089 99bc 0ef6 c8bd 1c53 c6bd 20dd 883c
000003b0: 08a9 c43c 8edb cbbd 423c d3bd 3cbe 843d
000003c0: 606c 9fbb 0a32 d93d 5a11 da3d c880 1e3d
000003d0: c042 7fbc 2c94 433d 24cc b23d d22d ec3d
000003e0: 44d3 c03d 9c27 d7bd 00e2 85bd da41 f4bd
000003f0: a4a6 e0bd e0a5 603c 8c85 f53d 9880 0a3d
-1.0013148 -0.6647534 0.04494585 0.80865806 -0.1116602 0.9936664 0.17076549 0.3663036
-0.7585852 -1.1387366 1.2369798 0.5580185 -0.008234962 -0.4376414 -0.6788592 -0.7545193
0.74606836 -1.2743225 -0.43487483 -1.4303129 -0.45288303 0.62092537 1.235635 -0.3908283
0.48508152 0.33240938 0.8060274 -1.018223 -0.2839371 0.42381054 -0.7143093 -1.1797621
0.020246342 0.05585386 0.04477328 0.035287514 0.023139253 -0.022408113 0.11468598 -0.018079445
-0.054737613 0.07708734 -0.046232447 0.11530076 0.11062801 -0.083804354 -0.10268128 -0.040863156
0.08063172 -0.10281703 0.06785013 -0.12408477 -0.023813754 -0.032880887 0.013255671 0.10097024
-0.08791071 0.0020627677 0.006105587 -0.05243057 0.008615732 0.09010275 -0.07649019 0.07910547
-0.3464408 -0.33786207 -0.31043223 0.28706092 0.30348754 0.87444943 0.31208342 0.33548483
-0.25859484 -0.46520373 0.020507975 0.36742535 -0.42586416 0.98904693 -0.4126733 -0.48658857
0.060989153 -0.67526156 0.30763763 -0.46503708 -0.24440664 0.1357781 0.5242192 -0.42161924
0.2464666 0.37348455 -0.10062462 0.28027445 -0.19328247 0.13833569 -0.4196208 -0.34694064
0.093658105 0.05391912 -0.07390167 -0.069662586 0.027618676 0.035378426 0.06620745 -0.09150325
0.12043749 -0.024570048 0.043849334 -0.05357112 0.047658175 0.10675146 -0.089991465 0.011300921
0.015317336 -0.018027395 -0.034281567 0.02419296 0.02312699 -0.051177472 0.044286117 0.104240134
0.030525789 -0.06379549 -0.018762544 -0.032129034 0.12478389 -0.064913705 0.07503353 -0.12432723
0.04489264 -0.118017495 -0.013276979 -0.09453888 -0.10209602 0.022381723 0.093163416 0.09084082
-0.053114906 -0.036311343 -0.020940498 -0.0033688247 -0.081808746 -0.0043317676 0.07468517 0.10478647
0.09609833 -0.060765564 0.073355466 0.06644446 0.107522964 -0.032896265 -0.09538354 0.014442787
0.06507723 -0.028276697 0.009666905 -0.017961666 -0.10631283 0.036880836 0.031946033 0.002603352
-0.103888705 0.05001934 0.004877478 -0.11019075 -0.10833873 0.013715833 0.014794603 0.010000929
0.063540414 -0.0005918145 0.11912532 -0.03559117 -0.070905566 -0.087597415 -0.061122417 0.120372415
0.062828586 -0.04591556 -0.08431047 -0.008374155 0.08703378 0.12108922 -0.113912866 -0.058497608
-0.103632584 -0.023029372 -0.017973796 0.11268407 0.12016699 0.11531803 -0.04985313 -0.054382443
-0.86489236 -0.62431324 0.19008672 0.08054973 -0.27422053 1.0132753 0.048491396 0.28755978
-0.5669383 -1.0270234 0.8709526 0.4312235 0.43983814 -0.3716177 -0.43751237 -0.4637146
0.44119778 -0.8821487 -0.5288743 -0.79041415 -0.50640744 0.5279047 1.2365538 -0.14413933
0.2801876 0.13724995 0.7935435 -1.1554607 -0.058613464 0.83050084 -1.4770182 -0.92192453
0.054764062 -0.0863833 -0.088368 0.05049646 -0.04610756 0.047094464 0.096982315 -0.04505831
-0.018742532 -0.09812556 -0.096838206 0.016707003 0.024006382 -0.09953986 -0.10314228 0.06481597
-0.004865214 0.10605247 0.10647841 0.038697034 -0.015579879 0.04774873 0.08730343 0.11532177
0.09415296 -0.10505602 -0.06537247 -0.11926623 -0.10969284 0.013711423 0.11988363 0.033814043

tgnn._base_tgcn.linear_z.bias f4 [32]
00000000: 2a52 e0be bb7b 1f3d fa09 f23d 7285 35be
00000010: 4b3a ddbe 91a1 85be bc56 aabe a91d 7d3c
00000020: 66b8 e8be 18f8 04be 696f dfbe 6e61 e1be
00000030: 4cd8 03bf 50a3 ffbe c011 c0bb 336e 8c3d
00000040: 1c2d 793d 7850 e3bd 387f e9be 62f0 a8be
00000050: 4e75 6abe 2890 d53e 44c5 b3be 523b ecbe
00000060: b90c 8b3d bece a4be e4c5 87bd f62f 75be
00000070: 0b7f 083e d98e e3be 783c f53d ac90 90be
-0.43812686 0.038936358 0.11818309 -0.17726687 -0.43208537 -0.26099828 -0.33269298 0.015448966
-0.45453185 -0.12985265 -0.43639687 -0.44019645 -0.5150192 -0.49929285 -0.005861491 0.06856956
0.060834035 -0.110993326 -0.45604873 -0.32995898 -0.2289631 0.41711545 -0.3511144 -0.46139008
0.06789536 -0.32188982 -0.066295415 -0.23944077 0.13329713 -0.44444922 0.11974424 -0.28235376

tgnn._base_tgcn.conv_r.bias f4 [32]
00000000: 0000 0000 0000 0000 0000 0000 0000 0000
00000010: 0000 0000 0000 0000 0000 0000 0000 0000
00000020: 0000 0000 0000 0000 0000 0000 0000 0000
00000030: 0000 0000 0000 0000 0000 0000 0000 0000
00000040: 0000 0000 0000 0000 0000 0000 0000 0000
00000050: 0000 0000 0000 0000 0000 0000 0000 0000
00000060: 0000 0000 0000 0000 0000 0000 0000 0000
00000070: 0000 0000 0000 0000 0000 0000 0000 0000
0.0 0.0 0.0 0.0 0.0 0.0 0.0 0.0
0.0 0.0 0.0 0.0 0.0 0.0 0.0 0.0
0.0 0.0 0.0 0.0 0.0 0.0 0.0 0.0
0.0 0.0 0.0 0.0 0.0 0.0 0.0 0.0

tgnn._base_tgcn.conv_r.lin.weight f4 [32, 3]
00000000: 1ebb 2d3e 40d1 19bd 6891 6d3d 5b84 9d3e
00000010: 6687 95be c04b a5bc 28c7 0fbe 9a12 90be
00000020: 6474 c03d e0df 343c 5c84 c53d 074d a83e
00000030: a765 90be a018 1dbd 640a e9bd 9b2c 803e
00000040: 3455 8fbd 844f b9be a06e af3c a21e 073e
00000050: be3e 253e 54d1 cebd f2a1 173e a85e 8c3d
00000060: d633 4e3e 72bd 763e 1a6a 3bbe a03f 90be
00000070: 9c42 bb3d 3a99 6e3e 2204 133e cc30 3dbe
00000080: 490b 9cbe 6cbb bb3d 8f6c 8f3e 771b 3ebe
00000090: 0252 73be bf7d a03e 9dc9 c0be 8fcd 9d3e
000000a0: 6017 08bc 5ccb fa3d cc3e 17be d0fe 81be
000000b0: 53d9 c93e 8665 2a3e 7434 a7bd e294 77be
000000c0: 5d26 9a3e c18d 35be 5e6c 7b3e c6ee 293e
000000d0: b4d3 8abe fa16 2e3e e086 5fbc 79e0 8c3e
000000e0: 9de2 34be 980f bebe 5078 c9be 36b8 73be
000000f0: 7766 903e b296 7ebe 28c4 c8bd a0f8 0bbc
00000100: 80a3 1dbb 80a1 a0bd 44de 78be 74ab 90bd
00000110: 1e1f 9fbe 0f98 b5be fee6 773e e084 59be
00000120: aea8 773e 4790 47be ba2c 3d3e 640f 96bd
00000130: 3080 1fbe b674 3d3e 2e64 1e3e 1c08 bd3d
00000140: 80b5 543b c879 84bd 35fa cdbe 58e8 95bd
00000150: 6d45 b13e 9170 963e 94ee bf3d f253 4b3e
00000160: 50f6 4fbd 5e6d 83be 79b0 36be 92cd 303e
00000170: 099f cd3e 963f 143e 7025 78bd d693 b6be
0.16965911 -0.037553072 0.058 0.30765042 -0.29204863 -0.020177722 -0.14040816 -0.28139192
0.093972 0.011039704 0.09644386 0.32871267 -0.28202555 -0.038353562 -0.11378935 0.2503403
-0.06998673 -0.36193478 0.021415055 0.13195279 0.16137215 -0.1009852 0.14807871 0.06853992
0.20136961 0.24095705 -0.18302193 -0.28173542 0.09143564 0.23300639 0.14357045 -0.18475646
-0.3047736 0.09166607 0.2801251 -0.18565165 -0.23761752 0.31345937 -0.3765382 0.3082089
-0.008306354 0.12245819 -0.14770049 -0.2538972 0.39423618 0.1664029 -0.081643015 -0.24177888
0.30107394 -0.17729856 0.24553058 0.16594991 -0.27114642 0.17000952 -0.013642997 0.2751501
-0.17664571 -0.37121272 -0.39349604 -0.2380074 0.28203174 -0.24862173 -0.09803039 -0.008543164
-0.0024053752 -0.07843304 -0.24303538 -0.07063952 -0.31078428 -0.35467574 0.2420921 -0.21242094
0.2418544 -0.19488631 0.18474093 -0.07327154 -0.15576243 0.18501553 0.15467903 0.09230062
0.0032456815 -0.064685404 -0.40229955 -0.07319707 0.3462328 0.29382756 0.09371677 0.19856241
-0.05077201 -0.25669378 -0.17840756 0.17265919 0.40160397 0.14477381 -0.06058258 -0.35659665

tgnn._base_tgcn.linear_r.weight f4 [32, 64]
00000000: f80b 97bd 98e4 ea3c e87f 03bd 2e96 febd
00000010: e8bb c33c 2027 473d 5263 cb3d ac55 65bd
00000020: f223 ad3d a236 e1bd 40a9 dd3c 9808 ab3c
00000030: 1260 bcbd e4ed 763d 460d e23d 345a 80bd
00000040: 0846 2fbd 6010 943c f402 b73d 4662 8ebd
00000050: a45e 43bd 6438 373d c01a 273d 88c2 723d
00000060: e453 cc3d dc06 e83d 4c7b b63d c840 6b3d
00000070: ee84 933d 3c83 993d e228 e1bd 80d1 8f3b
00000080: 22af d6bd c022 bc3c b078 5b3d 5803 72bd
00000090: 5a66 df3d 70f3 613d c08c 5f3d 30be 303c
000000a0: e4a9 70bd 0889 ca3c 6a73 8e3d b43a c73d
000000b0: a8c8 d23d 9a7f 8c3d 5ea0 a03d 74fc 8dbd
000000c0: a022 9ebc 9409 17bd a427 a73d 1efa b7bd
000000d0: e8f0 cf3d 40ec 98bc cc6f f23d 14a5 223d
000000e0: 0057 c73d 0471 0bbd 94a1 d23d fa8d a4bd
000000f0: 3075 7b3c 00dc 143b 0e96 f93d ec00 023d
00000100: 8053 26bd 6e77 9abd 0c4a c63d 4cf4 58bd
00000110: 0870 96bd e61c fbbd 506e 36bc ecce cabd
00000120: 585e babc e249 88bd 386a fc3d 4685 9cbd
00000130: 3030 ad3d b836 e93d 680e a33d f827 8bbc
00000140: f87c d4bc 4cc4 cb3d c8da 9e3d 34f3 13bd
00000150: 5238 ff3d 5c6e babd caf6 a13d 2044 9bbb
00000160: 209d 283d eaaf e43d 5e53 ee3d 78a6 bcbc
00000170: 54c6 a7bd 0432 bd3d 048e c13d f630 b83d
00000180: 26b8 9b3d 6894 423d d0d5 b23d c6f0 d1bd
00000190: a0c5 1e3d 042d fa3d 2225 a73d 7441 093d
000001a0: 9038 f2bd 7875 f23d 0a1e 93bd 0a00 cbbd
000001b0: 9639 c13d 543c 55bd 945e 433d 1c2e 1b3d
000001c0: 50f1 323c 2c6e 39bd 32d5 d3bd 74b7 f73d
000001d0: 2846 84bc b83b 7d3d 2069 cbbc c69c ed3d
000001e0: acea d43d 06fd 9fbd 92d6 f6bd fce4 0e3d
000001f0: 906d 1abc f8ba b2bc 9437 fcbd 28fd c2bd
00000200: 1846 5f3d e067 64bc e843 c33d 7a95 923d
00000210: e0f5 3f3d c099 a53c a8f0 a9bc 3069 a73c
00000220: 9af1 b83d 1c4b 19bd 248a 803d ac82 9b3d
00000230: 04a0 af3d c01c 45bb debe dfbd b07d 5d3d
00000240: 26d7 f53d 98ab 9c3c dcaa 40bd 2066 ce3b
00000250: d43b 36bd 80fe 9bbb e6e8 8bbd e0ff 1fbd
00000260: d4e5 123d 9024 a7bc 0879 a3bd b06e 8bbd
00000270: e0f1 c73c 609b b6bd 0c82 c83d de62 aa3d
00000280: 50d6 0cbc 403e 593d 6cdc a1bd bc82 b13d
00000290: e08e 77bd a8af ecbd 1065 63bd 10e7 8f3d
000002a0: 8c12 02bd c0a6 f7bb 7004 a4bd 8243 9b3d
000002b0: 8cb6 fcbd 04e2 103d 641e e8bd 3c00 b03d
000002c0: 58c3 133d 7472 70bd 0044 4c3b 689f d6bc
000002d0: f8fb 6ebd d41a e03d 0452 e0bd 0060 00bc
000002e0: 48fc e33d a063 e33c 64f0 d1bd a0b8 e0bd
000002f0: 808c d83b ece7 3c3d f84f 3bbd ee57 b0bd
00000300: 8052 fe3a 7ce9 123d 5498 cfbd 1224 bcbd
00000310: c087 913c fc43 a5bd e8d9 eabc cc4f 66bd
00000320: 64f2 7d3d e498 ba3d 3e55 f9bd 0609 f53d
00000330: c295 ef3d 30aa e4bd 9e92 a33d 603d 04bd
00000340: ac90 1abd 7821 843d ce21 9d3d c86f 89bc
00000350: 3248 fb3d 6413 dabd 9813 dcbc c86e 77bd
00000360: 7cb8 e0bd 203f ff3d 144a bbbd 6cc1 b5bd
00000370: cc0a babd 94fa 8e3d 7899 cabd 60e5 c43c
00000380: 12a9 ba3d 04c4 233d c0e1 f4bc 1abf a5bd
00000390: 54c6 ce3d fc0f 64bd 60f9 d4bc 2288 a33d
000003a0: 8494 6fbd ae87 ab3d 38b0 ecbd eae0 913d
000003b0: 1448 773d 20f6 fc3c 401b a53c 40a5 2abb
000003c0: 9cde 073d 6455 a2bd 2c6b c6bd 2e55 94bd
000003d0: e450 6ebd 9ce2 783d 4467 bfbd b8e2 b63c
000003e0: 98d7 80bc 182b 8bbc 80c6 b63c e88d cebc
000003f0: f2cf 993d 9862 0bbd ac9b bcbd 804f 7c3c
-0.0737533 0.028673455 -0.032104403 -0.12430988 0.023893312 0.048621297 0.09931053 -0.055989906
0.08454122 -0.109967485 0.027058244 0.020878121 -0.091980115 0.060285464 0.11037688 -0.06267205
-0.042791396 0.018074214 0.0893611 -0.06952338 -0.04769768 0.044731513 0.040796995 0.05926755
0.09976938 0.11329433 0.08910236 0.057434827 0.07203089 0.07495734 -0.10994126 0.004388988
-0.10482623 0.022965789 0.053581893 -0.05908522 0.10908194 0.0551638 0.05457759 0.010787532
-0.05875577 0.024723545 0.06955607 0.097279936 0.102921784 0.068602756 0.078430876 -0.06932917
-0.01930362 -0.03687437 0.08161858 -0.08983253 0.10153371 -0.01866734 0.1183773 0.039708212
0.09733391 -0.034043327 0.10284725 -0.080348924 0.015347764 0.0022714138 0.12186824 0.03173916
-0.040606976 -0.07542311 0.09682092 -0.052967355 -0.07345587 -0.12261371 -0.011134699 -0.099027485
-0.022750065 -0.06654717 0.12324947 -0.076426074 0.08456457 0.1138739 0.07961732 -0.016986832
-0.025938496 0.0994955 0.07756573 -0.03612061 0.12461914 -0.09103081 0.079083994 -0.0047383457
0.04116547 0.111663654 0.11636995 -0.023028597 -0.08192125 0.09238055 0.094509155 0.089937136
0.07603483 0.047504812 0.08732188 -0.10251002 0.03876269 0.12215617 0.081613794 0.033509687
-0.11827195 0.11838812 -0.07183464 -0.09912117 0.09434812 -0.052059487 0.04769762 0.03788577
0.010921791 -0.045271084 -0.10343398 0.12095538 -0.016146734 0.06182453 -0.024830401 0.11602168
0.103963226 -0.07811932 -0.12052645 0.034886345 -0.009425536 -0.02181767 -0.12315288 -0.09520942
0.054510206 -0.013940781 0.095344365 0.07157417 0.046865344 0.020214915 -0.020744637 0.0204359
0.09030457 -0.037425146 0.06276348 0.07593283 0.085754424 -0.003007695 -0.10925077 0.054074943
0.12003927 0.019124791 -0.047037944 0.0062987953 -0.04449065 -0.0047605634 -0.06831531 -0.03906238
0.035863712 -0.020403177 -0.07982069 -0.06808221 0.024407327 -0.08916354 0.097904295 0.08319639
-0.008596018 0.05303788 -0.0790337 0.08667514 -0.06043899 -0.11556941 -0.055516303 0.070264935
-0.03175597 -0.00755772 -0.08008659 0.075812355 -0.123395056 0.035371795 -0.113339216 0.08593795
0.036074966 -0.0587029 0.003116846 -0.026199058 -0.058345765 0.10942617 -0.10953143 -0.007835388
0.11132103 0.027757466 -0.10250929 -0.109727144 0.006608546 0.046119615 -0.04573056 -0.08610521
0.0019403249 0.0358672 -0.10136476 -0.09186567 0.017764926 -0.080696076 -0.028668359 -0.056228444
0.06199874 0.09111193 -0.12174462 0.11964612 0.11698486 -0.11165273 0.079869494 -0.032285094
-0.037735626 0.06451696 0.07672463 -0.016776934 0.122696295 -0.1064823 -0.026864812 -0.060408384
-0.109726876 0.12463212 -0.09144989 -0.08874783 -0.090840906 0.06981388 -0.09892553 0.024035156
0.09114279 0.039981857 -0.029892802 -0.0809309 0.10096422 -0.055679306 -0.025997818 0.0798495
-0.058491245 0.08375488 -0.115570486 0.07122977 0.060371473 0.03087908 0.020154595 -0.0026038438
0.03317128 -0.07926443 -0.0968841 -0.07242809 -0.058182612 0.060762987 -0.09345868 0.022324905
-0.015727803 -0.016988322 0.022311449 -0.02521415 0.075103655 -0.034029573 -0.092093796 0.015399814

tgnn._base_tgcn.linear_r.bias f4 [32]
00000000: 1c8a 973d 4e00 d0bd 9435 7abd b0a5 4d3d
00000010: f215 883d 0060 6ebc e4de 8b3d f05d 193c
00000020: c0bf 1abb d44e f9bd 780b f2bd 3cce df3d
00000030: 08e4 543d 3eb9 edbd 54b4 703d 1c26 37bd
00000040: b067 193d 723e 8a3d 587a 083d f0b9 9cbc
00000050: ae30 b5bd d841 393d 3077 57bd ecb9 d9bd
00000060: feda d5bd 2c38 673d fc8f fe3d 00b3 7e3a
00000070: 2a6b ca3d b09b 133d b64d 843d 2240 8d3d
0.07399389 -0.10156308 -0.061086252 0.05020684 0.06644811 -0.014549255 0.068296224 0.009360775
-0.0023612827 -0.121732384 -0.11818594 0.10928008 0.05197528 -0.11607598 0.058765724 -0.04471408
0.0374524 0.06750192 0.0333198 -0.01913163 -0.088471755 0.04522881 -0.0526039 -0.10631165
-0.1044216 0.056450054 0.124298066 0.0009716004 0.09883721 0.036037147 0.06460135 0.06896998

tgnn._base_tgcn.conv_h.bias f4 [32]
00000000: 734c 9a3e c6d7 543d 2ac0 29be 717d 8ebd
00000010: ac77 ee3d 5cc2 c9be 9821 513e 11c0 573e
00000020: a257 cd3e 0f27 9bbb e41e 3dbe c72e 0a3e
00000030: 1302 adbe 6c3c 323c 4723 083e 0dcc bbbe
00000040: c1ef c0bc 1375 7cbe 06d0 3e3e cc7e d2bd
00000050: 42de c63d 094a cd3e 5315 673d 91f4 0a3d
00000060: e7a9 26be c745 343e 14c3 13be f789 543e
00000070: d17f c13e 897e ad3e 49ae 1dbe 2ce1 443a
0.3013645 0.05196359 -0.16577211 -0.0695752 0.11643919 -0.39406097 0.20422971 0.21069361
0.4010592 -0.0047348808 -0.18468815 0.13494407 -0.33790645 0.0108786635 0.13294707 -0.36679116
-0.023551824 -0.24654035 0.18634042 -0.10278091 0.09710361 0.40095547 0.05641682 0.033924643
-0.1627575 0.17604743 -0.14429885 0.20755754 0.3779283 0.338856 -0.15398516 0.000751036

tgnn._base_tgcn.conv_h.lin.weight f4 [32, 3]
00000000: 4fc1 4d3e 12a4 26bf efe3 803f b112 b8be
00000010: d88f 71bf 3343 223f 2cf3 a2be 6d80 6ebe
00000020: 608d ae3f 490b bb3a 6172 5e3f 286a 2ebf
00000030: 427e 723e 5e74 233f 4dcc 76bf 4fd8 ad3e
00000040: 29d6 d13e 62b2 12be aadb e4be e169 1cbf
00000050: 4904 a83e b0e7 d4be 586c c6be d102 1e3f
00000060: 035e 0c3e 23a4 173f b4d7 c6be 4e10 f3bc
00000070: e2f6 72bf be3e 5a3f b73c 153f 3e9c d93e
00000080: 6438 37bf fbff e5be 4fd7 67bf fff1 91bd
00000090: 575a 9abd e990 283f 7e00 e9bd 71b7 173f
000000a0: c320 833f 8fa3 86be 1770 d53d c2dd 13bf
000000b0: 8b06 9b3f 275f 4abe 33ca a8be 747d 68bf
000000c0: a048 18bf 5d5d acbd b1cb 753f 107c f7be
000000d0: 866b 3cbf 8a0d 97be a735 eebd 18a3 32bf
000000e0: 70d7 373f e4c2 173e 32a2 823f eedf 2f3e
000000f0: bd89 32be 4050 67bf 1748 72be dc0e 743e
00000100: 93ac 053e 71b6 263f d53e 3f3f a5e7 6d3f
00000110: 92c2 6f3f 2664 b4be d764 5cbf 8e40 743f
00000120: f949 9a3e 5d33 0b3f c14c 35bf 6861 e43d
00000130: 7923 00bf b29c 8b3f 723b 79be 07c6 6fbf
00000140: 2108 6ebe c020 a6be c93b 73be 6018 4e3f
00000150: 5b64 4d3d d163 b9be fadf 823f dddd 97be
00000160: 9197 0f3f 07a4 3e3f 63c4 023f db20 e23e
00000170: 0fa8 58bf 0c97 cebd 1595 7dbf 3c36 363f
0.20093273 -0.650941 1.006956 -0.3595176 -0.94360113 0.6338379 -0.3182615 -0.23291178
1.3636894 0.0014270331 0.8689328 -0.6813073 0.23680976 0.6384944 -0.9640549 0.33954093
0.40983704 -0.1432586 -0.4469884 -0.6109906 0.3281577 -0.41583014 -0.38754535 0.6172305
0.13707738 0.5923483 -0.38836443 -0.02967086 -0.94907963 0.85251987 0.5829577 0.42502016
-0.7157042 -0.4492186 -0.9056291 -0.07126235 -0.07536762 0.65846115 -0.11377047 0.59264284
1.0244373 -0.2629666 0.1042177 -0.5776025 1.2111372 -0.1976286 -0.32966766 -0.90816426
-0.59485817 -0.08416245 0.96013933 -0.4833684 -0.7360157 -0.29502517 -0.11631327 -0.6978011
0.71813107 0.14820439 1.0205748 0.17175266 -0.17435355 -0.90356827 -0.23660313 0.23833793
0.13054113 0.65122133 0.7470525 0.92931587 0.93656266 -0.35232657 -0.8609137 0.95411
0.30134562 0.5437525 -0.7082024 0.11151391 -0.50054127 1.0907195 -0.24339083 -0.9366154
-0.23245288 -0.3244686 -0.23753275 0.80505943 0.050144535 -0.36208966 1.0224602 -0.29661456
0.56090647 0.74469036 0.5108091 0.44165692 -0.8463144 -0.10087404 -0.99055606 0.71176505

tgnn._base_tgcn.linear_h.weight f4 [32, 64]
00000000: 8432 d9be 2ef1 26bf b194 bbbe b11b 8c3f
00000010: 1015 2f3f 86ec e33e 3072 44bf f4e2 2abf
00000020: c5be dd3e 52eb 60bf a364 103f c58e 64bf
00000030: 05ac bf3e 67a5 313f a715 09bf eda2 a9be
00000040: 66b7 d1be ba9e f3be 960c 3fbf 84b3 8f3f
00000050: 48eb 5dbf df06 173e 55f5 ed3e cd21 5abf
00000060: 203a 2c3f e220 b1be 54bf 2bbf 440d e0be
00000070: 20cc e4bd 89bc a13e cb70 f33e 4d93 48bf
00000080: 0ee0 84bd 6a56 b33d 129d a43d acf0 7fbd
00000090: 7ca2 1cbd 9ea3 9cbd 569c ec3d 4853 60bd
000000a0: 0058 793d 2451 12bd 7e2b c83d 381a d33d
000000b0: 8a11 c53d 286d 983c 50c9 473d 5891 c03c
000000c0: 087b dabc d857 57bd a0c0 eb3b 02f3 9cbd
000000d0: 4411 b8bd b2cb aebd 4c60 6e3d d0ae 1fbc
000000e0: 248c e63d fc9e 973d c48b 593d ac7e 19bd
000000f0: 02fd ccbd 9087 eb3d 8037 203b 86b2 e0bd
00000100: b4b7 1e3f f933 963e f59d 8d3e af38 8fbf
00000110: 6125 c3be ebd7 11be 85cb 7a3e 7c94 b13e
00000120: d2a0 55bd ab55 3f3f aab5 3dbe 61dc 0d3e
00000130: 2a0b a7be 93f5 61be b942 503f c403 30be
00000140: 8013 d13d 3c72 d63d 8f84 903f 5d35 8bbe
00000150: 30ac e33d 42a4 003e eeda af3d 1de9 9b3e
00000160: 2cc3 07bf 22d8 333f 1082 183e cce6 113f
00000170: 583d a43e b1e8 01bd d02f cebe e14f 323f
00000180: 3a4c b6bd 40ed 54bc b64b f5bd e022 ac3c
00000190: e8b9 86bd f8af 643d da34 a6bd 3c68 80bd
000001a0: 00bc d23b 6073 de3b bc88 b83d 002f acba
000001b0: 9052 3e3d dcc0 a33d 682a abbd 04bf 9e3d
000001c0: 9cd9 56bd c097 6a3c 4826 d63c 6019 c23c
000001d0: 50ce ee3c d45e 3a3d 5480 a8bd d0bb 003d
000001e0: 289a 92bc 68cc 963d c27b 90bd b0f8 213d
000001f0: 548e 5a3d ec03 54bd 6a10 a9bd 5a04 bb3d
00000200: a4d3 e53d f6ae a73d 365a c5bd e46f 3d3d
00000210: 8c63 cdbd a8b3 88bc 7ced d2bd 8896 883d
00000220: 1afb 9c3d 94c6 a33d d48d 6bbd 222b f03d
00000230: 82bb b63d c099 843c 62f1 bdbd 3088 923d
00000240: d0f8 153d 9079 0f3c aa71 fabd ba4e 97bd
00000250: 903e 73bc ee13 eabd b4cb b43d 5888 c7bc
00000260: 889d 9abc e8c4 2d3d 70e4 563d 4c92 9ebd
00000270: 98d4 9c3c d449 73bd 069d d8bd 28f2 fc3d
00000280: 5805 fb3c 704e aebd b894 8dbd 0cd7 0f3d
00000290: 5a35 eebd 509d 2fbd c440 a93d 04d3 9bbd
000002a0: f430 d23d 9c2b 283d 7aeb d3bd 38ab 573d
000002b0: 76fe f33d 74dd 4a3d 586c d23d 0062 d3ba
000002c0: 729e c0bd e487 243d a069 033d 78d5 593d
000002d0: 2861 a1bc 04a4 80bd 44bf 133d a445 c0bd
000002e0: f01a d43d 5460 54bd 44ff ffbd da2b 903d
000002f0: 2076 d13b 20f0 23bd 6408 39bd 22f0 a7bd
00000300: 92b3 7d3e 3c66 583d 79c3 1f3f b03d 6bbd
00000310: 0312 2fbe 869a 223e 441f c93d be09 8e3e
00000320: d195 cd3d 3cca 9d3d d09e 3abe b941 4ebe
00000330: fdb2 8d3d b497 7b3d 03ee 163f a21e d0be
00000340: e734 d03e 5b8b 3cbe b610 e03d 32f4 f93d
00000350: afa4 febd a71c 953e b430 053e d33e 153e
00000360: 5757 08be 7aa8 ce3e 4221 52be 8c58 033f
00000370: 7189 ee3e 69cc 013f 2af1 a4be f417 2abd
00000380: 40cd 96bc 1642 ab3d 4ca1 4b3d 242a f23d
00000390: 0414 28bd 48cf 6ebd 58ed a8bc ea4c ce3d
000003a0: f616 cc3d 9cbb 83bd 5007 f03d 8257 993d
000003b0: 0829 453d 3031 65bc 024d b53d 3443 8e3d
000003c0: 0690 9c3d 4c42 163d 4806 d8bc 3287 813d
000003d0: b873 b5bd 60e3 8a3b 14aa b3bd 402f a23c
000003e0: ee2e d53d 2428 ebbd 9c7d 05bd 7685 e0bd
000003f0: 9c9e c7bd 0870 913d 0077 183b b059 6d3c
-0.42421353 -0.6521176 -0.3663688 1.0945951 0.68391514 0.4451639 -0.76736736 -0.66752553
0.43309608 -0.8785907 0.5640356 -0.8928035 0.37435928 0.6939301 -0.53548664 -0.33132115
-0.40960234 -0.47582036 -0.7462858 1.1226659 -0.86687136 0.14748715 0.46476236 -0.85207826
0.6727619 -0.345954 -0.6708882 -0.4376012 -0.11171746 0.31589153 0.47546992 -0.78349763
-0.064880475 0.087567165 0.08037771 -0.062485382 -0.038240895 -0.07648395 0.11553256 -0.054766923
0.06087494 -0.035721913 0.097739205 0.10307735 0.09622486 0.018606737 0.04877597 0.023506805
-0.026669994 -0.05257401 0.0071945935 -0.076635376 -0.08987668 -0.085349455 0.058197305 -0.009746268
0.112571985 0.07403371 0.053111807 -0.03747432 -0.10009195 0.11500466 0.0024447143 -0.10971551
0.6199906 0.29336527 0.27659574 -1.1189173 -0.38114455 -0.14242522 0.24491699 0.34683597
-0.052155323 0.74740094 -0.1852633 0.13853599 -0.32625705 -0.22066335 0.8135181 -0.17188936
0.102087975 0.10471007 1.1290454 -0.2718915 0.111168265 0.1256266 0.085866794 0.3045129
-0.53032184 0.7025167 0.14893365 0.56992793 0.32078052 -0.031716052 -0.40270853 0.69653136
-0.08901258 -0.012996018 -0.11977331 0.021012723 -0.065784276 0.05583188 -0.081155494 -0.06269881
0.0064311028 0.006788656 0.09010455 -0.0013136566 0.046465456 0.079957694 -0.08357698 0.07751277
-0.052453622 0.014318407 0.0261413 0.02369374 0.029151112 0.04550059 -0.08227602 0.031429112
-0.017895773 0.07363206 -0.07054855 0.039543808 0.05335839 -0.051761553 -0.08255084 0.09131689
0.11222008 0.08187668 -0.09636347 0.046249285 -0.10028753 -0.01668723 -0.10299203 0.066693366
0.07665081 0.0799686 -0.057508305 0.11726977 0.08922483 0.016186595 -0.09274556 0.07154882
0.03661424 0.00875701 -0.12228711 -0.07388063 -0.014846459 -0.114295825 0.08827916 -0.024357006
-0.018873945 0.042424113 0.05246395 -0.07742748 0.019144341 -0.05939658 -0.10576825 0.12350875
0.030642197 -0.085110545 -0.069131315 0.035117194 -0.1163127 -0.042874634 0.08264306 -0.076086074
0.10263243 0.041057214 -0.10347648 0.05265352 0.11913769 0.0495276 0.10274571 -0.0016127229
-0.09405221 0.040168658 0.032083154 0.053182095 -0.019699648 -0.062812835 0.036071077 -0.09388283
0.103567004 -0.05184968 -0.1249986 0.07039614 0.0063922554 -0.040023923 -0.045174018 -0.082000986
0.24775532 0.052831873 0.6240764 -0.057431877 -0.17096715 0.15879259 0.098204166 0.27741808
0.10038341 0.07704589 -0.18224645 -0.20142259 0.06918905 0.061423972 0.5895693 -0.4064837
0.4066536 -0.18412535 0.10940687 0.1220478 -0.12433755 0.29123423 0.1300686 0.14574747
-0.13314568 0.40362912 -0.205205 0.51306987 0.46589234 0.5070253 -0.32215244 -0.04152675
-0.018408418 0.08362214 0.04971437 0.11824444 -0.041034713 -0.058303148 -0.020620987 0.10073264
0.09965317 -0.06432268 0.11720145 0.07487394 0.048134834 -0.013988778 0.08852579 0.06946412
0.07644658 0.03668432 -0.026370183 0.063246146 -0.08859962 0.004238531 -0.08772674 0.019797921
0.10409342 -0.114822656 -0.032590494 -0.10962956 -0.09747049 0.071014464 0.002326429 0.014486715

tgnn._base_tgcn.linear_h.bias f4 [32]
00000000: fd47 123e 529d 523e 327e b6bd eade 823d
00000010: 9840 293e 06cb dd3e ab2b 373c 037f d9bd
00000020: 3c99 193e b6bd 003f 1ee5 243e b665 fe3d
00000030: a0a1 4e3e 9c48 973e b13c cfbc 0953 01be
00000040: a8ab aabd 7881 e0bc 3bd5 cb3d d81d b73e
00000050: 12e4 c53e ef24 ddbe 136f 083e 8c61 523e
00000060: dae6 073e 0cd1 003f 94e0 063f 2e5c f53e
00000070: f2de 663e f2e8 083e 9741 63bb bbb2 753e
0.14285274 0.20567825 -0.089107886 0.06390174 0.16528547 0.43318957 0.011179845 -0.10619929
0.1499986 0.50289476 0.16103026 0.124217436 0.20178843 0.29547584 -0.025297495 -0.12629332
-0.08333522 -0.027405486 0.0995278 0.35764956 0.38650566 -0.4319224 0.13323621 0.20545024
0.13271657 0.5031898 0.5268643 0.4792189 0.22545984 0.13370112 -0.0034676546 0.23993962

linear.weight f4 [16, 32]
00000000: cc66 923e 43ae f3be 1f32 e4bd 87d5 1e3f
00000010: 5a62 983e e10c 04bf dc73 3d3e 801f 54bd
00000020: e9c5 a73e 8b58 2bbf da52 863e 1256 a63e
00000030: 03c1 d43e f2d3 f5bd c60f 623d ba55 bc3d
00000040: c0ce 8b3c debc e9bd 8ccf ea3e 2f40 c8bd
00000050: b5f6 8abe b426 2cbf 4fd6 ca3e 2912 183e
00000060: 2a90 06bf dd24 fcbe 3981 05bf 3895 ecbe
00000070: cc88 01bf a650 773e a8d7 a43d 8dde 69bd
00000080: b4c7 303e e2d9 0ebf 5c3b 2f3d 83c1 063f
00000090: 2659 803e c70a febe 8e90 633e 8e46 30bd
000000a0: 2c20 ed3e db68 19bf 497e cd3e a239 5e3e
000000b0: 0a94 ad3e a787 fcbd 2d73 e6bd b594 f03d
000000c0: 9c5a 153d 4839 62bd 86b4 f83e 8523 3dbe
000000d0: 4dd1 c0be 0faf 36bf 69b2 653e 6c18 ee3e
000000e0: d605 c5be 70ed 0abf c34a f4be 3737 02bf
000000f0: 3cb0 2dbf 4d33 833e 4962 063e 9286 163e
00000100: 7ac0 ed3e bc5f 00bf 30ae ecbd f1b9 ff3e
00000110: babd 593e 5e48 cdbe f13c f83e b3f8 d6bd
00000120: ba4b 783e f715 19bf 938b 4a3e 5dea cf3e
00000130: c750 863e 21fe 46be aeed 193d a694 6f3d
00000140: 46b9 0ebe d608 15be d3e1 673e caae c4be
00000150: ea14 eabe c976 64bf a925 d33e 395a 9f3e
00000160: 4523 4fbf f898 c3be f273 fdbe addf 16bf
00000170: 296c f2be 8942 df3e 4bea c73a 2080 193d
00000180: 944c b43e 8b48 2cbf 605b 013c c73b e03e
00000190: 3fb7 aa3e d96b 8fbe 7214 503e 3792 333d
000001a0: e531 8d3e 077c 28bf 049e b03e 3c26 7c3e
000001b0: 72ba a73e f298 a5be 791e 3e3d e6dc 0fbe
000001c0: e924 343e 2a0c fd3d e8b9 ab3e 1d33 babe
000001d0: ec5b c5be 4fde 88bf fcbe 033f 3b44 f93e
000001e0: 3141 36bf cfe1 e6be 8f96 19bf 3df2 12bf
000001f0: 53c3 19bf 9812 1f3e 628b 36bd 41e9 7c3e
00000200: fcf6 9d3e 450c 37bf c01f 6cbd ea1d a63d
00000210: ba15 8b3e f1e0 ebbe f105 bb3e 58e9 b23d
00000220: 347b ef3e 9f54 17bf b4e8 ec3e bdb3 a93e
00000230: b96d a73e 2070 2bbd 095c 923b 754e c2bd
00000240: 01f5 323e 0abe d63d ad46 ba3e 4435 7cbe
00000250: 164f b5be 3251 87bf 4f11 3d3e 4f84 f33e
00000260: efc6 41bf c253 1bbf 195f 0dbf 7a90 03bf
00000270: 4473 37bf 9886 0b3e 1013 da3b 4123 b43e
00000280: 58f4 023f bba7 45bf 25c4 2a3e 84d4 f93d
00000290: 76b1 903e c33e 2cbf 51c6 eb3e dfe6 18bd
000002a0: bb54 623e 00e9 0dbf 8b7e 423e 4a10 b03e
000002b0: 30ef 023f 91cd 37be 5899 1ebc ab83 df3d
000002c0: d9c9 bfbd 10c1 09be 1fe1 5e3e 1988 89be
000002d0: b67d f4be a085 8cbf fec9 023f 4da6 4a3e
000002e0: 9a50 30bf 3e73 06bf a3d5 e2be 3a7d cfbe
000002f0: 628f 72bf 2db9 c53e 819d 8f3d 49b9 9b3e
00000300: 4753 993e 3c36 2ebf 8220 fc3d df25 aebd
00000310: a552 e33e 476c f3be 835e b53e c0a3 4a3d
00000320: bd41 f73e b3ac 01bf 0f8e 8e3e a597 e73e
00000330: 66fc d33e 4246 b7be b895 cfbd 4419 2abd
00000340: 2aea d4bd 722b a63d a65a c63e f3a2 c7be
00000350: 9122 8abe 83dc 90bf cf56 593e 7cd5 623e
00000360: fa92 82bf 7a36 dbbe 143a 1bbf 4aa6 09bf
00000370: 7a3b 66bf a290 8b3e 92a3 193d 8a69 f23e
00000380: e2ce dd3e af79 81bf 30ba cfbc 0b81 71be
00000390: 3458 903e 8f7a 14bf e1c0 ef3e a21f 7abd
000003a0: e1cf db3e d304 01bf 0c00 ee3e 77c2 803e
000003b0: 244a c63e 7a92 dcbe 7554 293c 61b4 b7bd
000003c0: 587e 8dbc 3805 b2bc 05ba 8b3e 23b7 d8be
000003d0: 45eb abbe 7c81 97bf df63 df3e b6b5 ee3e
000003e0: c65a 47bf e297 e6be 4559 cdbe 7763 a7be
000003f0: 54e6 71bf 58de 043e fd65 af3c b529 893e
0.28594053 -0.4759389 -0.11142372 0.62044567 0.29762536 -0.5158215 0.18501228 -0.051787853
0.3276818 -0.6693198 0.26235086 0.3248754 0.41553506 -0.12003316 0.055190824 0.091960385
0.01706636 -0.11412977 0.4586147 -0.09777867 -0.27141348 -0.67246556 0.3961663 0.14850678
-0.52563727 -0.49246874 -0.52150303 -0.46207595 -0.5059936 0.24151859 0.08048946 -0.057097007
0.1726368 -0.5580121 0.04278122 0.52639025 0.25068015 -0.49617597 0.22223112 -0.043036036
0.46313608 -0.5992562 0.4013541 0.21701673 0.33902007 -0.12330561 -0.11252437 0.117471136
0.036463365 -0.05523041 0.48575228 -0.18470581 -0.37659684 -0.7136087 0.2243134 0.46503007
-0.38481015 -0.5426855 -0.4771329 -0.508655 -0.6784704 0.25625077 0.1312343 0.14699772
0.4643591 -0.5014608 -0.11556661 0.4994655 0.21263781 -0.40094274 0.48483995 -0.10496654
0.24247637 -0.5979914 0.19779806 0.40608492 0.26233503 -0.1943288 0.037580185 0.05849137
-0.13937864 -0.14554152 0.22644739 -0.38414603 -0.4571908 -0.8924375 0.4123967 0.31123522
-0.8091319 -0.38202643 -0.49502522 -0.5893505 -0.47348145 0.4360545 0.001525232 0.037475705
0.35214674 -0.6729819 0.007895321 0.43795606 0.3334293 -0.2801197 0.203203 0.043840613
0.2757713 -0.6581425 0.34495556 0.2462396 0.32759434 -0.3234325 0.04641578 -0.1404911
0.17592205 0.12355836 0.33540273 -0.3636712 -0.38546693 -1.0692843 0.51463294 0.48684868
-0.71193224 -0.45094153 -0.5999536 -0.57400876 -0.60063666 0.15534437 -0.04456652 0.24698354
0.30852497 -0.71503097 -0.057647467 0.081111744 0.27165014 -0.46070054 0.3652797 0.08735913
0.46773684 -0.59113497 0.46271288 0.33144942 0.327009 -0.041854978 0.004466538 -0.09487621
0.17476274 0.10485466 0.36382046 -0.24629694 -0.354119 -1.0571654 0.18463634 0.4756188
-0.75694174 -0.6067468 -0.5522323 -0.5139233 -0.71660256 0.13625562 0.0066551045 0.35183147
0.5115409 -0.7720906 0.16676386 0.12198737 0.28260392 -0.67283267 0.4604974 -0.03732955
0.22102635 -0.55433655 0.18993585 0.34387428 0.5114622 -0.17949511 -0.009680115 0.109137855
-0.09364671 -0.13452554 0.21765564 -0.26861647 -0.4775216 -1.0978279 0.51089466 0.19790001
-0.6887299 -0.52519596 -0.44303617 -0.40525228 -0.94750035 0.3861784 0.07012463 0.304148
0.29946348 -0.68051505 0.12310888 -0.08503317 0.4439899 -0.47543547 0.3542367 0.04947257
0.48292342 -0.50654143 0.27842757 0.45232883 0.41403502 -0.3579579 -0.101359785 -0.041528
-0.10396226 0.08113755 0.38741034 -0.38991508 -0.26979497 -1.1317295 0.21224521 0.2215175
-1.0201104 -0.42815 -0.60635495 -0.5376936 -0.89934504 0.27258784 0.03750951 0.47346145
0.43321902 -1.011526 -0.025357336 -0.23584382 0.28192294 -0.5799951 0.46826842 -0.061065324
0.42932037 -0.50397986 0.4648441 0.25148365 0.3872844 -0.43080503 0.0103350775 -0.089699514
-0.01727216 -0.021731004 0.2729036 -0.42327222 -0.33577934 -1.183639 0.43630883 0.4662301
-0.77872884 -0.45037752 -0.4010717 -0.32693073 -0.9449208 0.12975442 0.021410936 0.26789632

linear.bias f4 [16]
00000000: 14b7 c1bc 67fa 13be 8e9d 4bbd 7414 89bb
00000010: a6fb 10be 70d4 16be 36e1 edbd 9c75 b6bd
00000020: ac30 22be 30e8 34bd a7e3 95bd 5972 9cbc
00000030: e624 8bbd 4127 5a3d f955 dc3d 332a 563c
-0.023646869 -0.1445099 -0.049710803 -0.0041833464 -0.14158496 -0.14729476 -0.11615221 -0.08909151
-0.1583888 -0.044166744 -0.07318812 -0.019097494 -0.06794147 0.05326009 0.107585855 0.0130715845

linear2.weight f4 [6, 21]
00000000: feb5 073f 9aef 353f 4d06 593e bdb9 93bd
00000010: 21cb bbbe 2f01 033f 6a39 ecbe b9cf d2bc
00000020: 0243 c5bc 9d36 b33e 4a0f afbe 425a 33be
00000030: 3723 be3d a51a e43d 530d 073d d90b 5ebe
00000040: add6 6dbb f826 c83d 3387 25bd f76a 12be
00000050: bba9 cbbc b330 7dbd 899c a73d 5e97 25bd
00000060: e133 9b3e 3fc0 dabb ed34 523e 6906 8f3e
00000070: bd12 1e3e e5cd 2e3e a2d9 16be f88e 893e
00000080: f6f6 f6bb 6235 b63d af90 263d b89b 6d3d
00000090: b7f7 3dbe 0309 393d 6876 a5be b046 abbd
000000a0: 5530 8b3d cbad 723e 5412 443e 61dc 993d
000000b0: 481a 53bd fd41 c23b 32fb 00be a374 82be
000000c0: ca25 35bd 06c7 0abd 97c4 e23d 99f7 9abd
000000d0: 4512 c0be a2a6 b8bd e357 8f3e 5c04 17bf
000000e0: 532c 113e e65b bf3d 0d97 933e a182 71bd
000000f0: cef5 02be 5205 b9bd 86b5 563d e5d9 3abe
00000100: bca6 4fbe 8d75 a8be af87 75be b33f 083e
00000110: 859c 42be 5b6e 803e ff7a 20be dc41 843e
00000120: 3b5b 983e bf00 1b3e 61ff 2b3e 40e6 923e
00000130: 96f7 29be 6d67 373d d41a d53e ebed 673e
00000140: bdae 183e 218b 303d b87c f03d fe9f 483e
00000150: 3bbc 02be c9b5 cdbd 4500 463d 3cea b73e
00000160: 04a8 943e adab 1abe f78a cf3d 0560 133e
00000170: d6e2 10bd 6337 2fbe 32ad 253d 5941 84be
00000180: d9f5 4cbe 993e 353d 397b 7a3e 9641 1cbd
00000190: abde b8be 7cb0 3d3e 7e93 823e 94d4 783e
000001a0: 5a52 873c 4626 fabd 4f0c c2be 3f95 aabe
000001b0: 3abc 77bd d601 013e d502 e33c 5b66 153e
000001c0: f8c8 05be d045 2a3d 7291 383e 3f80 24bd
000001d0: 3425 a7bc 66c6 973e 32d0 9dbe d683 163e
000001e0: f611 893e 335c a03e d93e 7a3e 5ada 14be
000001f0: 0f5d 9a3e 351d 853e
0.53012073 0.7106873 0.2119381 -0.07213161 -0.36678413 0.5117368 -0.46137553 -0.025733816
-0.024079803 0.35002604 -0.34191352 -0.175149 0.092840604 0.111378945 0.03297169 -0.21684207
-0.0036291287 0.09773058 -0.04041214 -0.14298616 -0.024861207 -0.06181402 0.081841536 -0.040427558
0.30313018 -0.0066757496 0.20528002 0.27934578 0.15436836 0.1707073 -0.14731458 0.2686689
-0.0075367643 0.08896901 0.040665325 0.058009833 -0.18551527 0.04517461 -0.323169 -0.08363092
0.06796328 0.2369911 0.19147617 0.07512737 -0.051538736 0.0059282766 -0.12595823 -0.25479612
-0.04422549 -0.03388121 0.11072653 -0.07566757 -0.3751394 -0.09016158 0.2799674 -0.58991027
0.14177065 0.093437 0.2882618 -0.058962468 -0.1278908 -0.09034218 0.052419208 -0.18247183
-0.20278448 -0.32902184 -0.2397754 0.1330555 -0.1900502 0.25084195 -0.1567192 0.25831497
0.29757103 0.15137003 0.16796638 0.28691292 -0.16598353 0.04477637 0.4162203 0.22649352
0.14910407 0.043101434 0.11742538 0.19592282 -0.12767117 -0.100444384 0.0483401 0.35920894
0.29034436 -0.15104552 0.10133927 0.14392097 -0.035372578 -0.17110972 0.040448375 -0.25831106
-0.20015658 0.04424915 0.24461068 -0.038148485 -0.36107382 0.18524355 0.25503153 0.24299842
0.01651876 -0.12214331 -0.37900016 -0.3331699 -0.06048224 0.12598357 0.027711311 0.14589827
-0.13064945 0.041570485 0.18024233 -0.040161368 -0.020403482 0.29643553 -0.30822903 0.14698729
0.26771516 0.31320342 0.24438037 -0.1453642 0.30149123 0.25998846

linear2.bias f4 [6]
00000000: 443e abbd 2b38 963e e4cc 03bf d154 22be
00000010: 9930 1e3f f634 8abf
-0.083614856 0.29339728 -0.51484513 -0.15852667 0.61792904 -1.0797412
