A3TGCN2_Checkpoints/Epoch_47.pth (torch, 35255 bytes, 17 tensors)

tgnn._attention f4 [16]
1.652585 0.7919438 0.3984172 -0.11440116 0.14944337 -0.00954927 0.03727165 0.30554062
0.20390202 0.21321283 0.24566196 0.29519784 0.26275232 0.5039387 0.718557 1.3641702
00000000: e887 d33f d4bc 4a3f 57fd cb3e 284b eabd
00000010: af07 193e 8b74 1cbc 28aa 183d d26f 9c3e
00000020: b1cb 503e 7754 5a3e cf8e 7b3e 2c24 973e
00000030: 7987 863e 2002 013f 5af3 373f 219d ae3f

tgnn._base_tgcn.conv_z.bias f4 [32]
0.564825 0.49055406 0.26437056 -0.005228984 -0.1884935 -0.4036648 -0.42658022 -0.5734326
0.5835919 0.540111 -0.5915839 -0.5329635 0.15795648 0.17186776 0.50264275 0.5451199
-0.5630612 0.59184927 0.33889553 0.6152028 0.51467377 -0.5092511 -0.54095626 0.58334905
-0.51309836 -0.5548746 -0.50711435 0.47390625 0.5885013 -0.32935077 0.33884564 0.5498211
00000000: 5f98 103f e729 fb3e 945b 873e e657 abbb
00000010: 7104 41be 27ad cebe b968 dabe 7bcc 12bf
00000020: 4766 153f b744 0a3f 0b72 17bf 4c70 08bf
00000030: 58bf 213e 1afe 2f3e 32ad 003f fa8c 0b3f
00000040: c724 10bf 6f83 173f b783 ad3e ee7d 1d3f
00000050: a9c1 033f 485e 02bf 1c7c 0abf 5d56 153f
00000060: 6a5a 03bf 430c 0ebf 3fd2 01bf d7a3 f23e
00000070: 05a8 163f aaa0 a8be 2d7d ad3e 13c1 0c3f

tgnn._base_tgcn.conv_z.lin.weight f4 [32, 3]
-0.3305229 -0.34844676 -2.0808978 0.3480811 -0.54378265 -1.1297739 -0.8614137 0.56143343
-1.0616372 -0.17950886 0.8828945 1.4141691 0.67917943 -0.80804354 0.3484287 -0.10465716
0.55209994 2.0176444 -0.7167073 -0.32474262 0.25463513 -0.009646459 0.21812604 1.9045079
0.22716303 -0.5390773 -1.4550421 0.38967207 -0.90202403 -1.3769392 0.14430174 0.54832256
0.95380914 -0.51226956 0.55668706 0.94727105 -0.33767605 0.9048903 -0.3285832 -0.9450392
0.08420248 0.25648087 0.40915143 -0.50671047 -1.3328458 -0.13955496 -0.24263225 -2.4460042
-0.18737943 0.4144194 1.1690619 0.114926755 -0.7029933 -1.9324988 -0.55277896 -0.23960735
0.098930344 -0.20706768 -0.47592425 -1.9709151 0.4165443 -0.4573367 -1.2940671 -0.21542653
0.36579493 0.9225094 -0.28262755 0.83834213 1.7164763 0.08448635 -0.11810508 -2.4798987
0.48880443 0.053995986 2.1272397 0.31576452 0.010492977 1.8388864 0.617357 0.2968331
0.8726479 -0.5389007 -0.41732946 -0.6844052 0.10708391 0.2060554 -1.852755 0.8383999
1.0602058 1.367894 -0.114287175 -1.3443606 -1.2006595 -0.017730104 -0.52552384 -1.5220551
00000000: 4c3a a9be 9d67 b2be 6e2d 05c0 b037 b23e
00000010: 5735 0bbf 6e9c 90bf 9c85 5cbf 1aba 0f3f
00000020: bae3 87bf 2cd1 37be 6005 623f 7e03 b53f
00000030: b4de 2d3f f1db 4ebf 3f65 b23e 7e56 d6bd
00000040: 6c56 0d3f 1621 0140 217a 37bf aa44 a6be
00000050: 895f 823e 2e0c 1ebc 6f5c 5f3e eac6 f33f
00000060: 6d9d 683e f800 0abf d23e babf 1983 c73e
00000070: 0ceb 66bf 8b3f b0bf d6c3 133e de5e 0c3f
00000080: d62c 743f 1924 03bf 0b83 0e3f 5b80 723f
00000090: e0e3 acbe e4a6 673f 0f3c a8be 17ee 71bf
000000a0: 5a72 ac3d 7651 833e 4c7c d13e c7b7 01bf
000000b0: b19a aabf 7fe7 0ebe 9774 78be 558b 1cc0
000000c0: 65e0 3fbe c82e d43e d2a3 953f b85e eb3d
000000d0: 5ef7 33bf 1f5c f7bf ec82 0dbf a15b 75be
000000e0: fe9b ca3d 8d09 54be 58ac f3be f246 fcbf
000000f0: 4b45 d53e 0928 eabe fea3 a5bf c698 5cbe
00000100: 7949 bb3e 9329 6c3f 8fb4 90be 979d 563f
00000110: 7fb5 db3f 2e07 ad3d 14e1 f1bd a9b6 1ec0
00000120: 9344 fa3e e52a 5d3d b224 0840 e3ab a13e
00000130: bcea 2b3c a160 eb3f 1c0b 1e3f 82fa 973e
00000140: da65 5f3f 65f5 09bf 35ac d5be 2e35 2fbf
00000150: cf4e db3d 3000 533e 1327 edbf 60a1 563f
00000160: d3b4 873f 2717 af3f 650f eabd 0214 acbf
00000170: 36af 99bf b93e 91bc bb88 06bf b4d2 c2bf

tgnn._base_tgcn.linear_z.weight f4 [32, 64]
-0.20015055 -0.69948035 0.7645502 0.9000142 -0.4944147 0.80848193 0.18578815 0.18310593
-0.67703354 -1.3921142 0.89805305 0.64596003 0.22222406 0.024904387 -0.69361293 -0.35545307
0.6696281 -0.99541867 0.031251356 -0.7530646 -0.48024407 0.58173364 1.3160983 -0.18426391
-0.101896375 -0.02355215 -0.07610438 -0.50120103 -0.13766643 0.37759838 -0.79518217 -0.77044016
0.020246342 0.05585386 0.04477328 0.035287514 0.023139253 -0.022408113 0.11468598 -0.018079445
-0.054737613 0.07708734 -0.046232447 0.11530076 0.11062801 -0.083804354 -0.10268128 -0.040863156
0.08063172 -0.10281703 0.06785013 -0.12408477 -0.023813754 -0.032880887 0.013255671 0.10097024
-0.08791071 0.0020627677 0.006105587 -0.05243057 0.008615732 0.09010275 -0.07649019 0.07910547
-1.2717338 -0.43914673 0.27125323 2.3917475 -1.2739667 2.5631175 -0.7024251 0.089475274
-0.37815815 -1.3238877 0.596175 0.22485344 1.2753768 0.2635428 -0.3812402 -0.71922266
-0.03665123 -1.5975157 -0.933079 -1.2944927 -0.06056929 -0.118802026 1.5768758 -0.114673555
0.36294302 0.043939997 1.2982913 -1.6763828 0.5596583 1.9810177 -2.8738267 -1.0104977
0.093658105 0.05391912 -0.07390167 -0.069662586 0.027618676 0.035378426 0.06620745 -0.09150325
0.12043749 -0.024570048 0.043849334 -0.05357112 0.047658175 0.10675146 -0.089991465 0.011300921
0.015317336 -0.018027395 -0.034281567 0.02419296 0.02312699 -0.051177472 0.044286117 0.104240134
0.030525789 -0.06379549 -0.018762544 -0.032129034 0.12478389 -0.064913705 0.07503353 -0.12432723
0.04489264 -0.118017495 -0.013276979 -0.09453888 -0.10209602 0.022381723 0.093163416 0.09084082
-0.053114906 -0.036311343 -0.020940498 -0.0033688247 -0.081808746 -0.0043317676 0.07468517 0.10478647
0.09609833 -0.060765564 0.073355466 0.06644446 0.107522964 -0.032896265 -0.09538354 0.014442787
0.06507723 -0.028276697 0.009666905 -0.017961666 -0.10631283 0.036880836 0.031946033 0.002603352
-0.103888705 0.05001934 0.004877478 -0.11019075 -0.10833873 0.013715833 0.014794603 0.010000929
0.063540414 -0.0005918145 0.11912532 -0.03559117 -0.070905566 -0.087597415 -0.061122417 0.120372415
0.062828586 -0.04591556 -0.08431047 -0.008374155 0.08703378 0.12108922 -0.113912866 -0.058497608
-0.103632584 -0.023029372 -0.017973796 0.11268407 0.12016699 0.11531803 -0.04985313 -0.054382443
-0.7206757 -0.5359783 0.40515283 0.33899355 -0.566502 1.277269 -0.109682 0.14440452
-0.4634197 -1.0905515 0.66436833 0.33148006 0.6423198 -0.3076309 -0.35711086 -0.36252275
0.3032941 -0.893306 -0.17922154 -0.67206603 -0.40125132 0.36275312 1.3325894 -0.040557902
0.07094847 -0.05203506 0.5129716 -0.9695667 0.084791586 0.9368414 -1.634852 -0.82387024
0.054764062 -0.0863833 -0.088368 0.05049646 -0.04610756 0.047094464 0.096982315 -0.04505831
-0.018742532 -0.09812556 -0.096838206 0.016707003 0.024006382 -0.09953986 -0.10314228 0.06481597
-0.004865214 0.10605247 0.10647841 0.038697034 -0.015579879 0.04774873 0.08730343 0.11532177
0.09415296 -0.10505602 -0.06537247 -0.11926623 -0.10969284 0.013711423 0.11988363 0.033814043
00000000: 44f4 4cbe 2511 33bf 90b9 433f 5567 663f
00000010: ec23 fdbe acf8 4e3f 403f 3e3e 1f80 3b3e
00000020: 1252 2dbf cc30 b2bf cee6 653f a35d 253f
00000030: b48e 633e 4904 cc3c 9e90 31bf f2fd b5be
00000040: bf6c 2b3f c2d3 7ebf 6c01 003d d7c8 40bf
00000050: 8de2 f5be 7fec 143f e975 a83f aeaf 3cbe
00000060: 0caf d0bd 70f0 c0bc 9ddc 9bbd b64e 00bf
00000070: 6ef8 0cbe 9354 c13e 0f91 4bbf 913b 45bf
00000080: a8db a53c 04c7 643d 3064 373d a489 103d
00000090: 888e bd3c 3891 b7bc 7ce0 ea3d 581b 94bc
000000a0: 8c34 60bd f8df 9d3d 3c5e 3dbd ce22 ec3d
000000b0: f090 e23d 9ea1 abbd 904a d2bd 2060 27bd
000000c0: 3e22 a53d bc91 d2bd 02f5 8a3d 2820 febd
000000d0: 1015 c3bc 1cae 06bd 502e 593c 7cc9 ce3d
000000e0: 880a b4bd 802f 073b 6011 c83b 70c1 56bd
000000f0: 0029 0d3c ca87 b83d e4a6 9cbd 0c02 a23d
00000100: 2cc8 a2bf d7d7 e0be b4e1 8a3e 6412 1940
00000110: 5711 a3bf 1e0a 2440 22d2 33bf d03e b73d
00000120: f29d c1be 2775 a9bf ed9e 183f fb3f 663e
00000130: 8c3f a33f 15ef 863e ea31 c3be fa1e 38bf
00000140: 9a1f 16bd 657b ccbf 44de 6ebf f0b1 a5bf
00000150: 8117 78bd 7a4e f3bd 11d7 c93f f8d9 eabd
00000160: abd3 b93e 6dfa 333d 692e a63f b693 d6bf
00000170: c445 0f3f fd91 fd3f c7ec 37c0 fd57 81bf
00000180: d2cf bf3d 4cda 5c3d c259 97bd 42ab 8ebd
00000190: 9040 e23c f8e8 103d c697 873d 0e66 bbbd
000001a0: eea7 f63d 2047 c9bc 5c9b 333d 646d 5bbd
000001b0: 3835 433d 82a0 da3d 724d b8bd 8027 393c
000001c0: 90f5 7a3c 30ae 93bc d46a 0cbd 5030 c63c
000001d0: d074 bd3c 789f 51bd 5c65 353d da7b d53d
000001e0: 3811 fa3c 36a7 82bd e8b3 99bc bc99 03bd
000001f0: b28e ff3d 7af1 84bd 2eab 993d 469f febd
00000200: 58e1 373d 28b3 f1bd b087 59bc 9a9d c1bd
00000210: b817 d1bd e059 b73c 76cc be3d c00a ba3d
00000220: 048f 59bd 34bb 14bd 688b abbc 80c7 5cbb
00000230: 588b a7bd 80f1 8dbb 8af4 983d 4a9a d63d
00000240: 34cf c43d 50e5 78bd 643b 963d 0814 883d
00000250: 0035 dc3d 3cbe 06bd 7258 c3bd 70a1 6c3c
00000260: 3647 853d 88a4 e7bc f061 1e3c 5824 93bc
00000270: 8aba d9bd 5c10 173d d8d9 023d 009d 2a3b
00000280: 9ac3 d4bd 14e1 4c3d 40d3 9f3b b0ab e1bd
00000290: b2e0 ddbd 60b8 603c 1065 723c f0da 233c
000002a0: 7a21 823d 0024 1bba faf7 f33d 0cc8 11bd
000002b0: f036 91bd 4666 b3bd 805b 7abd d085 f63d
000002c0: 46ac 803d f411 3cbd f8aa acbd c033 09bc
000002d0: c43e b23d a0fd f73d 264b e9bd 309b 6fbd
000002e0: 523d d4bd 18a8 bcbc c83d 93bc e8c6 e63d
000002f0: 1c1a f63d dc2b ec3d cc32 4cbd 20c0 5ebd
00000300: 347e 38bf e035 09bf 3170 cf3e 9090 ad3e
00000310: 4606 11bf 8d7d a33f f5a0 e0bd c7de 133e
00000320: 5945 edbe 3197 8bbf 0b14 2a3f c1b7 a93e
00000330: 126f 243f cc81 9dbe 3cd7 b6be 959c b9be
00000340: 5d49 9b3e b4af 64bf da85 37be 850c 2cbf
00000350: d070 cdbe c7ba b93e 4a92 aa3f 0b20 26bd
00000360: 6e4d 913d b722 55bd 1b52 033f 8635 78bf
00000370: 36a7 ad3d d7d4 6f3f d542 d1bf 29e9 52bf
00000380: 4850 603d bae9 b0bd 48fa b4bd 60d5 4e3d
00000390: 48db 3cbd 20e6 403d aa9e c63d 108f 38bd
000003a0: f089 99bc 0ef6 c8bd 1c53 c6bd 20dd 883c
000003b0: 08a9 c43c 8edb cbbd 423c d3bd 3cbe 843d
000003c0: 606c 9fbb 0a32 d93d 5a11 da3d c880 1e3d
000003d0: c042 7fbc 2c94 433d 24cc b23d d22d ec3d
000003e0: 44d3 c03d 9c27 d7bd 00e2 85bd da41 f4bd
000003f0: a4a6 e0bd e0a5 603c 8c85 f53d 9880 0a3d

tgnn._base_tgcn.linear_z.bias f4 [32]
-0.33984438 0.7957353 0.11818309 0.030064873 -0.17208979 -0.17997757 -0.22060816 0.015448966
-0.22228512 -0.031827535 -0.4669318 -0.31015596 -0.72333884 -0.9807718 0.016526788 0.06856956
0.060834035 -0.110993326 -0.5033874 -0.36861572 -0.32180884 0.57549036 -0.16287154 -0.677846
0.6034458 -0.5496772 0.030200278 -0.3952443 0.25424537 -0.52155113 0.11974424 -0.31472793
00000000: 1500 aebe 4fb5 4b3f fa09 f23d 9c4a f63c
00000010: 4e38 30be 0a4c 38be 1be7 61be a91d 7d3c
00000020: b69e 63be 975d 02bd af11 efbe c3cc 9ebe
00000030: bc2c 39bf dc13 7bbf 3063 873c 336e 8c3d
00000040: 1c2d 793d 7850 e3bd ffdd 00bf 33bb bcbe
00000050: 21c4 a4be 5653 133f ccc7 26be 5187 2dbf
00000060: 6d7b 1a3f a5b7 0cbf 9366 f73c 765d cabe
00000070: 732c 823e 6084 05bf 783c f53d 0524 a1be

tgnn._base_tgcn.conv_r.bias f4 [32]
0.0 0.0 0.0 0.0 0.0 0.0 0.0 0.0
0.0 0.0 0.0 0.0 0.0 0.0 0.0 0.0
0.0 0.0 0.0 0.0 0.0 0.0 0.0 0.0
0.0 0.0 0.0 0.0 0.0 0.0 0.0 0.0
00000000: 0000 0000 0000 0000 0000 0000 0000 0000
00000010: 0000 0000 0000 0000 0000 0000 0000 0000
00000020: 0000 0000 0000 0000 0000 0000 0000 0000
00000030: 0000 0000 0000 0000 0000 0000 0000 0000
00000040: 0000 0000 0000 0000 0000 0000 0000 0000
00000050: 0000 0000 0000 0000 0000 0000 0000 0000
00000060: 0000 0000 0000 0000 0000 0000 0000 0000
00000070: 0000 0000 0000 0000 0000 0000 0000 0000

tgnn._base_tgcn.conv_r.lin.weight f4 [32, 3]
0.16965911 -0.037553072 0.058 0.30765042 -0.29204863 -0.020177722 -0.14040816 -0.28139192
0.093972 0.011039704 0.09644386 0.32871267 -0.28202555 -0.038353562 -0.11378935 0.2503403
-0.06998673 -0.36193478 0.021415055 0.13195279 0.16137215 -0.1009852 0.14807871 0.06853992
0.20136961 0.24095705 -0.18302193 -0.28173542 0.09143564 0.23300639 0.14357045 -0.18475646
-0.3047736 0.09166607 0.2801251 -0.18565165 -0.23761752 0.31345937 -0.3765382 0.3082089
-0.008306354 0.12245819 -0.14770049 -0.2538972 0.39423618 0.1664029 -0.081643015 -0.24177888
0.30107394 -0.17729856 0.24553058 0.16594991 -0.27114642 0.17000952 -0.013642997 0.2751501
-0.17664571 -0.37121272 -0.39349604 -0.2380074 0.28203174 -0.24862173 -0.09803039 -0.008543164
-0.0024053752 -0.07843304 -0.24303538 -0.07063952 -0.31078428 -0.35467574 0.2420921 -0.21242094
0.2418544 -0.19488631 0.18474093 -0.07327154 -0.15576243 0.18501553 0.15467903 0.09230062
0.0032456815 -0.064685404 -0.40229955 -0.07319707 0.3462328 0.29382756 0.09371677 0.19856241
-0.05077201 -0.25669378 -0.17840756 0.17265919 0.40160397 0.14477381 -0.06058258 -0.35659665
00000000: 1ebb 2d3e 40d1 19bd 6891 6d3d 5b84 9d3e
00000010: 6687 95be c04b a5bc 28c7 0fbe 9a12 90be
00000020: 6474 c03d e0df 343c 5c84 c53d 074d a83e
00000030: a765 90be a018 1dbd 640a e9bd 9b2c 803e
00000040: 3455 8fbd 844f b9be a06e af3c a21e 073e
00000050: be3e 253e 54d1 cebd f2a1 173e a85e 8c3d
00000060: d633 4e3e 72bd 763e 1a6a 3bbe a03f 90be
00000070: 9c42 bb3d 3a99 6e3e 2204 133e cc30 3dbe
00000080: 490b 9cbe 6cbb bb3d 8f6c 8f3e 771b 3ebe
00000090: 0252 73be bf7d a03e 9dc9 c0be 8fcd 9d3e
000000a0: 6017 08bc 5ccb fa3d cc3e 17be d0fe 81be
000000b0: 53d9 c93e 8665 2a3e 7434 a7bd e294 77be
000000c0: 5d26 9a3e c18d 35be 5e6c 7b3e c6ee 293e
000000d0: b4d3 8abe fa16 2e3e e086 5fbc 79e0 8c3e
000000e0: 9de2 34be 980f bebe 5078 c9be 36b8 73be
000000f0: 7766 903e b296 7ebe 28c4 c8bd a0f8 0bbc
00000100: 80a3 1dbb 80a1 a0bd 44de 78be 74ab 90bd
00000110: 1e1f 9fbe 0f98 b5be fee6 773e e084 59be
00000120: aea8 773e 4790 47be ba2c 3d3e 640f 96bd
00000130: 3080 1fbe b674 3d3e 2e64 1e3e 1c08 bd3d
00000140: 80b5 543b c879 84bd 35fa cdbe 58e8 95bd
00000150: 6d45 b13e 9170 963e 94ee bf3d f253 4b3e
00000160: 50f6 4fbd 5e6d 83be 79b0 36be 92cd 303e
00000170: 099f cd3e 963f 143e 7025 78bd d693 b6be

tgnn._base_tgcn.linear_r.weight f4 [32, 64]
-0.0737533 0.028673455 -0.032104403 -0.12430988 0.023893312 0.048621297 0.09931053 -0.055989906
0.08454122 -0.109967485 0.027058244 0.020878121 -0.091980115 0.060285464 0.11037688 -0.06267205
-0.042791396 0.018074214 0.0893611 -0.06952338 -0.04769768 0.044731513 0.040796995 0.05926755
0.09976938 0.11329433 0.08910236 0.057434827 0.07203089 0.07495734 -0.10994126 0.004388988
-0.10482623 0.022965789 0.053581893 -0.05908522 0.10908194 0.0551638 0.05457759 0.010787532
-0.05875577 0.024723545 0.06955607 0.097279936 0.102921784 0.068602756 0.078430876 -0.06932917
-0.01930362 -0.03687437 0.08161858 -0.08983253 0.10153371 -0.01866734 0.1183773 0.039708212
0.09733391 -0.034043327 0.10284725 -0.080348924 0.015347764 0.0022714138 0.12186824 0.03173916
-0.040606976 -0.07542311 0.09682092 -0.052967355 -0.07345587 -0.12261371 -0.011134699 -0.099027485
-0.022750065 -0.06654717 0.12324947 -0.076426074 0.08456457 0.1138739 0.07961732 -0.016986832
-0.025938496 0.0994955 0.07756573 -0.03612061 0.12461914 -0.09103081 0.079083994 -0.0047383457
0.04116547 0.111663654 0.11636995 -0.023028597 -0.08192125 0.09238055 0.094509155 0.089937136
0.07603483 0.047504812 0.08732188 -0.10251002 0.03876269 0.12215617 0.081613794 0.033509687
-0.11827195 0.11838812 -0.07183464 -0.09912117 0.09434812 -0.052059487 0.04769762 0.03788577
0.010921791 -0.045271084 -0.10343398 0.12095538 -0.016146734 0.06182453 -0.024830401 0.11602168
0.103963226 -0.07811932 -0.12052645 0.034886345 -0.009425536 -0.02181767 -0.12315288 -0.09520942
0.054510206 -0.013940781 0.095344365 0.07157417 0.046865344 0.020214915 -0.020744637 0.0204359
0.09030457 -0.037425146 0.06276348 0.07593283 0.085754424 -0.003007695 -0.10925077 0.054074943
0.12003927 0.019124791 -0.047037944 0.0062987953 -0.04449065 -0.0047605634 -0.06831531 -0.03906238
0.035863712 -0.020403177 -0.07982069 -0.06808221 0.024407327 -0.08916354 0.097904295 0.08319639
-0.008596018 0.05303788 -0.0790337 0.08667514 -0.06043899 -0.11556941 -0.055516303 0.070264935
-0.03175597 -0.00755772 -0.08008659 0.075812355 -0.123395056 0.035371795 -0.113339216 0.08593795
0.036074966 -0.0587029 0.003116846 -0.026199058 -0.058345765 0.10942617 -0.10953143 -0.007835388
0.11132103 0.027757466 -0.10250929 -0.109727144 0.006608546 0.046119615 -0.04573056 -0.08610521
0.0019403249 0.0358672 -0.10136476 -0.09186567 0.017764926 -0.080696076 -0.028668359 -0.056228444
0.06199874 0.09111193 -0.12174462 0.11964612 0.11698486 -0.11165273 0.079869494 -0.032285094
-0.037735626 0.06451696 0.07672463 -0.016776934 0.122696295 -0.1064823 -0.026864812 -0.060408384
-0.109726876 0.12463212 -0.09144989 -0.08874783 -0.090840906 0.06981388 -0.09892553 0.024035156
0.09114279 0.039981857 -0.029892802 -0.0809309 0.10096422 -0.055679306 -0.025997818 0.0798495
-0.058491245 0.08375488 -0.115570486 0.07122977 0.060371473 0.03087908 0.020154595 -0.0026038438
0.03317128 -0.07926443 -0.0968841 -0.07242809 -0.058182612 0.060762987 -0.09345868 0.022324905
-0.015727803 -0.016988322 0.022311449 -0.02521415 0.075103655 -0.034029573 -0.092093796 0.015399814
00000000: f80b 97bd 98e4 ea3c e87f 03bd 2e96 febd
00000010: e8bb c33c 2027 473d 5263 cb3d ac55 65bd
00000020: f223 ad3d a236 e1bd 40a9 dd3c 9808 ab3c
00000030: 1260 bcbd e4ed 763d 460d e23d 345a 80bd
00000040: 0846 2fbd 6010 943c f402 b73d 4662 8ebd
00000050: a45e 43bd 6438 373d c01a 273d 88c2 723d
00000060: e453 cc3d dc06 e83d 4c7b b63d c840 6b3d
00000070: ee84 933d 3c83 993d e228 e1bd 80d1 8f3b
00000080: 22af d6bd c022 bc3c b078 5b3d 5803 72bd
00000090: 5a66 df3d 70f3 613d c08c 5f3d 30be 303c
000000a0: e4a9 70bd 0889 ca3c 6a73 8e3d b43a c73d
000000b0: a8c8 d23d 9a7f 8c3d 5ea0 a03d 74fc 8dbd
000000c0: a022 9ebc 9409 17bd a427 a73d 1efa b7bd
000000d0: e8f0 cf3d 40ec 98bc cc6f f23d 14a5 223d
000000e0: 0057 c73d 0471 0bbd 94a1 d23d fa8d a4bd
000000f0: 3075 7b3c 00dc 143b 0e96 f93d ec00 023d
00000100: 8053 26bd 6e77 9abd 0c4a c63d 4cf4 58bd
00000110: 0870 96bd e61c fbbd 506e 36bc ecce cabd
00000120: 585e babc e249 88bd 386a fc3d 4685 9cbd
00000130: 3030 ad3d b836 e93d 680e a33d f827 8bbc
00000140: f87c d4bc 4cc4 cb3d c8da 9e3d 34f3 13bd
00000150: 5238 ff3d 5c6e babd caf6 a13d 2044 9bbb
00000160: 209d 283d eaaf e43d 5e53 ee3d 78a6 bcbc
00000170: 54c6 a7bd 0432 bd3d 048e c13d f630 b83d
00000180: 26b8 9b3d 6894 423d d0d5 b23d c6f0 d1bd
00000190: a0c5 1e3d 042d fa3d 2225 a73d 7441 093d
000001a0: 9038 f2bd 7875 f23d 0a1e 93bd 0a00 cbbd
000001b0: 9639 c13d 543c 55bd 945e 433d 1c2e 1b3d
000001c0: 50f1 323c 2c6e 39bd 32d5 d3bd 74b7 f73d
000001d0: 2846 84bc b83b 7d3d 2069 cbbc c69c ed3d
000001e0: acea d43d 06fd 9fbd 92d6 f6bd fce4 0e3d
000001f0: 906d 1abc f8ba b2bc 9437 fcbd 28fd c2bd
00000200: 1846 5f3d e067 64bc e843 c33d 7a95 923d
00000210: e0f5 3f3d c099 a53c a8f0 a9bc 3069 a73c
00000220: 9af1 b83d 1c4b 19bd 248a 803d ac82 9b3d
00000230: 04a0 af3d c01c 45bb debe dfbd b07d 5d3d
00000240: 26d7 f53d 98ab 9c3c dcaa 40bd 2066 ce3b
00000250: d43b 36bd 80fe 9bbb e6e8 8bbd e0ff 1fbd
00000260: d4e5 123d 9024 a7bc 0879 a3bd b06e 8bbd
00000270: e0f1 c73c 609b b6bd 0c82 c83d de62 aa3d
00000280: 50d6 0cbc 403e 593d 6cdc a1bd bc82 b13d
00000290: e08e 77bd a8af ecbd 1065 63bd 10e7 8f3d
000002a0: 8c12 02bd c0a6 f7bb 7004 a4bd 8243 9b3d
000002b0: 8cb6 fcbd 04e2 103d 641e e8bd 3c00 b03d
000002c0: 58c3 133d 7472 70bd 0044 4c3b 689f d6bc
000002d0: f8fb 6ebd d41a e03d 0452 e0bd 0060 00bc
000002e0: 48fc e33d a063 e33c 64f0 d1bd a0b8 e0bd
000002f0: 808c d83b ece7 3c3d f84f 3bbd ee57 b0bd
00000300: 8052 fe3a 7ce9 123d 5498 cfbd 1224 bcbd
00000310: c087 913c fc43 a5bd e8d9 eabc cc4f 66bd
00000320: 64f2 7d3d e498 ba3d 3e55 f9bd 0609 f53d
00000330: c295 ef3d 30aa e4bd 9e92 a33d 603d 04bd
00000340: ac90 1abd 7821 843d ce21 9d3d c86f 89bc
00000350: 3248 fb3d 6413 dabd 9813 dcbc c86e 77bd
00000360: 7cb8 e0bd 203f ff3d 144a bbbd 6cc1 b5bd
00000370: cc0a babd 94fa 8e3d 7899 cabd 60e5 c43c
00000380: 12a9 ba3d 04c4 233d c0e1 f4bc 1abf a5bd
00000390: 54c6 ce3d fc0f 64bd 60f9 d4bc 2288 a33d
000003a0: 8494 6fbd ae87 ab3d 38b0 ecbd eae0 913d
000003b0: 1448 773d 20f6 fc3c 401b a53c 40a5 2abb
000003c0: 9cde 073d 6455 a2bd 2c6b c6bd 2e55 94bd
000003d0: e450 6ebd 9ce2 783d 4467 bfbd b8e2 b63c
000003e0: 98d7 80bc 182b 8bbc 80c6 b63c e88d cebc
000003f0: f2cf 993d 9862 0bbd ac9b bcbd 804f 7c3c

tgnn._base_tgcn.linear_r.bias f4 [32]
0.07399389 -0.10156308 -0.061086252 0.05020684 0.06644811 -0.014549255 0.068296224 0.009360775
-0.0023612827 -0.121732384 -0.11818594 0.10928008 0.05197528 -0.11607598 0.058765724 -0.04471408
0.0374524 0.06750192 0.0333198 -0.01913163 -0.088471755 0.04522881 -0.0526039 -0.10631165
-0.1044216 0.056450054 0.124298066 0.0009716004 0.09883721 0.036037147 0.06460135 0.06896998
00000000: 1c8a 973d 4e00 d0bd 9435 7abd b0a5 4d3d
00000010: f215 883d 0060 6ebc e4de 8b3d f05d 193c
00000020: c0bf 1abb d44e f9bd 780b f2bd 3cce df3d
00000030: 08e4 543d 3eb9 edbd 54b4 703d 1c26 37bd
00000040: b067 193d 723e 8a3d 587a 083d f0b9 9cbc
00000050: ae30 b5bd d841 393d 3077 57bd ecb9 d9bd
00000060: feda d5bd 2c38 673d fc8f fe3d 00b3 7e3a
00000070: 2a6b ca3d b09b 133d b64d 843d 2240 8d3d

tgnn._base_tgcn.conv_h.bias f4 [32]
0.3046563 -0.00878723 -0.28327575 -0.094093405 0.23146896 -0.59793115 0.35877383 0.33220223
0.5846615 -0.05031259 -0.31711778 0.20468345 -0.43111676 0.0064579602 0.081617914 -0.49838617
0.07098421 -0.31280988 0.25596175 -0.059880987 0.08430655 0.5210293 0.03188921 -0.0032728973
-0.224669 0.13942906 -0.25325242 0.3220716 0.44234076 0.49511525 -0.2528421 -0.044736475
00000000: e9fb 9b3e 50f8 0fbc 8509 91be 0bb4 c0bd
00000010: 3306 6d3e 0412 19bf 34b1 b73e 6916 aa3e
00000020: 60ac 153f 9314 4ebd 435d a2be 8a98 513e
00000030: 56bb dcbe 4c9d d33b 4b27 a73d 792c ffbe
00000040: 2b60 913d 9e28 a0be 6b0d 833e c445 75bd
00000050: eaa8 ac3d 2d62 053f 439e 023d 1b7e 56bb
00000060: a10f 66be 7ec6 0e3e 4daa 81be 92e6 a43e
00000070: 7d7a e23e bf7f fd3e 8574 81be 983d 37bd

tgnn._base_tgcn.conv_h.lin.weight f4 [32, 3]
0.22812364 -0.68986946 1.6860304 -0.27624643 -1.1248689 1.0378289 -0.062364317 -0.16190372
2.6618667 -0.06166208 1.1714964 -0.68500066 0.11842469 0.6856071 -1.7923348 0.5611287
0.33295473 -0.5696363 -0.6026511 -0.60296226 0.4890961 -0.5554466 -0.31771892 1.2572533
-0.054935362 0.6829747 -0.13552801 0.090081 -1.2259152 1.0996617 0.7458173 0.32422128
-1.3161393 -0.6308815 -1.0605716 -0.32897648 -0.033428945 0.69877523 -0.5235891 0.6461026
1.1811819 -0.06746486 0.20841847 -0.6398457 1.9633594 -0.065364175 -0.42093036 -1.7409328
-0.7601205 0.1284053 1.76751 -0.39150476 -0.84535885 -0.96383125 -0.13038085 -0.8375214
0.875628 0.04110995 1.309672 0.1735208 -0.1419698 -1.2075357 -0.46901214 0.15018456
0.18974258 1.4179074 0.75809497 1.0544983 1.9411559 -0.27184185 -0.99648243 1.4428701
0.3550306 0.58157057 -1.1924076 0.17708327 -0.5433899 1.8592691 -0.11559696 -1.1033832
-0.5324658 -0.4360602 -0.17123877 1.5831776 0.0006572832 -0.33407813 1.8587612 -0.4479764
0.68662804 1.364412 0.6102702 0.3568435 -1.5538257 -0.021868942 -1.2589177 0.8814729
00000000: 3e99 693e 499b 30bf d8cf d73f 2c70 8dbe
00000010: b4fb 8fbf 94d7 843f ba71 7fbd 17ca 25be
00000020: 065c 2a40 6191 7cbd 98f3 953f 345c 2fbf
00000030: a588 f23d f283 2f3f 3a6b e5bf 21a6 0f3f
00000040: 0b79 aa3e afd3 11bf 5847 1abf bc5b 1abf
00000050: ce6a fa3e c031 0ebf 0eac a2be aded a03f
00000060: e703 61bd 6ed7 2e3f dbc7 0abe 637c b83d
00000070: caea 9cbf b7c1 8c3f e2ed 3e3f 5500 a63e
00000080: 4177 a8bf 7381 21bf cfc0 87bf 9b6f a8be
00000090: caec 08bd efe2 323f ef09 06bf fb66 253f
000000a0: f830 973f 042b 8abd a76b 553e eecc 23bf
000000b0: 5c4f fb3f a7dd 85bd 2f84 d7be e3d6 debf
000000c0: 4297 42bf ae7c 033e c53d e23f 5073 c8be
000000d0: 7069 58bf a5bd 76bf 8f82 05be cd67 56bf
000000e0: 2829 603f e862 283d 55a3 a73f 70af 313e
000000f0: 8860 11be 8890 9abf 5c22 f0be fbc9 193e
00000100: e14b 423e fd7d b53f 8312 423f cdf9 863f
00000110: cc77 f83f db2e 8bbe 7919 7fbf f8af b83f
00000120: 92c6 b53e cfe1 143f d0a0 98bf 5155 353e
00000130: 9a1b 0bbf 88fc ed3f 19be ecbd a93b 8dbf
00000140: ae4f 08bf 4843 dfbe 3759 2fbe 90a5 ca3f
00000150: 874d 2c3a 4a0c abbe e3eb ed3f 2a5d e5be
00000160: dbc6 2f3f 0da5 ae3f ab3a 1c3f 31b4 b63e
00000170: c3e3 c6bf 7f26 b3bc 3724 a1bf 35a8 613f

tgnn._base_tgcn.linear_h.weight f4 [32, 64]
-0.4123747 -1.0530535 -0.85991037 1.2655098 1.1588631 0.19239499 -0.5252079 -0.4931558
0.6820723 -1.598274 0.39805567 -0.60544705 0.21643718 0.62698424 -0.7741264 -0.42920586
-0.548378 -0.5509746 -0.6736971 1.0609272 -0.6872486 0.26550603 0.24309026 -1.6110924
0.589348 -0.47508156 -0.80655223 -0.32276136 -0.035186302 0.5117925 0.39650106 -1.4089519
-0.064880475 0.087567165 0.08037771 -0.062485382 -0.038240895 -0.07648395 0.11553256 -0.054766923
0.06087494 -0.035721913 0.097739205 0.10307735 0.09622486 0.018606737 0.04877597 0.023506805
-0.026669994 -0.05257401 0.0071945935 -0.076635376 -0.08987668 -0.085349455 0.058197305 -0.009746268
0.112571985 0.07403371 0.053111807 -0.03747432 -0.10009195 0.11500466 0.0024447143 -0.10971551
0.7527685 0.4704884 0.31346652 -1.8906614 -0.46073136 -0.2941672 0.53827524 0.6646599
-0.06186587 1.0475186 -0.36714527 0.2923645 -0.46744627 -0.30064857 1.0450938 -0.1864468
0.10860738 0.12393018 1.5942639 -0.59096146 0.37399322 0.15696572 0.045799 0.47656104
-1.1911051 0.8757056 0.21664067 0.7562229 0.4130153 -0.048317607 -0.62403774 0.93013495
-0.08901258 -0.012996018 -0.11977331 0.021012723 -0.065784276 0.05583188 -0.081155494 -0.06269881
0.0064311028 0.006788656 0.09010455 -0.0013136566 0.046465456 0.079957694 -0.08357698 0.07751277
-0.052453622 0.014318407 0.0261413 0.02369374 0.029151112 0.04550059 -0.08227602 0.031429112
-0.017895773 0.07363206 -0.07054855 0.039543808 0.05335839 -0.051761553 -0.08255084 0.09131689
0.11222008 0.08187668 -0.09636347 0.046249285 -0.10028753 -0.01668723 -0.10299203 0.066693366
0.07665081 0.0799686 -0.057508305 0.11726977 0.08922483 0.016186595 -0.09274556 0.07154882
0.03661424 0.00875701 -0.12228711 -0.07388063 -0.014846459 -0.114295825 0.08827916 -0.024357006
-0.018873945 0.042424113 0.05246395 -0.07742748 0.019144341 -0.05939658 -0.10576825 0.12350875
0.030642197 -0.085110545 -0.069131315 0.035117194 -0.1163127 -0.042874634 0.08264306 -0.076086074
0.10263243 0.041057214 -0.10347648 0.05265352 0.11913769 0.0495276 0.10274571 -0.0016127229
-0.09405221 0.040168658 0.032083154 0.053182095 -0.019699648 -0.062812835 0.036071077 -0.09388283
0.103567004 -0.05184968 -0.1249986 0.07039614 0.0063922554 -0.040023923 -0.045174018 -0.082000986
0.76008093 -0.0015011695 0.9904802 -0.17216243 -0.33114398 0.9698175 -0.41417837 -0.1708558
-0.021362526 0.23784882 0.25303796 -0.5955969 0.2628452 0.28010613 1.3344927 -0.5859611
0.26972756 -0.37527174 0.09258676 0.29067045 -0.36696914 0.42044282 0.58173704 0.1625773
0.018876681 1.2281133 -0.31370503 0.32747748 0.7215064 0.41320008 -0.07071727 0.028417971
-0.018408418 0.08362214 0.04971437 0.11824444 -0.041034713 -0.058303148 -0.020620987 0.10073264
0.09965317 -0.06432268 0.11720145 0.07487394 0.048134834 -0.013988778 0.08852579 0.06946412
0.07644658 0.03668432 -0.026370183 0.063246146 -0.08859962 0.004238531 -0.08772674 0.019797921
0.10409342 -0.114822656 -0.032590494 -0.10962956 -0.09747049 0.071014464 0.002326429 0.014486715
00000000: c722 d3be 75ca 86bf 1623 5cbf 3afc a13f
00000010: a055 943f 3103 453e 0674 06bf eb7e fcbe
00000020: 4a9c 2e3f 3e94 ccbf f4cd cb3e 94fe 1abf
00000030: b5a1 5d3e 0a82 203f 262d 46bf dfc0 dbbe
00000040: 8062 0cbf ac0c 0dbf 6a77 2cbf 76cc 873f
00000050: 86ef 2fbf 68f0 873e a7ec 783e 4738 cebf
00000060: 83df 163f e43d f3be 357a 4ebf fa40 a5be
00000070: 831f 10bd d504 033f 3002 cb3e 8958 b4bf
00000080: 0ee0 84bd 6a56 b33d 129d a43d acf0 7fbd
00000090: 7ca2 1cbd 9ea3 9cbd 569c ec3d 4853 60bd
000000a0: 0058 793d 2451 12bd 7e2b c83d 381a d33d
000000b0: 8a11 c53d 286d 983c 50c9 473d 5891 c03c
000000c0: 087b dabc d857 57bd a0c0 eb3b 02f3 9cbd
000000d0: 4411 b8bd b2cb aebd 4c60 6e3d d0ae 1fbc
000000e0: 248c e63d fc9e 973d c48b 593d ac7e 19bd
000000f0: 02fd ccbd 9087 eb3d 8037 203b 86b2 e0bd
00000100: 70b5 403f dbe3 f03e af7e a03e 3101 f2bf
00000110: fbe4 ebbe 159d 96be 68cc 093f 2727 2a3f
00000120: 1167 7dbd 1715 863f 77fa bbbe cdb0 953e
00000130: 1e55 efbe 9cee 99be a2c5 853f e9eb 3ebe
00000140: 8c6d de3d 1bcf fd3d d710 cc3f 4049 17bf
00000150: 0a7c bf3e 9fbb 203e bb97 3b3d cfff f33e
00000160: 2276 98bf 3e2e 603f 0dd7 5d3e d397 413f
00000170: be76 d33e afe8 45bd f0c0 1fbf 531d 6e3f
00000180: 3a4c b6bd 40ed 54bc b64b f5bd e022 ac3c
00000190: e8b9 86bd f8af 643d da34 a6bd 3c68 80bd
000001a0: 00bc d23b 6073 de3b bc88 b83d 002f acba
000001b0: 9052 3e3d dcc0 a33d 682a abbd 04bf 9e3d
000001c0: 9cd9 56bd c097 6a3c 4826 d63c 6019 c23c
000001d0: 50ce ee3c d45e 3a3d 5480 a8bd d0bb 003d
000001e0: 289a 92bc 68cc 963d c27b 90bd b0f8 213d
000001f0: 548e 5a3d ec03 54bd 6a10 a9bd 5a04 bb3d
00000200: a4d3 e53d f6ae a73d 365a c5bd e46f 3d3d
00000210: 8c63 cdbd a8b3 88bc 7ced d2bd 8896 883d
00000220: 1afb 9c3d 94c6 a33d d48d 6bbd 222b f03d
00000230: 82bb b63d c099 843c 62f1 bdbd 3088 923d
00000240: d0f8 153d 9079 0f3c aa71 fabd ba4e 97bd
00000250: 903e 73bc ee13 eabd b4cb b43d 5888 c7bc
00000260: 889d 9abc e8c4 2d3d 70e4 563d 4c92 9ebd
00000270: 98d4 9c3c d449 73bd 069d d8bd 28f2 fc3d
00000280: 5805 fb3c 704e aebd b894 8dbd 0cd7 0f3d
00000290: 5a35 eebd 509d 2fbd c440 a93d 04d3 9bbd
000002a0: f430 d23d 9c2b 283d 7aeb d3bd 38ab 573d
000002b0: 76fe f33d 74dd 4a3d 586c d23d 0062 d3ba
000002c0: 729e c0bd e487 243d a069 033d 78d5 593d
000002d0: 2861 a1bc 04a4 80bd 44bf 133d a445 c0bd
000002e0: f01a d43d 5460 54bd 44ff ffbd da2b 903d
000002f0: 2076 d13b 20f0 23bd 6408 39bd 22f0 a7bd
00000300: aa94 423f e4c2 c4ba 1c90 7d3f 594b 30be
00000310: b48b a9be f645 783f 300f d4be d3f4 2ebe
00000320: 7700 afbc a48e 733e 318e 813e 0a79 18bf
00000330: a593 863e 126a 8f3e a8d0 aa3f 8c01 16bf
00000340: bb19 8a3e 9e23 c0be 219e bd3d c2d2 943e
00000350: 61e3 bbbe 4844 d73e b8ec 143f aa7a 263e
00000360: 45a3 9a3c d132 9d3f f29d a0be 21ab a73e
00000370: a5b4 383f f68e d33e 37d4 90bd cecc e83c
00000380: 40cd 96bc 1642 ab3d 4ca1 4b3d 242a f23d
00000390: 0414 28bd 48cf 6ebd 58ed a8bc ea4c ce3d
000003a0: f616 cc3d 9cbb 83bd 5007 f03d 8257 993d
000003b0: 0829 453d 3031 65bc 024d b53d 3443 8e3d
000003c0: 0690 9c3d 4c42 163d 4806 d8bc 3287 813d
000003d0: b873 b5bd 60e3 8a3b 14aa b3bd 402f a23c
000003e0: ee2e d53d 2428 ebbd 9c7d 05bd 7685 e0bd
000003f0: 9c9e c7bd 0870 913d 0077 183b b059 6d3c

tgnn._base_tgcn.linear_h.bias f4 [32]
0.36160237 0.24824266 -0.089107886 -0.14011776 0.3752619 0.65475976 0.19412628 -0.10619929
0.2258347 0.70837873 0.2798679 0.31371355 0.25329098 0.2754981 -0.053697117 -0.12629332
-0.08333522 -0.027405486 0.16140577 0.53789955 0.5672059 -0.33602697 0.28847775 0.26071718
0.18471414 0.72344726 0.74651486 0.52514553 0.35952 0.25405127 -0.0034676546 0.43020743
00000000: f223 b93e 5333 7e3e 327e b6bd 087b 0fbe
00000010: 5422 c03e 569e 273f 0ac9 463e 037f d9bd
00000020: 3641 673e 4f58 353f d84a 8f3e 109f a03e
00000030: 5baf 813e 160e 8d3e 82f1 5bbd 0953 01be
00000040: a8ab aabd 7881 e0bc 8e47 253e c9b3 093f
00000050: 6834 113f ba0b acbe 5bb3 933e b97c 853e
00000060: b425 3d3e d733 393f 991b 3f3f f06f 063f
00000070: 0113 b83e 0213 823e 9741 63bb 2644 dc3e

linear.weight f4 [16, 32]
0.27320805 -0.5120557 -0.11142372 1.2951443 0.49027583 -0.6698033 0.61144334 -0.051787853
0.565047 -0.9653202 0.19414707 0.3489163 0.7345385 -0.46928337 0.02540472 0.091960385
0.01706636 -0.11412977 0.67039347 -0.61563987 -0.9044019 -1.5753735 0.6178512 0.5332075
-0.39402688 -1.3492111 -0.7760214 -0.71575564 -0.83945656 0.15404974 0.08048946 0.34467643
0.2468944 -0.61863667 0.04278122 1.1149365 0.51758593 -0.66176194 0.62569356 -0.043036036
0.7131139 -0.9551613 0.38726643 0.32478747 0.5740781 -0.5514132 -0.14197317 0.117471136
0.036463365 -0.05523041 0.6494301 -0.684824 -0.96598023 -1.6584599 0.47705716 0.7449289
-0.26243606 -1.3504462 -0.7716879 -0.7105542 -0.9926414 0.21447355 0.1312343 0.5440566
0.5549278 -0.6496375 -0.11556661 0.94531035 0.466694 -0.59941375 0.8431011 -0.10496654
0.4819404 -0.9697389 0.25814512 0.52503675 0.557497 -0.68385786 0.008555488 0.05849137
-0.13937864 -0.14554152 0.3963829 -0.8029204 -0.95279026 -1.751162 0.6540533 0.6515316
-0.6394293 -1.2583404 -0.8064574 -0.8212539 -0.8730422 0.47837535 0.001525232 0.498626
0.5085279 -0.7897755 0.007895321 0.7666396 0.6266121 -0.5180231 0.5890718 0.043840613
0.49402902 -0.995863 0.45819232 0.424687 0.5825058 -0.87760204 0.01831739 -0.1404911
0.17592205 0.12355836 0.48086816 -0.89088154 -0.9185537 -1.8199573 0.75306714 0.7749069
-0.553579 -1.2257668 -0.8651139 -0.79107386 -1.0125219 0.25455725 -0.04456652 0.77793974
0.50572705 -0.86549693 -0.057647467 0.45341602 0.6048206 -0.68813604 0.7930361 0.08735913
0.7119131 -0.90500635 0.61010414 0.5423467 0.58471096 -0.8179962 -0.02308166 -0.09487621
0.17476274 0.10485466 0.50937355 -0.97832924 -1.0168887 -1.8668095 0.47815052 0.75795525
-0.59876996 -1.243433 -0.78553706 -0.7011232 -1.1772529 0.2705743 0.0066551045 0.9145055
0.74950105 -0.9591137 0.16676386 0.26936373 0.63663936 -0.9068334 0.8523943 -0.03732955
0.4467827 -0.85751086 0.40024763 0.5937204 0.8088997 -0.99565136 -0.034789603 0.109137855
-0.09364671 -0.13452554 0.36967736 -0.99425507 -1.1200607 -1.8915738 0.7629354 0.5208507
-0.5697445 -1.1667206 -0.6659072 -0.6399255 -1.4147388 0.5892962 0.07012463 0.9105805
0.5210105 -0.9453772 0.12310888 0.059674665 0.72571564 -0.75139725 0.82821256 0.04947257
0.67616755 -0.79008394 0.5070516 0.67525834 0.7103199 -1.1393843 -0.11047336 -0.041528
-0.10396226 0.08113755 0.50747633 -1.1614392 -0.93846655 -1.9424251 0.51187783 0.5389282
-0.93442124 -1.039808 -0.8178837 -0.7446877 -1.3959353 0.5060495 0.03750951 1.181449
0.7356097 -1.1544201 -0.025357336 -0.17939052 0.64356196 -0.8899828 0.93903273 -0.061065324
0.62613344 -0.8153606 0.7407896 0.55652773 0.6437228 -1.2833091 0.027038308 -0.089699514
-0.01727216 -0.021731004 0.41948718 -1.2068344 -0.98854715 -1.9127312 0.7178811 0.7318289
-0.8336981 -0.99454874 -0.64037967 -0.58554953 -1.4641746 0.40999746 0.021410936 1.024361
00000000: ede1 8b3e 1516 03bf 1f32 e4bd 4ac7 a53f
00000010: 6f05 fb3e 3b78 2bbf 8d87 1c3f 801f 54bd
00000020: eca6 103f 3a1f 77bf 7dce 463e 28a5 b23e
00000030: b70a 3c3f e945 f0be 8f1d d03c ba55 bc3d
00000040: c0ce 8b3c debc e9bd e89e 2b3f 939a 1dbf
00000050: e286 67bf d7a5 c9bf 7f2b 1e3f 4980 083f
00000060: e4bd c9be f3b2 acbf 57a9 46bf c33b 37bf
00000070: a0e6 56bf 37bf 1d3e a8d7 a43d 6e79 b03e
00000080: e3d1 7c3e f95e 1ebf 5c3b 2f3d 3db6 8e3f
00000090: 8380 043f 3b69 29bf 742d 203f 8e46 30bd
000000a0: a28e 363f 7385 74bf c947 c63e 8b4a a63e
000000b0: c8f6 123f 6a29 0dbf 6a61 11be b594 f03d
000000c0: 9c5a 153d 4839 62bd 0d41 263f a050 2fbf
000000d0: 7b4a 77bf 6a48 d4bf d640 f43e a9b3 3e3f
000000e0: 055e 86be 6cdb acbf 578d 45bf e1e6 35bf
000000f0: bf1d 7ebf f49e 5b3e 4962 063e 4b47 0b3f
00000100: c00f 0e3f a54e 26bf 30ae ecbd dcff 713f
00000110: 84f2 ee3e 2e73 19bf 79d5 573f b3f8 d6bd
00000120: e4c0 f63e cf40 78bf 992b 843e cf68 063f
00000130: 20b8 0e3f 4f11 2fbf 512c 0c3c a694 6f3d
00000140: 46b9 0ebe d608 15be b3f2 ca3e 318c 4dbf
00000150: 10ea 73bf 1426 e0bf 0970 273f c6ca 263f
00000160: a3b1 23bf 4c11 a1bf fe73 4ebf b23d 52bf
00000170: b27f 5fbf 9ded f43e 4bea c73a e84b ff3e
00000180: e22e 023f ba2e 4abf 605b 013c 7e42 443f
00000190: a769 203f 299d 04bf 69cd 163f 3792 333d
000001a0: 5ff1 fc3e e1f0 7ebf 2f98 ea3e 9370 d93e
000001b0: 1a1f 153f 87aa 60bf 5a0e 963c e6dc 0fbe
000001c0: e924 343e 2a0c fd3d 5a34 f63e d010 64bf
000001d0: 5626 6bbf 5cf4 e8bf 02c9 403f 4c60 463f
000001e0: 5ab7 0dbf ede5 9cbf 1b78 5dbf d183 4abf
000001f0: 519a 81bf 5455 823e 628b 36bd 0f27 473f
00000200: 5477 013f 3591 5dbf c01f 6cbd 2526 e83e
00000210: 86d5 1a3f af29 30bf 6a04 4b3f 58e9 b23d
00000220: f03f 363f 7fae 67bf c92f 1c3f 3cd7 0a3f
00000230: 9eaf 153f 3368 51bf c015 bdbc 754e c2bd
00000240: 01f5 323e 0abe d63d 4e66 023f c973 7abf
00000250: 6929 82bf 9df3 eebf 25d0 f43e 5b09 423f
00000260: fd48 19bf d028 9fbf f518 49bf cf7c 33bf
00000270: 39b0 96bf b788 8a3e 1013 da3b 081d 6a3f
00000280: 4ddf 3f3f 7a88 75bf 25c4 2a3e 0bea 893e
00000290: ccfa 223f 3c26 68bf 8336 5a3f dfe6 18bd
000002a0: b4c0 e43e d585 5bbf 42ed cc3e 0ffe 173f
000002b0: 0d14 4f3f 02e3 7ebf 8b7f 0ebd ab83 df3d
000002c0: d9c9 bfbd 10c1 09be 5a46 bd3e 8087 7ebf
000002d0: 265e 8fbf 171f f2bf bc4f 433f 7956 053f
000002e0: c7da 11bf 1a57 95bf e578 2abf 28d2 23bf
000002f0: 2916 b5bf 1edc 163f 819d 8f3d ce1b 693f
00000300: f260 053f 3d04 72bf 8220 fc3d 6c6d 743d
00000310: 80c8 393f 925b 40bf bd05 543f c0a3 4a3d
00000320: 5119 2d3f f142 4abf 22ce 013f bbdd 2c3f
00000330: 86d7 353f 58d7 91bf db3f e2bd 4419 2abd
00000340: 2aea d4bd 722b a63d f8e9 013f 0aaa 94bf
00000350: 583f 70bf 63a1 f8bf 6d0a 033f 33f7 093f
00000360: 3b36 6fbf 6e18 85bf d360 51bf daa3 3ebf
00000370: 02ae b2bf 768c 013f 92a3 193d b939 973f
00000380: eb50 3c3f 0ac4 93bf 30ba cfbc 26b2 37be
00000390: 7ac0 243f ead5 63bf 7364 703f a21f 7abd
000003a0: 484a 203f 79bb 50bf 63a4 3d3f 9a78 0e3f
000003b0: 04cb 243f 7943 a4bf 717f dd3c 61b4 b7bd
000003c0: 587e 8dbc 3805 b2bc 06c7 d63e 8d79 9abf
000003d0: 6d11 7dbf 60d4 f4bf 0ec7 373f 2459 3b3f
000003e0: 3d6d 55bf bf9a 7ebf ecef 23bf 93e6 15bf
000003f0: 136a bbbf 30eb d13e fd65 af3c 431e 833f

linear.bias f4 [16]
0.42194688 0.26224434 0.25729996 0.20632873 -0.011225559 -0.038000807 -0.036113493 -0.104993396
-0.22711614 -0.21762343 -0.32336292 -0.28276318 -0.30271238 -0.31404155 -0.23842523 -0.28656337
00000000: 6c09 d83e e444 863e d2bc 833e d747 533e
00000010: 68eb 37bc bca6 1bbd beeb 13bd c706 d7bd
00000020: 2291 68be add8 5ebe d38f a5be 56c6 90be
00000030: 1efd 9abe 0eca a0be be25 74be 6fb8 92be

linear2.weight f4 [6, 21]
0.65565896 0.67656696 0.04642389 -0.21128039 -0.33114576 0.42896608 -0.5616856 0.88654196
0.08026296 0.3765095 -0.74944544 -0.31251952 0.044243407 -0.102343984 0.3672552 -0.486998
-0.24931188 0.46024904 -0.0021622905 -0.30000564 -0.067340106 -0.029168779 0.29386413 0.077563725
0.07433464 -0.59299105 0.5076909 0.73059994 0.2828121 -0.12363362 0.18013583 0.6031384
-0.03542573 -0.20028004 0.19399264 -0.13516441 -0.32413462 -0.023593856 -0.72374207 -0.042707585
0.07961076 0.28985414 0.39342746 0.058695894 -0.05525838 -0.110558815 -0.31696144 0.041183118
0.28700486 0.6204492 0.14473069 -0.42522648 -0.1480903 -0.08528393 0.1293966 -0.44090357
0.6962754 -0.25050855 -0.11786274 -0.24988835 -0.19347374 -0.37850383 -0.21504292 -0.44535157
-0.27587995 -0.02214399 -0.05245307 0.10294069 -0.2809178 0.15107048 -1.1185371 0.28789458
0.38358206 0.14263542 0.511965 0.40929696 -0.40599638 -0.22828852 0.88633704 0.48689798
0.017685212 -0.12495529 0.29389885 0.26928806 0.0050962535 -0.22849354 -0.15856664 0.53488123
0.78285295 -0.34675264 -0.2697982 0.3064051 0.06922333 -0.5474616 -0.20887859 -0.55284196
-0.02050964 0.14710487 0.5311 -0.2189154 -0.3075367 0.3880454 0.37519446 0.2069518
0.04811946 -0.184379 -0.35929206 -0.5602433 0.0012569901 0.6015413 -0.07718453 0.041835755
-0.79089934 0.36191523 0.14325151 0.14191158 0.14953694 0.57260674 -0.13653278 -0.16567291
0.50739366 0.38038272 0.2703455 -0.18280086 0.271922 -0.008376977
00000000: 44d9 273f 7e33 2d3f fa26 3e3d e359 58be
00000010: f08b a9be 71a1 db3e a1ca 0fbf 6af4 623f
00000020: e860 a43d dac5 c03e a8db 3fbf 8f02 a0be
00000030: 9338 353d b999 d1bd e008 bc3e cd57 f9be
00000040: 9d4b 7fbe c3a5 eb3e 37b5 0dbb 579a 99be
00000050: 9ce9 89bd 5df3 eebc 5c75 963e bbd9 9e3d
00000060: c23c 983d 43ce 17bf 08f8 013f 9908 3b3f
00000070: bfcc 903e a033 fdbd 8775 383e 4767 1a3f
00000080: 921a 11bd 3616 4dbe 02a6 463e 8a68 0abe
00000090: f9f4 a5be e747 c1bc 2947 39bf 26ee 2ebd
000000a0: f70a a33d c367 943e 536f c93e 1b6b 703d
000000b0: 9c56 62bd a96c e2bd c548 a2be a1af 283d
000000c0: 4df2 923e c2d5 1e3f 4834 143e 49b7 d9be
000000d0: fca4 17be 57a9 aebd 8b80 043e 1dbe e1be
000000e0: 1b3f 323f a842 80be 0562 f1bd bbe2 7fbe
000000f0: fb1d 46be 41cb c1be 3634 5cbe 1f05 e4be
00000100: 2340 8dbe 5067 b5bc 08d9 56bd 92d2 d23d
00000110: 75d4 8fbe 38b2 1a3e 392c 8fbf eb66 933e
00000120: de64 c43e 050f 123e 2310 033f 5f8f d13e
00000130: c2de cfbe 77c4 69be fce6 623f b14a f93e
00000140: 94e0 903c 8fe8 ffbd e979 963e 20e0 893e
00000150: 79fe a63b 36fa 69be 4b5f 22be faed 083f
00000160: 0d69 483f 9089 b1be fd22 8abe 21e1 9c3e
00000170: f6c4 8d3d 7226 0cbf 45e4 55be 0d87 0dbf
00000180: d503 a8bc a9a2 163e 2bf6 073f 5c2b 60be
00000190: 7375 9dbe e3ad c63e 7d19 c03e 2ceb 533e
000001a0: e918 453d d9cd 3cbe 21f5 b7be 1b6c 0fbf
000001b0: 97c1 a43a 9cfe 193f ec12 9ebd f85b 2b3d
000001c0: 6178 4abf f44c b93e 86b0 123e 4551 113e
000001d0: 3620 193e 5b96 123f 40cf 0bbe 29a6 29be
000001e0: 8de4 013f 86c1 c23e ba6a 8a3e 2630 3bbe
000001f0: 5c39 8b3e 973f 09bc

linear2.bias f4 [6]
-0.36658454 0.22336866 -1.6515554 0.24120952 0.66453135 -1.1534417
00000000: f8b0 bbbe c1ba 643e 2b66 d3bf a1ff 763e
00000010: ba1e 2a3f faa3 93bf
