A3TGCN2_Checkpoints/Epoch_4.pth (torch, 35255 bytes, 17 tensors)

tgnn._attention f4 [16]
000000 b3 43 75 3f c2 b0 62 3f 16 91 3c 3f 16 61 01 3e
       0.95806426 0.8855096 0.73658884 0.12634692
000010 77 b9 1e 3f bd ac fc 3d d2 a2 85 bb 6d 14 3c 3f
       0.62001747 0.12337635 -0.0040782476 0.7346867
000020 6b 73 02 3f 20 84 bf 3e 7f fd 05 3f 33 82 17 3f
       0.50957364 0.3740549 0.5233993 0.59183043
000030 fb 05 ac 3e c3 6d 16 3f 86 cb 2d 3f c0 87 84 3f
       0.33598313 0.58761233 0.6788868 1.0353928

tgnn._base_tgcn.conv_z.bias f4 [32]
000000 91 6e bb 3e da e5 b7 3e 90 f3 28 3e 93 e6 bc 3d
       0.36607793 0.3591755 0.16499162 0.09223666
000010 0d 8a 48 be 80 5e 80 be 78 af 8b be 3f 0a c3 be
       -0.19583912 -0.25072098 -0.2728231 -0.38093755
000020 e0 d7 db 3e 11 2e d2 3e e8 be d6 be 13 68 c9 be
       0.42938137 0.4105077 -0.41942525 -0.39337215
000030 b0 d9 1e 3e ca 6a 51 3d ea 9f b7 3e 7d 80 b5 3e
       0.15512729 0.051127233 0.35864192 0.3544959
000040 9d 3b c6 be 4a 59 da 3e b9 2e 5b 3e 31 c2 d6 3e
       -0.38717356 0.42646247 0.21404542 0.4194503
000050 02 98 c7 3e a8 3a b7 be 9d 44 ce be 9f 2c b4 3e
       0.3898316 -0.3578694 -0.40286723 0.35190293
000060 6a 3e a0 be f1 25 ab be 8d 4a 9d be f2 0b 99 3e
       -0.31297618 -0.33427384 -0.3072094 0.29891926
000070 d6 31 8f 3e f1 58 7e be f7 1a 84 3e 93 8f bc 3e
       0.2796771 -0.24838616 0.25801823 0.36828288

tgnn._base_tgcn.conv_z.lin.weight f4 [32, 3]
000000 c4 84 f4 3d be 2d a2 be 81 0e 98 bf 37 98 fc 3e
       0.119393855 -0.31675524 -1.1879426 0.4933488
000010 92 0e e4 be 29 b2 3f bf 3c 8d 59 be ab 63 95 3e
       -0.44542366 -0.74881226 -0.21245283 0.29177603
000020 60 8a d2 be 66 0b fd be d5 06 3a 3f ee b7 92 3f
       -0.41121197 -0.4942276 0.72666675 1.1462381
000030 ef 85 8e 3e c7 91 ce be 2d 4a 05 3e 53 af c2 be
       0.27836558 -0.40345594 0.13016577 -0.38024387
000040 3b 25 f8 3e ac 0d 91 3f 49 d8 07 bf 0b 65 89 bc
       0.48465905 1.1332297 -0.530644 -0.016771814
000050 ab 8f 14 3f 84 89 ab be f7 20 75 3e a2 24 4b 3f
       0.5803172 -0.33503354 0.23938356 0.7935277
000060 35 6f ee 3e 1b 19 ed be c4 45 6f bf 9b 62 15 3f
       0.4656922 -0.46308216 -0.9346583 0.58353585
000070 fd 01 48 bf d1 73 6a bf 62 98 36 be 24 b7 e2 3e
       -0.78128034 -0.9158297 -0.17831567 0.4428035
000080 55 46 29 3f d1 12 1c bf 8b e9 f8 3e 9e 68 19 3f
       0.66122943 -0.6096621 0.4861568 0.5992526
000090 84 8d 4c be 77 bf ba 3e 28 51 c1 be d6 cd 08 bf
       -0.19975859 0.364742 -0.3775723 -0.5343908
0000a0 1c 01 78 3e 2a ff 5c 3f 3d cb 0c 3f 7c 4f e4 be
       0.24219173 0.8632685 0.54997617 -0.44591892
0000b0 7b 43 53 bf 6e 9e 96 3e 20 c4 8e be 7f 58 a5 bf
       -0.8252484 0.29417747 -0.27884007 -1.2917632
0000c0 1a 3c cb be bc d6 c7 3e 96 a1 27 3f cb c7 d4 3e
       -0.3969429 0.39031017 0.65480936 0.4155868
0000d0 55 33 20 bf 17 42 a7 bf 30 38 b4 bc 3d 2e 1a 3e
       -0.62578326 -1.3067044 -0.021999449 0.15056701
0000e0 46 d2 05 be 37 fa 40 3e d8 af e5 be 0d 55 a1 bf
       -0.13068494 0.1884545 -0.4486072 -1.260408
0000f0 44 6f 18 3f 14 37 d2 be 02 87 37 bf 4c 09 c0 be
       0.5954478 -0.41057646 -0.7169038 -0.37507093
000100 1b 2b a3 3e f3 48 e4 3e 74 73 06 bf 01 9b 3d 3f
       0.31868824 0.44586906 -0.5251992 0.7406464
000110 ae f2 8f 3f aa 25 d2 3e 86 09 7a be 0b 00 98 bf
       1.1245935 0.4104436 -0.24417695 -1.1875013
000120 fe da ff bd 7f 64 90 3d 6f e2 7a 3f d3 c7 37 be
       -0.12492941 0.07050418 0.9800176 -0.1794732
000130 0e aa 9c 3d 78 34 73 3f 4a fc 93 3d b9 7c 03 3e
       0.07649623 0.95001936 0.07225855 0.12840547
000140 ef d5 d3 3e db 1b 90 bd 4a d2 53 be 11 5d a6 be
       0.41374156 -0.07036563 -0.20685688 -0.3249288
000150 4f da d4 3e 31 80 b5 bd 89 a2 3f bf 4c 15 f2 3e
       0.41572806 -0.08862341 -0.74857384 0.47281873
000160 33 e0 47 3f 00 a5 0d 3f cf 67 38 3e 23 9f 90 bf
       0.78076476 0.55329895 0.1800835 -1.1298565
000170 6c b8 e9 be 91 26 96 3e 9b bf eb be 7f ac 7f bf
       -0.45648515 0.293263 -0.4604462 -0.99872583

tgnn._base_tgcn.linear_z.weight f4 [32, 64]
000000 de 7b 05 bf b1 33 f8 be 32 d9 0e 3e 76 37 74 3f
       -0.5214213 -0.48476937 0.13950041 0.95397127
000010 f1 ba 59 be d3 a5 67 3f ba 50 29 3e dd c2 33 3e
       -0.21262719 0.904874 0.16534701 0.17554803
000020 9d bb 0c bf 34 b4 64 bf 95 43 fa 3e 8b 19 db 3e
       -0.54973775 -0.8933747 0.48879686 0.42792925
000030 54 5b e9 3c ac a8 85 3e 5f bd 10 bf 84 4a 16 bf
       0.028485931 0.2610525 -0.5653896 -0.5870745
000040 62 04 ff 3e ca 64 6d bf 5e 0e 3f bd f0 6d 67 bf
       0.4980803 -0.92731917 -0.04664456 -0.90402126
000050 fc e6 b4 be 04 b5 c6 3e 4c a4 7f 3f 83 88 9b be
       -0.35332477 0.3880998 0.9986007 -0.30377588
000060 1f fc 85 3e 21 08 23 3e 6a cc 1f 3d e7 87 1c be
       0.26168916 0.1592107 0.039013304 -0.15286218
000070 47 6a 66 be b3 02 88 3e 82 0e 24 bf 0d 2a 37 bf
       -0.22501479 0.2656456 -0.6408464 -0.7154854
000080 a8 db a5 3c 04 c7 64 3d 30 64 37 3d a4 89 10 3d
       0.020246342 0.05585386 0.04477328 0.035287514
000090 88 8e bd 3c 38 91 b7 bc 7c e0 ea 3d 58 1b 94 bc
       0.023139253 -0.022408113 0.11468598 -0.018079445
0000a0 8c 34 60 bd f8 df 9d 3d 3c 5e 3d bd ce 22 ec 3d
       -0.054737613 0.07708734 -0.046232447 0.11530076
0000b0 f0 90 e2 3d 9e a1 ab bd 90 4a d2 bd 20 60 27 bd
       0.11062801 -0.083804354 -0.10268128 -0.040863156
0000c0 3e 22 a5 3d bc 91 d2 bd 02 f5 8a 3d 28 20 fe bd
       0.08063172 -0.10281703 0.06785013 -0.12408477
0000d0 10 15 c3 bc 1c ae 06 bd 50 2e 59 3c 7c c9 ce 3d
       -0.023813754 -0.032880887 0.013255671 0.10097024
0000e0 88 0a b4 bd 80 2f 07 3b 60 11 c8 3b 70 c1 56 bd
       -0.08791071 0.0020627677 0.006105587 -0.05243057
0000f0 00 29 0d 3c ca 87 b8 3d e4 a6 9c bd 0c 02 a2 3d
       0.008615732 0.09010275 -0.07649019 0.07910547
000100 be 09 8d be 58 27 ca be 9d f8 83 be 73 04 82 be
       -0.27546495 -0.39483142 -0.25775614 -0.2539402
000110 71 10 cc 3e 78 e5 9c 3e 58 80 9c 3e 04 91 e5 3e
       0.39856294 0.3064382 0.3056667 0.448372
000120 73 87 a5 be 88 8b db be 3a 35 b4 3e f6 35 01 3f
       -0.32329902 -0.4287989 0.3519686 0.5047296
000130 5a dd bd be 54 9b 93 be 54 54 d3 be 09 66 83 be
       -0.3708294 -0.28829443 -0.41275275 -0.25663784
000140 77 7a 84 3e a3 75 00 bf 4e 79 8c be 20 c5 d7 be
       0.25874683 -0.501795 -0.27436298 -0.42142582
000150 de a5 a5 be 66 85 db 3e 39 35 c0 3e a7 e0 74 be
       -0.3235311 0.42875212 0.37540606 -0.23913823
000160 ba 11 6f 3e c5 24 d3 3e a6 34 d3 3e b4 22 8a be
       0.23346606 0.4123899 0.41251105 -0.269796
000170 50 d3 22 be ce 78 b4 3e 4f ed f8 be 48 7b b6 be
       -0.15900922 0.35248417 -0.48618552 -0.3564093
000180 d2 cf bf 3d 4c da 5c 3d c2 59 97 bd 42 ab 8e bd
       0.093658105 0.05391912 -0.07390167 -0.069662586
000190 90 40 e2 3c f8 e8 10 3d c6 97 87 3d 0e 66 bb bd
       0.027618676 0.035378426 0.06620745 -0.09150325
0001a0 ee a7 f6 3d 20 47 c9 bc 5c 9b 33 3d 64 6d 5b bd
       0.12043749 -0.024570048 0.043849334 -0.05357112
0001b0 38 35 43 3d 82 a0 da 3d 72 4d b8 bd 80 27 39 3c
       0.047658175 0.10675146 -0.089991465 0.011300921
0001c0 90 f5 7a 3c 30 ae 93 bc d4 6a 0c bd 50 30 c6 3c
       0.015317336 -0.018027395 -0.034281567 0.02419296
0001d0 d0 74 bd 3c 78 9f 51 bd 5c 65 35 3d da 7b d5 3d
       0.02312699 -0.051177472 0.044286117 0.104240134
0001e0 38 11 fa 3c 36 a7 82 bd e8 b3 99 bc bc 99 03 bd
       0.030525789 -0.06379549 -0.018762544 -0.032129034
0001f0 b2 8e ff 3d 7a f1 84 bd 2e ab 99 3d 46 9f fe bd
       0.12478389 -0.064913705 0.07503353 -0.12432723
000200 58 e1 37 3d 28 b3 f1 bd b0 87 59 bc 9a 9d c1 bd
       0.04489264 -0.118017495 -0.013276979 -0.09453888
000210 b8 17 d1 bd e0 59 b7 3c 76 cc be 3d c0 0a ba 3d
       -0.10209602 0.022381723 0.093163416 0.09084082
000220 04 8f 59 bd 34 bb 14 bd 68 8b ab bc 80 c7 5c bb
       -0.053114906 -0.036311343 -0.020940498 -0.0033688247
000230 58 8b a7 bd 80 f1 8d bb 8a f4 98 3d 4a 9a d6 3d
       -0.081808746 -0.0043317676 0.07468517 0.10478647
000240 34 cf c4 3d 50 e5 78 bd 64 3b 96 3d 08 14 88 3d
       0.09609833 -0.060765564 0.073355466 0.06644446
000250 00 35 dc 3d 3c be 06 bd 72 58 c3 bd 70 a1 6c 3c
       0.107522964 -0.032896265 -0.09538354 0.014442787
000260 36 47 85 3d 88 a4 e7 bc f0 61 1e 3c 58 24 93 bc
       0.06507723 -0.028276697 0.009666905 -0.017961666
000270 8a ba d9 bd 5c 10 17 3d d8 d9 02 3d 00 9d 2a 3b
       -0.10631283 0.036880836 0.031946033 0.002603352
000280 9a c3 d4 bd 14 e1 4c 3d 40 d3 9f 3b b0 ab e1 bd
       -0.103888705 0.05001934 0.004877478 -0.11019075
000290 b2 e0 dd bd 60 b8 60 3c 10 65 72 3c f0 da 23 3c
       -0.10833873 0.013715833 0.014794603 0.010000929
0002a0 7a 21 82 3d 00 24 1b ba fa f7 f3 3d 0c c8 11 bd
       0.063540414 -0.0005918145 0.11912532 -0.03559117
0002b0 f0 36 91 bd 46 66 b3 bd 80 5b 7a bd d0 85 f6 3d
       -0.070905566 -0.087597415 -0.061122417 0.120372415
0002c0 46 ac 80 3d f4 11 3c bd f8 aa ac bd c0 33 09 bc
       0.062828586 -0.04591556 -0.08431047 -0.008374155
0002d0 c4 3e b2 3d a0 fd f7 3d 26 4b e9 bd 30 9b 6f bd
       0.08703378 0.12108922 -0.113912866 -0.058497608
0002e0 52 3d d4 bd 18 a8 bc bc c8 3d 93 bc e8 c6 e6 3d
       -0.103632584 -0.023029372 -0.017973796 0.11268407
0002f0 1c 1a f6 3d dc 2b ec 3d cc 32 4c bd 20 c0 5e bd
       0.12016699 0.11531803 -0.04985313 -0.054382443
000300 23 f8 b1 be 1d ed 9c be 12 1d 84 be 87 86 95 be
       -0.34759626 -0.30649653 -0.2580343 -0.292042
000310 60 16 1c 3e f4 55 33 3e 00 1d 29 3e 83 82 1a 3e
       0.1524291 0.17513257 0.16514969 0.15088849
000320 c3 9a 91 be 43 ea 8f be 75 e4 99 3e 26 c4 41 3e
       -0.28438386 -0.28108415 0.3005711 0.18922481
000330 c5 a4 29 bd 6e 6b 55 be 60 02 37 be bf 13 8f be
       -0.041416902 -0.20841762 -0.17872 -0.27944753
000340 28 0b 39 3e e2 cb 40 be 39 61 97 be e9 00 4b be
       0.18070662 -0.18827775 -0.29566363 -0.19824566
000350 72 e7 ad be 07 fe a8 3e 90 45 e5 3e 1e 9a 9e bd
       -0.3396564 0.33006307 0.44779634 -0.07744239
000360 6f e4 59 3e ea bc 18 3e 0c d2 33 3e a4 46 b1 be
       0.21278547 0.14915815 0.17560595 -0.34624207
000370 73 0a be bd 3f 0c af 3e 45 90 2d bf 7d a7 b4 be
       -0.09279337 0.3418903 -0.6779826 -0.35284033
000380 48 50 60 3d ba e9 b0 bd 48 fa b4 bd 60 d5 4e 3d
       0.054764062 -0.0863833 -0.088368 0.05049646
000390 48 db 3c bd 20 e6 40 3d aa 9e c6 3d 10 8f 38 bd
       -0.04610756 0.047094464 0.096982315 -0.04505831
0003a0 f0 89 99 bc 0e f6 c8 bd 1c 53 c6 bd 20 dd 88 3c
       -0.018742532 -0.09812556 -0.096838206 0.016707003
0003b0 08 a9 c4 3c 8e db cb bd 42 3c d3 bd 3c be 84 3d
       0.024006382 -0.09953986 -0.10314228 0.06481597
0003c0 60 6c 9f bb 0a 32 d9 3d 5a 11 da 3d c8 80 1e 3d
       -0.004865214 0.10605247 0.10647841 0.038697034
0003d0 c0 42 7f bc 2c 94 43 3d 24 cc b2 3d d2 2d ec 3d
       -0.015579879 0.04774873 0.08730343 0.11532177
0003e0 44 d3 c0 3d 9c 27 d7 bd 00 e2 85 bd da 41 f4 bd
       0.09415296 -0.10505602 -0.06537247 -0.11926623
0003f0 a4 a6 e0 bd e0 a5 60 3c 8c 85 f5 3d 98 80 0a 3d
       -0.10969284 0.013711423 0.11988363 0.033814043

tgnn._base_tgcn.linear_z.bias f4 [32]
000000 53 12 6d be dc ad bd be fa 09 f2 3d 86 58 5d be
       -0.23151521 -0.37046707 0.11818309 -0.216158
000010 6b 6c 98 be 00 6d b1 be 5c 1a 5d be a9 1d 7d 3c
       -0.29770216 -0.34653473 -0.21592087 0.015448966
000020 ee 88 96 be b6 be 84 be 6e d9 86 be 30 a6 7c be
       -0.29401344 -0.2592675 -0.2633776 -0.2467277
000030 16 8b a7 be 83 58 e0 be c0 11 c0 bb 33 6e 8c 3d
       -0.32723302 -0.4381753 -0.005861491 0.06856956
000040 1c 2d 79 3d 78 50 e3 bd be 99 82 be e4 be cc be
       0.060834035 -0.110993326 -0.2550792 -0.39989388
000050 94 26 85 be dd 25 77 3e 23 fd 27 be f0 41 7e be
       -0.26005995 0.24135537 -0.16405158 -0.2482984
000060 62 e4 7c be 45 50 d6 be a2 2d 4c be 06 8f bb be
       -0.24696496 -0.41858116 -0.19939283 -0.36632556
000070 de 73 79 be ff 6e 89 be 78 3c f5 3d f8 fc 8f be
       -0.24360606 -0.26842496 0.11974424 -0.28122687

tgnn._base_tgcn.conv_r.bias f4 [32]
000000 00 00 00 00 00 00 00 00 00 00 00 00 00 00 00 00
       0.0 0.0 0.0 0.0
000010 00 00 00 00 00 00 00 00 00 00 00 00 00 00 00 00
       0.0 0.0 0.0 0.0
000020 00 00 00 00 00 00 00 00 00 00 00 00 00 00 00 00
       0.0 0.0 0.0 0.0
000030 00 00 00 00 00 00 00 00 00 00 00 00 00 00 00 00
       0.0 0.0 0.0 0.0
000040 00 00 00 00 00 00 00 00 00 00 00 00 00 00 00 00
       0.0 0.0 0.0 0.0
000050 00 00 00 00 00 00 00 00 00 00 00 00 00 00 00 00
       0.0 0.0 0.0 0.0
000060 00 00 00 00 00 00 00 00 00 00 00 00 00 00 00 00
       0.0 0.0 0.0 0.0
000070 00 00 00 00 00 00 00 00 00 00 00 00 00 00 00 00
       0.0 0.0 0.0 0.0

tgnn._base_tgcn.conv_r.lin.weight f4 [32, 3]
000000 1e bb 2d 3e 40 d1 19 bd 68 91 6d 3d 5b 84 9d 3e
       0.16965911 -0.037553072 0.058 0.30765042
000010 66 87 95 be c0 4b a5 bc 28 c7 0f be 9a 12 90 be
       -0.29204863 -0.020177722 -0.14040816 -0.28139192
000020 64 74 c0 3d e0 df 34 3c 5c 84 c5 3d 07 4d a8 3e
       0.093972 0.011039704 0.09644386 0.32871267
000030 a7 65 90 be a0 18 1d bd 64 0a e9 bd 9b 2c 80 3e
       -0.28202555 -0.038353562 -0.11378935 0.2503403
000040 34 55 8f bd 84 4f b9 be a0 6e af 3c a2 1e 07 3e
       -0.06998673 -0.36193478 0.021415055 0.13195279
000050 be 3e 25 3e 54 d1 ce bd f2 a1 17 3e a8 5e 8c 3d
       0.16137215 -0.1009852 0.14807871 0.06853992
000060 d6 33 4e 3e 72 bd 76 3e 1a 6a 3b be a0 3f 90 be
       0.20136961 0.24095705 -0.18302193 -0.28173542
000070 9c 42 bb 3d 3a 99 6e 3e 22 04 13 3e cc 30 3d be
       0.09143564 0.23300639 0.14357045 -0.18475646
000080 49 0b 9c be 6c bb bb 3d 8f 6c 8f 3e 77 1b 3e be
       -0.3047736 0.09166607 0.2801251 -0.18565165
000090 02 52 73 be bf 7d a0 3e 9d c9 c0 be 8f cd 9d 3e
       -0.23761752 0.31345937 -0.3765382 0.3082089
0000a0 60 17 08 bc 5c cb fa 3d cc 3e 17 be d0 fe 81 be
       -0.008306354 0.12245819 -0.14770049 -0.2538972
0000b0 53 d9 c9 3e 86 65 2a 3e 74 34 a7 bd e2 94 77 be
       0.39423618 0.1664029 -0.081643015 -0.24177888
0000c0 5d 26 9a 3e c1 8d 35 be 5e 6c 7b 3e c6 ee 29 3e
       0.30107394 -0.17729856 0.24553058 0.16594991
0000d0 b4 d3 8a be fa 16 2e 3e e0 86 5f bc 79 e0 8c 3e
       -0.27114642 0.17000952 -0.013642997 0.2751501
0000e0 9d e2 34 be 98 0f be be 50 78 c9 be 36 b8 73 be
       -0.17664571 -0.37121272 -0.39349604 -0.2380074
0000f0 77 66 90 3e b2 96 7e be 28 c4 c8 bd a0 f8 0b bc
       0.28203174 -0.24862173 -0.09803039 -0.008543164
000100 80 a3 1d bb 80 a1 a0 bd 44 de 78 be 74 ab 90 bd
       -0.0024053752 -0.07843304 -0.24303538 -0.07063952
000110 1e 1f 9f be 0f 98 b5 be fe e6 77 3e e0 84 59 be
       -0.31078428 -0.35467574 0.2420921 -0.21242094
000120 ae a8 77 3e 47 90 47 be ba 2c 3d 3e 64 0f 96 bd
       0.2418544 -0.19488631 0.18474093 -0.07327154
000130 30 80 1f be b6 74 3d 3e 2e 64 1e 3e 1c 08 bd 3d
       -0.15576243 0.18501553 0.15467903 0.09230062
000140 80 b5 54 3b c8 79 84 bd 35 fa cd be 58 e8 95 bd
       0.0032456815 -0.064685404 -0.40229955 -0.07319707
000150 6d 45 b1 3e 91 70 96 3e 94 ee bf 3d f2 53 4b 3e
       0.3462328 0.29382756 0.09371677 0.19856241
000160 50 f6 4f bd 5e 6d 83 be 79 b0 36 be 92 cd 30 3e
       -0.05077201 -0.25669378 -0.17840756 0.17265919
000170 09 9f cd 3e 96 3f 14 3e 70 25 78 bd d6 93 b6 be
       0.40160397 0.14477381 -0.06058258 -0.35659665

tgnn._base_tgcn.linear_r.weight f4 [32, 64]
000000 f8 0b 97 bd 98 e4 ea 3c e8 7f 03 bd 2e 96 fe bd
       -0.0737533 0.028673455 -0.032104403 -0.12430988
000010 e8 bb c3 3c 20 27 47 3d 52 63 cb 3d ac 55 65 bd
       0.023893312 0.048621297 0.09931053 -0.055989906
000020 f2 23 ad 3d a2 36 e1 bd 40 a9 dd 3c 98 08 ab 3c
       0.08454122 -0.109967485 0.027058244 0.020878121
000030 12 60 bc bd e4 ed 76 3d 46 0d e2 3d 34 5a 80 bd
       -0.091980115 0.060285464 0.11037688 -0.06267205
000040 08 46 2f bd 60 10 94 3c f4 02 b7 3d 46 62 8e bd
       -0.042791396 0.018074214 0.0893611 -0.06952338
000050 a4 5e 43 bd 64 38 37 3d c0 1a 27 3d 88 c2 72 3d
       -0.04769768 0.044731513 0.040796995 0.05926755
000060 e4 53 cc 3d dc 06 e8 3d 4c 7b b6 3d c8 40 6b 3d
       0.09976938 0.11329433 0.08910236 0.057434827
000070 ee 84 93 3d 3c 83 99 3d e2 28 e1 bd 80 d1 8f 3b
       0.07203089 0.07495734 -0.10994126 0.004388988
000080 22 af d6 bd c0 22 bc 3c b0 78 5b 3d 58 03 72 bd
       -0.10482623 0.022965789 0.053581893 -0.05908522
000090 5a 66 df 3d 70 f3 61 3d c0 8c 5f 3d 30 be 30 3c
       0.10908194 0.0551638 0.05457759 0.010787532
0000a0 e4 a9 70 bd 08 89 ca 3c 6a 73 8e 3d b4 3a c7 3d
       -0.05875577 0.024723545 0.06955607 0.097279936
0000b0 a8 c8 d2 3d 9a 7f 8c 3d 5e a0 a0 3d 74 fc 8d bd
       0.102921784 0.068602756 0.078430876 -0.06932917
0000c0 a0 22 9e bc 94 09 17 bd a4 27 a7 3d 1e fa b7 bd
       -0.01930362 -0.03687437 0.08161858 -0.08983253
0000d0 e8 f0 cf 3d 40 ec 98 bc cc 6f f2 3d 14 a5 22 3d
       0.10153371 -0.01866734 0.1183773 0.039708212
0000e0 00 57 c7 3d 04 71 0b bd 94 a1 d2 3d fa 8d a4 bd
       0.09733391 -0.034043327 0.10284725 -0.080348924
0000f0 30 75 7b 3c 00 dc 14 3b 0e 96 f9 3d ec 00 02 3d
       0.015347764 0.0022714138 0.12186824 0.03173916
000100 80 53 26 bd 6e 77 9a bd 0c 4a c6 3d 4c f4 58 bd
       -0.040606976 -0.07542311 0.09682092 -0.052967355
000110 08 70 96 bd e6 1c fb bd 50 6e 36 bc ec ce ca bd
       -0.07345587 -0.12261371 -0.011134699 -0.099027485
000120 58 5e ba bc e2 49 88 bd 38 6a fc 3d 46 85 9c bd
       -0.022750065 -0.06654717 0.12324947 -0.076426074
000130 30 30 ad 3d b8 36 e9 3d 68 0e a3 3d f8 27 8b bc
       0.08456457 0.1138739 0.07961732 -0.016986832
000140 f8 7c d4 bc 4c c4 cb 3d c8 da 9e 3d 34 f3 13 bd
       -0.025938496 0.0994955 0.07756573 -0.03612061
000150 52 38 ff 3d 5c 6e ba bd ca f6 a1 3d 20 44 9b bb
       0.12461914 -0.09103081 0.079083994 -0.0047383457
000160 20 9d 28 3d ea af e4 3d 5e 53 ee 3d 78 a6 bc bc
       0.04116547 0.111663654 0.11636995 -0.023028597
000170 54 c6 a7 bd 04 32 bd 3d 04 8e c1 3d f6 30 b8 3d
       -0.08192125 0.09238055 0.094509155 0.089937136
000180 26 b8 9b 3d 68 94 42 3d d0 d5 b2 3d c6 f0 d1 bd
       0.07603483 0.047504812 0.08732188 -0.10251002
000190 a0 c5 1e 3d 04 2d fa 3d 22 25 a7 3d 74 41 09 3d
       0.03876269 0.12215617 0.081613794 0.033509687
0001a0 90 38 f2 bd 78 75 f2 3d 0a 1e 93 bd 0a 00 cb bd
       -0.11827195 0.11838812 -0.07183464 -0.09912117
0001b0 96 39 c1 3d 54 3c 55 bd 94 5e 43 3d 1c 2e 1b 3d
       0.09434812 -0.052059487 0.04769762 0.03788577
0001c0 50 f1 32 3c 2c 6e 39 bd 32 d5 d3 bd 74 b7 f7 3d
       0.010921791 -0.045271084 -0.10343398 0.12095538
0001d0 28 46 84 bc b8 3b 7d 3d 20 69 cb bc c6 9c ed 3d
       -0.016146734 0.06182453 -0.024830401 0.11602168
0001e0 ac ea d4 3d 06 fd 9f bd 92 d6 f6 bd fc e4 0e 3d
       0.103963226 -0.07811932 -0.12052645 0.034886345
0001f0 90 6d 1a bc f8 ba b2 bc 94 37 fc bd 28 fd c2 bd
       -0.009425536 -0.02181767 -0.12315288 -0.09520942
000200 18 46 5f 3d e0 67 64 bc e8 43 c3 3d 7a 95 92 3d
       0.054510206 -0.013940781 0.095344365 0.07157417
000210 e0 f5 3f 3d c0 99 a5 3c a8 f0 a9 bc 30 69 a7 3c
       0.046865344 0.020214915 -0.020744637 0.0204359
000220 9a f1 b8 3d 1c 4b 19 bd 24 8a 80 3d ac 82 9b 3d
       0.09030457 -0.037425146 0.06276348 0.07593283
000230 04 a0 af 3d c0 1c 45 bb de be df bd b0 7d 5d 3d
       0.085754424 -0.003007695 -0.10925077 0.054074943
000240 26 d7 f5 3d 98 ab 9c 3c dc aa 40 bd 20 66 ce 3b
       0.12003927 0.019124791 -0.047037944 0.0062987953
000250 d4 3b 36 bd 80 fe 9b bb e6 e8 8b bd e0 ff 1f bd
       -0.04449065 -0.0047605634 -0.06831531 -0.03906238
000260 d4 e5 12 3d 90 24 a7 bc 08 79 a3 bd b0 6e 8b bd
       0.035863712 -0.020403177 -0.07982069 -0.06808221
000270 e0 f1 c7 3c 60 9b b6 bd 0c 82 c8 3d de 62 aa 3d
       0.024407327 -0.08916354 0.097904295 0.08319639
000280 50 d6 0c bc 40 3e 59 3d 6c dc a1 bd bc 82 b1 3d
       -0.008596018 0.05303788 -0.0790337 0.08667514
000290 e0 8e 77 bd a8 af ec bd 10 65 63 bd 10 e7 8f 3d
       -0.06043899 -0.11556941 -0.055516303 0.070264935
0002a0 8c 12 02 bd c0 a6 f7 bb 70 04 a4 bd 82 43 9b 3d
       -0.03175597 -0.00755772 -0.08008659 0.075812355
0002b0 8c b6 fc bd 04 e2 10 3d 64 1e e8 bd 3c 00 b0 3d
       -0.123395056 0.035371795 -0.113339216 0.08593795
0002c0 58 c3 13 3d 74 72 70 bd 00 44 4c 3b 68 9f d6 bc
       0.036074966 -0.0587029 0.003116846 -0.026199058
0002d0 f8 fb 6e bd d4 1a e0 3d 04 52 e0 bd 00 60 00 bc
       -0.058345765 0.10942617 -0.10953143 -0.007835388
0002e0 48 fc e3 3d a0 63 e3 3c 64 f0 d1 bd a0 b8 e0 bd
       0.11132103 0.027757466 -0.10250929 -0.109727144
0002f0 80 8c d8 3b ec e7 3c 3d f8 4f 3b bd ee 57 b0 bd
       0.006608546 0.046119615 -0.04573056 -0.08610521
000300 80 52 fe 3a 7c e9 12 3d 54 98 cf bd 12 24 bc bd
       0.0019403249 0.0358672 -0.10136476 -0.09186567
000310 c0 87 91 3c fc 43 a5 bd e8 d9 ea bc cc 4f 66 bd
       0.017764926 -0.080696076 -0.028668359 -0.056228444
000320 64 f2 7d 3d e4 98 ba 3d 3e 55 f9 bd 06 09 f5 3d
       0.06199874 0.09111193 -0.12174462 0.11964612
000330 c2 95 ef 3d 30 aa e4 bd 9e 92 a3 3d 60 3d 04 bd
       0.11698486 -0.11165273 0.079869494 -0.032285094
000340 ac 90 1a bd 78 21 84 3d ce 21 9d 3d c8 6f 89 bc
       -0.037735626 0.06451696 0.07672463 -0.016776934
000350 32 48 fb 3d 64 13 da bd 98 13 dc bc c8 6e 77 bd
       0.122696295 -0.1064823 -0.026864812 -0.060408384
000360 7c b8 e0 bd 20 3f ff 3d 14 4a bb bd 6c c1 b5 bd
       -0.109726876 0.12463212 -0.09144989 -0.08874783
000370 cc 0a ba bd 94 fa 8e 3d 78 99 ca bd 60 e5 c4 3c
       -0.090840906 0.06981388 -0.09892553 0.024035156
000380 12 a9 ba 3d 04 c4 23 3d c0 e1 f4 bc 1a bf a5 bd
       0.09114279 0.039981857 -0.029892802 -0.0809309
000390 54 c6 ce 3d fc 0f 64 bd 60 f9 d4 bc 22 88 a3 3d
       0.10096422 -0.055679306 -0.025997818 0.0798495
0003a0 84 94 6f bd ae 87 ab 3d 38 b0 ec bd ea e0 91 3d
       -0.058491245 0.08375488 -0.115570486 0.07122977
0003b0 14 48 77 3d 20 f6 fc 3c 40 1b a5 3c 40 a5 2a bb
       0.060371473 0.03087908 0.020154595 -0.0026038438
0003c0 9c de 07 3d 64 55 a2 bd 2c 6b c6 bd 2e 55 94 bd
       0.03317128 -0.07926443 -0.0968841 -0.07242809
0003d0 e4 50 6e bd 9c e2 78 3d 44 67 bf bd b8 e2 b6 3c
       -0.058182612 0.060762987 -0.09345868 0.022324905
0003e0 98 d7 80 bc 18 2b 8b bc 80 c6 b6 3c e8 8d ce bc
       -0.015727803 -0.016988322 0.022311449 -0.02521415
0003f0 f2 cf 99 3d 98 62 0b bd ac 9b bc bd 80 4f 7c 3c
       0.075103655 -0.034029573 -0.092093796 0.015399814

tgnn._base_tgcn.linear_r.bias f4 [32]
000000 1c 8a 97 3d 4e 00 d0 bd 94 35 7a bd b0 a5 4d 3d
       0.07399389 -0.10156308 -0.061086252 0.05020684
000010 f2 15 88 3d 00 60 6e bc e4 de 8b 3d f0 5d 19 3c
       0.06644811 -0.014549255 0.068296224 0.009360775
000020 c0 bf 1a bb d4 4e f9 bd 78 0b f2 bd 3c ce df 3d
       -0.0023612827 -0.121732384 -0.11818594 0.10928008
000030 08 e4 54 3d 3e b9 ed bd 54 b4 70 3d 1c 26 37 bd
       0.05197528 -0.11607598 0.058765724 -0.04471408
000040 b0 67 19 3d 72 3e 8a 3d 58 7a 08 3d f0 b9 9c bc
       0.0374524 0.06750192 0.0333198 -0.01913163
000050 ae 30 b5 bd d8 41 39 3d 30 77 57 bd ec b9 d9 bd
       -0.088471755 0.04522881 -0.0526039 -0.10631165
000060 fe da d5 bd 2c 38 67 3d fc 8f fe 3d 00 b3 7e 3a
       -0.1044216 0.056450054 0.124298066 0.0009716004
000070 2a 6b ca 3d b0 9b 13 3d b6 4d 84 3d 22 40 8d 3d
       0.09883721 0.036037147 0.06460135 0.06896998

tgnn._base_tgcn.conv_h.bias f4 [32]
000000 1b ae 4e 3e 7d 27 1a 3d 49 36 13 bd cc 77 77 bd
       0.20183603 0.037635315 -0.035940442 -0.06041698
000010 b9 2b 24 3d f8 9b 86 be 81 52 02 3e 02 68 0b 3e
       0.04008076 -0.2629087 0.12726785 0.13613895
000020 bf 38 86 3e 51 56 29 3c dd 12 04 be bd 88 94 3d
       0.2621517 0.010335521 -0.12897821 0.07252643
000030 d3 ed 5d be 4d 8f 2b bc 2c cc d4 3d f5 95 7c be
       -0.21672754 -0.010471177 0.10390505 -0.24666579
000040 3e 6c dc 3c 1f 3e 0f be de 3f 0b 3e 08 5c 89 bd
       0.026907083 -0.13988541 0.13598582 -0.06707007
000050 9c 7a 62 3d 96 ad 8f 3e 2f 9c 2b 3d 70 80 18 3d
       0.05529271 0.28062123 0.041896995 0.037231863
000060 e1 2f d7 bd dc 1f f4 3d 74 d8 bc bd 1e d9 0d 3e
       -0.10507179 0.11920139 -0.09220973 0.13852355
000070 cd d6 86 3e 6b 74 80 3e ff 31 e7 bd 83 11 52 3c
       0.26335755 0.2508882 -0.11288833 0.012821558

tgnn._base_tgcn.conv_h.lin.weight f4 [32, 3]
000000 9a a0 64 3e 55 b6 27 bf 3c ab ce 3e 42 7d bf be
       0.2232689 -0.6551259 0.40365016 -0.37400252
000010 ee 9d 2e bf 98 c5 f7 3e a9 b4 b0 be bc c1 06 be
       -0.6820973 0.4839294 -0.34512833 -0.13159841
000020 90 73 87 3f 2c 3f f7 3b 79 4c 2e 3f ba 67 82 be
       1.0582142 0.0075453725 0.6808544 -0.25469762
000030 32 bc 85 3e 82 f6 c6 3e e3 95 27 bf 4f 48 9a 3e
       0.26120144 0.38859946 -0.65463084 0.30133292
000040 df 3a e2 3e 2e 44 ff 3c 7c 46 d9 be 2b 0d 11 bf
       0.4418554 0.03116044 -0.42436588 -0.5666072
000050 ac 74 6a 3e 19 20 c5 be 23 80 c5 be 8f fb cb 3e
       0.2289607 -0.3850105 -0.38574323 0.3984036
000060 e5 88 48 3e 6e eb e4 3e f3 52 1a bf c0 4e 50 bd
       0.19583471 0.4471087 -0.6028282 -0.05085635
000070 24 9d 2d bf 17 e9 d8 3e a1 16 0e 3f 54 b4 ce 3e
       -0.678179 0.42365333 0.5550328 0.40371954
000080 1f f5 04 bf 6d 6d ed be 7f dd 31 bf 97 7a 82 3c
       -0.51936525 -0.46372548 -0.694786 0.015927596
000090 62 1a d7 bd bd 64 2b 3f ba 66 65 3e b5 66 1b 3f
       -0.10503079 0.6695059 0.22402468 0.60703593
0000a0 a4 18 20 3f 0b 8d b8 be 5a 6e ee 3d 0b f8 09 bf
       0.625376 -0.36045107 0.11642142 -0.5389411
0000b0 f2 02 09 3f ab 82 88 be dc a4 43 be 5c 0f bd be
       0.5352012 -0.26662192 -0.19105858 -0.3692578
0000c0 cc 7b 10 bf 01 ef 8d bd 71 2d 69 3f 5c 4f 0c bf
       -0.564389 -0.06930352 0.91084963 -0.5480859
0000d0 ed a6 fa be c9 25 80 3e 3a 9a be bd a3 02 20 bf
       -0.4895548 0.25028828 -0.0930676 -0.62504023
0000e0 4e 43 ae 3e e7 a4 36 3e e8 66 43 3f 28 71 c4 3e
       0.34035724 0.17836343 0.763289 0.3836758
0000f0 47 29 51 be 83 f2 28 bf d7 ef 53 be 2a a5 94 3e
       -0.20425902 -0.65995044 -0.2069696 0.2903226
000100 04 73 13 3d 95 e1 89 3e e9 7a 4c 3f 15 96 c4 3e
       0.03599836 0.26929918 0.79875046 0.38395754
000110 56 e2 b7 3d 22 89 b8 be 5d 85 19 bf 3a dc 37 3f
       0.08978717 -0.36042124 -0.5996912 0.71820414
000120 b6 ca 8e 3e ef 8a ed 3e 64 80 e5 be 86 7b 02 3e
       0.2788903 0.4639506 -0.44824517 0.12742433
000130 52 83 f7 be ee 38 ce 3e 97 b0 a3 be 2f 7e 1e bf
       -0.48342377 0.4027781 -0.31970665 -0.6191129
000140 0e bd 5e bc 4b 1d 91 be c7 b7 81 be df a1 f9 3e
       -0.013594879 -0.2834266 -0.25335523 0.4875631
000150 91 ff a0 3d 2f 69 ce be d5 38 f8 3e 21 64 69 be
       0.078612454 -0.40314624 0.4848086 -0.22792102
000160 eb fe df 3e 24 b0 13 3f 3c 50 f6 3e 33 81 dc 3e
       0.43749174 0.57690644 0.4810809 0.4306732
000170 76 74 20 bf 4a 74 fe bd 8c 7a 30 bf 09 33 d4 3e
       -0.62677705 -0.12424524 -0.6893699 0.41445187

tgnn._base_tgcn.linear_h.weight f4 [32, 64]
000000 33 4d 92 be b2 9b 80 be e7 a6 aa be 39 44 db 3e
       -0.28574523 -0.25118786 -0.3333046 0.42825487
000010 7b 31 e7 3e 1d e3 9b 3e fb 73 e2 be f9 d8 f5 be
       0.45154938 0.3044671 -0.4422911 -0.480171
000020 a1 3d 9e 3e 29 6a 95 be 4f 0d d6 3e 95 3b f7 be
       0.30906394 -0.29182556 0.4180703 -0.48287645
000030 d9 56 1a 3e 13 6e da 3e 77 a4 a1 be 80 62 6b be
       0.15072192 0.42662105 -0.3157079 -0.22986794
000040 a7 7d e5 be 3e cc a1 be 77 68 c4 be fe c1 f0 3e
       -0.44822428 -0.31601137 -0.3836095 0.47023004
000050 3b 24 88 be df 23 b2 3d 70 7d 8d 3e ce 0c f0 be
       -0.26590142 0.08698248 0.27634764 -0.4688477
000060 56 e6 b4 3e d9 a1 37 be 75 20 d2 be af 0a b1 be
       0.35331982 -0.17932834 -0.41040388 -0.34578463
000070 aa be 96 bd 05 ed 10 3e 30 00 9c 3e a2 1a 69 be
       -0.07360585 0.14152916 0.30468893 -0.22764066
000080 0e e0 84 bd 6a 56 b3 3d 12 9d a4 3d ac f0 7f bd
       -0.064880475 0.087567165 0.08037771 -0.062485382
000090 7c a2 1c bd 9e a3 9c bd 56 9c ec 3d 48 53 60 bd
       -0.038240895 -0.07648395 0.11553256 -0.054766923
0000a0 00 58 79 3d 24 51 12 bd 7e 2b c8 3d 38 1a d3 3d
       0.06087494 -0.035721913 0.097739205 0.10307735
0000b0 8a 11 c5 3d 28 6d 98 3c 50 c9 47 3d 58 91 c0 3c
       0.09622486 0.018606737 0.04877597 0.023506805
0000c0 08 7b da bc d8 57 57 bd a0 c0 eb 3b 02 f3 9c bd
       -0.026669994 -0.05257401 0.0071945935 -0.076635376
0000d0 44 11 b8 bd b2 cb ae bd 4c 60 6e 3d d0 ae 1f bc
       -0.08987668 -0.085349455 0.058197305 -0.009746268
0000e0 24 8c e6 3d fc 9e 97 3d c4 8b 59 3d ac 7e 19 bd
       0.112571985 0.07403371 0.053111807 -0.03747432
0000f0 02 fd cc bd 90 87 eb 3d 80 37 20 3b 86 b2 e0 bd
       -0.10009195 0.11500466 0.0024447143 -0.10971551
000100 26 8d 05 3f bc cf 3f 3e 26 6f d2 3d c8 26 0c bf
       0.521685 0.18731588 0.10275106 -0.54746675
000110 5d f8 6e be 6a f7 70 be 30 73 23 3e fd 23 44 3e
       -0.2333693 -0.23531881 0.1596191 0.19154353
000120 5c dc 09 3d d2 33 d0 3e 1a 93 ca bd e8 58 ec 3d
       0.033657417 0.40664536 -0.09891339 0.11540395
000130 48 58 a3 be bd 94 38 be d8 92 15 3f ec 50 1d be
       -0.3190329 -0.18025489 0.5842719 -0.153629
000140 73 0e 9d 3c 5d 6c a3 3d 64 a0 30 3f b4 f5 8d be
       0.019171929 0.07979653 0.68994737 -0.2772652
000150 da 80 d4 3d 71 8e e6 3d 35 00 7e 3d 25 a4 14 3e
       0.10376139 0.11257637 0.062011916 0.14515741
000160 e1 a3 88 be bd fa 0b 3f b7 0a f8 3d 07 72 a4 3e
       -0.2668753 0.5467947 0.12111419 0.32118246
000170 13 7c 81 3e cd 45 01 bd 82 43 8c be 62 7f ea 3e
       0.25289974 -0.031560708 -0.27395254 0.4580031
000180 3a 4c b6 bd 40 ed 54 bc b6 4b f5 bd e0 22 ac 3c
       -0.08901258 -0.012996018 -0.11977331 0.021012723
000190 e8 b9 86 bd f8 af 64 3d da 34 a6 bd 3c 68 80 bd
       -0.065784276 0.05583188 -0.081155494 -0.06269881
0001a0 00 bc d2 3b 60 73 de 3b bc 88 b8 3d 00 2f ac ba
       0.0064311028 0.006788656 0.09010455 -0.0013136566
0001b0 90 52 3e 3d dc c0 a3 3d 68 2a ab bd 04 bf 9e 3d
       0.046465456 0.079957694 -0.08357698 0.07751277
0001c0 9c d9 56 bd c0 97 6a 3c 48 26 d6 3c 60 19 c2 3c
       -0.052453622 0.014318407 0.0261413 0.02369374
0001d0 50 ce ee 3c d4 5e 3a 3d 54 80 a8 bd d0 bb 00 3d
       0.029151112 0.04550059 -0.08227602 0.031429112
0001e0 28 9a 92 bc 68 cc 96 3d c2 7b 90 bd b0 f8 21 3d
       -0.017895773 0.07363206 -0.07054855 0.039543808
0001f0 54 8e 5a 3d ec 03 54 bd 6a 10 a9 bd 5a 04 bb 3d
       0.05335839 -0.051761553 -0.08255084 0.09131689
000200 a4 d3 e5 3d f6 ae a7 3d 36 5a c5 bd e4 6f 3d 3d
       0.11222008 0.08187668 -0.09636347 0.046249285
000210 8c 63 cd bd a8 b3 88 bc 7c ed d2 bd 88 96 88 3d
       -0.10028753 -0.01668723 -0.10299203 0.066693366
000220 1a fb 9c 3d 94 c6 a3 3d d4 8d 6b bd 22 2b f0 3d
       0.07665081 0.0799686 -0.057508305 0.11726977
000230 82 bb b6 3d c0 99 84 3c 62 f1 bd bd 30 88 92 3d
       0.08922483 0.016186595 -0.09274556 0.07154882
000240 d0 f8 15 3d 90 79 0f 3c aa 71 fa bd ba 4e 97 bd
       0.03661424 0.00875701 -0.12228711 -0.07388063
000250 90 3e 73 bc ee 13 ea bd b4 cb b4 3d 58 88 c7 bc
       -0.014846459 -0.114295825 0.08827916 -0.024357006
000260 88 9d 9a bc e8 c4 2d 3d 70 e4 56 3d 4c 92 9e bd
       -0.018873945 0.042424113 0.05246395 -0.07742748
000270 98 d4 9c 3c d4 49 73 bd 06 9d d8 bd 28 f2 fc 3d
       0.019144341 -0.05939658 -0.10576825 0.12350875
000280 58 05 fb 3c 70 4e ae bd b8 94 8d bd 0c d7 0f 3d
       0.030642197 -0.085110545 -0.069131315 0.035117194
000290 5a 35 ee bd 50 9d 2f bd c4 40 a9 3d 04 d3 9b bd
       -0.1163127 -0.042874634 0.08264306 -0.076086074
0002a0 f4 30 d2 3d 9c 2b 28 3d 7a eb d3 bd 38 ab 57 3d
       0.10263243 0.041057214 -0.10347648 0.05265352
0002b0 76 fe f3 3d 74 dd 4a 3d 58 6c d2 3d 00 62 d3 ba
       0.11913769 0.0495276 0.10274571 -0.0016127229
0002c0 72 9e c0 bd e4 87 24 3d a0 69 03 3d 78 d5 59 3d
       -0.09405221 0.040168658 0.032083154 0.053182095
0002d0 28 61 a1 bc 04 a4 80 bd 44 bf 13 3d a4 45 c0 bd
       -0.019699648 -0.062812835 0.036071077 -0.09388283
0002e0 f0 1a d4 3d 54 60 54 bd 44 ff ff bd da 2b 90 3d
       0.103567004 -0.05184968 -0.1249986 0.07039614
0002f0 20 76 d1 3b 20 f0 23 bd 64 08 39 bd 22 f0 a7 bd
       0.0063922554 -0.040023923 -0.045174018 -0.082000986
000300 0f 73 6d 3e 58 f2 75 3d 7e 27 57 3e fa 02 92 bd
       0.23188423 0.06004557 0.21011159 -0.07129474
000310 3a ff bd bc 5b a9 01 be b3 76 2d 3e 70 48 6a 3e
       -0.02319299 -0.1266226 0.16939811 0.22879195
000320 cc 55 1f 3e 90 1d 31 3d 7e f0 e8 bd 3f a2 8a bd
       0.15560073 0.043241084 -0.11373995 -0.06769227
000330 cd 74 98 be 34 25 df 3c c7 d0 cf 3e 3e 23 8b be
       -0.29776612 0.02723942 0.40588972 -0.27175325
000340 2b d8 e9 3d 75 ae 11 be fe 2c d4 3d d7 fc c3 bd
       0.11418184 -0.14226706 0.10360144 -0.0956971
000350 00 55 aa 3d a8 70 60 3e 96 82 e5 bb 68 02 8d 3d
       0.08316994 0.21917975 -0.0070040924 0.068852246
000360 9e 0b 9e bd 21 b1 86 3e 3b b5 d9 bd 06 0e 67 3e
       -0.077170596 0.26307014 -0.1063027 0.22563943
000370 39 bd ae 3e 42 39 89 3e f0 f9 5b be fe 92 53 bd
       0.3412874 0.26801497 -0.21482062 -0.051653855
000380 40 cd 96 bc 16 42 ab 3d 4c a1 4b 3d 24 2a f2 3d
       -0.018408418 0.08362214 0.04971437 0.11824444
000390 04 14 28 bd 48 cf 6e bd 58 ed a8 bc ea 4c ce 3d
       -0.041034713 -0.058303148 -0.020620987 0.10073264
0003a0 f6 16 cc 3d 9c bb 83 bd 50 07 f0 3d 82 57 99 3d
       0.09965317 -0.06432268 0.11720145 0.07487394
0003b0 08 29 45 3d 30 31 65 bc 02 4d b5 3d 34 43 8e 3d
       0.048134834 -0.013988778 0.08852579 0.06946412
0003c0 06 90 9c 3d 4c 42 16 3d 48 06 d8 bc 32 87 81 3d
       0.07644658 0.03668432 -0.026370183 0.063246146
0003d0 b8 73 b5 bd 60 e3 8a 3b 14 aa b3 bd 40 2f a2 3c
       -0.08859962 0.004238531 -0.08772674 0.019797921
0003e0 ee 2e d5 3d 24 28 eb bd 9c 7d 05 bd 76 85 e0 bd
       0.10409342 -0.114822656 -0.032590494 -0.10962956
0003f0 9c 9e c7 bd 08 70 91 3d 00 77 18 3b b0 59 6d 3c
       -0.09747049 0.071014464 0.002326429 0.014486715

tgnn._base_tgcn.linear_h.bias f4 [32]
000000 a3 e3 da 3d 48 41 63 3e 32 7e b6 bd a7 2e 87 3d
       0.106879495 0.22192872 -0.089107886 0.06600695
000010 11 27 04 3e a7 20 9d 3e 82 ef b4 bc 03 7f d9 bd
       0.12905528 0.30688974 -0.022086862 -0.10619929
000020 b0 0e e9 3d ba de b2 3e c8 1a 9a 3d c0 ba d5 3d
       0.113797545 0.34935552 0.07524639 0.1043601
000030 ff b8 d2 3d 2e 7d 80 3e b1 3c cf bc 09 53 01 be
       0.102891915 0.25095505 -0.025297495 -0.12629332
000040 a8 ab aa bd 78 81 e0 bc a0 46 b3 3d 3b 00 88 3e
       -0.08333522 -0.027405486 0.08753705 0.26562676
000050 3a 35 90 3e 41 50 87 be ab fd d4 3d e1 68 dc 3d
       0.2816561 -0.26428416 0.10399946 0.107621916
000060 a6 e5 1b 3e 29 71 c6 3e 30 47 c6 3e ae 33 b9 3e
       0.15224323 0.3875821 0.38726187 0.3617224
000070 f7 d7 6d 3e ea 60 6e 3d 97 41 63 bb 7a 9f fc 3d
       0.23226915 0.058197893 -0.0034676546 0.12335105

linear.weight f4 [16, 32]
000000 32 23 43 3e 8a 30 72 be 1f 32 e4 bd 7f 82 42 3c
       0.19056395 -0.23651329 -0.11142372 0.011871933
000010 a9 70 70 3e 37 31 dc be 49 19 08 3e 80 1f 54 bd
       0.23480476 -0.43006298 0.13290896 -0.051787853
000020 a2 ed 77 3e 7f ff e9 be 0a 8e 6d 3e 48 ba 79 3e
       0.24211743 -0.4570274 0.23198715 0.24387467
000030 ac 4d b1 3e bb 5f 6c be c6 0f 62 3d ba 55 bc 3d
       0.3462957 -0.23083393 0.055190824 0.091960385
000040 c0 ce 8b 3c de bc e9 bd d8 c9 a5 3e 45 c7 5a be
       0.01706636 -0.11412977 0.32380557 -0.21365078
000050 93 3b 8e be 6f cd d4 be a4 b0 9c 3e fe 0c 8c 3d
       -0.27779827 -0.41562983 0.30603516 0.068384156
000060 49 59 93 be 39 f1 c0 be 49 34 aa be db 65 ab be
       -0.28779057 -0.37684038 -0.33243015 -0.33476147
000070 3b e7 87 be e2 f0 53 3e a8 d7 a4 3d 0b 4b 98 bb
       -0.26543602 0.20697358 0.08048946 -0.0046476177
000080 25 f7 58 3d 9c 48 8c be 5c 3b 2f 3d 20 36 cf bd
       0.05297007 -0.27399147 0.04278122 -0.101177454
000090 65 31 2d 3e 80 9c c2 be 4d 79 1f 3e 8e 46 30 bd
       0.16913374 -0.38010025 0.15573616 -0.043036036
0000a0 e5 16 b4 3e 03 0d b6 be a6 b0 b6 3e c8 df ee 3d
       0.35173717 -0.35556802 0.35681647 0.11663777
0000b0 8d a4 81 3e fb a1 7d be 2d 73 e6 bd b5 94 f0 3d
       0.25320855 -0.24768822 -0.11252437 0.117471136
0000c0 9c 5a 15 3d 48 39 62 bd 79 7a a8 3e 56 b4 8e be
       0.036463365 -0.05523041 0.3290594 -0.2787196
0000d0 f1 e1 b8 be 54 e1 d7 be 4a f3 ec 3d 48 02 bd 3e
       -0.3610988 -0.421641 0.11569841 0.36915803
0000e0 49 c0 d5 bd 7e d5 d0 be 15 c9 85 be 41 5d b8 be
       -0.10437066 -0.40787882 -0.26129976 -0.36008647
0000f0 af b5 c6 be a0 20 56 3e 49 62 06 3e 02 9f 51 3e
       -0.3881049 0.20910883 0.1312343 0.20470813
000100 7d 32 b3 3e 28 c4 8b be 30 ae ec bd 07 a6 ba bc
       0.34999457 -0.27298093 -0.11556661 -0.022784246
000110 ce 9b 0d 3e e7 3b 90 be d5 b5 d8 3e b3 f8 d6 bd
       0.13828966 -0.28170702 0.42326227 -0.10496654
000120 09 f4 0e 3e bf b5 c0 be 03 7e 0d 3e d8 e2 9d 3e
       0.1396028 -0.3763866 0.13817601 0.3083713
000130 c1 90 24 3e 66 fd 96 be ae ed 19 3d a6 94 6f 3d
       0.16070844 -0.29490203 0.037580185 0.05849137
000140 46 b9 0e be d6 08 15 be e0 79 a0 3d 42 b0 e4 be
       -0.13937864 -0.14554152 0.07835746 -0.44665724
000150 ce cb d9 be 63 46 f5 be 40 df 9d 3e 5f d9 4a 3e
       -0.42538303 -0.47905263 0.3083439 0.19809483
000160 a3 00 16 bf b7 0d 83 be f5 89 9b be 3d ff e7 be
       -0.5859472 -0.255964 -0.3037869 -0.4531192
000170 3d e1 64 be c7 c3 c0 3e 4b ea c7 3a 29 e1 8b 3d
       -0.22351547 0.37649366 0.001525232 0.06830055
000180 a7 a6 68 3e 78 df e8 be 60 5b 01 3c 3d 1e d8 3d
       0.22719823 -0.45482993 0.007895321 0.105526425
000190 8f 27 73 3e 22 45 2b be c7 de d6 3d 37 92 33 3d
       0.23745559 -0.16725591 0.1049171 0.043840613
0001a0 77 5b 1e 3e 46 27 f9 be 02 91 8d 3e 3f 5a 0d 3e
       0.15464579 -0.48662776 0.27649695 0.13803957
0001b0 71 ae 68 3e ed b4 b9 be 79 1e 3e 3d e6 dc 0f be
       0.22722794 -0.36270848 0.04641578 -0.1404911
0001c0 e9 24 34 3e 2a 0c fd 3d a3 b2 3f 3e 2d a8 bc be
       0.17592205 0.12355836 0.18720488 -0.36847058
0001d0 ae 79 a9 be 18 36 2d bf 12 90 ca 3e d0 fc c0 3e
       -0.33100647 -0.67660666 0.39563042 0.3769288
0001e0 7b c4 fe be 20 08 af be 79 a9 ea be dc a6 ec be
       -0.49759278 -0.34185886 -0.45832422 -0.46221054
0001f0 db 87 b9 be 02 7c ae 3d 62 8b 36 bd a5 6c 63 3e
       -0.36236462 0.08519746 -0.04456652 0.22209413
000200 da 12 3d 3e c5 57 cc be c0 1f 6c bd 03 83 a7 be
       0.18464223 -0.39910713 -0.057647467 -0.32717142
000210 dc d8 35 3e 46 09 ac be af 2e 8b 3e 58 e9 b2 3d
       0.17758507 -0.33600825 0.27184054 0.08735913
000220 28 5d b1 3e d5 b9 d1 be 2d 82 cc 3e 5f cd 62 3e
       0.34641385 -0.4096209 0.39943066 0.22148655
000230 13 d6 6a 3e b6 ff d9 bd 09 5c 92 3b 75 4e c2 bd
       0.22933225 -0.10644476 0.004466538 -0.09487621
000240 01 f5 32 3e 0a be d6 3d 53 4e 5e 3e 9d be 76 be
       0.17476274 0.10485466 0.21709566 -0.2409615
000250 f7 e4 95 be 47 4b 1c bf 67 9f 8f 3d 47 69 bd 3e
       -0.2927625 -0.61052364 0.070128255 0.36994383
000260 96 18 e3 be 2e 20 fe be 9d 56 ce be ec ba cb be
       -0.44354695 -0.49633926 -0.40300456 -0.39791048
000270 fa 93 c0 be 9a 7f 90 3d 10 13 da 3b 1a 0b ac 3e
       -0.37612897 0.07055588 0.0066551045 0.3360222
000280 1d 1c ce 3e 71 a5 f6 be 25 c4 2a 3e 3e 04 a5 bd
       0.40255824 -0.48173097 0.16676386 -0.0805745
000290 c9 e9 4b 3e 1a 73 0f bf ff 43 be 3e df e6 18 bd
       0.199134 -0.56035006 0.37161252 -0.03732955
0002a0 e5 52 f0 3d f5 ae d8 be 1b 78 d2 3d 3b 8e 77 3e
       0.11734561 -0.42320982 0.102768146 0.2417535
0002b0 0f 7f cc 3e b7 50 48 be 58 99 1e bc ab 83 df 3d
       0.39940688 -0.1956204 -0.009680115 0.109137855
0002c0 d9 c9 bf bd 10 c1 09 be bd e0 be 3d a4 68 5c be
       -0.09364671 -0.13452554 0.09320209 -0.21524292
0002d0 4f 12 cf be eb 5d 09 bf dd 1c d1 3e 4e a8 a3 3d
       -0.40443656 -0.5365893 0.40842333 0.07991086
0002e0 aa 12 cd be 94 25 e2 be 3c 44 b2 be 8e 9d a5 be
       -0.40053302 -0.44169295 -0.34817684 -0.32346767
0002f0 50 f6 20 bf 75 3b 97 3e 81 9d 8f 3d 80 94 76 3e
       -0.62875843 0.2953755 0.07012463 0.24080086
000300 d8 9c 3e 3e c8 92 c1 be 82 20 fc 3d 3b d2 b0 be
       0.18614519 -0.37807298 0.12310888 -0.34535393
000310 e3 25 b8 3e 80 3f a7 be d2 7c 8d 3e c0 a3 4a 3d
       0.35966405 -0.32665634 0.27634293 0.04947257
000320 45 31 c1 3e 61 cb ae be 39 38 38 3e c9 5e ad 3e
       0.37732902 -0.3413954 0.17990197 0.33861378
000330 3a ad 90 3e 02 08 d2 be b8 95 cf bd 44 19 2a bd
       0.2825716 -0.41021734 -0.101359785 -0.041528
000340 2a ea d4 bd 72 2b a6 3d e1 0d 81 3e 6f 78 a3 be
       -0.10396226 0.08113755 0.252059 -0.3192782
000350 a9 38 2f be e7 25 1d bf dc 24 e5 3d da da ad 3d
       -0.17111458 -0.6138596 0.11188671 0.08489008
000360 ca 15 38 bf a6 37 a5 be 70 e3 f7 be b5 8b dd be
       -0.7190825 -0.3226902 -0.4841571 -0.4327065
000370 60 fc 10 bf 4d d7 2c 3e 92 a3 19 3d d6 87 d7 3e
       -0.56635094 0.16879006 0.03750951 0.42095822
000380 ce f4 9b 3e 67 ec 32 bf 30 ba cf bc df 0f f4 be
       0.3046021 -0.6989197 -0.025357336 -0.4766836
000390 ca 39 30 3e 0a 16 dd be 37 9a b3 3e a2 1f 7a bd
       0.17209545 -0.43180877 0.35078594 -0.061065324
0003a0 c4 61 9a 3e 4a 03 b6 be 87 f1 c2 3e 51 aa fd 3d
       0.30152714 -0.35549384 0.38074896 0.12386001
0003b0 3e e6 8a 3e 8c 6d f5 be 75 54 29 3c 61 b4 b7 bd
       0.27128786 -0.4793514 0.0103350775 -0.089699514
0003c0 58 7e 8d bc 38 05 b2 bc d2 fa 02 3e 08 14 ad be
       -0.01727216 -0.021731004 0.12790993 -0.33804345
0003d0 44 85 6a be 01 63 2c bf 1b ab a2 3e 2d 4d b1 3e
       -0.229024 -0.6733857 0.31771168 0.34629193
0003e0 6a 1f ef be 46 a2 b4 be 8d 55 95 be de 87 6b be
       -0.46703655 -0.35280055 -0.29166833 -0.23001048
0003f0 5a 99 1a bf 35 66 0e 3d fd 65 af 3c 32 7e 3d 3e
       -0.60390246 0.03476544 0.021410936 0.18505171

linear.bias f4 [16]
000000 3a 9c 03 3d 16 35 f2 bd 69 d4 d3 3c 38 e6 7e 3d
       0.03213141 -0.118265316 0.025858121 0.062231272
000010 e3 a0 a6 bd 13 b3 e7 bd 91 c6 18 be 44 30 91 bd
       -0.081361555 -0.113134526 -0.14919497 -0.07089284
000020 67 67 16 be e1 dc 27 bc 11 e1 d5 bc 13 d4 a2 bc
       -0.14687882 -0.010245533 -0.026108297 -0.019876515
000030 12 1f 02 be 44 6a 9b 3c 8f 48 78 3d c3 32 e9 bd
       -0.12707165 0.01897157 0.060616072 -0.11386635

linear2.weight f4 [6, 21]
000000 c9 70 fa 3e 1e cf fa 3e bd 1d 82 3e f2 55 9f 3d
       0.48914173 0.48986143 0.25413314 0.07780065
000010 23 08 4e be b9 cc 8e 3e 24 9a a3 be 56 74 be bd
       -0.20120291 0.27890566 -0.31953537 -0.09299533
000020 ad 60 98 bd 70 ee b4 3e e5 79 64 be 33 37 47 be
       -0.074403144 0.35338163 -0.22312124 -0.1945465
000030 5a 17 a1 bd fe 55 38 3e 95 2d 76 3d f2 ff 56 be
       -0.07865782 0.18001553 0.060102064 -0.20996073
000040 75 16 3b bd 05 16 6f 3d 15 66 cb b9 c7 04 d7 bd
       -0.045675714 0.05837061 -0.00038795234 -0.10498958
000050 5d 33 c3 bc 19 ea 87 3b 1a 06 d2 3d 8f 0d f2 bd
       -0.023828203 0.0041477797 0.1025507 -0.11818992
000060 54 c9 94 3e 76 90 93 3d fe 49 1c 3e 8f 9e 3d 3e
       0.2905985 0.07205288 0.15262601 0.18517517
000070 78 7a 1b 3e 10 4f 86 3e bf 0c 91 bd 39 02 1d 3e
       0.15183437 0.26232195 -0.07082509 0.15332879
000080 06 5a 82 3d 7d d2 86 3e d4 db c3 bd 49 6e 15 3d
       0.06364827 0.26332465 -0.09563413 0.03648213
000090 6d e6 00 be 61 2a c2 3d 2a 97 3a be 93 5d 30 be
       -0.125879 0.094807394 -0.18221727 -0.17223196
0000a0 a3 af 31 3d 5c 58 1a 3e e2 b3 1a be 54 e4 0d bd
       0.04338039 0.15072769 -0.15107682 -0.03464158
0000b0 c5 94 e7 3b bb 4e 0b 3e a1 93 42 bd a8 02 ab be
       0.0070672953 0.13604252 -0.04750407 -0.33400464
0000c0 3b b1 59 3d e7 db 4a be 8d c4 c3 bc f7 07 28 bc
       0.053147536 -0.19810449 -0.023897434 -0.010255805
0000d0 18 ff 31 be 90 1a fa bd 78 e2 95 3d 36 fa a6 be
       -0.17382467 -0.12212098 0.07318586 -0.3261277
0000e0 ac e6 e3 bd 67 df 0b 3e 4d ca 43 3e 39 61 2a be
       -0.111279815 0.1365944 0.1912014 -0.1663865
0000f0 a5 b3 93 3b ad b6 15 bd 82 94 46 bb 95 0e 5e be
       0.0045074993 -0.036551166 -0.003030092 -0.2168525
000100 83 c4 2f bd 91 60 c2 be 2c e2 93 be 86 40 cb 3d
       -0.042912018 -0.379643 -0.28883493 0.09924416
000110 8a 19 ae bc cb 5c 80 3e 55 7a d0 bd c5 d2 57 3e
       -0.021252412 0.25070795 -0.10179583 0.21076496
000120 e1 2f b7 3d 6f 74 37 3e 13 47 be 3d e9 5a 47 3e
       0.08944679 0.1791551 0.092909 0.19468273
000130 16 e9 97 bd 89 0e 28 3e f7 bd ab 3e 54 92 25 3e
       -0.074175045 0.16411795 0.3354337 0.16169101
000140 48 44 9c 3d 1d 95 1c 3e 99 a3 13 3e 76 08 8b 3e
       0.07630211 0.15291257 0.14417876 0.27154893
000150 36 3e ab bd 00 9c 8b bd ac 01 c5 3d 3b 0e 93 3e
       -0.08361475 -0.06816864 0.096194595 0.28721794
000160 20 be 1d 3e f2 0d 5d 3a 36 c6 c0 3d d1 f9 11 3e
       0.15404558 0.0008432559 0.09412806 0.14255454
000170 51 b9 dd bb 89 80 87 bc 1d cc a3 3c 2f 7b 59 be
       -0.006766476 -0.016540783 0.01999479 -0.21238397
000180 bb cb e2 bd 2c 03 35 bc 2d ea 0a 3e 2c da 7c 3b
       -0.11074015 -0.0110481195 0.13565893 0.003858219
000190 43 69 88 be d6 8d 50 3e 5f f7 31 3e 05 34 5f 3e
       -0.26642808 0.20366606 0.17379521 0.21797188
0001a0 42 2d 25 3d 3a 5a dd bd 79 98 99 be 61 36 3a be
       0.040326364 -0.10808225 -0.2999914 -0.18184806
0001b0 ca 7b 22 bd 33 39 00 bc 01 da 37 bd 3b 97 41 3e
       -0.039668836 -0.007826137 -0.04488564 0.18905346
0001c0 ed 66 ed bd 88 34 54 bd 3e de dd 3d 06 08 d1 3c
       -0.11591897 -0.05180791 0.10833405 0.025516521
0001d0 0a d1 b0 bd 24 cc 27 3e d7 71 5d be 41 56 1b 3e
       -0.08633621 0.16386467 -0.21625458 0.15169622
0001e0 f5 11 4f 3e 35 9d 63 3e 40 ca f2 3d bc 1a ce bd
       0.20221694 0.22227938 0.118549824 -0.10063693
0001f0 97 f6 90 3e 69 ce 83 3e
       0.28313133 0.25743416

linear2.bias f4 [6]
000000 61 05 e5 bc 35 8d fc 3c c8 a7 45 3e 6f 1f 10 bc
       -0.027956666 0.030829052 0.19302285 -0.008796557
000010 85 58 90 3e 8d ba 9d be
       0.28192535 -0.3080639
