A3TGCN2_Checkpoints/Epoch_8.pth (torch, 35255 bytes, 17 tensors)

tgnn._attention f4 [16]
00000000: 7bad 953f efac 7d3f 2f94 423f d3de ac3d
00000010: 7e86 f43e b8d4 9bbd bc55 83be bea3 d13e
00000020: d9ad 543e afbd e53d 23bc a93e a7e7 013f
00000030: c66f c63e 2dd4 323f c6d8 563f 3cbc 9d3f
1.1693567 0.99092 0.7600736 0.08440938 0.4775886 -0.07608932 -0.25651348 0.40945238
0.20769443 0.1121782 0.3315135 0.507441 0.3875715 0.69855005 0.8392452 1.232307

tgnn._base_tgcn.conv_z.bias f4 [32]
00000000: 9c9c e43e 3f48 dc3e 06e3 963d 9bd0 643c
00000010: 3561 bbbd 5432 a8be 13ae 9ebe a29c e4be
00000020: 669f 003f 6291 fa3e 315a fdbe 1cd3 edbe
00000030: de6f 5b3d 8e45 173d e6b0 dc3e 2e72 dc3e
00000040: f76f eabe fb33 013f cecc 613e bdfd ff3e
00000050: 2465 ec3e 50fd dabe 25dc f6be 342c db3e
00000060: ba18 c0be 207a d0be 6be6 c0be 1f8f c13e
00000070: 153b b03e 7885 9fbe 70a1 a63e 1986 e53e
0.44650733 0.4302387 0.0736752 0.013965751 -0.091494 -0.32850897 -0.30992183 -0.4465075
0.5024322 0.48939043 -0.49482873 -0.46450126 0.05357348 0.036931567 0.43103713 0.43055862
-0.45788547 0.5046994 0.22050783 0.49998274 0.46170914 -0.42771387 -0.48214832 0.42807162
-0.37518865 -0.40718174 -0.37675795 0.37804505 0.34420076 -0.31156516 0.32545042 0.4482887

tgnn._base_tgcn.conv_z.lin.weight f4 [32, 3]
00000000: f86a 85bd d7c3 b7be 3a32 92bf d1d9 a53e
00000010: 7253 f8be fd66 34bf 27c7 47be 1ca5 523e
00000020: 231c ddbe 73ed b3be 3af1 3b3f bbec 8d3f
00000030: 4199 563e 7584 b0be 4f30 243e ec71 58be
00000040: 2b41 043f d6ed 8b3f e64b eebe b432 6bbc
00000050: 09ea 023f 9e32 1cbe 26dc 963e 3167 403f
00000060: ca2e 953e 2938 01bf 7640 64bf 1dae d33e
00000070: b132 50bf 5173 60bf 8221 603c bb86 fc3e
00000080: a7ec 1d3f 306d e3be cfe3 053f c0d1 0d3f
00000090: 2595 a8bd a515 b13e f63f d5be 61cc 1cbf
000000a0: 5f79 243e 8370 523f 8175 c53e fc7d f5be
000000b0: 758e 48bf ef98 fe3d cdcb 9fbe 8c04 a0bf
000000c0: 3af8 63be 9da6 dd3e 111e 1c3f cc4b 793e
000000d0: 4bb4 28bf 4bf9 a1bf d71b 1ebe 2a47 5cbd
000000e0: 2726 aebd 5788 323c 6878 f7be 25bd 9bbf
000000f0: 0851 dd3e 322a e4be 3a1e 2cbf f020 51be
00000100: ab8c b93e c728 c93e e0cd b6be ec63 453f
00000110: e48a 8a3f ddd1 7c3e 35b8 8bbe 1bc3 92bf
00000120: 6c8c 853d c44e 083e 980a 703f 5cbe d0bb
00000130: bf9a ee3d 7a6e 683f 02f5 9f3e 7d81 743e
00000140: bcf2 c03e 1085 a3be dfea a1be a3d9 92be
00000150: fdaa 833e 3c46 fcbd e78c 33bf 8c9d 333f
00000160: aaa1 643f f172 0b3f da6d 8fbc 5ad7 99bf
00000170: 88e0 dbbe 107a f33d 3183 fdbe b8fe 73bf
-0.06514543 -0.358916 -1.1421578 0.32392743 -0.48501164 -0.7046965 -0.19509564 0.20570797
-0.4318553 -0.35142097 0.7341496 1.108787 0.20956899 -0.34476057 0.16034053 -0.21137208
0.5166194 1.0931957 -0.4654228 -0.01435535 0.5113836 -0.15253684 0.29464835 0.7515746
0.2913726 -0.5047632 -0.8916086 0.41343775 -0.8132735 -0.8767596 0.013679864 0.4932154
0.6168923 -0.4441924 0.52300733 0.5539818 -0.08231572 0.34586826 -0.4165036 -0.6124936
0.16061924 0.8220293 0.3856621 -0.4794768 -0.7834237 0.124315135 -0.31210175 -1.2501388
-0.2226266 0.43291178 0.6098338 0.2434532 -0.65900105 -1.2654203 -0.15440308 -0.053778805
-0.08503371 0.010896764 -0.4833405 -1.2167097 0.43225884 -0.44563442 -0.6723362 -0.20422721
0.36240134 0.39288923 -0.35703945 0.77105594 1.0823636 0.24689431 -0.27288976 -1.1465791
0.06520924 0.13311297 0.93766165 -0.006370349 0.11650609 0.90793574 0.31241614 0.23877521
0.37685192 -0.31937456 -0.31624505 -0.2868167 0.2571639 -0.12318084 -0.70136875 0.7016227
0.8930918 0.5447226 -0.017508436 -1.2018845 -0.4294474 0.11888516 -0.49514154 -0.95310545

tgnn._base_tgcn.linear_z.weight f4 [32, 64]
00000000: bdb7 2bbf bb6a 02bf 2cd5 b73d 6b8b 653f
00000010: 68bc 23be ae42 683f 20ef 133e 830f 603e
00000020: 5c81 18bf c0ca 6ebf e5ea 2f3f d079 e03e
00000030: eb26 c0ba bee4 96bd cdff 11bf d177 21bf
00000040: f4ba 0d3f eefb 81bf 7a8c d5bd 941e 89bf
00000050: b97c b7be 390a e03e 5187 853f 6179 a1be
00000060: 109a a33e e745 533e 2b00 6c3e 2842 d8be
00000070: a4b5 63be 0e8f b53e 23c7 2dbf e475 56bf
00000080: a8db a53c 04c7 643d 3064 373d a489 103d
00000090: 888e bd3c 3891 b7bc 7ce0 ea3d 581b 94bc
000000a0: 8c34 60bd f8df 9d3d 3c5e 3dbd ce22 ec3d
000000b0: f090 e23d 9ea1 abbd 904a d2bd 2060 27bd
000000c0: 3e22 a53d bc91 d2bd 02f5 8a3d 2820 febd
000000d0: 1015 c3bc 1cae 06bd 502e 593c 7cc9 ce3d
000000e0: 880a b4bd 802f 073b 6011 c83b 70c1 56bd
000000f0: 0029 0d3c ca87 b83d e4a6 9cbd 0c02 a23d
00000100: fb80 c2be f9bf 08bf 0a00 a5be 0782 8fbe
00000110: 3139 ed3e 277e f03e 75f9 063f bccf 123f
00000120: c317 e2be 78f1 02bf 11d2 cb3e b9b4 223f
00000130: 2355 efbe c5c2 bb3c a67b 0fbf 90a1 d8be
00000140: 2086 bc3e 3639 19bf c8c8 a7be 5301 01bf
00000150: 2dba f3be 38e9 0c3f 6f84 ee3e 0fe2 ddbe
00000160: d069 be3e 2c42 103f f776 d33e b903 74be
00000170: 3547 b9be 8ed7 9f3d a445 adbe 5577 ebbe
00000180: d2cf bf3d 4cda 5c3d c259 97bd 42ab 8ebd
00000190: 9040 e23c f8e8 103d c697 873d 0e66 bbbd
000001a0: eea7 f63d 2047 c9bc 5c9b 333d 646d 5bbd
000001b0: 3835 433d 82a0 da3d 724d b8bd 8027 393c
000001c0: 90f5 7a3c 30ae 93bc d46a 0cbd 5030 c63c
000001d0: d074 bd3c 789f 51bd 5c65 353d da7b d53d
000001e0: 3811 fa3c 36a7 82bd e8b3 99bc bc99 03bd
000001f0: b28e ff3d 7af1 84bd 2eab 993d 469f febd
00000200: 58e1 373d 28b3 f1bd b087 59bc 9a9d c1bd
00000210: b817 d1bd e059 b73c 76cc be3d c00a ba3d
00000220: 048f 59bd 34bb 14bd 688b abbc 80c7 5cbb
00000230: 588b a7bd 80f1 8dbb 8af4 983d 4a9a d63d
00000240: 34cf c43d 50e5 78bd 643b 963d 0814 883d
00000250: 0035 dc3d 3cbe 06bd 7258 c3bd 70a1 6c3c
00000260: 3647 853d 88a4 e7bc f061 1e3c 5824 93bc
00000270: 8aba d9bd 5c10 173d d8d9 023d 009d 2a3b
00000280: 9ac3 d4bd 14e1 4c3d 40d3 9f3b b0ab e1bd
00000290: b2e0 ddbd 60b8 603c 1065 723c f0da 233c
000002a0: 7a21 823d 0024 1bba faf7 f33d 0cc8 11bd
000002b0: f036 91bd 4666 b3bd 805b 7abd d085 f63d
000002c0: 46ac 803d f411 3cbd f8aa acbd c033 09bc
000002d0: c43e b23d a0fd f73d 264b e9bd 309b 6fbd
000002e0: 523d d4bd 18a8 bcbc c83d 93bc e8c6 e63d
000002f0: 1c1a f63d dc2b ec3d cc32 4cbd 20c0 5ebd
00000300: 1538 eabe 1b91 dbbe 77a1 4abe 0c48 9cbe
00000310: e851 043e 04de 9b3e 5b3a 613e 3397 7c3e
00000320: ee3a cebe ee79 e5be 846a eb3e 7431 a03e
00000330: 0d44 d43c c3ec 93be 8be9 95be f1ab b6be
00000340: 0017 9c3e 035a a7be 0ee6 b7be a406 a8be
00000350: 0e0f e6be 9930 e83e 9b87 1b3f 7a22 19be
00000360: 3ce8 8a3e 900b 5b3e d178 9e3e 5627 04bf
00000370: 4a73 20be 0a2d e13e ad09 73bf b02a fbbe
00000380: 4850 603d bae9 b0bd 48fa b4bd 60d5 4e3d
00000390: 48db 3cbd 20e6 403d aa9e c63d 108f 38bd
000003a0: f089 99bc 0ef6 c8bd 1c53 c6bd 20dd 883c
000003b0: 08a9 c43c 8edb cbbd 423c d3bd 3cbe 843d
000003c0: 606c 9fbb 0a32 d93d 5a11 da3d c880 1e3d
000003d0: c042 7fbc 2c94 433d 24cc b23d d22d ec3d
000003e0: 44d3 c03d 9c27 d7bd 00e2 85bd da41 f4bd
000003f0: a4a6 e0bd e0a5 603c 8c85 f53d 9880 0a3d
-0.6707724 -0.5094411 0.08976206 0.8966586 -0.1598984 0.90726745 0.14446688 0.21880917
-0.59572387 -0.9327812 0.68717796 0.43842936 -0.0014660036 -0.07367848 -0.57030946 -0.6307345
0.5536339 -1.0155008 -0.104271844 -1.0712457 -0.35837343 0.437578 1.043192 -0.31537917
0.31953478 0.20632134 0.23046939 -0.42237973 -0.22237259 0.35460705 -0.67881984 -0.83773637
0.020246342 0.05585386 0.04477328 0.035287514 0.023139253 -0.022408113 0.11468598 -0.018079445
-0.054737613 0.07708734 -0.046232447 0.11530076 0.11062801 -0.083804354 -0.10268128 -0.040863156
0.08063172 -0.10281703 0.06785013 -0.12408477 -0.023813754 -0.032880887 0.013255671 0.10097024
-0.08791071 0.0020627677 0.006105587 -0.05243057 0.008615732 0.09010275 -0.07649019 0.07910547
-0.3798903 -0.5341793 -0.32226592 -0.2802889 0.46332696 0.46971247 0.5272439 0.5734823
-0.44158754 -0.511497 0.39808705 0.6355701 -0.46744642 0.022920022 -0.5604805 -0.42310762
0.3682108 -0.5985292 -0.3277037 -0.50392646 -0.47602978 0.55043364 0.46585414 -0.43336532
0.37190104 0.5635097 0.413017 -0.23829545 -0.3618714 0.07804786 -0.33842194 -0.4598948
0.093658105 0.05391912 -0.07390167 -0.069662586 0.027618676 0.035378426 0.06620745 -0.09150325
0.12043749 -0.024570048 0.043849334 -0.05357112 0.047658175 0.10675146 -0.089991465 0.011300921
0.015317336 -0.018027395 -0.034281567 0.02419296 0.02312699 -0.051177472 0.044286117 0.104240134
0.030525789 -0.06379549 -0.018762544 -0.032129034 0.12478389 -0.064913705 0.07503353 -0.12432723
0.04489264 -0.118017495 -0.013276979 -0.09453888 -0.10209602 0.022381723 0.093163416 0.09084082
-0.053114906 -0.036311343 -0.020940498 -0.0033688247 -0.081808746 -0.0043317676 0.07468517 0.10478647
0.09609833 -0.060765564 0.073355466 0.06644446 0.107522964 -0.032896265 -0.09538354 0.014442787
0.06507723 -0.028276697 0.009666905 -0.017961666 -0.10631283 0.036880836 0.031946033 0.002603352
-0.103888705 0.05001934 0.004877478 -0.11019075 -0.10833873 0.013715833 0.014794603 0.010000929
0.063540414 -0.0005918145 0.11912532 -0.03559117 -0.070905566 -0.087597415 -0.061122417 0.120372415
0.062828586 -0.04591556 -0.08431047 -0.008374155 0.08703378 0.12108922 -0.113912866 -0.058497608
-0.103632584 -0.023029372 -0.017973796 0.11268407 0.12016699 0.11531803 -0.04985313 -0.054382443
-0.45745912 -0.42884144 -0.19788156 -0.30523717 0.1292187 0.30442822 0.21994917 0.24667053
-0.40279335 -0.44819587 0.45979702 0.3128773 0.025911355 -0.28891572 -0.29279742 -0.35678056
0.30486298 -0.3268586 -0.35917705 -0.32817566 -0.4493336 0.45349577 0.6075379 -0.14954558
0.27130306 0.2139113 0.3095155 -0.5162252 -0.1566898 0.43979675 -0.9493664 -0.49056005
0.054764062 -0.0863833 -0.088368 0.05049646 -0.04610756 0.047094464 0.096982315 -0.04505831
-0.018742532 -0.09812556 -0.096838206 0.016707003 0.024006382 -0.09953986 -0.10314228 0.06481597
-0.004865214 0.10605247 0.10647841 0.038697034 -0.015579879 0.04774873 0.08730343 0.11532177
0.09415296 -0.10505602 -0.06537247 -0.11926623 -0.10969284 0.013711423 0.11988363 0.033814043

tgnn._base_tgcn.linear_z.bias f4 [32]
00000000: 958e 9dbe 5729 d7be fa09 f23d c34a a4be
00000010: a4e3 b2be a3cc 9ebe e71c 87be a91d 7d3c
00000020: e9de babe 05e5 6cbe e79b a9be db4a a4be
00000030: 836c d1be 5828 fdbe c011 c0bb 336e 8c3d
00000040: 1c2d 793d 7850 e3bd ccce aebe 6fcc c8be
00000050: 9420 6ebe fe23 cc3e e5b1 76be 9870 adbe
00000060: abd2 aabe f109 d3be 60bd 35be 9b20 b1be
00000070: 295a 95be 5a07 a9be 783c f53d f2be 9ebe
-0.30772844 -0.42023727 0.11818309 -0.3208829 -0.349393 -0.310155 -0.26389238 0.015448966
-0.36498192 -0.23134239 -0.33126757 -0.3208836 -0.409031 -0.49444842 -0.005861491 0.06856956
0.060834035 -0.110993326 -0.34142148 -0.3921847 -0.23254615 0.3987121 -0.24091299 -0.33874965
-0.33363852 -0.41218522 -0.17748022 -0.34595188 -0.2917035 -0.3301342 0.11974424 -0.31005055

tgnn._base_tgcn.conv_r.bias f4 [32]
00000000: 0000 0000 0000 0000 0000 0000 0000 0000
00000010: 0000 0000 0000 0000 0000 0000 0000 0000
00000020: 0000 0000 0000 0000 0000 0000 0000 0000
00000030: 0000 0000 0000 0000 0000 0000 0000 0000
00000040: 0000 0000 0000 0000 0000 0000 0000 0000
00000050: 0000 0000 0000 0000 0000 0000 0000 0000
00000060: 0000 0000 0000 0000 0000 0000 0000 0000
00000070: 0000 0000 0000 0000 0000 0000 0000 0000
0.0 0.0 0.0 0.0 0.0 0.0 0.0 0.0
0.0 0.0 0.0 0.0 0.0 0.0 0.0 0.0
0.0 0.0 0.0 0.0 0.0 0.0 0.0 0.0
0.0 0.0 0.0 0.0 0.0 0.0 0.0 0.0

tgnn._base_tgcn.conv_r.lin.weight f4 [32, 3]
00000000: 1ebb 2d3e 40d1 19bd 6891 6d3d 5b84 9d3e
00000010: 6687 95be c04b a5bc 28c7 0fbe 9a12 90be
00000020: 6474 c03d e0df 343c 5c84 c53d 074d a83e
00000030: a765 90be a018 1dbd 640a e9bd 9b2c 803e
00000040: 3455 8fbd 844f b9be a06e af3c a21e 073e
00000050: be3e 253e 54d1 cebd f2a1 173e a85e 8c3d
00000060: d633 4e3e 72bd 763e 1a6a 3bbe a03f 90be
00000070: 9c42 bb3d 3a99 6e3e 2204 133e cc30 3dbe
00000080: 490b 9cbe 6cbb bb3d 8f6c 8f3e 771b 3ebe
00000090: 0252 73be bf7d a03e 9dc9 c0be 8fcd 9d3e
000000a0: 6017 08bc 5ccb fa3d cc3e 17be d0fe 81be
000000b0: 53d9 c93e 8665 2a3e 7434 a7bd e294 77be
000000c0: 5d26 9a3e c18d 35be 5e6c 7b3e c6ee 293e
000000d0: b4d3 8abe fa16 2e3e e086 5fbc 79e0 8c3e
000000e0: 9de2 34be 980f bebe 5078 c9be 36b8 73be
000000f0: 7766 903e b296 7ebe 28c4 c8bd a0f8 0bbc
00000100: 80a3 1dbb 80a1 a0bd 44de 78be 74ab 90bd
00000110: 1e1f 9fbe 0f98 b5be fee6 773e e084 59be
00000120: aea8 773e 4790 47be ba2c 3d3e 640f 96bd
00000130: 3080 1fbe b674 3d3e 2e64 1e3e 1c08 bd3d
00000140: 80b5 543b c879 84bd 35fa cdbe 58e8 95bd
00000150: 6d45 b13e 9170 963e 94ee bf3d f253 4b3e
00000160: 50f6 4fbd 5e6d 83be 79b0 36be 92cd 303e
00000170: 099f cd3e 963f 143e 7025 78bd d693 b6be
0.16965911 -0.037553072 0.058 0.30765042 -0.29204863 -0.020177722 -0.14040816 -0.28139192
0.093972 0.011039704 0.09644386 0.32871267 -0.28202555 -0.038353562 -0.11378935 0.2503403
-0.06998673 -0.36193478 0.021415055 0.13195279 0.16137215 -0.1009852 0.14807871 0.06853992
0.20136961 0.24095705 -0.18302193 -0.28173542 0.09143564 0.23300639 0.14357045 -0.18475646
-0.3047736 0.09166607 0.2801251 -0.18565165 -0.23761752 0.31345937 -0.3765382 0.3082089
-0.008306354 0.12245819 -0.14770049 -0.2538972 0.39423618 0.1664029 -0.081643015 -0.24177888
0.30107394 -0.17729856 0.24553058 0.16594991 -0.27114642 0.17000952 -0.013642997 0.2751501
-0.17664571 -0.37121272 -0.39349604 -0.2380074 0.28203174 -0.24862173 -0.09803039 -0.008543164
-0.0024053752 -0.07843304 -0.24303538 -0.07063952 -0.31078428 -0.35467574 0.2420921 -0.21242094
0.2418544 -0.19488631 0.18474093 -0.07327154 -0.15576243 0.18501553 0.15467903 0.09230062
0.0032456815 -0.064685404 -0.40229955 -0.07319707 0.3462328 0.29382756 0.09371677 0.19856241
-0.05077201 -0.25669378 -0.17840756 0.17265919 0.40160397 0.14477381 -0.06058258 -0.35659665

tgnn._base_tgcn.linear_r.weight f4 [32, 64]
00000000: f80b 97bd 98e4 ea3c e87f 03bd 2e96 febd
00000010: e8bb c33c 2027 473d 5263 cb3d ac55 65bd
00000020: f223 ad3d a236 e1bd 40a9 dd3c 9808 ab3c
00000030: 1260 bcbd e4ed 763d 460d e23d 345a 80bd
00000040: 0846 2fbd 6010 943c f402 b73d 4662 8ebd
00000050: a45e 43bd 6438 373d c01a 273d 88c2 723d
00000060: e453 cc3d dc06 e83d 4c7b b63d c840 6b3d
00000070: ee84 933d 3c83 993d e228 e1bd 80d1 8f3b
00000080: 22af d6bd c022 bc3c b078 5b3d 5803 72bd
00000090: 5a66 df3d 70f3 613d c08c 5f3d 30be 303c
000000a0: e4a9 70bd 0889 ca3c 6a73 8e3d b43a c73d
000000b0: a8c8 d23d 9a7f 8c3d 5ea0 a03d 74fc 8dbd
000000c0: a022 9ebc 9409 17bd a427 a73d 1efa b7bd
000000d0: e8f0 cf3d 40ec 98bc cc6f f23d 14a5 223d
000000e0: 0057 c73d 0471 0bbd 94a1 d23d fa8d a4bd
000000f0: 3075 7b3c 00dc 143b 0e96 f93d ec00 023d
00000100: 8053 26bd 6e77 9abd 0c4a c63d 4cf4 58bd
00000110: 0870 96bd e61c fbbd 506e 36bc ecce cabd
00000120: 585e babc e249 88bd 386a fc3d 4685 9cbd
00000130: 3030 ad3d b836 e93d 680e a33d f827 8bbc
00000140: f87c d4bc 4cc4 cb3d c8da 9e3d 34f3 13bd
00000150: 5238 ff3d 5c6e babd caf6 a13d 2044 9bbb
00000160: 209d 283d eaaf e43d 5e53 ee3d 78a6 bcbc
00000170: 54c6 a7bd 0432 bd3d 048e c13d f630 b83d
00000180: 26b8 9b3d 6894 423d d0d5 b23d c6f0 d1bd
00000190: a0c5 1e3d 042d fa3d 2225 a73d 7441 093d
000001a0: 9038 f2bd 7875 f23d 0a1e 93bd 0a00 cbbd
000001b0: 9639 c13d 543c 55bd 945e 433d 1c2e 1b3d
000001c0: 50f1 323c 2c6e 39bd 32d5 d3bd 74b7 f73d
000001d0: 2846 84bc b83b 7d3d 2069 cbbc c69c ed3d
000001e0: acea d43d 06fd 9fbd 92d6 f6bd fce4 0e3d
000001f0: 906d 1abc f8ba b2bc 9437 fcbd 28fd c2bd
00000200: 1846 5f3d e067 64bc e843 c33d 7a95 923d
00000210: e0f5 3f3d c099 a53c a8f0 a9bc 3069 a73c
00000220: 9af1 b83d 1c4b 19bd 248a 803d ac82 9b3d
00000230: 04a0 af3d c01c 45bb debe dfbd b07d 5d3d
00000240: 26d7 f53d 98ab 9c3c dcaa 40bd 2066 ce3b
00000250: d43b 36bd 80fe 9bbb e6e8 8bbd e0ff 1fbd
00000260: d4e5 123d 9024 a7bc 0879 a3bd b06e 8bbd
00000270: e0f1 c73c 609b b6bd 0c82 c83d de62 aa3d
00000280: 50d6 0cbc 403e 593d 6cdc a1bd bc82 b13d
00000290: e08e 77bd a8af ecbd 1065 63bd 10e7 8f3d
000002a0: 8c12 02bd c0a6 f7bb 7004 a4bd 8243 9b3d
000002b0: 8cb6 fcbd 04e2 103d 641e e8bd 3c00 b03d
000002c0: 58c3 133d 7472 70bd 0044 4c3b 689f d6bc
000002d0: f8fb 6ebd d41a e03d 0452 e0bd 0060 00bc
000002e0: 48fc e33d a063 e33c 64f0 d1bd a0b8 e0bd
000002f0: 808c d83b ece7 3c3d f84f 3bbd ee57 b0bd
00000300: 8052 fe3a 7ce9 123d 5498 cfbd 1224 bcbd
00000310: c087 913c fc43 a5bd e8d9 eabc cc4f 66bd
00000320: 64f2 7d3d e498 ba3d 3e55 f9bd 0609 f53d
00000330: c295 ef3d 30aa e4bd 9e92 a33d 603d 04bd
00000340: ac90 1abd 7821 843d ce21 9d3d c86f 89bc
00000350: 3248 fb3d 6413 dabd 9813 dcbc c86e 77bd
00000360: 7cb8 e0bd 203f ff3d 144a bbbd 6cc1 b5bd
00000370: cc0a babd 94fa 8e3d 7899 cabd 60e5 c43c
00000380: 12a9 ba3d 04c4 233d c0e1 f4bc 1abf a5bd
00000390: 54c6 ce3d fc0f 64bd 60f9 d4bc 2288 a33d
000003a0: 8494 6fbd ae87 ab3d 38b0 ecbd eae0 913d
000003b0: 1448 773d 20f6 fc3c 401b a53c 40a5 2abb
000003c0: 9cde 073d 6455 a2bd 2c6b c6bd 2e55 94bd
000003d0: e450 6ebd 9ce2 783d 4467 bfbd b8e2 b63c
000003e0: 98d7 80bc 182b 8bbc 80c6 b63c e88d cebc
000003f0: f2cf 993d 9862 0bbd ac9b bcbd 804f 7c3c
-0.0737533 0.028673455 -0.032104403 -0.12430988 0.023893312 0.048621297 0.09931053 -0.055989906
0.08454122 -0.109967485 0.027058244 0.020878121 -0.091980115 0.060285464 0.11037688 -0.06267205
-0.042791396 0.018074214 0.0893611 -0.06952338 -0.04769768 0.044731513 0.040796995 0.05926755
0.09976938 0.11329433 0.08910236 0.057434827 0.07203089 0.07495734 -0.10994126 0.004388988
-0.10482623 0.022965789 0.053581893 -0.05908522 0.10908194 0.0551638 0.05457759 0.010787532
-0.05875577 0.024723545 0.06955607 0.097279936 0.102921784 0.068602756 0.078430876 -0.06932917
-0.01930362 -0.03687437 0.08161858 -0.08983253 0.10153371 -0.01866734 0.1183773 0.039708212
0.09733391 -0.034043327 0.10284725 -0.080348924 0.015347764 0.0022714138 0.12186824 0.03173916
-0.040606976 -0.07542311 0.09682092 -0.052967355 -0.07345587 -0.12261371 -0.011134699 -0.099027485
-0.022750065 -0.06654717 0.12324947 -0.076426074 0.08456457 0.1138739 0.07961732 -0.016986832
-0.025938496 0.0994955 0.07756573 -0.03612061 0.12461914 -0.09103081 0.079083994 -0.0047383457
0.04116547 0.111663654 0.11636995 -0.023028597 -0.08192125 0.09238055 0.094509155 0.089937136
0.07603483 0.047504812 0.08732188 -0.10251002 0.03876269 0.12215617 0.081613794 0.033509687
-0.11827195 0.11838812 -0.07183464 -0.09912117 0.09434812 -0.052059487 0.04769762 0.03788577
0.010921791 -0.045271084 -0.10343398 0.12095538 -0.016146734 0.06182453 -0.024830401 0.11602168
0.103963226 -0.07811932 -0.12052645 0.034886345 -0.009425536 -0.02181767 -0.12315288 -0.09520942
0.054510206 -0.013940781 0.095344365 0.07157417 0.046865344 0.020214915 -0.020744637 0.0204359
0.09030457 -0.037425146 0.06276348 0.07593283 0.085754424 -0.003007695 -0.10925077 0.054074943
0.12003927 0.019124791 -0.047037944 0.0062987953 -0.04449065 -0.0047605634 -0.06831531 -0.03906238
0.035863712 -0.020403177 -0.07982069 -0.06808221 0.024407327 -0.08916354 0.097904295 0.08319639
-0.008596018 0.05303788 -0.0790337 0.08667514 -0.06043899 -0.11556941 -0.055516303 0.070264935
-0.03175597 -0.00755772 -0.08008659 0.075812355 -0.123395056 0.035371795 -0.113339216 0.08593795
0.036074966 -0.0587029 0.003116846 -0.026199058 -0.058345765 0.10942617 -0.10953143 -0.007835388
0.11132103 0.027757466 -0.10250929 -0.109727144 0.006608546 0.046119615 -0.04573056 -0.08610521
0.0019403249 0.0358672 -0.10136476 -0.09186567 0.017764926 -0.080696076 -0.028668359 -0.056228444
0.06199874 0.09111193 -0.12174462 0.11964612 0.11698486 -0.11165273 0.079869494 -0.032285094
-0.037735626 0.06451696 0.07672463 -0.016776934 0.122696295 -0.1064823 -0.026864812 -0.060408384
-0.109726876 0.12463212 -0.09144989 -0.08874783 -0.090840906 0.06981388 -0.09892553 0.024035156
0.09114279 0.039981857 -0.029892802 -0.0809309 0.10096422 -0.055679306 -0.025997818 0.0798495
-0.058491245 0.08375488 -0.115570486 0.07122977 0.060371473 0.03087908 0.020154595 -0.0026038438
0.03317128 -0.07926443 -0.0968841 -0.07242809 -0.058182612 0.060762987 -0.09345868 0.022324905
-0.015727803 -0.016988322 0.022311449 -0.02521415 0.075103655 -0.034029573 -0.092093796 0.015399814

tgnn._base_tgcn.linear_r.bias f4 [32]
00000000: 1c8a 973d 4e00 d0bd 9435 7abd b0a5 4d3d
00000010: f215 883d 0060 6ebc e4de 8b3d f05d 193c
00000020: c0bf 1abb d44e f9bd 780b f2bd 3cce df3d
00000030: 08e4 543d 3eb9 edbd 54b4 703d 1c26 37bd
00000040: b067 193d 723e 8a3d 587a 083d f0b9 9cbc
00000050: ae30 b5bd d841 393d 3077 57bd ecb9 d9bd
00000060: feda d5bd 2c38 673d fc8f fe3d 00b3 7e3a
00000070: 2a6b ca3d b09b 133d b64d 843d 2240 8d3d
0.07399389 -0.10156308 -0.061086252 0.05020684 0.06644811 -0.014549255 0.068296224 0.009360775
-0.0023612827 -0.121732384 -0.11818594 0.10928008 0.05197528 -0.11607598 0.058765724 -0.04471408
0.0374524 0.06750192 0.0333198 -0.01913163 -0.088471755 0.04522881 -0.0526039 -0.10631165
-0.1044216 0.056450054 0.124298066 0.0009716004 0.09883721 0.036037147 0.06460135 0.06896998

tgnn._base_tgcn.conv_h.bias f4 [32]
00000000: 81a3 6d3e e583 2d3d 0620 cebd a9fa 5fbd
00000010: 845c a23d f0c0 a1be 92f0 243e 527d 2c3e
00000020: 495c a63e b01a fabb e75e 1ebe d583 ce3d
00000030: 2827 85be ae4b 8cba d913 de3d 91c9 94be
00000040: 9c17 6b3c fa85 3fbe b320 1b3e 7fe6 a7bd
00000050: b383 a13d 6f52 a63e 0d5e 0f3d 3bd5 013d
00000060: ea63 02be 433e 083e 220f f6bd 9f5d 273e
00000070: 76d6 993e 7fc0 953e 8676 08be 788c 80bb
0.23206903 0.042362113 -0.10064702 -0.054682408 0.07927802 -0.31592512 0.16107395 0.16844681
0.32492283 -0.007632576 -0.1546589 0.10083739 -0.26006436 -0.0010703707 0.108436294 -0.29060033
0.014348891 -0.18703452 0.15149193 -0.081982605 0.07886448 0.32484767 0.035001803 0.031697493
-0.12733427 0.13305001 -0.12014605 0.16344307 0.30046433 0.29248425 -0.13326463 -0.003922995

tgnn._base_tgcn.conv_h.lin.weight f4 [32, 3]
00000000: 1322 563e 1cca 29bf b38a d53e c220 cdbe
00000010: be86 3dbf ca29 023f e292 a4be 748f 2fbe
00000020: e25c a13f d9c8 82bc 1a5d 403f b69c f6be
00000030: 3883 803e 4a25 f23e 8d56 66bf dd5e ae3e
00000040: 682e e13e e89a 303e d7be e8be d2bc 14bf
00000050: 4626 1b3e 14d7 d4be 9f98 c9be 367b a53e
00000060: 5c35 323e 5111 f53e e73b 45bf b317 e2bc
00000070: 6373 46bf f638 323f 5fe7 153f f1cc d53e
00000080: 97c7 e9be 5da3 01bf 5b70 3dbf 4b89 6fbd
00000090: 2ad7 9fbd 9543 2c3f f980 953e de12 1f3f
000000a0: c1b3 3c3f 2652 cdbe 3dab fb3d b55d 0fbf
000000b0: 7cf0 2b3f 8432 84be 5157 5bbe 76f9 a8be
000000c0: 3726 14bf c426 afbd c01b 613f f562 0bbf
000000d0: 15b0 0cbf 0275 a83e afd4 b7bd da7a 28bf
000000e0: d78f db3e 45ad 4f3e 02d9 513f 3577 9c3e
000000f0: 7f48 76be ae86 33bf 3d28 6bbe d4bd 893e
00000100: 8804 4d3d 99ba 2f3e fa9d 673f a97e fe3e
00000110: 9cfb a73e cc35 bbbe 6726 2cbf d6c0 4e3f
00000120: e04c 9a3e c2ac fa3e a634 ddbe 69ba 003e
00000130: 322a ffbe c97f fc3e 7a6f acbe 7528 36bf
00000140: 1ba3 d73d 702a 9bbe 79aa 86be 8129 e13e
00000150: ea30 5f3d 2ccc cdbe 706c db3e b91b 81be
00000160: 9ebf eb3e 863b de3e 185f 013f 118a e23e
00000170: 6cd7 14bf 6591 d3bd 38c3 4cbf 6f97 253f
0.20911436 -0.6632402 0.41707382 -0.40064055 -0.74033725 0.50845015 -0.32143313 -0.17144567
1.260647 -0.015964912 0.7514206 -0.48166436 0.25100112 0.47294074 -0.89975816 0.3405675
0.43980718 0.17246592 -0.454581 -0.58100617 0.15151319 -0.41570342 -0.39374253 0.32320565
0.17403167 0.47864774 -0.7704453 -0.027599191 -0.77519816 0.69618165 0.5855617 0.4175792
-0.45660087 -0.506399 -0.73999566 -0.058480542 -0.07804711 0.6729062 0.2919996 0.62138164
0.7371178 -0.40101737 0.122885205 -0.5600236 0.67163825 -0.2581979 -0.21420027 -0.33002824
-0.5787081 -0.08552316 0.8793297 -0.5444787 -0.5495618 0.3290177 -0.08976113 -0.65812457
0.4288318 0.20280941 0.8197175 0.30559698 -0.24051093 -0.7012738 -0.22964568 0.2690264
0.05005315 0.17161025 0.9047543 0.4970601 0.3280915 -0.3656448 -0.672461 0.80762994
0.30136776 0.4895993 -0.4320423 0.1257111 -0.4983688 0.49316242 -0.336788 -0.7115548
0.10529157 -0.30305815 -0.26301935 0.43976977 0.054490007 -0.40194833 0.4285617 -0.25216463
0.4604463 0.43404788 0.50535727 0.4424596 -0.5814121 -0.10330466 -0.7998538 0.64684194

tgnn._base_tgcn.linear_h.weight f4 [32, 64]
00000000: 189f aabe cf2f cabe 1d23 cfbe f4b4 203f
00000010: 34ec 103f 1aea d03e a5b1 1abf b030 23bf
00000020: d511 b73e 117c edbe 6582 0f3f d261 21bf
00000030: 0191 723e 7d1c 0b3f df0c cdbe a2e2 88be
00000040: bc9b 07bf 11c4 c8be c99b 0cbf cf68 283f
00000050: 00ec e1be 39ff e43d ab8d be3e 5028 1dbf
00000060: 4974 083f 0291 7abe 4c54 03bf 5b18 efbe
00000070: 8694 c7bd 767a 323e b631 e63e c9d1 cabe
00000080: 0ee0 84bd 6a56 b33d 129d a43d acf0 7fbd
00000090: 7ca2 1cbd 9ea3 9cbd 569c ec3d 4853 60bd
000000a0: 0058 793d 2451 12bd 7e2b c83d 381a d33d
000000b0: 8a11 c53d 286d 983c 50c9 473d 5891 c03c
000000c0: 087b dabc d857 57bd a0c0 eb3b 02f3 9cbd
000000d0: 4411 b8bd b2cb aebd 4c60 6e3d d0ae 1fbc
000000e0: 248c e63d fc9e 973d c48b 593d ac7e 19bd
000000f0: 02fd ccbd 9087 eb3d 8037 203b 86b2 e0bd
00000100: 0349 193f 1d5b 6c3e 1f5b 563e a4f6 6dbf
00000110: 0959 a7be b006 90bd a78b 073e f4ea 2c3e
00000120: 1851 16bd 4da5 263f 17e7 9fbd ce43 b63d
00000130: 494b a4be b567 38be 6aa8 423f ee38 28be
00000140: ec5e 053d 5fd3 b13d f769 763f ad6b 7ebe
00000150: 9223 a43d 03af f73d ea71 db3d 5617 653e
00000160: f938 a9be b9c4 2a3f 4001 0b3e 5dfb ae3e
00000170: dbd9 943e d664 a2bd 1b8b 92be 9be1 1e3f
00000180: 3a4c b6bd 40ed 54bc b64b f5bd e022 ac3c
00000190: e8b9 86bd f8af 643d da34 a6bd 3c68 80bd
000001a0: 00bc d23b 6073 de3b bc88 b83d 002f acba
000001b0: 9052 3e3d dcc0 a33d 682a abbd 04bf 9e3d
000001c0: 9cd9 56bd c097 6a3c 4826 d63c 6019 c23c
000001d0: 50ce ee3c d45e 3a3d 5480 a8bd d0bb 003d
000001e0: 289a 92bc 68cc 963d c27b 90bd b0f8 213d
000001f0: 548e 5a3d ec03 54bd 6a10 a9bd 5a04 bb3d
00000200: a4d3 e53d f6ae a73d 365a c5bd e46f 3d3d
00000210: 8c63 cdbd a8b3 88bc 7ced d2bd 8896 883d
00000220: 1afb 9c3d 94c6 a33d d48d 6bbd 222b f03d
00000230: 82bb b63d c099 843c 62f1 bdbd 3088 923d
00000240: d0f8 153d 9079 0f3c aa71 fabd ba4e 97bd
00000250: 903e 73bc ee13 eabd b4cb b43d 5888 c7bc
00000260: 889d 9abc e8c4 2d3d 70e4 563d 4c92 9ebd
00000270: 98d4 9c3c d449 73bd 069d d8bd 28f2 fc3d
00000280: 5805 fb3c 704e aebd b894 8dbd 0cd7 0f3d
00000290: 5a35 eebd 509d 2fbd c440 a93d 04d3 9bbd
000002a0: f430 d23d 9c2b 283d 7aeb d3bd 38ab 573d
000002b0: 76fe f33d 74dd 4a3d 586c d23d 0062 d3ba
000002c0: 729e c0bd e487 243d a069 033d 78d5 593d
000002d0: 2861 a1bc 04a4 80bd 44bf 133d a445 c0bd
000002e0: f01a d43d 5460 54bd 44ff ffbd da2b 903d
000002f0: 2076 d13b 20f0 23bd 6408 39bd 22f0 a7bd
00000300: 18e1 453e 09d1 5d3d da41 933e cce0 14bd
00000310: ee57 22bd d6e8 e1bd 404a 273e 47aa 7d3e
00000320: 6df3 223e 4600 ba3c 6885 0cbe 7bc8 afbd
00000330: b83f 41be b4e8 f03c 1834 c43e 3e0f 96be
00000340: 09f6 3a3e 04f8 14be f420 a53d 54ca 44bd
00000350: fbcd 2e3d 4205 6d3e 7930 17bb 32d0 9c3d
00000360: d252 adbd 7def 6c3e 4c25 01be 384f 973e
00000370: dda4 b43e 79fd aa3e d527 75be 83b1 8dbd
00000380: 40cd 96bc 1642 ab3d 4ca1 4b3d 242a f23d
00000390: 0414 28bd 48cf 6ebd 58ed a8bc ea4c ce3d
000003a0: f616 cc3d 9cbb 83bd 5007 f03d 8257 993d
000003b0: 0829 453d 3031 65bc 024d b53d 3443 8e3d
000003c0: 0690 9c3d 4c42 163d 4806 d8bc 3287 813d
000003d0: b873 b5bd 60e3 8a3b 14aa b3bd 402f a23c
000003e0: ee2e d53d 2428 ebbd 9c7d 05bd 7685 e0bd
000003f0: 9c9e c7bd 0870 913d 0077 183b b059 6d3c
-0.33324504 -0.394896 -0.40456477 0.6277611 0.5661042 0.40803605 -0.60427314 -0.63746166
0.35755792 -0.46383718 0.5605834 -0.63039887 0.23688127 0.54340345 -0.40048882 -0.26735407
-0.52972007 -0.39212087 -0.5492521 0.65784925 -0.44125366 0.11181492 0.3721746 -0.61389637
0.5330244 -0.24469379 -0.513005 -0.4669827 -0.097451255 0.17429528 0.449598 -0.39613178
-0.064880475 0.087567165 0.08037771 -0.062485382 -0.038240895 -0.07648395 0.11553256 -0.054766923
0.06087494 -0.035721913 0.097739205 0.10307735 0.09622486 0.018606737 0.04877597 0.023506805
-0.026669994 -0.05257401 0.0071945935 -0.076635376 -0.08987668 -0.085349455 0.058197305 -0.009746268
0.112571985 0.07403371 0.053111807 -0.03747432 -0.10009195 0.11500466 0.0024447143 -0.10971551
0.5987703 0.23081632 0.20933197 -0.9295447 -0.32685116 -0.070325255 0.13236867 0.16886503
-0.03669843 0.6509598 -0.07807749 0.088996515 -0.32088688 -0.18008311 0.7603823 -0.16427967
0.032561228 0.08682894 0.9625544 -0.24845763 0.08014597 0.12093928 0.10715087 0.22372183
-0.3305128 0.66706425 0.13574696 0.3417615 0.2907246 -0.07929389 -0.28621754 0.62062997
-0.08901258 -0.012996018 -0.11977331 0.021012723 -0.065784276 0.05583188 -0.081155494 -0.06269881
0.0064311028 0.006788656 0.09010455 -0.0013136566 0.046465456 0.079957694 -0.08357698 0.07751277
-0.052453622 0.014318407 0.0261413 0.02369374 0.029151112 0.04550059 -0.08227602 0.031429112
-0.017895773 0.07363206 -0.07054855 0.039543808 0.05335839 -0.051761553 -0.08255084 0.09131689
0.11222008 0.08187668 -0.09636347 0.046249285 -0.10028753 -0.01668723 -0.10299203 0.066693366
0.07665081 0.0799686 -0.057508305 0.11726977 0.08922483 0.016186595 -0.09274556 0.07154882
0.03661424 0.00875701 -0.12228711 -0.07388063 -0.014846459 -0.114295825 0.08827916 -0.024357006
-0.018873945 0.042424113 0.05246395 -0.07742748 0.019144341 -0.05939658 -0.10576825 0.12350875
0.030642197 -0.085110545 -0.069131315 0.035117194 -0.1163127 -0.042874634 0.08264306 -0.076086074
0.10263243 0.041057214 -0.10347648 0.05265352 0.11913769 0.0495276 0.10274571 -0.0016127229
-0.09405221 0.040168658 0.032083154 0.053182095 -0.019699648 -0.062812835 0.036071077 -0.09388283
0.103567004 -0.05184968 -0.1249986 0.07039614 0.0063922554 -0.040023923 -0.045174018 -0.082000986
0.19324148 0.05415443 0.28761178 -0.036347196 -0.039634638 -0.11030738 0.16336918 0.24771987
0.15913172 0.022705209 -0.13722765 -0.085831605 -0.18871963 0.029407836 0.38320994 -0.29308504
0.18257917 -0.14547735 0.08062926 -0.048044518 0.042676907 0.23146537 -0.0023069663 0.076568976
-0.08463062 0.23138233 -0.12611884 0.29552627 0.3528203 0.3339651 -0.23940976 -0.06918623
-0.018408418 0.08362214 0.04971437 0.11824444 -0.041034713 -0.058303148 -0.020620987 0.10073264
0.09965317 -0.06432268 0.11720145 0.07487394 0.048134834 -0.013988778 0.08852579 0.06946412
0.07644658 0.03668432 -0.026370183 0.063246146 -0.08859962 0.004238531 -0.08772674 0.019797921
0.10409342 -0.114822656 -0.032590494 -0.10962956 -0.09747049 0.071014464 0.002326429 0.014486715

tgnn._base_tgcn.linear_h.bias f4 [32]
00000000: b48b e53d 5bce 453e 327e b6bd c8a1 b13d
00000010: 8c8c 093e 0999 b73e 45df 21bd 037f d9bd
00000020: 3863 f13d 1a24 d03e d0cf 013e a412 e63d
00000030: 080d 0e3e 9487 8f3e b13c cfbc 0953 01be
00000040: a8ab aabd 7881 e0bc b8c4 b23d 3a58 9f3e
00000050: 3478 a63e be15 9dbe b349 df3d 36bb 0b3e
00000060: 35ae 003e cd86 dc3e 7981 df3e 0e6b cf3e
00000070: 912c 523e b636 c93d 9741 63bb f3e0 2c3e
0.11208287 0.19317 -0.089107886 0.086734354 0.1343252 0.35858944 -0.039519567 -0.10619929
0.117865026 0.40652543 0.1267693 0.11234024 0.13872159 0.28033125 -0.025297495 -0.12629332
-0.08333522 -0.027405486 0.087289274 0.31122 0.32513583 -0.3068065 0.10902729 0.13645634
0.12566455 0.43071595 0.43653467 0.40511364 0.20524813 0.098248884 -0.0034676546 0.16882686

linear.weight f4 [16, 32]
00000000: 7fea 743e b145 b5be 1f32 e4bd b680 173e
00000010: 18a3 8b3e f93a fdbe 6077 273e 801f 54bd
00000020: f511 933e 9f38 0fbf 4d4e 883e 8377 943e
00000030: 413c cb3e 1e8f 3ebe c60f 623d ba55 bc3d
00000040: c0ce 8b3c debc e9bd 0cb3 c43e 7cf5 3fbe
00000050: 051d 97be 0b07 edbe 2ef1 b23e 2021 f93d
00000060: fd43 cebe ead6 e5be 2e8c d5be 2c87 d0be
00000070: 08ed bebe d392 773e a8d7 a43d 4ce7 7d3b
00000080: fef7 de3d 9f05 debe 5c3b 2f3d 62d0 033d
00000090: e6bb 5c3e b633 e3be 85be 483e 8e46 30bd
000000a0: 3027 d03e 3072 e9be 0bd3 cc3e d93c 2e3e
000000b0: d594 9f3e d89b 50be 2d73 e6bd b594 f03d
000000c0: 9c5a 153d 4839 62bd b3d3 ca3e 5fe4 81be
000000d0: 0681 c1be 477e e2be 0ac8 2a3e 0ae8 db3e
000000e0: 6a2f 86be 7f07 f5be a3d3 afbe c943 dcbe
000000f0: 8b49 09bf 5128 813e 4962 063e 4552 643e
00000100: 4e1b ce3e 7419 d2be 30ae ecbd c18f c73d
00000110: 4a27 3a3e 62ab b0be bbf7 ec3e b3f8 d6bd
00000120: 93e0 423e ac6d f1be 42da 343e a577 b73e
00000130: 784a 5b3e fe7c 83be aeed 193d a694 6f3d
00000140: 46b9 0ebe d608 15be b135 0f3e b384 dabe
00000150: 204d e4be 0fe9 0dbf f40f b73e 870b 823e
00000160: 9899 38bf e80f a6be ec1c c3be 093e 05bf
00000170: 14b8 b4be a3a4 d33e 4bea c73a 45c2 b43d
00000180: 6c42 8e3e 0ae9 17bf 605b 013c b2f4 433e
00000190: 285a 903e 7820 6bbe ee2e 183e 3792 333d
000001a0: 1077 523e 1b74 12bf c633 a13e bc6f 3f3e
000001b0: 6226 8e3e ffed adbe 791e 3e3d e6dc 0fbe
000001c0: e924 343e 2a0c fd3d 42d2 7a3e b41a bbbe
000001d0: 9d17 b7be 7bd6 3dbf f39d e33e 3fdc db3e
000001e0: d599 22bf 1750 d0be 8daf 06bf 525f 06bf
000001f0: 85e5 fbbe 0f16 fb3d 628b 36bd 57b7 7f3e
00000200: 1787 683e 97c0 1dbf c01f 6cbd 16dc 7ebe
00000210: 804c 5c3e d0c2 cabe 6728 9f3e 58e9 b23d
00000220: 711e c83e e569 fabe 2358 dc3e d134 863e
00000230: 578e 8a3e b0d7 b2bd 095c 923b 754e c2bd
00000240: 01f5 323e 0abe d63d 52b8 873e d643 77be
00000250: ed11 a3be 2f97 2cbf c7fe e43d dc5d d33e
00000260: 7072 29bf 2e82 0ebf 334c eebe a5b2 e9be
00000270: df3b 15bf 6ea9 cc3d 1013 da3b 9294 b83e
00000280: 421d e43e 21ee 30bf 25c4 2a3e 4e30 08bd
00000290: 121b 743e d4d4 1cbf 7e82 d43e dfe6 18bd
000002a0: 949e 253e 63e4 f9be 605a 0d3e 72f9 903e
000002b0: 0990 e13e d24a 3fbe 5899 1ebc ab83 df3d
000002c0: d9c9 bfbd 10c1 09be 8051 0e3e aba2 6abe
000002d0: c843 dcbe 1bc7 24bf 5d63 e73e 4b56 fb3d
000002e0: 956c 1cbf d6b0 fbbe aede cabe 0a68 bdbe
000002f0: 16ca 53bf 951a a93e 819d 8f3d 6f1a 8d3e
00000300: 0b54 683e c801 17bf 8220 fc3d 2a6f 92be
00000310: 52f9 cb3e 8fad c0be f327 a33e c0a3 4a3d
00000320: 77ca d73e 5e4c cdbe 5d72 5b3e 2056 c23e
00000330: d04a a53e 0bcb c6be b895 cfbd 4419 2abd
00000340: 2aea d4bd 722b a63d ed40 983e 246d a5be
00000350: a4c0 45be 3bba 2bbf f27a 1d3e 9fb2 013e
00000360: 3fe7 6ebf 167c bcbe 6c83 06bf 2793 f2be
00000370: 5680 44bf 6cf7 4f3e 92a3 193d 73cf e83e
00000380: 4555 b53e 578f 6abf 30ba cfbc 9885 d5be
00000390: 4439 633e 63d2 f3be 9c95 d13e a21f 7abd
000003a0: f31a b63e 7e00 d0be 866a d53e 5a3f 303e
000003b0: b155 a03e 9848 e6be 7554 293c 61b4 b7bd
000003c0: 587e 8dbc 3805 b2bc 56c1 363e 6668 abbe
000003d0: 64d6 7bbe 1fe9 40bf 4972 bd3e a758 c73e
000003e0: 3458 30bf da64 c7be df3d a6be 7e97 86be
000003f0: f94a 4fbf 707b 953d fd65 af3c 6946 6e3e
0.23917578 -0.35404733 -0.11142372 0.14795193 0.27272868 -0.49459055 0.16354132 -0.051787853
0.28724638 -0.5594577 0.2662224 0.2899743 0.39694408 -0.18609282 0.055190824 0.091960385
0.01706636 -0.11412977 0.38417852 -0.18745989 -0.29514328 -0.46294436 0.3494963 0.12164521
-0.40286246 -0.4489053 -0.4170851 -0.40728128 -0.37290215 0.24177103 0.08048946 0.00387426
0.108871445 -0.43363664 0.04278122 0.03218115 0.21556053 -0.4437539 0.19603927 -0.043036036
0.40654898 -0.4559493 0.40004763 0.17015399 0.31168237 -0.2037195 -0.11252437 0.117471136
0.036463365 -0.05523041 0.3961464 -0.25369546 -0.3779375 -0.44236967 0.16677871 0.4295047
-0.2620805 -0.47857282 -0.34341154 -0.43020466 -0.5362784 0.2522607 0.1312343 0.22297008
0.40255207 -0.41035044 -0.11556661 0.09744216 0.1817905 -0.34505755 0.46282753 -0.10496654
0.19030981 -0.47153986 0.17661384 0.3583347 0.21415126 -0.256813 0.037580185 0.05849137
-0.13937864 -0.14554152 0.13985325 -0.42679366 -0.44590092 -0.55433744 0.3575436 0.2539942
-0.72109365 -0.3243401 -0.38108003 -0.52047783 -0.3529669 0.41336545 0.001525232 0.088261165
0.2778505 -0.59339964 0.007895321 0.19136313 0.28193784 -0.22961605 0.14861652 0.043840613
0.20553231 -0.5720841 0.31484812 0.18694967 0.2776366 -0.3397064 0.04641578 -0.1404911
0.17592205 0.12355836 0.2449427 -0.3654381 -0.35760203 -0.74155396 0.44456443 0.42941472
-0.6351598 -0.40686104 -0.5261162 -0.524892 -0.49198547 0.12260067 -0.04456652 0.24972282
0.22707783 -0.61621994 -0.057647467 -0.24888644 0.21513557 -0.39601755 0.31085512 0.08735913
0.39085725 -0.48908916 0.43035993 0.2621217 0.27061722 -0.087325454 0.004466538 -0.09487621
0.17476274 0.10485466 0.26507813 -0.24146971 -0.31849614 -0.6741819 0.111814074 0.41282547
-0.6619024 -0.5566739 -0.4654251 -0.45644107 -0.5829448 0.09993254 0.0066551045 0.3605085
0.44553572 -0.69113356 0.16676386 -0.033249192 0.23838452 -0.6126225 0.41505808 -0.03732955
0.16173774 -0.48807058 0.13804007 0.28315312 0.44055203 -0.18680885 -0.009680115 0.109137855
-0.09364671 -0.13452554 0.13898277 -0.22913615 -0.43020463 -0.6436631 0.45192996 0.122723185
-0.61103183 -0.49158353 -0.39623016 -0.36993438 -0.82730234 0.33028093 0.07012463 0.2755923
0.2268831 -0.5898709 0.12310888 -0.28600436 0.39838654 -0.37632415 0.31866416 0.04947257
0.42146656 -0.40097326 0.21430345 0.37956333 0.3228364 -0.38826784 -0.101359785 -0.041528
-0.10396226 0.08113755 0.29737034 -0.3230983 -0.19311768 -0.6708104 0.15378931 0.12665795
-0.93321604 -0.3681342 -0.52544284 -0.47377893 -0.76758325 0.20309228 0.03750951 0.4547077
0.35416618 -0.9162497 -0.025357336 -0.41703486 0.22189814 -0.4762145 0.40934455 -0.061065324
0.35567436 -0.40625376 0.41682833 0.17211667 0.31315377 -0.4497726 0.0103350775 -0.089699514
-0.01727216 -0.021731004 0.1784719 -0.33478087 -0.24593502 -0.75355715 0.37001255 0.38934824
-0.6888459 -0.3894413 -0.3246908 -0.26287454 -0.80973774 0.072989345 0.021410936 0.23269047

linear.bias f4 [16]
00000000: 2e3e 283d 0824 b9bd 9c22 753c 84df 693d
00000010: ec19 b1bd 606f eebd eea4 08be 0450 9cbd
00000020: bddf 16be 8d01 b5bc 9668 fbbc a97e 40bc
00000030: 3a04 babd 1e01 333d 1285 9c3d 0344 48bd
0.041074924 -0.090400755 0.014961865 0.057097927 -0.08647522 -0.11642337 -0.13344166 -0.07632449
-0.14733787 -0.022095466 -0.030689519 -0.011748948 -0.090828374 0.043702237 0.07642569 -0.048892986

linear2.weight f4 [6, 21]
00000000: 6585 033f e29a 0d3f e64e 7e3e 1e2e 203d
00000010: f1cd 80be 9687 bb3e 27cb c9be fc47 93bd
00000020: 01e8 7bbd e9a9 b83e 7308 94be 299e 47be
00000030: 5c31 63bb 4509 fe3d 970d 8b3d da3a 52be
00000040: 5a98 483b d809 a83d 94b6 d2bc 614e c7bd
00000050: cba9 873c 7684 f9bc fc79 c73d 8837 8bbd
00000060: b69f a83e f238 b63d b486 173e 3917 3c3e
00000070: 79df 0b3e c560 8d3e 685d d7bd fcb0 193e
00000080: 3b88 2b3d 4457 823e 6583 cdbd 5a56 ab3a
00000090: 97e8 13be 24c5 d63d dafe 75be 2728 41be
000000a0: 3cba fa3c c829 323e b903 25bd 1cce d4b8
000000b0: 0059 19bd baa2 773d e73b e1bd 8921 70be
000000c0: 787b 32bc 97f0 ebbd 21e1 ccba f399 8c3c
000000d0: d769 81be b9e6 f5bd e85d 103e 8099 cfbe
000000e0: 8184 493c 34f7 013e b82e 6d3e bd3d 9ebd
000000f0: d17f bebc 4800 22bd d7a2 0a3d 196b 26be
00000100: 72e9 7bbd 9477 c5be 7c24 9cbe 12c5 8f3d
00000110: a6e9 c2bd 12d4 8d3e 8b01 06be 9cc4 453e
00000120: 5d6f ff3d d7bc 513e 55b7 df3d c9a3 393e
00000130: ea0c 59bd e72c 123e 4c40 b23e 0b4d 183e
00000140: ce41 c33d 117b 1b3e 983a 0c3e f3d8 713e
00000150: d8cb 04be 2b9c e3bd a6a6 ab3d cfac a03e
00000160: b85a 533e fb7e 25bd b1d1 023e 7813 233e
00000170: 69a6 79bc 96ae 1cbd c3ee 653d dad8 5bbe
00000180: c242 21be 147a f13c 5af9 253e 7375 afba
00000190: 797e a0be 6fc5 423e 8980 5b3e 64d4 693e
000001a0: 709f 713c f2bb 13be e61c 9dbe 8c9f 86be
000001b0: 0d9e a0bd cc38 f63b 9ee3 2d3d 1872 363e
000001c0: 3896 afbd 92c5 46bd 2fc5 0f3e 28e9 e83b
000001d0: 954a 86bd 7cbb 463e 6966 76be 70a7 523e
000001e0: 34c9 653e b8c4 7c3e 2de5 3c3e f51d c8bd
000001f0: d793 9a3e 58bc 8a3e
0.5137542 0.5531446 0.24834785 0.03910648 -0.2515712 0.3662688 -0.39412805 -0.07191464
-0.061500553 0.3606713 -0.28912696 -0.19493927 -0.0034666872 0.12404112 0.067897014 -0.20530263
0.0030608387 0.082050025 -0.025721826 -0.097317465 0.016560456 -0.03045867 0.097400635 -0.06797701
0.3293435 0.0889758 0.14797479 0.18368234 0.13659467 0.27612892 -0.10515863 0.1500892
0.041877966 0.25457203 -0.10034827 0.0013072 -0.14444195 0.1048682 -0.24023 -0.18862973
0.030606382 0.17398751 -0.040286753 -0.000101473386 -0.037438393 0.060457923 -0.109977536 -0.23450293
-0.010893695 -0.11520498 -0.0015631058 0.017163252 -0.25276062 -0.120068975 0.14098322 -0.405468
0.012299658 0.12691957 0.23162353 -0.077266194 -0.023254307 -0.03955105 0.033846702 -0.16251792
-0.061501928 -0.38567793 -0.30496585 0.0702001 -0.09517221 0.2770086 -0.13086526 0.19313282
0.12472413 0.20482193 0.1092364 0.18128885 -0.05299083 0.14274941 0.3481468 0.1487314
0.095340356 0.15183665 0.13694227 0.23617916 -0.12968385 -0.11113771 0.08381395 0.31381842
0.20640075 -0.0404043 0.12775303 0.15925395 -0.015237429 -0.038252436 0.056135904 -0.21469441
-0.15748122 0.029477157 0.16208401 -0.0013386443 -0.3134649 0.19020627 0.21435751 0.22834927
0.0147474855 -0.14427164 -0.3068611 -0.262936 -0.07842646 0.007514095 0.0424534 0.17816961
-0.08573574 -0.04852826 0.14040063 0.0071078725 -0.06557194 0.19407457 -0.24062504 0.20571685
0.22440034 0.24684417 0.18446799 -0.09771339 0.30190918 0.2709682

linear2.bias f4 [6]
00000000: 87b0 54bd f523 ed3d 8d93 813d b0a9 88bd
00000010: 39f5 da3e c16d 19bf
-0.051926162 0.11579124 0.06326971 -0.0667299 0.42765215 -0.59933096
