A3TGCN2_Checkpoints/Epoch_51.pth (torch, 35255 bytes, 17 tensors)

tgnn._attention f4 [16]
000000 61 e3 d2 3f 92 97 40 3f 77 35 b5 3e e9 55 09 be
       1.647564 0.7523128 0.35392353 -0.13411678
000010 2d ea 19 3e dd 35 e4 3c 1d 7d b2 3d 1d 5b a8 3e
       0.15030737 0.027857715 0.0871527 0.32882014
000020 3e e6 73 3e af 39 7b 3e d6 58 88 3e b5 cb 92 3e
       0.23818299 0.24533723 0.26630276 0.2867104
000030 5a e0 7d 3e 00 75 f5 3e 15 e4 34 3f 6a 66 b1 3f
       0.24792615 0.47940826 0.70660526 1.3859379

tgnn._base_tgcn.conv_z.bias f4 [32]
000000 3f a6 11 3f 93 f7 f8 3e d8 de 87 3e d1 16 95 ba
       0.56894296 0.48626384 0.26537204 -0.0011374598
000010 92 8f 3c be 44 8d ce be 04 2e c9 be ed eb 11 bf
       -0.18414143 -0.40342152 -0.3929292 -0.5700062
000020 f0 6e 15 3f 99 b8 09 3f c8 91 18 bf c5 1a 07 bf
       0.583724 0.537973 -0.59597445 -0.5277522
000030 6b 22 16 3e 21 7d 46 3e 99 c6 fc 3e 66 2b 0a 3f
       0.14661567 0.1938367 0.49370268 0.5397247
000040 4c b0 0e bf c4 29 18 3f 75 f1 bb 3e ba 31 1e 3f
       -0.5573776 0.5943873 0.36707655 0.61794627
000050 38 2a 02 3f 75 ae 00 bf 92 f8 09 bf c1 fe 11 3f
       0.5084567 -0.502662 -0.53894913 0.5702935
000060 a5 3e 04 bf 2c 5d 0f bf a5 34 06 bf e5 92 f9 3e
       -0.5165809 -0.56001544 -0.5242408 0.48744884
000070 2e 12 12 3f f2 33 b1 be c8 5b b3 3e 56 d6 0d 3f
       0.5705899 -0.34609944 0.3503096 0.55405176

tgnn._base_tgcn.conv_z.lin.weight f4 [32, 3]
000000 ef 97 ac be c4 8f b4 be 97 33 07 c0 50 34 bf 3e
       -0.33709666 -0.35265934 -2.1125238 0.373446
000010 85 d3 0c bf 5d d8 97 bf ea 40 65 bf b7 4e 13 3f
       -0.55010253 -1.1862904 -0.89552176 0.57541984
000020 d9 ae 8a bf 6e 2b 3e be 91 92 66 3f f8 92 b6 3f
       -1.0834609 -0.18571255 0.9006739 1.4263601
000030 ca 95 35 3f 90 fe 55 bf 28 27 c3 3e 2e d8 f7 bd
       0.70931685 -0.83591557 0.3811581 -0.1210178
000040 c0 6f 0e 3f 2d 3e 05 40 21 ad 41 bf 66 01 b8 be
       0.55639267 2.08192 -0.756548 -0.35938567
000050 98 b3 e7 3e f4 04 0a bc f1 7c 5d 3e d0 8c ff 3f
       0.45254207 -0.0084240325 0.21629693 1.9964848
000060 45 62 77 3e d0 42 0b bf 20 f6 bf bf fe 92 d7 3e
       0.2415858 -0.5439882 -1.4996986 0.42104334
000070 59 cf 69 bf fd b2 b3 bf 97 33 10 3e b1 c0 0e 3f
       -0.9133201 -1.4038998 0.1408218 0.55762774
000080 b2 ed 73 3f 63 24 0a bf c8 32 0f 3f e3 f3 81 3f
       0.9528457 -0.5396177 0.5593686 1.0152553
000090 ef 51 b5 be 94 2d 73 3f 7a 09 c4 be 0e 99 78 bf
       -0.35414073 0.9499142 -0.3828848 -0.9710854
0000a0 3c cd a1 3d 4f 7a a8 3e 46 72 e0 3e 17 c9 02 bf
       0.079004735 0.32905814 0.43837184 -0.5108809
0000b0 60 97 b4 bf ad c2 16 be b6 6e 72 be 3c e7 22 c0
       -1.4108696 -0.147227 -0.23675045 -2.5453634
0000c0 8b 16 51 be f1 af d5 3e aa 02 9e 3f 48 ec 05 3e
       -0.20418756 0.41735795 1.2344563 0.13078415
0000d0 dc 84 36 bf 6a 2b fb bf 6e 14 1a bf 46 c0 88 be
       -0.7129648 -1.9622624 -0.60187423 -0.26709193
0000e0 2b 04 48 3e 7a 55 53 be 68 9e f6 be 8f c6 ff bf
       0.1953284 -0.20638075 -0.4816773 -1.998247
0000f0 de 8c de 3e b4 04 e9 be 33 9c b0 bf 46 61 75 be
       0.43466848 -0.455114 -1.3797668 -0.23962888
000100 17 c4 bc 3e f7 a4 7e 3f f3 c4 9d be 73 1a 59 3f
       0.36868355 0.99470466 -0.30814323 0.84805983
000110 11 64 e0 3f 5d d7 c0 3d 15 90 db bd ad f3 26 c0
       1.7530538 0.09416077 -0.10720841 -2.6086228
000120 a2 b6 04 3f 51 a3 4b 3d fa cc 0b 40 59 5c a8 3e
       0.51841176 0.049716298 2.1843858 0.32882956
000130 db b2 72 3b 88 ce f1 3f fa a4 24 3f 34 d8 9d 3e
       0.0037032876 1.8891153 0.64314234 0.30829012
000140 51 af 52 3f b1 65 0d bf 27 14 db be f1 0a 25 bf
       0.8229876 -0.55233294 -0.42788813 -0.6446982
000150 78 05 fd 3d 0d 4c 6c 3e 99 15 ff bf e3 e7 58 3f
       0.12354559 0.23075886 -1.9928466 0.8472883
000160 20 92 89 3f 7c a3 ab 3f ba 4e e9 bd e2 c3 ad bf
       1.0747719 1.3409266 -0.11391969 -1.3575404
000170 35 cd 98 bf ce 25 07 bc 15 98 08 bf 41 0d c5 bf
       -1.1937624 -0.008248759 -0.5335706 -1.539467

tgnn._base_tgcn.linear_z.weight f4 [32, 64]
000000 da 53 1f be 33 1a 32 bf e5 43 4f 3f d9 89 6c 3f
       -0.1555933 -0.69571227 0.80962974 0.9239784
000010 bd 87 06 bf e1 84 5b 3f 1f bb 40 3e a0 29 33 3e
       -0.5255087 0.8574963 0.18821381 0.17496347
000020 a4 b5 29 bf 08 68 b2 bf e4 8d 4c 3f c5 b2 24 3f
       -0.66292787 -1.3937998 0.7990401 0.6433528
000030 0c 54 70 3e 37 51 17 3e 5d 2b 33 bf 34 73 b5 be
       0.23469561 0.14777075 -0.6998804 -0.35439456
000040 f4 82 26 3f ec fe 7a bf 2c 7f 35 3e b1 4f 34 bf
       0.6504357 -0.9804523 0.17724293 -0.704341
000050 32 52 f7 be c8 41 10 3f 17 d7 a9 3f ee f9 42 be
       -0.48304898 0.56350374 1.3268765 -0.19040653
000060 e9 db 07 be 74 03 42 bd 8e c9 7d be 7a 42 ba be
       -0.13267483 -0.047366574 -0.24783918 -0.36378843
000070 cd 9b 0a be d4 90 b8 3e 9c 6e 4a bf 8e be 39 bf
       -0.13535996 0.36047995 -0.79075027 -0.7255639
000080 a8 db a5 3c 04 c7 64 3d 30 64 37 3d a4 89 10 3d
       0.020246342 0.05585386 0.04477328 0.035287514
000090 88 8e bd 3c 38 91 b7 bc 7c e0 ea 3d 58 1b 94 bc
       0.023139253 -0.022408113 0.11468598 -0.018079445
0000a0 8c 34 60 bd f8 df 9d 3d 3c 5e 3d bd ce 22 ec 3d
       -0.054737613 0.07708734 -0.046232447 0.11530076
0000b0 f0 90 e2 3d 9e a1 ab bd 90 4a d2 bd 20 60 27 bd
       0.11062801 -0.083804354 -0.10268128 -0.040863156
0000c0 3e 22 a5 3d bc 91 d2 bd 02 f5 8a 3d 28 20 fe bd
       0.08063172 -0.10281703 0.06785013 -0.12408477
0000d0 10 15 c3 bc 1c ae 06 bd 50 2e 59 3c 7c c9 ce 3d
       -0.023813754 -0.032880887 0.013255671 0.10097024
0000e0 88 0a b4 bd 80 2f 07 3b 60 11 c8 3b 70 c1 56 bd
       -0.08791071 0.0020627677 0.006105587 -0.05243057
0000f0 00 29 0d 3c ca 87 b8 3d e4 a6 9c bd 0c 02 a2 3d
       0.008615732 0.09010275 -0.07649019 0.07910547
000100 89 9f b6 bf 1d b7 f2 be 95 e3 80 3e 53 ff 1f 40
       -1.4267436 -0.4740533 0.2517363 2.4999588
000110 2a 61 ab bf 5d 10 29 40 c3 0b 45 bf 68 9d cd 3d
       -1.3389027 2.6416237 -0.7697107 0.100397885
000120 e8 57 d9 be 64 ba b4 bf 36 fc 43 3f c0 f4 78 3e
       -0.4244988 -1.4119382 0.7655672 0.24312115
000130 07 ad b6 3f b6 0d 9e 3d 9a ec c9 be 74 7f 3d bf
       1.4271554 0.07717459 -0.39438325 -0.74022603
000140 96 f8 01 3b 4f fe d8 bf 5b 60 ba bf ca 6e b7 bf
       0.0019832007 -1.6952609 -1.4560655 -1.4330685
000150 89 3d 8a bd 16 7a b2 bd 8c 04 d6 3f cd 7f a0 bd
       -0.06750018 -0.08714692 1.6720138 -0.07836876
000160 42 22 e6 3e 0b ba 9e 3d 97 f3 db 3f 3a 33 0d c0
       0.44948012 0.07750329 1.7183713 -2.2062516
000170 a0 c7 1c 3f ab c8 0c 40 60 89 50 c0 57 8a 8f bf
       0.61242104 2.1997478 -3.2583847 -1.1214093
000180 d2 cf bf 3d 4c da 5c 3d c2 59 97 bd 42 ab 8e bd
       0.093658105 0.05391912 -0.07390167 -0.069662586
000190 90 40 e2 3c f8 e8 10 3d c6 97 87 3d 0e 66 bb bd
       0.027618676 0.035378426 0.06620745 -0.09150325
0001a0 ee a7 f6 3d 20 47 c9 bc 5c 9b 33 3d 64 6d 5b bd
       0.12043749 -0.024570048 0.043849334 -0.05357112
0001b0 38 35 43 3d 82 a0 da 3d 72 4d b8 bd 80 27 39 3c
       0.047658175 0.10675146 -0.089991465 0.011300921
0001c0 90 f5 7a 3c 30 ae 93 bc d4 6a 0c bd 50 30 c6 3c
       0.015317336 -0.018027395 -0.034281567 0.02419296
0001d0 d0 74 bd 3c 78 9f 51 bd 5c 65 35 3d da 7b d5 3d
       0.02312699 -0.051177472 0.044286117 0.104240134
0001e0 38 11 fa 3c 36 a7 82 bd e8 b3 99 bc bc 99 03 bd
       0.030525789 -0.06379549 -0.018762544 -0.032129034
0001f0 b2 8e ff 3d 7a f1 84 bd 2e ab 99 3d 46 9f fe bd
       0.12478389 -0.064913705 0.07503353 -0.12432723
000200 58 e1 37 3d 28 b3 f1 bd b0 87 59 bc 9a 9d c1 bd
       0.04489264 -0.118017495 -0.013276979 -0.09453888
000210 b8 17 d1 bd e0 59 b7 3c 76 cc be 3d c0 0a ba 3d
       -0.10209602 0.022381723 0.093163416 0.09084082
000220 04 8f 59 bd 34 bb 14 bd 68 8b ab bc 80 c7 5c bb
       -0.053114906 -0.036311343 -0.020940498 -0.0033688247
000230 58 8b a7 bd 80 f1 8d bb 8a f4 98 3d 4a 9a d6 3d
       -0.081808746 -0.0043317676 0.07468517 0.10478647
000240 34 cf c4 3d 50 e5 78 bd 64 3b 96 3d 08 14 88 3d
       0.09609833 -0.060765564 0.073355466 0.06644446
000250 00 35 dc 3d 3c be 06 bd 72 58 c3 bd 70 a1 6c 3c
       0.107522964 -0.032896265 -0.09538354 0.014442787
000260 36 47 85 3d 88 a4 e7 bc f0 61 1e 3c 58 24 93 bc
       0.06507723 -0.028276697 0.009666905 -0.017961666
000270 8a ba d9 bd 5c 10 17 3d d8 d9 02 3d 00 9d 2a 3b
       -0.10631283 0.036880836 0.031946033 0.002603352
000280 9a c3 d4 bd 14 e1 4c 3d 40 d3 9f 3b b0 ab e1 bd
       -0.103888705 0.05001934 0.004877478 -0.11019075
000290 b2 e0 dd bd 60 b8 60 3c 10 65 72 3c f0 da 23 3c
       -0.10833873 0.013715833 0.014794603 0.010000929
0002a0 7a 21 82 3d 00 24 1b ba fa f7 f3 3d 0c c8 11 bd
       0.063540414 -0.0005918145 0.11912532 -0.03559117
0002b0 f0 36 91 bd 46 66 b3 bd 80 5b 7a bd d0 85 f6 3d
       -0.070905566 -0.087597415 -0.061122417 0.120372415
0002c0 46 ac 80 3d f4 11 3c bd f8 aa ac bd c0 33 09 bc
       0.062828586 -0.04591556 -0.08431047 -0.008374155
0002d0 c4 3e b2 3d a0 fd f7 3d 26 4b e9 bd 30 9b 6f bd
       0.08703378 0.12108922 -0.113912866 -0.058497608
0002e0 52 3d d4 bd 18 a8 bc bc c8 3d 93 bc e8 c6 e6 3d
       -0.103632584 -0.023029372 -0.017973796 0.11268407
0002f0 1c 1a f6 3d dc 2b ec 3d cc 32 4c bd 20 c0 5e bd
       0.12016699 0.11531803 -0.04985313 -0.054382443
000300 93 41 3b bf 22 a8 09 bf 33 0b bf 3e 61 5e a0 3e
       -0.73146933 -0.53772175 0.37313232 0.31322005
000310 10 b9 08 bf c4 8a a1 3f f2 74 c3 bd dc 0e 21 3e
       -0.5340738 1.2620473 -0.0954379 0.15728325
000320 e7 ba ef be 02 72 89 bf 85 db 2a 3f 6f a8 ab 3e
       -0.46822283 -1.0737917 0.6674121 0.33526942
000330 9b 77 1d 3f 1d 07 9f be 9a bb b8 be 1c fd bf be
       0.6151063 -0.31060115 -0.3608063 -0.37497795
000340 c5 5f 9f 3e 58 6e 63 bf 10 9d 37 be de e6 2d bf
       0.31127754 -0.88840246 -0.17931008 -0.679304
000350 7d 47 d0 be 37 c9 bd 3e 80 59 a8 3f 72 52 5d bd
       -0.4067954 0.37067577 1.3152313 -0.054033704
000360 78 3e ba 3d 09 ad 07 bd f6 68 05 3f c1 64 77 bf
       0.09093946 -0.033124004 0.5211328 -0.96638113
000370 1a 8a 8b 3d 91 86 6b 3f bc fd cd bf b7 8a 53 bf
       0.0681345 0.9200221 -1.6093059 -0.8263354
000380 48 50 60 3d ba e9 b0 bd 48 fa b4 bd 60 d5 4e 3d
       0.054764062 -0.0863833 -0.088368 0.05049646
000390 48 db 3c bd 20 e6 40 3d aa 9e c6 3d 10 8f 38 bd
       -0.04610756 0.047094464 0.096982315 -0.04505831
0003a0 f0 89 99 bc 0e f6 c8 bd 1c 53 c6 bd 20 dd 88 3c
       -0.018742532 -0.09812556 -0.096838206 0.016707003
0003b0 08 a9 c4 3c 8e db cb bd 42 3c d3 bd 3c be 84 3d
       0.024006382 -0.09953986 -0.10314228 0.06481597
0003c0 60 6c 9f bb 0a 32 d9 3d 5a 11 da 3d c8 80 1e 3d
       -0.004865214 0.10605247 0.10647841 0.038697034
0003d0 c0 42 7f bc 2c 94 43 3d 24 cc b2 3d d2 2d ec 3d
       -0.015579879 0.04774873 0.08730343 0.11532177
0003e0 44 d3 c0 3d 9c 27 d7 bd 00 e2 85 bd da 41 f4 bd
       0.09415296 -0.10505602 -0.06537247 -0.11926623
0003f0 a4 a6 e0 bd e0 a5 60 3c 8c 85 f5 3d 98 80 0a 3d
       -0.10969284 0.013711423 0.11988363 0.033814043

tgnn._base_tgcn.linear_z.bias f4 [32]
000000 56 9e 9c be ac 56 43 3f fa 09 f2 3d 71 41 70 3c
       -0.3058955 0.76304126 0.11818309 0.01466404
000010 19 58 e7 bd d6 ad 53 be 9a 84 53 be a9 1d 7d 3c
       -0.112961 -0.20671782 -0.20656052 0.015448966
000020 64 ca 5b be 20 7c 1e bd 89 42 f1 be 94 69 85 be
       -0.21463925 -0.038692594 -0.47121075 -0.26057112
000030 15 c4 39 bf f2 a0 8a bf 30 63 87 3c 33 6e 8c 3d
       -0.7256482 -1.0830367 0.016526788 0.06856956
000040 1c 2d 79 3d 78 50 e3 bd af 31 03 bf 00 3a bb be
       0.060834035 -0.110993326 -0.51247686 -0.36567688
000050 f1 7b a7 be 43 b9 16 3f c3 14 39 be b4 6f 2e bf
       -0.32711747 0.58876437 -0.18074326 -0.68139195
000060 40 bb 25 3f 9b dc ef be 9b 5b b6 bb 4d 96 d0 be
       0.64738846 -0.46847996 -0.0055651194 -0.4073967
000070 1b 9c 80 3e e5 e4 06 bf 78 3c f5 3d b8 99 92 be
       0.251191 -0.52693015 0.11974424 -0.28632903

tgnn._base_tgcn.conv_r.bias f4 [32]
000000 00 00 00 00 00 00 00 00 00 00 00 00 00 00 00 00
       0.0 0.0 0.0 0.0
000010 00 00 00 00 00 00 00 00 00 00 00 00 00 00 00 00
       0.0 0.0 0.0 0.0
000020 00 00 00 00 00 00 00 00 00 00 00 00 00 00 00 00
       0.0 0.0 0.0 0.0
000030 00 00 00 00 00 00 00 00 00 00 00 00 00 00 00 00
       0.0 0.0 0.0 0.0
000040 00 00 00 00 00 00 00 00 00 00 00 00 00 00 00 00
       0.0 0.0 0.0 0.0
000050 00 00 00 00 00 00 00 00 00 00 00 00 00 00 00 00
       0.0 0.0 0.0 0.0
000060 00 00 00 00 00 00 00 00 00 00 00 00 00 00 00 00
       0.0 0.0 0.0 0.0
000070 00 00 00 00 00 00 00 00 00 00 00 00 00 00 00 00
       0.0 0.0 0.0 0.0

tgnn._base_tgcn.conv_r.lin.weight f4 [32, 3]
000000 1e bb 2d 3e 40 d1 19 bd 68 91 6d 3d 5b 84 9d 3e
       0.16965911 -0.037553072 0.058 0.30765042
000010 66 87 95 be c0 4b a5 bc 28 c7 0f be 9a 12 90 be
       -0.29204863 -0.020177722 -0.14040816 -0.28139192
000020 64 74 c0 3d e0 df 34 3c 5c 84 c5 3d 07 4d a8 3e
       0.093972 0.011039704 0.09644386 0.32871267
000030 a7 65 90 be a0 18 1d bd 64 0a e9 bd 9b 2c 80 3e
       -0.28202555 -0.038353562 -0.11378935 0.2503403
000040 34 55 8f bd 84 4f b9 be a0 6e af 3c a2 1e 07 3e
       -0.06998673 -0.36193478 0.021415055 0.13195279
000050 be 3e 25 3e 54 d1 ce bd f2 a1 17 3e a8 5e 8c 3d
       0.16137215 -0.1009852 0.14807871 0.06853992
000060 d6 33 4e 3e 72 bd 76 3e 1a 6a 3b be a0 3f 90 be
       0.20136961 0.24095705 -0.18302193 -0.28173542
000070 9c 42 bb 3d 3a 99 6e 3e 22 04 13 3e cc 30 3d be
       0.09143564 0.23300639 0.14357045 -0.18475646
000080 49 0b 9c be 6c bb bb 3d 8f 6c 8f 3e 77 1b 3e be
       -0.3047736 0.09166607 0.2801251 -0.18565165
000090 02 52 73 be bf 7d a0 3e 9d c9 c0 be 8f cd 9d 3e
       -0.23761752 0.31345937 -0.3765382 0.3082089
0000a0 60 17 08 bc 5c cb fa 3d cc 3e 17 be d0 fe 81 be
       -0.008306354 0.12245819 -0.14770049 -0.2538972
0000b0 53 d9 c9 3e 86 65 2a 3e 74 34 a7 bd e2 94 77 be
       0.39423618 0.1664029 -0.081643015 -0.24177888
0000c0 5d 26 9a 3e c1 8d 35 be 5e 6c 7b 3e c6 ee 29 3e
       0.30107394 -0.17729856 0.24553058 0.16594991
0000d0 b4 d3 8a be fa 16 2e 3e e0 86 5f bc 79 e0 8c 3e
       -0.27114642 0.17000952 -0.013642997 0.2751501
0000e0 9d e2 34 be 98 0f be be 50 78 c9 be 36 b8 73 be
       -0.17664571 -0.37121272 -0.39349604 -0.2380074
0000f0 77 66 90 3e b2 96 7e be 28 c4 c8 bd a0 f8 0b bc
       0.28203174 -0.24862173 -0.09803039 -0.008543164
000100 80 a3 1d bb 80 a1 a0 bd 44 de 78 be 74 ab 90 bd
       -0.0024053752 -0.07843304 -0.24303538 -0.07063952
000110 1e 1f 9f be 0f 98 b5 be fe e6 77 3e e0 84 59 be
       -0.31078428 -0.35467574 0.2420921 -0.21242094
000120 ae a8 77 3e 47 90 47 be ba 2c 3d 3e 64 0f 96 bd
       0.2418544 -0.19488631 0.18474093 -0.07327154
000130 30 80 1f be b6 74 3d 3e 2e 64 1e 3e 1c 08 bd 3d
       -0.15576243 0.18501553 0.15467903 0.09230062
000140 80 b5 54 3b c8 79 84 bd 35 fa cd be 58 e8 95 bd
       0.0032456815 -0.064685404 -0.40229955 -0.07319707
000150 6d 45 b1 3e 91 70 96 3e 94 ee bf 3d f2 53 4b 3e
       0.3462328 0.29382756 0.09371677 0.19856241
000160 50 f6 4f bd 5e 6d 83 be 79 b0 36 be 92 cd 30 3e
       -0.05077201 -0.25669378 -0.17840756 0.17265919
000170 09 9f cd 3e 96 3f 14 3e 70 25 78 bd d6 93 b6 be
       0.40160397 0.14477381 -0.06058258 -0.35659665

tgnn._base_tgcn.linear_r.weight f4 [32, 64]
000000 f8 0b 97 bd 98 e4 ea 3c e8 7f 03 bd 2e 96 fe bd
       -0.0737533 0.028673455 -0.032104403 -0.12430988
000010 e8 bb c3 3c 20 27 47 3d 52 63 cb 3d ac 55 65 bd
       0.023893312 0.048621297 0.09931053 -0.055989906
000020 f2 23 ad 3d a2 36 e1 bd 40 a9 dd 3c 98 08 ab 3c
       0.08454122 -0.109967485 0.027058244 0.020878121
000030 12 60 bc bd e4 ed 76 3d 46 0d e2 3d 34 5a 80 bd
       -0.091980115 0.060285464 0.11037688 -0.06267205
000040 08 46 2f bd 60 10 94 3c f4 02 b7 3d 46 62 8e bd
       -0.042791396 0.018074214 0.0893611 -0.06952338
000050 a4 5e 43 bd 64 38 37 3d c0 1a 27 3d 88 c2 72 3d
       -0.04769768 0.044731513 0.040796995 0.05926755
000060 e4 53 cc 3d dc 06 e8 3d 4c 7b b6 3d c8 40 6b 3d
       0.09976938 0.11329433 0.08910236 0.057434827
000070 ee 84 93 3d 3c 83 99 3d e2 28 e1 bd 80 d1 8f 3b
       0.07203089 0.07495734 -0.10994126 0.004388988
000080 22 af d6 bd c0 22 bc 3c b0 78 5b 3d 58 03 72 bd
       -0.10482623 0.022965789 0.053581893 -0.05908522
000090 5a 66 df 3d 70 f3 61 3d c0 8c 5f 3d 30 be 30 3c
       0.10908194 0.0551638 0.05457759 0.010787532
0000a0 e4 a9 70 bd 08 89 ca 3c 6a 73 8e 3d b4 3a c7 3d
       -0.05875577 0.024723545 0.06955607 0.097279936
0000b0 a8 c8 d2 3d 9a 7f 8c 3d 5e a0 a0 3d 74 fc 8d bd
       0.102921784 0.068602756 0.078430876 -0.06932917
0000c0 a0 22 9e bc 94 09 17 bd a4 27 a7 3d 1e fa b7 bd
       -0.01930362 -0.03687437 0.08161858 -0.08983253
0000d0 e8 f0 cf 3d 40 ec 98 bc cc 6f f2 3d 14 a5 22 3d
       0.10153371 -0.01866734 0.1183773 0.039708212
0000e0 00 57 c7 3d 04 71 0b bd 94 a1 d2 3d fa 8d a4 bd
       0.09733391 -0.034043327 0.10284725 -0.080348924
0000f0 30 75 7b 3c 00 dc 14 3b 0e 96 f9 3d ec 00 02 3d
       0.015347764 0.0022714138 0.12186824 0.03173916
000100 80 53 26 bd 6e 77 9a bd 0c 4a c6 3d 4c f4 58 bd
       -0.040606976 -0.07542311 0.09682092 -0.052967355
000110 08 70 96 bd e6 1c fb bd 50 6e 36 bc ec ce ca bd
       -0.07345587 -0.12261371 -0.011134699 -0.099027485
000120 58 5e ba bc e2 49 88 bd 38 6a fc 3d 46 85 9c bd
       -0.022750065 -0.06654717 0.12324947 -0.076426074
000130 30 30 ad 3d b8 36 e9 3d 68 0e a3 3d f8 27 8b bc
       0.08456457 0.1138739 0.07961732 -0.016986832
000140 f8 7c d4 bc 4c c4 cb 3d c8 da 9e 3d 34 f3 13 bd
       -0.025938496 0.0994955 0.07756573 -0.03612061
000150 52 38 ff 3d 5c 6e ba bd ca f6 a1 3d 20 44 9b bb
       0.12461914 -0.09103081 0.079083994 -0.0047383457
000160 20 9d 28 3d ea af e4 3d 5e 53 ee 3d 78 a6 bc bc
       0.04116547 0.111663654 0.11636995 -0.023028597
000170 54 c6 a7 bd 04 32 bd 3d 04 8e c1 3d f6 30 b8 3d
       -0.08192125 0.09238055 0.094509155 0.089937136
000180 26 b8 9b 3d 68 94 42 3d d0 d5 b2 3d c6 f0 d1 bd
       0.07603483 0.047504812 0.08732188 -0.10251002
000190 a0 c5 1e 3d 04 2d fa 3d 22 25 a7 3d 74 41 09 3d
       0.03876269 0.12215617 0.081613794 0.033509687
0001a0 90 38 f2 bd 78 75 f2 3d 0a 1e 93 bd 0a 00 cb bd
       -0.11827195 0.11838812 -0.07183464 -0.09912117
0001b0 96 39 c1 3d 54 3c 55 bd 94 5e 43 3d 1c 2e 1b 3d
       0.09434812 -0.052059487 0.04769762 0.03788577
0001c0 50 f1 32 3c 2c 6e 39 bd 32 d5 d3 bd 74 b7 f7 3d
       0.010921791 -0.045271084 -0.10343398 0.12095538
0001d0 28 46 84 bc b8 3b 7d 3d 20 69 cb bc c6 9c ed 3d
       -0.016146734 0.06182453 -0.024830401 0.11602168
0001e0 ac ea d4 3d 06 fd 9f bd 92 d6 f6 bd fc e4 0e 3d
       0.103963226 -0.07811932 -0.12052645 0.034886345
0001f0 90 6d 1a bc f8 ba b2 bc 94 37 fc bd 28 fd c2 bd
       -0.009425536 -0.02181767 -0.12315288 -0.09520942
000200 18 46 5f 3d e0 67 64 bc e8 43 c3 3d 7a 95 92 3d
       0.054510206 -0.013940781 0.095344365 0.07157417
000210 e0 f5 3f 3d c0 99 a5 3c a8 f0 a9 bc 30 69 a7 3c
       0.046865344 0.020214915 -0.020744637 0.0204359
000220 9a f1 b8 3d 1c 4b 19 bd 24 8a 80 3d ac 82 9b 3d
       0.09030457 -0.037425146 0.06276348 0.07593283
000230 04 a0 af 3d c0 1c 45 bb de be df bd b0 7d 5d 3d
       0.085754424 -0.003007695 -0.10925077 0.054074943
000240 26 d7 f5 3d 98 ab 9c 3c dc aa 40 bd 20 66 ce 3b
       0.12003927 0.019124791 -0.047037944 0.0062987953
000250 d4 3b 36 bd 80 fe 9b bb e6 e8 8b bd e0 ff 1f bd
       -0.04449065 -0.0047605634 -0.06831531 -0.03906238
000260 d4 e5 12 3d 90 24 a7 bc 08 79 a3 bd b0 6e 8b bd
       0.035863712 -0.020403177 -0.07982069 -0.06808221
000270 e0 f1 c7 3c 60 9b b6 bd 0c 82 c8 3d de 62 aa 3d
       0.024407327 -0.08916354 0.097904295 0.08319639
000280 50 d6 0c bc 40 3e 59 3d 6c dc a1 bd bc 82 b1 3d
       -0.008596018 0.05303788 -0.0790337 0.08667514
000290 e0 8e 77 bd a8 af ec bd 10 65 63 bd 10 e7 8f 3d
       -0.06043899 -0.11556941 -0.055516303 0.070264935
0002a0 8c 12 02 bd c0 a6 f7 bb 70 04 a4 bd 82 43 9b 3d
       -0.03175597 -0.00755772 -0.08008659 0.075812355
0002b0 8c b6 fc bd 04 e2 10 3d 64 1e e8 bd 3c 00 b0 3d
       -0.123395056 0.035371795 -0.113339216 0.08593795
0002c0 58 c3 13 3d 74 72 70 bd 00 44 4c 3b 68 9f d6 bc
       0.036074966 -0.0587029 0.003116846 -0.026199058
0002d0 f8 fb 6e bd d4 1a e0 3d 04 52 e0 bd 00 60 00 bc
       -0.058345765 0.10942617 -0.10953143 -0.007835388
0002e0 48 fc e3 3d a0 63 e3 3c 64 f0 d1 bd a0 b8 e0 bd
       0.11132103 0.027757466 -0.10250929 -0.109727144
0002f0 80 8c d8 3b ec e7 3c 3d f8 4f 3b bd ee 57 b0 bd
       0.006608546 0.046119615 -0.04573056 -0.08610521
000300 80 52 fe 3a 7c e9 12 3d 54 98 cf bd 12 24 bc bd
       0.0019403249 0.0358672 -0.10136476 -0.09186567
000310 c0 87 91 3c fc 43 a5 bd e8 d9 ea bc cc 4f 66 bd
       0.017764926 -0.080696076 -0.028668359 -0.056228444
000320 64 f2 7d 3d e4 98 ba 3d 3e 55 f9 bd 06 09 f5 3d
       0.06199874 0.09111193 -0.12174462 0.11964612
000330 c2 95 ef 3d 30 aa e4 bd 9e 92 a3 3d 60 3d 04 bd
       0.11698486 -0.11165273 0.079869494 -0.032285094
000340 ac 90 1a bd 78 21 84 3d ce 21 9d 3d c8 6f 89 bc
       -0.037735626 0.06451696 0.07672463 -0.016776934
000350 32 48 fb 3d 64 13 da bd 98 13 dc bc c8 6e 77 bd
       0.122696295 -0.1064823 -0.026864812 -0.060408384
000360 7c b8 e0 bd 20 3f ff 3d 14 4a bb bd 6c c1 b5 bd
       -0.109726876 0.12463212 -0.09144989 -0.08874783
000370 cc 0a ba bd 94 fa 8e 3d 78 99 ca bd 60 e5 c4 3c
       -0.090840906 0.06981388 -0.09892553 0.024035156
000380 12 a9 ba 3d 04 c4 23 3d c0 e1 f4 bc 1a bf a5 bd
       0.09114279 0.039981857 -0.029892802 -0.0809309
000390 54 c6 ce 3d fc 0f 64 bd 60 f9 d4 bc 22 88 a3 3d
       0.10096422 -0.055679306 -0.025997818 0.0798495
0003a0 84 94 6f bd ae 87 ab 3d 38 b0 ec bd ea e0 91 3d
       -0.058491245 0.08375488 -0.115570486 0.07122977
0003b0 14 48 77 3d 20 f6 fc 3c 40 1b a5 3c 40 a5 2a bb
       0.060371473 0.03087908 0.020154595 -0.0026038438
0003c0 9c de 07 3d 64 55 a2 bd 2c 6b c6 bd 2e 55 94 bd
       0.03317128 -0.07926443 -0.0968841 -0.07242809
0003d0 e4 50 6e bd 9c e2 78 3d 44 67 bf bd b8 e2 b6 3c
       -0.058182612 0.060762987 -0.09345868 0.022324905
0003e0 98 d7 80 bc 18 2b 8b bc 80 c6 b6 3c e8 8d ce bc
       -0.015727803 -0.016988322 0.022311449 -0.02521415
0003f0 f2 cf 99 3d 98 62 0b bd ac 9b bc bd 80 4f 7c 3c
       0.075103655 -0.034029573 -0.092093796 0.015399814

tgnn._base_tgcn.linear_r.bias f4 [32]
000000 1c 8a 97 3d 4e 00 d0 bd 94 35 7a bd b0 a5 4d 3d
       0.07399389 -0.10156308 -0.061086252 0.05020684
000010 f2 15 88 3d 00 60 6e bc e4 de 8b 3d f0 5d 19 3c
       0.06644811 -0.014549255 0.068296224 0.009360775
000020 c0 bf 1a bb d4 4e f9 bd 78 0b f2 bd 3c ce df 3d
       -0.0023612827 -0.121732384 -0.11818594 0.10928008
000030 08 e4 54 3d 3e b9 ed bd 54 b4 70 3d 1c 26 37 bd
       0.05197528 -0.11607598 0.058765724 -0.04471408
000040 b0 67 19 3d 72 3e 8a 3d 58 7a 08 3d f0 b9 9c bc
       0.0374524 0.06750192 0.0333198 -0.01913163
000050 ae 30 b5 bd d8 41 39 3d 30 77 57 bd ec b9 d9 bd
       -0.088471755 0.04522881 -0.0526039 -0.10631165
000060 fe da d5 bd 2c 38 67 3d fc 8f fe 3d 00 b3 7e 3a
       -0.1044216 0.056450054 0.124298066 0.0009716004
000070 2a 6b ca 3d b0 9b 13 3d b6 4d 84 3d 22 40 8d 3d
       0.09883721 0.036037147 0.06460135 0.06896998

tgnn._base_tgcn.conv_h.bias f4 [32]
000000 b1 33 9d 3e 43 48 55 bc 13 ba 92 be 16 99 bb bd
       0.307035 -0.013017717 -0.28657588 -0.09160058
000010 fd 6d 71 3e 27 66 1d bf 40 ce be 3e 05 79 ae 3e
       0.23577113 -0.61484 0.3726673 0.34076706
000020 70 68 17 3f 2c e6 66 bd 91 dc a7 be 16 38 60 3e
       0.59143734 -0.056371853 -0.32785466 0.21896395
000030 37 05 e0 be 34 91 e4 3b 84 f4 9e 3d 94 ee 01 bf
       -0.4375398 0.0069753174 0.077614814 -0.50754666
000040 55 6c ad 3d c4 81 9f be 40 c6 82 3e f0 b1 70 bd
       0.08467928 -0.3115369 0.25541878 -0.058763444
000050 d0 63 b2 3d 4d d2 06 3f 63 a1 9e 3c e8 42 89 bb
       0.08710444 0.52664644 0.019364065 -0.004188884
000060 01 3c 66 be 79 e7 0c 3e 88 df 82 be f8 82 aa 3e
       -0.22483827 0.13760175 -0.25561166 0.33303046
000070 e3 d1 e6 3e 2c 74 01 3f 1a e8 84 be 4f 55 4f bd
       0.45082006 0.5056789 -0.2595833 -0.050618466

tgnn._base_tgcn.conv_h.lin.weight f4 [32, 3]
000000 7f 41 6b 3e a5 ca 31 bf 86 49 d9 3f 1f c5 8f be
       0.22974204 -0.69449836 1.6975563 -0.2808008
000010 f2 66 90 bf 64 46 85 3f 4e c8 57 bd 7b 02 21 be
       -1.1281416 1.0412107 -0.05268126 -0.15723602
000020 07 59 2d 40 ed d2 60 bd 9d a9 98 3f e9 f8 2b bf
       2.7085588 -0.054888655 1.1926762 -0.6717668
000030 96 4a f0 3d c7 6f 2d 3f 2f 9d eb bf a9 6c 11 3f
       0.11732976 0.67748684 -1.8407344 0.5680643
000040 01 43 aa 3e e3 99 13 bf d8 9b 1d bf f4 c0 1a bf
       0.33254245 -0.5765669 -0.61565924 -0.60450673
000050 40 86 ee 3e 31 09 10 bf db f2 a1 be d0 8c a3 3f
       0.465868 -0.56264025 -0.31630597 1.2777348
000060 03 b7 75 bd f7 b9 2d 3f fe 92 0e be 1d a6 b5 3d
       -0.059988987 0.67861885 -0.1392326 0.08869574
000070 a1 b0 9e bf 96 be 8d 3f b7 1e 42 3f e4 6f a3 3e
       -1.2397653 1.1073787 0.7582812 0.31921303
000080 c3 03 aa bf 5f 39 25 bf 00 92 87 bf ab ab c2 be
       -1.3282398 -0.64540666 -1.0591431 -0.38021597
000090 6e 10 10 bd 9c 54 34 3f 38 eb 03 bf 78 ac 2b 3f
       -0.03517192 0.70441604 -0.5153079 0.6706004
0000a0 b5 c7 95 3f 99 70 0d bd df 89 55 3e 5e b3 24 bf
       1.1701571 -0.03453121 0.20853375 -0.6433619
0000b0 00 e3 fd 3f 5c 37 79 bd 60 5c d5 be 49 4c e0 bf
       1.98349 -0.06084381 -0.4167204 -1.752328
0000c0 37 f6 46 bf 67 f5 13 3e b9 12 e7 3f 7c 3d c6 be
       -0.77719444 0.14449082 1.8052589 -0.38718784
0000d0 c5 ff 56 bf 11 35 79 bf 17 55 0e be 60 db 58 bf
       -0.83984023 -0.973466 -0.13899647 -0.8470974
0000e0 bf 41 5f 3f dc 4a 27 3d 07 4a a9 3f 11 9d 52 3e
       0.87209696 0.040842876 1.3225716 0.20567729
0000f0 a6 bd 1a be 4b cd 9b bf b0 42 05 bf 72 7b 18 3e
       -0.15111408 -1.2172025 -0.5205488 0.1489084
000100 bb ab 3c 3e 1d b1 b5 3f 63 44 45 3f 66 cf 85 3f
       0.18424885 1.4194676 0.77057475 1.0453918
000110 f6 ab ff 3f 15 7d 8e be 8d 02 80 bf 85 0c ba 3f
       1.9974353 -0.27829805 -1.0000778 1.4535071
000120 70 b8 b9 3e 97 9f 15 3f 67 84 9b bf 4c a4 35 3e
       0.36273527 0.5844664 -1.2149781 0.17738456
000130 f1 f3 0b bf 47 7f f0 3f 8a ca e1 bd c9 fd 8c bf
       -0.546691 1.8788842 -0.110249594 -1.1014949
000140 24 5e 09 bf 2e 9b e3 be d4 a7 2e be 81 3c cd 3f
       -0.5365927 -0.4445433 -0.17056209 1.6034089
000150 94 61 18 b9 06 31 ad be b1 cd ee 3f 23 42 e8 be
       -0.000145322 -0.33826464 1.8656522 -0.45362958
000160 5b a7 2f 3f 9e 9f af 3f 07 a2 1e 3f f6 84 b5 3e
       0.6861474 1.3720586 0.61965984 0.35453004
000170 0c 67 c9 bf 1e d6 cc bc cf 7a a2 bf 8a 81 64 3f
       -1.5734572 -0.025004443 -1.2693728 0.8926016

tgnn._base_tgcn.linear_h.weight f4 [32, 64]
000000 fa 38 d3 be a2 b0 87 bf 80 af 63 bf 33 5b a1 3f
       -0.41254407 -1.0600779 -0.88939667 1.2605957
000010 9f 4c 97 3f 9c 25 38 3e fa 4b 02 bf 45 5a f8 be
       1.1820258 0.17983097 -0.5089718 -0.4850637
000020 fa 40 31 3f fc d8 ce bf c4 08 c7 3e 66 6a 12 bf
       0.6923977 -1.6159968 0.38873875 -0.571936
000030 01 41 54 3e 72 c7 1b 3f c0 98 4a bf fc aa dc be
       0.20727922 0.60851204 -0.7913933 -0.430992
000040 68 99 0e bf 82 a1 0c bf c9 82 2a bf 66 ef 84 3f
       -0.5570283 -0.5493394 -0.6660581 1.0385559
000050 3b c7 27 bf c1 c6 89 3e 23 d7 5b 3e 78 41 d3 bf
       -0.65538377 0.2690945 0.21468787 -1.6504354
000060 0d 65 15 3f 70 9f f8 be 64 58 4e bf fb 63 a3 be
       0.58357316 -0.4855914 -0.80603623 -0.31912217
000070 ac d2 06 bd 2e 6e 04 3f 61 bf c8 3e e4 bf b5 bf
       -0.032915756 0.5173062 0.3920851 -1.4199185
000080 0e e0 84 bd 6a 56 b3 3d 12 9d a4 3d ac f0 7f bd
       -0.064880475 0.087567165 0.08037771 -0.062485382
000090 7c a2 1c bd 9e a3 9c bd 56 9c ec 3d 48 53 60 bd
       -0.038240895 -0.07648395 0.11553256 -0.054766923
0000a0 00 58 79 3d 24 51 12 bd 7e 2b c8 3d 38 1a d3 3d
       0.06087494 -0.035721913 0.097739205 0.10307735
0000b0 8a 11 c5 3d 28 6d 98 3c 50 c9 47 3d 58 91 c0 3c
       0.09622486 0.018606737 0.04877597 0.023506805
0000c0 08 7b da bc d8 57 57 bd a0 c0 eb 3b 02 f3 9c bd
       -0.026669994 -0.05257401 0.0071945935 -0.076635376
0000d0 44 11 b8 bd b2 cb ae bd 4c 60 6e 3d d0 ae 1f bc
       -0.08987668 -0.085349455 0.058197305 -0.009746268
0000e0 24 8c e6 3d fc 9e 97 3d c4 8b 59 3d ac 7e 19 bd
       0.112571985 0.07403371 0.053111807 -0.03747432
0000f0 02 fd cc bd 90 87 eb 3d 80 37 20 3b 86 b2 e0 bd
       -0.10009195 0.11500466 0.0024447143 -0.10971551
000100 da ea 42 3f c3 29 fd 3e a9 fa b6 3e 21 c0 f8 bf
       0.76139605 0.49445924 0.35738114 -1.9433633
000110 ec e6 fa be 51 66 93 be 41 00 0b 3f 8f 18 31 3f
       -0.49004304 -0.28789 0.5429726 0.691781
000120 f8 ab 97 bd 23 d3 8a 3f 15 7b cc be 7b ae 96 3e
       -0.07405847 1.0845684 -0.39937654 0.29429993
000130 03 42 ed be 37 8d 9e be f8 e2 8a 3f e2 9d 3d be
       -0.46339425 -0.30967113 1.0850515 -0.18517259
000140 6d 66 0c 3e a1 c8 03 3e 55 5d ce 3f 6b 55 19 bf
       0.13710947 0.12869503 1.6122233 -0.5989596
000150 4d f7 bf 3e 70 f8 1d 3e 46 90 44 3d c1 23 02 3f
       0.37493363 0.15426803 0.047989152 0.50835806
000160 18 62 a2 bf 60 b3 66 3f 24 86 65 3e 5d 06 47 3f
       -1.2686186 0.90117455 0.22414452 0.77744085
000170 80 f5 d5 3e 50 87 4f bd aa a5 2c bf 1c ef 74 3f
       0.41788864 -0.050666153 -0.67440283 0.9567735
000180 3a 4c b6 bd 40 ed 54 bc b6 4b f5 bd e0 22 ac 3c
       -0.08901258 -0.012996018 -0.11977331 0.021012723
000190 e8 b9 86 bd f8 af 64 3d da 34 a6 bd 3c 68 80 bd
       -0.065784276 0.05583188 -0.081155494 -0.06269881
0001a0 00 bc d2 3b 60 73 de 3b bc 88 b8 3d 00 2f ac ba
       0.0064311028 0.006788656 0.09010455 -0.0013136566
0001b0 90 52 3e 3d dc c0 a3 3d 68 2a ab bd 04 bf 9e 3d
       0.046465456 0.079957694 -0.08357698 0.07751277
0001c0 9c d9 56 bd c0 97 6a 3c 48 26 d6 3c 60 19 c2 3c
       -0.052453622 0.014318407 0.0261413 0.02369374
0001d0 50 ce ee 3c d4 5e 3a 3d 54 80 a8 bd d0 bb 00 3d
       0.029151112 0.04550059 -0.08227602 0.031429112
0001e0 28 9a 92 bc 68 cc 96 3d c2 7b 90 bd b0 f8 21 3d
       -0.017895773 0.07363206 -0.07054855 0.039543808
0001f0 54 8e 5a 3d ec 03 54 bd 6a 10 a9 bd 5a 04 bb 3d
       0.05335839 -0.051761553 -0.08255084 0.09131689
000200 a4 d3 e5 3d f6 ae a7 3d 36 5a c5 bd e4 6f 3d 3d
       0.11222008 0.08187668 -0.09636347 0.046249285
000210 8c 63 cd bd a8 b3 88 bc 7c ed d2 bd 88 96 88 3d
       -0.10028753 -0.01668723 -0.10299203 0.066693366
000220 1a fb 9c 3d 94 c6 a3 3d d4 8d 6b bd 22 2b f0 3d
       0.07665081 0.0799686 -0.057508305 0.11726977
000230 82 bb b6 3d c0 99 84 3c 62 f1 bd bd 30 88 92 3d
       0.08922483 0.016186595 -0.09274556 0.07154882
000240 d0 f8 15 3d 90 79 0f 3c aa 71 fa bd ba 4e 97 bd
       0.03661424 0.00875701 -0.12228711 -0.07388063
000250 90 3e 73 bc ee 13 ea bd b4 cb b4 3d 58 88 c7 bc
       -0.014846459 -0.114295825 0.08827916 -0.024357006
000260 88 9d 9a bc e8 c4 2d 3d 70 e4 56 3d 4c 92 9e bd
       -0.018873945 0.042424113 0.05246395 -0.07742748
000270 98 d4 9c 3c d4 49 73 bd 06 9d d8 bd 28 f2 fc 3d
       0.019144341 -0.05939658 -0.10576825 0.12350875
000280 58 05 fb 3c 70 4e ae bd b8 94 8d bd 0c d7 0f 3d
       0.030642197 -0.085110545 -0.069131315 0.035117194
000290 5a 35 ee bd 50 9d 2f bd c4 40 a9 3d 04 d3 9b bd
       -0.1163127 -0.042874634 0.08264306 -0.076086074
0002a0 f4 30 d2 3d 9c 2b 28 3d 7a eb d3 bd 38 ab 57 3d
       0.10263243 0.041057214 -0.10347648 0.05265352
0002b0 76 fe f3 3d 74 dd 4a 3d 58 6c d2 3d 00 62 d3 ba
       0.11913769 0.0495276 0.10274571 -0.0016127229
0002c0 72 9e c0 bd e4 87 24 3d a0 69 03 3d 78 d5 59 3d
       -0.09405221 0.040168658 0.032083154 0.053182095
0002d0 28 61 a1 bc 04 a4 80 bd 44 bf 13 3d a4 45 c0 bd
       -0.019699648 -0.062812835 0.036071077 -0.09388283
0002e0 f0 1a d4 3d 54 60 54 bd 44 ff ff bd da 2b 90 3d
       0.103567004 -0.05184968 -0.1249986 0.07039614
0002f0 20 76 d1 3b 20 f0 23 bd 64 08 39 bd 22 f0 a7 bd
       0.0063922554 -0.040023923 -0.045174018 -0.082000986
000300 a2 6e 43 3f b6 73 16 3a da 2d 7c 3f 53 6c 37 be
       0.7634069 0.0005739288 0.98507464 -0.17912416
000310 5b 35 a9 be 44 14 79 3f 25 85 d5 be 93 2f 39 be
       -0.3304852 0.9729655 -0.41703144 -0.18084554
000320 72 d1 c3 bc 2b 6b 78 3e 02 67 87 3e 34 7b 17 bf
       -0.023903582 0.24259631 0.26445776 -0.5917237
000330 77 50 84 3e 96 58 8e 3e 5b 08 ab 3f db c0 14 bf
       0.2584264 0.2780196 1.3361925 -0.58106774
000340 76 ad 80 3e 65 57 be be 30 ec c4 3d 42 90 90 3e
       0.2513234 -0.37176052 0.09615362 0.2823506
000350 0a 66 b7 be b1 cc d5 3e 56 82 13 3f 94 34 27 3e
       -0.35820037 0.4175773 0.5762075 0.1632865
000360 56 fb b6 3c 94 3f 9d 3f 44 dd 9d be 3a 50 a1 3e
       0.022336643 1.2285028 -0.30832875 0.3150652
000370 5c e9 37 3f 75 29 cf 3e ea ca 75 bd 83 19 07 3d
       0.71840453 0.40461317 -0.060007967 0.032983314
000380 40 cd 96 bc 16 42 ab 3d 4c a1 4b 3d 24 2a f2 3d
       -0.018408418 0.08362214 0.04971437 0.11824444
000390 04 14 28 bd 48 cf 6e bd 58 ed a8 bc ea 4c ce 3d
       -0.041034713 -0.058303148 -0.020620987 0.10073264
0003a0 f6 16 cc 3d 9c bb 83 bd 50 07 f0 3d 82 57 99 3d
       0.09965317 -0.06432268 0.11720145 0.07487394
0003b0 08 29 45 3d 30 31 65 bc 02 4d b5 3d 34 43 8e 3d
       0.048134834 -0.013988778 0.08852579 0.06946412
0003c0 06 90 9c 3d 4c 42 16 3d 48 06 d8 bc 32 87 81 3d
       0.07644658 0.03668432 -0.026370183 0.063246146
0003d0 b8 73 b5 bd 60 e3 8a 3b 14 aa b3 bd 40 2f a2 3c
       -0.08859962 0.004238531 -0.08772674 0.019797921
0003e0 ee 2e d5 3d 24 28 eb bd 9c 7d 05 bd 76 85 e0 bd
       0.10409342 -0.114822656 -0.032590494 -0.10962956
0003f0 9c 9e c7 bd 08 70 91 3d 00 77 18 3b b0 59 6d 3c
       -0.09747049 0.071014464 0.002326429 0.014486715

tgnn._base_tgcn.linear_h.bias f4 [32]
000000 47 a2 be 3e ed 9d 73 3e 32 7e b6 bd 4b 9e 0f be
       0.37233183 0.23790713 -0.089107886 -0.14025228
000010 6a 54 c2 3e 78 ba 2a 3f 35 29 42 3e 03 7f d9 bd
       0.37955028 0.6669078 0.18961032 -0.10619929
000020 dd 56 5c 3e d2 03 37 3f ad 4e 96 3e 13 31 a5 3e
       0.2151751 0.71490204 0.293569 0.32264003
000030 11 f2 81 3e 57 bc 8c 3e 82 f1 5b bd 09 53 01 be
       0.25379995 0.27487442 -0.053697117 -0.12629332
000040 a8 ab aa bd 78 81 e0 bc af 1c 1a 3e b6 76 10 3f
       -0.08333522 -0.027405486 0.15050004 0.5643114
000050 9c e4 12 3f 74 45 aa be 7c c6 92 3e dd ab 85 3e
       0.5738008 -0.33256114 0.28667057 0.26107684
000060 2b 2e 39 3e 75 83 3e 3f e5 fc 3f 3f da da f7 3e
       0.18084018 0.7441934 0.7499526 0.48409158
000070 a0 51 bd 3e 1e e0 85 3e 97 41 63 bb e1 74 e6 3e
       0.36976337 0.2614755 -0.0034676546 0.45011047

linear.weight f4 [16, 32]
000000 51 47 8b 3e 39 b0 0c bf 1f 32 e4 bd 2f 15 ac 3f
       0.27202848 -0.54956394 -0.11142372 1.3443965
000010 7c bd 0f 3f b2 0c 2f bf e9 08 25 3f 80 1f 54 bd
       0.56148505 -0.68378747 0.6446672 -0.051787853
000020 d6 bd 1a 3f 64 ad 7b bf fe 2c 2e 3e 0d 2d b7 3e
       0.60445917 -0.9831145 0.1700935 0.3577656
000030 30 ce 41 3f fa 2e 02 bf 8f 1d d0 3c ba 55 bc 3d
       0.7570524 -0.5085293 0.02540472 0.091960385
000040 c0 ce 8b 3c de bc e9 bd 28 bb 32 3f c2 23 2a bf
       0.01706636 -0.11412977 0.6981683 -0.6646081
000050 90 b0 75 bf 08 e1 d1 bf 4e fa 26 3f 39 d1 0e 3f
       -0.9597254 -1.6396799 0.65225685 0.55788
000060 fc 97 b4 be a7 32 b9 bf f6 9a 4a bf 7c c8 3c bf
       -0.35272205 -1.4468583 -0.791427 -0.73743415
000070 ed 79 64 bf 0d 19 fa 3d a8 d7 a4 3d 48 eb b1 3e
       -0.89248544 0.12211809 0.08048946 0.34749818
000080 ca f7 82 3e 70 f1 26 bf 5c 3b 2f 3d ab f2 94 3f
       0.25579673 -0.65212154 0.04278122 1.1636556
000090 a8 5f 1a 3f 92 aa 2d bf 9b 37 2a 3f 8e 46 30 bd
       0.6030221 -0.67838395 0.664911 -0.043036036
0000a0 f6 fb 3c 3f b2 fc 7a bf 83 7b bd 3e 5a 0a b0 3e
       0.7382196 -0.9804183 0.37008294 0.34382898
0000b0 05 57 18 3f c4 a2 17 bf 6a 61 11 be b5 94 f0 3d
       0.5950778 -0.59232736 -0.14197317 0.117471136
0000c0 9c 5a 15 3d 48 39 62 bd 42 a6 27 3f 29 44 3d bf
       0.036463365 -0.05523041 0.65488064 -0.7393213
0000d0 06 8e 82 bf 24 8f dc bf 60 32 04 3f c0 c7 44 3f
       -1.0199592 -1.7231183 0.51639366 0.76867294
0000e0 0c 47 6e be e9 2a b8 bf 4b 42 4a bf 39 f3 3a bf
       -0.2326929 -1.4388095 -0.79007405 -0.7302738
0000f0 f0 09 85 bf 4a 7a 41 3e 49 62 06 3e c9 c1 0f 3f
       -1.0393658 0.18894306 0.1312343 0.5615507
000100 ba 4e 0e 3f c3 53 34 bf 30 ae ec bd d8 2a 81 3f
       0.5558888 -0.7044031 -0.11556661 1.00912
000110 f4 86 0b 3f df 42 1d bf fb f5 62 3f b3 f8 d6 bd
       0.545028 -0.6143016 0.88656586 -0.10496654
000120 ee d7 03 3f 71 2b 7f bf 9a 9d 7b 3e 0c 47 09 3f
       0.5150136 -0.9967566 0.24571839 0.53624034
000130 87 ab 19 3f a1 5b 3a bf 51 2c 0c 3c a6 94 6f 3d
       0.60027355 -0.72796065 0.008555488 0.05849137
000140 46 b9 0e be d6 08 15 be b6 15 d5 3e b3 52 5b bf
       -0.13937864 -0.14554152 0.41618127 -0.85673064
000150 40 29 80 bf e9 34 ea bf 18 d1 32 3f 83 7d 32 3f
       -1.0012589 -1.8297397 0.698503 0.69722766
000160 dd 88 18 bf 63 90 ae bf 8e 18 53 bf 6c fd 53 bf
       -0.59583837 -1.3637813 -0.8245934 -0.82808566
000170 88 15 6d bf e4 90 ec 3e 4b ea c7 3a bd 06 05 3f
       -0.9261098 0.46204293 0.001525232 0.51963407
000180 48 4f 06 3f f1 1d 55 bf 60 5b 01 3c 11 fb 55 3f
       0.52464724 -0.8324881 0.007895321 0.8358622
000190 fb 7d 35 3f cb ee 0a bf 59 d6 22 3f 37 92 33 3d
       0.70895356 -0.5427062 0.6360832 0.043840613
0001a0 73 9f 05 3f f0 dc 83 bf 13 b5 eb 3e e2 cc e5 3e
       0.52196425 -1.03018 0.46036586 0.44882876
0001b0 6a 5e 1e 3f 50 16 6c bf 5a 0e 96 3c e6 dc 0f be
       0.61862814 -0.92221546 0.01831739 -0.1404911
0001c0 e9 24 34 3e 2a 0c fd 3d 14 cf fc 3e 8c 55 73 bf
       0.17592205 0.12355836 0.49376738 -0.9505241
0001d0 f7 c3 77 bf af b4 f2 bf 78 c8 4c 3f d6 3a 50 3f
       -0.96783394 -1.896139 0.7999339 0.81339777
0001e0 b3 a1 02 bf 16 99 a9 bf d1 eb 63 bf 60 e0 4d bf
       -0.51027983 -1.3249843 -0.890317 -0.80420494
0001f0 c1 a1 88 bf fb 55 81 3e 62 8b 36 bd 59 e1 4f 3f
       -1.0674363 0.2526091 -0.04456652 0.8120323
000200 79 d8 05 3f 1f 4e 67 bf c0 1f 6c bd a5 da 06 3f
       0.52283436 -0.9035358 -0.057647467 0.52677375
000210 ef 14 30 3f 61 91 36 bf a7 39 59 3f 58 e9 b2 3d
       0.6878194 -0.7131558 0.84853595 0.08735913
000220 98 2c 3b 3f 1c 90 71 bf 60 8e 1e 3f b5 c8 10 3f
       0.7311492 -0.9436052 0.61935997 0.56556255
000230 03 32 20 3f 14 b8 60 bf c0 15 bd bc 75 4e c2 bd
       0.6257631 -0.8778088 -0.02308166 -0.09487621
000240 01 f5 32 3e 0a be d6 3d a4 fe 02 3f fe 67 84 bf
       0.17476274 0.10485466 0.511698 -1.0344236
000250 79 62 87 bf 29 90 f8 bf 90 1f 08 3f 96 7e 4d 3f
       -1.0576926 -1.9418994 0.5317316 0.8027128
000260 05 2d 0c bf 70 cd a8 bf cd ab 4f bf 94 07 3a bf
       -0.54756194 -1.3187695 -0.8112152 -0.72667813
000270 61 22 9e bf 6c be 8d 3e 10 13 da 3b e2 5d 77 3f
       -1.2354242 0.27684343 0.0066551045 0.9662763
000280 a9 d8 44 3f 3d 57 81 bf 25 c4 2a 3e 1a 36 b1 3e
       0.768931 -1.0104748 0.16676386 0.3461159
000290 e2 2e 39 3f 00 0f 6f bf 2a ac 68 3f df e6 18 bd
       0.7233716 -0.93382263 0.908877 -0.03732955
0002a0 27 2f f4 3e 21 25 67 bf 30 56 d3 3e 6f be 1e 3f
       0.47692224 -0.9029103 0.41276693 0.6200933
0002b0 fd d7 5a 3f 37 fa 87 bf 8b 7f 0e bd ab 83 df 3d
       0.8548582 -1.0623235 -0.034789603 0.109137855
0002c0 d9 c9 bf bd 10 c1 09 be af f9 c3 3e 11 39 86 bf
       -0.09364671 -0.13452554 0.3827643 -1.0486165
0002d0 66 00 94 bf 3a 5c fc bf c5 2e 51 3f 2b df 11 3f
       -1.1562622 -1.9715645 0.8171199 0.5698115
0002e0 f0 39 06 bf c5 e6 9f bf f4 06 32 bf c9 a2 2c bf
       -0.52432156 -1.24923 -0.6954186 -0.6743589
0002f0 8c a4 ba bf 95 88 19 3f 81 9d 8f 3d bf d6 75 3f
       -1.4581466 0.5997403 0.07012463 0.960308
000300 56 4b 0a 3f a1 bf 82 bf 82 20 fc 3d d3 a2 0f 3e
       0.54021204 -1.021473 0.12310888 0.14026956
000310 08 d7 4a 3f 95 6c 48 bf 31 2d 63 3f c0 a3 4a 3d
       0.7923436 -0.78290683 0.8874083 0.04947257
000320 94 de 30 3f bf 3a 55 bf ec 5b 07 3f d8 89 32 3f
       0.6908963 -0.83292764 0.52874637 0.6974158
000330 b2 b1 41 3f 63 35 9a bf db 3f e2 bd 44 19 2a bd
       0.75661767 -1.2047542 -0.11047336 -0.041528
000340 2a ea d4 bd 72 2b a6 3d c8 1d 03 3f 47 4f 9c bf
       -0.10396226 0.08113755 0.5121732 -1.2211694
000350 b2 fd 7a bf 34 8d 01 c0 ba ae 11 3f f5 aa 16 3f
       -0.9804336 -2.0242434 0.56907237 0.5885461
000360 d4 1d 63 bf fc 94 8f bf 8b 84 59 bf a1 c8 43 bf
       -0.8871739 -1.1217341 -0.8496787 -0.7647801
000370 bc dc b9 bf f9 40 07 3f 92 a3 19 3d 37 1c 9f 3f
       -1.4520488 0.52833515 0.03750951 1.2430485
000380 1a 4b 44 3f 83 8c 9b bf 30 ba cf bc d3 0c cf bd
       0.76677096 -1.2152256 -0.025357336 -0.10109868
000390 fc ab 3a 3f c7 c4 6b bf 19 4c 7e 3f a2 1f 7a bd
       0.7291868 -0.92097133 0.99334866 -0.061065324
0003a0 67 83 23 3f 20 ca 5a bf a2 14 44 3f e6 77 17 3f
       0.6387238 -0.8546467 0.76593983 0.59167325
0003b0 26 3f 2c 3f a1 34 af bf 71 7f dd 3c 61 b4 b7 bd
       0.67283857 -1.3687936 0.027038308 -0.089699514
0003c0 58 7e 8d bc 38 05 b2 bc 4b 11 d8 3e c2 bd a2 bf
       -0.01727216 -0.021731004 0.42200693 -1.271416
0003d0 ca 4a 84 bf 7a 84 fd bf 1a 54 44 3f e9 4f 43 3f
       -1.0335324 -1.9806054 0.7669083 0.7629381
0003e0 1c cf 4e bf 9c 75 89 bf a0 22 2b bf 9d ee 20 bf
       -0.80784774 -1.0739017 -0.6684971 -0.62864095
0003f0 46 c7 c1 bf 2b 0e de 3e fd 65 af 3c 92 d6 8a 3f
       -1.5138938 0.43370184 0.021410936 1.0846732

linear.bias f4 [16]
000000 da 35 db 3e a5 66 8d 3e 72 86 85 3e 1a 28 55 3e
       0.42814523 0.27617374 0.26079136 0.20816079
000010 fe dd de bb 1f 3d 2f bd 7c 0b 22 bd 04 f6 ef bd
       -0.006801366 -0.0427829 -0.039561734 -0.11716846
000020 7d dd 78 be 7a c0 72 be 8e 82 ad be 35 e1 99 be
       -0.24303241 -0.23706236 -0.33888668 -0.30054632
000030 2e c0 9c be b9 e7 a9 be a5 c9 82 be ae e3 9b be
       -0.3061537 -0.33184603 -0.25544468 -0.30447143

linear2.weight f4 [6, 21]
000000 bd c6 33 3f 14 0f 30 3f af 1d 36 3d d5 57 66 be
       0.70225126 0.6877301 0.044461902 -0.22494443
000010 56 07 a1 be b3 28 d4 3e bd f3 0b bf 5c 47 7a 3f
       -0.3145091 0.414373 -0.5466879 0.97765136
000020 7c fc a4 3d 6d 20 c7 3e 9e 38 4d bf 7d 3e aa be
       0.0805597 0.38891926 -0.80164516 -0.332508
000030 b6 25 61 ba ee a9 1b be 2d 64 c6 3e 35 47 03 bf
       -0.0008588688 -0.15201542 0.38748303 -0.5128053
000040 63 03 91 be 44 2e fb 3e 1d 22 2c 3c ac 72 99 be
       -0.28322896 0.49058735 0.01050618 -0.299703
000050 1e 92 01 bd 0b 5c 09 bd 41 78 9c 3e 39 6d a5 3d
       -0.03163349 -0.033535045 0.30560496 0.08077473
000060 37 a6 87 3d 2f c5 29 bf 9e 16 06 3f bb 88 3d 3f
       0.066235 -0.66316503 0.5237826 0.7403676
000070 c1 06 90 3e 46 d5 16 be ab a3 74 3e 08 66 1c 3f
       0.28130153 -0.14729795 0.2389056 0.6109319
000080 b6 db 2f bd cd b4 37 be 74 e6 43 3e 30 95 25 be
       -0.042934142 -0.17940064 0.1913088 -0.16170192
000090 5c 17 ad be dd a7 d3 3c 05 e6 46 bf 31 68 72 bd
       -0.33806884 0.02583688 -0.7769473 -0.059181396
0000a0 a8 ac 90 3d 81 0c 9d 3e c5 55 d3 3e e7 8f 16 3d
       0.070641816 0.30673602 0.41276374 0.03675833
0000b0 24 aa 73 bd 68 11 e9 bd 61 a7 ab be cc fd 9c 3d
       -0.05948843 -0.11380273 -0.33526137 0.076655954
0000c0 75 ae 8c 3e 8a 96 23 3f e1 f2 11 3e d5 63 e7 be
       0.2747685 0.6390158 0.14252807 -0.45193353
0000d0 48 08 14 be bc 7d d2 bd f3 01 fc 3d 7d 03 d4 be
       -0.14456284 -0.10277888 0.12305059 -0.4140891
0000e0 51 54 37 3f 5f a9 92 be 62 b3 13 be 13 5e 87 be
       0.7161303 -0.28644845 -0.14423898 -0.2643896
0000f0 ba 62 39 be 20 0a c5 be 72 7e 58 be f7 f0 f4 be
       -0.18104067 -0.38484287 -0.21141985 -0.47840092
000100 9e ff 86 be ce 77 27 3d d6 59 1b bd 5f 93 b5 3d
       -0.26366895 0.04088574 -0.03792747 0.088659994
000110 25 b8 8d be c8 a4 31 3e a8 70 9a bf 9d 41 99 3e
       -0.27679554 0.17348015 -1.206563 0.2993287
000120 b2 57 c4 3e ce 01 22 3e 18 eb 0e 3f 5f a6 cc 3e
       0.38348156 0.15821001 0.55827475 0.3997068
000130 cc ad d7 be f5 64 57 be 65 d3 6e 3f e5 ea fe 3e
       -0.42124784 -0.21034606 0.9329131 0.49788585
000140 9c c4 11 3c 84 9e 19 be 2c 12 9c 3e df b9 88 3e
       0.008896973 -0.15001875 0.30482614 0.26704308
000150 a6 23 30 3c 16 29 88 be 04 a0 5c be b6 2b 08 3f
       0.010750687 -0.26593846 -0.21545416 0.531917
000160 9e 19 56 3f e1 03 b8 be ff aa 99 be 5a 0e a3 3e
       0.8363284 -0.3594046 -0.30013272 0.31846887
000170 6b 7b 97 3d d9 02 1a bf 88 75 5a be 5a 18 12 bf
       0.07396587 -0.60160595 -0.21333897 -0.5706841
000180 d9 ec 7b 3b dd e7 3a 3e ca 7c 05 3f 00 c5 69 be
       0.0038440733 0.18252511 0.5214354 -0.22829056
000190 35 c8 a5 be 23 16 d5 3e 79 24 cf 3e 1b fa 53 3e
       -0.32379308 0.4161845 0.40457514 0.20700876
0001a0 7e 74 9d 3c c4 58 50 be 80 2a ad be c7 d5 11 bf
       0.019220587 -0.20346361 -0.33821487 -0.56966823
0001b0 91 68 d5 3c 17 f5 2a 3f cb e4 a9 bd 94 53 89 3c
       0.026050838 0.6678023 -0.08295592 0.016763486
0001c0 e7 f4 59 bf 69 f6 c7 3e 40 e9 e0 3d b2 a8 28 3e
       -0.85139316 0.39055184 0.10981989 0.16470602
0001d0 1b fe 1b 3e c5 17 16 3f 5e b0 f8 bd 63 cc 1d be
       0.15233652 0.5863002 -0.12143014 -0.15409999
0001e0 e7 bd 06 3f 78 77 b8 3e 56 bb 91 3e 0e 87 33 be
       0.5263352 0.36028647 0.28463238 -0.17531988
0001f0 5a 6f 8b 3e 9d 95 4c bd
       0.27233392 -0.04994737

linear2.bias f4 [6]
000000 ab 06 cb be 5b 88 50 3e 25 79 dc bf 67 7a 94 3e
       -0.39653525 0.20364515 -1.722447 0.28999636
000010 13 55 29 3f 7e 36 91 bf
       0.6614544 -1.1344755
