A3TGCN2_Checkpoints/Epoch_24.pth (torch, 35255 bytes, 17 tensors)

tgnn._attention f4 [16]
00000000: 543f b53f e2e6 6b3f 1b63 123f f831 64bd
00000010: 8177 7f3e 122d febd 3060 16be 1e17 c23e
00000020: d95a 443e cd4d 0d3e f411 983e 2d30 ee3e
00000030: 9c8e cf3e 0700 2c3f 445f 553f fafd a33f
1.4159951 0.92149174 0.5718247 -0.055711716 0.24947931 -0.1241094 -0.1468513 0.37908262
0.1917528 0.1379921 0.29701197 0.4652113 0.4053849 0.6718754 0.8334849 1.2811882

tgnn._base_tgcn.conv_z.bias f4 [32]
00000000: 0afd 003f 7af7 f73e 00f8 093e 2e6e 40bd
00000010: cfab c7bd b725 b9be fc64 fbbe 8160 01bf
00000020: 9e6c 0e3f 79d4 083f b2f5 10bf ec90 07bf
00000030: b904 ac3d 3ddb 863d c9aa fb3e f286 f73e
00000040: e391 07bf d0aa 0e3f 07f5 a13e a986 103f
00000050: 69dc 043f 735b 03bf 93f0 06bf 0ce9 fe3e
00000060: ee77 ddbe f084 f4be 4711 e1be f679 db3e
00000070: 3ad8 e23e 8a4f 8dbe 7e28 9d3e 1cf8 023f
0.50386107 0.48430997 0.1347351 -0.046980076 -0.09749567 -0.36161587 -0.49100482 -0.5053788
0.55634487 0.5344921 -0.566249 -0.5295551 0.08399338 0.06584785 0.49153736 0.48345143
-0.5295698 0.5572939 0.31632254 0.56455475 0.5189882 -0.51311415 -0.5271084 0.49787176
-0.43255562 -0.47757673 -0.43958494 0.42866486 0.44305593 -0.27599746 0.30694956 0.51159835

tgnn._base_tgcn.conv_z.lin.weight f4 [32, 3]
00000000: ac5e 4cbe 644d c6be 5f26 c1bf f776 813e
00000010: 08f5 08bf 1837 64bf c7cc 06bf 5ec7 a43e
00000020: 8e7c 1ebf befa 6cbe 069e 3f3f 6ca2 a23f
00000030: c094 d83e 69f2 efbe 32fd 223d 44c8 1abe
00000040: 9b0b 093f de1c d23f 56e8 b9be 920d 30bd
00000050: 086c 89be 9219 81bd 59b3 a23e 770b 8e3f
00000060: 7a0f 513e 0d85 0bbf 74f5 92bf 5d22 a83e
00000070: e102 59bf b573 9bbf 86a4 123e 4d7a 0a3f
00000080: 2cb6 473f 00f9 c2be 9553 0f3f b27d 383f
00000090: 3844 51be e0d3 063f 545e b1bd 2003 4cbf
000000a0: 2866 713d 4ae6 5c3e 143e 9e3e b3d7 01bf
000000b0: 5cb8 81bf 1843 07bc 42c2 a4be c20b d2bf
000000c0: 7472 07be fb2b ec3e 38fb 4f3f 97e3 0b3e
000000d0: c192 2fbf 1adb ccbf f949 e6be c9bc 53be
000000e0: 8902 2c3d d6f5 fcbd 62f5 ffbe 794f c5bf
000000f0: 8593 b33e 65f3 f9be cec6 59bf 6e65 f1bd
00000100: d091 cc3e 53bb fb3e ff47 86be 97be 4c3f
00000110: 8441 ba3f f440 093e 60da 84be 48dc c6bf
00000120: 4c6a 643e e517 303e 1d0d 9f3f d5b0 1b3e
00000130: e442 003e 6af9 973f c265 fb3e 5962 9f3e
00000140: b508 313f b936 f4be ba04 cebe f778 1cbf
00000150: c070 f53d 07f3 bdbd 22dc 6ebf 4c0e 353f
00000160: 743d 7b3f 3d71 a43f 6ff4 10bd 9385 a2bf
00000170: 0012 8bbf ad2c 0b3b 1620 07bf 8ebb 9abf
-0.1995799 -0.3873092 -1.5089835 0.25286075 -0.5349889 -0.89146566 -0.52656215 0.32183355
-0.61908805 -0.23142526 0.748505 1.2705817 0.42300987 -0.46864632 0.039792247 -0.15115458
0.53533334 1.641506 -0.3631007 -0.04298169 -0.26840234 -0.06303705 0.31777456 1.1097249
0.2041606 -0.54499894 -1.1481156 0.32838717 -0.8477002 -1.2144686 0.14320573 0.54092866
0.7801235 -0.38080597 0.5598691 0.72066796 -0.2043618 0.52667046 -0.0866057 -0.7969227
0.058935314 0.21572223 0.30906737 -0.50719756 -1.0134387 -0.0082557425 -0.32179457 -1.6409838
-0.13227254 0.46127304 0.81242704 0.13661037 -0.68583304 -1.6004364 -0.44978312 -0.20677485
0.041994605 -0.12351577 -0.499919 -1.5414878 0.35073486 -0.48818508 -0.85068977 -0.11786924
0.39954996 0.49166355 -0.26226804 0.7997832 1.4551244 0.13403684 -0.25947857 -1.5535975
0.22306174 0.17196615 1.2425877 0.15204175 0.12525517 1.187299 0.49101073 0.3112972
0.6915391 -0.47698 -0.4023798 -0.6112208 0.11984396 -0.092748694 -0.93304646 0.7072494
0.98140645 1.2847058 -0.03538936 -1.2697014 -1.0864868 0.0021236346 -0.52783334 -1.2088487

tgnn._base_tgcn.linear_z.weight f4 [32, 64]
00000000: eff9 67bf bcaf 30bf c427 3b3e 128f 4c3f
00000010: e9ed 2ebe 1d7c 673f 9c40 333e d23f b13e
00000020: afa2 43bf 0683 9cbf 9a67 b13f fa18 173f
00000030: c671 3c3d bfdc f8be 303b 2ebf 235a 29bf
00000040: 8b31 463f e740 9fbf 7931 1abf 1639 afbf
00000050: daed ecbe fc73 293f 64fc a13f efb2 a7be
00000060: 0f8d d13e 58f1 903e 06c7 603f 17f4 8dbf
00000070: b32c 80be b6ab e63e 2550 41bf 5d23 97bf
00000080: a8db a53c 04c7 643d 3064 373d a489 103d
00000090: 888e bd3c 3891 b7bc 7ce0 ea3d 581b 94bc
000000a0: 8c34 60bd f8df 9d3d 3c5e 3dbd ce22 ec3d
000000b0: f090 e23d 9ea1 abbd 904a d2bd 2060 27bd
000000c0: 3e22 a53d bc91 d2bd 02f5 8a3d 2820 febd
000000d0: 1015 c3bc 1cae 06bd 502e 593c 7cc9 ce3d
000000e0: 880a b4bd 802f 073b 6011 c83b 70c1 56bd
000000f0: 0029 0d3c ca87 b83d e4a6 9cbd 0c02 a23d
00000100: e33b 17bf 7f95 8cbe e683 06bf 70d2 293f
00000110: 8dbb 443e d164 a83f 910a 513d 35a4 923e
00000120: 3602 61be 96f7 06bf 7a74 ecbb 0462 713e
00000130: adb9 90be 23a9 603f 5524 b4be acfb 23bf
00000140: 0994 10bd 2a8b 57bf 5044 c63e 978a 25bf
00000150: 2d4c 00be d11c c3bc 678e 2a3f 66a8 e5be
00000160: e7d7 b63e 927d b93e f990 df3c c4e9 193e
00000170: 3eb1 b1bd 269c d53e 80cf 26bf b195 dfbe
00000180: d2cf bf3d 4cda 5c3d c259 97bd 42ab 8ebd
00000190: 9040 e23c f8e8 103d c697 873d 0e66 bbbd
000001a0: eea7 f63d 2047 c9bc 5c9b 333d 646d 5bbd
000001b0: 3835 433d 82a0 da3d 724d b8bd 8027 393c
000001c0: 90f5 7a3c 30ae 93bc d46a 0cbd 5030 c63c
000001d0: d074 bd3c 789f 51bd 5c65 353d da7b d53d
000001e0: 3811 fa3c 36a7 82bd e8b3 99bc bc99 03bd
000001f0: b28e ff3d 7af1 84bd 2eab 993d 469f febd
00000200: 58e1 373d 28b3 f1bd b087 59bc 9a9d c1bd
00000210: b817 d1bd e059 b73c 76cc be3d c00a ba3d
00000220: 048f 59bd 34bb 14bd 688b abbc 80c7 5cbb
00000230: 588b a7bd 80f1 8dbb 8af4 983d 4a9a d63d
00000240: 34cf c43d 50e5 78bd 643b 963d 0814 883d
00000250: 0035 dc3d 3cbe 06bd 7258 c3bd 70a1 6c3c
00000260: 3647 853d 88a4 e7bc f061 1e3c 5824 93bc
00000270: 8aba d9bd 5c10 173d d8d9 023d 009d 2a3b
00000280: 9ac3 d4bd 14e1 4c3d 40d3 9f3b b0ab e1bd
00000290: b2e0 ddbd 60b8 603c 1065 723c f0da 233c
000002a0: 7a21 823d 0024 1bba faf7 f33d 0cc8 11bd
000002b0: f036 91bd 4666 b3bd 805b 7abd d085 f63d
000002c0: 46ac 803d f411 3cbd f8aa acbd c033 09bc
000002d0: c43e b23d a0fd f73d 264b e9bd 309b 6fbd
000002e0: 523d d4bd 18a8 bcbc c83d 93bc e8c6 e63d
000002f0: 1c1a f63d dc2b ec3d cc32 4cbd 20c0 5ebd
00000300: d7c0 54bf 4bf2 0ebf 1817 a13e fad4 9b3e
00000310: 17b0 fdbe 692f a03f af48 d5bd 0dcc 343e
00000320: 2c74 fcbe fed8 8ebf f85d 4c3f 4776 b13e
00000330: be75 203f 79af d7be 659e bbbe 45bf c8be
00000340: 70e3 af3e 0e3f 6fbf 99ae d4be 6548 44bf
00000350: 27f9 d3be b941 d13e 6ed5 ad3f 0110 3cbd
00000360: e53b 263e 3cec 163b 8b26 443f 4c00 9abf
00000370: 7f30 963d d410 7d3f 33b5 d5bf 3910 66bf
00000380: 4850 603d bae9 b0bd 48fa b4bd 60d5 4e3d
00000390: 48db 3cbd 20e6 403d aa9e c63d 108f 38bd
000003a0: f089 99bc 0ef6 c8bd 1c53 c6bd 20dd 883c
000003b0: 08a9 c43c 8edb cbbd 423c d3bd 3cbe 843d
000003c0: 606c 9fbb 0a32 d93d 5a11 da3d c880 1e3d
000003d0: c042 7fbc 2c94 433d 24cc b23d d22d ec3d
000003e0: 44d3 c03d 9c27 d7bd 00e2 85bd da41 f4bd
000003f0: a4a6 e0bd e0a5 603c 8c85 f53d 9880 0a3d
-0.90615743 -0.6901815 0.18276888 0.7990581 -0.17082943 0.90423757 0.17505115 0.34619004
-0.7642011 -1.2227485 1.3859742 0.59022486 0.04600694 -0.48605916 -0.6805906 -0.6615316
0.77419347 -1.2441682 -0.6023174 -1.3689296 -0.46275216 0.66192603 1.2655149 -0.32753703
0.40927932 0.2830913 0.87803686 -1.1090115 -0.25034103 0.4505288 -0.75512916 -1.1807667
0.020246342 0.05585386 0.04477328 0.035287514 0.023139253 -0.022408113 0.11468598 -0.018079445
-0.054737613 0.07708734 -0.046232447 0.11530076 0.11062801 -0.083804354 -0.10268128 -0.040863156
0.08063172 -0.10281703 0.06785013 -0.12408477 -0.023813754 -0.032880887 0.013255671 0.10097024
-0.08791071 0.0020627677 0.006105587 -0.05243057 0.008615732 0.09010275 -0.07649019 0.07910547
-0.59075755 -0.27457806 -0.5254501 0.6633673 0.1921217 1.3155767 0.051035468 0.28640905
-0.219735 -0.52721536 -0.0072160335 0.23572546 -0.2826666 0.8775808 -0.3518397 -0.64055896
-0.035297427 -0.8419672 0.38723993 -0.64664596 -0.12529059 -0.023817452 0.6662354 -0.4485504
0.35711595 0.36228615 0.027290808 0.15030581 -0.086763844 0.41720694 -0.6516037 -0.43668893
0.093658105 0.05391912 -0.07390167 -0.069662586 0.027618676 0.035378426 0.06620745 -0.09150325
0.12043749 -0.024570048 0.043849334 -0.05357112 0.047658175 0.10675146 -0.089991465 0.011300921
0.015317336 -0.018027395 -0.034281567 0.02419296 0.02312699 -0.051177472 0.044286117 0.104240134
0.030525789 -0.06379549 -0.018762544 -0.032129034 0.12478389 -0.064913705 0.07503353 -0.12432723
0.04489264 -0.118017495 -0.013276979 -0.09453888 -0.10209602 0.022381723 0.093163416 0.09084082
-0.053114906 -0.036311343 -0.020940498 -0.0033688247 -0.081808746 -0.0043317676 0.07468517 0.10478647
0.09609833 -0.060765564 0.073355466 0.06644446 0.107522964 -0.032896265 -0.09538354 0.014442787
0.06507723 -0.028276697 0.009666905 -0.017961666 -0.10631283 0.036880836 0.031946033 0.002603352
-0.103888705 0.05001934 0.004877478 -0.11019075 -0.10833873 0.013715833 0.014794603 0.010000929
0.063540414 -0.0005918145 0.11912532 -0.03559117 -0.070905566 -0.087597415 -0.061122417 0.120372415
0.062828586 -0.04591556 -0.08431047 -0.008374155 0.08703378 0.12108922 -0.113912866 -0.058497608
-0.103632584 -0.023029372 -0.017973796 0.11268407 0.12016699 0.11531803 -0.04985313 -0.054382443
-0.8310675 -0.5583846 0.31462932 0.30435926 -0.49548408 1.2514468 -0.10414254 0.17655964
-0.49307382 -1.1159971 0.79830885 0.3466055 0.6267966 -0.42126063 -0.36644283 -0.39208427
0.3435321 -0.9345559 -0.41539457 -0.76672965 -0.41401026 0.40870455 1.3580759 -0.0459137
0.16233785 0.002302899 0.7662131 -1.2031341 0.07333469 0.988538 -1.6695923 -0.89868504
0.054764062 -0.0863833 -0.088368 0.05049646 -0.04610756 0.047094464 0.096982315 -0.04505831
-0.018742532 -0.09812556 -0.096838206 0.016707003 0.024006382 -0.09953986 -0.10314228 0.06481597
-0.004865214 0.10605247 0.10647841 0.038697034 -0.015579879 0.04774873 0.08730343 0.11532177
0.09415296 -0.10505602 -0.06537247 -0.11926623 -0.10969284 0.013711423 0.11988363 0.033814043

tgnn._base_tgcn.linear_z.bias f4 [32]
00000000: a635 e9be 6b93 933e fa09 f23d b969 71bc
00000010: 832b e8be dcf8 6bbe 2abf b3be a91d 7d3c
00000020: 0fd3 ecbe 801c 2dbc 7e7d ecbe d41c e7be
00000030: 7a38 0ebf 6b90 01bf c011 c0bb 336e 8c3d
00000040: 1c2d 793d 7850 e3bd 61db f1be 260e d0be
00000050: a6d8 a7be f3cb c03e b9e4 b3be 82a9 02bf
00000060: 278e 773e b46a d2be b4ad 423d 6bb5 4ebe
00000070: 0d4d 433e 8b6f f2be 783c f53d fbc3 b1be
-0.45548743 0.28823408 0.11818309 -0.014734679 -0.45345697 -0.23044151 -0.35106784 0.015448966
-0.46254775 -0.010565877 -0.46189493 -0.45139182 -0.55554926 -0.5061099 -0.005861491 0.06856956
0.060834035 -0.110993326 -0.47237685 -0.40635794 -0.32782477 0.376556 -0.3513544 -0.510399
0.2417532 -0.41097033 0.047528937 -0.20186393 0.19072361 -0.47350726 0.11974424 -0.34719834

tgnn._base_tgcn.conv_r.bias f4 [32]
00000000: 0000 0000 0000 0000 0000 0000 0000 0000
00000010: 0000 0000 0000 0000 0000 0000 0000 0000
00000020: 0000 0000 0000 0000 0000 0000 0000 0000
00000030: 0000 0000 0000 0000 0000 0000 0000 0000
00000040: 0000 0000 0000 0000 0000 0000 0000 0000
00000050: 0000 0000 0000 0000 0000 0000 0000 0000
00000060: 0000 0000 0000 0000 0000 0000 0000 0000
00000070: 0000 0000 0000 0000 0000 0000 0000 0000
0.0 0.0 0.0 0.0 0.0 0.0 0.0 0.0
0.0 0.0 0.0 0.0 0.0 0.0 0.0 0.0
0.0 0.0 0.0 0.0 0.0 0.0 0.0 0.0
0.0 0.0 0.0 0.0 0.0 0.0 0.0 0.0

tgnn._base_tgcn.conv_r.lin.weight f4 [32, 3]
00000000: 1ebb 2d3e 40d1 19bd 6891 6d3d 5b84 9d3e
00000010: 6687 95be c04b a5bc 28c7 0fbe 9a12 90be
00000020: 6474 c03d e0df 343c 5c84 c53d 074d a83e
00000030: a765 90be a018 1dbd 640a e9bd 9b2c 803e
00000040: 3455 8fbd 844f b9be a06e af3c a21e 073e
00000050: be3e 253e 54d1 cebd f2a1 173e a85e 8c3d
00000060: d633 4e3e 72bd 763e 1a6a 3bbe a03f 90be
00000070: 9c42 bb3d 3a99 6e3e 2204 133e cc30 3dbe
00000080: 490b 9cbe 6cbb bb3d 8f6c 8f3e 771b 3ebe
00000090: 0252 73be bf7d a03e 9dc9 c0be 8fcd 9d3e
000000a0: 6017 08bc 5ccb fa3d cc3e 17be d0fe 81be
000000b0: 53d9 c93e 8665 2a3e 7434 a7bd e294 77be
000000c0: 5d26 9a3e c18d 35be 5e6c 7b3e c6ee 293e
000000d0: b4d3 8abe fa16 2e3e e086 5fbc 79e0 8c3e
000000e0: 9de2 34be 980f bebe 5078 c9be 36b8 73be
000000f0: 7766 903e b296 7ebe 28c4 c8bd a0f8 0bbc
00000100: 80a3 1dbb 80a1 a0bd 44de 78be 74ab 90bd
00000110: 1e1f 9fbe 0f98 b5be fee6 773e e084 59be
00000120: aea8 773e 4790 47be ba2c 3d3e 640f 96bd
00000130: 3080 1fbe b674 3d3e 2e64 1e3e 1c08 bd3d
00000140: 80b5 543b c879 84bd 35fa cdbe 58e8 95bd
00000150: 6d45 b13e 9170 963e 94ee bf3d f253 4b3e
00000160: 50f6 4fbd 5e6d 83be 79b0 36be 92cd 303e
00000170: 099f cd3e 963f 143e 7025 78bd d693 b6be
0.16965911 -0.037553072 0.058 0.30765042 -0.29204863 -0.020177722 -0.14040816 -0.28139192
0.093972 0.011039704 0.09644386 0.32871267 -0.28202555 -0.038353562 -0.11378935 0.2503403
-0.06998673 -0.36193478 0.021415055 0.13195279 0.16137215 -0.1009852 0.14807871 0.06853992
0.20136961 0.24095705 -0.18302193 -0.28173542 0.09143564 0.23300639 0.14357045 -0.18475646
-0.3047736 0.09166607 0.2801251 -0.18565165 -0.23761752 0.31345937 -0.3765382 0.3082089
-0.008306354 0.12245819 -0.14770049 -0.2538972 0.39423618 0.1664029 -0.081643015 -0.24177888
0.30107394 -0.17729856 0.24553058 0.16594991 -0.27114642 0.17000952 -0.013642997 0.2751501
-0.17664571 -0.37121272 -0.39349604 -0.2380074 0.28203174 -0.24862173 -0.09803039 -0.008543164
-0.0024053752 -0.07843304 -0.24303538 -0.07063952 -0.31078428 -0.35467574 0.2420921 -0.21242094
0.2418544 -0.19488631 0.18474093 -0.07327154 -0.15576243 0.18501553 0.15467903 0.09230062
0.0032456815 -0.064685404 -0.40229955 -0.07319707 0.3462328 0.29382756 0.09371677 0.19856241
-0.05077201 -0.25669378 -0.17840756 0.17265919 0.40160397 0.14477381 -0.06058258 -0.35659665

tgnn._base_tgcn.linear_r.weight f4 [32, 64]
00000000: f80b 97bd 98e4 ea3c e87f 03bd 2e96 febd
00000010: e8bb c33c 2027 473d 5263 cb3d ac55 65bd
00000020: f223 ad3d a236 e1bd 40a9 dd3c 9808 ab3c
00000030: 1260 bcbd e4ed 763d 460d e23d 345a 80bd
00000040: 0846 2fbd 6010 943c f402 b73d 4662 8ebd
00000050: a45e 43bd 6438 373d c01a 273d 88c2 723d
00000060: e453 cc3d dc06 e83d 4c7b b63d c840 6b3d
00000070: ee84 933d 3c83 993d e228 e1bd 80d1 8f3b
00000080: 22af d6bd c022 bc3c b078 5b3d 5803 72bd
00000090: 5a66 df3d 70f3 613d c08c 5f3d 30be 303c
000000a0: e4a9 70bd 0889 ca3c 6a73 8e3d b43a c73d
000000b0: a8c8 d23d 9a7f 8c3d 5ea0 a03d 74fc 8dbd
000000c0: a022 9ebc 9409 17bd a427 a73d 1efa b7bd
000000d0: e8f0 cf3d 40ec 98bc cc6f f23d 14a5 223d
000000e0: 0057 c73d 0471 0bbd 94a1 d23d fa8d a4bd
000000f0: 3075 7b3c 00dc 143b 0e96 f93d ec00 023d
00000100: 8053 26bd 6e77 9abd 0c4a c63d 4cf4 58bd
00000110: 0870 96bd e61c fbbd 506e 36bc ecce cabd
00000120: 585e babc e249 88bd 386a fc3d 4685 9cbd
00000130: 3030 ad3d b836 e93d 680e a33d f827 8bbc
00000140: f87c d4bc 4cc4 cb3d c8da 9e3d 34f3 13bd
00000150: 5238 ff3d 5c6e babd caf6 a13d 2044 9bbb
00000160: 209d 283d eaaf e43d 5e53 ee3d 78a6 bcbc
00000170: 54c6 a7bd 0432 bd3d 048e c13d f630 b83d
00000180: 26b8 9b3d 6894 423d d0d5 b23d c6f0 d1bd
00000190: a0c5 1e3d 042d fa3d 2225 a73d 7441 093d
000001a0: 9038 f2bd 7875 f23d 0a1e 93bd 0a00 cbbd
000001b0: 9639 c13d 543c 55bd 945e 433d 1c2e 1b3d
000001c0: 50f1 323c 2c6e 39bd 32d5 d3bd 74b7 f73d
000001d0: 2846 84bc b83b 7d3d 2069 cbbc c69c ed3d
000001e0: acea d43d 06fd 9fbd 92d6 f6bd fce4 0e3d
000001f0: 906d 1abc f8ba b2bc 9437 fcbd 28fd c2bd
00000200: 1846 5f3d e067 64bc e843 c33d 7a95 923d
00000210: e0f5 3f3d c099 a53c a8f0 a9bc 3069 a73c
00000220: 9af1 b83d 1c4b 19bd 248a 803d ac82 9b3d
00000230: 04a0 af3d c01c 45bb debe dfbd b07d 5d3d
00000240: 26d7 f53d 98ab 9c3c dcaa 40bd 2066 ce3b
00000250: d43b 36bd 80fe 9bbb e6e8 8bbd e0ff 1fbd
00000260: d4e5 123d 9024 a7bc 0879 a3bd b06e 8bbd
00000270: e0f1 c73c 609b b6bd 0c82 c83d de62 aa3d
00000280: 50d6 0cbc 403e 593d 6cdc a1bd bc82 b13d
00000290: e08e 77bd a8af ecbd 1065 63bd 10e7 8f3d
000002a0: 8c12 02bd c0a6 f7bb 7004 a4bd 8243 9b3d
000002b0: 8cb6 fcbd 04e2 103d 641e e8bd 3c00 b03d
000002c0: 58c3 133d 7472 70bd 0044 4c3b 689f d6bc
000002d0: f8fb 6ebd d41a e03d 0452 e0bd 0060 00bc
000002e0: 48fc e33d a063 e33c 64f0 d1bd a0b8 e0bd
000002f0: 808c d83b ece7 3c3d f84f 3bbd ee57 b0bd
00000300: 8052 fe3a 7ce9 123d 5498 cfbd 1224 bcbd
00000310: c087 913c fc43 a5bd e8d9 eabc cc4f 66bd
00000320: 64f2 7d3d e498 ba3d 3e55 f9bd 0609 f53d
00000330: c295 ef3d 30aa e4bd 9e92 a33d 603d 04bd
00000340: ac90 1abd 7821 843d ce21 9d3d c86f 89bc
00000350: 3248 fb3d 6413 dabd 9813 dcbc c86e 77bd
00000360: 7cb8 e0bd 203f ff3d 144a bbbd 6cc1 b5bd
00000370: cc0a babd 94fa 8e3d 7899 cabd 60e5 c43c
00000380: 12a9 ba3d 04c4 233d c0e1 f4bc 1abf a5bd
00000390: 54c6 ce3d fc0f 64bd 60f9 d4bc 2288 a33d
000003a0: 8494 6fbd ae87 ab3d 38b0 ecbd eae0 913d
000003b0: 1448 773d 20f6 fc3c 401b a53c 40a5 2abb
000003c0: 9cde 073d 6455 a2bd 2c6b c6bd 2e55 94bd
000003d0: e450 6ebd 9ce2 783d 4467 bfbd b8e2 b63c
000003e0: 98d7 80bc 182b 8bbc 80c6 b63c e88d cebc
000003f0: f2cf 993d 9862 0bbd ac9b bcbd 804f 7c3c
-0.0737533 0.028673455 -0.032104403 -0.12430988 0.023893312 0.048621297 0.09931053 -0.055989906
0.08454122 -0.109967485 0.027058244 0.020878121 -0.091980115 0.060285464 0.11037688 -0.06267205
-0.042791396 0.018074214 0.0893611 -0.06952338 -0.04769768 0.044731513 0.040796995 0.05926755
0.09976938 0.11329433 0.08910236 0.057434827 0.07203089 0.07495734 -0.10994126 0.004388988
-0.10482623 0.022965789 0.053581893 -0.05908522 0.10908194 0.0551638 0.05457759 0.010787532
-0.05875577 0.024723545 0.06955607 0.097279936 0.102921784 0.068602756 0.078430876 -0.06932917
-0.01930362 -0.03687437 0.08161858 -0.08983253 0.10153371 -0.01866734 0.1183773 0.039708212
0.09733391 -0.034043327 0.10284725 -0.080348924 0.015347764 0.0022714138 0.12186824 0.03173916
-0.040606976 -0.07542311 0.09682092 -0.052967355 -0.07345587 -0.12261371 -0.011134699 -0.099027485
-0.022750065 -0.06654717 0.12324947 -0.076426074 0.08456457 0.1138739 0.07961732 -0.016986832
-0.025938496 0.0994955 0.07756573 -0.03612061 0.12461914 -0.09103081 0.079083994 -0.0047383457
0.04116547 0.111663654 0.11636995 -0.023028597 -0.08192125 0.09238055 0.094509155 0.089937136
0.07603483 0.047504812 0.08732188 -0.10251002 0.03876269 0.12215617 0.081613794 0.033509687
-0.11827195 0.11838812 -0.07183464 -0.09912117 0.09434812 -0.052059487 0.04769762 0.03788577
0.010921791 -0.045271084 -0.10343398 0.12095538 -0.016146734 0.06182453 -0.024830401 0.11602168
0.103963226 -0.07811932 -0.12052645 0.034886345 -0.009425536 -0.02181767 -0.12315288 -0.09520942
0.054510206 -0.013940781 0.095344365 0.07157417 0.046865344 0.020214915 -0.020744637 0.0204359
0.09030457 -0.037425146 0.06276348 0.07593283 0.085754424 -0.003007695 -0.10925077 0.054074943
0.12003927 0.019124791 -0.047037944 0.0062987953 -0.04449065 -0.0047605634 -0.06831531 -0.03906238
0.035863712 -0.020403177 -0.07982069 -0.06808221 0.024407327 -0.08916354 0.097904295 0.08319639
-0.008596018 0.05303788 -0.0790337 0.08667514 -0.06043899 -0.11556941 -0.055516303 0.070264935
-0.03175597 -0.00755772 -0.08008659 0.075812355 -0.123395056 0.035371795 -0.113339216 0.08593795
0.036074966 -0.0587029 0.003116846 -0.026199058 -0.058345765 0.10942617 -0.10953143 -0.007835388
0.11132103 0.027757466 -0.10250929 -0.109727144 0.006608546 0.046119615 -0.04573056 -0.08610521
0.0019403249 0.0358672 -0.10136476 -0.09186567 0.017764926 -0.080696076 -0.028668359 -0.056228444
0.06199874 0.09111193 -0.12174462 0.11964612 0.11698486 -0.11165273 0.079869494 -0.032285094
-0.037735626 0.06451696 0.07672463 -0.016776934 0.122696295 -0.1064823 -0.026864812 -0.060408384
-0.109726876 0.12463212 -0.09144989 -0.08874783 -0.090840906 0.06981388 -0.09892553 0.024035156
0.09114279 0.039981857 -0.029892802 -0.0809309 0.10096422 -0.055679306 -0.025997818 0.0798495
-0.058491245 0.08375488 -0.115570486 0.07122977 0.060371473 0.03087908 0.020154595 -0.0026038438
0.03317128 -0.07926443 -0.0968841 -0.07242809 -0.058182612 0.060762987 -0.09345868 0.022324905
-0.015727803 -0.016988322 0.022311449 -0.02521415 0.075103655 -0.034029573 -0.092093796 0.015399814

tgnn._base_tgcn.linear_r.bias f4 [32]
00000000: 1c8a 973d 4e00 d0bd 9435 7abd b0a5 4d3d
00000010: f215 883d 0060 6ebc e4de 8b3d f05d 193c
00000020: c0bf 1abb d44e f9bd 780b f2bd 3cce df3d
00000030: 08e4 543d 3eb9 edbd 54b4 703d 1c26 37bd
00000040: b067 193d 723e 8a3d 587a 083d f0b9 9cbc
00000050: ae30 b5bd d841 393d 3077 57bd ecb9 d9bd
00000060: feda d5bd 2c38 673d fc8f fe3d 00b3 7e3a
00000070: 2a6b ca3d b09b 133d b64d 843d 2240 8d3d
0.07399389 -0.10156308 -0.061086252 0.05020684 0.06644811 -0.014549255 0.068296224 0.009360775
-0.0023612827 -0.121732384 -0.11818594 0.10928008 0.05197528 -0.11607598 0.058765724 -0.04471408
0.0374524 0.06750192 0.0333198 -0.01913163 -0.088471755 0.04522881 -0.0526039 -0.10631165
-0.1044216 0.056450054 0.124298066 0.0009716004 0.09883721 0.036037147 0.06460135 0.06896998

tgnn._base_tgcn.conv_h.bias f4 [32]
00000000: 0846 a23e a430 4d3d 9076 43be bce6 a4bd
00000010: 73bd 0d3e d3e1 f2be 8259 7f3e 794e 863e
00000020: 0d9e ee3e 89b5 07bc 9eba 74be c0ac 173e
00000030: 2064 c4be 29f8 0d3b b3b7 073e c936 d9be
00000040: bd6c 463c 17ad 8dbe 0ead 5a3e 933d bebd
00000050: 43b2 b83d e457 ee3e 7649 9d3d 6f8b 113d
00000060: 759b 45be 822e 373e 3e2d 3cbe 5994 833e
00000070: b168 d43e 6d64 d03e bec1 4bbe 25eb 29bb
0.31694055 0.050095215 -0.19088197 -0.080518216 0.138418 -0.47437915 0.24936488 0.26231745
0.46604958 -0.008283027 -0.23899314 0.14811993 -0.3835764 0.0021662808 0.1325367 -0.4242461
0.012110886 -0.2767112 0.21355078 -0.09289088 0.09018376 0.4655143 0.07680027 0.035533365
-0.19297583 0.17888835 -0.18376634 0.25699118 0.41486123 0.4070162 -0.19898126 -0.002592751

tgnn._base_tgcn.conv_h.lin.weight f4 [32, 3]
00000000: c700 463e c7e0 2abf 7806 b03f 3d14 a8be
00000010: bb22 84bf 092f 453f 39db 81be 3074 54be
00000020: 3407 df3f 6f93 11bc aea3 793f bddf 2ebf
00000030: 9521 433e 1700 323f c550 8fbf 8433 d83e
00000040: ee29 c43e 36e8 f1be 6e88 fcbe a4bb 1cbf
00000050: 6330 043f 67cc ecbe 60fc b9be 2165 783f
00000060: 7e1c 2e3d dfa0 263f fc06 c8bd 8a99 7539
00000070: 894d 87bf f975 643f 6db8 213f cd37 c83e
00000080: 7979 88bf b735 ecbe 8d84 7fbf 081f a3bd
00000090: 8903 18bd 3fc2 2a3f 7d58 d4be 480f 153f
000000a0: 8d9e 903f e9ee 3bbe 9ecc fa3d 8fbe 1abf
000000b0: a726 ca3f 50ab 02be 9fbc c4be 0733 b6bf
000000c0: cb9a 23bf 315e 18bc 42a7 aa3f 9fb1 d5be
000000d0: 230b 4fbf 71db 34bf a41a 06be 2223 40bf
000000e0: e872 523f 495f ea3d 89cd 903f 477b 093e
000000f0: 33da 15be 60b8 84bf 89c1 88be 4a14 323e
00000100: cc09 323e 7a83 913f 0e4e 2f3f e018 833f
00000110: 68f3 a63f 6bf4 aabe ab64 6dbf 41a4 8d3f
00000120: 44ae a23e f903 123f 77cb 6ebf 6a04 f83d
00000130: 22d7 05bf f5aa bd3f 069f 2dbe 69f0 83bf
00000140: 1376 e9be f489 babe 33d9 5abe 3aa1 9d3f
00000150: 71d2 9a3c 070b b1be cb5d c03f 7faa bcbe
00000160: bb48 203f 6d27 943f d7e2 0b3f fc2d d03e
00000170: a509 9bbf c437 98bd 6ed1 8dbf de54 333f
0.19336234 -0.66749233 1.3751974 -0.3282794 -1.0323099 0.77024895 -0.25362566 -0.20747447
1.7424073 -0.008885249 0.9751538 -0.6831015 0.1905578 0.6953139 -1.1196524 0.42226803
0.3831324 -0.47247475 -0.49322838 -0.61223817 0.5163633 -0.46249697 -0.3632536 0.9702931
0.04250764 0.6508922 -0.09766957 0.00023422219 -1.0570537 0.8924251 0.63172036 0.39105073
-1.066207 -0.4613473 -0.9981163 -0.07964903 -0.037112746 0.66702646 -0.4147376 0.5822644
1.1298386 -0.18352856 0.12246059 -0.6044702 1.5793046 -0.12760663 -0.38425156 -1.4234322
-0.6390807 -0.009299801 1.3332293 -0.41737077 -0.8087637 -0.7064734 -0.130961 -0.7505361
0.82206583 0.114439555 1.1312724 0.13425933 -0.14634018 -1.0368767 -0.26710156 0.17390552
0.1738655 1.1368248 0.68478477 1.0241966 1.3043032 -0.333896 -0.9273173 1.1065751
0.3177358 0.5703731 -0.9327921 0.12110217 -0.5228139 1.4817797 -0.16955194 -1.0307742
-0.45597896 -0.36433375 -0.21371917 1.2314827 0.018899174 -0.34578726 1.5028623 -0.36848828
0.6261098 1.1574532 0.54643005 0.40660083 -1.2112318 -0.074325114 -1.1079538 0.7005137

tgnn._base_tgcn.linear_h.weight f4 [32, 64]
00000000: a755 ccbe 8d2b 4fbf 543d f6be 86df 953f
00000010: 6b11 4e3f f508 cb3e d935 45bf 7c43 28bf
00000020: 3ea3 003f e349 88bf 223e 173f 5bc7 74bf
00000030: 1bac a93e c64f 463f 57ed 0abf aad9 c0be
00000040: 1df8 fdbe aa48 08bf 5097 3ebf f39c 973f
00000050: 245d 6bbf cdfc 473e 3a15 023f bebc 85bf
00000060: 1f8d 303f 06b8 acbe ec2b 3cbf 50ab d7be
00000070: d163 9fbd 2eeb ba3e 2799 053f 834d 75bf
00000080: 0ee0 84bd 6a56 b33d 129d a43d acf0 7fbd
00000090: 7ca2 1cbd 9ea3 9cbd 569c ec3d 4853 60bd
000000a0: 0058 793d 2451 12bd 7e2b c83d 381a d33d
000000b0: 8a11 c53d 286d 983c 50c9 473d 5891 c03c
000000c0: 087b dabc d857 57bd a0c0 eb3b 02f3 9cbd
000000d0: 4411 b8bd b2cb aebd 4c60 6e3d d0ae 1fbc
000000e0: 248c e63d fc9e 973d c48b 593d ac7e 19bd
000000f0: 02fd ccbd 9087 eb3d 8037 203b 86b2 e0bd
00000100: 69f3 243f d69f ae3e 3329 783e 4aca a6bf
00000110: efa2 c2be 35d9 66be cf51 b93e 1c74 e83e
00000120: f14a 37bd 7003 4e3f 72c3 6ebe 74f6 5d3e
00000130: 8186 c2be aaab 81be 328c 533f 3917 2cbe
00000140: 476e b33d 10de f03d 77d6 a23f ed2d cdbe
00000150: cd44 6d3e 1313 063e d000 533d 2546 ad3e
00000160: c2fe 2ebf 2560 373f d84b 343e d49a 1e3f
00000170: 43a6 ad3e 95ae 1abd 6377 e2be a2b6 403f
00000180: 3a4c b6bd 40ed 54bc b64b f5bd e022 ac3c
00000190: e8b9 86bd f8af 643d da34 a6bd 3c68 80bd
000001a0: 00bc d23b 6073 de3b bc88 b83d 002f acba
000001b0: 9052 3e3d dcc0 a33d 682a abbd 04bf 9e3d
000001c0: 9cd9 56bd c097 6a3c 4826 d63c 6019 c23c
000001d0: 50ce ee3c d45e 3a3d 5480 a8bd d0bb 003d
000001e0: 289a 92bc 68cc 963d c27b 90bd b0f8 213d
000001f0: 548e 5a3d ec03 54bd 6a10 a9bd 5a04 bb3d
00000200: a4d3 e53d f6ae a73d 365a c5bd e46f 3d3d
00000210: 8c63 cdbd a8b3 88bc 7ced d2bd 8896 883d
00000220: 1afb 9c3d 94c6 a33d d48d 6bbd 222b f03d
00000230: 82bb b63d c099 843c 62f1 bdbd 3088 923d
00000240: d0f8 153d 9079 0f3c aa71 fabd ba4e 97bd
00000250: 903e 73bc ee13 eabd b4cb b43d 5888 c7bc
00000260: 889d 9abc e8c4 2d3d 70e4 563d 4c92 9ebd
00000270: 98d4 9c3c d449 73bd 069d d8bd 28f2 fc3d
00000280: 5805 fb3c 704e aebd b894 8dbd 0cd7 0f3d
00000290: 5a35 eebd 509d 2fbd c440 a93d 04d3 9bbd
000002a0: f430 d23d 9c2b 283d 7aeb d3bd 38ab 573d
000002b0: 76fe f33d 74dd 4a3d 586c d23d 0062 d3ba
000002c0: 729e c0bd e487 243d a069 033d 78d5 593d
000002d0: 2861 a1bc 04a4 80bd 44bf 133d a445 c0bd
000002e0: f01a d43d 5460 54bd 44ff ffbd da2b 903d
000002f0: 2076 d13b 20f0 23bd 6408 39bd 22f0 a7bd
00000300: bd81 c73e 79b0 d23c 276e 4d3f 22fd 91bd
00000310: f75a 75be e47c f63e f394 09bd 7188 523e
00000320: ce1e 723d 65e7 ec3d 7618 f4bd 905b aebe
00000330: 581c 533e 013d 0b3e 1b3f 563f 47b5 00bf
00000340: 6fed ef3e 1a2a 85be 80ae c93d a504 723e
00000350: fecf 84be b353 b33e 57ab 983e 7ee6 203e
00000360: 53a5 e7bd 8c58 2c3f a77c 8cbe 361d 113f
00000370: fcc4 153f daca 0a3f f4b6 9cbe 9593 0bbd
00000380: 40cd 96bc 1642 ab3d 4ca1 4b3d 242a f23d
00000390: 0414 28bd 48cf 6ebd 58ed a8bc ea4c ce3d
000003a0: f616 cc3d 9cbb 83bd 5007 f03d 8257 993d
000003b0: 0829 453d 3031 65bc 024d b53d 3443 8e3d
000003c0: 0690 9c3d 4c42 163d 4806 d8bc 3287 813d
000003d0: b873 b5bd 60e3 8a3b 14aa b3bd 402f a23c
000003e0: ee2e d53d 2428 ebbd 9c7d 05bd 7685 e0bd
000003f0: 9c9e c7bd 0870 913d 0077 183b b059 6d3c
-0.39909098 -0.8092583 -0.48093665 1.1708839 0.8049533 0.3965527 -0.7703529 -0.65727973
0.5024909 -1.0647548 0.5907918 -0.9561669 0.3313912 0.77465475 -0.542684 -0.37666065
-0.49603358 -0.53235877 -0.74449635 1.1844772 -0.91938996 0.1953003 0.5081364 -1.0448225
0.68965334 -0.3373415 -0.7350452 -0.4212289 -0.0778271 0.36507553 0.52186817 -0.958214
-0.064880475 0.087567165 0.08037771 -0.062485382 -0.038240895 -0.07648395 0.11553256 -0.054766923
0.06087494 -0.035721913 0.097739205 0.10307735 0.09622486 0.018606737 0.04877597 0.023506805
-0.026669994 -0.05257401 0.0071945935 -0.076635376 -0.08987668 -0.085349455 0.058197305 -0.009746268
0.112571985 0.07403371 0.053111807 -0.03747432 -0.10009195 0.11500466 0.0024447143 -0.10971551
0.64433914 0.3410632 0.24234466 -1.3030484 -0.38014933 -0.22543795 0.36195228 0.45401084
-0.044749204 0.80473995 -0.23316744 0.21676046 -0.37993243 -0.25326282 0.82635796 -0.16805734
0.08761268 0.11761105 1.27217 -0.400741 0.23170777 0.13093214 0.051514447 0.3384258
-0.6835748 0.7163108 0.17607057 0.61955 0.3391591 -0.03776415 -0.4423171 0.75278676
-0.08901258 -0.012996018 -0.11977331 0.021012723 -0.065784276 0.05583188 -0.081155494 -0.06269881
0.0064311028 0.006788656 0.09010455 -0.0013136566 0.046465456 0.079957694 -0.08357698 0.07751277
-0.052453622 0.014318407 0.0261413 0.02369374 0.029151112 0.04550059 -0.08227602 0.031429112
-0.017895773 0.07363206 -0.07054855 0.039543808 0.05335839 -0.051761553 -0.08255084 0.09131689
0.11222008 0.08187668 -0.09636347 0.046249285 -0.10028753 -0.01668723 -0.10299203 0.066693366
0.07665081 0.0799686 -0.057508305 0.11726977 0.08922483 0.016186595 -0.09274556 0.07154882
0.03661424 0.00875701 -0.12228711 -0.07388063 -0.014846459 -0.114295825 0.08827916 -0.024357006
-0.018873945 0.042424113 0.05246395 -0.07742748 0.019144341 -0.05939658 -0.10576825 0.12350875
0.030642197 -0.085110545 -0.069131315 0.035117194 -0.1163127 -0.042874634 0.08264306 -0.076086074
0.10263243 0.041057214 -0.10347648 0.05265352 0.11913769 0.0495276 0.10274571 -0.0016127229
-0.09405221 0.040168658 0.032083154 0.053182095 -0.019699648 -0.062812835 0.036071077 -0.09388283
0.103567004 -0.05184968 -0.1249986 0.07039614 0.0063922554 -0.040023923 -0.045174018 -0.082000986
0.3896617 0.025718914 0.80246204 -0.071283594 -0.23960482 0.4814216 -0.033589315 0.20559861
0.05911141 0.115675725 -0.11918728 -0.34054232 0.20616281 0.1359749 0.8369004 -0.5027661
0.46860835 -0.26008683 0.09847736 0.23634584 -0.25939935 0.35024795 0.29818222 0.15712926
-0.1131083 0.6732261 -0.27438852 0.566852 0.585037 0.54215777 -0.30608332 -0.034076292
-0.018408418 0.08362214 0.04971437 0.11824444 -0.041034713 -0.058303148 -0.020620987 0.10073264
0.09965317 -0.06432268 0.11720145 0.07487394 0.048134834 -0.013988778 0.08852579 0.06946412
0.07644658 0.03668432 -0.026370183 0.063246146 -0.08859962 0.004238531 -0.08772674 0.019797921
0.10409342 -0.114822656 -0.032590494 -0.10962956 -0.09747049 0.071014464 0.002326429 0.014486715

tgnn._base_tgcn.linear_h.bias f4 [32]
00000000: ff47 4b3e 66d6 6c3e 327e b6bd 38d2 09bd
00000010: 1fdc 583e ad13 013f 21dc 523d 037f d9bd
00000020: 03e7 463e 78ed 133f 16cd 283e 9f15 343e
00000030: c2e7 4e3e c98e b53e b13c cfbc 0953 01be
00000040: a8ab aabd 7881 e0bc bd13 063e 3232 d33e
00000050: 24e3 ed3e 725b cfbe cf36 343e 45ba 513e
00000060: 6a2a 1a3e cc90 183f 56ef 1c3f 76b2 113f
00000070: 389c 803e 35ea 1e3e 9741 63bb 7fd7 923e
0.19851683 0.23128662 -0.089107886 -0.033647746 0.2117772 0.5042065 0.051479463 -0.10619929
0.19424061 0.57784224 0.16484484 0.17586373 0.20205596 0.354605 -0.025297495 -0.12629332
-0.08333522 -0.027405486 0.13093467 0.41249233 0.46462357 -0.40499455 0.17599033 0.20481212
0.15055242 0.5959594 0.613027 0.56912935 0.25119185 0.1551903 -0.0034676546 0.28680035

linear.weight f4 [16, 32]
00000000: ac0a a23e b8a1 dcbe 1f32 e4bd cd67 4c3f
00000010: ceb5 ae3e fa83 0dbf 64a9 733e 801f 54bd
00000020: ac87 bd3e cb41 46bf f524 8d3e 5add b83e
00000030: 5001 dd3e ecf0 86be c60f 623d ba55 bc3d
00000040: c0ce 8b3c debc e9bd 8efb 013f 6b8f 38be
00000050: def6 b7be d419 55bf 7d39 e13e 7f43 283e
00000060: 79c8 fabe e9f9 18bf ffba 1ebf 21ca 07bf
00000070: adc3 07bf 41bd 823e a8d7 a43d 577e 28bd
00000080: e9df 5a3e d36e 08bf 5c3b 2f3d 6491 2f3f
00000090: 905f 993e 51ee 0abf 0e9c 8a3e 8e46 30bd
000000a0: d249 033f e9f8 39bf 7d40 d93e e5f5 853e
000000b0: ce1f bb3e 4b1f 7fbe 2d73 e6bd b594 f03d
000000c0: 9c5a 153d 4839 62bd ed90 0a3f 621f 84be
000000d0: 4c0d eabe 8dff 6ebf e872 8c3e 5af9 fa3e
000000e0: aeea b8be f539 24bf 500e 18bf e067 15bf
000000f0: f9f1 38bf 003f 8f3e 4962 063e 3d42 143e
00000100: 65f0 023f ca9d f1be 30ae ecbd c963 1b3f
00000110: 8165 843e 02cb ecbe 18a7 053f b3f8 d6bd
00000120: 0e95 943e 4481 39bf 4791 793e 56b2 e93e
00000130: c538 a23e 6240 9ebe aeed 193d a694 6f3d
00000140: 46b9 0ebe d608 15be 7afc 923e e558 ebbe
00000150: 80e9 09bf cf7f 8bbf 6a11 ec3e b421 bb3e
00000160: 4ff2 46bf 6aeb f5be d871 1cbf 57da 2bbf
00000170: 7afb 06bf 8c0b f83e 4bea c73a 2661 6a3d
00000180: f797 ce3e acb1 22bf 605b 013c 0c0a fb3e
00000190: 3cdf c53e b63c b0be a27d 813e 3792 333d
000001a0: 525a a83e c830 3ebf 6775 c93e 676c 993e
000001b0: 8c87 c33e 14ed efbe 791e 3e3d e6dc 0fbe
000001c0: e924 343e 2a0c fd3d 801b ca3e 915a f5be
000001d0: 2497 fdbe 9581 9dbf 7e52 113f 7029 0a3f
000001e0: 45cc 2bbf e5ed 0dbf 68bb 2dbf cfab 25bf
000001f0: a472 24bf 6e81 543e 628b 36bd 2e5a 9a3e
00000200: 837c ba3e 7cf3 31bf c01f 6cbd b242 033e
00000210: ab65 ab3e 303c 01bf 5d3f de3e 58e9 b23d
00000220: 66c2 073f 26ac 23bf 10af 023f d37d c63e
00000230: e671 be3e 7f8e 72be 095c 923b 754e c2bd
00000240: 01f5 323e 0abe d63d 62e2 d63e 68bf c4be
00000250: 492b f4be abcc a3bf 5cd5 7d3e 4244 043f
00000260: 96b3 3abf 8fe5 33bf 728a 18bf c356 10bf
00000270: 6c4d 47bf 5153 3f3e 1013 da3b 05ae dd3e
00000280: bfb0 123f b4f9 45bf 25c4 2a3e c2ae d63d
00000290: 738f b03e 5256 3dbf 7a2d 063f dfe6 18bd
000002a0: 3433 913e aa0d 1ebf 16e3 823e 0ed0 cf3e
000002b0: 2ee2 133f d8fc b8be 5899 1ebc ab83 df3d
000002c0: d9c9 bfbd 10c1 09be 5fb5 8d3e d714 d3be
000002d0: 50f3 1abf f32a acbf f8cd 123f 793f 853e
000002e0: feca 2ebf fe06 1fbf 0a18 00bf fa06 f0be
000002f0: 8338 83bf 9f83 e93e 819d 8f3d 26c3 d03e
00000300: cd1c b73e 0bd1 31bf 8220 fc3d 940b eebd
00000310: e3b4 003f 112e 0abf 072b d63e c0a3 4a3d
00000320: 24ba 0a3f 63a4 09bf 9673 af3e 0ac1 023f
00000330: bb24 f53e e984 07bf b895 cfbd 4419 2abd
00000340: 2aea d4bd 722b a63d 6a88 e13e 5b91 0cbf
00000350: bc5d d0be 9bf8 b2bf 0169 8a3e 765a 903e
00000360: d295 83bf 462c 05bf fc48 22bf 61a9 16bf
00000370: f074 7ebf cb15 af3e 92a3 193d 5122 183f
00000380: 4e40 013f 89fc 85bf 30ba cfbc e174 a0be
00000390: f6f3 b43e 1f63 2abf 1407 0c3f a21f 7abd
000003a0: 0f53 003f b9f6 0cbf db9e 083f 0677 a53e
000003b0: b3d6 e93e 1303 1dbf 7554 293c 61b4 b7bd
000003c0: 587e 8dbc 3805 b2bc 7534 ad3e b2f9 18bf
000003d0: 5cbc f8be 34b7 babf 5cbd 013f 6bdd 073f
000003e0: 8d6f 4fbf 01b5 0cbf f1a4 e3be a85d c9be
000003f0: a013 85bf 8ff0 513e fd65 af3c c331 d53e
0.31648767 -0.43092132 -0.11142372 0.7984589 0.3412308 -0.55279505 0.23795086 -0.051787853
0.37017572 -0.7744414 0.27567258 0.36106378 0.43165064 -0.26355684 0.055190824 0.091960385
0.01706636 -0.11412977 0.50774467 -0.1802346 -0.35930532 -0.83242536 0.43989173 0.16431998
-0.48981073 -0.5975633 -0.62004083 -0.530428 -0.5303295 0.25535014 0.08048946 -0.041136112
0.21374477 -0.53294104 0.04278122 0.68581223 0.2995572 -0.5426989 0.27072185 -0.043036036
0.51284516 -0.7264543 0.42432013 0.26164165 0.36547703 -0.24914281 -0.11252437 0.117471136
0.036463365 -0.05523041 0.5412739 -0.25805193 -0.4571327 -0.9335869 0.27431417 0.49018365
-0.36116546 -0.64150935 -0.5939684 -0.58361626 -0.7224422 0.27977753 0.1312343 0.14478393
0.5114806 -0.47190696 -0.11556661 0.60699135 0.2585869 -0.46248633 0.5220809 -0.10496654
0.2901997 -0.7246287 0.24371825 0.45643872 0.31683937 -0.30908495 0.037580185 0.05849137
-0.13937864 -0.14554152 0.2870825 -0.4596626 -0.5387192 -1.0898379 0.46107036 0.3654915
-0.77713484 -0.4803117 -0.6111121 -0.67130035 -0.5272747 0.4844631 0.001525232 0.057221554
0.40350315 -0.63552356 0.007895321 0.49031103 0.38646877 -0.3442132 0.25291163 0.043840613
0.3288141 -0.74293184 0.39347383 0.29965517 0.38189352 -0.46860564 0.04641578 -0.1404911
0.17592205 0.12355836 0.39474106 -0.4792066 -0.49529374 -1.230517 0.567665 0.5396948
-0.67108566 -0.55441123 -0.67864084 -0.64715284 -0.6423743 0.20752499 -0.04456652 0.30146927
0.3642312 -0.6951215 -0.057647467 0.12818411 0.33476004 -0.50482464 0.43407717 0.08735913
0.53031003 -0.6393455 0.51048374 0.3876787 0.37196273 -0.2368717 0.004466538 -0.09487621
0.17476274 0.10485466 0.4196959 -0.3842728 -0.47689274 -1.2796835 0.24788421 0.51666653
-0.72930276 -0.70272154 -0.5958625 -0.5638239 -0.7785251 0.18684126 0.0066551045 0.4329683
0.57300943 -0.7733414 0.16676386 0.10482551 0.34484443 -0.7395984 0.5241314 -0.03732955
0.28359377 -0.617396 0.25563878 0.4058842 0.57767 -0.36130404 -0.009680115 0.109137855
-0.09364671 -0.13452554 0.27677438 -0.41226837 -0.60527515 -1.3450607 0.57345533 0.26024988
-0.6827849 -0.62120044 -0.5003668 -0.46880323 -1.0251621 0.4560823 0.07012463 0.40773886
0.3576416 -0.694596 0.12310888 -0.11623302 0.5027601 -0.5397654 0.41829702 0.04947257
0.5419028 -0.5376646 0.34267873 0.51075804 0.47879586 -0.5293718 -0.101359785 -0.041528
-0.10396226 0.08113755 0.44049388 -0.54909295 -0.40696514 -1.3982118 0.27033237 0.28194016
-1.0280097 -0.5202068 -0.63392615 -0.588522 -0.9939718 0.34196314 0.03750951 0.5942736
0.50488746 -1.0467693 -0.025357336 -0.31339172 0.35342377 -0.66557497 0.546983 -0.061065324
0.5012674 -0.5506397 0.53367394 0.3231737 0.45671615 -0.61332816 0.0103350775 -0.089699514
-0.01727216 -0.021731004 0.33829084 -0.59756005 -0.48581207 -1.4587159 0.50679564 0.5307223
-0.8102959 -0.5496369 -0.44461778 -0.39329267 -1.0396614 0.20501922 0.021410936 0.41639528

linear.bias f4 [16]
00000000: bf97 843d b1d3 42bd 7149 673d de5d c63d
00000010: ea15 92bd b6ba 77bd d55d 19bd 95fb fbbc
00000020: 0b35 d4bd fcb6 e4bc 80f1 a4bd 2880 f2bc
00000030: c5ad 83bd 7a57 b23c bbf6 c33d f93b 393c
0.06474256 -0.047565166 0.056466524 0.096858725 -0.07133086 -0.060480796 -0.037443 -0.030759612
-0.1036168 -0.027919285 -0.08053875 -0.029602125 -0.06429628 0.021770228 0.095685445 0.0113058025

linear2.weight f4 [6, 21]
00000000: 048c 023f 6085 403f e94d 3a3e 4d1d e6bd
00000010: e5c8 c5be 0ace 0d3f 52d6 ddbe b880 f53d
00000020: 1a22 043d 124e ac3e 856a b0be 07a9 1dbe
00000030: ad36 f03d 4c76 033e 0f78 9d3d f74a 80be
00000040: 74b8 93bd a1be 0c3e 83ce 62bd 646b 65be
00000050: 90fc 08be e856 57bd 5b39 093e 8a87 943b
00000060: a447 893e c909 f3bd 98ae 9a3e 85e4 df3e
00000070: 1456 803e 9cc9 773d 9aae f8bd 91fe cd3e
00000080: acdc 12bd 0e18 c2bd 2e97 123e b353 c33d
00000090: d579 85be 256b b2bd f8e9 c2be beb9 e1bc
000000a0: 7740 773d 2bad 613e dd5c 663e 79d3 a13d
000000b0: c820 6bbd 3a42 bfbc 4a46 1fbe 2894 65be
000000c0: 9011 663d 24c3 f03d 0874 0e3e 3b94 30be
000000d0: 4189 a9be 50b6 90bd 345a 873e 03cf 18bf
000000e0: 319b 903e 70d1 1d3d e949 613e d7ca bfbd
000000f0: 43eb 17be a12c 19be 76ab aabb 263e 5abe
00000100: b641 9abe e3c8 abbe 49e2 5abe a2e9 2f3e
00000110: 3e09 86be d665 063e eef8 b5be e97c 9a3e
00000120: e0f5 ba3e 7d3e 933d 7754 5f3e 1eb2 cf3e
00000130: 5da3 85be f5df e9bd 79b1 073f 9953 b83e
00000140: 0335 0e3e 5830 1d3c 74e6 393e 2d02 823e
00000150: cc0b c1bd 886d b5bd 1d74 433d dc41 ce3e
00000160: 89d4 b93e 3831 65be f5e3 f63c 406c 243e
00000170: ed29 02bd cb82 7cbe a85a f6bc 9288 a2be
00000180: a884 2bbe 2c17 993c 252f b83e 89e3 9abd
00000190: 4fd1 a7be 25cf 5e3e e2be 783e 4aae 6f3e
000001a0: 264b 603d 4cc6 f4bd ce41 c7be 9674 c4be
000001b0: a98c 5bbd 0f55 573e 3bd0 aebc 7818 cd3d
000001c0: cc99 6fbe 66d1 0d3e 348e 453e 611f 66bd
000001d0: 4828 df3c 7f3e cc3e 58ac 9fbe 848a 643d
000001e0: 509a ab3e e8be c53e 1af6 853e 40e9 21be
000001f0: 4271 a23e 4a83 813e
0.50994897 0.75203514 0.18193783 -0.112360574 -0.38629833 0.55392516 -0.43327576 0.11987442
0.032259084 0.33653313 -0.34456268 -0.1539651 0.117291786 0.12838095 0.07688915 -0.25057194
-0.07212916 0.13744594 -0.055372726 -0.22404248 -0.13377595 -0.052573115 0.13400786 0.004532759
0.2681247 -0.11867101 0.3021133 0.43729034 0.25065672 0.060495004 -0.121426776 0.4023328
-0.03585498 -0.09477244 0.14315483 0.09537449 -0.26069513 -0.087118424 -0.3806913 -0.02755439
0.060364213 0.22038715 0.22496362 0.07901663 -0.05740431 -0.023347009 -0.15554157 -0.22419798
0.056169093 0.1175597 0.1391145 -0.17244045 -0.3311253 -0.07066023 0.26436007 -0.59690875
0.28243402 0.038529813 0.2200085 -0.093648605 -0.14835839 -0.14958431 -0.005208428 -0.2131277
-0.30128258 -0.33551702 -0.21375383 0.17178968 -0.26178926 0.13124785 -0.3554148 0.30173424
0.36515713 0.07189653 0.21809565 0.4056558 -0.261012 -0.114196695 0.53005177 0.3600128
0.1388741 0.009594046 0.18154317 0.25392285 -0.09426078 -0.08858782 0.047718156 0.40284622
0.36294964 -0.22382057 0.030137995 0.16056919 -0.031778265 -0.24659269 -0.030072525 -0.3174482
-0.16749823 0.018687807 0.35973468 -0.0756293 -0.32776877 0.21758707 0.24291566 0.2340633
0.054759167 -0.119518846 -0.38917392 -0.38370198 -0.05360094 0.21028541 -0.021339526 0.10014433
-0.23398513 0.1384941 0.19292527 -0.05618227 0.027240887 0.3989143 -0.31186175 0.05579616
0.3351617 0.38622212 0.26164323 -0.15811634 0.31727034 0.25295478

linear2.bias f4 [6]
00000000: fb38 f6bd 43fa 703e e4e9 71bf 3774 d83b
00000010: 2776 213f 4d79 98bf
-0.12022587 0.23532967 -0.94497514 0.0066056508 0.6307091 -1.1912018
