A3TGCN2_Checkpoints/Epoch_50.pth (torch, 35255 bytes, 17 tensors)

tgnn._attention f4 [16]
0	0x3fd226fa	1.6418145
1	0x3f41a8b0	0.7564802
2	0x3eb9c257	0.36281082
3	0xbe09d4aa	-0.13460031
4	0x3e11f422	0.14253286
5	0x3c68d485	0.014210825
6	0x3d950155	0.07275645
7	0x3ea5c277	0.32374927
8	0x3e717b5b	0.23582213
9	0x3e7cac03	0.24674992
10	0x3e88d739	0.26726702
11	0x3e97d715	0.29656282
12	0x3e807ac2	0.25093657
13	0x3efa397d	0.48871985
14	0x3f367a68	0.7128053
15	0x3fb18baa	1.3870747

tgnn._base_tgcn.conv_z.bias f4 [32]
0	0x3f12b77a	0.57311213
1	0x3efa1d2b	0.48850378
2	0x3e89cb44	0.26912892
3	0xbb9705ba	-0.004608837
4	0xbe406554	-0.18788654
5	0xbed0f425	-0.40811267
6	0xbecbc35c	-0.39797485
7	0xbf135aec	-0.5756061
8	0x3f15de75	0.5854257
9	0x3f0a3db8	0.54000425
10	0xbf189427	-0.5960106
11	0xbf078d41	-0.5294991
12	0x3e17d4ef	0.14827321
13	0x3e41bfe7	0.18920861
14	0x3efe8703	0.4971238
15	0x3f0c20a4	0.54737306
16	0xbf0f861a	-0.56064
17	0x3f18ed3c	0.5973699
18	0x3eb7bbbb	0.35885414
19	0x3f1f0159	0.6211143
20	0x3f0306a6	0.5118202
21	0xbf01b776	-0.50670564
22	0xbf0ad111	-0.5422526
23	0x3f13f068	0.57788706
24	0xbf0603f0	-0.5234976
25	0xbf102c9d	-0.56318074
26	0xbf058fd1	-0.5217257
27	0x3ef83f91	0.48485997
28	0x3f143385	0.5789111
29	0xbeb081cb	-0.34474024
30	0x3eb33b72	0.3500629
31	0x3f0e382d	0.5555447

tgnn._base_tgcn.conv_z.lin.weight f4 [32, 3]
0	0xbea97942	-0.33100325
1	0xbeb27d2f	-0.34861133
2	0xc00684ed	-2.1018631
3	0x3ebb8024	0.366212
4	0xbf0c8b9e	-0.5490054
5	0xbf9629ee	-1.1731546
6	0xbf61b43b	-0.88165635
7	0x3f1383c6	0.57622945
8	0xbf8991c0	-1.0747604
9	0xbe3c99ce	-0.18418047
10	0x3f65704d	0.8962448
11	0x3fb61bbf	1.4227217
12	0x3f322f70	0.69603634
13	0xbf55832a	-0.83403265
14	0x3ebdf009	0.37097195
15	0xbdf37f48	-0.11889511
16	0x3f0d9b66	0.55315244
17	0x4003f2cf	2.0616949
18	0xbf3ee7c8	-0.7457242
19	0xbeb404d2	-0.35159928
20	0x3ed285a9	0.411176
21	0xbc4b56de	-0.0124108475
22	0x3e5b4efb	0.21416847
23	0x3ffc25f4	1.9699082
24	0x3e741bf1	0.23838784
25	0xbf0af6f5	-0.54283077
26	0xbfbe95b6	-1.4889438
27	0x3ed3657c	0.41288364
28	0xbf6928fb	-0.91078156
29	0xbfb311b5	-1.3989779
30	0x3e0f9694	0.14022285
31	0x3f0e3c63	0.5556089
32	0x3f74898f	0.955224
33	0xbf080057	-0.5312552
34	0x3f0f4579	0.5596538
35	0x3f7ffe14	0.9999707
36	0xbeb20cd7	-0.3477542
37	0x3f70d511	0.94075114
38	0xbebcce2a	-0.3687604
39	0xbf76228e	-0.96146476
40	0x3da17a9f	0.07884716
41	0x3e9ef8e6	0.3104927
42	0x3edc418d	0.4301876
43	0xbf02a051	-0.51025873
44	0xbfb233f0	-1.39221
45	0xbe1031ac	-0.14081448
46	0xbe704ffe	-0.23468015
47	0xc020e81b	-2.5141666
48	0xbe4dd68f	-0.20101379
49	0x3ed53f90	0.41650057
50	0x3f9bff62	1.2187312
51	0x3e042d2f	0.12907861
52	0xbf356f37	-0.70872825
53	0xbffa344a	-1.9547207
54	0xbf15e5ff	-0.5855407
55	0xbe85af93	-0.26110515
56	0x3e28beb7	0.16479002
57	0xbe5012de	-0.20319697
58	0xbef4eeff	-0.4783859
59	0xbffecbf3	-1.990599
60	0x3edc66ab	0.4304708
61	0xbee92891	-0.45538762
62	0xbfae0d38	-1.3597784
63	0xbe713b0b	-0.2355768
64	0x3ebbeae7	0.36702654
65	0x3f7a947f	0.9788284
66	0xbe9b0bc7	-0.30282423
67	0x3f5847ce	0.84484565
68	0x3fdf4a30	1.7444515
69	0x3dc22255	0.094792046
70	0xbddbea0e	-0.10738002
71	0xc024b363	-2.573449
72	0x3f012b1e	0.50456417
73	0x3d37e1fe	0.044893257
74	0x400a7686	2.163484
75	0x3ea47e12	0.32127434
76	0x3b30e354	0.0026990967
77	0x3fefcd87	1.8734597
78	0x3f2220a8	0.6333108
79	0x3e9c3b88	0.3051417
80	0x3f56481a	0.8370377
81	0xbf0c1bc6	-0.5472988
82	0xbeda3a26	-0.4262249
83	0xbf280b2f	-0.65642065
84	0x3dfc76bc	0.12327334
85	0x3e69a150	0.22815442
86	0xbffa4dcf	-1.9554995
87	0x3f585562	0.84505284
88	0x3f893266	1.0718505
89	0x3fabbe94	1.3417535
90	0xbdea775d	-0.11448548
91	0xbfad6e05	-1.35492
92	0xbf985aac	-1.1902671
93	0xbc0b57c0	-0.008504808
94	0xbf07dad7	-0.530683
95	0xbfc4a6e5	-1.5363432

tgnn._base_tgcn.linear_z.weight f4 [32, 64]
0	0xbe31d9c0	-0.17368221
1	0xbf336c00	-0.7008667
2	0x3f4b93e6	0.7952255
3	0x3f6aa8ee	0.91664016
4	0xbf03f87f	-0.5155105
5	0x3f5a361d	0.8523882
6	0x3e41ec8b	0.1893789
7	0x3e393a16	0.18088564
8	0xbf2bd070	-0.67114925
9	0xbfb3207b	-1.3994287
10	0x3f546927	0.8297295
11	0x3f25b961	0.6473599
12	0x3e6b2640	0.2296381
13	0x3ded375b	0.11582824
14	0xbf33bae4	-0.7020705
15	0xbeb8000a	-0.3593753
16	0x3f28b7ed	0.6590565
17	0xbf7e2f17	-0.99290603
18	0x3e0e3d73	0.13890629
19	0xbf39475c	-0.7237451
20	0xbef8cb0b	-0.4859241
21	0x3f124b9c	0.5714662
22	0x3faa8353	1.3321327
23	0xbe44f3d8	-0.19233644
24	0xbdf5d1d6	-0.12002914
25	0xbd197d11	-0.03747279
26	0xbe4b20b1	-0.1983669
27	0xbece2605	-0.40263382
28	0xbe0df4e2	-0.13862947
29	0x3eba66f8	0.36406684
30	0xbf4a83e1	-0.7910748
31	0xbf3e6b46	-0.74382436
32	0x3ca5dba8	0.020246342
33	0x3d64c704	0.05585386
34	0x3d376430	0.04477328
35	0x3d1089a4	0.035287514
36	0x3cbd8e88	0.023139253
37	0xbcb79138	-0.022408113
38	0x3deae07c	0.11468598
39	0xbc941b58	-0.018079445
40	0xbd60348c	-0.054737613
41	0x3d9ddff8	0.07708734
42	0xbd3d5e3c	-0.046232447
43	0x3dec22ce	0.11530076
44	0x3de290f0	0.11062801
45	0xbdaba19e	-0.083804354
46	0xbdd24a90	-0.10268128
47	0xbd276020	-0.040863156
48	0x3da5223e	0.08063172
49	0xbdd291bc	-0.10281703
50	0x3d8af502	0.06785013
51	0xbdfe2028	-0.12408477
52	0xbcc31510	-0.023813754
53	0xbd06ae1c	-0.032880887
54	0x3c592e50	0.013255671
55	0x3dcec97c	0.10097024
56	0xbdb40a88	-0.08791071
57	0x3b072f80	0.0020627677
58	0x3bc81160	0.006105587
59	0xbd56c170	-0.05243057
60	0x3c0d2900	0.008615732
61	0x3db887ca	0.09010275
62	0xbd9ca6e4	-0.07649019
63	0x3da2020c	0.07910547
64	0xbfb304ce	-1.3985841
65	0xbeef0ee2	-0.46691042
66	0x3e7edf99	0.24889983
67	0x401e6a76	2.4752479
68	0xbfa89159	-1.3169357
69	0x40284031	2.628918
70	0xbf40d6d7	-0.7532782
71	0x3dcfb18c	0.10141286
72	0xbed4a8db	-0.41535076
73	0xbfb23ad4	-1.3924203
74	0x3f3a895c	0.72865844
75	0x3e7501cc	0.23926467
76	0x3fb1764a	1.3864224
77	0x3df1973c	0.11796424
78	0xbec8f387	-0.39248297
79	0xbf3dff90	-0.7421808
80	0xbbb192f6	-0.0054191304
81	0xbfd677ac	-1.6755271
82	0xbfab7ee0	-1.3398094
83	0xbfb3feeb	-1.406217
84	0xbd892d39	-0.06698079
85	0xbdbecd6b	-0.09316524
86	0x3fd36f2b	1.6518301
87	0xbdbac4e5	-0.09119586
88	0x3ee0c744	0.43902028
89	0x3d9ab518	0.07554072
90	0x3fd08cd3	1.6292976
91	0xc005cd04	-2.0906382
92	0x3f18d21b	0.59695596
93	0x4009ab6a	2.1510873
94	0xc04aa913	-3.1665695
95	0xbf8ca5b1	-1.0988065
96	0x3dbfcfd2	0.093658105
97	0x3d5cda4c	0.05391912
98	0xbd9759c2	-0.07390167
99	0xbd8eab42	-0.069662586
100	0x3ce24090	0.027618676
101	0x3d10e8f8	0.035378426
102	0x3d8797c6	0.06620745
103	0xbdbb660e	-0.09150325
104	0x3df6a7ee	0.12043749
105	0xbcc94720	-0.024570048
106	0x3d339b5c	0.043849334
107	0xbd5b6d64	-0.05357112
108	0x3d433538	0.047658175
109	0x3ddaa082	0.10675146
110	0xbdb84d72	-0.089991465
111	0x3c392780	0.011300921
112	0x3c7af590	0.015317336
113	0xbc93ae30	-0.018027395
114	0xbd0c6ad4	-0.034281567
115	0x3cc63050	0.02419296
116	0x3cbd74d0	0.02312699
117	0xbd519f78	-0.051177472
118	0x3d35655c	0.044286117
119	0x3dd57bda	0.104240134
120	0x3cfa1138	0.030525789
121	0xbd82a736	-0.06379549
122	0xbc99b3e8	-0.018762544
123	0xbd0399bc	-0.032129034
124	0x3dff8eb2	0.12478389
125	0xbd84f17a	-0.064913705
126	0x3d99ab2e	0.07503353
127	0xbdfe9f46	-0.12432723
128	0x3d37e158	0.04489264
129	0xbdf1b328	-0.118017495
130	0xbc5987b0	-0.013276979
131	0xbdc19d9a	-0.09453888
132	0xbdd117b8	-0.10209602
133	0x3cb759e0	0.022381723
134	0x3dbecc76	0.093163416
135	0x3dba0ac0	0.09084082
136	0xbd598f04	-0.053114906
137	0xbd14bb34	-0.036311343
138	0xbcab8b68	-0.020940498
139	0xbb5cc780	-0.0033688247
140	0xbda78b58	-0.081808746
141	0xbb8df180	-0.0043317676
142	0x3d98f48a	0.07468517
143	0x3dd69a4a	0.10478647
144	0x3dc4cf34	0.09609833
145	0xbd78e550	-0.060765564
146	0x3d963b64	0.073355466
147	0x3d881408	0.06644446
148	0x3ddc3500	0.107522964
149	0xbd06be3c	-0.032896265
150	0xbdc35872	-0.09538354
151	0x3c6ca170	0.014442787
152	0x3d854736	0.06507723
153	0xbce7a488	-0.028276697
154	0x3c1e61f0	0.009666905
155	0xbc932458	-0.017961666
156	0xbdd9ba8a	-0.10631283
157	0x3d17105c	0.036880836
158	0x3d02d9d8	0.031946033
159	0x3b2a9d00	0.002603352
160	0xbdd4c39a	-0.103888705
161	0x3d4ce114	0.05001934
162	0x3b9fd340	0.004877478
163	0xbde1abb0	-0.11019075
164	0xbddde0b2	-0.10833873
165	0x3c60b860	0.013715833
166	0x3c726510	0.014794603
167	0x3c23daf0	0.010000929
168	0x3d82217a	0.063540414
169	0xba1b2400	-0.0005918145
170	0x3df3f7fa	0.11912532
171	0xbd11c80c	-0.03559117
172	0xbd9136f0	-0.070905566
173	0xbdb36646	-0.087597415
174	0xbd7a5b80	-0.061122417
175	0x3df685d0	0.120372415
176	0x3d80ac46	0.062828586
177	0xbd3c11f4	-0.04591556
178	0xbdacaaf8	-0.08431047
179	0xbc0933c0	-0.008374155
180	0x3db23ec4	0.08703378
181	0x3df7fda0	0.12108922
182	0xbde94b26	-0.113912866
183	0xbd6f9b30	-0.058497608
184	0xbdd43d52	-0.103632584
185	0xbcbca818	-0.023029372
186	0xbc933dc8	-0.017973796
187	0x3de6c6e8	0.11268407
188	0x3df61a1c	0.12016699
189	0x3dec2bdc	0.11531803
190	0xbd4c32cc	-0.04985313
191	0xbd5ec020	-0.054382443
192	0xbf3ae7b5	-0.73009807
193	0xbf0af8ec	-0.54286075
194	0x3ec5cff2	0.38635212
195	0x3ea3af41	0.31969646
196	0xbf0b7c5d	-0.5448664
197	0x3fa2b85a	1.271251
198	0xbdc56ddb	-0.09640094
199	0x3e205a6c	0.15659493
200	0xbef19c79	-0.47189692
201	0xbf8b2767	-1.08714
202	0x3f2bffe0	0.6718731
203	0x3eadd65a	0.339526
204	0x3f1f697e	0.62270343
205	0xbe9c6e76	-0.30553025
206	0xbebacf0f	-0.36486098
207	0xbebf21ba	-0.3733042
208	0x3ea088a6	0.31354254
209	0xbf65611f	-0.8960132
210	0xbe36f73a	-0.17867747
211	0xbf2e4a75	-0.6808236
212	0xbed1e644	-0.4099599
213	0x3ebef7d1	0.37298444
214	0x3faa089a	1.3283875
215	0xbd576f1c	-0.052596197
216	0x3dade4a8	0.08490878
217	0xbd17521f	-0.03694355
218	0x3f04b4b9	0.5183826
219	0xbf77a6ce	-0.967389
220	0x3d908fb8	0.07058662
221	0x3f6c3b92	0.922784
222	0xbfcee9fe	-1.6165159
223	0xbf54b39a	-0.8308655
224	0x3d605048	0.054764062
225	0xbdb0e9ba	-0.0863833
226	0xbdb4fa48	-0.088368
227	0x3d4ed560	0.05049646
228	0xbd3cdb48	-0.04610756
229	0x3d40e620	0.047094464
230	0x3dc69eaa	0.096982315
231	0xbd388f10	-0.04505831
232	0xbc9989f0	-0.018742532
233	0xbdc8f60e	-0.09812556
234	0xbdc6531c	-0.096838206
235	0x3c88dd20	0.016707003
236	0x3cc4a908	0.024006382
237	0xbdcbdb8e	-0.09953986
238	0xbdd33c42	-0.10314228
239	0x3d84be3c	0.06481597
240	0xbb9f6c60	-0.004865214
241	0x3dd9320a	0.10605247
242	0x3dda115a	0.10647841
243	0x3d1e80c8	0.038697034
244	0xbc7f42c0	-0.015579879
245	0x3d43942c	0.04774873
246	0x3db2cc24	0.08730343
247	0x3dec2dd2	0.11532177
248	0x3dc0d344	0.09415296
249	0xbdd7279c	-0.10505602
250	0xbd85e200	-0.06537247
251	0xbdf441da	-0.11926623
252	0xbde0a6a4	-0.10969284
253	0x3c60a5e0	0.013711423
254	0x3df5858c	0.11988363
255	0x3d0a8098	0.033814043

tgnn._base_tgcn.linear_z.bias f4 [32]
0	0xbea2619f	-0.31715104
1	0x3f451be0	0.7699566
2	0x3df209fa	0.11818309
3	0x3c8213a6	0.01587851
4	0xbe056c8b	-0.13029687
5	0xbe4a971d	-0.19784208
6	0xbe5c1587	-0.21492587
7	0x3c7d1da9	0.015448966
8	0xbe645c7d	-0.22300906
9	0xbd184494	-0.037174776
10	0xbeeed8e2	-0.46649843
11	0xbe8df5d8	-0.27726626
12	0xbf3818b8	-0.7191272
13	0xbf8860a8	-1.0654497
14	0x3c876330	0.016526788
15	0x3d8c6e33	0.06856956
16	0x3d792d1c	0.060834035
17	0xbde35078	-0.110993326
18	0xbf017cf3	-0.5058128
19	0xbebf4079	-0.37353876
20	0xbeaafb09	-0.3339465
21	0x3f145840	0.5794716
22	0xbe3aa109	-0.18225493
23	0xbf2cb3a5	-0.67461616
24	0x3f252f9a	0.6452576
25	0xbefee026	-0.49780387
26	0x3bbd231f	0.005772009
27	0xbece2e61	-0.4026976
28	0x3e835503	0.25650796
29	0xbf058d8f	-0.52169126
30	0x3df53c78	0.11974424
31	0xbe98f656	-0.2987544

tgnn._base_tgcn.conv_r.bias f4 [32]
0	0x00000000	0.0
1	0x00000000	0.0
2	0x00000000	0.0
3	0x00000000	0.0
4	0x00000000	0.0
5	0x00000000	0.0
6	0x00000000	0.0
7	0x00000000	0.0
8	0x00000000	0.0
9	0x00000000	0.0
10	0x00000000	0.0
11	0x00000000	0.0
12	0x00000000	0.0
13	0x00000000	0.0
14	0x00000000	0.0
15	0x00000000	0.0
16	0x00000000	0.0
17	0x00000000	0.0
18	0x00000000	0.0
19	0x00000000	0.0
20	0x00000000	0.0
21	0x00000000	0.0
22	0x00000000	0.0
23	0x00000000	0.0
24	0x00000000	0.0
25	0x00000000	0.0
26	0x00000000	0.0
27	0x00000000	0.0
28	0x00000000	0.0
29	0x00000000	0.0
30	0x00000000	0.0
31	0x00000000	0.0

tgnn._base_tgcn.conv_r.lin.weight f4 [32, 3]
0	0x3e2dbb1e	0.16965911
1	0xbd19d140	-0.037553072
2	0x3d6d9168	0.058
3	0x3e9d845b	0.30765042
4	0xbe958766	-0.29204863
5	0xbca54bc0	-0.020177722
6	0xbe0fc728	-0.14040816
7	0xbe90129a	-0.28139192
8	0x3dc07464	0.093972
9	0x3c34dfe0	0.011039704
10	0x3dc5845c	0.09644386
11	0x3ea84d07	0.32871267
12	0xbe9065a7	-0.28202555
13	0xbd1d18a0	-0.038353562
14	0xbde90a64	-0.11378935
15	0x3e802c9b	0.2503403
16	0xbd8f5534	-0.06998673
17	0xbeb94f84	-0.36193478
18	0x3caf6ea0	0.021415055
19	0x3e071ea2	0.13195279
20	0x3e253ebe	0.16137215
21	0xbdced154	-0.1009852
22	0x3e17a1f2	0.14807871
23	0x3d8c5ea8	0.06853992
24	0x3e4e33d6	0.20136961
25	0x3e76bd72	0.24095705
26	0xbe3b6a1a	-0.18302193
27	0xbe903fa0	-0.28173542
28	0x3dbb429c	0.09143564
29	0x3e6e993a	0.23300639
30	0x3e130422	0.14357045
31	0xbe3d30cc	-0.18475646
32	0xbe9c0b49	-0.3047736
33	0x3dbbbb6c	0.09166607
34	0x3e8f6c8f	0.2801251
35	0xbe3e1b77	-0.18565165
36	0xbe735202	-0.23761752
37	0x3ea07dbf	0.31345937
38	0xbec0c99d	-0.3765382
39	0x3e9dcd8f	0.3082089
40	0xbc081760	-0.008306354
41	0x3dfacb5c	0.12245819
42	0xbe173ecc	-0.14770049
43	0xbe81fed0	-0.2538972
44	0x3ec9d953	0.39423618
45	0x3e2a6586	0.1664029
46	0xbda73474	-0.081643015
47	0xbe7794e2	-0.24177888
48	0x3e9a265d	0.30107394
49	0xbe358dc1	-0.17729856
50	0x3e7b6c5e	0.24553058
51	0x3e29eec6	0.16594991
52	0xbe8ad3b4	-0.27114642
53	0x3e2e16fa	0.17000952
54	0xbc5f86e0	-0.013642997
55	0x3e8ce079	0.2751501
56	0xbe34e29d	-0.17664571
57	0xbebe0f98	-0.37121272
58	0xbec97850	-0.39349604
59	0xbe73b836	-0.2380074
60	0x3e906677	0.28203174
61	0xbe7e96b2	-0.24862173
62	0xbdc8c428	-0.09803039
63	0xbc0bf8a0	-0.008543164
64	0xbb1da380	-0.0024053752
65	0xbda0a180	-0.07843304
66	0xbe78de44	-0.24303538
67	0xbd90ab74	-0.07063952
68	0xbe9f1f1e	-0.31078428
69	0xbeb5980f	-0.35467574
70	0x3e77e6fe	0.2420921
71	0xbe5984e0	-0.21242094
72	0x3e77a8ae	0.2418544
73	0xbe479047	-0.19488631
74	0x3e3d2cba	0.18474093
75	0xbd960f64	-0.07327154
76	0xbe1f8030	-0.15576243
77	0x3e3d74b6	0.18501553
78	0x3e1e642e	0.15467903
79	0x3dbd081c	0.09230062
80	0x3b54b580	0.0032456815
81	0xbd8479c8	-0.064685404
82	0xbecdfa35	-0.40229955
83	0xbd95e858	-0.07319707
84	0x3eb1456d	0.3462328
85	0x3e967091	0.29382756
86	0x3dbfee94	0.09371677
87	0x3e4b53f2	0.19856241
88	0xbd4ff650	-0.05077201
89	0xbe836d5e	-0.25669378
90	0xbe36b079	-0.17840756
91	0x3e30cd92	0.17265919
92	0x3ecd9f09	0.40160397
93	0x3e143f96	0.14477381
94	0xbd782570	-0.06058258
95	0xbeb693d6	-0.35659665

tgnn._base_tgcn.linear_r.weight f4 [32, 64]
0	0xbd970bf8	-0.0737533
1	0x3ceae498	0.028673455
2	0xbd037fe8	-0.032104403
3	0xbdfe962e	-0.12430988
4	0x3cc3bbe8	0.023893312
5	0x3d472720	0.048621297
6	0x3dcb6352	0.09931053
7	0xbd6555ac	-0.055989906
8	0x3dad23f2	0.08454122
9	0xbde136a2	-0.109967485
10	0x3cdda940	0.027058244
11	0x3cab0898	0.020878121
12	0xbdbc6012	-0.091980115
13	0x3d76ede4	0.060285464
14	0x3de20d46	0.11037688
15	0xbd805a34	-0.06267205
16	0xbd2f4608	-0.042791396
17	0x3c941060	0.018074214
18	0x3db702f4	0.0893611
19	0xbd8e6246	-0.06952338
20	0xbd435ea4	-0.04769768
21	0x3d373864	0.044731513
22	0x3d271ac0	0.040796995
23	0x3d72c288	0.05926755
24	0x3dcc53e4	0.09976938
25	0x3de806dc	0.11329433
26	0x3db67b4c	0.08910236
27	0x3d6b40c8	0.057434827
28	0x3d9384ee	0.07203089
29	0x3d99833c	0.07495734
30	0xbde128e2	-0.10994126
31	0x3b8fd180	0.004388988
32	0xbdd6af22	-0.10482623
33	0x3cbc22c0	0.022965789
34	0x3d5b78b0	0.053581893
35	0xbd720358	-0.05908522
36	0x3ddf665a	0.10908194
37	0x3d61f370	0.0551638
38	0x3d5f8cc0	0.05457759
39	0x3c30be30	0.010787532
40	0xbd70a9e4	-0.05875577
41	0x3cca8908	0.024723545
42	0x3d8e736a	0.06955607
43	0x3dc73ab4	0.097279936
44	0x3dd2c8a8	0.102921784
45	0x3d8c7f9a	0.068602756
46	0x3da0a05e	0.078430876
47	0xbd8dfc74	-0.06932917
48	0xbc9e22a0	-0.01930362
49	0xbd170994	-0.03687437
50	0x3da727a4	0.08161858
51	0xbdb7fa1e	-0.08983253
52	0x3dcff0e8	0.10153371
53	0xbc98ec40	-0.01866734
54	0x3df26fcc	0.1183773
55	0x3d22a514	0.039708212
56	0x3dc75700	0.09733391
57	0xbd0b7104	-0.034043327
58	0x3dd2a194	0.10284725
59	0xbda48dfa	-0.080348924
60	0x3c7b7530	0.015347764
61	0x3b14dc00	0.0022714138
62	0x3df9960e	0.12186824
63	0x3d0200ec	0.03173916
64	0xbd265380	-0.040606976
65	0xbd9a776e	-0.07542311
66	0x3dc64a0c	0.09682092
67	0xbd58f44c	-0.052967355
68	0xbd967008	-0.07345587
69	0xbdfb1ce6	-0.12261371
70	0xbc366e50	-0.011134699
71	0xbdcaceec	-0.099027485
72	0xbcba5e58	-0.022750065
73	0xbd8849e2	-0.06654717
74	0x3dfc6a38	0.12324947
75	0xbd9c8546	-0.076426074
76	0x3dad3030	0.08456457
77	0x3de936b8	0.1138739
78	0x3da30e68	0.07961732
79	0xbc8b27f8	-0.016986832
80	0xbcd47cf8	-0.025938496
81	0x3dcbc44c	0.0994955
82	0x3d9edac8	0.07756573
83	0xbd13f334	-0.03612061
84	0x3dff3852	0.12461914
85	0xbdba6e5c	-0.09103081
86	0x3da1f6ca	0.079083994
87	0xbb9b4420	-0.0047383457
88	0x3d289d20	0.04116547
89	0x3de4afea	0.111663654
90	0x3dee535e	0.11636995
91	0xbcbca678	-0.023028597
92	0xbda7c654	-0.08192125
93	0x3dbd3204	0.09238055
94	0x3dc18e04	0.094509155
95	0x3db830f6	0.089937136
96	0x3d9bb826	0.07603483
97	0x3d429468	0.047504812
98	0x3db2d5d0	0.08732188
99	0xbdd1f0c6	-0.10251002
100	0x3d1ec5a0	0.03876269
101	0x3dfa2d04	0.12215617
102	0x3da72522	0.081613794
103	0x3d094174	0.033509687
104	0xbdf23890	-0.11827195
105	0x3df27578	0.11838812
106	0xbd931e0a	-0.07183464
107	0xbdcb000a	-0.09912117
108	0x3dc13996	0.09434812
109	0xbd553c54	-0.052059487
110	0x3d435e94	0.04769762
111	0x3d1b2e1c	0.03788577
112	0x3c32f150	0.010921791
113	0xbd396e2c	-0.045271084
114	0xbdd3d532	-0.10343398
115	0x3df7b774	0.12095538
116	0xbc844628	-0.016146734
117	0x3d7d3bb8	0.06182453
118	0xbccb6920	-0.024830401
119	0x3ded9cc6	0.11602168
120	0x3dd4eaac	0.103963226
121	0xbd9ffd06	-0.07811932
122	0xbdf6d692	-0.12052645
123	0x3d0ee4fc	0.034886345
124	0xbc1a6d90	-0.009425536
125	0xbcb2baf8	-0.02181767
126	0xbdfc3794	-0.12315288
127	0xbdc2fd28	-0.09520942
128	0x3d5f4618	0.054510206
129	0xbc6467e0	-0.013940781
130	0x3dc343e8	0.095344365
131	0x3d92957a	0.07157417
132	0x3d3ff5e0	0.046865344
133	0x3ca599c0	0.020214915
134	0xbca9f0a8	-0.020744637
135	0x3ca76930	0.0204359
136	0x3db8f19a	0.09030457
137	0xbd194b1c	-0.037425146
138	0x3d808a24	0.06276348
139	0x3d9b82ac	0.07593283
140	0x3dafa004	0.085754424
141	0xbb451cc0	-0.003007695
142	0xbddfbede	-0.10925077
143	0x3d5d7db0	0.054074943
144	0x3df5d726	0.12003927
145	0x3c9cab98	0.019124791
146	0xbd40aadc	-0.047037944
147	0x3bce6620	0.0062987953
148	0xbd363bd4	-0.04449065
149	0xbb9bfe80	-0.0047605634
150	0xbd8be8e6	-0.06831531
151	0xbd1fffe0	-0.03906238
152	0x3d12e5d4	0.035863712
153	0xbca72490	-0.020403177
154	0xbda37908	-0.07982069
155	0xbd8b6eb0	-0.06808221
156	0x3cc7f1e0	0.024407327
157	0xbdb69b60	-0.08916354
158	0x3dc8820c	0.097904295
159	0x3daa62de	0.08319639
160	0xbc0cd650	-0.008596018
161	0x3d593e40	0.05303788
162	0xbda1dc6c	-0.0790337
163	0x3db182bc	0.08667514
164	0xbd778ee0	-0.06043899
165	0xbdecafa8	-0.11556941
166	0xbd636510	-0.055516303
167	0x3d8fe710	0.070264935
168	0xbd02128c	-0.03175597
169	0xbbf7a6c0	-0.00755772
170	0xbda40470	-0.08008659
171	0x3d9b4382	0.075812355
172	0xbdfcb68c	-0.123395056
173	0x3d10e204	0.035371795
174	0xbde81e64	-0.113339216
175	0x3db0003c	0.08593795
176	0x3d13c358	0.036074966
177	0xbd707274	-0.0587029
178	0x3b4c4400	0.003116846
179	0xbcd69f68	-0.026199058
180	0xbd6efbf8	-0.058345765
181	0x3de01ad4	0.10942617
182	0xbde05204	-0.10953143
183	0xbc006000	-0.007835388
184	0x3de3fc48	0.11132103
185	0x3ce363a0	0.027757466
186	0xbdd1f064	-0.10250929
187	0xbde0b8a0	-0.109727144
188	0x3bd88c80	0.006608546
189	0x3d3ce7ec	0.046119615
190	0xbd3b4ff8	-0.04573056
191	0xbdb057ee	-0.08610521
192	0x3afe5280	0.0019403249
193	0x3d12e97c	0.0358672
194	0xbdcf9854	-0.10136476
195	0xbdbc2412	-0.09186567
196	0x3c9187c0	0.017764926
197	0xbda543fc	-0.080696076
198	0xbcead9e8	-0.028668359
199	0xbd664fcc	-0.056228444
200	0x3d7df264	0.06199874
201	0x3dba98e4	0.09111193
202	0xbdf9553e	-0.12174462
203	0x3df50906	0.11964612
204	0x3def95c2	0.11698486
205	0xbde4aa30	-0.11165273
206	0x3da3929e	0.079869494
207	0xbd043d60	-0.032285094
208	0xbd1a90ac	-0.037735626
209	0x3d842178	0.06451696
210	0x3d9d21ce	0.07672463
211	0xbc896fc8	-0.016776934
212	0x3dfb4832	0.122696295
213	0xbdda1364	-0.1064823
214	0xbcdc1398	-0.026864812
215	0xbd776ec8	-0.060408384
216	0xbde0b87c	-0.109726876
217	0x3dff3f20	0.12463212
218	0xbdbb4a14	-0.09144989
219	0xbdb5c16c	-0.08874783
220	0xbdba0acc	-0.090840906
221	0x3d8efa94	0.06981388
222	0xbdca9978	-0.09892553
223	0x3cc4e560	0.024035156
224	0x3dbaa912	0.09114279
225	0x3d23c404	0.039981857
226	0xbcf4e1c0	-0.029892802
227	0xbda5bf1a	-0.0809309
228	0x3dcec654	0.10096422
229	0xbd640ffc	-0.055679306
230	0xbcd4f960	-0.025997818
231	0x3da38822	0.0798495
232	0xbd6f9484	-0.058491245
233	0x3dab87ae	0.08375488
234	0xbdecb038	-0.115570486
235	0x3d91e0ea	0.07122977
236	0x3d774814	0.060371473
237	0x3cfcf620	0.03087908
238	0x3ca51b40	0.020154595
239	0xbb2aa540	-0.0026038438
240	0x3d07de9c	0.03317128
241	0xbda25564	-0.07926443
242	0xbdc66b2c	-0.0968841
243	0xbd94552e	-0.07242809
244	0xbd6e50e4	-0.058182612
245	0x3d78e29c	0.060762987
246	0xbdbf6744	-0.09345868
247	0x3cb6e2b8	0.022324905
248	0xbc80d798	-0.015727803
249	0xbc8b2b18	-0.016988322
250	0x3cb6c680	0.022311449
251	0xbcce8de8	-0.02521415
252	0x3d99cff2	0.075103655
253	0xbd0b6298	-0.034029573
254	0xbdbc9bac	-0.092093796
255	0x3c7c4f80	0.015399814

tgnn._base_tgcn.linear_r.bias f4 [32]
0	0x3d978a1c	0.07399389
1	0xbdd0004e	-0.10156308
2	0xbd7a3594	-0.061086252
3	0x3d4da5b0	0.05020684
4	0x3d8815f2	0.06644811
5	0xbc6e6000	-0.014549255
6	0x3d8bdee4	0.068296224
7	0x3c195df0	0.009360775
8	0xbb1abfc0	-0.0023612827
9	0xbdf94ed4	-0.121732384
10	0xbdf20b78	-0.11818594
11	0x3ddfce3c	0.10928008
12	0x3d54e408	0.05197528
13	0xbdedb93e	-0.11607598
14	0x3d70b454	0.058765724
15	0xbd37261c	-0.04471408
16	0x3d1967b0	0.0374524
17	0x3d8a3e72	0.06750192
18	0x3d087a58	0.0333198
19	0xbc9cb9f0	-0.01913163
20	0xbdb530ae	-0.088471755
21	0x3d3941d8	0.04522881
22	0xbd577730	-0.0526039
23	0xbdd9b9ec	-0.10631165
24	0xbdd5dafe	-0.1044216
25	0x3d67382c	0.056450054
26	0x3dfe8ffc	0.124298066
27	0x3a7eb300	0.0009716004
28	0x3dca6b2a	0.09883721
29	0x3d139bb0	0.036037147
30	0x3d844db6	0.06460135
31	0x3d8d4022	0.06896998

tgnn._base_tgcn.conv_h.bias f4 [32]
0	0x3e9c746d	0.30557576
1	0xbc73ae5d	-0.014873114
2	0xbe947d3c	-0.29001796
3	0xbdbacb8c	-0.09120855
4	0x3e72f7c3	0.23727326
5	0xbf1bbe11	-0.60836893
6	0x3ebbf205	0.36708084
7	0x3eab8e6d	0.335071
8	0x3f168257	0.5879263
9	0xbd67d390	-0.056598246
10	0xbea46e0d	-0.32115212
11	0x3e5cefb8	0.2157582
12	0xbede6cc6	-0.43442363
13	0x3c0baaae	0.00852458
14	0x3da0801a	0.078369334
15	0xbf0088d8	-0.50208807
16	0x3d9d4c90	0.07680619
17	0xbe9ea615	-0.30986086
18	0x3e81df11	0.253655
19	0xbd6f7e3b	-0.058469992
20	0x3db1f09c	0.08688471
21	0x3f05a352	0.5220233
22	0x3c9c1703	0.019053942
23	0xbbe1e6a8	-0.0068939514
24	0xbe635dfe	-0.22203824
25	0x3e0c8605	0.13723
26	0xbe81611c	-0.252694
27	0x3ea7a12b	0.3274015
28	0x3ee49294	0.4464308
29	0x3eff809a	0.49902803
30	0xbe81ed36	-0.2537629
31	0xbd4e6fd6	-0.050399624

tgnn._base_tgcn.conv_h.lin.weight f4 [32, 3]
0	0x3e6b8e92	0.23003605
1	0xbf316be1	-0.69305235
2	0x3fd9c54a	1.7013333
3	0xbe8f3125	-0.27967182
4	0xbf90a3b5	-1.129996
5	0x3f85ff8d	1.0468613
6	0xbd71c37d	-0.059024323
7	0xbe25aebc	-0.16179937
8	0x402ceee4	2.7020807
9	0xbd6b28fe	-0.05741214
10	0x3f97d37b	1.1861414
11	0xbf2eac55	-0.6823171
12	0x3df2554a	0.11832674
13	0x3f2e3886	0.68055
14	0xbfea82a4	-1.8321118
15	0x3f110e2c	0.5666225
16	0x3eab1e1c	0.3342141
17	0xbf14ce5d	-0.58127385
18	0xbf1c91e7	-0.6116013
19	0xbf1af70d	-0.6053322
20	0x3ef6333d	0.48085967
21	0xbf0fed94	-0.5622189
22	0xbea381da	-0.31935006
23	0x3fa3e5da	1.280452
24	0xbd780904	-0.060555473
25	0x3f2d5f0b	0.6772315
26	0xbe08b4c9	-0.13350214
27	0x3db781d3	0.08960309
28	0xbf9e1929	-1.2351428
29	0x3f8e2b48	1.1106958
30	0x3f41ab2d	0.7565182
31	0x3ea5f6be	0.32414812
32	0xbfaa9cc1	-1.3329087
33	0xbf2333bf	-0.63750833
34	0xbf87499a	-1.0569336
35	0xbeb91080	-0.361454
36	0xbd0feeb1	-0.035139743
37	0x3f34089a	0.70325625
38	0xbf06636a	-0.52495444
39	0x3f293cf8	0.66108656
40	0x3f96a61a	1.176944
41	0xbd44ce49	-0.04804829
42	0x3e56d432	0.20979384
43	0xbf24433a	-0.6416508
44	0x3ffe01ca	1.9844296
45	0xbd749c79	-0.059719536
46	0xbed4a303	-0.41530618
47	0xbfe0d2d3	-1.7564338
48	0xbf4645a7	-0.7745003
49	0x3e0ab7fd	0.13546748
50	0x3fe688cc	1.8010497
51	0xbec52878	-0.38507438
52	0xbf56898d	-0.83803636
53	0xbf7a0622	-0.9766561
54	0xbe0c797a	-0.13718215
55	0xbf589139	-0.8459659
56	0x3f61cb03	0.88200396
57	0x3d1f23a9	0.038852368
58	0x3fa8982c	1.3171439
59	0x3e444d2a	0.19170061
60	0xbe139da7	-0.14415608
61	0xbf9af5ad	-1.2106224
62	0xbf00ba9f	-0.5028476
63	0x3e16a39f	0.14710854
64	0x3e3bcc8a	0.18339744
65	0x3fb687a0	1.426014
66	0x3f427dd5	0.75973254
67	0x3f85a2c6	1.04403
68	0x3ffe6336	1.9874027
69	0xbe8d3b3a	-0.2758425
70	0xbf800c47	-1.0003747
71	0x3fba78fa	1.4568169
72	0x3eb94278	0.36183524
73	0x3f16023d	0.58597165
74	0xbf9beb9e	-1.218128
75	0x3e363717	0.17794453
76	0xbf0bac67	-0.5455994
77	0x3ff0acec	1.8802772
78	0xbddca418	-0.10773486
79	0xbf8c7455	-1.0973002
80	0xbf09947c	-0.53742194
81	0xbee2d6a5	-0.44304386
82	0xbe31042f	-0.17286752
83	0x3fcd9475	1.606093
84	0xba2c36ef	-0.0006569465
85	0xbead36e4	-0.3383094
86	0x3fef7fe7	1.8710908
87	0xbee8b582	-0.4545098
88	0x3f2eb77d	0.6824873
89	0x3faffb6d	1.3748604
90	0x3f1e6ab0	0.6188154
91	0x3eb79686	0.35857028
92	0xbfc9c358	-1.5762739
93	0xbcba59f8	-0.022747979
94	0xbfa1e8ca	-1.2649167
95	0x3f650042	0.8945352

tgnn._base_tgcn.linear_h.weight f4 [32, 64]
0	0xbed10b01	-0.40828708
1	0xbf889baa	-1.0672505
2	0xbf63223e	-0.88724124
3	0x3fa10900	1.2580872
4	0x3f974132	1.1816771
5	0x3e37b8f5	0.1794165
6	0xbf02a9a5	-0.51040107
7	0xbef83103	-0.48474893
8	0x3f31ae1e	0.69406307
9	0xbfce4f80	-1.6118011
10	0x3ec7965c	0.38981903
11	0xbf144891	-0.5792323
12	0x3e522b41	0.20524313
13	0x3f1e5240	0.61844254
14	0xbf48a315	-0.78373843
15	0xbede7d97	-0.43455192
16	0xbf0f2973	-0.5592262
17	0xbf0de113	-0.5542156
18	0xbf2a0e04	-0.66427636
19	0x3f853f26	1.0409896
20	0xbf2910fa	-0.6604153
21	0x3e8b785b	0.2724026
22	0x3e66c88c	0.2253744
23	0xbfd37d95	-1.65227
24	0x3f152621	0.58261305
25	0xbef563f6	-0.47927827
26	0xbf4f6c3f	-0.81024545
27	0xbea281a0	-0.3173952
28	0xbcf1b992	-0.029507432
29	0x3f04e010	0.5190439
30	0x3ec8cba4	0.39217865
31	0xbfb5a4ba	-1.4190896
32	0xbd84e00e	-0.064880475
33	0x3db3566a	0.087567165
34	0x3da49d12	0.08037771
35	0xbd7ff0ac	-0.062485382
36	0xbd1ca27c	-0.038240895
37	0xbd9ca39e	-0.07648395
38	0x3dec9c56	0.11553256
39	0xbd605348	-0.054766923
40	0x3d795800	0.06087494
41	0xbd125124	-0.035721913
42	0x3dc82b7e	0.097739205
43	0x3dd31a38	0.10307735
44	0x3dc5118a	0.09622486
45	0x3c986d28	0.018606737
46	0x3d47c950	0.04877597
47	0x3cc09158	0.023506805
48	0xbcda7b08	-0.026669994
49	0xbd5757d8	-0.05257401
50	0x3bebc0a0	0.0071945935
51	0xbd9cf302	-0.076635376
52	0xbdb81144	-0.08987668
53	0xbdaecbb2	-0.085349455
54	0x3d6e604c	0.058197305
55	0xbc1faed0	-0.009746268
56	0x3de68c24	0.112571985
57	0x3d979efc	0.07403371
58	0x3d598bc4	0.053111807
59	0xbd197eac	-0.03747432
60	0xbdccfd02	-0.10009195
61	0x3deb8790	0.11500466
62	0x3b203780	0.0024447143
63	0xbde0b286	-0.10971551
64	0x3f429396	0.7600645
65	0x3efa267d	0.4885749
66	0x3eb2add7	0.34898254
67	0xbff6f73e	-1.9294202
68	0xbef7b271	-0.48378327
69	0xbe94130b	-0.2892078
70	0x3f0a74de	0.54084575
71	0x3f2fdbb6	0.6869463
72	0xbd918897	-0.071061306
73	0x3f89b2b3	1.075766
74	0xbec91e10	-0.39280748
75	0x3e95bd2e	0.29245895
76	0xbeedae58	-0.46422076
77	0xbe9d1586	-0.30680484
78	0x3f89f291	1.077715
79	0xbe3ea428	-0.18617308
80	0x3e06b1e4	0.13153797
81	0x3e01f1f6	0.12689957
82	0x3fcdcda7	1.6078385
83	0xbf186126	-0.59523237
84	0x3ebec93d	0.37262908
85	0x3e1f2553	0.15541582
86	0x3d477900	0.04869938
87	0x3f0042e7	0.50102085
88	0xbfa05c1a	-1.2528107
89	0x3f65924e	0.8967637
90	0x3e62f776	0.22164711
91	0x3f463184	0.77419305
92	0x3ed5bd45	0.41745964
93	0xbd49f3cc	-0.04930477
94	0xbf2a0d0c	-0.6642616
95	0x3f733910	0.95008945
96	0xbdb64c3a	-0.08901258
97	0xbc54ed40	-0.012996018
98	0xbdf54bb6	-0.11977331
99	0x3cac22e0	0.021012723
100	0xbd86b9e8	-0.065784276
101	0x3d64aff8	0.05583188
102	0xbda634da	-0.081155494
103	0xbd80683c	-0.06269881
104	0x3bd2bc00	0.0064311028
105	0x3bde7360	0.006788656
106	0x3db888bc	0.09010455
107	0xbaac2f00	-0.0013136566
108	0x3d3e5290	0.046465456
109	0x3da3c0dc	0.079957694
110	0xbdab2a68	-0.08357698
111	0x3d9ebf04	0.07751277
112	0xbd56d99c	-0.052453622
113	0x3c6a97c0	0.014318407
114	0x3cd62648	0.0261413
115	0x3cc21960	0.02369374
116	0x3ceece50	0.029151112
117	0x3d3a5ed4	0.04550059
118	0xbda88054	-0.08227602
119	0x3d00bbd0	0.031429112
120	0xbc929a28	-0.017895773
121	0x3d96cc68	0.07363206
122	0xbd907bc2	-0.07054855
123	0x3d21f8b0	0.039543808
124	0x3d5a8e54	0.05335839
125	0xbd5403ec	-0.051761553
126	0xbda9106a	-0.08255084
127	0x3dbb045a	0.09131689
128	0x3de5d3a4	0.11222008
129	0x3da7aef6	0.08187668
130	0xbdc55a36	-0.09636347
131	0x3d3d6fe4	0.046249285
132	0xbdcd638c	-0.10028753
133	0xbc88b3a8	-0.01668723
134	0xbdd2ed7c	-0.10299203
135	0x3d889688	0.066693366
136	0x3d9cfb1a	0.07665081
137	0x3da3c694	0.0799686
138	0xbd6b8dd4	-0.057508305
139	0x3df02b22	0.11726977
140	0x3db6bb82	0.08922483
141	0x3c8499c0	0.016186595
142	0xbdbdf162	-0.09274556
143	0x3d928830	0.07154882
144	0x3d15f8d0	0.03661424
145	0x3c0f7990	0.00875701
146	0xbdfa71aa	-0.12228711
147	0xbd974eba	-0.07388063
148	0xbc733e90	-0.014846459
149	0xbdea13ee	-0.114295825
150	0x3db4cbb4	0.08827916
151	0xbcc78858	-0.024357006
152	0xbc9a9d88	-0.018873945
153	0x3d2dc4e8	0.042424113
154	0x3d56e470	0.05246395
155	0xbd9e924c	-0.07742748
156	0x3c9cd498	0.019144341
157	0xbd7349d4	-0.05939658
158	0xbdd89d06	-0.10576825
159	0x3dfcf228	0.12350875
160	0x3cfb0558	0.030642197
161	0xbdae4e70	-0.085110545
162	0xbd8d94b8	-0.069131315
163	0x3d0fd70c	0.035117194
164	0xbdee355a	-0.1163127
165	0xbd2f9d50	-0.042874634
166	0x3da940c4	0.08264306
167	0xbd9bd304	-0.076086074
168	0x3dd230f4	0.10263243
169	0x3d282b9c	0.041057214
170	0xbdd3eb7a	-0.10347648
171	0x3d57ab38	0.05265352
172	0x3df3fe76	0.11913769
173	0x3d4add74	0.0495276
174	0x3dd26c58	0.10274571
175	0xbad36200	-0.0016127229
176	0xbdc09e72	-0.09405221
177	0x3d2487e4	0.040168658
178	0x3d0369a0	0.032083154
179	0x3d59d578	0.053182095
180	0xbca16128	-0.019699648
181	0xbd80a404	-0.062812835
182	0x3d13bf44	0.036071077
183	0xbdc045a4	-0.09388283
184	0x3dd41af0	0.103567004
185	0xbd546054	-0.05184968
186	0xbdffff44	-0.1249986
187	0x3d902bda	0.07039614
188	0x3bd17620	0.0063922554
189	0xbd23f020	-0.040023923
190	0xbd390864	-0.045174018
191	0xbda7f022	-0.082000986
192	0x3f42fd2b	0.76167554
193	0x3b837e20	0.004012838
194	0x3f7da137	0.9907412
195	0xbe38f2d3	-0.1806138
196	0xbeab6f04	-0.33483136
197	0x3f7986bb	0.9747121
198	0xbed4897b	-0.4151114
199	0xbe35bd68	-0.17748034
200	0xbcde9d5a	-0.02717464
201	0x3e7b0ff6	0.24517807
202	0x3e84d08b	0.25940356
203	0xbf16de70	-0.5893316
204	0x3e861b11	0.26192525
205	0x3e8c9671	0.27458528
206	0x3fab6124	1.338902
207	0xbf142127	-0.57863086
208	0x3e85415a	0.26026422
209	0xbebcbf8f	-0.36864898
210	0x3dc6fc18	0.09716052
211	0x3e8feb81	0.28109363
212	0xbeb6d47e	-0.35708994
213	0x3ed44534	0.41459048
214	0x3f12e327	0.57377857
215	0x3e2b29a8	0.1671511
216	0x3c9869aa	0.018605072
217	0x3f9d83b8	1.2305822
218	0xbe9c915d	-0.30579653
219	0x3ea2c3fd	0.31790152
220	0x3f3772cc	0.7165954
221	0x3ece8a93	0.403401
222	0xbd86930b	-0.06571015
223	0x3d11fda1	0.03564227
224	0xbc96cd40	-0.018408418
225	0x3dab4216	0.08362214
226	0x3d4ba14c	0.04971437
227	0x3df22a24	0.11824444
228	0xbd281404	-0.041034713
229	0xbd6ecf48	-0.058303148
230	0xbca8ed58	-0.020620987
231	0x3dce4cea	0.10073264
232	0x3dcc16f6	0.09965317
233	0xbd83bb9c	-0.06432268
234	0x3df00750	0.11720145
235	0x3d995782	0.07487394
236	0x3d452908	0.048134834
237	0xbc653130	-0.013988778
238	0x3db54d02	0.08852579
239	0x3d8e4334	0.06946412
240	0x3d9c9006	0.07644658
241	0x3d16424c	0.03668432
242	0xbcd80648	-0.026370183
243	0x3d818732	0.063246146
244	0xbdb573b8	-0.08859962
245	0x3b8ae360	0.004238531
246	0xbdb3aa14	-0.08772674
247	0x3ca22f40	0.019797921
248	0x3dd52eee	0.10409342
249	0xbdeb2824	-0.114822656
250	0xbd057d9c	-0.032590494
251	0xbde08576	-0.10962956
252	0xbdc79e9c	-0.09747049
253	0x3d917008	0.071014464
254	0x3b187700	0.002326429
255	0x3c6d59b0	0.014486715

tgnn._base_tgcn.linear_h.bias f4 [32]
0	0x3ebf7f06	0.374016
1	0x3e760dbb	0.24028675
2	0xbdb67e32	-0.089107886
3	0xbe13702d	-0.1439826
4	0x3ec534ac	0.38516748
5	0x3f28a4a6	0.65876234
6	0x3e43d785	0.19125183
7	0xbdd97f03	-0.10619929
8	0x3e5c291e	0.2150006
9	0x3f364211	0.7119456
10	0x3e970ab9	0.29500368
11	0x3ea5c39a	0.32375795
12	0x3e83aa74	0.25715983
13	0x3e8a0c90	0.2696271
14	0xbd5bf182	-0.053697117
15	0xbe015309	-0.12629332
16	0xbdaaaba8	-0.08333522
17	0xbce08178	-0.027405486
18	0x3e1fb271	0.15595414
19	0x3f0db561	0.5535489
20	0x3f129b47	0.57268184
21	0xbeac1904	-0.33612835
22	0x3e91fd2d	0.2851347
23	0x3e862093	0.26196727
24	0x3e392162	0.18079141
25	0x3f3d1ff0	0.7387686
26	0x3f3dea32	0.7418548
27	0x3ef859d9	0.48506048
28	0x3ebbeca1	0.3670397
29	0x3e888551	0.26664212
30	0xbb634197	-0.0034676546
31	0x3ee42b40	0.44564247

linear.weight f4 [16, 32]
0	0x3e8c47ee	0.27398628
1	0xbf0ac0f2	-0.5420066
2	0xbde4321f	-0.11142372
3	0x3faa86c8	1.3322382
4	0x3f0b0b98	0.54314566
5	0xbf2f6fbb	-0.6852986
6	0x3f2309d8	0.63686895
7	0xbd541f80	-0.051787853
8	0x3f193301	0.5984345
9	0xbf7c448e	-0.98542106
10	0x3e354985	0.17703827
11	0x3eb6c777	0.35699055
12	0x3f406bf2	0.7516471
13	0xbf0165cf	-0.5054597
14	0x3cd01d8f	0.02540472
15	0x3dbc55ba	0.091960385
16	0x3c8bcec0	0.01706636
17	0xbde9bcde	-0.11412977
18	0x3f31c834	0.6944611
19	0xbf275dd1	-0.6537753
20	0xbf72d9d7	-0.9486365
21	0xbfd0a595	-1.6300532
22	0x3f24e238	0.6440768
23	0x3f0d38d5	0.55164844
24	0xbeb96fc2	-0.36218077
25	0xbfb63ebf	-1.4237899
26	0xbf4ae8f8	-0.7926173
27	0xbf3c3c54	-0.73529553
28	0xbf603ab1	-0.87589556
29	0x3e0605d6	0.13088164
30	0x3da4d7a8	0.08048946
31	0x3eb1512c	0.34632242
32	0x3e820f75	0.25402418
33	0xbf257309	-0.64628655
34	0x3d2f3b5c	0.04278122
35	0x3f933af7	1.150237
36	0x3f144af8	0.57926893
37	0xbf2e063b	-0.67978257
38	0x3f277029	0.6540552
39	0xbd30468e	-0.043036036
40	0x3f3bc7e3	0.7335188
41	0xbf7b1fe8	-0.9809556
42	0x3ebfa722	0.374322
43	0x3ead92c3	0.33901033
44	0x3f169391	0.5881892
45	0xbf16b4b2	-0.5886947
46	0xbe11616a	-0.14197317
47	0x3df094b5	0.117471136
48	0x3d155a9c	0.036463365
49	0xbd623948	-0.05523041
50	0x3f2782b5	0.6543382
51	0xbf3a5a96	-0.72794473
52	0xbf81404e	-1.0097749
53	0xbfdb22f3	-1.7120041
54	0x3f015320	0.50517464
55	0x3f42cbfb	0.760925
56	0xbe750589	-0.23927893
57	0xbfb59456	-1.4185894
58	0xbf4a7b62	-0.7909452
59	0xbf3a9b32	-0.7289306
60	0xbf834865	-1.0256468
61	0x3e47ad6c	0.19499749
62	0x3e066249	0.1312343
63	0x3f0e562e	0.5560025
64	0x3f0e8827	0.556765
65	0xbf323562	-0.69612706
66	0xbdecae30	-0.11556661
67	0x3f7e029b	0.99222726
68	0x3f060cf3	0.5236351
69	0xbf1d8835	-0.6153596
70	0x3f5f8ca8	0.87324
71	0xbdd6f8b3	-0.10496654
72	0x3f021def	0.50826925
73	0xbf7f00b0	-0.99610424
74	0x3e7e54c7	0.24837027
75	0x3f08becf	0.5341615
76	0x3f1639d9	0.5868202
77	0xbf39350d	-0.72346574
78	0x3c0c2c51	0.008555488
79	0x3d6f94a6	0.05849137
80	0xbe0eb946	-0.13937864
81	0xbe1508d6	-0.14554152
82	0x3ed28da4	0.41123688
83	0xbf585f0f	-0.8452005
84	0xbf7e0fcc	-0.99242854
85	0xbfe86c03	-1.8157963
86	0x3f2f640f	0.6851205
87	0x3f2ed279	0.68289906
88	0xbf1bb23d	-0.60818845
89	0xbfab64ae	-1.33901
90	0xbf532802	-0.8248292
91	0xbf54a13d	-0.8305853
92	0xbf69f970	-0.91396236
93	0x3eee3948	0.46528077
94	0x3ac7ea4b	0.001525232
95	0x3f031b40	0.51213455
96	0x3f060715	0.52354556
97	0xbf5305b0	-0.82430553
98	0x3c015b60	0.007895321
99	0x3f520e25	0.8205283
100	0x3f30676c	0.6890781
101	0xbf09cdca	-0.53829634
102	0x3f202c5e	0.625677
103	0x3d339237	0.043840613
104	0x3f04e625	0.5191367
105	0xbf832ca8	-1.0248003
106	0x3eebe9a8	0.46076703
107	0x3ee422c7	0.44557783
108	0x3f1bc670	0.60849667
109	0xbf6a69eb	-0.9156787
110	0x3c960e5a	0.01831739
111	0xbe0fdce6	-0.1404911
112	0x3e3424e9	0.17592205
113	0x3dfd0c2a	0.12355836
114	0x3efc1d68	0.49241185
115	0xbf6fa84b	-0.9361617
116	0xbf74d196	-0.956323
117	0xbff11579	-1.8834678
118	0x3f4a2e1c	0.7897661
119	0x3f4d719f	0.802515
120	0xbf054224	-0.5205405
121	0xbfa639d0	-1.2986393
122	0xbf62c74d	-0.8858536
123	0xbf4d350d	-0.80159074
124	0xbf8696db	-1.0514787
125	0x3e81dd84	0.25364316
126	0xbd368b62	-0.04456652
127	0x3f4dfe5b	0.8046624
128	0x3f052780	0.520134
129	0xbf659961	-0.8968716
130	0xbd6c1fc0	-0.057647467
131	0x3f025638	0.5091281
132	0x3f2a877f	0.66613
133	0xbf358778	-0.70909834
134	0x3f55e1fa	0.8354794
135	0x3db2e958	0.08735913
136	0x3f3ab66a	0.7293459
137	0xbf6fc67d	-0.93662244
138	0x3f1de7da	0.616819
139	0x3f0fa320	0.56108284
140	0x3f1d0b55	0.61345416
141	0xbf5e8e5b	-0.8693597
142	0xbcbd15c0	-0.02308166
143	0xbdc24e75	-0.09487621
144	0x3e32f501	0.17476274
145	0x3dd6be0a	0.10485466
146	0x3f030220	0.5117512
147	0xbf82f078	-1.0229635
148	0xbf867476	-1.0504291
149	0xbff6a6ad	-1.9269615
150	0x3f04da8f	0.51895994
151	0x3f4a129a	0.78934634
152	0xbf0f267a	-0.55918086
153	0xbfa69161	-1.3013116
154	0xbf4e7f35	-0.8066285
155	0xbf38f5da	-0.7225014
156	0xbf9bf9d8	-1.2185621
157	0x3e8c9e01	0.27464297
158	0x3bda1310	0.0066551045
159	0x3f743d56	0.9540609
160	0x3f44be12	0.76852524
161	0xbf7fb60e	-0.9988717
162	0x3e2ac425	0.16676386
163	0x3ea78006	0.32714862
164	0x3f340bfb	0.7033078
165	0xbf6dbac1	-0.9286309
166	0x3f65668d	0.89609605
167	0xbd18e6df	-0.03732955
168	0x3ef28473	0.47366676
169	0xbf64bd77	-0.893516
170	0x3ed32857	0.41241714
171	0x3f1e1c1c	0.6176164
172	0x3f5828d1	0.8443728
173	0xbf867abb	-1.0506204
174	0xbd0e7f8b	-0.034789603
175	0x3ddf83ab	0.109137855
176	0xbdbfc9d9	-0.09364671
177	0xbe09c110	-0.13452554
178	0x3ec4549a	0.38345796
179	0xbf848bfa	-1.0355217
180	0xbf92e80f	-1.1477069
181	0xbffa2c4d	-1.954477
182	0x3f4e1102	0.804947
183	0x3f0ef5e5	0.55843955
184	0xbf08c28c	-0.53421855
185	0xbf9d3c7c	-1.2284083
186	0xbf3071ed	-0.68923837
187	0xbf2acdce	-0.66720283
188	0xbfb8f9e7	-1.4451264
189	0x3f197946	0.59950674
190	0x3d8f9d81	0.07012463
191	0x3f72d7fb	0.9486081
192	0x3f091a70	0.53555965
193	0xbf804587	-1.0021218
194	0x3dfc2082	0.12310888
195	0x3df3b02d	0.11898837
196	0x3f45faaf	0.7733564
197	0xbf471115	-0.7776044
198	0x3f5f5bfe	0.87249744
199	0x3d4aa3c0	0.04947257
200	0x3f302bfa	0.688171
201	0xbf533028	-0.82495356
202	0x3f05bd17	0.52241653
203	0x3f311458	0.6917167
204	0x3f3e1f60	0.74266624
205	0xbf98df48	-1.194314
206	0xbde23fdb	-0.11047336
207	0xbd2a1944	-0.041528
208	0xbdd4ea2a	-0.10396226
209	0x3da62b72	0.08113755
210	0x3f02cb2f	0.51091284
211	0xbf9aa003	-1.2080082
212	0xbf78cb0d	-0.9718483
213	0xc0006f51	-2.0067942
214	0x3f0e02bb	0.55472916
215	0x3f12dc4d	0.573674
216	0xbf6576c0	-0.89634323
217	0xbf8d2356	-1.1026409
218	0xbf581cd3	-0.8441898
219	0xbf43684d	-0.76331025
220	0xbfb78df5	-1.4340197
221	0x3f05884b	0.5216109
222	0x3d19a392	0.03750951
223	0x3f9d0f7c	1.227035
224	0x3f43f601	0.7654725
225	0xbf991604	-1.1959844
226	0xbccfba30	-0.025357336
227	0xbdf5371f	-0.11973404
228	0x3f35b2d0	0.7097597
229	0xbf6a0321	-0.91411024
230	0x3f7be806	0.98400915
231	0xbd7a1fa2	-0.061065324
232	0x3f24165b	0.6409661
233	0xbf589a85	-0.8461078
234	0x3f444d1b	0.76680154
235	0x3f16a6c9	0.58848244
236	0x3f2ba986	0.6705555
237	0xbfac6539	-1.3468391
238	0x3cdd7f71	0.027038308
239	0xbdb7b461	-0.089699514
240	0xbc8d7e58	-0.01727216
241	0xbcb20538	-0.021731004
242	0x3edb1bc9	0.42794636
243	0xbfa017b7	-1.2507237
244	0xbf822b84	-1.016953
245	0xbffbcb29	-1.9671375
246	0x3f4260a7	0.7592873
247	0x3f4295e0	0.7600994
248	0xbf4f8338	-0.810596
249	0xbf867e8e	-1.0507371
250	0xbf298731	-0.6622191
251	0xbf1e480a	-0.6182867
252	0xbfbfa368	-1.4971743
253	0x3ede9944	0.43476307
254	0x3caf65fd	0.021410936
255	0x3f897052	1.0737402

linear.bias f4 [16]
0	0x3ed94583	0.42435846
1	0x3e8a3ebf	0.27000996
2	0x3e82f6f8	0.25579047
3	0x3e51efa6	0.20501575
4	0xbc2bb81a	-0.010480905
5	0xbd2ac6be	-0.04169344
6	0xbd2b1f55	-0.041777927
7	0xbde10331	-0.10986937
8	0xbe6daee2	-0.23211244
9	0xbe6aab4d	-0.22916909
10	0xbeaa9e57	-0.3332393
11	0xbe989ca8	-0.2980702
12	0xbe9dd90d	-0.3082966
13	0xbea91631	-0.33024743
14	0xbe80acf2	-0.25131947
15	0xbe9a0eaf	-0.30089328

linear2.weight f4 [6, 21]
0	0x3f330a27	0.69937366
1	0x3f321bfc	0.6957395
2	0x3d6188b0	0.055061996
3	0xbe57ddd3	-0.21080713
4	0xbe9d5264	-0.30726922
5	0x3eda25f3	0.42607078
6	0xbf0b25c2	-0.5435449
7	0x3f762b68	0.9615998
8	0x3db4d25a	0.08829184
9	0x3eca3e7e	0.39500803
10	0xbf47a5b6	-0.7798723
11	0xbea46a09	-0.32112148
12	0x3c949ce8	0.018141225
13	0xbe05bbfb	-0.1305999
14	0x3ec781e0	0.38966274
15	0xbeff0cd0	-0.49814463
16	0xbe883861	-0.26605514
17	0x3efc4f69	0.49279335
18	0x3c9360f5	0.017990569
19	0xbe93dc0c	-0.2887882
20	0xbcf60b93	-0.030034816
21	0xbd14db95	-0.036342222
22	0x3e9a5b3b	0.30147728
23	0x3d97c0ea	0.07409842
24	0x3d7e3ed9	0.062071655
25	0xbf26c6b0	-0.65146923
26	0x3f061063	0.52368754
27	0x3f3ccae2	0.73747075
28	0x3e913053	0.2835718
29	0xbe12da91	-0.14341189
30	0x3e650b3b	0.22367565
31	0x3f1bc00b	0.6083991
32	0xbd2d32d4	-0.0422848
33	0xbe409d95	-0.18810113
34	0x3e447729	0.19186081
35	0xbe1c774d	-0.15279885
36	0xbeabf050	-0.3358178
37	0x3c3404ff	0.010987519
38	0xbf42f5e3	-0.76156443
39	0xbd6383c5	-0.055545587
40	0x3d91eed6	0.071256325
41	0x3e999714	0.29998076
42	0x3ed0c8fe	0.40778345
43	0x3d27923e	0.04091095
44	0xbd79963f	-0.0609343
45	0xbdee70a1	-0.11642576
46	0xbeab79c2	-0.3349133
47	0x3d79885d	0.06092106
48	0x3e8b7e2e	0.27244705
49	0x3f210651	0.62900263
50	0x3e0de7a4	0.13857895
51	0xbee6b6f1	-0.45061448
52	0xbe1aa69c	-0.15102619
53	0xbdd43fc8	-0.10363728
54	0x3df4b8c7	0.11949306
55	0xbeda4982	-0.42634207
56	0x3f349990	0.7054682
57	0xbe909567	-0.28238985
58	0xbe11ede5	-0.14250906
59	0xbe8818be	-0.26581377
60	0xbe420110	-0.18945718
61	0xbec6ce83	-0.3882943
62	0xbe5e4a00	-0.21707916
63	0xbef21770	-0.47283506
64	0xbe89caa0	-0.26912403
65	0x3cb5ebd8	0.022207186
66	0xbd36cf78	-0.04463145
67	0x3db6545e	0.089028105
68	0xbe90d5f6	-0.2828824
69	0x3e29bf1e	0.16576812
70	0xbf985f1f	-1.1904029
71	0x3e95f108	0.29285455
72	0x3ec295bb	0.3800486
73	0x3e1b8229	0.15186371
74	0x3f0b6c5d	0.54462224
75	0x3ecc61fb	0.39918503
76	0xbed79f16	-0.4211356
77	0xbe5fd83d	-0.21859832
78	0x3f6b3703	0.91880816
79	0x3efbf898	0.492131
80	0x3bfe43e9	0.0077595604
81	0xbe16f1a2	-0.14740613
82	0x3e991fbe	0.2990703
83	0x3e876986	0.26447695
84	0x3c00687d	0.007837412
85	0xbe830ef0	-0.25597334
86	0xbe498181	-0.19678308
87	0x3f09b608	0.5379338
88	0x3f53a745	0.8267711
89	0xbeb71078	-0.35754752
90	0xbe96f7d3	-0.2948595
91	0x3ea179ac	0.3153814
92	0x3d9622d3	0.07330861
93	0xbf171b16	-0.59025705
94	0xbe5c228a	-0.2149755
95	0xbf115cbb	-0.5678212
96	0xba92d1f5	-0.0011201488
97	0x3e2ef527	0.17085706
98	0x3f05461a	0.5206009
99	0xbe69a3f4	-0.2281645
100	0xbea3ce99	-0.3199356
101	0x3ecef649	0.40422276
102	0x3ec9e5f7	0.39433262
103	0x3e512239	0.20423211
104	0x3ccfc5dc	0.025362901
105	0xbe495f5f	-0.19665287
106	0xbeb3b356	-0.3509776
107	0xbf12e473	-0.57379836
108	0x3c44306d	0.011974436
109	0x3f24f999	0.64443356
110	0xbdc23ec5	-0.094846286
111	0x3cd92bb5	0.026510099
112	0xbf57976a	-0.84215415
113	0x3ec36538	0.3816316
114	0x3de6f92d	0.11277995
115	0x3e278fda	0.16363469
116	0x3e1e5b18	0.15464437
117	0x3f14ac57	0.5807547
118	0xbdf59e56	-0.11993091
119	0xbe20f665	-0.15718992
120	0x3f0611b7	0.5237078
121	0x3eb9e08c	0.36304128
122	0x3e8ca4f5	0.27469602
123	0xbe31c112	-0.17358807
124	0x3e8c409a	0.27393037
125	0xbd283fc1	-0.041076425

linear2.bias f4 [6]
0	0xbec3fa0b	-0.38276705
1	0x3e561a26	0.20908412
2	0xbfda405c	-1.7050891
3	0x3e8cc053	0.27490482
4	0x3f28973a	0.65855753
5	0xbf918cbe	-1.1371076
