A3TGCN2_Checkpoints/Epoch_11.pth (torch, 35255 bytes, 17 tensors)

tgnn._attention f4 [16]
0	0x3f9e5693	1.237017
1	0x3f7cb836	0.98718584
2	0x3f389757	0.72105926
3	0x3d174fa5	0.03694119
4	0x3ed01b84	0.40645993
5	0xbe0aa908	-0.13541043
6	0xbe9ae673	-0.30253944
7	0x3eaa5463	0.33267507
8	0x3e08be0e	0.1335375
9	0x3d33dd47	0.0439122
10	0x3e8d68bd	0.2761897
11	0x3ef58269	0.47951058
12	0x3ecbe9d5	0.39826837
13	0x3f39eac4	0.7262385
14	0x3f636661	0.8882809
15	0x3fa6108f	1.2973803

tgnn._base_tgcn.conv_z.bias f4 [32]
0	0x3ef8897f	0.485424
1	0x3eeced0b	0.462746
2	0x3da8613b	0.0822167
3	0xbccc742c	-0.024957739
4	0xbd3693b1	-0.044574443
5	0xbeba519a	-0.36390382
6	0xbea50ca3	-0.32236204
7	0xbef3c7ca	-0.47613364
8	0x3f09627e	0.5366591
9	0x3f06e34f	0.52690595
10	0xbf07f3f0	-0.53106594
11	0xbefe1001	-0.49621585
12	0x3d00a092	0.03140313
13	0x3d98d430	0.074623466
14	0x3eee0c76	0.46493882
15	0x3eeffd74	0.46873057
16	0xbefb1159	-0.49036673
17	0x3f0ac534	0.5420716
18	0x3e8492c4	0.25893223
19	0x3f0a261b	0.53964394
20	0x3efe0f8c	0.49621236
21	0xbeeb79ef	-0.45991465
22	0xbf052139	-0.5200382
23	0x3eeea99a	0.4661377
24	0xbed08007	-0.40722677
25	0xbee45919	-0.44599226
26	0xbed3c05d	-0.413577
27	0x3ed6e313	0.4197012
28	0x3ec2e06c	0.38061845
29	0xbea83f52	-0.3286081
30	0x3eb22c3c	0.34799373
31	0x3ef9798d	0.48725548

tgnn._base_tgcn.conv_z.lin.weight f4 [32, 3]
0	0xbe1b8283	-0.15186505
1	0xbec40add	-0.38289538
2	0xbf918b85	-1.1370703
3	0x3e7735af	0.24141572
4	0xbf02d5d2	-0.51107514
5	0xbf32ae02	-0.69796765
6	0xbe79a694	-0.24379951
7	0x3e661709	0.22469725
8	0xbedcc90a	-0.4312213
9	0xbe8ed6c4	-0.27898228
10	0x3f3d3190	0.7390375
11	0x3f8c0524	1.0939069
12	0x3e3bd4cb	0.18342893
13	0xbeb2b475	-0.34903303
14	0x3e336f9f	0.17523049
15	0xbe06dd5e	-0.13170382
16	0x3f0a5191	0.5403071
17	0x3f8b95b8	1.0905066
18	0xbecf9932	-0.40546566
19	0xbcf5fd7d	-0.0300281
20	0x3eed7b06	0.46382922
21	0xbd844079	-0.0645761
22	0x3ea7fad9	0.3280857
23	0x3f410f85	0.75414306
24	0x3e55f036	0.20892414
25	0xbf07a8cc	-0.5299194
26	0xbf62c396	-0.8857969
27	0x3eabfa79	0.33589533
28	0xbf54d081	-0.8313065
29	0xbf5f9202	-0.87332165
30	0x3dd32a4c	0.10310802
31	0x3f057013	0.52124137
32	0x3f1d5433	0.614566
33	0xbeb94080	-0.36182022
34	0x3f0c3216	0.54763925
35	0x3f0c156c	0.5472019
36	0xbca85d55	-0.020552317
37	0x3ed9a078	0.4250524
38	0xbecc1677	-0.3986089
39	0xbf30b6a1	-0.6902867
40	0x3dc8040c	0.09766397
41	0x3f46def9	0.7768398
42	0x3e9c5b04	0.3053819
43	0xbf0018e4	-0.5003798
44	0xbf46ade1	-0.7760907
45	0x3d31f6a7	0.043448117
46	0xbea807a0	-0.32818317
47	0xbf9f29f9	-1.2434684
48	0xbe0cd47e	-0.13752934
49	0x3eeb23c9	0.4592574
50	0x3f1b18da	0.60584795
51	0x3e261f5c	0.162229
52	0xbf2d9883	-0.6781084
53	0xbfa15034	-1.2602601
54	0xbe8bb80a	-0.27288848
55	0xbe0726d8	-0.13198411
56	0xbdc17c87	-0.0944758
57	0xbd9496b4	-0.07255307
58	0xbf0041e1	-0.50100523
59	0xbf9aef70	-1.210432
60	0x3eb469d7	0.35237
61	0xbeee8240	-0.46583748
62	0xbf2978e4	-0.6620009
63	0xbdeed2f6	-0.11661331
64	0x3ec83a6a	0.39107066
65	0x3ec5094a	0.3848365
66	0xbe8ec76c	-0.27886522
67	0x3f49d2f9	0.78837544
68	0x3f89e2cc	1.0772338
69	0x3e2ab758	0.16671503
70	0xbe925a72	-0.2858463
71	0xbf920771	-1.1408521
72	0x3e2314bb	0.15925877
73	0x3e2c83ce	0.16847154
74	0x3f6f4844	0.93469644
75	0x3d9e832e	0.07739864
76	0x3e07f306	0.132763
77	0x3f66794c	0.90028834
78	0x3ed44896	0.4146163
79	0x3e9331c9	0.2874892
80	0x3ec96cc6	0.393408
81	0xbed64d8d	-0.41856042
82	0xbeb95d4c	-0.36203992
83	0xbe971e5f	-0.2951536
84	0x3e34303b	0.17596523
85	0xbe07bd4f	-0.13255809
86	0xbf30d0a2	-0.6906835
87	0x3f480dcf	0.7814607
88	0x3f77f388	0.96855974
89	0x3f164d23	0.5871145
90	0xbdc60a24	-0.09669903
91	0xbfa0d1ce	-1.2564027
92	0xbee8ad3a	-0.4544466
93	0x3d1173ba	0.035510756
94	0xbf03ce72	-0.51486886
95	0xbf71f0bb	-0.9450795

tgnn._base_tgcn.linear_z.weight f4 [32, 64]
0	0xbf52b707	-0.8231053
1	0xbf0df9fa	-0.5545956
2	0x3d723243	0.059129965
3	0x3f5d51e1	0.8645306
4	0xbe074340	-0.13209248
5	0x3f7417ac	0.9534862
6	0x3e0e3c90	0.1389029
7	0x3e8ad0f7	0.27112553
8	0xbf268e4e	-0.6506089
9	0xbf7e8309	-0.99418694
10	0x3f6498a9	0.8929544
11	0x3eeeea72	0.46663243
12	0xbb87323f	-0.004125863
13	0xbe97d7df	-0.29656884
14	0xbf18ff68	-0.5976472
15	0xbf2f4707	-0.68467754
16	0x3f1e49a1	0.618311
17	0xbf8f5336	-1.1197269
18	0xbe4d6bdf	-0.20060681
19	0xbf9dd75b	-1.2331346
20	0xbec2b466	-0.38028258
21	0x3efe4b5b	0.49666867
22	0x3f8df6f4	1.1090989
23	0xbeaee020	-0.3415537
24	0x3ec793ab	0.3897985
25	0x3e84453e	0.25834078
26	0x3ef7e3f3	0.484161
27	0xbf3b138c	-0.730767
28	0xbe73a260	-0.2379241
29	0x3ecf7521	0.4051905
30	0xbf342e57	-0.7038321
31	0xbf79aae8	-0.9752641
32	0x3ca5dba8	0.020246342
33	0x3d64c704	0.05585386
34	0x3d376430	0.04477328
35	0x3d1089a4	0.035287514
36	0x3cbd8e88	0.023139253
37	0xbcb79138	-0.022408113
38	0x3deae07c	0.11468598
39	0xbc941b58	-0.018079445
40	0xbd60348c	-0.054737613
41	0x3d9ddff8	0.07708734
42	0xbd3d5e3c	-0.046232447
43	0x3dec22ce	0.11530076
44	0x3de290f0	0.11062801
45	0xbdaba19e	-0.083804354
46	0xbdd24a90	-0.10268128
47	0xbd276020	-0.040863156
48	0x3da5223e	0.08063172
49	0xbdd291bc	-0.10281703
50	0x3d8af502	0.06785013
51	0xbdfe2028	-0.12408477
52	0xbcc31510	-0.023813754
53	0xbd06ae1c	-0.032880887
54	0x3c592e50	0.013255671
55	0x3dcec97c	0.10097024
56	0xbdb40a88	-0.08791071
57	0x3b072f80	0.0020627677
58	0x3bc81160	0.006105587
59	0xbd56c170	-0.05243057
60	0x3c0d2900	0.008615732
61	0x3db887ca	0.09010275
62	0xbd9ca6e4	-0.07649019
63	0x3da2020c	0.07910547
64	0xbecc03eb	-0.3984674
65	0xbf0cd2af	-0.5500898
66	0xbeb61e4d	-0.35569993
67	0xbe74508e	-0.23858854
68	0x3efa3b68	0.48873448
69	0x3f09cc5c	0.5382745
70	0x3f173c74	0.5907662
71	0x3f16f7f2	0.58972085
72	0xbeeb3a14	-0.45942748
73	0xbf02ff45	-0.5117076
74	0x3eb45dd4	0.35227835
75	0x3f255338	0.64580107
76	0xbf0997a1	-0.5374699
77	0x3eaf7fb3	0.34277114
78	0xbf1786b1	-0.591899
79	0xbefbcc5e	-0.49179357
80	0x3ebaf850	0.36517572
81	0xbf203c24	-0.6259177
82	0xbe8551b2	-0.2603889
83	0xbf047e7e	-0.5175551
84	0xbf00b2ab	-0.50272626
85	0x3f08f51f	0.53499025
86	0x3ef674c0	0.48135948
87	0xbf019277	-0.5061411
88	0x3ecf2438	0.4045732
89	0x3f19b955	0.6004842
90	0x3ea2f3ad	0.31826535
91	0xbdeef8e0	-0.11668563
92	0xbed56a56	-0.4168269
93	0xbc9a4529	-0.018831806
94	0xbe8966f5	-0.26836362
95	0xbeeefee3	-0.46678838
96	0x3dbfcfd2	0.093658105
97	0x3d5cda4c	0.05391912
98	0xbd9759c2	-0.07390167
99	0xbd8eab42	-0.069662586
100	0x3ce24090	0.027618676
101	0x3d10e8f8	0.035378426
102	0x3d8797c6	0.06620745
103	0xbdbb660e	-0.09150325
104	0x3df6a7ee	0.12043749
105	0xbcc94720	-0.024570048
106	0x3d339b5c	0.043849334
107	0xbd5b6d64	-0.05357112
108	0x3d433538	0.047658175
109	0x3ddaa082	0.10675146
110	0xbdb84d72	-0.089991465
111	0x3c392780	0.011300921
112	0x3c7af590	0.015317336
113	0xbc93ae30	-0.018027395
114	0xbd0c6ad4	-0.034281567
115	0x3cc63050	0.02419296
116	0x3cbd74d0	0.02312699
117	0xbd519f78	-0.051177472
118	0x3d35655c	0.044286117
119	0x3dd57bda	0.104240134
120	0x3cfa1138	0.030525789
121	0xbd82a736	-0.06379549
122	0xbc99b3e8	-0.018762544
123	0xbd0399bc	-0.032129034
124	0x3dff8eb2	0.12478389
125	0xbd84f17a	-0.064913705
126	0x3d99ab2e	0.07503353
127	0xbdfe9f46	-0.12432723
128	0x3d37e158	0.04489264
129	0xbdf1b328	-0.118017495
130	0xbc5987b0	-0.013276979
131	0xbdc19d9a	-0.09453888
132	0xbdd117b8	-0.10209602
133	0x3cb759e0	0.022381723
134	0x3dbecc76	0.093163416
135	0x3dba0ac0	0.09084082
136	0xbd598f04	-0.053114906
137	0xbd14bb34	-0.036311343
138	0xbcab8b68	-0.020940498
139	0xbb5cc780	-0.0033688247
140	0xbda78b58	-0.081808746
141	0xbb8df180	-0.0043317676
142	0x3d98f48a	0.07468517
143	0x3dd69a4a	0.10478647
144	0x3dc4cf34	0.09609833
145	0xbd78e550	-0.060765564
146	0x3d963b64	0.073355466
147	0x3d881408	0.06644446
148	0x3ddc3500	0.107522964
149	0xbd06be3c	-0.032896265
150	0xbdc35872	-0.09538354
151	0x3c6ca170	0.014442787
152	0x3d854736	0.06507723
153	0xbce7a488	-0.028276697
154	0x3c1e61f0	0.009666905
155	0xbc932458	-0.017961666
156	0xbdd9ba8a	-0.10631283
157	0x3d17105c	0.036880836
158	0x3d02d9d8	0.031946033
159	0x3b2a9d00	0.002603352
160	0xbdd4c39a	-0.103888705
161	0x3d4ce114	0.05001934
162	0x3b9fd340	0.004877478
163	0xbde1abb0	-0.11019075
164	0xbddde0b2	-0.10833873
165	0x3c60b860	0.013715833
166	0x3c726510	0.014794603
167	0x3c23daf0	0.010000929
168	0x3d82217a	0.063540414
169	0xba1b2400	-0.0005918145
170	0x3df3f7fa	0.11912532
171	0xbd11c80c	-0.03559117
172	0xbd9136f0	-0.070905566
173	0xbdb36646	-0.087597415
174	0xbd7a5b80	-0.061122417
175	0x3df685d0	0.120372415
176	0x3d80ac46	0.062828586
177	0xbd3c11f4	-0.04591556
178	0xbdacaaf8	-0.08431047
179	0xbc0933c0	-0.008374155
180	0x3db23ec4	0.08703378
181	0x3df7fda0	0.12108922
182	0xbde94b26	-0.113912866
183	0xbd6f9b30	-0.058497608
184	0xbdd43d52	-0.103632584
185	0xbcbca818	-0.023029372
186	0xbc933dc8	-0.017973796
187	0x3de6c6e8	0.11268407
188	0x3df61a1c	0.12016699
189	0x3dec2bdc	0.11531803
190	0xbd4c32cc	-0.04985313
191	0xbd5ec020	-0.054382443
192	0xbf22dfd1	-0.63622767
193	0xbf10b32a	-0.5652338
194	0xbe162234	-0.14661485
195	0xbe8a72d9	-0.27040747
196	0x3dbc6011	0.09198011
197	0x3f008246	0.5019878
198	0x3e8a4ff5	0.27014127
199	0x3eb6d6e4	0.35710824
200	0xbf09b0f4	-0.53785634
201	0xbf22a6be	-0.6353568
202	0x3f247cf5	0.6425317
203	0x3edf9a6d	0.43672505
204	0x3d9cffc1	0.07665969
205	0xbe8e6882	-0.27814108
206	0xbed74d34	-0.4205109
207	0xbef77644	-0.48332417
208	0x3ee0039f	0.43752763
209	0xbf033571	-0.5125342
210	0xbee78e36	-0.45225686
211	0xbf043bf8	-0.51654005
212	0xbf0fcfd7	-0.56176513
213	0x3f136135	0.575702
214	0x3f4ce200	0.8003235
215	0xbe805304	-0.25063336
216	0x3ebef68c	0.37297475
217	0x3e9bae56	0.30406445
218	0x3efaaff5	0.4896237
219	0xbf3b763d	-0.7322729
220	0xbe6d9b35	-0.23203738
221	0x3f0008be	0.5001334
222	0xbf89a94e	-1.0754793
223	0xbf2ba37b	-0.67046326
224	0x3d605048	0.054764062
225	0xbdb0e9ba	-0.0863833
226	0xbdb4fa48	-0.088368
227	0x3d4ed560	0.05049646
228	0xbd3cdb48	-0.04610756
229	0x3d40e620	0.047094464
230	0x3dc69eaa	0.096982315
231	0xbd388f10	-0.04505831
232	0xbc9989f0	-0.018742532
233	0xbdc8f60e	-0.09812556
234	0xbdc6531c	-0.096838206
235	0x3c88dd20	0.016707003
236	0x3cc4a908	0.024006382
237	0xbdcbdb8e	-0.09953986
238	0xbdd33c42	-0.10314228
239	0x3d84be3c	0.06481597
240	0xbb9f6c60	-0.004865214
241	0x3dd9320a	0.10605247
242	0x3dda115a	0.10647841
243	0x3d1e80c8	0.038697034
244	0xbc7f42c0	-0.015579879
245	0x3d43942c	0.04774873
246	0x3db2cc24	0.08730343
247	0x3dec2dd2	0.11532177
248	0x3dc0d344	0.09415296
249	0xbdd7279c	-0.10505602
250	0xbd85e200	-0.06537247
251	0xbdf441da	-0.11926623
252	0xbde0a6a4	-0.10969284
253	0x3c60a5e0	0.013711423
254	0x3df5858c	0.11988363
255	0x3d0a8098	0.033814043

tgnn._base_tgcn.linear_z.bias f4 [32]
0	0xbeb6173e	-0.35564607
1	0xbed16f07	-0.4090502
2	0x3df209fa	0.11818309
3	0xbec9346d	-0.3929781
4	0xbec1b81d	-0.3783578
5	0xbe91897f	-0.28425214
6	0xbe97856b	-0.29593977
7	0x3c7d1da9	0.015448966
8	0xbecb9ca8	-0.39767957
9	0xbe5271c5	-0.20551212
10	0xbebb3549	-0.3656409
11	0xbeb9cb2f	-0.3628783
12	0xbee229f7	-0.44172642
13	0xbefdfc07	-0.49606344
14	0xbbc011c0	-0.005861491
15	0x3d8c6e33	0.06856956
16	0x3d792d1c	0.060834035
17	0xbde35078	-0.110993326
18	0xbec1e524	-0.37870133
19	0xbe9e7b7c	-0.30953586
20	0xbe55d6a3	-0.20882659
21	0x3efca528	0.49344754
22	0xbe921d42	-0.28537947
23	0xbec147f7	-0.37750217
24	0xbea91b1b	-0.33028492
25	0xbebcfa1d	-0.3690957
26	0xbe0ec2dd	-0.13941522
27	0xbe98174d	-0.29705277
28	0xbe89d9ad	-0.26923886
29	0xbebc99c9	-0.3683608
30	0x3df53c78	0.11974424
31	0xbea64e6a	-0.324817

tgnn._base_tgcn.conv_r.bias f4 [32]
0	0x00000000	0.0
1	0x00000000	0.0
2	0x00000000	0.0
3	0x00000000	0.0
4	0x00000000	0.0
5	0x00000000	0.0
6	0x00000000	0.0
7	0x00000000	0.0
8	0x00000000	0.0
9	0x00000000	0.0
10	0x00000000	0.0
11	0x00000000	0.0
12	0x00000000	0.0
13	0x00000000	0.0
14	0x00000000	0.0
15	0x00000000	0.0
16	0x00000000	0.0
17	0x00000000	0.0
18	0x00000000	0.0
19	0x00000000	0.0
20	0x00000000	0.0
21	0x00000000	0.0
22	0x00000000	0.0
23	0x00000000	0.0
24	0x00000000	0.0
25	0x00000000	0.0
26	0x00000000	0.0
27	0x00000000	0.0
28	0x00000000	0.0
29	0x00000000	0.0
30	0x00000000	0.0
31	0x00000000	0.0

tgnn._base_tgcn.conv_r.lin.weight f4 [32, 3]
0	0x3e2dbb1e	0.16965911
1	0xbd19d140	-0.037553072
2	0x3d6d9168	0.058
3	0x3e9d845b	0.30765042
4	0xbe958766	-0.29204863
5	0xbca54bc0	-0.020177722
6	0xbe0fc728	-0.14040816
7	0xbe90129a	-0.28139192
8	0x3dc07464	0.093972
9	0x3c34dfe0	0.011039704
10	0x3dc5845c	0.09644386
11	0x3ea84d07	0.32871267
12	0xbe9065a7	-0.28202555
13	0xbd1d18a0	-0.038353562
14	0xbde90a64	-0.11378935
15	0x3e802c9b	0.2503403
16	0xbd8f5534	-0.06998673
17	0xbeb94f84	-0.36193478
18	0x3caf6ea0	0.021415055
19	0x3e071ea2	0.13195279
20	0x3e253ebe	0.16137215
21	0xbdced154	-0.1009852
22	0x3e17a1f2	0.14807871
23	0x3d8c5ea8	0.06853992
24	0x3e4e33d6	0.20136961
25	0x3e76bd72	0.24095705
26	0xbe3b6a1a	-0.18302193
27	0xbe903fa0	-0.28173542
28	0x3dbb429c	0.09143564
29	0x3e6e993a	0.23300639
30	0x3e130422	0.14357045
31	0xbe3d30cc	-0.18475646
32	0xbe9c0b49	-0.3047736
33	0x3dbbbb6c	0.09166607
34	0x3e8f6c8f	0.2801251
35	0xbe3e1b77	-0.18565165
36	0xbe735202	-0.23761752
37	0x3ea07dbf	0.31345937
38	0xbec0c99d	-0.3765382
39	0x3e9dcd8f	0.3082089
40	0xbc081760	-0.008306354
41	0x3dfacb5c	0.12245819
42	0xbe173ecc	-0.14770049
43	0xbe81fed0	-0.2538972
44	0x3ec9d953	0.39423618
45	0x3e2a6586	0.1664029
46	0xbda73474	-0.081643015
47	0xbe7794e2	-0.24177888
48	0x3e9a265d	0.30107394
49	0xbe358dc1	-0.17729856
50	0x3e7b6c5e	0.24553058
51	0x3e29eec6	0.16594991
52	0xbe8ad3b4	-0.27114642
53	0x3e2e16fa	0.17000952
54	0xbc5f86e0	-0.013642997
55	0x3e8ce079	0.2751501
56	0xbe34e29d	-0.17664571
57	0xbebe0f98	-0.37121272
58	0xbec97850	-0.39349604
59	0xbe73b836	-0.2380074
60	0x3e906677	0.28203174
61	0xbe7e96b2	-0.24862173
62	0xbdc8c428	-0.09803039
63	0xbc0bf8a0	-0.008543164
64	0xbb1da380	-0.0024053752
65	0xbda0a180	-0.07843304
66	0xbe78de44	-0.24303538
67	0xbd90ab74	-0.07063952
68	0xbe9f1f1e	-0.31078428
69	0xbeb5980f	-0.35467574
70	0x3e77e6fe	0.2420921
71	0xbe5984e0	-0.21242094
72	0x3e77a8ae	0.2418544
73	0xbe479047	-0.19488631
74	0x3e3d2cba	0.18474093
75	0xbd960f64	-0.07327154
76	0xbe1f8030	-0.15576243
77	0x3e3d74b6	0.18501553
78	0x3e1e642e	0.15467903
79	0x3dbd081c	0.09230062
80	0x3b54b580	0.0032456815
81	0xbd8479c8	-0.064685404
82	0xbecdfa35	-0.40229955
83	0xbd95e858	-0.07319707
84	0x3eb1456d	0.3462328
85	0x3e967091	0.29382756
86	0x3dbfee94	0.09371677
87	0x3e4b53f2	0.19856241
88	0xbd4ff650	-0.05077201
89	0xbe836d5e	-0.25669378
90	0xbe36b079	-0.17840756
91	0x3e30cd92	0.17265919
92	0x3ecd9f09	0.40160397
93	0x3e143f96	0.14477381
94	0xbd782570	-0.06058258
95	0xbeb693d6	-0.35659665

tgnn._base_tgcn.linear_r.weight f4 [32, 64]
0	0xbd970bf8	-0.0737533
1	0x3ceae498	0.028673455
2	0xbd037fe8	-0.032104403
3	0xbdfe962e	-0.12430988
4	0x3cc3bbe8	0.023893312
5	0x3d472720	0.048621297
6	0x3dcb6352	0.09931053
7	0xbd6555ac	-0.055989906
8	0x3dad23f2	0.08454122
9	0xbde136a2	-0.109967485
10	0x3cdda940	0.027058244
11	0x3cab0898	0.020878121
12	0xbdbc6012	-0.091980115
13	0x3d76ede4	0.060285464
14	0x3de20d46	0.11037688
15	0xbd805a34	-0.06267205
16	0xbd2f4608	-0.042791396
17	0x3c941060	0.018074214
18	0x3db702f4	0.0893611
19	0xbd8e6246	-0.06952338
20	0xbd435ea4	-0.04769768
21	0x3d373864	0.044731513
22	0x3d271ac0	0.040796995
23	0x3d72c288	0.05926755
24	0x3dcc53e4	0.09976938
25	0x3de806dc	0.11329433
26	0x3db67b4c	0.08910236
27	0x3d6b40c8	0.057434827
28	0x3d9384ee	0.07203089
29	0x3d99833c	0.07495734
30	0xbde128e2	-0.10994126
31	0x3b8fd180	0.004388988
32	0xbdd6af22	-0.10482623
33	0x3cbc22c0	0.022965789
34	0x3d5b78b0	0.053581893
35	0xbd720358	-0.05908522
36	0x3ddf665a	0.10908194
37	0x3d61f370	0.0551638
38	0x3d5f8cc0	0.05457759
39	0x3c30be30	0.010787532
40	0xbd70a9e4	-0.05875577
41	0x3cca8908	0.024723545
42	0x3d8e736a	0.06955607
43	0x3dc73ab4	0.097279936
44	0x3dd2c8a8	0.102921784
45	0x3d8c7f9a	0.068602756
46	0x3da0a05e	0.078430876
47	0xbd8dfc74	-0.06932917
48	0xbc9e22a0	-0.01930362
49	0xbd170994	-0.03687437
50	0x3da727a4	0.08161858
51	0xbdb7fa1e	-0.08983253
52	0x3dcff0e8	0.10153371
53	0xbc98ec40	-0.01866734
54	0x3df26fcc	0.1183773
55	0x3d22a514	0.039708212
56	0x3dc75700	0.09733391
57	0xbd0b7104	-0.034043327
58	0x3dd2a194	0.10284725
59	0xbda48dfa	-0.080348924
60	0x3c7b7530	0.015347764
61	0x3b14dc00	0.0022714138
62	0x3df9960e	0.12186824
63	0x3d0200ec	0.03173916
64	0xbd265380	-0.040606976
65	0xbd9a776e	-0.07542311
66	0x3dc64a0c	0.09682092
67	0xbd58f44c	-0.052967355
68	0xbd967008	-0.07345587
69	0xbdfb1ce6	-0.12261371
70	0xbc366e50	-0.011134699
71	0xbdcaceec	-0.099027485
72	0xbcba5e58	-0.022750065
73	0xbd8849e2	-0.06654717
74	0x3dfc6a38	0.12324947
75	0xbd9c8546	-0.076426074
76	0x3dad3030	0.08456457
77	0x3de936b8	0.1138739
78	0x3da30e68	0.07961732
79	0xbc8b27f8	-0.016986832
80	0xbcd47cf8	-0.025938496
81	0x3dcbc44c	0.0994955
82	0x3d9edac8	0.07756573
83	0xbd13f334	-0.03612061
84	0x3dff3852	0.12461914
85	0xbdba6e5c	-0.09103081
86	0x3da1f6ca	0.079083994
87	0xbb9b4420	-0.0047383457
88	0x3d289d20	0.04116547
89	0x3de4afea	0.111663654
90	0x3dee535e	0.11636995
91	0xbcbca678	-0.023028597
92	0xbda7c654	-0.08192125
93	0x3dbd3204	0.09238055
94	0x3dc18e04	0.094509155
95	0x3db830f6	0.089937136
96	0x3d9bb826	0.07603483
97	0x3d429468	0.047504812
98	0x3db2d5d0	0.08732188
99	0xbdd1f0c6	-0.10251002
100	0x3d1ec5a0	0.03876269
101	0x3dfa2d04	0.12215617
102	0x3da72522	0.081613794
103	0x3d094174	0.033509687
104	0xbdf23890	-0.11827195
105	0x3df27578	0.11838812
106	0xbd931e0a	-0.07183464
107	0xbdcb000a	-0.09912117
108	0x3dc13996	0.09434812
109	0xbd553c54	-0.052059487
110	0x3d435e94	0.04769762
111	0x3d1b2e1c	0.03788577
112	0x3c32f150	0.010921791
113	0xbd396e2c	-0.045271084
114	0xbdd3d532	-0.10343398
115	0x3df7b774	0.12095538
116	0xbc844628	-0.016146734
117	0x3d7d3bb8	0.06182453
118	0xbccb6920	-0.024830401
119	0x3ded9cc6	0.11602168
120	0x3dd4eaac	0.103963226
121	0xbd9ffd06	-0.07811932
122	0xbdf6d692	-0.12052645
123	0x3d0ee4fc	0.034886345
124	0xbc1a6d90	-0.009425536
125	0xbcb2baf8	-0.02181767
126	0xbdfc3794	-0.12315288
127	0xbdc2fd28	-0.09520942
128	0x3d5f4618	0.054510206
129	0xbc6467e0	-0.013940781
130	0x3dc343e8	0.095344365
131	0x3d92957a	0.07157417
132	0x3d3ff5e0	0.046865344
133	0x3ca599c0	0.020214915
134	0xbca9f0a8	-0.020744637
135	0x3ca76930	0.0204359
136	0x3db8f19a	0.09030457
137	0xbd194b1c	-0.037425146
138	0x3d808a24	0.06276348
139	0x3d9b82ac	0.07593283
140	0x3dafa004	0.085754424
141	0xbb451cc0	-0.003007695
142	0xbddfbede	-0.10925077
143	0x3d5d7db0	0.054074943
144	0x3df5d726	0.12003927
145	0x3c9cab98	0.019124791
146	0xbd40aadc	-0.047037944
147	0x3bce6620	0.0062987953
148	0xbd363bd4	-0.04449065
149	0xbb9bfe80	-0.0047605634
150	0xbd8be8e6	-0.06831531
151	0xbd1fffe0	-0.03906238
152	0x3d12e5d4	0.035863712
153	0xbca72490	-0.020403177
154	0xbda37908	-0.07982069
155	0xbd8b6eb0	-0.06808221
156	0x3cc7f1e0	0.024407327
157	0xbdb69b60	-0.08916354
158	0x3dc8820c	0.097904295
159	0x3daa62de	0.08319639
160	0xbc0cd650	-0.008596018
161	0x3d593e40	0.05303788
162	0xbda1dc6c	-0.0790337
163	0x3db182bc	0.08667514
164	0xbd778ee0	-0.06043899
165	0xbdecafa8	-0.11556941
166	0xbd636510	-0.055516303
167	0x3d8fe710	0.070264935
168	0xbd02128c	-0.03175597
169	0xbbf7a6c0	-0.00755772
170	0xbda40470	-0.08008659
171	0x3d9b4382	0.075812355
172	0xbdfcb68c	-0.123395056
173	0x3d10e204	0.035371795
174	0xbde81e64	-0.113339216
175	0x3db0003c	0.08593795
176	0x3d13c358	0.036074966
177	0xbd707274	-0.0587029
178	0x3b4c4400	0.003116846
179	0xbcd69f68	-0.026199058
180	0xbd6efbf8	-0.058345765
181	0x3de01ad4	0.10942617
182	0xbde05204	-0.10953143
183	0xbc006000	-0.007835388
184	0x3de3fc48	0.11132103
185	0x3ce363a0	0.027757466
186	0xbdd1f064	-0.10250929
187	0xbde0b8a0	-0.109727144
188	0x3bd88c80	0.006608546
189	0x3d3ce7ec	0.046119615
190	0xbd3b4ff8	-0.04573056
191	0xbdb057ee	-0.08610521
192	0x3afe5280	0.0019403249
193	0x3d12e97c	0.0358672
194	0xbdcf9854	-0.10136476
195	0xbdbc2412	-0.09186567
196	0x3c9187c0	0.017764926
197	0xbda543fc	-0.080696076
198	0xbcead9e8	-0.028668359
199	0xbd664fcc	-0.056228444
200	0x3d7df264	0.06199874
201	0x3dba98e4	0.09111193
202	0xbdf9553e	-0.12174462
203	0x3df50906	0.11964612
204	0x3def95c2	0.11698486
205	0xbde4aa30	-0.11165273
206	0x3da3929e	0.079869494
207	0xbd043d60	-0.032285094
208	0xbd1a90ac	-0.037735626
209	0x3d842178	0.06451696
210	0x3d9d21ce	0.07672463
211	0xbc896fc8	-0.016776934
212	0x3dfb4832	0.122696295
213	0xbdda1364	-0.1064823
214	0xbcdc1398	-0.026864812
215	0xbd776ec8	-0.060408384
216	0xbde0b87c	-0.109726876
217	0x3dff3f20	0.12463212
218	0xbdbb4a14	-0.09144989
219	0xbdb5c16c	-0.08874783
220	0xbdba0acc	-0.090840906
221	0x3d8efa94	0.06981388
222	0xbdca9978	-0.09892553
223	0x3cc4e560	0.024035156
224	0x3dbaa912	0.09114279
225	0x3d23c404	0.039981857
226	0xbcf4e1c0	-0.029892802
227	0xbda5bf1a	-0.0809309
228	0x3dcec654	0.10096422
229	0xbd640ffc	-0.055679306
230	0xbcd4f960	-0.025997818
231	0x3da38822	0.0798495
232	0xbd6f9484	-0.058491245
233	0x3dab87ae	0.08375488
234	0xbdecb038	-0.115570486
235	0x3d91e0ea	0.07122977
236	0x3d774814	0.060371473
237	0x3cfcf620	0.03087908
238	0x3ca51b40	0.020154595
239	0xbb2aa540	-0.0026038438
240	0x3d07de9c	0.03317128
241	0xbda25564	-0.07926443
242	0xbdc66b2c	-0.0968841
243	0xbd94552e	-0.07242809
244	0xbd6e50e4	-0.058182612
245	0x3d78e29c	0.060762987
246	0xbdbf6744	-0.09345868
247	0x3cb6e2b8	0.022324905
248	0xbc80d798	-0.015727803
249	0xbc8b2b18	-0.016988322
250	0x3cb6c680	0.022311449
251	0xbcce8de8	-0.02521415
252	0x3d99cff2	0.075103655
253	0xbd0b6298	-0.034029573
254	0xbdbc9bac	-0.092093796
255	0x3c7c4f80	0.015399814

tgnn._base_tgcn.linear_r.bias f4 [32]
0	0x3d978a1c	0.07399389
1	0xbdd0004e	-0.10156308
2	0xbd7a3594	-0.061086252
3	0x3d4da5b0	0.05020684
4	0x3d8815f2	0.06644811
5	0xbc6e6000	-0.014549255
6	0x3d8bdee4	0.068296224
7	0x3c195df0	0.009360775
8	0xbb1abfc0	-0.0023612827
9	0xbdf94ed4	-0.121732384
10	0xbdf20b78	-0.11818594
11	0x3ddfce3c	0.10928008
12	0x3d54e408	0.05197528
13	0xbdedb93e	-0.11607598
14	0x3d70b454	0.058765724
15	0xbd37261c	-0.04471408
16	0x3d1967b0	0.0374524
17	0x3d8a3e72	0.06750192
18	0x3d087a58	0.0333198
19	0xbc9cb9f0	-0.01913163
20	0xbdb530ae	-0.088471755
21	0x3d3941d8	0.04522881
22	0xbd577730	-0.0526039
23	0xbdd9b9ec	-0.10631165
24	0xbdd5dafe	-0.1044216
25	0x3d67382c	0.056450054
26	0x3dfe8ffc	0.124298066
27	0x3a7eb300	0.0009716004
28	0x3dca6b2a	0.09883721
29	0x3d139bb0	0.036037147
30	0x3d844db6	0.06460135
31	0x3d8d4022	0.06896998

tgnn._base_tgcn.conv_h.bias f4 [32]
0	0x3e831cd2	0.25607926
1	0x3d31757e	0.04332494
2	0xbe0f4d7b	-0.139944
3	0xbd6d00be	-0.057862036
4	0x3dd1bbbc	0.102408856
5	0xbeb108c4	-0.34577
6	0x3e370a77	0.17875086
7	0x3e3c66cc	0.18398589
8	0x3eb7d768	0.3590653
9	0xbc346eba	-0.011012727
10	0xbe2753b6	-0.16340527
11	0x3def0db9	0.11672539
12	0xbe940496	-0.2890975
13	0x3be303e4	0.006927954
14	0x3de8d35c	0.113684386
15	0xbea346a5	-0.31889835
16	0xbc221886	-0.009893542
17	0xbe5bfa6c	-0.21482247
18	0x3e28004e	0.16406366
19	0xbdbec291	-0.09314454
20	0x3db93536	0.09043352
21	0x3eb46b5d	0.35238162
22	0x3d2a93cd	0.04164486
23	0x3ce885bb	0.02838408
24	0xbe0eafb2	-0.1393421
25	0x3e1506ee	0.14553425
26	0xbe0753db	-0.13215582
27	0x3e3514a3	0.17683654
28	0x3ea72122	0.32642466
29	0x3e9efeb3	0.31053695
30	0xbe0d3b46	-0.13792142
31	0xbbbb8eec	-0.0057238247

tgnn._base_tgcn.conv_h.lin.weight f4 [32, 3]
0	0x3e52ce0e	0.20586416
1	0xbf26808f	-0.65039915
2	0x3f0c5762	0.54820836
3	0xbec80b79	-0.39071253
4	0xbf4c13d6	-0.7971777
5	0x3f0dd019	0.55395657
6	0xbe9ff4bf	-0.31241414
7	0xbe597b24	-0.2123838
8	0x3fa73c7b	1.3065332
9	0xbcbab4c1	-0.022791268
10	0x3f4a1957	0.78944916
11	0xbf1a11af	-0.60183233
12	0x3e7771f5	0.24164565
13	0x3f0a28dd	0.539686
14	0xbf72181a	-0.94568026
15	0x3eb1aa9e	0.34700483
16	0x3ed81d34	0.4220978
17	0x3df0fb6a	0.117667034
18	0xbee86a0c	-0.45393407
19	0xbf1517d2	-0.5823947
20	0x3e4dc17e	0.20093343
21	0xbed6091b	-0.41803822
22	0xbec6692d	-0.38752118
23	0x3ec6efd0	0.38854837
24	0x3e25c2c3	0.16187577
25	0x3f05819e	0.52150905
26	0xbf2fd83d	-0.6868933
27	0xbc906d18	-0.017630145
28	0xbf5753f6	-0.8411249
29	0x3f4aca2b	0.79214734
30	0x3f16720f	0.5876779
31	0x3ed5f164	0.4178573
32	0xbf042cbe	-0.5163077
33	0xbeff5250	-0.49867487
34	0xbf46d556	-0.77669275
35	0xbd847d2a	-0.06469186
36	0xbd9854a6	-0.074380204
37	0x3f28a4ea	0.6587664
38	0x3e532820	0.20620775
39	0x3f1bfe98	0.60935354
40	0x3f562f9c	0.83666396
41	0xbecc30b5	-0.3988091
42	0x3e001771	0.12508942
43	0xbf103fe2	-0.5634748
44	0x3f565118	0.8371749
45	0xbe7b6d92	-0.24553517
46	0xbe82e067	-0.2556183
47	0xbef2eed1	-0.47447827
48	0xbf146bf1	-0.57977206
49	0xbdd454af	-0.103677146
50	0x3f68cd17	0.9093794
51	0xbf061a43	-0.5238382
52	0xbf1e680c	-0.6187751
53	0x3e335c42	0.17515662
54	0xbdb21b91	-0.08696664
55	0xbf29c72e	-0.6631955
56	0x3f0ba33e	0.5454596
57	0x3e4497b1	0.1919849
58	0x3f5e3ed9	0.8681465
59	0x3e806e2b	0.2508405
60	0xbe6cc7f3	-0.2312315
61	0xbf3dcf75	-0.7414468
62	0xbe52b980	-0.20578575
63	0x3e8504d1	0.25980237
64	0x3da520f9	0.0806293
65	0x3e89cffb	0.2691649
66	0x3f61426f	0.87991995
67	0x3f255215	0.6457837
68	0x3f03094b	0.51186055
69	0xbeb62dd1	-0.3558183
70	0xbf3d31be	-0.73904026
71	0x3f5fe048	0.874516
72	0x3e993484	0.2992288
73	0x3effb412	0.4994207
74	0xbf024ac2	-0.5089532
75	0x3dffa887	0.12483316
76	0xbefc4d9c	-0.4927796
77	0x3f254bfb	0.6456906
78	0xbe9fa6d7	-0.31181976
79	0xbf4b519b	-0.79421395
80	0x3c36300d	0.011119855
81	0xbe9caae5	-0.30599132
82	0xbe811f8b	-0.25219378
83	0x3f0670f8	0.52516127
84	0x3d42c7af	0.047553714
85	0xbec3b2eb	-0.3822244
86	0x3f0ad86e	0.54236495
87	0xbe876d20	-0.26450443
88	0x3efd7222	0.4950114
89	0x3f011d70	0.50435543
90	0x3f01add7	0.50655884
91	0x3ee20d6a	0.4415086
92	0xbf262f11	-0.6491557
93	0xbdbde1bb	-0.0927157
94	0xbf5edc65	-0.87055045
95	0x3f36cc6d	0.7140568

tgnn._base_tgcn.linear_h.weight f4 [32, 64]
0	0xbec8f43b	-0.39248833
1	0xbef9f5b3	-0.48820266
2	0xbec3c073	-0.38232765
3	0x3f559ea3	0.83445185
4	0x3f1c848b	0.61139745
5	0x3ee47936	0.44623727
6	0xbf30c2d4	-0.69047284
7	0xbf2e7449	-0.6814619
8	0x3ec280d8	0.37988925
9	0xbf1fd72f	-0.6243772
10	0x3f172244	0.5903666
11	0xbf39c6b6	-0.72568834
12	0x3ea36535	0.31913152
13	0x3f199eb0	0.6000776
14	0xbef82671	-0.48466828
15	0xbe90f4f4	-0.28311884
16	0xbef7b793	-0.48382244
17	0xbed6ab1f	-0.4192743
18	0xbf29fbc3	-0.6639978
19	0x3f537ff4	0.82617116
20	0xbf17508f	-0.591073
21	0x3dec54e1	0.11539627
22	0x3ecd77fe	0.4013061
23	0xbf33d470	-0.7024603
24	0x3f1f12a0	0.62137794
25	0xbea02dd7	-0.31284973
26	0xbf122f87	-0.5710377
27	0xbef6c4e0	-0.4819708
28	0xbdf6b7f9	-0.12046809
29	0x3e62a07b	0.22131531
30	0x3efa295f	0.4885969
31	0xbf0af2d0	-0.5427675
32	0xbd84e00e	-0.064880475
33	0x3db3566a	0.087567165
34	0x3da49d12	0.08037771
35	0xbd7ff0ac	-0.062485382
36	0xbd1ca27c	-0.038240895
37	0xbd9ca39e	-0.07648395
38	0x3dec9c56	0.11553256
39	0xbd605348	-0.054766923
40	0x3d795800	0.06087494
41	0xbd125124	-0.035721913
42	0x3dc82b7e	0.097739205
43	0x3dd31a38	0.10307735
44	0x3dc5118a	0.09622486
45	0x3c986d28	0.018606737
46	0x3d47c950	0.04877597
47	0x3cc09158	0.023506805
48	0xbcda7b08	-0.026669994
49	0xbd5757d8	-0.05257401
50	0x3bebc0a0	0.0071945935
51	0xbd9cf302	-0.076635376
52	0xbdb81144	-0.08987668
53	0xbdaecbb2	-0.085349455
54	0x3d6e604c	0.058197305
55	0xbc1faed0	-0.009746268
56	0x3de68c24	0.112571985
57	0x3d979efc	0.07403371
58	0x3d598bc4	0.053111807
59	0xbd197eac	-0.03747432
60	0xbdccfd02	-0.10009195
61	0x3deb8790	0.11500466
62	0x3b203780	0.0024447143
63	0xbde0b286	-0.10971551
64	0x3f1dec17	0.6168837
65	0x3e7bfc5e	0.24607989
66	0x3e7cce2f	0.24688028
67	0xbf8802f4	-1.0625901
68	0xbeb6873b	-0.35650048
69	0xbd5b94b5	-0.053608615
70	0x3e0b2b67	0.13590775
71	0x3e3dd339	0.18537606
72	0xbd50f215	-0.051012117
73	0x3f38a557	0.7212729
74	0xbdb589a5	-0.08864144
75	0x3dad61b8	0.08465904
76	0xbea245bb	-0.31693825
77	0xbe3d2f5d	-0.18475099
78	0x3f4e6551	0.80623347
79	0xbe2f2152	-0.17102554
80	0x3d4c5357	0.049884167
81	0x3db663eb	0.089057766
82	0x3f84f1df	1.0386313
83	0xbe709273	-0.23493366
84	0x3d8df1d2	0.06930889
85	0x3e007860	0.1254592
86	0x3ded12f3	0.1157588
87	0x3e813f01	0.2524338
88	0xbebc15b7	-0.36735317
89	0x3f328c2f	0.69745153
90	0x3e0c5e74	0.13707906
91	0x3ec94729	0.39312103
92	0x3e9c0e03	0.3047944
93	0xbd95158a	-0.07279499
94	0xbe9c8e7b	-0.30577454
95	0x3f2a84e7	0.6660904
96	0xbdb64c3a	-0.08901258
97	0xbc54ed40	-0.012996018
98	0xbdf54bb6	-0.11977331
99	0x3cac22e0	0.021012723
100	0xbd86b9e8	-0.065784276
101	0x3d64aff8	0.05583188
102	0xbda634da	-0.081155494
103	0xbd80683c	-0.06269881
104	0x3bd2bc00	0.0064311028
105	0x3bde7360	0.006788656
106	0x3db888bc	0.09010455
107	0xbaac2f00	-0.0013136566
108	0x3d3e5290	0.046465456
109	0x3da3c0dc	0.079957694
110	0xbdab2a68	-0.08357698
111	0x3d9ebf04	0.07751277
112	0xbd56d99c	-0.052453622
113	0x3c6a97c0	0.014318407
114	0x3cd62648	0.0261413
115	0x3cc21960	0.02369374
116	0x3ceece50	0.029151112
117	0x3d3a5ed4	0.04550059
118	0xbda88054	-0.08227602
119	0x3d00bbd0	0.031429112
120	0xbc929a28	-0.017895773
121	0x3d96cc68	0.07363206
122	0xbd907bc2	-0.07054855
123	0x3d21f8b0	0.039543808
124	0x3d5a8e54	0.05335839
125	0xbd5403ec	-0.051761553
126	0xbda9106a	-0.08255084
127	0x3dbb045a	0.09131689
128	0x3de5d3a4	0.11222008
129	0x3da7aef6	0.08187668
130	0xbdc55a36	-0.09636347
131	0x3d3d6fe4	0.046249285
132	0xbdcd638c	-0.10028753
133	0xbc88b3a8	-0.01668723
134	0xbdd2ed7c	-0.10299203
135	0x3d889688	0.066693366
136	0x3d9cfb1a	0.07665081
137	0x3da3c694	0.0799686
138	0xbd6b8dd4	-0.057508305
139	0x3df02b22	0.11726977
140	0x3db6bb82	0.08922483
141	0x3c8499c0	0.016186595
142	0xbdbdf162	-0.09274556
143	0x3d928830	0.07154882
144	0x3d15f8d0	0.03661424
145	0x3c0f7990	0.00875701
146	0xbdfa71aa	-0.12228711
147	0xbd974eba	-0.07388063
148	0xbc733e90	-0.014846459
149	0xbdea13ee	-0.114295825
150	0x3db4cbb4	0.08827916
151	0xbcc78858	-0.024357006
152	0xbc9a9d88	-0.018873945
153	0x3d2dc4e8	0.042424113
154	0x3d56e470	0.05246395
155	0xbd9e924c	-0.07742748
156	0x3c9cd498	0.019144341
157	0xbd7349d4	-0.05939658
158	0xbdd89d06	-0.10576825
159	0x3dfcf228	0.12350875
160	0x3cfb0558	0.030642197
161	0xbdae4e70	-0.085110545
162	0xbd8d94b8	-0.069131315
163	0x3d0fd70c	0.035117194
164	0xbdee355a	-0.1163127
165	0xbd2f9d50	-0.042874634
166	0x3da940c4	0.08264306
167	0xbd9bd304	-0.076086074
168	0x3dd230f4	0.10263243
169	0x3d282b9c	0.041057214
170	0xbdd3eb7a	-0.10347648
171	0x3d57ab38	0.05265352
172	0x3df3fe76	0.11913769
173	0x3d4add74	0.0495276
174	0x3dd26c58	0.10274571
175	0xbad36200	-0.0016127229
176	0xbdc09e72	-0.09405221
177	0x3d2487e4	0.040168658
178	0x3d0369a0	0.032083154
179	0x3d59d578	0.053182095
180	0xbca16128	-0.019699648
181	0xbd80a404	-0.062812835
182	0x3d13bf44	0.036071077
183	0xbdc045a4	-0.09388283
184	0x3dd41af0	0.103567004
185	0xbd546054	-0.05184968
186	0xbdffff44	-0.1249986
187	0x3d902bda	0.07039614
188	0x3bd17620	0.0063922554
189	0xbd23f020	-0.040023923
190	0xbd390864	-0.045174018
191	0xbda7f022	-0.082000986
192	0x3e46e428	0.19422972
193	0x3d81fd68	0.063471615
194	0x3ee19163	0.44056234
195	0xbd3a3a51	-0.04546577
196	0xbdd459bb	-0.10368677
197	0xbc773e19	-0.015090489
198	0x3e19be15	0.15013917
199	0x3e89370b	0.26799807
200	0x3e012a5a	0.12613812
201	0x3d48208a	0.048859157
202	0xbe2a34c6	-0.16621694
203	0xbded4516	-0.11585443
204	0xbd932efa	-0.071866944
205	0x3cde6017	0.027145429
206	0x3ee615fd	0.4493865
207	0xbea42bc7	-0.3206465
208	0x3e93207c	0.2873572
209	0xbe122879	-0.14273252
210	0x3dbba546	0.09162383
211	0x3c3630f1	0.011120067
212	0xbc31f197	-0.010860822
213	0x3e765558	0.24055994
214	0x3cd7c482	0.02633882
215	0x3dea2733	0.11433258
216	0xbde196ab	-0.11015066
217	0x3e8d17f3	0.27557334
218	0xbe12326d	-0.14277048
219	0x3ec46972	0.38361698
220	0x3ec13a70	0.37739897
221	0x3ecae4f6	0.39627808
222	0xbe8fc324	-0.28078568
223	0xbd500cda	-0.050793506
224	0xbc96cd40	-0.018408418
225	0x3dab4216	0.08362214
226	0x3d4ba14c	0.04971437
227	0x3df22a24	0.11824444
228	0xbd281404	-0.041034713
229	0xbd6ecf48	-0.058303148
230	0xbca8ed58	-0.020620987
231	0x3dce4cea	0.10073264
232	0x3dcc16f6	0.09965317
233	0xbd83bb9c	-0.06432268
234	0x3df00750	0.11720145
235	0x3d995782	0.07487394
236	0x3d452908	0.048134834
237	0xbc653130	-0.013988778
238	0x3db54d02	0.08852579
239	0x3d8e4334	0.06946412
240	0x3d9c9006	0.07644658
241	0x3d16424c	0.03668432
242	0xbcd80648	-0.026370183
243	0x3d818732	0.063246146
244	0xbdb573b8	-0.08859962
245	0x3b8ae360	0.004238531
246	0xbdb3aa14	-0.08772674
247	0x3ca22f40	0.019797921
248	0x3dd52eee	0.10409342
249	0xbdeb2824	-0.114822656
250	0xbd057d9c	-0.032590494
251	0xbde08576	-0.10962956
252	0xbdc79e9c	-0.09747049
253	0x3d917008	0.071014464
254	0x3b187700	0.002326429
255	0x3c6d59b0	0.014486715

tgnn._base_tgcn.linear_h.bias f4 [32]
0	0x3dea35c8	0.11436039
1	0x3e45216e	0.19251034
2	0xbdb67e32	-0.089107886
3	0x3da55bb7	0.08074134
4	0x3e108900	0.14114761
5	0x3ec7970d	0.3898243
6	0xbd16b0c5	-0.036789674
7	0xbdd97f03	-0.10619929
8	0x3df4f4a0	0.11960721
9	0x3ee46435	0.44607702
10	0x3e14ed21	0.14543582
11	0x3dffac21	0.12484003
12	0x3e405791	0.18783404
13	0x3e929f39	0.28637102
14	0xbccf3cb1	-0.025297495
15	0xbe015309	-0.12629332
16	0xbdaaaba8	-0.08333522
17	0xbce08178	-0.027405486
18	0x3dac1989	0.08403308
19	0x3ea8ea23	0.32991132
20	0x3eb13d89	0.3461726
21	0xbeb6a223	-0.35670575
22	0x3ded7533	0.115946196
23	0x3e36bb8a	0.17844978
24	0x3e005f94	0.1253646
25	0x3ee942f4	0.45558894
26	0x3eefc7c6	0.46832103
27	0x3edcb8ce	0.43109745
28	0x3e558ee0	0.20855284
29	0x3decc6e4	0.11561373
30	0xbb634197	-0.0034676546
31	0x3e595d50	0.21227002

linear.weight f4 [16, 32]
0	0x3e89cc3e	0.26913637
1	0xbed94f0d	-0.42443123
2	0xbde4321f	-0.11142372
3	0x3ea8addf	0.32945153
4	0x3e951d26	0.291238
5	0xbf040bf9	-0.5158077
6	0x3e375159	0.17902125
7	0xbd541f80	-0.051787853
8	0x3ea03b67	0.3129532
9	0xbf1a665d	-0.60312444
10	0x3e8ebd9a	0.2787903
11	0x3ea0e9ce	0.3142838
12	0x3ed75dfe	0.42063898
13	0xbdf721f8	-0.12067026
14	0x3d620fc6	0.055190824
15	0x3dbc55ba	0.091960385
16	0x3c8bcec0	0.01706636
17	0xbde9bcde	-0.11412977
18	0x3ed91859	0.42401388
19	0xbe1a422a	-0.15064302
20	0xbe970bdd	-0.29501238
21	0xbf030ec8	-0.5119443
22	0x3ec02f43	0.37536058
23	0x3e183d21	0.14867069
24	0xbef2b38a	-0.47402602
25	0xbeec9f2d	-0.4621519
26	0xbee9d05d	-0.4566678
27	0xbedb7fb5	-0.4287087
28	0xbee20f83	-0.4415246
29	0x3e82eec5	0.25572792
30	0x3da4d7a8	0.08048946
31	0xbc0f65e0	-0.008752316
32	0x3e106b08	0.14103329
33	0xbf0180a5	-0.5058692
34	0x3d2f3b5c	0.04278122
35	0x3e5b95f8	0.21443927
36	0x3e716899	0.23575057
37	0xbef188a3	-0.47174558
38	0x3e5b15f5	0.21395095
39	0xbd30468e	-0.043036036
40	0x3edef4f6	0.43546265
41	0xbf0171dd	-0.50564367
42	0x3ed36e5e	0.4129514
43	0x3e483f1c	0.19555324
44	0x3eac561d	0.3365945
45	0xbe0dec5b	-0.13859694
46	0xbde6732d	-0.11252437
47	0x3df094b5	0.117471136
48	0x3d155a9c	0.036463365
49	0xbd623948	-0.05523041
50	0x3ee015f0	0.43766737
51	0xbe64806a	-0.22314611
52	0xbec45321	-0.38344672
53	0xbefeb084	-0.49744046
54	0x3e46d780	0.19418144
55	0x3eea5040	0.4576435
56	0xbeab45b9	-0.33451632
57	0xbefded9c	-0.49595344
58	0xbec68c44	-0.3877889
59	0xbee95082	-0.45569235
60	0xbf1bba43	-0.6083109
61	0x3e88396c	0.2660631
62	0x3e066249	0.1312343
63	0x3e56ae5f	0.20964955
64	0x3ee0a08c	0.43872488
65	0xbef3c61a	-0.47612077
66	0xbdecae30	-0.11556661
67	0x3e82831a	0.25490648
68	0x3e532d4f	0.20622753
69	0xbebdacd9	-0.37045935
70	0x3ef8c914	0.4859091
71	0xbdd6f8b3	-0.10496654
72	0x3e647878	0.2231158
73	0xbf03a920	-0.5142994
74	0x3e499357	0.19685112
75	0x3ec704c0	0.3887081
76	0x3e7bd9db	0.24594824
77	0xbe49f3fe	-0.19721982
78	0x3d19edae	0.037580185
79	0x3d6f94a6	0.05849137
80	0xbe0eb946	-0.13937864
81	0xbe1508d6	-0.14554152
82	0x3e3cc6b3	0.18435173
83	0xbecdaf52	-0.4017282
84	0xbee7147b	-0.45132813
85	0xbf234173	-0.6377174
86	0x3ec7848c	0.38968313
87	0x3e942c6f	0.2894015
88	0xbf496bd8	-0.7868018
89	0xbeacd3ff	-0.3375549
90	0xbed5baa9	-0.41743973
91	0xbf0a5fef	-0.54052633
92	0xbed80997	-0.42194816
93	0x3ede2f3e	0.43395418
94	0x3ac7ea4b	0.001525232
95	0x3daf4172	0.085574046
96	0x3ea1902f	0.31555316
97	0xbf283728	-0.6570916
98	0x3c015b60	0.007895321
99	0x3e9d12ff	0.30678555
100	0x3e9eff3a	0.31054097
101	0xbe803445	-0.25039878
102	0x3e37e637	0.17958914
103	0x3d339237	0.043840613
104	0x3e7770f2	0.24164179
105	0xbf1a6bfa	-0.6032101
106	0x3eac9241	0.33705333
107	0x3e605a3c	0.21909422
108	0x3e9e2a00	0.30891418
109	0xbe961c55	-0.2931849
110	0x3d3e1e79	0.04641578
111	0xbe0fdce6	-0.1404911
112	0x3e3424e9	0.17592205
113	0x3dfd0c2a	0.12355836
114	0x3e938920	0.28815556
115	0xbeb3176c	-0.34978807
116	0xbeb9c748	-0.36284852
117	0xbf551098	-0.83228445
118	0x3ef59c9c	0.47971046
119	0x3eed8e62	0.46397692
120	0xbf3300a7	-0.6992287
121	0xbed443f6	-0.414581
122	0xbf0cd0c7	-0.5500607
123	0xbf0988fc	-0.53724647
124	0xbf0f093f	-0.55873483
125	0x3e14ead2	0.14542702
126	0xbd368b62	-0.04456652
127	0x3e849ef4	0.25902522
128	0x3e89a30c	0.26882207
129	0xbf2eb517	-0.6824507
130	0xbd6c1fc0	-0.057647467
131	0xbde64bba	-0.112449124
132	0x3e7e072a	0.2480742
133	0xbed41687	-0.41423437
134	0x3eb0860e	0.34477276
135	0x3db2e958	0.08735913
136	0x3edd006d	0.43164387
137	0xbf048ac0	-0.51774216
138	0x3eea9807	0.45819113
139	0x3e99ae82	0.3001595
140	0x3e9df4ba	0.30850774
141	0xbce46d7c	-0.027884237
142	0x3b925c09	0.004466538
143	0xbdc24e75	-0.09487621
144	0x3e32f501	0.17476274
145	0x3dd6be0a	0.10485466
146	0x3ea06112	0.3132406
147	0xbe630d94	-0.22173148
148	0xbea397b2	-0.31951672
149	0xbf42b39c	-0.7605531
150	0x3e1a088c	0.15042323
151	0x3ee83ceb	0.45358977
152	0xbf3a75b8	-0.72835875
153	0xbf0f2a21	-0.5592366
154	0xbef87687	-0.4852793
155	0xbeedc242	-0.4643727
156	0xbf2739b8	-0.65322447
157	0x3e03a714	0.12856704
158	0x3bda1310	0.0066551045
159	0x3ebf861e	0.3740701
160	0x3ef77d3f	0.48337743
161	0xbf415d97	-0.7553343
162	0x3e2ac425	0.16676386
163	0x3d5727e2	0.05252827
164	0x3e89aaae	0.2688803
165	0xbf201487	-0.6253132
166	0x3ee5777d	0.44817725
167	0xbd18e6df	-0.03732955
168	0x3e4af166	0.19818649
169	0xbf00ffcf	-0.5039033
170	0x3e2ea4c5	0.17055042
171	0x3ea35b8d	0.31905785
172	0x3ef531d1	0.4788957
173	0xbe11a8c5	-0.14224537
174	0xbc1e9958	-0.009680115
175	0x3ddf83ab	0.109137855
176	0xbdbfc9d9	-0.09364671
177	0xbe09c110	-0.13452554
178	0x3e398182	0.1811581
179	0xbe610e4c	-0.2197811
180	0xbedc7171	-0.430553
181	0xbf432ec5	-0.7624324
182	0x3ef9f653	0.48820743
183	0x3e271308	0.16315854
184	0xbf2cdf42	-0.67528164
185	0xbefa1f9a	-0.48852235
186	0xbecdb3c4	-0.40176213
187	0xbebce319	-0.36892012
188	0xbf65771c	-0.8963487
189	0x3eba1d08	0.36350274
190	0x3d8f9d81	0.07012463
191	0x3e99c916	0.3003623
192	0x3e87bf45	0.26513115
193	0xbf27d820	-0.65564156
194	0x3dfc2082	0.12310888
195	0xbe46ae1d	-0.19402356
196	0x3edb67a2	0.42852503
197	0xbecdb2f6	-0.401756
198	0x3eb21921	0.34784797
199	0x3d4aa3c0	0.04947257
200	0x3eea6cec	0.45786226
201	0xbedc13ae	-0.42983764
202	0x3e7e6334	0.2484253
203	0x3ed5cf39	0.4175966
204	0x3ebac60b	0.3647922
205	0xbeb008bc	-0.34381664
206	0xbdcf95b8	-0.101359785
207	0xbd2a1944	-0.041528
208	0xbdd4ea2a	-0.10396226
209	0x3da62b72	0.08113755
210	0x3eaf17a8	0.34197736
211	0xbea5deca	-0.32396537
212	0xbe50eaf5	-0.20402129
213	0xbf46dc82	-0.7768022
214	0x3e4192a6	0.18903598
215	0x3e2e8503	0.17042927
216	0xbf7fc273	-0.9990608
217	0xbec0108e	-0.3751263
218	0xbf0ab787	-0.5418629
219	0xbef71bb3	-0.4826332
220	0xbf568844	-0.83801675
221	0x3e73cb48	0.23808014
222	0x3d19a392	0.03750951
223	0x3ef37d72	0.47556645
224	0x3ec6dfbf	0.3884258
225	0xbf7d1b4a	-0.98869765
226	0xbccfba30	-0.025357336
227	0xbeadf605	-0.3397676
228	0x3e808c17	0.2510688
229	0xbf00847a	-0.50202143
230	0x3ee1b062	0.44079882
231	0xbd7a1fa2	-0.061065324
232	0x3ec7f2d9	0.39052466
233	0xbedd4c4f	-0.4322228
234	0x3ee21b61	0.44161513
235	0x3e52bae2	0.20579103
236	0x3eb0f09f	0.3455858
237	0xbed290b8	-0.41126037
238	0x3c295475	0.0103350775
239	0xbdb7b461	-0.089699514
240	0xbc8d7e58	-0.01727216
241	0xbcb20538	-0.021731004
242	0x3e5f1763	0.21786265
243	0xbeaee5a8	-0.3415959
244	0xbe84e166	-0.25953215
245	0xbf58bea5	-0.846659
246	0x3ece0118	0.4023521
247	0x3ed8cace	0.42342228
248	0xbf42d2ab	-0.76102704
249	0xbeca8187	-0.39551947
250	0xbead73fb	-0.3387755
251	0xbe8a958c	-0.2706722
252	0xbf63152d	-0.88704187
253	0x3dcc5998	0.09978026
254	0x3caf65fd	0.021410936
255	0x3e81dc6e	0.25363487

linear.bias f4 [16]
0	0x3d1d2d9c	0.038373575
1	0xbdb8b423	-0.09018733
2	0x3bbdd26d	0.005792907
3	0x3d2e3728	0.04253307
4	0xbdab0bfc	-0.08351895
5	0xbdeb4761	-0.11488224
6	0xbdeeaada	-0.11653681
7	0xbd95d513	-0.07316031
8	0xbe15a019	-0.14611854
9	0xbcd59fd5	-0.02607719
10	0xbd2fc8fb	-0.04291628
11	0xbc47602f	-0.012168928
12	0xbda1e492	-0.079049245
13	0x3d5b1fd5	0.053497154
14	0x3db43d85	0.088007964
15	0xbc937a6b	-0.01800271

linear2.weight f4 [6, 21]
0	0x3f05e09f	0.5229587
1	0x3f1a9f84	0.6039965
2	0x3e760405	0.24024971
3	0x3c018e66	0.007907486
4	0xbe93ebd9	-0.28890875
5	0x3edcbcf9	0.43112925
6	0xbedca121	-0.43091682
7	0xbd5f5e3e	-0.054533236
8	0xbd4743ca	-0.048648633
9	0x3eb9774f	0.36223838
10	0xbea3c46a	-0.3198579
11	0xbe4333c8	-0.19062722
12	0x3d238479	0.039921258
13	0x3dd35ba6	0.10320215
14	0x3d7ca52c	0.061680958
15	0xbe558931	-0.20853116
16	0x3c7338c1	0.014845074
17	0x3db58e09	0.08864982
18	0xbd1e203a	-0.038604952
19	0xbddc900a	-0.10769661
20	0x3c86e850	0.016468197
21	0xbd197675	-0.037466485
22	0x3dc2e2fc	0.0951595
23	0xbd40cbd1	-0.047069374
24	0x3eadb197	0.33924553
25	0x3da395ae	0.079875335
26	0x3e187db5	0.14891703
27	0x3e4e4864	0.20144802
28	0x3e0cbef8	0.13744724
29	0x3e85b773	0.26116523
30	0xbdfd111a	-0.123567775
31	0x3e357c08	0.17723095
32	0x3d060bd3	0.03272612
33	0x3e6775d2	0.22603539
34	0xbd856fe5	-0.06515483
35	0x3be96665	0.007122802
36	0xbe1503a1	-0.14552166
37	0x3dd7209e	0.10504268
38	0xbe891522	-0.26773936
39	0xbe247e64	-0.16063839
40	0x3d3edf86	0.046599887
41	0x3e4ecc58	0.20195138
42	0x3d57583a	0.052574374
43	0x3cd9657f	0.026537655
44	0xbd3ff20f	-0.046861704
45	0x3d06f4ea	0.032948412
46	0xbdfd2fc3	-0.123626254
47	0xbe6661a7	-0.22498189
48	0xbd45f8ef	-0.048333105
49	0xbdb12306	-0.08649258
50	0x3d19b974	0.037530378
51	0xbb36b420	-0.002787836
52	0xbea39181	-0.31946948
53	0xbde6a0ac	-0.112611145
54	0x3e501a5d	0.20322557
55	0xbefaf704	-0.49016583
56	0x3d548def	0.05189317
57	0x3defe4ef	0.117135875
58	0x3e871c1d	0.26388636
59	0xbd747bfd	-0.059688557
60	0xbd92a4d7	-0.07160347
61	0xbd64c317	-0.055850115
62	0x3d4fdd01	0.050747875
63	0xbe2680ae	-0.16260025
64	0xbdb74b36	-0.08949892
65	0xbebf0712	-0.37310082
66	0xbe97023c	-0.29493892
67	0x3da3758e	0.07981406
68	0xbdf26429	-0.1183551
69	0x3e93653f	0.28788182
70	0xbe0c151e	-0.1367993
71	0x3e510cbc	0.20415014
72	0x3e2fbbce	0.17161486
73	0x3e512e5f	0.20427845
74	0x3e00c2ab	0.1257426
75	0x3e48fd7d	0.19627948
76	0xbd8fff30	-0.07031095
77	0x3e02bd45	0.12767513
78	0x3eb90997	0.3614013
79	0x3e2124c0	0.15736675
80	0x3de9733a	0.11398931
81	0x3e01ee6f	0.12688611
82	0x3e02b8cb	0.12765805
83	0x3e5c984d	0.21542473
84	0xbe127a57	-0.14304481
85	0xbe026215	-0.12732728
86	0x3d8372d1	0.06418384
87	0x3ea3bb08	0.3197863
88	0x3e66c63b	0.22536556
89	0xbdaf472b	-0.08558496
90	0x3dffc985	0.12489609
91	0x3e1b73d9	0.15180911
92	0xbcf49350	-0.0298554
93	0xbd92ca0d	-0.071674444
94	0x3d6cb1c1	0.057786707
95	0xbe6d0adc	-0.23148674
96	0xbe3fa51e	-0.18715331
97	0x3d203e15	0.039121706
98	0x3e32a87c	0.17447084
99	0xbc89e2b7	-0.016831739
100	0xbeaf9d36	-0.3429963
101	0x3e3d2e2a	0.18474641
102	0x3e6a309a	0.22870103
103	0x3e698ed8	0.22808397
104	0x3b2f4936	0.0026746518
105	0xbe119b0d	-0.14219303
106	0xbeabefb8	-0.33581328
107	0xbe961ab8	-0.2931726
108	0xbda644c1	-0.081185825
109	0x3d11eb9a	0.035625078
110	0x3d3d8661	0.04627073
111	0x3e2e806c	0.17041177
112	0xbdbb3e6a	-0.09142764
113	0xbcf486a5	-0.02984936
114	0x3e198b8b	0.14994638
115	0xbc191748	-0.00934393
116	0xbd5bf8ad	-0.053703953
117	0x3e612f6b	0.21990745
118	0xbe871595	-0.26383653
119	0x3e511a89	0.20420279
120	0x3e705cb1	0.23472859
121	0x3e8789ef	0.26472422
122	0x3e5261b5	0.20545085
123	0xbde1d724	-0.11027363
124	0x3e9b91d9	0.3038471
125	0x3e8b7e4c	0.27244794

linear2.bias f4 [6]
0	0xbd84f22d	-0.06491504
1	0x3e44fc6e	0.1923692
2	0xbdf4e2d7	-0.11957329
3	0xbdf04015	-0.11730973
4	0x3f027681	0.5096207
5	0xbf4a3891	-0.78992563
