A3TGCN2_Checkpoints/Epoch_55.pth (torch, 35255 bytes, 17 tensors)

tgnn._attention f4 [16]
1.6555668 0.728354 0.32575706 -0.12831658 0.1593707 0.079446904 0.13278857 0.34715807
0.25796336 0.26317152 0.26100302 0.26998946 0.22114919 0.4436542 0.6892756 1.3952028
00000000: 9de9 d33f 6875 3a3f a1c9 a63e 6c65 03be
00000010: 1332 233e 0fb5 a23d baf9 073e b4be b13e
00000020: c613 843e 6bbe 863e 30a2 853e 0f3c 8a3e
00000030: ef74 623e a526 e33e 5e74 303f 0196 b23f

tgnn._base_tgcn.conv_z.bias f4 [32]
0.5753978 0.4785607 0.27689868 0.005646982 -0.19393541 -0.39678997 -0.36701187 -0.56750995
0.58363354 0.534861 -0.605993 -0.5188766 0.14963794 0.22163142 0.48246348 0.53095865
-0.55231005 0.5975876 0.4132239 0.62435824 0.49931404 -0.4973749 -0.53529996 0.55768174
-0.5213168 -0.5726097 -0.5500374 0.5064086 0.5564946 -0.35479307 0.35339886 0.5621104
00000000: 454d 133f e805 f53e aac5 8d3e 520a b93b
00000010: 0197 46be 0e28 cbbe fbe8 bbbe 5548 11bf
00000020: 0269 153f a7ec 083f 5b22 1bbf 19d5 04bf
00000030: b03a 193e 59f3 623e 7405 f73e e8ec 073f
00000040: 3164 0dbf 80fb 183f 1592 d33e f1d5 1f3f
00000050: 17a6 ff3e eca7 febe 6b09 09bf 3bc4 0e3f
00000060: 0575 05bf 8d96 12bf 40cf 0cbf fea3 013f
00000070: 6e76 0e3f 70a7 b5be b2f0 b43e 78e6 0f3f

tgnn._base_tgcn.conv_z.lin.weight f4 [32, 3]
-0.33596292 -0.3491294 -2.1415138 0.40975142 -0.55801404 -1.2319852 -0.9264332 0.60423535
-1.1106135 -0.20081218 0.91276497 1.4423662 0.7399176 -0.875372 0.41394415 -0.15221503
0.5546191 2.1614387 -0.80112386 -0.3900359 0.63144916 -0.019302983 0.21004876 2.0812695
0.26550573 -0.5480068 -1.5287201 0.46302354 -0.9222897 -1.4163792 0.13643047 0.5645394
0.92898405 -0.5770696 0.56600845 1.0683714 -0.37041238 1.0084147 -0.44159716 -1.0110501
0.07417183 0.43147576 0.48058495 -0.51352763 -1.478268 -0.14287822 -0.22154982 -2.6649404
-0.22801517 0.419929 1.2824234 0.15817308 -0.7180654 -1.9800301 -0.674064 -0.29383534
0.3438961 -0.19819899 -0.48107368 -2.014953 0.46341893 -0.45485663 -1.4480153 -0.27144244
0.37277886 1.042881 -0.34494713 0.85415906 1.7799314 0.1175453 -0.08715539 -2.7421072
0.53778315 0.035974912 2.2515776 0.3319313 -0.010924334 1.9296046 0.67373985 0.31509674
0.74784905 -0.57157266 -0.4369627 -0.58019906 0.15239125 0.25997332 -2.1308334 0.8512168
1.0908377 1.3196906 -0.107124455 -1.3728174 -1.1940825 0.00874995 -0.5370194 -1.5378097
00000000: 5503 acbe 17c1 b2be 900e 09c0 f0ca d13e
00000010: 02da 0ebf b1b1 9dbf ba2a 6dbf 2baf 1a3f
00000020: 9528 8ebf b5a1 4dbe f7aa 693f 759f b83f
00000030: 3d6b 3d3f 6118 60bf 7df0 d33e 42de 1bbe
00000040: 84fb 0d3f 0355 0a40 7416 4dbf c9b2 c7be
00000050: a7a6 213f 4a21 9ebc 0617 573e 8533 0540
00000060: 5ef0 873e 2c4a 0cbf 1aad c3bf 6c11 ed3e
00000070: 2e1b 6cbf ea4b b5bf 6eb4 0b3e a785 103f
00000080: e6d1 6d3f d5ba 13bf eee5 103f 65c0 883f
00000090: b1a6 bdbe bc13 813f 0619 e2be 176a 81bf
000000a0: 67e7 973d 64ea dc3e 3b0f f63e 8c76 03bf
000000b0: e337 bdbf ab4e 12be f5dd 62be 628e 2ac0
000000c0: cf7c 69be ef00 d73e 7326 a43f 20f8 213e
000000d0: 22d3 37bf a071 fdbf 758f 2cbf 9671 96be
000000e0: 2613 b03e adf4 4abe 4a4f f6be fdf4 00c0
000000f0: 3f45 ed3e f8e2 e8be 9158 b9bf 81fa 8abe
00000100: dfdc be3e 207d 853f e99c b0be 2baa 5a3f
00000110: cbd4 e33f 97bb f03d 867e b2bd af7e 2fc0
00000120: 28ac 093f 6e5a 133d d919 1040 e6f2 a93e
00000130: fafb 32bc 49fd f63f 377a 2c3f 5c54 a13e
00000140: 0973 3f3f 9652 12bf 93b9 dfbe ed87 14bf
00000150: 740c 1c3e 391b 853e 935f 08c0 58e9 593f
00000160: 92a0 8b3f 9feb a83f 1164 dbbd 7bb8 afbf
00000170: b2d7 98bf f35b 0f3c 1a7a 09bf f3d6 c4bf

tgnn._base_tgcn.linear_z.weight f4 [32, 64]
-0.1096751 -0.6916699 0.8614407 0.95622844 -0.56364053 0.91699016 0.18633536 0.16245618
-0.6461226 -1.4085834 0.70530754 0.6387365 0.2542698 0.2801141 -0.70540494 -0.35095426
0.62876993 -0.9691838 0.32051653 -0.6555586 -0.48314622 0.5431398 1.3533233 -0.1926383
-0.16796009 -0.07705644 -0.4155813 -0.22640981 -0.12814224 0.35077438 -0.7948388 -0.68108565
0.020246342 0.05585386 0.04477328 0.035287514 0.023139253 -0.022408113 0.11468598 -0.018079445
-0.054737613 0.07708734 -0.046232447 0.11530076 0.11062801 -0.083804354 -0.10268128 -0.040863156
0.08063172 -0.10281703 0.06785013 -0.12408477 -0.023813754 -0.032880887 0.013255671 0.10097024
-0.08791071 0.0020627677 0.006105587 -0.05243057 0.008615732 0.09010275 -0.07649019 0.07910547
-1.5393107 -0.5013538 0.2569173 2.5825894 -1.4090172 2.6936133 -0.82440937 0.10378011
-0.4603211 -1.4804536 0.89476115 0.2586287 1.5625235 -0.061940435 -0.4038946 -0.7436537
0.030695526 -1.7694848 -1.8536247 -1.5363489 -0.07287607 -0.063896164 1.7449919 -0.040531695
0.49954587 0.09399879 2.0341947 -2.6124558 0.66154706 2.3640044 -3.5783808 -1.2050604
0.093658105 0.05391912 -0.07390167 -0.069662586 0.027618676 0.035378426 0.06620745 -0.09150325
0.12043749 -0.024570048 0.043849334 -0.05357112 0.047658175 0.10675146 -0.089991465 0.011300921
0.015317336 -0.018027395 -0.034281567 0.02419296 0.02312699 -0.051177472 0.044286117 0.104240134
0.030525789 -0.06379549 -0.018762544 -0.032129034 0.12478389 -0.064913705 0.07503353 -0.12432723
0.04489264 -0.118017495 -0.013276979 -0.09453888 -0.10209602 0.022381723 0.093163416 0.09084082
-0.053114906 -0.036311343 -0.020940498 -0.0033688247 -0.081808746 -0.0043317676 0.07468517 0.10478647
0.09609833 -0.060765564 0.073355466 0.06644446 0.107522964 -0.032896265 -0.09538354 0.014442787
0.06507723 -0.028276697 0.009666905 -0.017961666 -0.10631283 0.036880836 0.031946033 0.002603352
-0.103888705 0.05001934 0.004877478 -0.11019075 -0.10833873 0.013715833 0.014794603 0.010000929
0.063540414 -0.0005918145 0.11912532 -0.03559117 -0.070905566 -0.087597415 -0.061122417 0.120372415
0.062828586 -0.04591556 -0.08431047 -0.008374155 0.08703378 0.12108922 -0.113912866 -0.058497608
-0.103632584 -0.023029372 -0.017973796 0.11268407 0.12016699 0.11531803 -0.04985313 -0.054382443
-0.7477518 -0.5148596 0.3171538 0.2987981 -0.49295613 1.2450057 -0.09649987 0.16149929
-0.45196995 -1.0228888 0.6455521 0.3141299 0.58758974 -0.32938454 -0.3431501 -0.3907176
0.29922962 -0.8635515 -0.17525747 -0.67966306 -0.392179 0.35771966 1.2694874 -0.06291133
0.12506863 -0.015755283 0.5302779 -0.9609883 0.059449416 0.9155976 -1.5866883 -0.81034344
0.054764062 -0.0863833 -0.088368 0.05049646 -0.04610756 0.047094464 0.096982315 -0.04505831
-0.018742532 -0.09812556 -0.096838206 0.016707003 0.024006382 -0.09953986 -0.10314228 0.06481597
-0.004865214 0.10605247 0.10647841 0.038697034 -0.015579879 0.04774873 0.08730343 0.11532177
0.09415296 -0.10505602 -0.06537247 -0.11926623 -0.10969284 0.013711423 0.11988363 0.033814043
00000000: 579d e0bd 4711 31bf 6187 5c3f 63cb 743f
00000010: bf4a 10bf debf 6a3f b2ce 3e3e ea5a 263e
00000020: 4a68 25bf 764c b4bf 098f 343f 3c84 233f
00000030: a72f 823e 1e6b 8f3e 6b95 34bf 47b0 b3be
00000040: 11f7 203f 6e1c 78bf be1a a43e b0d2 27bf
00000050: f15e f7be 360b 0b3f b339 ad3f f942 45be
00000060: bbfd 2bbe c4cf 9dbd 12c7 d4be f9d7 67be
00000070: b837 03be b398 b33e 8e7a 4bbf a15b 2ebf
00000080: a8db a53c 04c7 643d 3064 373d a489 103d
00000090: 888e bd3c 3891 b7bc 7ce0 ea3d 581b 94bc
000000a0: 8c34 60bd f8df 9d3d 3c5e 3dbd ce22 ec3d
000000b0: f090 e23d 9ea1 abbd 904a d2bd 2060 27bd
000000c0: 3e22 a53d bc91 d2bd 02f5 8a3d 2820 febd
000000d0: 1015 c3bc 1cae 06bd 502e 593c 7cc9 ce3d
000000e0: 880a b4bd 802f 073b 6011 c83b 70c1 56bd
000000f0: 0029 0d3c ca87 b83d e4a6 9cbd 0c02 a23d
00000100: 2208 c5bf b958 00bf aa8a 833e 2549 2540
00000110: ad5a b4bf 2964 2c40 7e0c 53bf ab8a d43d
00000120: 35af ebbe 817f bdbf 110f 653f fb6a 843e
00000130: c500 c83f 41b5 7dbd 46cb cebe 1760 3ebf
00000140: 2f75 fb3c 7a7e e2bf 9343 edbf 15a7 c4bf
00000150: 0d40 95bd fedb 82bd e55b df3f 9004 26bd
00000160: 7ac4 ff3e 7082 c03d 3f30 0240 7a32 27c0
00000170: 265b 293f d94b 1740 3104 65c0 6b3f 9abf
00000180: d2cf bf3d 4cda 5c3d c259 97bd 42ab 8ebd
00000190: 9040 e23c f8e8 103d c697 873d 0e66 bbbd
000001a0: eea7 f63d 2047 c9bc 5c9b 333d 646d 5bbd
000001b0: 3835 433d 82a0 da3d 724d b8bd 8027 393c
000001c0: 90f5 7a3c 30ae 93bc d46a 0cbd 5030 c63c
000001d0: d074 bd3c 789f 51bd 5c65 353d da7b d53d
000001e0: 3811 fa3c 36a7 82bd e8b3 99bc bc99 03bd
000001f0: b28e ff3d 7af1 84bd 2eab 993d 469f febd
00000200: 58e1 373d 28b3 f1bd b087 59bc 9a9d c1bd
00000210: b817 d1bd e059 b73c 76cc be3d c00a ba3d
00000220: 048f 59bd 34bb 14bd 688b abbc 80c7 5cbb
00000230: 588b a7bd 80f1 8dbb 8af4 983d 4a9a d63d
00000240: 34cf c43d 50e5 78bd 643b 963d 0814 883d
00000250: 0035 dc3d 3cbe 06bd 7258 c3bd 70a1 6c3c
00000260: 3647 853d 88a4 e7bc f061 1e3c 5824 93bc
00000270: 8aba d9bd 5c10 173d d8d9 023d 009d 2a3b
00000280: 9ac3 d4bd 14e1 4c3d 40d3 9f3b b0ab e1bd
00000290: b2e0 ddbd 60b8 603c 1065 723c f0da 233c
000002a0: 7a21 823d 0024 1bba faf7 f33d 0cc8 11bd
000002b0: f036 91bd 4666 b3bd 805b 7abd d085 f63d
000002c0: 46ac 803d f411 3cbd f8aa acbd c033 09bc
000002d0: c43e b23d a0fd f73d 264b e9bd 309b 6fbd
000002e0: 523d d4bd 18a8 bcbc c83d 93bc e8c6 e63d
000002f0: 1c1a f63d dc2b ec3d cc32 4cbd 20c0 5ebd
00000300: a96c 3fbf d7cd 03bf fc61 a23e 11fc 983e
00000310: bf64 fcbe 595c 9f3f b9a1 c5bd 1260 253e
00000320: 9b68 e7be 05ee 82bf e742 253f a2d5 a03e
00000330: 486c 163f 17a5 a8be 5fb1 afbe 230c c8be
00000340: a034 993e b611 5dbf b276 33be 66fe 2dbf
00000350: b0cb c8be 0827 b73e 907e a23f a8d7 80bd
00000360: fe11 003e 3911 81bc 4bc0 073f 5403 76bf
00000370: 3b81 733d 9b64 6a3f 9a18 cbbf ab72 4fbf
00000380: 4850 603d bae9 b0bd 48fa b4bd 60d5 4e3d
00000390: 48db 3cbd 20e6 403d aa9e c63d 108f 38bd
000003a0: f089 99bc 0ef6 c8bd 1c53 c6bd 20dd 883c
000003b0: 08a9 c43c 8edb cbbd 423c d3bd 3cbe 843d
000003c0: 606c 9fbb 0a32 d93d 5a11 da3d c880 1e3d
000003d0: c042 7fbc 2c94 433d 24cc b23d d22d ec3d
000003e0: 44d3 c03d 9c27 d7bd 00e2 85bd da41 f4bd
000003f0: a4a6 e0bd e0a5 603c 8c85 f53d 9880 0a3d

tgnn._base_tgcn.linear_z.bias f4 [32]
-0.26610643 0.73698694 0.11818309 0.018653734 -0.07046093 -0.21650599 -0.19619393 0.015448966
-0.21345177 -0.040802177 -0.4816491 -0.20666432 -0.73362505 -1.1921965 0.016526788 0.06856956
0.060834035 -0.110993326 -0.52119035 -0.36189562 -0.33091316 0.60737133 -0.19960539 -0.6909476
0.68162555 -0.3737107 -0.025439829 -0.41523296 0.23572762 -0.538573 0.11974424 -0.2698202
00000000: 1a3f 88be 2dab 3c3f fa09 f23d b7cf 983c
00000010: d24d 90bd bfb3 5dbe 10e7 48be a91d 7d3c
00000020: 1a93 5abe 2f20 27bd b69a f6be d09f 53be
00000030: dace 3bbf e599 98bf 3063 873c 336e 8c3d
00000040: 1c2d 793d 7850 e3bd bb6c 05bf 624a b9be
00000050: 736d a9be b07c 1b3f 5b65 4cbe f1e1 30bf
00000060: 037f 2e3f 0257 bfbe 3067 d0bc 6a99 d4be
00000070: 9562 713e ecdf 09bf 783c f53d e025 8abe

tgnn._base_tgcn.conv_r.bias f4 [32]
0.0 0.0 0.0 0.0 0.0 0.0 0.0 0.0
0.0 0.0 0.0 0.0 0.0 0.0 0.0 0.0
0.0 0.0 0.0 0.0 0.0 0.0 0.0 0.0
0.0 0.0 0.0 0.0 0.0 0.0 0.0 0.0
00000000: 0000 0000 0000 0000 0000 0000 0000 0000
00000010: 0000 0000 0000 0000 0000 0000 0000 0000
00000020: 0000 0000 0000 0000 0000 0000 0000 0000
00000030: 0000 0000 0000 0000 0000 0000 0000 0000
00000040: 0000 0000 0000 0000 0000 0000 0000 0000
00000050: 0000 0000 0000 0000 0000 0000 0000 0000
00000060: 0000 0000 0000 0000 0000 0000 0000 0000
00000070: 0000 0000 0000 0000 0000 0000 0000 0000

tgnn._base_tgcn.conv_r.lin.weight f4 [32, 3]
0.16965911 -0.037553072 0.058 0.30765042 -0.29204863 -0.020177722 -0.14040816 -0.28139192
0.093972 0.011039704 0.09644386 0.32871267 -0.28202555 -0.038353562 -0.11378935 0.2503403
-0.06998673 -0.36193478 0.021415055 0.13195279 0.16137215 -0.1009852 0.14807871 0.06853992
0.20136961 0.24095705 -0.18302193 -0.28173542 0.09143564 0.23300639 0.14357045 -0.18475646
-0.3047736 0.09166607 0.2801251 -0.18565165 -0.23761752 0.31345937 -0.3765382 0.3082089
-0.008306354 0.12245819 -0.14770049 -0.2538972 0.39423618 0.1664029 -0.081643015 -0.24177888
0.30107394 -0.17729856 0.24553058 0.16594991 -0.27114642 0.17000952 -0.013642997 0.2751501
-0.17664571 -0.37121272 -0.39349604 -0.2380074 0.28203174 -0.24862173 -0.09803039 -0.008543164
-0.0024053752 -0.07843304 -0.24303538 -0.07063952 -0.31078428 -0.35467574 0.2420921 -0.21242094
0.2418544 -0.19488631 0.18474093 -0.07327154 -0.15576243 0.18501553 0.15467903 0.09230062
0.0032456815 -0.064685404 -0.40229955 -0.07319707 0.3462328 0.29382756 0.09371677 0.19856241
-0.05077201 -0.25669378 -0.17840756 0.17265919 0.40160397 0.14477381 -0.06058258 -0.35659665
00000000: 1ebb 2d3e 40d1 19bd 6891 6d3d 5b84 9d3e
00000010: 6687 95be c04b a5bc 28c7 0fbe 9a12 90be
00000020: 6474 c03d e0df 343c 5c84 c53d 074d a83e
00000030: a765 90be a018 1dbd 640a e9bd 9b2c 803e
00000040: 3455 8fbd 844f b9be a06e af3c a21e 073e
00000050: be3e 253e 54d1 cebd f2a1 173e a85e 8c3d
00000060: d633 4e3e 72bd 763e 1a6a 3bbe a03f 90be
00000070: 9c42 bb3d 3a99 6e3e 2204 133e cc30 3dbe
00000080: 490b 9cbe 6cbb bb3d 8f6c 8f3e 771b 3ebe
00000090: 0252 73be bf7d a03e 9dc9 c0be 8fcd 9d3e
000000a0: 6017 08bc 5ccb fa3d cc3e 17be d0fe 81be
000000b0: 53d9 c93e 8665 2a3e 7434 a7bd e294 77be
000000c0: 5d26 9a3e c18d 35be 5e6c 7b3e c6ee 293e
000000d0: b4d3 8abe fa16 2e3e e086 5fbc 79e0 8c3e
000000e0: 9de2 34be 980f bebe 5078 c9be 36b8 73be
000000f0: 7766 903e b296 7ebe 28c4 c8bd a0f8 0bbc
00000100: 80a3 1dbb 80a1 a0bd 44de 78be 74ab 90bd
00000110: 1e1f 9fbe 0f98 b5be fee6 773e e084 59be
00000120: aea8 773e 4790 47be ba2c 3d3e 640f 96bd
00000130: 3080 1fbe b674 3d3e 2e64 1e3e 1c08 bd3d
00000140: 80b5 543b c879 84bd 35fa cdbe 58e8 95bd
00000150: 6d45 b13e 9170 963e 94ee bf3d f253 4b3e
00000160: 50f6 4fbd 5e6d 83be 79b0 36be 92cd 303e
00000170: 099f cd3e 963f 143e 7025 78bd d693 b6be

tgnn._base_tgcn.linear_r.weight f4 [32, 64]
-0.0737533 0.028673455 -0.032104403 -0.12430988 0.023893312 0.048621297 0.09931053 -0.055989906
0.08454122 -0.109967485 0.027058244 0.020878121 -0.091980115 0.060285464 0.11037688 -0.06267205
-0.042791396 0.018074214 0.0893611 -0.06952338 -0.04769768 0.044731513 0.040796995 0.05926755
0.09976938 0.11329433 0.08910236 0.057434827 0.07203089 0.07495734 -0.10994126 0.004388988
-0.10482623 0.022965789 0.053581893 -0.05908522 0.10908194 0.0551638 0.05457759 0.010787532
-0.05875577 0.024723545 0.06955607 0.097279936 0.102921784 0.068602756 0.078430876 -0.06932917
-0.01930362 -0.03687437 0.08161858 -0.08983253 0.10153371 -0.01866734 0.1183773 0.039708212
0.09733391 -0.034043327 0.10284725 -0.080348924 0.015347764 0.0022714138 0.12186824 0.03173916
-0.040606976 -0.07542311 0.09682092 -0.052967355 -0.07345587 -0.12261371 -0.011134699 -0.099027485
-0.022750065 -0.06654717 0.12324947 -0.076426074 0.08456457 0.1138739 0.07961732 -0.016986832
-0.025938496 0.0994955 0.07756573 -0.03612061 0.12461914 -0.09103081 0.079083994 -0.0047383457
0.04116547 0.111663654 0.11636995 -0.023028597 -0.08192125 0.09238055 0.094509155 0.089937136
0.07603483 0.047504812 0.08732188 -0.10251002 0.03876269 0.12215617 0.081613794 0.033509687
-0.11827195 0.11838812 -0.07183464 -0.09912117 0.09434812 -0.052059487 0.04769762 0.03788577
0.010921791 -0.045271084 -0.10343398 0.12095538 -0.016146734 0.06182453 -0.024830401 0.11602168
0.103963226 -0.07811932 -0.12052645 0.034886345 -0.009425536 -0.02181767 -0.12315288 -0.09520942
0.054510206 -0.013940781 0.095344365 0.07157417 0.046865344 0.020214915 -0.020744637 0.0204359
0.09030457 -0.037425146 0.06276348 0.07593283 0.085754424 -0.003007695 -0.10925077 0.054074943
0.12003927 0.019124791 -0.047037944 0.0062987953 -0.04449065 -0.0047605634 -0.06831531 -0.03906238
0.035863712 -0.020403177 -0.07982069 -0.06808221 0.024407327 -0.08916354 0.097904295 0.08319639
-0.008596018 0.05303788 -0.0790337 0.08667514 -0.06043899 -0.11556941 -0.055516303 0.070264935
-0.03175597 -0.00755772 -0.08008659 0.075812355 -0.123395056 0.035371795 -0.113339216 0.08593795
0.036074966 -0.0587029 0.003116846 -0.026199058 -0.058345765 0.10942617 -0.10953143 -0.007835388
0.11132103 0.027757466 -0.10250929 -0.109727144 0.006608546 0.046119615 -0.04573056 -0.08610521
0.0019403249 0.0358672 -0.10136476 -0.09186567 0.017764926 -0.080696076 -0.028668359 -0.056228444
0.06199874 0.09111193 -0.12174462 0.11964612 0.11698486 -0.11165273 0.079869494 -0.032285094
-0.037735626 0.06451696 0.07672463 -0.016776934 0.122696295 -0.1064823 -0.026864812 -0.060408384
-0.109726876 0.12463212 -0.09144989 -0.08874783 -0.090840906 0.06981388 -0.09892553 0.024035156
0.09114279 0.039981857 -0.029892802 -0.0809309 0.10096422 -0.055679306 -0.025997818 0.0798495
-0.058491245 0.08375488 -0.115570486 0.07122977 0.060371473 0.03087908 0.020154595 -0.0026038438
0.03317128 -0.07926443 -0.0968841 -0.07242809 -0.058182612 0.060762987 -0.09345868 0.022324905
-0.015727803 -0.016988322 0.022311449 -0.02521415 0.075103655 -0.034029573 -0.092093796 0.015399814
00000000: f80b 97bd 98e4 ea3c e87f 03bd 2e96 febd
00000010: e8bb c33c 2027 473d 5263 cb3d ac55 65bd
00000020: f223 ad3d a236 e1bd 40a9 dd3c 9808 ab3c
00000030: 1260 bcbd e4ed 763d 460d e23d 345a 80bd
00000040: 0846 2fbd 6010 943c f402 b73d 4662 8ebd
00000050: a45e 43bd 6438 373d c01a 273d 88c2 723d
00000060: e453 cc3d dc06 e83d 4c7b b63d c840 6b3d
00000070: ee84 933d 3c83 993d e228 e1bd 80d1 8f3b
00000080: 22af d6bd c022 bc3c b078 5b3d 5803 72bd
00000090: 5a66 df3d 70f3 613d c08c 5f3d 30be 303c
000000a0: e4a9 70bd 0889 ca3c 6a73 8e3d b43a c73d
000000b0: a8c8 d23d 9a7f 8c3d 5ea0 a03d 74fc 8dbd
000000c0: a022 9ebc 9409 17bd a427 a73d 1efa b7bd
000000d0: e8f0 cf3d 40ec 98bc cc6f f23d 14a5 223d
000000e0: 0057 c73d 0471 0bbd 94a1 d23d fa8d a4bd
000000f0: 3075 7b3c 00dc 143b 0e96 f93d ec00 023d
00000100: 8053 26bd 6e77 9abd 0c4a c63d 4cf4 58bd
00000110: 0870 96bd e61c fbbd 506e 36bc ecce cabd
00000120: 585e babc e249 88bd 386a fc3d 4685 9cbd
00000130: 3030 ad3d b836 e93d 680e a33d f827 8bbc
00000140: f87c d4bc 4cc4 cb3d c8da 9e3d 34f3 13bd
00000150: 5238 ff3d 5c6e babd caf6 a13d 2044 9bbb
00000160: 209d 283d eaaf e43d 5e53 ee3d 78a6 bcbc
00000170: 54c6 a7bd 0432 bd3d 048e c13d f630 b83d
00000180: 26b8 9b3d 6894 423d d0d5 b23d c6f0 d1bd
00000190: a0c5 1e3d 042d fa3d 2225 a73d 7441 093d
000001a0: 9038 f2bd 7875 f23d 0a1e 93bd 0a00 cbbd
000001b0: 9639 c13d 543c 55bd 945e 433d 1c2e 1b3d
000001c0: 50f1 323c 2c6e 39bd 32d5 d3bd 74b7 f73d
000001d0: 2846 84bc b83b 7d3d 2069 cbbc c69c ed3d
000001e0: acea d43d 06fd 9fbd 92d6 f6bd fce4 0e3d
000001f0: 906d 1abc f8ba b2bc 9437 fcbd 28fd c2bd
00000200: 1846 5f3d e067 64bc e843 c33d 7a95 923d
00000210: e0f5 3f3d c099 a53c a8f0 a9bc 3069 a73c
00000220: 9af1 b83d 1c4b 19bd 248a 803d ac82 9b3d
00000230: 04a0 af3d c01c 45bb debe dfbd b07d 5d3d
00000240: 26d7 f53d 98ab 9c3c dcaa 40bd 2066 ce3b
00000250: d43b 36bd 80fe 9bbb e6e8 8bbd e0ff 1fbd
00000260: d4e5 123d 9024 a7bc 0879 a3bd b06e 8bbd
00000270: e0f1 c73c 609b b6bd 0c82 c83d de62 aa3d
00000280: 50d6 0cbc 403e 593d 6cdc a1bd bc82 b13d
00000290: e08e 77bd a8af ecbd 1065 63bd 10e7 8f3d
000002a0: 8c12 02bd c0a6 f7bb 7004 a4bd 8243 9b3d
000002b0: 8cb6 fcbd 04e2 103d 641e e8bd 3c00 b03d
000002c0: 58c3 133d 7472 70bd 0044 4c3b 689f d6bc
000002d0: f8fb 6ebd d41a e03d 0452 e0bd 0060 00bc
000002e0: 48fc e33d a063 e33c 64f0 d1bd a0b8 e0bd
000002f0: 808c d83b ece7 3c3d f84f 3bbd ee57 b0bd
00000300: 8052 fe3a 7ce9 123d 5498 cfbd 1224 bcbd
00000310: c087 913c fc43 a5bd e8d9 eabc cc4f 66bd
00000320: 64f2 7d3d e498 ba3d 3e55 f9bd 0609 f53d
00000330: c295 ef3d 30aa e4bd 9e92 a33d 603d 04bd
00000340: ac90 1abd 7821 843d ce21 9d3d c86f 89bc
00000350: 3248 fb3d 6413 dabd 9813 dcbc c86e 77bd
00000360: 7cb8 e0bd 203f ff3d 144a bbbd 6cc1 b5bd
00000370: cc0a babd 94fa 8e3d 7899 cabd 60e5 c43c
00000380: 12a9 ba3d 04c4 233d c0e1 f4bc 1abf a5bd
00000390: 54c6 ce3d fc0f 64bd 60f9 d4bc 2288 a33d
000003a0: 8494 6fbd ae87 ab3d 38b0 ecbd eae0 913d
000003b0: 1448 773d 20f6 fc3c 401b a53c 40a5 2abb
000003c0: 9cde 073d 6455 a2bd 2c6b c6bd 2e55 94bd
000003d0: e450 6ebd 9ce2 783d 4467 bfbd b8e2 b63c
000003e0: 98d7 80bc 182b 8bbc 80c6 b63c e88d cebc
000003f0: f2cf 993d 9862 0bbd ac9b bcbd 804f 7c3c

tgnn._base_tgcn.linear_r.bias f4 [32]
0.07399389 -0.10156308 -0.061086252 0.05020684 0.06644811 -0.014549255 0.068296224 0.009360775
-0.0023612827 -0.121732384 -0.11818594 0.10928008 0.05197528 -0.11607598 0.058765724 -0.04471408
0.0374524 0.06750192 0.0333198 -0.01913163 -0.088471755 0.04522881 -0.0526039 -0.10631165
-0.1044216 0.056450054 0.124298066 0.0009716004 0.09883721 0.036037147 0.06460135 0.06896998
00000000: 1c8a 973d 4e00 d0bd 9435 7abd b0a5 4d3d
00000010: f215 883d 0060 6ebc e4de 8b3d f05d 193c
00000020: c0bf 1abb d44e f9bd 780b f2bd 3cce df3d
00000030: 08e4 543d 3eb9 edbd 54b4 703d 1c26 37bd
00000040: b067 193d 723e 8a3d 587a 083d f0b9 9cbc
00000050: ae30 b5bd d841 393d 3077 57bd ecb9 d9bd
00000060: feda d5bd 2c38 673d fc8f fe3d 00b3 7e3a
00000070: 2a6b ca3d b09b 133d b64d 843d 2240 8d3d

tgnn._base_tgcn.conv_h.bias f4 [32]
0.31241062 -0.014449631 -0.29095778 -0.10107464 0.23942693 -0.627099 0.39064074 0.34828776
0.59605193 -0.055527072 -0.3372751 0.2347161 -0.44592443 0.0031104938 0.07730936 -0.5164063
0.09114372 -0.3119993 0.2648594 -0.06621631 0.09748521 0.5331387 0.009467057 -0.0030953398
-0.2306242 0.13876879 -0.2570845 0.3430693 0.4598489 0.5130448 -0.26490948 -0.05014703
00000000: 49f4 9f3e 25be 6cbc 6bf8 94be 3900 cfbd
00000010: 552c 753e 8f89 20bf 1002 c83e c652 b23e
00000020: dc96 183f 5b70 63bd 52af acbe 6b59 703e
00000030: 3550 e4be 6dd9 4b3b 5f54 9e3d 3433 04bf
00000040: 8fa9 ba3d 5fbe 9fbe a79b 873e 6b9c 87bd
00000050: 53a6 c73d c77b 083f b71b 1b3c 2fdb 4abb
00000060: c028 6cbe 6819 0e3e 94a0 83be c7a6 af3e
00000070: 5171 eb3e e756 033f 37a2 87be f966 4dbd

tgnn._base_tgcn.conv_h.lin.weight f4 [32, 3]
0.23536411 -0.7002297 1.7083284 -0.27659163 -1.1289128 1.0427436 -0.03432209 -0.15489341
2.751022 -0.06598176 1.2051862 -0.6639544 0.10153561 0.6708834 -1.8804148 0.58144104
0.33536956 -0.58890855 -0.62623036 -0.605897 0.44979241 -0.57209915 -0.3175393 1.3015215
-0.07409144 0.67204344 -0.13383368 0.103043064 -1.2487638 1.1155583 0.7730873 0.31575444
-1.3433536 -0.65360814 -1.05774 -0.42897287 -0.036357258 0.7109957 -0.5111423 0.686853
1.1443357 0.00045976543 0.21351592 -0.64711785 2.001156 -0.05399632 -0.40946743 -1.7711712
-0.7977756 0.15854335 1.8445476 -0.37812114 -0.83246285 -0.9877714 -0.13572396 -0.8545732
0.8752725 0.026041541 1.331135 0.23772554 -0.14722787 -1.2183222 -0.5718686 0.14562248
0.17713086 1.425653 0.7865722 1.0313013 2.0543785 -0.27477983 -0.9996877 1.4632567
0.36299363 0.5880137 -1.2421668 0.1817973 -0.5509119 1.896577 -0.09866045 -1.0969738
-0.54697835 -0.4546751 -0.17189161 1.6268156 -0.00044210997 -0.3443729 1.8735945 -0.4652997
0.6830736 1.3849113 0.63095343 0.35351905 -1.5986643 -0.013540848 -1.273982 0.901542
00000000: 4a03 713e 4142 33bf 81aa da3f 6b9d 8dbe
00000010: 3780 90bf 9f78 853f 5295 0cbd 619c 1ebe
00000020: bf10 3040 7221 87bd 8b43 9a3f eaf8 29bf
00000030: e7f1 cf3d 04bf 2b3f 6fb1 f0bf 52d9 143f
00000040: 8fb5 ab3e b6c2 16bf a250 20bf 111c 1bbf
00000050: 314b e63e 1775 12bf 8394 a2be 4298 a63f
00000060: 41bd 97bd 0a0b 2c3f b20b 09be 3e08 d33d
00000070: 7ed7 9fbf 9dca 8e3f 0de9 453f 91aa a13e
00000080: 03f3 abbf dd52 27bf 0664 87bf 55a2 dbbe
00000090: 59eb 14bd d003 363f 39da 02bf 99d5 2f3f
000000a0: 9879 923f ac0c f139 eba3 5a3e 84a9 25bf
000000b0: f112 0040 3f2b 5dbd b7a5 d1be bdb5 e2bf
000000c0: 063b 4cbf 3059 223e 231a ec3f 1899 c1be
000000d0: 491c 55bf 96de 7cbf 39fb 0abe 4fc5 5abf
000000e0: dc11 603f 1255 d53c a262 aa3f 536e 733e
000000f0: e7c2 16be fbf1 9bbf fb65 12bf 0f1e 153e
00000100: cb61 353e cc7b b63f cc5c 493f ae01 843f
00000110: f07a 0340 f1af 8cbe 88eb 7fbf ff4b bb3f
00000120: 4dda b93e 1188 163f 52ff 9ebf 1229 3a3e
00000130: 9008 0dbf 09c3 f23f 7d0e cabd a369 8cbf
00000140: c606 0cbf 2dcb e8be 5b04 30be 7e3b d03f
00000150: ffca e7b9 a551 b0be f2d1 ef3f c33b eebe
00000160: e9dd 2e3f c644 b13f 2a86 213f 7300 b53e
00000170: 08a1 ccbf 6fda 5dbc d811 a3bf 75cb 663f

tgnn._base_tgcn.linear_h.weight f4 [32, 64]
-0.4069671 -1.0638216 -0.92142034 1.2524029 1.2087398 0.15972543 -0.48431516 -0.46761853
0.7091651 -1.6340795 0.36916545 -0.5320622 0.19265385 0.5925674 -0.80236197 -0.43999434
-0.557594 -0.55378175 -0.652123 1.018228 -0.62471366 0.27923197 0.19217049 -1.6759989
0.56891084 -0.489566 -0.8129721 -0.30598745 -0.023662325 0.5314764 0.3768948 -1.4330035
-0.064880475 0.087567165 0.08037771 -0.062485382 -0.038240895 -0.07648395 0.11553256 -0.054766923
0.06087494 -0.035721913 0.097739205 0.10307735 0.09622486 0.018606737 0.04877597 0.023506805
-0.026669994 -0.05257401 0.0071945935 -0.076635376 -0.08987668 -0.085349455 0.058197305 -0.009746268
0.112571985 0.07403371 0.053111807 -0.03747432 -0.10009195 0.11500466 0.0024447143 -0.10971551
0.7772724 0.5116355 0.39858347 -1.9946005 -0.5145466 -0.28428274 0.53496945 0.7131919
-0.080682054 1.1181241 -0.41988423 0.28602216 -0.46557894 -0.31055358 1.1338446 -0.18999085
0.15657769 0.1265529 1.6339422 -0.60136586 0.36837512 0.15801924 0.058606524 0.5336722
-1.3354443 0.9344927 0.22549291 0.7985453 0.42886966 -0.04894797 -0.7137222 0.97822523
-0.08901258 -0.012996018 -0.11977331 0.021012723 -0.065784276 0.05583188 -0.081155494 -0.06269881
0.0064311028 0.006788656 0.09010455 -0.0013136566 0.046465456 0.079957694 -0.08357698 0.07751277
-0.052453622 0.014318407 0.0261413 0.02369374 0.029151112 0.04550059 -0.08227602 0.031429112
-0.017895773 0.07363206 -0.07054855 0.039543808 0.05335839 -0.051761553 -0.08255084 0.09131689
0.11222008 0.08187668 -0.09636347 0.046249285 -0.10028753 -0.01668723 -0.10299203 0.066693366
0.07665081 0.0799686 -0.057508305 0.11726977 0.08922483 0.016186595 -0.09274556 0.07154882
0.03661424 0.00875701 -0.12228711 -0.07388063 -0.014846459 -0.114295825 0.08827916 -0.024357006
-0.018873945 0.042424113 0.05246395 -0.07742748 0.019144341 -0.05939658 -0.10576825 0.12350875
0.030642197 -0.085110545 -0.069131315 0.035117194 -0.1163127 -0.042874634 0.08264306 -0.076086074
0.10263243 0.041057214 -0.10347648 0.05265352 0.11913769 0.0495276 0.10274571 -0.0016127229
-0.09405221 0.040168658 0.032083154 0.053182095 -0.019699648 -0.062812835 0.036071077 -0.09388283
0.103567004 -0.05184968 -0.1249986 0.07039614 0.0063922554 -0.040023923 -0.045174018 -0.082000986
0.7771424 0.0010192071 0.9785006 -0.1859424 -0.32769066 0.96908796 -0.41495255 -0.18266246
-0.021311097 0.24595088 0.2698788 -0.58943844 0.24642114 0.27910006 1.3423531 -0.583949
0.23439474 -0.37392926 0.10409355 0.27616072 -0.3518634 0.42239702 0.57682365 0.16298985
0.021457788 1.2370292 -0.30776867 0.3132452 0.7256496 0.4031229 -0.054653093 0.035707995
-0.018408418 0.08362214 0.04971437 0.11824444 -0.041034713 -0.058303148 -0.020620987 0.10073264
0.09965317 -0.06432268 0.11720145 0.07487394 0.048134834 -0.013988778 0.08852579 0.06946412
0.07644658 0.03668432 -0.026370183 0.063246146 -0.08859962 0.004238531 -0.08772674 0.019797921
0.10409342 -0.114822656 -0.032590494 -0.10962956 -0.09747049 0.071014464 0.002326429 0.014486715
00000000: fe5d d0be 4e2b 88bf 34e2 6bbf bd4e a03f
00000010: fcb7 9a3f 108f 233e 28f8 f7be b26b efbe
00000020: d88b 353f 8429 d1bf 4103 bd3e 3a35 08bf
00000030: 0d47 453e 7fb2 173f 9867 4dbf f046 e1be
00000040: 7bbe 0ebf a4c4 0dbf 88f1 26bf 4c55 823f
00000050: 3ced 1fbf 7ef7 8e3e 57c8 443e 2287 d6bf
00000060: 24a4 113f 65a8 fabe f11e 50bf 63aa 9cbe
00000070: 7ed7 c1bc d60e 083f 5bf8 c03e a96c b7bf
00000080: 0ee0 84bd 6a56 b33d 129d a43d acf0 7fbd
00000090: 7ca2 1cbd 9ea3 9cbd 569c ec3d 4853 60bd
000000a0: 0058 793d 2451 12bd 7e2b c83d 381a d33d
000000b0: 8a11 c53d 286d 983c 50c9 473d 5891 c03c
000000c0: 087b dabc d857 57bd a0c0 eb3b 02f3 9cbd
000000d0: 4411 b8bd b2cb aebd 4c60 6e3d d0ae 1fbc
000000e0: 248c e63d fc9e 973d c48b 593d ac7e 19bd
000000f0: 02fd ccbd 9087 eb3d 8037 203b 86b2 e0bd
00000100: 53fb 463f 8bfa 023f 2213 cc3e 124f ffbf
00000110: 53b9 03bf 828d 91be c2f3 083f bf93 363f
00000120: a23c a5bd b11e 8f3f 11fb d6be 7f71 923e
00000130: 5d60 eebe e100 9fbe d221 913f f68c 42be
00000140: e755 203e 1597 013e 0525 d13f 1df3 19bf
00000150: aa9b bc3e cccf 213e 650d 703d be9e 083f
00000160: d7ef aabf ea3a 6f3f 9de7 663e 776d 4c3f
00000170: ce94 db3e ab7d 48bd 80b6 36bf f86c 7a3f
00000180: 3a4c b6bd 40ed 54bc b64b f5bd e022 ac3c
00000190: e8b9 86bd f8af 643d da34 a6bd 3c68 80bd
000001a0: 00bc d23b 6073 de3b bc88 b83d 002f acba
000001b0: 9052 3e3d dcc0 a33d 682a abbd 04bf 9e3d
000001c0: 9cd9 56bd c097 6a3c 4826 d63c 6019 c23c
000001d0: 50ce ee3c d45e 3a3d 5480 a8bd d0bb 003d
000001e0: 289a 92bc 68cc 963d c27b 90bd b0f8 213d
000001f0: 548e 5a3d ec03 54bd 6a10 a9bd 5a04 bb3d
00000200: a4d3 e53d f6ae a73d 365a c5bd e46f 3d3d
00000210: 8c63 cdbd a8b3 88bc 7ced d2bd 8896 883d
00000220: 1afb 9c3d 94c6 a33d d48d 6bbd 222b f03d
00000230: 82bb b63d c099 843c 62f1 bdbd 3088 923d
00000240: d0f8 153d 9079 0f3c aa71 fabd ba4e 97bd
00000250: 903e 73bc ee13 eabd b4cb b43d 5888 c7bc
00000260: 889d 9abc e8c4 2d3d 70e4 563d 4c92 9ebd
00000270: 98d4 9c3c d449 73bd 069d d8bd 28f2 fc3d
00000280: 5805 fb3c 704e aebd b894 8dbd 0cd7 0f3d
00000290: 5a35 eebd 509d 2fbd c440 a93d 04d3 9bbd
000002a0: f430 d23d 9c2b 283d 7aeb d3bd 38ab 573d
000002b0: 76fe f33d 74dd 4a3d 586c d23d 0062 d3ba
000002c0: 729e c0bd e487 243d a069 033d 78d5 593d
000002d0: 2861 a1bc 04a4 80bd 44bf 133d a445 c0bd
000002e0: f01a d43d 5460 54bd 44ff ffbd da2b 903d
000002f0: 2076 d13b 20f0 23bd 6408 39bd 22f0 a7bd
00000300: cef2 463f ea96 853a 047f 7a3f af67 3ebe
00000310: 12c7 a7be 2616 783f a974 d4be de0b 3bbe
00000320: 9c94 aebc 8cda 7b3e 8e2d 8a3e 70e5 16bf
00000330: d355 7c3e 34e6 8e3e 3ad2 ab3f af7d 15bf
00000340: 2d05 703e a873 bfbe 002f d53d f064 8d3e
00000350: 7127 b4be 6c44 d83e b7aa 133f d0e6 263e
00000360: 3ec8 af3c f956 9e3f db93 9dbe ad61 a03e
00000370: 2cc4 393f 2066 ce3e ecdb 5fbd 8c42 123d
00000380: 40cd 96bc 1642 ab3d 4ca1 4b3d 242a f23d
00000390: 0414 28bd 48cf 6ebd 58ed a8bc ea4c ce3d
000003a0: f616 cc3d 9cbb 83bd 5007 f03d 8257 993d
000003b0: 0829 453d 3031 65bc 024d b53d 3443 8e3d
000003c0: 0690 9c3d 4c42 163d 4806 d8bc 3287 813d
000003d0: b873 b5bd 60e3 8a3b 14aa b3bd 402f a23c
000003e0: ee2e d53d 2428 ebbd 9c7d 05bd 7685 e0bd
000003f0: 9c9e c7bd 0870 913d 0077 183b b059 6d3c

tgnn._base_tgcn.linear_h.bias f4 [32]
0.38900113 0.23350173 -0.089107886 -0.13455005 0.3915467 0.6693282 0.18899731 -0.10619929
0.20884874 0.6910729 0.3097676 0.33224508 0.26113504 0.28032207 -0.053697117 -0.12629332
-0.08333522 -0.027405486 0.14745529 0.5815226 0.5808175 -0.3285472 0.28626245 0.27002704
0.18594609 0.75984496 0.7502939 0.4550002 0.40186852 0.27209786 -0.0034676546 0.47211745
00000000: 282b c73e 141b 6f3e 327e b6bd 7dc7 09be
00000010: cf78 c83e 1859 2b3f 8388 413e 037f d9bd
00000020: 72dc 553e 27ea 303f dc99 9e3e 071c aa3e
00000030: 7eb3 853e 6086 8f3e 82f1 5bbd 0953 01be
00000040: a8ab aabd 7881 e0bc 85fe 163e aade 143f
00000050: 75b0 143f 5737 a8be fe90 923e fc40 8a3e
00000060: a768 3e3e 3385 423f 4313 403f c9f5 e83e
00000070: b6c1 cd3e 6950 8b3e 9741 63bb 61b9 f13e

linear.weight f4 [16, 32]
0.289826 -0.56032836 -0.11142372 1.3857892 0.6573005 -0.69113594 0.66842544 -0.051787853
0.63728255 -0.9835485 0.15612282 0.38570216 0.76092815 -0.5373165 0.02540472 0.091960385
0.01706636 -0.11412977 0.7186968 -0.69633186 -0.9865915 -1.6782653 0.6830302 0.565262
-0.28313982 -1.5464472 -0.80019426 -0.7676522 -0.94125473 0.09573099 0.08048946 0.3546819
0.27983686 -0.65572923 0.04278122 1.2056922 0.7130477 -0.6876564 0.6947552 -0.043036036
0.7558788 -0.992119 0.36034435 0.37998885 0.6044263 -0.61905515 -0.14197317 0.117471136
0.036463365 -0.05523041 0.65620255 -0.7751086 -1.0487831 -1.7673864 0.5526319 0.7819704
-0.17450763 -1.5275342 -0.80304736 -0.7567906 -1.0759892 0.16739278 0.1312343 0.57903117
0.561099 -0.73513335 -0.11556661 1.0628394 0.638792 -0.6292919 0.9211499 -0.10496654
0.53732395 -1.0172107 0.23716691 0.55327183 0.63280016 -0.7570964 0.008555488 0.05849137
-0.13937864 -0.14554152 0.43011686 -0.8980087 -1.0317094 -1.8831542 0.7397026 0.7333292
-0.52817523 -1.4705635 -0.84335446 -0.8433072 -0.9758141 0.44679883 0.001525232 0.53922266
0.5421387 -0.85682493 0.007895321 0.9014152 0.80045384 -0.56530845 0.67397666 0.043840613
0.539564 -1.0534809 0.4627426 0.4753066 0.644737 -0.95555496 0.01831739 -0.1404911
0.17592205 0.12355836 0.49943838 -0.9999459 -1.0060053 -1.955739 0.8416067 0.842312
-0.44994414 -1.4253006 -0.9124404 -0.8214895 -1.1166027 0.24900912 -0.04456652 0.8429761
0.5359908 -0.935566 -0.057647467 0.5926492 0.78476834 -0.7402806 0.8890618 0.08735913
0.73892766 -0.9838223 0.622425 0.58862066 0.6560235 -0.9303029 -0.02308166 -0.09487621
0.17476274 0.10485466 0.5059997 -1.0843444 -1.094438 -2.0025716 0.575601 0.8367924
-0.49303094 -1.4019763 -0.8402721 -0.7614761 -1.2919286 0.27523696 0.0066551045 1.0043683
0.77561736 -1.0514554 0.16676386 0.41624478 0.81694245 -0.96148884 0.95360446 -0.03732955
0.49462512 -0.95218843 0.41339272 0.6377706 0.88807213 -1.1193209 -0.034789603 0.109137855
-0.09364671 -0.13452554 0.38264444 -1.0960882 -1.1887225 -2.0423787 0.86290824 0.60602117
-0.47288686 -1.3342731 -0.72798824 -0.7160285 -1.4933356 0.59741795 0.07012463 0.9994155
0.5543153 -1.0952926 0.12310888 0.22043636 0.87394446 -0.8166422 0.9313575 0.04947257
0.69932413 -0.88305306 0.5405486 0.7188766 0.7912488 -1.2691934 -0.11047336 -0.041528
-0.10396226 0.08113755 0.50796676 -1.2820854 -1.026537 -2.0946708 0.6150613 0.625931
-0.83735013 -1.2077626 -0.8842159 -0.78908765 -1.5065494 0.5393961 0.03750951 1.2885021
0.7901331 -1.2751727 -0.025357336 -0.019277077 0.82537556 -0.95458466 1.0429126 -0.061065324
0.6463919 -0.9011762 0.7853612 0.62289876 0.70279104 -1.435343 0.027038308 -0.089699514
-0.01727216 -0.021731004 0.42066887 -1.3228636 -1.0709271 -2.0527356 0.81191456 0.7945224
-0.7777978 -1.1391808 -0.7016554 -0.6712572 -1.5529959 0.452534 0.021410936 1.1391443
00000000: 1364 943e ae71 0fbf 1f32 e4bd 8a61 b13f
00000010: d844 283f 49ee 30bf ee1d 2b3f 801f 54bd
00000020: f324 233f d6c9 7bbf a9de 1f3e c17a c53e
00000030: 30cc 423f 938d 09bf 8f1d d03c ba55 bc3d
00000040: c0ce 8b3c debc e9bd 83fc 373f ce42 32bf
00000050: 4391 7cbf 66d1 d6bf 11db 2e3f 03b5 103f
00000060: b4f7 90be fbf1 c5bf 88d9 4cbf db84 44bf
00000070: 12f6 70bf 9c0e c43d a8d7 a43d de98 b53e
00000080: c746 8f3e dfdd 27bf 5c3b 2f3d 1f54 9a3f
00000090: 4b8a 363f 400a 30bf 7adb 313f 8e46 30bd
000000a0: 4681 413f 83fb 7dbf 0e7f b83e e68d c23e
000000b0: afbb 1a3f 667a 1ebf 6a61 11be b594 f03d
000000c0: 9c5a 153d 4839 62bd e4fc 273f 846d 46bf
000000d0: 863e 86bf b839 e2bf 4979 0d3f 362f 483f
000000e0: 21b2 32be 3e86 c3bf 8394 4dbf 07bd 41bf
000000f0: 04ba 89bf 0369 2b3e 4962 063e 633b 143f
00000100: 2fa4 0f3f b331 3cbf 30ae ecbd 1f0b 883f
00000110: df87 233f 4619 21bf 7bd0 6b3f b3f8 d6bd
00000120: 108e 093f f633 82bf e2db 723e 39a3 0d3f
00000130: 31ff 213f 12d1 41bf 512c 0c3c a694 6f3d
00000140: 46b9 0ebe d608 15be 4738 dc3e e6e3 65bf
00000150: 0e0f 84bf 320b f1bf 265d 3d3f 76bb 3b3f
00000160: 7e36 07bf 6d3b bcbf 14e6 57bf fbe2 57bf
00000170: f4ce 79bf d1c2 e43e 4bea c73a 7f0a 0a3f
00000180: 9ac9 0a3f e158 5bbf 605b 013c 26c3 663f
00000190: 8bea 4c3f 0eb8 10bf bc89 2c3f 3792 333d
000001a0: de20 0a3f 76d8 86bf 99ec ec3e 635b f33e
000001b0: 7c0d 253f 409f 74bf 5a0e 963c e6dc 0fbe
000001c0: e924 343e 2a0c fd3d 63b6 ff3e 74fc 7fbf
000001d0: c8c4 80bf a855 fabf 8973 573f c2a1 573f
000001e0: 145f e6be 4070 b6bf b295 69bf 234d 52bf
000001f0: d6ec 8ebf 3ffc 7e3e 628b 36bd 48cd 573f
00000200: b136 093f 4181 6fbf c01f 6cbd dcb7 173f
00000210: 94e6 483f 0883 3dbf 8e99 633f 58e9 b23d
00000220: 5d2a 3d3f c7db 7bbf 3f57 1f3f d8af 163f
00000230: 28f1 273f 5528 6ebf c015 bdbc 754e c2bd
00000240: 01f5 323e 0abe d63d 3289 013f cccb 8abf
00000250: 8b16 8cbf 222a 00c0 965a 133f 0738 563f
00000260: 8d6e fcbe f673 b3bf 131c 57bf 19f0 42bf
00000270: eb5d a5bf dceb 8c3e 1013 da3b 248f 803f
00000280: dc8e 463f 1796 86bf 25c4 2a3e 091e d53e
00000290: 2423 513f 2224 76bf 6c1f 743f dfe6 18bd
000002a0: 813f fd3e 9fc2 73bf 36a8 d33e ef44 233f
000002b0: b258 633f e845 8fbf 8b7f 0ebd ab83 df3d
000002c0: d9c9 bfbd 10c1 09be f9e9 c33e 9e4c 8cbf
000002d0: 0f28 98bf 55b6 02c0 8ee7 5c3f 3424 1b3f
000002e0: 3a1e f2be 76c9 aabf 705d 3abf a54d 37bf
000002f0: 9f25 bfbf 62f0 183f 819d 8f3d b2d9 7f3f
00000300: 9ce7 0d3f 8c32 8cbf 8220 fc3d 12ba 613e
00000310: d3ba 5f3f 770f 51bf 726d 6e3f c0a3 4a3d
00000320: e806 333f c40f 62bf 6561 0a3f 4c08 383f
00000330: 488f 4a3f ee74 a2bf db3f e2bd 4419 2abd
00000340: 2aea d4bd 722b a63d 1c0a 023f 601b a4bf
00000350: 9065 83bf 160f 06c0 a874 1d3f 043d 203f
00000360: 945c 56bf f797 9abf f95b 62bf a601 4abf
00000370: 9cd6 c0bf dd15 0a3f 92a3 193d a3ed a43f
00000380: 2a46 4a3f dc38 a3bf 30ba cfbc f6ea 9dbc
00000390: d04b 533f a95f 74bf 297e 853f a21f 7abd
000003a0: f179 253f 7cb3 66bf 6e0d 493f 4b76 1f3f
000003b0: 1dea 333f 52b9 b7bf 717f dd3c 61b4 b7bd
000003c0: 587e 8dbc 3805 b2bc e961 d73e 9853 a9bf
000003d0: 2414 89bf 0560 03c0 a2d9 4f3f d265 4b3f
000003e0: c21d 47bf add0 91bf b09f 33bf 83d7 2bbf
000003f0: 92c8 c6bf 89b2 e73e fd65 af3c 7bcf 913f

linear.bias f4 [16]
0.43748343 0.29723984 0.27473313 0.21232581 -0.0006175468 -0.04856063 -0.047975637 -0.1250519
-0.2531714 -0.25325975 -0.3460878 -0.31868306 -0.31443363 -0.3446905 -0.27533758 -0.32274523
00000000: d4fd df3e d22f 983e d2a9 8c3e f06b 593e
00000010: dde2 21ba 83e7 46bd 1a82 44bd 9b0d 00be
00000020: af9f 81be 43ab 81be 6c32 b1be 6d2a a3be
00000030: 72fd a0be 467b b0be 0cf9 8cbe dd3e a5be

linear2.weight f4 [6, 21]
0.7386693 0.6823379 0.036594942 -0.24354683 -0.30308992 0.400712 -0.536338 1.0524647
0.0802108 0.39566135 -0.8583268 -0.355403 -0.0520278 -0.21739434 0.4003242 -0.5416439
-0.3269794 0.51308453 0.00873884 -0.31210473 -0.010572787 -0.04292156 0.31915382 0.08193096
0.061841004 -0.72577906 0.5331249 0.75248474 0.27716628 -0.17722957 0.28072545 0.62192404
-0.050953597 -0.16674748 0.19260477 -0.18671405 -0.35181427 0.07262833 -0.83897465 -0.0668111
0.067887805 0.3309344 0.4194915 0.004190445 -0.0709244 -0.11711807 -0.3471789 0.11190233
0.2578529 0.64696187 0.14262317 -0.47488743 -0.14262347 -0.121130615 0.124147676 -0.38422632
0.7236529 -0.31822646 -0.16130662 -0.27653706 -0.15941969 -0.3823858 -0.19867052 -0.5107381
-0.26159203 0.083964586 -0.037398912 0.073989764 -0.27682763 0.19753316 -1.2765151 0.3200562
0.3842742 0.1740859 0.6094305 0.39943704 -0.431704 -0.17931986 0.9881255 0.51966727
-0.004245659 -0.16702466 0.32580936 0.27434027 0.03012068 -0.2763688 -0.24402691 0.54465634
0.8922765 -0.35454082 -0.33090955 0.33227313 0.079636924 -0.63437104 -0.21969357 -0.58879465
0.032392204 0.21650024 0.50242007 -0.24389903 -0.34053567 0.46379694 0.4196128 0.19386558
-0.019938583 -0.21735506 -0.32317457 -0.5833432 0.041357473 0.71195084 -0.10805912 -0.008186066
-0.90706754 0.41167775 0.076559365 0.18856733 0.15574239 0.5986493 -0.103647284 -0.13159832
0.54682404 0.34010524 0.30143675 -0.15965883 0.28273445 -0.08266424
00000000: 6e19 3d3f b2ad 2e3f 94e4 153d 5764 79be
00000010: 9a2e 9bbe 202a cd3e 724d 09bf 2ab7 863f
00000020: 8f45 a43d 2094 ca3e 4ebb 5bbf 62f7 b5be
00000030: 1a1b 55bd 9f9c 5ebe 4bf7 cc3e 2da9 0abf
00000040: d869 a7be 8259 033f 5a2d 0f3c 31cc 9fbe
00000050: 7c39 2dbc 85ce 2fbd 2168 a33e 6bcb a73d
00000060: fe4c 7d3d a8cc 39bf e07a 083f d7a2 403f
00000070: bde8 8d3e ab7b 35be 3fbb 8f3e 6a36 1f3f
00000080: b8b4 50bd dabf 2abe 2f3a 453e f831 3fbe
00000090: 0021 b4be 29be 943d 0bc7 56bf 42d4 88bd
000000a0: c308 8b3d 3c70 a93e 97c7 d63e 0050 893b
000000b0: d040 91bd 99db efbd 6fc1 b1be 0c2d e53d
000000c0: 4c05 843e 4b9f 253f cf0b 123e 7224 f3be
000000d0: e30b 12be 5413 f8bd 2341 fe3d 50b9 c4be
000000e0: 5141 393f 94ee a2be 902d 25be 4496 8dbe
000000f0: ea3e 23be 12c8 c3be 4970 4bbe bbbf 02bf
00000100: 64ef 85be a0f5 ab3d 9a2f 19bd f287 973d
00000110: 5abc 8dbe 2246 4a3e d964 a3bf 68de a33e
00000120: 97bf c43e 9343 323e a303 1c3f 0383 cc3e
00000130: 4f08 ddbe a09f 37be cbf5 7c3f ea08 053f
00000140: 2b1f 8bbb 8308 2bbe 7cd0 a63e 5476 8c3e
00000150: a5bf f63c 3680 8dbe 31e2 79be 996e 0b3f
00000160: 3c6c 643f 6086 b5be fa6c a9be b41f aa3e
00000170: af18 a33d 2466 22bf 5af7 60be 3fbb 16bf
00000180: b0ad 043d 3db2 5d3e 9a9e 003f abc0 79be
00000190: b15a aebe cb76 ed3e 7dd7 d63e b384 463e
000001a0: 3d56 a3bc 5392 5ebe 2377 a5be fb55 15bf
000001b0: 7466 293d 6942 363f 1a4e ddbd d91e 06bc
000001c0: 9435 68bf 6dc7 d23e 28cb 9c3d cb17 413e
000001d0: ef7a 1f3e 1541 193f 0745 d4bd b6c1 06be
000001e0: a9fc 0b3f 4622 ae3e eb55 9a3e 9b7d 23be
000001f0: 92c2 903e de4b a9bd

linear2.bias f4 [6]
-0.44088456 0.18615611 -1.7833369 0.34105918 0.6627044 -1.1121845
00000000: 9fbb e1be b59f 3e3e 6244 e4bf 4f9f ae3e
00000010: ffa6 293f 105c 8ebf
