A3TGCN2_Checkpoints/Epoch_28.pth (torch, 35255 bytes, 17 tensors)

tgnn._attention f4 [16]
0	0x3fc03fe9	1.5019504
1	0x3f6e4049	0.9306684
2	0x3f10d0ce	0.5656861
3	0xbd280b6a	-0.04102651
4	0x3e740bb2	0.23832586
5	0xbdbdda00	-0.09270096
6	0xbdd4947d	-0.103798844
7	0x3eb3007b	0.34961304
8	0x3e2f5e35	0.17125781
9	0x3e2077be	0.15670678
10	0x3e943d47	0.28953
11	0x3ede57a2	0.43426234
12	0x3ec0b42f	0.3763747
13	0x3f1df711	0.6170512
14	0x3f489303	0.7834932
15	0x3fa0a758	1.2551069

tgnn._base_tgcn.conv_z.bias f4 [32]
0	0x3f0391f9	0.5139461
1	0x3ef6bcd4	0.4819094
2	0x3e4e7ef3	0.20165615
3	0xbcd6bebb	-0.026213994
4	0xbe20f576	-0.15718636
5	0xbebacfc2	-0.36486632
6	0xbf08ce8b	-0.5344016
7	0xbf06c7e5	-0.52648765
8	0x3f0f015b	0.55861443
9	0x3f080e53	0.5314686
10	0xbf117707	-0.56822246
11	0xbf0794e4	-0.52961564
12	0x3e0ec2c1	0.1394148
13	0x3d9b0873	0.07569971
14	0x3efe7f05	0.49706283
15	0x3efec719	0.49761274
16	0xbf0a1b9d	-0.53948385
17	0x3f0f8ba6	0.5607246
18	0x3ea447c4	0.32086003
19	0x3f13064f	0.574315
20	0x3f044686	0.5167011
21	0xbf04c4d8	-0.5186286
22	0xbf06ca0a	-0.5265204
23	0x3f084d4a	0.53242934
24	0xbee61325	-0.4493648
25	0xbf000528	-0.5000787
26	0xbee65f31	-0.449945
27	0x3edc94c3	0.43082246
28	0x3f03adb5	0.5143693
29	0xbe83e9ba	-0.25764257
30	0x3e936448	0.28787446
31	0x3f0472b1	0.51737505

tgnn._base_tgcn.conv_z.lin.weight f4 [32, 3]
0	0xbe6b4caf	-0.22978471
1	0xbebdbe1d	-0.37059107
2	0xbfd1a424	-1.6378217
3	0x3e8e0483	0.27737817
4	0xbf07d135	-0.530536
5	0xbf6aa315	-0.91655093
6	0xbf284705	-0.6573337
7	0x3ecbca1a	0.3980263
8	0xbf45825b	-0.7715203
9	0xbe5e28f9	-0.21695317
10	0x3f453058	0.7702689
11	0x3faa1e9a	1.3290589
12	0x3f08c487	0.53424877
13	0xbf0e84fe	-0.5567168
14	0x3dcdf85a	0.10057135
15	0xbe16c6f2	-0.14724329
16	0x3f04c6dd	0.5186594
17	0x3fe1714f	1.7612704
18	0xbee27810	-0.44232225
19	0xbdddd711	-0.10832036
20	0xbeb586b6	-0.3545434
21	0xbd83b465	-0.06430892
22	0x3e906a63	0.28206167
23	0x3f9c9052	1.2231543
24	0x3e5bd91f	0.21469544
25	0xbf0951d7	-0.536405
26	0xbf98fc15	-1.1951929
27	0x3eacdc7b	0.33761963
28	0xbf592885	-0.8482745
29	0xbfa109a8	-1.2581072
30	0x3e19ab80	0.15006828
31	0x3f0a5798	0.5403991
32	0x3f4ebf8b	0.8076102
33	0xbed4222f	-0.4143233
34	0x3f0d9b6f	0.553153
35	0x3f3a3b14	0.72746396
36	0xbe8876a6	-0.26653022
37	0x3f1b91fb	0.60769624
38	0xbdd1e602	-0.10248949
39	0xbf5981cc	-0.8496368
40	0x3d70b5d0	0.05876714
41	0x3e26b45a	0.16279736
42	0x3eaa65f1	0.332809
43	0xbefd26e1	-0.49443725
44	0xbf86a751	-1.0519811
45	0xbd195205	-0.037431736
46	0xbe975dec	-0.29563844
47	0xbfe6a20b	-1.8018202
48	0xbe127241	-0.14301397
49	0x3ee3dd6f	0.44504878
50	0x3f58bc3e	0.84662235
51	0x3e064915	0.13113816
52	0xbf2d6a37	-0.67740196
53	0xbfd69ab8	-1.6765966
54	0xbeffa6f5	-0.49932066
55	0xbe5ef9a1	-0.21774913
56	0x3d810cab	0.06301244
57	0xbe166e72	-0.14690569
58	0xbef8e515	-0.48612276
59	0xbfd19111	-1.6372396
60	0x3ebcacb2	0.36850506
61	0xbef6454c	-0.48099744
62	0xbf65b251	-0.89725214
63	0xbe07eea9	-0.13274635
64	0x3ec67eba	0.3876856
65	0x3f02f303	0.51152056
66	0xbe868b84	-0.26278317
67	0x3f4baa26	0.795565
68	0x3fc331f4	1.524962
69	0x3dfb68a0	0.12275815
70	0xbe5935f9	-0.21211995
71	0xbfdbb444	-1.7164388
72	0x3e90ecc3	0.28305635
73	0x3e1114d3	0.141681
74	0x3fb9c7e9	1.4514133
75	0x3e478578	0.19484508
76	0x3dc375f6	0.09543984
77	0x3fa8c643	1.3185505
78	0x3f07bef1	0.5302573
79	0x3e9c20a7	0.30493662
80	0x3f41e605	0.75741607
81	0xbf005032	-0.5012237
82	0xbecf4275	-0.4048039
83	0xbf26fb77	-0.65227455
84	0x3ddccb2f	0.10780942
85	0xbc6391cf	-0.013889744
86	0xbf8a6412	-1.0811789
87	0x3f36c4e7	0.713942
88	0x3f7c7d64	0.9862883
89	0x3fb10a08	1.3831186
90	0xbd0ab56e	-0.03386443
91	0xbfa33b2d	-1.2752434
92	0xbf968ef2	-1.1762373
93	0xbb851d0b	-0.0040623
94	0xbf050961	-0.51967436
95	0xbfa24efd	-1.2680355

tgnn._base_tgcn.linear_z.weight f4 [32, 64]
0	0xbf44ae56	-0.76828516
1	0xbf328933	-0.697406
2	0x3e9a7cdb	0.30173382
3	0x3f4d426d	0.8017948
4	0xbe6482d0	-0.22315526
5	0x3f57e78c	0.8433769
6	0x3e3cb9b2	0.18430212
7	0x3ea2913c	0.3175143
8	0xbf4124aa	-0.7544657
9	0xbfa0feed	-1.2577797
10	0x3facb2b2	1.3492033
11	0x3f1bc0e5	0.6084121
12	0x3d9bf48e	0.076150045
13	0xbee35ae6	-0.44405288
14	0xbf2e984b	-0.6820113
15	0xbf16ecf2	-0.589553
16	0x3f44d141	0.76881796
17	0xbf987472	-1.1910536
18	0xbf0f6dc6	-0.56026876
19	0xbfa0d390	-1.2564564
20	0xbef059da	-0.4694355
21	0x3f2a2cc8	0.6647458
22	0x3fa1f1e6	1.2651947
23	0xbe94a3c0	-0.2903118
24	0x3ea2872c	0.31743753
25	0x3e6cb1f2	0.23114756
26	0x3f482b2a	0.78190863
27	0xbf87548c	-1.0572677
28	0xbe6a93e9	-0.22907986
29	0x3ee28264	0.44240105
30	0xbf43dcdb	-0.76508874
31	0xbf8ec9c9	-1.115533
32	0x3ca5dba8	0.020246342
33	0x3d64c704	0.05585386
34	0x3d376430	0.04477328
35	0x3d1089a4	0.035287514
36	0x3cbd8e88	0.023139253
37	0xbcb79138	-0.022408113
38	0x3deae07c	0.11468598
39	0xbc941b58	-0.018079445
40	0xbd60348c	-0.054737613
41	0x3d9ddff8	0.07708734
42	0xbd3d5e3c	-0.046232447
43	0x3dec22ce	0.11530076
44	0x3de290f0	0.11062801
45	0xbdaba19e	-0.083804354
46	0xbdd24a90	-0.10268128
47	0xbd276020	-0.040863156
48	0x3da5223e	0.08063172
49	0xbdd291bc	-0.10281703
50	0x3d8af502	0.06785013
51	0xbdfe2028	-0.12408477
52	0xbcc31510	-0.023813754
53	0xbd06ae1c	-0.032880887
54	0x3c592e50	0.013255671
55	0x3dcec97c	0.10097024
56	0xbdb40a88	-0.08791071
57	0x3b072f80	0.0020627677
58	0x3bc81160	0.006105587
59	0xbd56c170	-0.05243057
60	0x3c0d2900	0.008615732
61	0x3db887ca	0.09010275
62	0xbd9ca6e4	-0.07649019
63	0x3da2020c	0.07910547
64	0xbf31143b	-0.69171494
65	0xbe413b54	-0.18870288
66	0xbf0053cc	-0.50127864
67	0x3f746db0	0.9547987
68	0xbb2d0548	-0.0026400853
69	0x3fcc402c	1.5957084
70	0xbe41c44d	-0.18922539
71	0x3e312738	0.17300117
72	0xbe0f6668	-0.14003909
73	0xbf11ebb0	-0.57000256
74	0xbd2adf09	-0.04171661
75	0x3dd52acc	0.104085535
76	0xbd862626	-0.06550245
77	0x3f35d25a	0.71024096
78	0xbe809ec3	-0.25121126
79	0xbf23facf	-0.6405458
80	0xbe1cf5eb	-0.15328185
81	0xbf6a8a94	-0.91617703
82	0x3ec32c94	0.38119948
83	0xbf354202	-0.70803845
84	0x3b83211d	0.00400175
85	0xbe340694	-0.17580634
86	0x3f41ac71	0.7565375
87	0xbeb44626	-0.3520977
88	0x3eb048a4	0.3443042
89	0x3e84aa26	0.25911063
90	0x3e0a08d0	0.13479924
91	0xbbb53606	-0.0055301217
92	0x3daf3486	0.0855494
93	0x3f2e0a61	0.67984587
94	0xbf65e14e	-0.8979691
95	0xbee80797	-0.4531829
96	0x3dbfcfd2	0.093658105
97	0x3d5cda4c	0.05391912
98	0xbd9759c2	-0.07390167
99	0xbd8eab42	-0.069662586
100	0x3ce24090	0.027618676
101	0x3d10e8f8	0.035378426
102	0x3d8797c6	0.06620745
103	0xbdbb660e	-0.09150325
104	0x3df6a7ee	0.12043749
105	0xbcc94720	-0.024570048
106	0x3d339b5c	0.043849334
107	0xbd5b6d64	-0.05357112
108	0x3d433538	0.047658175
109	0x3ddaa082	0.10675146
110	0xbdb84d72	-0.089991465
111	0x3c392780	0.011300921
112	0x3c7af590	0.015317336
113	0xbc93ae30	-0.018027395
114	0xbd0c6ad4	-0.034281567
115	0x3cc63050	0.02419296
116	0x3cbd74d0	0.02312699
117	0xbd519f78	-0.051177472
118	0x3d35655c	0.044286117
119	0x3dd57bda	0.104240134
120	0x3cfa1138	0.030525789
121	0xbd82a736	-0.06379549
122	0xbc99b3e8	-0.018762544
123	0xbd0399bc	-0.032129034
124	0x3dff8eb2	0.12478389
125	0xbd84f17a	-0.064913705
126	0x3d99ab2e	0.07503353
127	0xbdfe9f46	-0.12432723
128	0x3d37e158	0.04489264
129	0xbdf1b328	-0.118017495
130	0xbc5987b0	-0.013276979
131	0xbdc19d9a	-0.09453888
132	0xbdd117b8	-0.10209602
133	0x3cb759e0	0.022381723
134	0x3dbecc76	0.093163416
135	0x3dba0ac0	0.09084082
136	0xbd598f04	-0.053114906
137	0xbd14bb34	-0.036311343
138	0xbcab8b68	-0.020940498
139	0xbb5cc780	-0.0033688247
140	0xbda78b58	-0.081808746
141	0xbb8df180	-0.0043317676
142	0x3d98f48a	0.07468517
143	0x3dd69a4a	0.10478647
144	0x3dc4cf34	0.09609833
145	0xbd78e550	-0.060765564
146	0x3d963b64	0.073355466
147	0x3d881408	0.06644446
148	0x3ddc3500	0.107522964
149	0xbd06be3c	-0.032896265
150	0xbdc35872	-0.09538354
151	0x3c6ca170	0.014442787
152	0x3d854736	0.06507723
153	0xbce7a488	-0.028276697
154	0x3c1e61f0	0.009666905
155	0xbc932458	-0.017961666
156	0xbdd9ba8a	-0.10631283
157	0x3d17105c	0.036880836
158	0x3d02d9d8	0.031946033
159	0x3b2a9d00	0.002603352
160	0xbdd4c39a	-0.103888705
161	0x3d4ce114	0.05001934
162	0x3b9fd340	0.004877478
163	0xbde1abb0	-0.11019075
164	0xbddde0b2	-0.10833873
165	0x3c60b860	0.013715833
166	0x3c726510	0.014794603
167	0x3c23daf0	0.010000929
168	0x3d82217a	0.063540414
169	0xba1b2400	-0.0005918145
170	0x3df3f7fa	0.11912532
171	0xbd11c80c	-0.03559117
172	0xbd9136f0	-0.070905566
173	0xbdb36646	-0.087597415
174	0xbd7a5b80	-0.061122417
175	0x3df685d0	0.120372415
176	0x3d80ac46	0.062828586
177	0xbd3c11f4	-0.04591556
178	0xbdacaaf8	-0.08431047
179	0xbc0933c0	-0.008374155
180	0x3db23ec4	0.08703378
181	0x3df7fda0	0.12108922
182	0xbde94b26	-0.113912866
183	0xbd6f9b30	-0.058497608
184	0xbdd43d52	-0.103632584
185	0xbcbca818	-0.023029372
186	0xbc933dc8	-0.017973796
187	0x3de6c6e8	0.11268407
188	0x3df61a1c	0.12016699
189	0x3dec2bdc	0.11531803
190	0xbd4c32cc	-0.04985313
191	0xbd5ec020	-0.054382443
192	0xbf54cb39	-0.83122593
193	0xbf06f43f	-0.5271644
194	0x3ea600c9	0.32422474
195	0x3ec1bc78	0.37839103
196	0xbf0ba7a9	-0.54552704
197	0x3fa96250	1.3233128
198	0xbe211cc0	-0.15733624
199	0x3e136a8d	0.14396115
200	0xbeed8124	-0.4638759
201	0xbf8e4251	-1.1113988
202	0x3f40a97c	0.7525861
203	0x3e9e0da5	0.30869785
204	0x3f2bc37e	0.6709517
205	0xbedcef8f	-0.4315152
206	0xbeaccb9b	-0.3374909
207	0xbec5a518	-0.3860252
208	0x3e9b4867	0.30328676
209	0xbf701289	-0.9377828
210	0xbeba2191	-0.36353734
211	0xbf4237e9	-0.7586656
212	0xbec2336b	-0.37929854
213	0x3eb85ae9	0.3600686
214	0x3faf344f	1.3687838
215	0xbcd2f89b	-0.02575331
216	0x3e163b10	0.14670968
217	0xbce15a8f	-0.027509002
218	0x3f3dbe0a	0.741181
219	0xbf98b226	-1.1929367
220	0x3de164f6	0.11005585
221	0x3f842a14	1.0325341
222	0xbfdbc41d	-1.7169224
223	0xbf6163db	-0.8804299
224	0x3d605048	0.054764062
225	0xbdb0e9ba	-0.0863833
226	0xbdb4fa48	-0.088368
227	0x3d4ed560	0.05049646
228	0xbd3cdb48	-0.04610756
229	0x3d40e620	0.047094464
230	0x3dc69eaa	0.096982315
231	0xbd388f10	-0.04505831
232	0xbc9989f0	-0.018742532
233	0xbdc8f60e	-0.09812556
234	0xbdc6531c	-0.096838206
235	0x3c88dd20	0.016707003
236	0x3cc4a908	0.024006382
237	0xbdcbdb8e	-0.09953986
238	0xbdd33c42	-0.10314228
239	0x3d84be3c	0.06481597
240	0xbb9f6c60	-0.004865214
241	0x3dd9320a	0.10605247
242	0x3dda115a	0.10647841
243	0x3d1e80c8	0.038697034
244	0xbc7f42c0	-0.015579879
245	0x3d43942c	0.04774873
246	0x3db2cc24	0.08730343
247	0x3dec2dd2	0.11532177
248	0x3dc0d344	0.09415296
249	0xbdd7279c	-0.10505602
250	0xbd85e200	-0.06537247
251	0xbdf441da	-0.11926623
252	0xbde0a6a4	-0.10969284
253	0x3c60a5e0	0.013711423
254	0x3df5858c	0.11988363
255	0x3d0a8098	0.033814043

tgnn._base_tgcn.linear_z.bias f4 [32]
0	0xbee8255c	-0.45341003
1	0x3efff989	0.49995068
2	0x3df209fa	0.11818309
3	0x3d25f59d	0.04051744
4	0xbee2d0fa	-0.4430006
5	0xbe23cc22	-0.15995839
6	0xbe8872c2	-0.26650053
7	0x3c7d1da9	0.015448966
8	0xbed41b7c	-0.4142722
9	0x3d1eeaed	0.03879826
10	0xbef0dff5	-0.47045866
11	0xbee543fa	-0.44778425
12	0xbf18a3ec	-0.59625125
13	0xbf184e9e	-0.5949496
14	0xbbc011c0	-0.005861491
15	0x3d8c6e33	0.06856956
16	0x3d792d1c	0.060834035
17	0xbde35078	-0.110993326
18	0xbeee3d82	-0.46531302
19	0xbed9268a	-0.42412215
20	0xbebb4b3f	-0.36580846
21	0x3ed5bd99	0.41746214
22	0xbe914496	-0.2837264
23	0xbf1031b6	-0.5632585
24	0x3ead23c8	0.3381636
25	0xbf034796	-0.51281106
26	0x3de1cec6	0.11025767
27	0xbe527a39	-0.20554437
28	0x3e4138bb	0.18869297
29	0xbefc7c51	-0.49313596
30	0x3df53c78	0.11974424
31	0xbebfb298	-0.37440944

tgnn._base_tgcn.conv_r.bias f4 [32]
0	0x00000000	0.0
1	0x00000000	0.0
2	0x00000000	0.0
3	0x00000000	0.0
4	0x00000000	0.0
5	0x00000000	0.0
6	0x00000000	0.0
7	0x00000000	0.0
8	0x00000000	0.0
9	0x00000000	0.0
10	0x00000000	0.0
11	0x00000000	0.0
12	0x00000000	0.0
13	0x00000000	0.0
14	0x00000000	0.0
15	0x00000000	0.0
16	0x00000000	0.0
17	0x00000000	0.0
18	0x00000000	0.0
19	0x00000000	0.0
20	0x00000000	0.0
21	0x00000000	0.0
22	0x00000000	0.0
23	0x00000000	0.0
24	0x00000000	0.0
25	0x00000000	0.0
26	0x00000000	0.0
27	0x00000000	0.0
28	0x00000000	0.0
29	0x00000000	0.0
30	0x00000000	0.0
31	0x00000000	0.0

tgnn._base_tgcn.conv_r.lin.weight f4 [32, 3]
0	0x3e2dbb1e	0.16965911
1	0xbd19d140	-0.037553072
2	0x3d6d9168	0.058
3	0x3e9d845b	0.30765042
4	0xbe958766	-0.29204863
5	0xbca54bc0	-0.020177722
6	0xbe0fc728	-0.14040816
7	0xbe90129a	-0.28139192
8	0x3dc07464	0.093972
9	0x3c34dfe0	0.011039704
10	0x3dc5845c	0.09644386
11	0x3ea84d07	0.32871267
12	0xbe9065a7	-0.28202555
13	0xbd1d18a0	-0.038353562
14	0xbde90a64	-0.11378935
15	0x3e802c9b	0.2503403
16	0xbd8f5534	-0.06998673
17	0xbeb94f84	-0.36193478
18	0x3caf6ea0	0.021415055
19	0x3e071ea2	0.13195279
20	0x3e253ebe	0.16137215
21	0xbdced154	-0.1009852
22	0x3e17a1f2	0.14807871
23	0x3d8c5ea8	0.06853992
24	0x3e4e33d6	0.20136961
25	0x3e76bd72	0.24095705
26	0xbe3b6a1a	-0.18302193
27	0xbe903fa0	-0.28173542
28	0x3dbb429c	0.09143564
29	0x3e6e993a	0.23300639
30	0x3e130422	0.14357045
31	0xbe3d30cc	-0.18475646
32	0xbe9c0b49	-0.3047736
33	0x3dbbbb6c	0.09166607
34	0x3e8f6c8f	0.2801251
35	0xbe3e1b77	-0.18565165
36	0xbe735202	-0.23761752
37	0x3ea07dbf	0.31345937
38	0xbec0c99d	-0.3765382
39	0x3e9dcd8f	0.3082089
40	0xbc081760	-0.008306354
41	0x3dfacb5c	0.12245819
42	0xbe173ecc	-0.14770049
43	0xbe81fed0	-0.2538972
44	0x3ec9d953	0.39423618
45	0x3e2a6586	0.1664029
46	0xbda73474	-0.081643015
47	0xbe7794e2	-0.24177888
48	0x3e9a265d	0.30107394
49	0xbe358dc1	-0.17729856
50	0x3e7b6c5e	0.24553058
51	0x3e29eec6	0.16594991
52	0xbe8ad3b4	-0.27114642
53	0x3e2e16fa	0.17000952
54	0xbc5f86e0	-0.013642997
55	0x3e8ce079	0.2751501
56	0xbe34e29d	-0.17664571
57	0xbebe0f98	-0.37121272
58	0xbec97850	-0.39349604
59	0xbe73b836	-0.2380074
60	0x3e906677	0.28203174
61	0xbe7e96b2	-0.24862173
62	0xbdc8c428	-0.09803039
63	0xbc0bf8a0	-0.008543164
64	0xbb1da380	-0.0024053752
65	0xbda0a180	-0.07843304
66	0xbe78de44	-0.24303538
67	0xbd90ab74	-0.07063952
68	0xbe9f1f1e	-0.31078428
69	0xbeb5980f	-0.35467574
70	0x3e77e6fe	0.2420921
71	0xbe5984e0	-0.21242094
72	0x3e77a8ae	0.2418544
73	0xbe479047	-0.19488631
74	0x3e3d2cba	0.18474093
75	0xbd960f64	-0.07327154
76	0xbe1f8030	-0.15576243
77	0x3e3d74b6	0.18501553
78	0x3e1e642e	0.15467903
79	0x3dbd081c	0.09230062
80	0x3b54b580	0.0032456815
81	0xbd8479c8	-0.064685404
82	0xbecdfa35	-0.40229955
83	0xbd95e858	-0.07319707
84	0x3eb1456d	0.3462328
85	0x3e967091	0.29382756
86	0x3dbfee94	0.09371677
87	0x3e4b53f2	0.19856241
88	0xbd4ff650	-0.05077201
89	0xbe836d5e	-0.25669378
90	0xbe36b079	-0.17840756
91	0x3e30cd92	0.17265919
92	0x3ecd9f09	0.40160397
93	0x3e143f96	0.14477381
94	0xbd782570	-0.06058258
95	0xbeb693d6	-0.35659665

tgnn._base_tgcn.linear_r.weight f4 [32, 64]
0	0xbd970bf8	-0.0737533
1	0x3ceae498	0.028673455
2	0xbd037fe8	-0.032104403
3	0xbdfe962e	-0.12430988
4	0x3cc3bbe8	0.023893312
5	0x3d472720	0.048621297
6	0x3dcb6352	0.09931053
7	0xbd6555ac	-0.055989906
8	0x3dad23f2	0.08454122
9	0xbde136a2	-0.109967485
10	0x3cdda940	0.027058244
11	0x3cab0898	0.020878121
12	0xbdbc6012	-0.091980115
13	0x3d76ede4	0.060285464
14	0x3de20d46	0.11037688
15	0xbd805a34	-0.06267205
16	0xbd2f4608	-0.042791396
17	0x3c941060	0.018074214
18	0x3db702f4	0.0893611
19	0xbd8e6246	-0.06952338
20	0xbd435ea4	-0.04769768
21	0x3d373864	0.044731513
22	0x3d271ac0	0.040796995
23	0x3d72c288	0.05926755
24	0x3dcc53e4	0.09976938
25	0x3de806dc	0.11329433
26	0x3db67b4c	0.08910236
27	0x3d6b40c8	0.057434827
28	0x3d9384ee	0.07203089
29	0x3d99833c	0.07495734
30	0xbde128e2	-0.10994126
31	0x3b8fd180	0.004388988
32	0xbdd6af22	-0.10482623
33	0x3cbc22c0	0.022965789
34	0x3d5b78b0	0.053581893
35	0xbd720358	-0.05908522
36	0x3ddf665a	0.10908194
37	0x3d61f370	0.0551638
38	0x3d5f8cc0	0.05457759
39	0x3c30be30	0.010787532
40	0xbd70a9e4	-0.05875577
41	0x3cca8908	0.024723545
42	0x3d8e736a	0.06955607
43	0x3dc73ab4	0.097279936
44	0x3dd2c8a8	0.102921784
45	0x3d8c7f9a	0.068602756
46	0x3da0a05e	0.078430876
47	0xbd8dfc74	-0.06932917
48	0xbc9e22a0	-0.01930362
49	0xbd170994	-0.03687437
50	0x3da727a4	0.08161858
51	0xbdb7fa1e	-0.08983253
52	0x3dcff0e8	0.10153371
53	0xbc98ec40	-0.01866734
54	0x3df26fcc	0.1183773
55	0x3d22a514	0.039708212
56	0x3dc75700	0.09733391
57	0xbd0b7104	-0.034043327
58	0x3dd2a194	0.10284725
59	0xbda48dfa	-0.080348924
60	0x3c7b7530	0.015347764
61	0x3b14dc00	0.0022714138
62	0x3df9960e	0.12186824
63	0x3d0200ec	0.03173916
64	0xbd265380	-0.040606976
65	0xbd9a776e	-0.07542311
66	0x3dc64a0c	0.09682092
67	0xbd58f44c	-0.052967355
68	0xbd967008	-0.07345587
69	0xbdfb1ce6	-0.12261371
70	0xbc366e50	-0.011134699
71	0xbdcaceec	-0.099027485
72	0xbcba5e58	-0.022750065
73	0xbd8849e2	-0.06654717
74	0x3dfc6a38	0.12324947
75	0xbd9c8546	-0.076426074
76	0x3dad3030	0.08456457
77	0x3de936b8	0.1138739
78	0x3da30e68	0.07961732
79	0xbc8b27f8	-0.016986832
80	0xbcd47cf8	-0.025938496
81	0x3dcbc44c	0.0994955
82	0x3d9edac8	0.07756573
83	0xbd13f334	-0.03612061
84	0x3dff3852	0.12461914
85	0xbdba6e5c	-0.09103081
86	0x3da1f6ca	0.079083994
87	0xbb9b4420	-0.0047383457
88	0x3d289d20	0.04116547
89	0x3de4afea	0.111663654
90	0x3dee535e	0.11636995
91	0xbcbca678	-0.023028597
92	0xbda7c654	-0.08192125
93	0x3dbd3204	0.09238055
94	0x3dc18e04	0.094509155
95	0x3db830f6	0.089937136
96	0x3d9bb826	0.07603483
97	0x3d429468	0.047504812
98	0x3db2d5d0	0.08732188
99	0xbdd1f0c6	-0.10251002
100	0x3d1ec5a0	0.03876269
101	0x3dfa2d04	0.12215617
102	0x3da72522	0.081613794
103	0x3d094174	0.033509687
104	0xbdf23890	-0.11827195
105	0x3df27578	0.11838812
106	0xbd931e0a	-0.07183464
107	0xbdcb000a	-0.09912117
108	0x3dc13996	0.09434812
109	0xbd553c54	-0.052059487
110	0x3d435e94	0.04769762
111	0x3d1b2e1c	0.03788577
112	0x3c32f150	0.010921791
113	0xbd396e2c	-0.045271084
114	0xbdd3d532	-0.10343398
115	0x3df7b774	0.12095538
116	0xbc844628	-0.016146734
117	0x3d7d3bb8	0.06182453
118	0xbccb6920	-0.024830401
119	0x3ded9cc6	0.11602168
120	0x3dd4eaac	0.103963226
121	0xbd9ffd06	-0.07811932
122	0xbdf6d692	-0.12052645
123	0x3d0ee4fc	0.034886345
124	0xbc1a6d90	-0.009425536
125	0xbcb2baf8	-0.02181767
126	0xbdfc3794	-0.12315288
127	0xbdc2fd28	-0.09520942
128	0x3d5f4618	0.054510206
129	0xbc6467e0	-0.013940781
130	0x3dc343e8	0.095344365
131	0x3d92957a	0.07157417
132	0x3d3ff5e0	0.046865344
133	0x3ca599c0	0.020214915
134	0xbca9f0a8	-0.020744637
135	0x3ca76930	0.0204359
136	0x3db8f19a	0.09030457
137	0xbd194b1c	-0.037425146
138	0x3d808a24	0.06276348
139	0x3d9b82ac	0.07593283
140	0x3dafa004	0.085754424
141	0xbb451cc0	-0.003007695
142	0xbddfbede	-0.10925077
143	0x3d5d7db0	0.054074943
144	0x3df5d726	0.12003927
145	0x3c9cab98	0.019124791
146	0xbd40aadc	-0.047037944
147	0x3bce6620	0.0062987953
148	0xbd363bd4	-0.04449065
149	0xbb9bfe80	-0.0047605634
150	0xbd8be8e6	-0.06831531
151	0xbd1fffe0	-0.03906238
152	0x3d12e5d4	0.035863712
153	0xbca72490	-0.020403177
154	0xbda37908	-0.07982069
155	0xbd8b6eb0	-0.06808221
156	0x3cc7f1e0	0.024407327
157	0xbdb69b60	-0.08916354
158	0x3dc8820c	0.097904295
159	0x3daa62de	0.08319639
160	0xbc0cd650	-0.008596018
161	0x3d593e40	0.05303788
162	0xbda1dc6c	-0.0790337
163	0x3db182bc	0.08667514
164	0xbd778ee0	-0.06043899
165	0xbdecafa8	-0.11556941
166	0xbd636510	-0.055516303
167	0x3d8fe710	0.070264935
168	0xbd02128c	-0.03175597
169	0xbbf7a6c0	-0.00755772
170	0xbda40470	-0.08008659
171	0x3d9b4382	0.075812355
172	0xbdfcb68c	-0.123395056
173	0x3d10e204	0.035371795
174	0xbde81e64	-0.113339216
175	0x3db0003c	0.08593795
176	0x3d13c358	0.036074966
177	0xbd707274	-0.0587029
178	0x3b4c4400	0.003116846
179	0xbcd69f68	-0.026199058
180	0xbd6efbf8	-0.058345765
181	0x3de01ad4	0.10942617
182	0xbde05204	-0.10953143
183	0xbc006000	-0.007835388
184	0x3de3fc48	0.11132103
185	0x3ce363a0	0.027757466
186	0xbdd1f064	-0.10250929
187	0xbde0b8a0	-0.109727144
188	0x3bd88c80	0.006608546
189	0x3d3ce7ec	0.046119615
190	0xbd3b4ff8	-0.04573056
191	0xbdb057ee	-0.08610521
192	0x3afe5280	0.0019403249
193	0x3d12e97c	0.0358672
194	0xbdcf9854	-0.10136476
195	0xbdbc2412	-0.09186567
196	0x3c9187c0	0.017764926
197	0xbda543fc	-0.080696076
198	0xbcead9e8	-0.028668359
199	0xbd664fcc	-0.056228444
200	0x3d7df264	0.06199874
201	0x3dba98e4	0.09111193
202	0xbdf9553e	-0.12174462
203	0x3df50906	0.11964612
204	0x3def95c2	0.11698486
205	0xbde4aa30	-0.11165273
206	0x3da3929e	0.079869494
207	0xbd043d60	-0.032285094
208	0xbd1a90ac	-0.037735626
209	0x3d842178	0.06451696
210	0x3d9d21ce	0.07672463
211	0xbc896fc8	-0.016776934
212	0x3dfb4832	0.122696295
213	0xbdda1364	-0.1064823
214	0xbcdc1398	-0.026864812
215	0xbd776ec8	-0.060408384
216	0xbde0b87c	-0.109726876
217	0x3dff3f20	0.12463212
218	0xbdbb4a14	-0.09144989
219	0xbdb5c16c	-0.08874783
220	0xbdba0acc	-0.090840906
221	0x3d8efa94	0.06981388
222	0xbdca9978	-0.09892553
223	0x3cc4e560	0.024035156
224	0x3dbaa912	0.09114279
225	0x3d23c404	0.039981857
226	0xbcf4e1c0	-0.029892802
227	0xbda5bf1a	-0.0809309
228	0x3dcec654	0.10096422
229	0xbd640ffc	-0.055679306
230	0xbcd4f960	-0.025997818
231	0x3da38822	0.0798495
232	0xbd6f9484	-0.058491245
233	0x3dab87ae	0.08375488
234	0xbdecb038	-0.115570486
235	0x3d91e0ea	0.07122977
236	0x3d774814	0.060371473
237	0x3cfcf620	0.03087908
238	0x3ca51b40	0.020154595
239	0xbb2aa540	-0.0026038438
240	0x3d07de9c	0.03317128
241	0xbda25564	-0.07926443
242	0xbdc66b2c	-0.0968841
243	0xbd94552e	-0.07242809
244	0xbd6e50e4	-0.058182612
245	0x3d78e29c	0.060762987
246	0xbdbf6744	-0.09345868
247	0x3cb6e2b8	0.022324905
248	0xbc80d798	-0.015727803
249	0xbc8b2b18	-0.016988322
250	0x3cb6c680	0.022311449
251	0xbcce8de8	-0.02521415
252	0x3d99cff2	0.075103655
253	0xbd0b6298	-0.034029573
254	0xbdbc9bac	-0.092093796
255	0x3c7c4f80	0.015399814

tgnn._base_tgcn.linear_r.bias f4 [32]
0	0x3d978a1c	0.07399389
1	0xbdd0004e	-0.10156308
2	0xbd7a3594	-0.061086252
3	0x3d4da5b0	0.05020684
4	0x3d8815f2	0.06644811
5	0xbc6e6000	-0.014549255
6	0x3d8bdee4	0.068296224
7	0x3c195df0	0.009360775
8	0xbb1abfc0	-0.0023612827
9	0xbdf94ed4	-0.121732384
10	0xbdf20b78	-0.11818594
11	0x3ddfce3c	0.10928008
12	0x3d54e408	0.05197528
13	0xbdedb93e	-0.11607598
14	0x3d70b454	0.058765724
15	0xbd37261c	-0.04471408
16	0x3d1967b0	0.0374524
17	0x3d8a3e72	0.06750192
18	0x3d087a58	0.0333198
19	0xbc9cb9f0	-0.01913163
20	0xbdb530ae	-0.088471755
21	0x3d3941d8	0.04522881
22	0xbd577730	-0.0526039
23	0xbdd9b9ec	-0.10631165
24	0xbdd5dafe	-0.1044216
25	0x3d67382c	0.056450054
26	0x3dfe8ffc	0.124298066
27	0x3a7eb300	0.0009716004
28	0x3dca6b2a	0.09883721
29	0x3d139bb0	0.036037147
30	0x3d844db6	0.06460135
31	0x3d8d4022	0.06896998

tgnn._base_tgcn.conv_h.bias f4 [32]
0	0x3e9ea124	0.30982316
1	0x3d4237f6	0.04741665
2	0xbe60bb64	-0.21946484
3	0xbdb6faf4	-0.08934584
4	0x3e2111fc	0.15729517
5	0xbf01275f	-0.504507
6	0x3e8c063b	0.27348503
7	0x3e8f4a4c	0.27986372
8	0x3efb451b	0.4907616
9	0xbc30e2dc	-0.010796275
10	0xbe846fa2	-0.2586642
11	0x3e2840e8	0.1643101
12	0xbeca8c31	-0.39560083
13	0xbc2fc93b	-0.010729129
14	0x3deedc03	0.11663058
15	0xbedcf1e4	-0.43153298
16	0x3c97c3f2	0.018526051
17	0xbe8d9c93	-0.2765852
18	0x3e697d4e	0.22801706
19	0xbdbd09ba	-0.09230371
20	0x3dc0da0b	0.094165884
21	0x3ef422ae	0.47682709
22	0x3d820abe	0.06349705
23	0x3d06ca84	0.032907978
24	0xbe52db59	-0.20591487
25	0x3e280082	0.16406444
26	0xbe484331	-0.19556881
27	0x3e89cea7	0.26915476
28	0x3ed4c6d5	0.41557947
29	0x3ed8eb93	0.4236723
30	0xbe599779	-0.21249188
31	0xbb5ac55f	-0.0033381802

tgnn._base_tgcn.conv_h.lin.weight f4 [32, 3]
0	0x3e4dfb59	0.20115413
1	0xbf2aab65	-0.6666778
2	0x3fc0b0d5	1.5053965
3	0xbe9c876c	-0.3057207
4	0xbf87f997	-1.0623044
5	0x3f57615d	0.8413294
6	0xbe47cd93	-0.19512014
7	0xbe412185	-0.18860443
8	0x4003db06	2.0602431
9	0xbcf5cfaf	-0.030006258
10	0x3f847122	1.0347025
11	0xbf2b9eb3	-0.6703903
12	0x3e2952d3	0.16535501
13	0x3f35ac15	0.709657
14	0xbfa0e43c	-1.2569652
15	0x3ef96dc0	0.48716545
16	0x3eb13a73	0.34614906
17	0xbf0cde05	-0.55026275
18	0xbf09b1b5	-0.53786784
19	0xbf16b014	-0.58862424
20	0x3f0f1e51	0.55905634
21	0xbf0180a4	-0.50586915
22	0xbea8bfe7	-0.3295891
23	0x3f8cad22	1.0990336
24	0xbbdd33e2	-0.0067505697
25	0x3f30146a	0.6878115
26	0xbce618dd	-0.028088028
27	0x3d0bea7a	0.03415916
28	0xbf8efe15	-1.117129
29	0x3f6cdb9a	0.92522585
30	0x3f2da064	0.6782286
31	0x3eb481a3	0.35255155
32	0xbf98eb68	-1.194684
33	0xbf03286a	-0.5123354
34	0xbf821641	-1.0163041
35	0xbe0a78d6	-0.13522658
36	0xbcb62745	-0.022235522
37	0x3f29a7a2	0.6627141
38	0xbeff38b4	-0.4984795
39	0x3f1758ae	0.5911969
40	0x3f9503bd	1.1641766
41	0xbe03301a	-0.12811318
42	0x3e23a78f	0.15981887
43	0xbf1d11ad	-0.61355096
44	0x3fddded5	1.7333628
45	0xbdb67d14	-0.089105755
46	0xbed7c5ce	-0.421431
47	0xbfce4052	-1.6113379
48	0xbf3018c6	-0.687878
49	0x3d45fa2e	0.048334293
50	0x3fc27f6b	1.5195135
51	0xbecceda8	-0.40025067
52	0xbf58118e	-0.84401786
53	0xbf5f70b4	-0.87281346
54	0xbe07b7cc	-0.13253707
55	0xbf43bf40	-0.764637
56	0x3f57bcbb	0.84272355
57	0x3dab5a2c	0.08366808
58	0x3f98f144	1.1948628
59	0x3e14de54	0.14537936
60	0xbe0e8be9	-0.13920559
61	0xbf8d53c0	-1.1041183
62	0xbea34ee4	-0.31896126
63	0x3e1945f3	0.1496809
64	0x3e4e9da3	0.20177321
65	0x3fa81dd6	1.3134105
66	0x3f2f6b38	0.6852298
67	0x3f879582	1.0592501
68	0x3fc221fa	1.5166619
69	0xbe9fc9d1	-0.3120866
70	0xbf72d31c	-0.9485338
71	0x3f99b638	1.2008734
72	0x3eabc656	0.33549756
73	0x3f0f1c73	0.55902785
74	0xbf81ef37	-1.0151128
75	0x3e128226	0.1430746
76	0xbf0667ce	-0.52502143
77	0x3fd0b085	1.630387
78	0xbe0f6507	-0.14003383
79	0xbf8a08da	-1.0783951
80	0xbf0b4525	-0.5440238
81	0xbecb4067	-0.39697573
82	0xbe3ae861	-0.18252708
83	0x3fb31875	1.3991839
84	0x3b225c78	0.0024774354
85	0xbea6cc81	-0.325779
86	0x3fd722a8	1.6807451
87	0xbed2c0fd	-0.41162863
88	0x3f2b5a6e	0.6693486
89	0x3fa6a846	1.3020103
90	0x3f12fdf9	0.5741878
91	0x3ebf9023	0.37414655
92	0xbfaf88e9	-1.3713657
93	0xbd56684c	-0.05234556
94	0xbf954999	-1.1663085
95	0x3f354b7e	0.70818317

tgnn._base_tgcn.linear_h.weight f4 [32, 64]
0	0xbec3f65e	-0.382739
1	0xbf60ef3a	-0.8786503
2	0xbf12c5ed	-0.5733326
3	0x3f9b5fc5	1.2138602
4	0x3f680da8	0.9064584
5	0x3ea622db	0.32448468
6	0xbf308c4f	-0.68964094
7	0xbf16ef28	-0.58958673
8	0x3f11a9af	0.5689954
9	0xbf9e684f	-1.2375582
10	0x3f03d3a6	0.51494825
11	0xbf655524	-0.8958304
12	0x3e9489a9	0.29011276
13	0x3f4a5e67	0.79050297
14	0xbf0f963d	-0.5608862
15	0xbed52e5d	-0.41636935
16	0xbefc6ce6	-0.49301833
17	0xbf112d22	-0.5670949
18	0xbf37b08f	-0.7175378
19	0x3f99bd0f	1.2010821
20	0xbf6accb2	-0.9171859
21	0x3e71821b	0.23584788
22	0x3f02433c	0.5088384
23	0xbf923a41	-1.1424028
24	0x3f254882	0.64563763
25	0xbead7a1c	-0.33882225
26	0xbf49a7aa	-0.7877146
27	0xbebc1c27	-0.3674023
28	0xbd371889	-0.044701133
29	0x3eddcdba	0.4332102
30	0x3eecf1e4	0.46278298
31	0xbf8e3897	-1.111102
32	0xbd84e00e	-0.064880475
33	0x3db3566a	0.087567165
34	0x3da49d12	0.08037771
35	0xbd7ff0ac	-0.062485382
36	0xbd1ca27c	-0.038240895
37	0xbd9ca39e	-0.07648395
38	0x3dec9c56	0.11553256
39	0xbd605348	-0.054766923
40	0x3d795800	0.06087494
41	0xbd125124	-0.035721913
42	0x3dc82b7e	0.097739205
43	0x3dd31a38	0.10307735
44	0x3dc5118a	0.09622486
45	0x3c986d28	0.018606737
46	0x3d47c950	0.04877597
47	0x3cc09158	0.023506805
48	0xbcda7b08	-0.026669994
49	0xbd5757d8	-0.05257401
50	0x3bebc0a0	0.0071945935
51	0xbd9cf302	-0.076635376
52	0xbdb81144	-0.08987668
53	0xbdaecbb2	-0.085349455
54	0x3d6e604c	0.058197305
55	0xbc1faed0	-0.009746268
56	0x3de68c24	0.112571985
57	0x3d979efc	0.07403371
58	0x3d598bc4	0.053111807
59	0xbd197eac	-0.03747432
60	0xbdccfd02	-0.10009195
61	0x3deb8790	0.11500466
62	0x3b203780	0.0024447143
63	0xbde0b286	-0.10971551
64	0x3f2bb4a9	0.6707254
65	0x3eba82dc	0.36427963
66	0x3e5a7a36	0.21335682
67	0xbfb9c4c5	-1.4513174
68	0xbec164ec	-0.3777231
69	0xbe820364	-0.25393212
70	0x3ecf2608	0.40458703
71	0x3ef01b76	0.4689595
72	0xbd280a26	-0.041025303
73	0x3f5af2ea	0.8552691
74	0xbe6aadc4	-0.22917849
75	0x3e7f6389	0.24940313
76	0xbed586cc	-0.41704404
77	0xbe873541	-0.26407817
78	0x3f5abf3f	0.8544807
79	0xbe2d4130	-0.16919398
80	0x3d64367c	0.055716023
81	0x3df5392f	0.119737975
82	0x3faf4922	1.3694193
83	0xbef3b5d8	-0.47599673
84	0x3e988635	0.29789892
85	0x3e0db3cc	0.13838118
86	0x3d28713c	0.041123614
87	0x3eb4e79f	0.35332963
88	0xbf417342	-0.75566494
89	0x3f3d3bc5	0.73919326
90	0x3e42fd86	0.19042024
91	0x3f1e1e34	0.61764836
92	0x3eb573cc	0.35439909
93	0xbd517105	-0.051133174
94	0xbedf20d3	-0.4357973
95	0x3f4b5349	0.7942396
96	0xbdb64c3a	-0.08901258
97	0xbc54ed40	-0.012996018
98	0xbdf54bb6	-0.11977331
99	0x3cac22e0	0.021012723
100	0xbd86b9e8	-0.065784276
101	0x3d64aff8	0.05583188
102	0xbda634da	-0.081155494
103	0xbd80683c	-0.06269881
104	0x3bd2bc00	0.0064311028
105	0x3bde7360	0.006788656
106	0x3db888bc	0.09010455
107	0xbaac2f00	-0.0013136566
108	0x3d3e5290	0.046465456
109	0x3da3c0dc	0.079957694
110	0xbdab2a68	-0.08357698
111	0x3d9ebf04	0.07751277
112	0xbd56d99c	-0.052453622
113	0x3c6a97c0	0.014318407
114	0x3cd62648	0.0261413
115	0x3cc21960	0.02369374
116	0x3ceece50	0.029151112
117	0x3d3a5ed4	0.04550059
118	0xbda88054	-0.08227602
119	0x3d00bbd0	0.031429112
120	0xbc929a28	-0.017895773
121	0x3d96cc68	0.07363206
122	0xbd907bc2	-0.07054855
123	0x3d21f8b0	0.039543808
124	0x3d5a8e54	0.05335839
125	0xbd5403ec	-0.051761553
126	0xbda9106a	-0.08255084
127	0x3dbb045a	0.09131689
128	0x3de5d3a4	0.11222008
129	0x3da7aef6	0.08187668
130	0xbdc55a36	-0.09636347
131	0x3d3d6fe4	0.046249285
132	0xbdcd638c	-0.10028753
133	0xbc88b3a8	-0.01668723
134	0xbdd2ed7c	-0.10299203
135	0x3d889688	0.066693366
136	0x3d9cfb1a	0.07665081
137	0x3da3c694	0.0799686
138	0xbd6b8dd4	-0.057508305
139	0x3df02b22	0.11726977
140	0x3db6bb82	0.08922483
141	0x3c8499c0	0.016186595
142	0xbdbdf162	-0.09274556
143	0x3d928830	0.07154882
144	0x3d15f8d0	0.03661424
145	0x3c0f7990	0.00875701
146	0xbdfa71aa	-0.12228711
147	0xbd974eba	-0.07388063
148	0xbc733e90	-0.014846459
149	0xbdea13ee	-0.114295825
150	0x3db4cbb4	0.08827916
151	0xbcc78858	-0.024357006
152	0xbc9a9d88	-0.018873945
153	0x3d2dc4e8	0.042424113
154	0x3d56e470	0.05246395
155	0xbd9e924c	-0.07742748
156	0x3c9cd498	0.019144341
157	0xbd7349d4	-0.05939658
158	0xbdd89d06	-0.10576825
159	0x3dfcf228	0.12350875
160	0x3cfb0558	0.030642197
161	0xbdae4e70	-0.085110545
162	0xbd8d94b8	-0.069131315
163	0x3d0fd70c	0.035117194
164	0xbdee355a	-0.1163127
165	0xbd2f9d50	-0.042874634
166	0x3da940c4	0.08264306
167	0xbd9bd304	-0.076086074
168	0x3dd230f4	0.10263243
169	0x3d282b9c	0.041057214
170	0xbdd3eb7a	-0.10347648
171	0x3d57ab38	0.05265352
172	0x3df3fe76	0.11913769
173	0x3d4add74	0.0495276
174	0x3dd26c58	0.10274571
175	0xbad36200	-0.0016127229
176	0xbdc09e72	-0.09405221
177	0x3d2487e4	0.040168658
178	0x3d0369a0	0.032083154
179	0x3d59d578	0.053182095
180	0xbca16128	-0.019699648
181	0xbd80a404	-0.062812835
182	0x3d13bf44	0.036071077
183	0xbdc045a4	-0.09388283
184	0x3dd41af0	0.103567004
185	0xbd546054	-0.05184968
186	0xbdffff44	-0.1249986
187	0x3d902bda	0.07039614
188	0x3bd17620	0.0063922554
189	0xbd23f020	-0.040023923
190	0xbd390864	-0.045174018
191	0xbda7f022	-0.082000986
192	0x3f043838	0.51648283
193	0x3c5a6add	0.013331142
194	0x3f6be78f	0.92150205
195	0xbdc19e80	-0.094540596
196	0xbe96dca4	-0.2946521
197	0x3f3ea997	0.74477524
198	0xbe357b53	-0.17722826
199	0x3da46c58	0.080284774
200	0x3c6aec33	0.014338541
201	0x3e23a03e	0.15979096
202	0xbc4dc98e	-0.012560261
203	0xbee61d8f	-0.44944426
204	0x3e920ec2	0.28526884
205	0x3e44e629	0.19228424
206	0x3f866d10	1.0502033
207	0xbf0b0e3b	-0.5431859
208	0x3eed0e87	0.46300146
209	0xbe9cdccf	-0.30637214
210	0x3da0a6e3	0.07844331
211	0x3e950518	0.2910545
212	0xbeab5f15	-0.3347098
213	0x3ebf02a7	0.3730671
214	0x3ed5a79f	0.41729447
215	0x3e29b1d7	0.16571747
216	0xbd905eb0	-0.0704931
217	0x3f6829d9	0.90688854
218	0xbe99e305	-0.30056015
219	0x3f02aac7	0.51041836
220	0x3f241eb6	0.6410936
221	0x3f019761	0.5062161
222	0xbe804248	-0.2505057
223	0xbc7a0bcf	-0.015261604
224	0xbc96cd40	-0.018408418
225	0x3dab4216	0.08362214
226	0x3d4ba14c	0.04971437
227	0x3df22a24	0.11824444
228	0xbd281404	-0.041034713
229	0xbd6ecf48	-0.058303148
230	0xbca8ed58	-0.020620987
231	0x3dce4cea	0.10073264
232	0x3dcc16f6	0.09965317
233	0xbd83bb9c	-0.06432268
234	0x3df00750	0.11720145
235	0x3d995782	0.07487394
236	0x3d452908	0.048134834
237	0xbc653130	-0.013988778
238	0x3db54d02	0.08852579
239	0x3d8e4334	0.06946412
240	0x3d9c9006	0.07644658
241	0x3d16424c	0.03668432
242	0xbcd80648	-0.026370183
243	0x3d818732	0.063246146
244	0xbdb573b8	-0.08859962
245	0x3b8ae360	0.004238531
246	0xbdb3aa14	-0.08772674
247	0x3ca22f40	0.019797921
248	0x3dd52eee	0.10409342
249	0xbdeb2824	-0.114822656
250	0xbd057d9c	-0.032590494
251	0xbde08576	-0.10962956
252	0xbdc79e9c	-0.09747049
253	0x3d917008	0.071014464
254	0x3b187700	0.002326429
255	0x3c6d59b0	0.014486715

tgnn._base_tgcn.linear_h.bias f4 [32]
0	0x3e829eed	0.25511876
1	0x3e7e2fa3	0.2482286
2	0xbdb67e32	-0.089107886
3	0xbddf8518	-0.109140575
4	0x3e6ef3b6	0.23335156
5	0x3f07a158	0.52980566
6	0x3d921033	0.07131996
7	0xbdd97f03	-0.10619929
8	0x3e55f2bd	0.20893379
9	0x3f1a9c71	0.6039496
10	0x3e30a26b	0.17249458
11	0x3e81c4c7	0.25345442
12	0x3e53f441	0.20698644
13	0x3eb7e33c	0.35915554
14	0xbccf3cb1	-0.025297495
15	0xbe015309	-0.12629332
16	0xbdaaaba8	-0.08333522
17	0xbce08178	-0.027405486
18	0x3e176047	0.1478282
19	0x3ed70db6	0.42002648
20	0x3ef836f1	0.48479417
21	0xbec3648f	-0.38162658
22	0x3e418f20	0.18902254
23	0x3e56e490	0.20985627
24	0x3e2a251b	0.16615717
25	0x3f1ff2a5	0.6247962
26	0x3f2a07d8	0.6641822
27	0x3f1aefed	0.6052235
28	0x3e8ca954	0.27472937
29	0x3e222ef4	0.15838224
30	0xbb634197	-0.0034676546
31	0x3ea1489c	0.3150071

linear.weight f4 [16, 32]
0	0x3eab5096	0.3345992
1	0xbebf2812	-0.3733526
2	0xbde4321f	-0.11142372
3	0x3f6a2ffc	0.9147947
4	0x3ebfa521	0.3743067
5	0xbf1797ca	-0.59215987
6	0x3e9f6c4a	0.31137305
7	0xbd541f80	-0.051787853
8	0x3ed0cfb6	0.4078347
9	0xbf5924a6	-0.84821546
10	0x3e952325	0.29128376
11	0x3ec47285	0.3836862
12	0x3ee83701	0.45354465
13	0xbec5dcbb	-0.38644966
14	0x3d620fc6	0.055190824
15	0x3dbc55ba	0.091960385
16	0x3c8bcec0	0.01706636
17	0xbde9bcde	-0.11412977
18	0x3f0be69f	0.54648775
19	0xbe92c04d	-0.2866234
20	0xbef8ed83	-0.48618707
21	0xbf771cc6	-0.9652828
22	0x3ef79d0a	0.48362
23	0x3e43a945	0.1910754
24	0xbee59d35	-0.44846502
25	0xbf43c1dd	-0.76467687
26	0xbf313c36	-0.692325
27	0xbf17908c	-0.59204936
28	0xbf0a70af	-0.5407819
29	0x3e88fe74	0.26756632
30	0x3da4d7a8	0.08048946
31	0x3d403043	0.046921026
32	0x3e73268c	0.23745173
33	0xbef864c3	-0.48514375
34	0x3d2f3b5c	0.04278122
35	0x3f498a9b	0.7872712
36	0x3eabdbbf	0.3356609
37	0xbf142e8c	-0.57883525
38	0x3eae97c9	0.34100178
39	0xbd30468e	-0.043036036
40	0x3f0e00d9	0.55470043
41	0xbf4eefc6	-0.80834615
42	0x3ee35482	0.44400412
43	0x3e943e0b	0.28953585
44	0x3ec5e691	0.3865247
45	0xbec1c998	-0.37849116
46	0xbde6732d	-0.11252437
47	0x3df094b5	0.117471136
48	0x3d155a9c	0.036463365
49	0xbd623948	-0.05523041
50	0x3f148aa7	0.58024067
51	0xbeb5009b	-0.35352024
52	0xbf11d7c1	-0.5696984
53	0xbf8ae948	-1.0852442
54	0x3ea51669	0.3224366
55	0x3f0348d8	0.51283026
56	0xbea3a35d	-0.31960574
57	0xbf49d227	-0.7883629
58	0xbf2ba641	-0.6705056
59	0xbf229bd3	-0.6351902
60	0xbf3ba006	-0.7329105
61	0x3e97c234	0.29640353
62	0x3e066249	0.1312343
63	0x3e6b8d35	0.23003085
64	0x3f089089	0.53345543
65	0xbedad54c	-0.42740858
66	0xbdecae30	-0.11556661
67	0x3f2b8e67	0.67014164
68	0x3e92e8a2	0.2869311
69	0xbf0222fd	-0.5083464
70	0x3f13b34a	0.5769545
71	0xbdd6f8b3	-0.10496654
72	0x3ea4d00a	0.3218997
73	0xbf4f01a3	-0.8086187
74	0x3e8b976d	0.27263966
75	0x3ef74a50	0.48298883
76	0x3eb2e68c	0.34941518
77	0xbed9ee6c	-0.42564714
78	0x3d19edae	0.037580185
79	0x3d6f94a6	0.05849137
80	0xbe0eb946	-0.13937864
81	0xbe1508d6	-0.14554152
82	0x3ea42166	0.3205673
83	0xbf09ad0e	-0.53779685
84	0xbf219496	-0.6311735
85	0xbf9c265c	-1.2199206
86	0x3eff0dcc	0.49815214
87	0x3ecd289f	0.40070054
88	0xbf3bc869	-0.73352677
89	0xbf1c7ca3	-0.6112768
90	0xbf3072ca	-0.68925154
91	0xbf3a73cb	-0.72832936
92	0xbf0dcd9c	-0.5539186
93	0x3f032f91	0.51244456
94	0x3ac7ea4b	0.001525232
95	0x3e27765e	0.16353747
96	0x3ed978ed	0.42475072
97	0xbf1a5b8c	-0.6029594
98	0x3c015b60	0.007895321
99	0x3f07c11a	0.53029025
100	0x3ed37f64	0.4130813
101	0xbec8ed92	-0.39243752
102	0x3e9d30bc	0.30701244
103	0x3d339237	0.043840613
104	0x3eb6d4fb	0.35709366
105	0xbf4efbd0	-0.80852985
106	0x3ed7310e	0.42029613
107	0x3ea64109	0.32471493
108	0x3ed2ba1e	0.4115762
109	0xbf17faa5	-0.5936683
110	0x3d3e1e79	0.04641578
111	0xbe0fdce6	-0.1404911
112	0x3e3424e9	0.17592205
113	0x3dfd0c2a	0.12355836
114	0x3ed811de	0.42201132
115	0xbf13f4e5	-0.57795554
116	0xbf191092	-0.5979091
117	0xbfac35c0	-1.3453903
118	0x3f19aa80	0.6002579
119	0x3f122235	0.57083446
120	0xbf229b40	-0.6351814
121	0xbf2d8222	-0.6777669
122	0xbf3cd5a1	-0.7376347
123	0xbf32fc38	-0.69916105
124	0xbf2cd052	-0.6750537
125	0x3e6fb956	0.23410544
126	0xbd368b62	-0.04456652
127	0x3ed2a290	0.4113965
128	0x3ecc7854	0.39935553
129	0xbf2d41ae	-0.67678344
130	0xbd6c1fc0	-0.057647467
131	0x3e3e1078	0.1856097
132	0x3ec13aa9	0.37740067
133	0xbf0c45f3	-0.54794234
134	0x3f00fdea	0.5038744
135	0x3db2e958	0.08735913
136	0x3f13687a	0.57581294
137	0xbf342cef	-0.70381063
138	0x3f0afb67	0.5428986
139	0x3ed99f5e	0.425044
140	0x3ecc1b1e	0.3986444
141	0xbed39c76	-0.41330308
142	0x3b925c09	0.004466538
143	0xbdc24e75	-0.09487621
144	0x3e32f501	0.17476274
145	0x3dd6be0a	0.10485466
146	0x3ee8bd52	0.4545694
147	0xbf050d27	-0.51973194
148	0xbf1bce7d	-0.6086195
149	0xbfb4f9e0	-1.4138756
150	0x3e98d6cb	0.29851374
151	0x3f0a5748	0.5403943
152	0xbf34022f	-0.7031583
153	0xbf5651f8	-0.83718824
154	0xbf269a28	-0.65078974
155	0xbf1ad432	-0.60480034
156	0xbf52fbde	-0.8241557
157	0x3e5f24be	0.2179136
158	0x3bda1310	0.0066551045
159	0x3f0c1c41	0.5473061
160	0x3f1ae416	0.6050428
161	0xbf43220b	-0.7622382
162	0x3e2ac425	0.16676386
163	0x3de86622	0.11347605
164	0x3ec22030	0.37915182
165	0xbf499a54	-0.7875111
166	0x3f15b5e1	0.5848065
167	0xbd18e6df	-0.03732955
168	0x3ea2e113	0.31812343
169	0xbf2e9045	-0.6818889
170	0x3e95f218	0.29286265
171	0x3ee1666c	0.44023454
172	0x3f1cb3a3	0.61211604
173	0xbf0388a1	-0.51380354
174	0xbc1e9958	-0.009680115
175	0x3ddf83ab	0.109137855
176	0xbdbfc9d9	-0.09364671
177	0xbe09c110	-0.13452554
178	0x3e9b0641	0.3027821
179	0xbf09902a	-0.537356
180	0xbf393568	-0.72347116
181	0xbfbbf57b	-1.468429
182	0x3f1c9033	0.6115753
183	0x3e960822	0.2930308
184	0xbf2aebbf	-0.6676597
185	0xbf3c5959	-0.73573834
186	0xbf0e30e3	-0.55543345
187	0xbf03593d	-0.5130804
188	0xbf8a4672	-1.0802748
189	0x3efcb8a3	0.49359617
190	0x3d8f9d81	0.07012463
191	0x3f0bb62b	0.5457484
192	0x3ec6a449	0.38797215
193	0xbf34551c	-0.70442367
194	0x3dfc2082	0.12310888
195	0xbde2c9fe	-0.11073683
196	0x3f09468e	0.5362328
197	0xbf16e3ca	-0.5894133
198	0x3ef72568	0.48270726
199	0x3d4aa3c0	0.04947257
200	0x3f13565f	0.57553667
201	0xbf157cf0	-0.58393764
202	0x3ec06aa1	0.3758135
203	0x3f0ab937	0.54188865
204	0x3f0201d5	0.50784045
205	0xbf31d50a	-0.69465697
206	0xbdcf95b8	-0.101359785
207	0xbd2a1944	-0.041528
208	0xbdd4ea2a	-0.10396226
209	0x3da62b72	0.08113755
210	0x3eec47f1	0.46148637
211	0xbf339871	-0.7015448
212	0xbf0b63ec	-0.54449344
213	0xbfc21d45	-1.5165182
214	0x3e9d4544	0.30716908
215	0x3e9e0d10	0.3086934
216	0xbf8481ca	-1.0352108
217	0xbf232c15	-0.6373914
218	0xbf2bc44f	-0.6709642
219	0xbf20d8c0	-0.62830734
220	0xbf88a744	-1.0676045
221	0x3ec01243	0.37513933
222	0x3d19a392	0.03750951
223	0x3f3c2e96	0.73508584
224	0x3f0a13ad	0.5393627
225	0xbf882db5	-1.0638949
226	0xbccfba30	-0.025357336
227	0xbea6d605	-0.3258516
228	0x3ec69b3c	0.3879031
229	0xbf39eec6	-0.72629964
230	0x3f1d0754	0.61339307
231	0xbd7a1fa2	-0.061065324
232	0x3f090c25	0.53534156
233	0xbf1dde03	-0.6166689
234	0x3f126606	0.57186925
235	0x3eb78ca9	0.35849503
236	0x3efc19a0	0.492383
237	0xbf3feeb3	-0.749736
238	0x3c295475	0.0103350775
239	0xbdb7b461	-0.089699514
240	0xbc8d7e58	-0.01727216
241	0xbcb20538	-0.021731004
242	0x3eb964f1	0.36209825
243	0xbf3a3566	-0.7273773
244	0xbf19ae7a	-0.60031855
245	0xbfc8ecc3	-1.5697254
246	0x3f0b1a84	0.54337335
247	0x3f1062d2	0.5640079
248	0xbf55cda1	-0.8351689
249	0xbf245097	-0.6418547
250	0xbf001b50	-0.50041676
251	0xbee0c6c5	-0.4390165
252	0xbf8ede56	-1.1161602
253	0x3e7a6b7c	0.24455065
254	0x3caf65fd	0.021410936
255	0x3f14d0f7	0.58131355

linear.bias f4 [16]
0	0x3e35b4a7	0.17744695
1	0x3d371a62	0.044702895
2	0x3e0b435e	0.13599917
3	0x3e199f5a	0.15002194
4	0xbd08481d	-0.033271898
5	0xbc92b4cb	-0.017908474
6	0xbc848e97	-0.016181273
7	0xbc987782	-0.018611673
8	0xbde58eb2	-0.112088576
9	0xbd7a8fa6	-0.06117215
10	0xbe0a03ad	-0.13477965
11	0xbda60a8c	-0.081074804
12	0xbde10766	-0.10987739
13	0xbd43fc58	-0.047848076
14	0x3d0e09a8	0.034677178
15	0xbd15bac2	-0.03655506

linear2.weight f4 [6, 21]
0	0x3f0436d5	0.5164617
1	0x3f3ecebb	0.74534196
2	0x3e24eea3	0.16106658
3	0xbe065b5e	-0.13120791
4	0xbec3e3fb	-0.38259873
5	0x3f0bc9ba	0.54604685
6	0xbee14fb6	-0.44006127
7	0x3e901159	0.28138235
8	0x3da4ea78	0.08052534
9	0x3eaba9c5	0.3352796
10	0xbec8c6ed	-0.39214268
11	0xbe200712	-0.15627697
12	0x3e14d911	0.1453593
13	0x3de4c2fe	0.11170004
14	0x3e042c4f	0.12907527
15	0xbe956480	-0.29178238
16	0xbde2d27e	-0.110753044
17	0x3e487636	0.19576344
18	0xbd89f13e	-0.067354664
19	0xbe8cf0f4	-0.27527583
20	0xbe38fa00	-0.18064117
21	0xbd16a492	-0.03677804
22	0x3e4f3fb3	0.20239143
23	0x3d457d0b	0.048214953
24	0x3e79d3b8	0.2439717
25	0xbe42037f	-0.18946646
26	0x3eb50aa2	0.35359675
27	0x3f0571ff	0.5212707
28	0x3e8c43dd	0.27395526
29	0xbc144217	-0.00904896
30	0xbdb4e5a1	-0.08832861
31	0x3ef1d9f8	0.4723661
32	0xbd385231	-0.04500026
33	0xbe3e199a	-0.18564454
34	0x3e419182	0.18903163
35	0x3d591c37	0.053005423
36	0xbe94755d	-0.2899579
37	0xbe10d965	-0.1414543
38	0xbee3def7	-0.44506046
39	0x3b6b86b9	0.0035938455
40	0x3d9509d2	0.07277264
41	0x3e6469ed	0.22306032
42	0x3e734a8e	0.23758909
43	0x3da3f560	0.08005786
44	0xbd8b0a00	-0.06789017
45	0xbd566a4d	-0.05234747
46	0xbe490bb5	-0.19633372
47	0xbe26112f	-0.16217493
48	0x3e1cfe9e	0.15331504
49	0x3e8431e5	0.25819317
50	0x3e1045f2	0.14089182
51	0xbe6b3304	-0.2296868
52	0xbe889307	-0.26674673
53	0xbd7ae3c8	-0.061252385
54	0x3e612598	0.21986997
55	0xbf11e210	-0.5698557
56	0x3ecf63f4	0.40505946
57	0xbcbbb80c	-0.022914909
58	0x3e05435b	0.13013975
59	0xbdf67d90	-0.12035668
60	0xbe273a5d	-0.16330858
61	0xbe5a3844	-0.21310526
62	0xbd9c9947	-0.07646423
63	0xbe70a50e	-0.23500463
64	0xbeac37c1	-0.33636287
65	0xbea5c7ae	-0.32378906
66	0xbe42c305	-0.19019707
67	0x3e3da2d3	0.18519144
68	0xbe8e241a	-0.27761918
69	0x3dac6b18	0.08418864
70	0xbf00a387	-0.5024952
71	0x3ea51fce	0.32250828
72	0x3ec0a262	0.37623888
73	0x3d5218d7	0.05129322
74	0x3e8560fb	0.26050553
75	0x3ee57feb	0.44824156
76	0xbe9a38cc	-0.30121458
77	0xbe3a7cde	-0.18211696
78	0x3f1bff31	0.60936266
79	0x3ed8a713	0.42314968
80	0x3dee1ca5	0.11626557
81	0xbacaa053	-0.0015459157
82	0x3e684f6e	0.2268655
83	0x3e93470d	0.28765145
84	0xbdba922e	-0.09109913
85	0xbde53a95	-0.11192814
86	0x3cc10897	0.023563666
87	0x3edab3d8	0.42715335
88	0x3ed33c17	0.41256782
89	0xbe878e4d	-0.26475754
90	0xbcc9488f	-0.024570731
91	0x3e3cb0e2	0.1842685
92	0xbcd7397b	-0.026272526
93	0xbe915bf0	-0.28390455
94	0xbd9ec2a3	-0.07751968
95	0xbeba4a7a	-0.36384946
96	0xbe0bb9bc	-0.13645071
97	0x3c00a7ba	0.007852489
98	0x3ee7e7f2	0.45294148
99	0xbdd86de1	-0.10567833
100	0xbe9953b2	-0.29946667
101	0x3e826251	0.25465634
102	0x3e7268e9	0.23672833
103	0x3e60433c	0.21900648
104	0x3d998637	0.074963026
105	0xbe003391	-0.12519671
106	0xbec91eba	-0.39281255
107	0xbedb2f67	-0.42809603
108	0xbd709c00	-0.058742523
109	0x3e87a0e0	0.26489925
110	0xbd265116	-0.040604673
111	0x3da028e7	0.078203015
112	0xbeae8f4f	-0.3409371
113	0x3e4471e5	0.19184072
114	0x3e4cfb79	0.20017804
115	0xbd3e7873	-0.046501588
116	0x3d524e53	0.051344227
117	0x3ee582b3	0.44826278
118	0xbe9784fc	-0.29593647
119	0xbca92a97	-0.020650191
120	0x3ebd2eaa	0.36949664
121	0x3ed16b94	0.40902388
122	0x3e867a06	0.26264971
123	0xbe36d159	-0.17853297
124	0x3e9c8c27	0.30575678
125	0x3e5d3980	0.21603966

linear2.bias f4 [6]
0	0xbe256928	-0.16153395
1	0x3e720626	0.23635158
2	0xbf94fbb1	-1.163931
3	0x3d88deef	0.06683146
4	0x3f240b32	0.6407958
5	0xbf9db37a	-1.2320397
