A3TGCN2_Checkpoints/Epoch_13.pth (torch, 35255 bytes, 17 tensors)

tgnn._attention f4 [16]
1.2528989 0.9625106 0.6778757 0.004713171 0.371421 -0.14076293 -0.28516355 0.3374082
0.1406371 0.05094057 0.27500445 0.48683748 0.415869 0.7380813 0.89881027 1.3142835
00000000: fe5e a03f 1867 763f 4389 2d3f f270 9a3b
00000010: e52a be3e 2824 10be f500 92be c5c0 ac3e
00000020: 2c03 103e 0fa7 503d 62cd 8c3e c342 f93e
00000030: c8ec d43e e5f2 3c3f 6e18 663f 713a a83f

tgnn._base_tgcn.conv_z.bias f4 [32]
0.49919313 0.4741013 0.10607766 -0.041050762 -0.048530117 -0.3743825 -0.34822682 -0.48599142
0.5486234 0.5389302 -0.5445614 -0.5082759 0.04413906 0.0815648 0.477693 0.48227474
-0.50253576 0.55524683 0.27733412 0.55436933 0.5091246 -0.47348112 -0.532505 0.48120108
-0.4193157 -0.4613743 -0.4260545 0.43157658 0.3977159 -0.3216981 0.34581652 0.5018937
00000000: 3e96 ff3e 68bd f23e 3f3f d93d d824 28bd
00000010: 84c7 46bd 10af bfbe c94a b2be ded3 f8be
00000020: 9572 0c3f 54f7 093f 6068 0bbf 5f1e 02bf
00000030: 29cb 343d 720b a73d 2d94 f43e b7ec f63e
00000040: 2fa6 00bf a824 0e3f bdfe 8d3e 26eb 0d3f
00000050: fd55 023f 1e6c f2be 3f52 08bf fd5f f63e
00000060: 8cb0 d6be 4139 ecbe d123 dabe 9bf7 dc3e
00000070: 6ba1 cb3e 9db5 a4be dd0e b13e 1b7c 003f

tgnn._base_tgcn.conv_z.lin.weight f4 [32, 3]
-0.17814022 -0.39100716 -1.1555432 0.21657057 -0.5226073 -0.7107401 -0.28375924 0.25733882
-0.4258741 -0.2556031 0.74021685 1.0944827 0.19712865 -0.38402978 0.15907285 -0.10883915
0.5520809 1.1117723 -0.37750012 -0.04883669 0.419904 -0.03860741 0.34073478 0.77745885
0.18405096 -0.5400795 -0.9010556 0.3121688 -0.8394318 -0.8940546 0.12933025 0.53044355
0.6322836 -0.3372817 0.5575894 0.56069565 -0.02854974 0.47532335 -0.35793492 -0.70979613
0.081440106 0.7112826 0.28040373 -0.50864947 -0.7889757 0.016750833 -0.3337172 -1.2596084
-0.11222846 0.46896204 0.62247324 0.13721058 -0.685468 -1.2771407 -0.30616814 -0.14484818
-0.12663707 -0.09846849 -0.50619435 -1.2279782 0.32711968 -0.47402474 -0.67326677 -0.09085918
0.40077877 0.3986734 -0.25468475 0.7959501 1.0970172 0.13988541 -0.2889427 -1.1587989
0.18815464 0.1800469 0.94693923 0.10543896 0.13611662 0.9150896 0.44119212 0.30061492
0.42720318 -0.44375333 -0.37648803 -0.32630476 0.14567856 -0.13215074 -0.70284575 0.79479754
1.0047709 0.64183956 -0.113383576 -1.285009 -0.4998175 0.009879331 -0.5216003 -0.9601647
00000000: 646a 36be 1732 c8be d7e8 93bf adc4 5d3e
00000010: 98c9 05bf 10f3 35bf e448 91be eac1 833e
00000020: 2c0c dabe 69de 82be da7e 3d3f 0218 8c3f
00000030: 18dc 493e 8d9f c4be fee3 223e 0fe7 debd
00000040: 2d55 0d3f 8e4e 8e3f b247 c1be fb08 48bd
00000050: a8fd d63e ce22 1ebd ca74 ae3e 8b07 473f
00000060: db77 3c3e a642 0abf 94ab 66bf 97d4 9f3e
00000070: 01e5 56bf c3e0 64bf 266f 043e 26cb 073f
00000080: 57dd 213f 30b0 acbe 2ebe 0e3f c089 0f3f
00000090: 25e1 e9bc 955d f33e 3f43 b7be 33b5 35bf
000000a0: 12ca a63d 9e16 363f 1491 8f3e da36 02bf
000000b0: 50fa 49bf 0b39 893c fbdc aabe d93a a1bf
000000c0: 09d8 e5bd cb1b f03e 685a 1f3f ee80 0c3e
000000d0: d57a 2fbf 5979 a3bf 12c2 9cbe 1553 14be
000000e0: 26ad 01be d9a9 c9bd f495 01bf 642e 9dbf
000000f0: 3b7c a73e 5fb3 f2be 365b 2cbf 6114 babd
00000100: e032 cd3e eb1e cc3e 0a66 82be 63c3 4b3f
00000110: 0f6b 8c3f 1f3e 0f3e 4cf0 93be 8653 94bf
00000120: 9cab 403e 375e 383e 9c6a 723f 62f0 d73d
00000130: 2862 0b3e 5043 6a3f efe3 e13e 33ea 993e
00000140: 60ba da3e a333 e3be 0ac3 c0be 6b11 a7be
00000150: c32c 153e 8652 07be b3ed 33bf da77 4b3f
00000160: 559c 803f 994f 243f a635 e8bd 2d7b a4bf
00000170: 14e8 ffbe ebdc 213c 9987 05bf 5bcd 75bf

tgnn._base_tgcn.linear_z.weight f4 [32, 64]
-0.90861595 -0.5889076 0.039432816 0.8450784 -0.1187112 0.9803478 0.14476827 0.3067313
-0.68773305 -1.0362146 1.0181414 0.49183017 -0.007240386 -0.37288144 -0.62210625 -0.718235
0.6616131 -1.1813395 -0.28242233 -1.3219495 -0.40116954 0.5374958 1.1516343 -0.36211354
0.4343983 0.2908885 0.63148254 -0.86883813 -0.25414953 0.41970363 -0.71002257 -1.0562404
0.020246342 0.05585386 0.04477328 0.035287514 0.023139253 -0.022408113 0.11468598 -0.018079445
-0.054737613 0.07708734 -0.046232447 0.11530076 0.11062801 -0.083804354 -0.10268128 -0.040863156
0.08063172 -0.10281703 0.06785013 -0.12408477 -0.023813754 -0.032880887 0.013255671 0.10097024
-0.08791071 0.0020627677 0.006105587 -0.05243057 0.008615732 0.09010275 -0.07649019 0.07910547
-0.3689869 -0.49561274 -0.35944378 -0.1543375 0.47527814 0.57970387 0.5585741 0.53300166
-0.41055232 -0.48277587 0.26310682 0.5806865 -0.5451271 0.54882115 -0.549529 -0.48976958
0.2915956 -0.61973995 -0.1391854 -0.49039504 -0.44674754 0.43917274 0.4701772 -0.4940856
0.37016106 0.5577367 0.20101279 0.0011681664 -0.3802675 -0.021292074 -0.26643878 -0.4244908
0.093658105 0.05391912 -0.07390167 -0.069662586 0.027618676 0.035378426 0.06620745 -0.09150325
0.12043749 -0.024570048 0.043849334 -0.05357112 0.047658175 0.10675146 -0.089991465 0.011300921
0.015317336 -0.018027395 -0.034281567 0.02419296 0.02312699 -0.051177472 0.044286117 0.104240134
0.030525789 -0.06379549 -0.018762544 -0.032129034 0.12478389 -0.064913705 0.07503353 -0.12432723
0.04489264 -0.118017495 -0.013276979 -0.09453888 -0.10209602 0.022381723 0.093163416 0.09084082
-0.053114906 -0.036311343 -0.020940498 -0.0033688247 -0.081808746 -0.0043317676 0.07468517 0.10478647
0.09609833 -0.060765564 0.073355466 0.06644446 0.107522964 -0.032896265 -0.09538354 0.014442787
0.06507723 -0.028276697 0.009666905 -0.017961666 -0.10631283 0.036880836 0.031946033 0.002603352
-0.103888705 0.05001934 0.004877478 -0.11019075 -0.10833873 0.013715833 0.014794603 0.010000929
0.063540414 -0.0005918145 0.11912532 -0.03559117 -0.070905566 -0.087597415 -0.061122417 0.120372415
0.062828586 -0.04591556 -0.08431047 -0.008374155 0.08703378 0.12108922 -0.113912866 -0.058497608
-0.103632584 -0.023029372 -0.017973796 0.11268407 0.12016699 0.11531803 -0.04985313 -0.054382443
-0.7608498 -0.62480414 -0.07086263 -0.18179283 0.010001644 0.6758513 0.23995653 0.38341522
-0.5925282 -0.7698127 0.74812585 0.47543597 0.15971294 -0.2691897 -0.46955913 -0.53696585
0.48329705 -0.655304 -0.49418738 -0.6495282 -0.58725244 0.6043749 0.9489638 -0.27042946
0.40158102 0.3040927 0.60526377 -0.87450266 -0.22276425 0.5802664 -1.1807493 -0.7891209
0.054764062 -0.0863833 -0.088368 0.05049646 -0.04610756 0.047094464 0.096982315 -0.04505831
-0.018742532 -0.09812556 -0.096838206 0.016707003 0.024006382 -0.09953986 -0.10314228 0.06481597
-0.004865214 0.10605247 0.10647841 0.038697034 -0.015579879 0.04774873 0.08730343 0.11532177
0.09415296 -0.10505602 -0.06537247 -0.11926623 -0.10969284 0.013711423 0.11988363 0.033814043
00000000: 0e9b 68bf a6c2 16bf 4e84 213d 0f57 583f
00000010: dc1e f3bd 13f8 7a3f 223e 143e e30b 9d3e
00000020: 460f 30bf aea2 84bf 7552 823f 2ad1 fb3e
00000030: c340 edbb 51ea bebe 5b42 1fbf 40de 37bf
00000040: 7a5f 293f 2236 97bf a999 90be a435 a9bf
00000050: 1866 cdbe 5399 093f c168 933f f266 b9be
00000060: 7469 de3e 56ef 943e d7a8 213f 2d6c 5ebf
00000070: e31f 82be 65e3 d63e 0ac4 35bf e332 87bf
00000080: a8db a53c 04c7 643d 3064 373d a489 103d
00000090: 888e bd3c 3891 b7bc 7ce0 ea3d 581b 94bc
000000a0: 8c34 60bd f8df 9d3d 3c5e 3dbd ce22 ec3d
000000b0: f090 e23d 9ea1 abbd 904a d2bd 2060 27bd
000000c0: 3e22 a53d bc91 d2bd 02f5 8a3d 2820 febd
000000d0: 1015 c3bc 1cae 06bd 502e 593c 7cc9 ce3d
000000e0: 880a b4bd 802f 073b 6011 c83b 70c1 56bd
000000f0: 0029 0d3c ca87 b83d e4a6 9cbd 0c02 a23d
00000100: daeb bcbe f4c0 fdbe 0409 b8be a60a 1ebe
00000110: a857 f33e 7967 143f b6fe 0e3f cc72 083f
00000120: ea33 d2be 662e f7be f0b5 863e dfa7 143f
00000130: 738d 0bbf 8b7f 0c3f efad 0cbf 14c3 fabe
00000140: 054c 953e 47a7 1ebf 9e86 0ebe 0f15 fbbe
00000150: 18bc e4be 40db e03e 11bb f03e caf8 fcbe
00000160: c085 bd3e d5c7 0e3f 4cd6 4d3e 291d 993a
00000170: 6cb2 c2be b76c aebc aa6a 88be dc56 d9be
00000180: d2cf bf3d 4cda 5c3d c259 97bd 42ab 8ebd
00000190: 9040 e23c f8e8 103d c697 873d 0e66 bbbd
000001a0: eea7 f63d 2047 c9bc 5c9b 333d 646d 5bbd
000001b0: 3835 433d 82a0 da3d 724d b8bd 8027 393c
000001c0: 90f5 7a3c 30ae 93bc d46a 0cbd 5030 c63c
000001d0: d074 bd3c 789f 51bd 5c65 353d da7b d53d
000001e0: 3811 fa3c 36a7 82bd e8b3 99bc bc99 03bd
000001f0: b28e ff3d 7af1 84bd 2eab 993d 469f febd
00000200: 58e1 373d 28b3 f1bd b087 59bc 9a9d c1bd
00000210: b817 d1bd e059 b73c 76cc be3d c00a ba3d
00000220: 048f 59bd 34bb 14bd 688b abbc 80c7 5cbb
00000230: 588b a7bd 80f1 8dbb 8af4 983d 4a9a d63d
00000240: 34cf c43d 50e5 78bd 643b 963d 0814 883d
00000250: 0035 dc3d 3cbe 06bd 7258 c3bd 70a1 6c3c
00000260: 3647 853d 88a4 e7bc f061 1e3c 5824 93bc
00000270: 8aba d9bd 5c10 173d d8d9 023d 009d 2a3b
00000280: 9ac3 d4bd 14e1 4c3d 40d3 9f3b b0ab e1bd
00000290: b2e0 ddbd 60b8 603c 1065 723c f0da 233c
000002a0: 7a21 823d 0024 1bba faf7 f33d 0cc8 11bd
000002b0: f036 91bd 4666 b3bd 805b 7abd d085 f63d
000002c0: 46ac 803d f411 3cbd f8aa acbd c033 09bc
000002d0: c43e b23d a0fd f73d 264b e9bd 309b 6fbd
000002e0: 523d d4bd 18a8 bcbc c83d 93bc e8c6 e63d
000002f0: 1c1a f63d dc2b ec3d cc32 4cbd 20c0 5ebd
00000300: 0dc7 42bf 2af3 1fbf 6d20 91bd e627 3abe
00000310: efdd 233c 9704 2d3f 2ab7 753e 004f c43e
00000320: eeaf 17bf 7212 45bf 2d85 3f3f 586c f33e
00000330: ca8b 233e 3bd3 89be 0e6a f0be 9876 09bf
00000340: b672 f73e 01c2 27bf 2106 fdbe 7b47 26bf
00000350: 2d56 16bf 50b8 1a3f 4bef 723f bb75 8abe
00000360: 079c cd3e 0ab2 9b3e 91f2 1a3f 68df 5fbf
00000370: 501c 64be 578c 143f cb22 97bf d403 4abf
00000380: 4850 603d bae9 b0bd 48fa b4bd 60d5 4e3d
00000390: 48db 3cbd 20e6 403d aa9e c63d 108f 38bd
000003a0: f089 99bc 0ef6 c8bd 1c53 c6bd 20dd 883c
000003b0: 08a9 c43c 8edb cbbd 423c d3bd 3cbe 843d
000003c0: 606c 9fbb 0a32 d93d 5a11 da3d c880 1e3d
000003d0: c042 7fbc 2c94 433d 24cc b23d d22d ec3d
000003e0: 44d3 c03d 9c27 d7bd 00e2 85bd da41 f4bd
000003f0: a4a6 e0bd e0a5 603c 8c85 f53d 9880 0a3d

tgnn._base_tgcn.linear_z.bias f4 [32]
-0.38418815 -0.33222178 0.11818309 -0.36326635 -0.39760977 -0.2631179 -0.312095 0.015448966
-0.41887373 -0.17079014 -0.389087 -0.3893723 -0.4646141 -0.49560302 -0.005861491 0.06856956
0.060834035 -0.110993326 -0.40406695 -0.29768172 -0.1976236 0.5156582 -0.30984315 -0.4035006
-0.26114815 -0.32854664 -0.101966515 -0.26023215 -0.18096364 -0.39412355 0.11974424 -0.32304752
00000000: 4fb4 c4be f918 aabe fa09 f23d 0cfe b9be
00000010: 8293 cbbe 64b7 86be eaca 9fbe a91d 7d3c
00000020: 9e76 d6be 9ce3 2ebe 6936 c7be ce5b c7be
00000030: e6e1 edbe aebf fdbe c011 c0bb 336e 8c3d
00000040: 1c2d 793d 7850 e3bd dde1 cebe bd69 98be
00000050: d75d 4abe 2d02 043f c3a3 9ebe a197 cebe
00000060: 36b5 85be 4437 a8be d2d3 d0bd 263d 85be
00000070: 884e 39be 90ca c9be 783c f53d 7c66 a5be

tgnn._base_tgcn.conv_r.bias f4 [32]
0.0 0.0 0.0 0.0 0.0 0.0 0.0 0.0
0.0 0.0 0.0 0.0 0.0 0.0 0.0 0.0
0.0 0.0 0.0 0.0 0.0 0.0 0.0 0.0
0.0 0.0 0.0 0.0 0.0 0.0 0.0 0.0
00000000: 0000 0000 0000 0000 0000 0000 0000 0000
00000010: 0000 0000 0000 0000 0000 0000 0000 0000
00000020: 0000 0000 0000 0000 0000 0000 0000 0000
00000030: 0000 0000 0000 0000 0000 0000 0000 0000
00000040: 0000 0000 0000 0000 0000 0000 0000 0000
00000050: 0000 0000 0000 0000 0000 0000 0000 0000
00000060: 0000 0000 0000 0000 0000 0000 0000 0000
00000070: 0000 0000 0000 0000 0000 0000 0000 0000

tgnn._base_tgcn.conv_r.lin.weight f4 [32, 3]
0.16965911 -0.037553072 0.058 0.30765042 -0.29204863 -0.020177722 -0.14040816 -0.28139192
0.093972 0.011039704 0.09644386 0.32871267 -0.28202555 -0.038353562 -0.11378935 0.2503403
-0.06998673 -0.36193478 0.021415055 0.13195279 0.16137215 -0.1009852 0.14807871 0.06853992
0.20136961 0.24095705 -0.18302193 -0.28173542 0.09143564 0.23300639 0.14357045 -0.18475646
-0.3047736 0.09166607 0.2801251 -0.18565165 -0.23761752 0.31345937 -0.3765382 0.3082089
-0.008306354 0.12245819 -0.14770049 -0.2538972 0.39423618 0.1664029 -0.081643015 -0.24177888
0.30107394 -0.17729856 0.24553058 0.16594991 -0.27114642 0.17000952 -0.013642997 0.2751501
-0.17664571 -0.37121272 -0.39349604 -0.2380074 0.28203174 -0.24862173 -0.09803039 -0.008543164
-0.0024053752 -0.07843304 -0.24303538 -0.07063952 -0.31078428 -0.35467574 0.2420921 -0.21242094
0.2418544 -0.19488631 0.18474093 -0.07327154 -0.15576243 0.18501553 0.15467903 0.09230062
0.0032456815 -0.064685404 -0.40229955 -0.07319707 0.3462328 0.29382756 0.09371677 0.19856241
-0.05077201 -0.25669378 -0.17840756 0.17265919 0.40160397 0.14477381 -0.06058258 -0.35659665
00000000: 1ebb 2d3e 40d1 19bd 6891 6d3d 5b84 9d3e
00000010: 6687 95be c04b a5bc 28c7 0fbe 9a12 90be
00000020: 6474 c03d e0df 343c 5c84 c53d 074d a83e
00000030: a765 90be a018 1dbd 640a e9bd 9b2c 803e
00000040: 3455 8fbd 844f b9be a06e af3c a21e 073e
00000050: be3e 253e 54d1 cebd f2a1 173e a85e 8c3d
00000060: d633 4e3e 72bd 763e 1a6a 3bbe a03f 90be
00000070: 9c42 bb3d 3a99 6e3e 2204 133e cc30 3dbe
00000080: 490b 9cbe 6cbb bb3d 8f6c 8f3e 771b 3ebe
00000090: 0252 73be bf7d a03e 9dc9 c0be 8fcd 9d3e
000000a0: 6017 08bc 5ccb fa3d cc3e 17be d0fe 81be
000000b0: 53d9 c93e 8665 2a3e 7434 a7bd e294 77be
000000c0: 5d26 9a3e c18d 35be 5e6c 7b3e c6ee 293e
000000d0: b4d3 8abe fa16 2e3e e086 5fbc 79e0 8c3e
000000e0: 9de2 34be 980f bebe 5078 c9be 36b8 73be
000000f0: 7766 903e b296 7ebe 28c4 c8bd a0f8 0bbc
00000100: 80a3 1dbb 80a1 a0bd 44de 78be 74ab 90bd
00000110: 1e1f 9fbe 0f98 b5be fee6 773e e084 59be
00000120: aea8 773e 4790 47be ba2c 3d3e 640f 96bd
00000130: 3080 1fbe b674 3d3e 2e64 1e3e 1c08 bd3d
00000140: 80b5 543b c879 84bd 35fa cdbe 58e8 95bd
00000150: 6d45 b13e 9170 963e 94ee bf3d f253 4b3e
00000160: 50f6 4fbd 5e6d 83be 79b0 36be 92cd 303e
00000170: 099f cd3e 963f 143e 7025 78bd d693 b6be

tgnn._base_tgcn.linear_r.weight f4 [32, 64]
-0.0737533 0.028673455 -0.032104403 -0.12430988 0.023893312 0.048621297 0.09931053 -0.055989906
0.08454122 -0.109967485 0.027058244 0.020878121 -0.091980115 0.060285464 0.11037688 -0.06267205
-0.042791396 0.018074214 0.0893611 -0.06952338 -0.04769768 0.044731513 0.040796995 0.05926755
0.09976938 0.11329433 0.08910236 0.057434827 0.07203089 0.07495734 -0.10994126 0.004388988
-0.10482623 0.022965789 0.053581893 -0.05908522 0.10908194 0.0551638 0.05457759 0.010787532
-0.05875577 0.024723545 0.06955607 0.097279936 0.102921784 0.068602756 0.078430876 -0.06932917
-0.01930362 -0.03687437 0.08161858 -0.08983253 0.10153371 -0.01866734 0.1183773 0.039708212
0.09733391 -0.034043327 0.10284725 -0.080348924 0.015347764 0.0022714138 0.12186824 0.03173916
-0.040606976 -0.07542311 0.09682092 -0.052967355 -0.07345587 -0.12261371 -0.011134699 -0.099027485
-0.022750065 -0.06654717 0.12324947 -0.076426074 0.08456457 0.1138739 0.07961732 -0.016986832
-0.025938496 0.0994955 0.07756573 -0.03612061 0.12461914 -0.09103081 0.079083994 -0.0047383457
0.04116547 0.111663654 0.11636995 -0.023028597 -0.08192125 0.09238055 0.094509155 0.089937136
0.07603483 0.047504812 0.08732188 -0.10251002 0.03876269 0.12215617 0.081613794 0.033509687
-0.11827195 0.11838812 -0.07183464 -0.09912117 0.09434812 -0.052059487 0.04769762 0.03788577
0.010921791 -0.045271084 -0.10343398 0.12095538 -0.016146734 0.06182453 -0.024830401 0.11602168
0.103963226 -0.07811932 -0.12052645 0.034886345 -0.009425536 -0.02181767 -0.12315288 -0.09520942
0.054510206 -0.013940781 0.095344365 0.07157417 0.046865344 0.020214915 -0.020744637 0.0204359
0.09030457 -0.037425146 0.06276348 0.07593283 0.085754424 -0.003007695 -0.10925077 0.054074943
0.12003927 0.019124791 -0.047037944 0.0062987953 -0.04449065 -0.0047605634 -0.06831531 -0.03906238
0.035863712 -0.020403177 -0.07982069 -0.06808221 0.024407327 -0.08916354 0.097904295 0.08319639
-0.008596018 0.05303788 -0.0790337 0.08667514 -0.06043899 -0.11556941 -0.055516303 0.070264935
-0.03175597 -0.00755772 -0.08008659 0.075812355 -0.123395056 0.035371795 -0.113339216 0.08593795
0.036074966 -0.0587029 0.003116846 -0.026199058 -0.058345765 0.10942617 -0.10953143 -0.007835388
0.11132103 0.027757466 -0.10250929 -0.109727144 0.006608546 0.046119615 -0.04573056 -0.08610521
0.0019403249 0.0358672 -0.10136476 -0.09186567 0.017764926 -0.080696076 -0.028668359 -0.056228444
0.06199874 0.09111193 -0.12174462 0.11964612 0.11698486 -0.11165273 0.079869494 -0.032285094
-0.037735626 0.06451696 0.07672463 -0.016776934 0.122696295 -0.1064823 -0.026864812 -0.060408384
-0.109726876 0.12463212 -0.09144989 -0.08874783 -0.090840906 0.06981388 -0.09892553 0.024035156
0.09114279 0.039981857 -0.029892802 -0.0809309 0.10096422 -0.055679306 -0.025997818 0.0798495
-0.058491245 0.08375488 -0.115570486 0.07122977 0.060371473 0.03087908 0.020154595 -0.0026038438
0.03317128 -0.07926443 -0.0968841 -0.07242809 -0.058182612 0.060762987 -0.09345868 0.022324905
-0.015727803 -0.016988322 0.022311449 -0.02521415 0.075103655 -0.034029573 -0.092093796 0.015399814
00000000: f80b 97bd 98e4 ea3c e87f 03bd 2e96 febd
00000010: e8bb c33c 2027 473d 5263 cb3d ac55 65bd
00000020: f223 ad3d a236 e1bd 40a9 dd3c 9808 ab3c
00000030: 1260 bcbd e4ed 763d 460d e23d 345a 80bd
00000040: 0846 2fbd 6010 943c f402 b73d 4662 8ebd
00000050: a45e 43bd 6438 373d c01a 273d 88c2 723d
00000060: e453 cc3d dc06 e83d 4c7b b63d c840 6b3d
00000070: ee84 933d 3c83 993d e228 e1bd 80d1 8f3b
00000080: 22af d6bd c022 bc3c b078 5b3d 5803 72bd
00000090: 5a66 df3d 70f3 613d c08c 5f3d 30be 303c
000000a0: e4a9 70bd 0889 ca3c 6a73 8e3d b43a c73d
000000b0: a8c8 d23d 9a7f 8c3d 5ea0 a03d 74fc 8dbd
000000c0: a022 9ebc 9409 17bd a427 a73d 1efa b7bd
000000d0: e8f0 cf3d 40ec 98bc cc6f f23d 14a5 223d
000000e0: 0057 c73d 0471 0bbd 94a1 d23d fa8d a4bd
000000f0: 3075 7b3c 00dc 143b 0e96 f93d ec00 023d
00000100: 8053 26bd 6e77 9abd 0c4a c63d 4cf4 58bd
00000110: 0870 96bd e61c fbbd 506e 36bc ecce cabd
00000120: 585e babc e249 88bd 386a fc3d 4685 9cbd
00000130: 3030 ad3d b836 e93d 680e a33d f827 8bbc
00000140: f87c d4bc 4cc4 cb3d c8da 9e3d 34f3 13bd
00000150: 5238 ff3d 5c6e babd caf6 a13d 2044 9bbb
00000160: 209d 283d eaaf e43d 5e53 ee3d 78a6 bcbc
00000170: 54c6 a7bd 0432 bd3d 048e c13d f630 b83d
00000180: 26b8 9b3d 6894 423d d0d5 b23d c6f0 d1bd
00000190: a0c5 1e3d 042d fa3d 2225 a73d 7441 093d
000001a0: 9038 f2bd 7875 f23d 0a1e 93bd 0a00 cbbd
000001b0: 9639 c13d 543c 55bd 945e 433d 1c2e 1b3d
000001c0: 50f1 323c 2c6e 39bd 32d5 d3bd 74b7 f73d
000001d0: 2846 84bc b83b 7d3d 2069 cbbc c69c ed3d
000001e0: acea d43d 06fd 9fbd 92d6 f6bd fce4 0e3d
000001f0: 906d 1abc f8ba b2bc 9437 fcbd 28fd c2bd
00000200: 1846 5f3d e067 64bc e843 c33d 7a95 923d
00000210: e0f5 3f3d c099 a53c a8f0 a9bc 3069 a73c
00000220: 9af1 b83d 1c4b 19bd 248a 803d ac82 9b3d
00000230: 04a0 af3d c01c 45bb debe dfbd b07d 5d3d
00000240: 26d7 f53d 98ab 9c3c dcaa 40bd 2066 ce3b
00000250: d43b 36bd 80fe 9bbb e6e8 8bbd e0ff 1fbd
00000260: d4e5 123d 9024 a7bc 0879 a3bd b06e 8bbd
00000270: e0f1 c73c 609b b6bd 0c82 c83d de62 aa3d
00000280: 50d6 0cbc 403e 593d 6cdc a1bd bc82 b13d
00000290: e08e 77bd a8af ecbd 1065 63bd 10e7 8f3d
000002a0: 8c12 02bd c0a6 f7bb 7004 a4bd 8243 9b3d
000002b0: 8cb6 fcbd 04e2 103d 641e e8bd 3c00 b03d
000002c0: 58c3 133d 7472 70bd 0044 4c3b 689f d6bc
000002d0: f8fb 6ebd d41a e03d 0452 e0bd 0060 00bc
000002e0: 48fc e33d a063 e33c 64f0 d1bd a0b8 e0bd
000002f0: 808c d83b ece7 3c3d f84f 3bbd ee57 b0bd
00000300: 8052 fe3a 7ce9 123d 5498 cfbd 1224 bcbd
00000310: c087 913c fc43 a5bd e8d9 eabc cc4f 66bd
00000320: 64f2 7d3d e498 ba3d 3e55 f9bd 0609 f53d
00000330: c295 ef3d 30aa e4bd 9e92 a33d 603d 04bd
00000340: ac90 1abd 7821 843d ce21 9d3d c86f 89bc
00000350: 3248 fb3d 6413 dabd 9813 dcbc c86e 77bd
00000360: 7cb8 e0bd 203f ff3d 144a bbbd 6cc1 b5bd
00000370: cc0a babd 94fa 8e3d 7899 cabd 60e5 c43c
00000380: 12a9 ba3d 04c4 233d c0e1 f4bc 1abf a5bd
00000390: 54c6 ce3d fc0f 64bd 60f9 d4bc 2288 a33d
000003a0: 8494 6fbd ae87 ab3d 38b0 ecbd eae0 913d
000003b0: 1448 773d 20f6 fc3c 401b a53c 40a5 2abb
000003c0: 9cde 073d 6455 a2bd 2c6b c6bd 2e55 94bd
000003d0: e450 6ebd 9ce2 783d 4467 bfbd b8e2 b63c
000003e0: 98d7 80bc 182b 8bbc 80c6 b63c e88d cebc
000003f0: f2cf 993d 9862 0bbd ac9b bcbd 804f 7c3c

tgnn._base_tgcn.linear_r.bias f4 [32]
0.07399389 -0.10156308 -0.061086252 0.05020684 0.06644811 -0.014549255 0.068296224 0.009360775
-0.0023612827 -0.121732384 -0.11818594 0.10928008 0.05197528 -0.11607598 0.058765724 -0.04471408
0.0374524 0.06750192 0.0333198 -0.01913163 -0.088471755 0.04522881 -0.0526039 -0.10631165
-0.1044216 0.056450054 0.124298066 0.0009716004 0.09883721 0.036037147 0.06460135 0.06896998
00000000: 1c8a 973d 4e00 d0bd 9435 7abd b0a5 4d3d
00000010: f215 883d 0060 6ebc e4de 8b3d f05d 193c
00000020: c0bf 1abb d44e f9bd 780b f2bd 3cce df3d
00000030: 08e4 543d 3eb9 edbd 54b4 703d 1c26 37bd
00000040: b067 193d 723e 8a3d 587a 083d f0b9 9cbc
00000050: ae30 b5bd d841 393d 3077 57bd ecb9 d9bd
00000060: feda d5bd 2c38 673d fc8f fe3d 00b3 7e3a
00000070: 2a6b ca3d b09b 133d b64d 843d 2240 8d3d

tgnn._base_tgcn.conv_h.bias f4 [32]
0.26945427 0.05201277 -0.15016045 -0.06344975 0.10401796 -0.36010763 0.19095744 0.19319585
0.36566487 -0.006059021 -0.17150651 0.13347241 -0.30417043 0.0022617648 0.11836786 -0.32456157
-0.015301536 -0.21673572 0.17202322 -0.10587572 0.103381455 0.36074224 0.030351833 0.0341169
-0.14971355 0.15355645 -0.12459258 0.18505661 0.33995858 0.3111658 -0.14256532 0.0005467084
00000000: e9f5 893e 580b 553d a9c3 19be f1f1 81bd
00000010: 5e07 d53d 0760 b8be 598a 433e 22d5 453e
00000020: 6d38 bb3e c18a c6bb 679f 2fbe feac 083e
00000030: 3abc 9bbe 1e3a 143b d96a f23d ef2c a6be
00000040: 4bb3 7abc f8ef 5dbe db26 303e 5fd5 d8bd
00000050: a8b9 d33d 35b3 b83e 68a4 f83c 2abe 0b3d
00000060: 824e 19be e73d 1d3e 652a ffbd 7b7f 3d3e
00000070: 0d0f ae3e 2051 9f3e a5fc 11be fb50 0f3a

tgnn._base_tgcn.conv_h.lin.weight f4 [32, 3]
0.20222586 -0.6470836 0.64873046 -0.38153806 -0.8362498 0.5720296 -0.31792608 -0.21970539
1.3291894 -0.0145659875 0.8059342 -0.6369095 0.24252176 0.5658659 -0.9458903 0.34390822
0.41854706 0.0631309 -0.44921967 -0.5893363 0.23454669 -0.4161502 -0.38786232 0.44361195
0.15546511 0.54059553 -0.6046483 -0.022287289 -0.868458 0.8147755 0.584923 0.42095622
-0.56406695 -0.47997385 -0.8094545 -0.07782915 -0.074986555 0.6568067 0.13512993 0.6043577
0.8916384 -0.36548415 0.116374165 -0.5636013 0.93504757 -0.23080619 -0.27733785 -0.5913971
-0.5838319 -0.10246769 0.9280655 -0.5111855 -0.65383697 0.04178784 -0.09584936 -0.66762733
0.6003683 0.17685564 0.9088051 0.23186974 -0.21295805 -0.7810857 -0.21454765 0.25326768
0.09470474 0.36258358 0.83028203 0.7421052 0.6338585 -0.3550664 -0.77271664 0.8977884
0.29870713 0.5093853 -0.5580286 0.11738635 -0.4907651 0.7470319 -0.2884066 -0.8372528
-0.07472147 -0.31159708 -0.2473269 0.5930166 0.0466249 -0.375089 0.6498228 -0.27376485
0.5128801 0.5760651 0.5080583 0.44265273 -0.7013783 -0.09601332 -0.901641 0.71590245
00000000: 4c14 4f3e 45a7 25bf 3313 263f f558 c3be
00000010: 7814 56bf 8870 123f 35c7 a2be 73fa 60be
00000020: e122 aa3f 2ea6 6ebc b451 4e3f 800c 23bf
00000030: a057 783e 96dc 103f de25 72bf bd14 b03e
00000040: cd4b d63e c64a 813d 1f00 e6be bede 16bf
00000050: 022d 703e a411 d5be e495 c6be 1b21 e33e
00000060: 3f32 1f3e 7864 0a3f 3bca 1abf d593 b6bc
00000070: 4353 5ebf 2195 503f 84bd 153f 9387 d73e
00000080: b166 10bf 22bf f5be 6938 4fbf e464 9fbd
00000090: 8d92 99bd 7c24 283f 805f 0a3e 30b7 1a3f
000000a0: 6a42 643f bd20 bbbe 9455 ee3d 2d48 10bf
000000b0: 475f 6f3f 7558 6cbe 3aff 8dbe cd65 17bf
000000c0: 0276 15bf 95da d1bd b395 6d3f 0edd 02bf
000000d0: dc61 27bf ba29 2b3d ab4c c4bd a0e9 2abf
000000e0: bdb1 193f a519 353e 73a7 683f 436f 6d3e
000000f0: ad11 5abe 3cf5 47bf 61b2 5bbe 4dac 813e
00000100: 8ff4 c13d 8ea4 b93e 5d8d 543f 9bfa 3d3f
00000110: 8d44 223f 43cb b5be c2d0 45bf 76d5 653f
00000120: 24f0 983e 1367 023f f6da 0ebf 4168 f03d
00000130: 9045 fbbe 7c3d 3f3f 08aa 93be 3356 56bf
00000140: 9207 99bd a789 9fbe 4343 7dbe f0cf 173f
00000150: c0f9 3e3d aa0b c0be c95a 263f e82a 8cbe
00000160: 1c4c 033f 0179 133f 1c10 023f 61a3 e23e
00000170: 878d 33bf a2a2 c4bd f2d1 66bf 6245 373f

tgnn._base_tgcn.linear_h.weight f4 [32, 64]
-0.42702386 -0.5270816 -0.3466124 0.93928087 0.61374295 0.46992874 -0.7335579 -0.6950492
0.37836462 -0.69868726 0.58855116 -0.77451575 0.36721972 0.61607856 -0.5235551 -0.2823127
-0.4312328 -0.42067444 -0.717766 0.9250776 -0.68026495 0.10764557 0.40715244 -0.7337869
0.6580741 -0.34702533 -0.5901333 -0.48370093 -0.13804278 0.2397926 0.4897734 -0.6101274
-0.064880475 0.087567165 0.08037771 -0.062485382 -0.038240895 -0.07648395 0.11553256 -0.054766923
0.06087494 -0.035721913 0.097739205 0.10307735 0.09622486 0.018606737 0.04877597 0.023506805
-0.026669994 -0.05257401 0.0071945935 -0.076635376 -0.08987668 -0.085349455 0.058197305 -0.009746268
0.112571985 0.07403371 0.053111807 -0.03747432 -0.10009195 0.11500466 0.0024447143 -0.10971551
0.613056 0.26191202 0.26627263 -1.0696259 -0.37052286 -0.072735086 0.16342895 0.22920164
-0.05626818 0.73143315 -0.1189337 0.09828222 -0.3101747 -0.19762355 0.80669016 -0.16901745
0.07339473 0.09680564 1.0579257 -0.2364939 0.07483053 0.12220783 0.105793364 0.27225104
-0.41076857 0.6957966 0.14193287 0.4533712 0.3060751 -0.059495237 -0.33762923 0.6769566
-0.08901258 -0.012996018 -0.11977331 0.021012723 -0.065784276 0.05583188 -0.081155494 -0.06269881
0.0064311028 0.006788656 0.09010455 -0.0013136566 0.046465456 0.079957694 -0.08357698 0.07751277
-0.052453622 0.014318407 0.0261413 0.02369374 0.029151112 0.04550059 -0.08227602 0.031429112
-0.017895773 0.07363206 -0.07054855 0.039543808 0.05335839 -0.051761553 -0.08255084 0.09131689
0.11222008 0.08187668 -0.09636347 0.046249285 -0.10028753 -0.01668723 -0.10299203 0.066693366
0.07665081 0.0799686 -0.057508305 0.11726977 0.08922483 0.016186595 -0.09274556 0.07154882
0.03661424 0.00875701 -0.12228711 -0.07388063 -0.014846459 -0.114295825 0.08827916 -0.024357006
-0.018873945 0.042424113 0.05246395 -0.07742748 0.019144341 -0.05939658 -0.10576825 0.12350875
0.030642197 -0.085110545 -0.069131315 0.035117194 -0.1163127 -0.042874634 0.08264306 -0.076086074
0.10263243 0.041057214 -0.10347648 0.05265352 0.11913769 0.0495276 0.10274571 -0.0016127229
-0.09405221 0.040168658 0.032083154 0.053182095 -0.019699648 -0.062812835 0.036071077 -0.09388283
0.103567004 -0.05184968 -0.1249986 0.07039614 0.0063922554 -0.040023923 -0.045174018 -0.082000986
0.20479614 0.06578636 0.52643 -0.055605248 -0.13992323 0.0602962 0.1345591 0.27333727
0.10601479 0.06690105 -0.17668778 -0.14272933 -0.007138078 0.032100152 0.5011156 -0.3435895
0.34390572 -0.14824887 0.10118539 0.05044085 -0.04951173 0.24978805 0.057294697 0.13435952
-0.12260609 0.3163603 -0.15879296 0.43166342 0.39759418 0.4318242 -0.30133834 -0.039665893
-0.018408418 0.08362214 0.04971437 0.11824444 -0.041034713 -0.058303148 -0.020620987 0.10073264
0.09965317 -0.06432268 0.11720145 0.07487394 0.048134834 -0.013988778 0.08852579 0.06946412
0.07644658 0.03668432 -0.026370183 0.063246146 -0.08859962 0.004238531 -0.08772674 0.019797921
0.10409342 -0.114822656 -0.032590494 -0.10962956 -0.09747049 0.071014464 0.002326429 0.014486715
00000000: dfa2 dabe d2ee 06bf 2e77 b1be b674 703f
00000010: 421e 1d3f 809a f03e 73ca 3bbf bfee 31bf
00000020: 02b9 c13e 2bdd 32bf 4aab 163f aa46 46bf
00000030: 3904 bc3e 53b7 1d3f b507 06bf 4a8b 90be
00000040: 8cca dcbe a462 d7be 83bf 37bf e3d1 6c3f
00000050: d825 2ebf 4875 dc3d 4976 d03e 75d9 3bbf
00000060: 8b77 283f 4ead b1be fa12 17bf a6a7 f7be
00000070: 165b 0dbe 318c 753e 94c3 fa3e 4f31 1cbf
00000080: 0ee0 84bd 6a56 b33d 129d a43d acf0 7fbd
00000090: 7ca2 1cbd 9ea3 9cbd 569c ec3d 4853 60bd
000000a0: 0058 793d 2451 12bd 7e2b c83d 381a d33d
000000b0: 8a11 c53d 286d 983c 50c9 473d 5891 c03c
000000c0: 087b dabc d857 57bd a0c0 eb3b 02f3 9cbd
000000d0: 4411 b8bd b2cb aebd 4c60 6e3d d0ae 1fbc
000000e0: 248c e63d fc9e 973d c48b 593d ac7e 19bd
000000f0: 02fd ccbd 9087 eb3d 8037 203b 86b2 e0bd
00000100: 3df1 1c3f 5519 863e e354 883e 80e9 88bf
00000110: 2cb5 bdbe 22f6 94bd eb59 273e d6b3 6a3e
00000120: 7779 66bd 343f 3b3f 8393 f3bd 3048 c93d
00000130: 38cf 9ebe d45d 4abe 3f83 4e3f e912 2dbe
00000140: fa4f 963d 0942 c63d 1c6a 873f 752b 72be
00000150: c040 993d 1948 fa3d 31aa d83d 7d64 8b3e
00000160: 4250 d2be ba1f 323f da56 113e 4520 e83e
00000170: e0b5 9c3e 47b1 73bd bddd acbe 074d 2d3f
00000180: 3a4c b6bd 40ed 54bc b64b f5bd e022 ac3c
00000190: e8b9 86bd f8af 643d da34 a6bd 3c68 80bd
000001a0: 00bc d23b 6073 de3b bc88 b83d 002f acba
000001b0: 9052 3e3d dcc0 a33d 682a abbd 04bf 9e3d
000001c0: 9cd9 56bd c097 6a3c 4826 d63c 6019 c23c
000001d0: 50ce ee3c d45e 3a3d 5480 a8bd d0bb 003d
000001e0: 289a 92bc 68cc 963d c27b 90bd b0f8 213d
000001f0: 548e 5a3d ec03 54bd 6a10 a9bd 5a04 bb3d
00000200: a4d3 e53d f6ae a73d 365a c5bd e46f 3d3d
00000210: 8c63 cdbd a8b3 88bc 7ced d2bd 8896 883d
00000220: 1afb 9c3d 94c6 a33d d48d 6bbd 222b f03d
00000230: 82bb b63d c099 843c 62f1 bdbd 3088 923d
00000240: d0f8 153d 9079 0f3c aa71 fabd ba4e 97bd
00000250: 903e 73bc ee13 eabd b4cb b43d 5888 c7bc
00000260: 889d 9abc e8c4 2d3d 70e4 563d 4c92 9ebd
00000270: 98d4 9c3c d449 73bd 069d d8bd 28f2 fc3d
00000280: 5805 fb3c 704e aebd b894 8dbd 0cd7 0f3d
00000290: 5a35 eebd 509d 2fbd c440 a93d 04d3 9bbd
000002a0: f430 d23d 9c2b 283d 7aeb d3bd 38ab 573d
000002b0: 76fe f33d 74dd 4a3d 586c d23d 0062 d3ba
000002c0: 729e c0bd e487 243d a069 033d 78d5 593d
000002d0: 2861 a1bc 04a4 80bd 44bf 133d a445 c0bd
000002e0: f01a d43d 5460 54bd 44ff ffbd da2b 903d
000002f0: 2076 d13b 20f0 23bd 6408 39bd 22f0 a7bd
00000300: 14b6 513e 00bb 863d 1ec4 063f 54c2 63bd
00000310: 0948 0fbe 26f9 763d dcc9 093e ddf2 8b3e
00000320: 481e d93d 6b03 893d a4ed 34be a327 12be
00000330: 8ae6 e9bb 737b 033d 1d49 003f f7ea afbe
00000340: 6914 b03e 8dce 17be 493a cf3d 119b 4e3d
00000350: d0cc 4abd 70c8 7f3e d8ad 6a3d 8b95 093e
00000360: e718 fbbd faf9 a13e 9f9a 22be fd02 dd3e
00000370: 7791 cb3e 1018 dd3e 0549 9abe b478 22bd
00000380: 40cd 96bc 1642 ab3d 4ca1 4b3d 242a f23d
00000390: 0414 28bd 48cf 6ebd 58ed a8bc ea4c ce3d
000003a0: f616 cc3d 9cbb 83bd 5007 f03d 8257 993d
000003b0: 0829 453d 3031 65bc 024d b53d 3443 8e3d
000003c0: 0690 9c3d 4c42 163d 4806 d8bc 3287 813d
000003d0: b873 b5bd 60e3 8a3b 14aa b3bd 402f a23c
000003e0: ee2e d53d 2428 ebbd 9c7d 05bd 7685 e0bd
000003f0: 9c9e c7bd 0870 913d 0077 183b b059 6d3c

tgnn._base_tgcn.linear_h.bias f4 [32]
0.10584124 0.19239694 -0.089107886 0.06902633 0.13414396 0.40016487 -0.033334516 -0.10619929
0.110058926 0.46360442 0.14737001 0.11522982 0.19239098 0.28449947 -0.025297495 -0.12629332
-0.08333522 -0.027405486 0.06860982 0.33439335 0.35297877 -0.3885764 0.105045386 0.19111037
0.12409222 0.4649116 0.48587367 0.4420793 0.21652685 0.12397718 -0.0034676546 0.21805272
00000000: 4bc3 d83d b403 453e 327e b6bd ad5d 8d3d
00000010: 095d 093e 69e2 cc3e c689 08bd 037f d9bd
00000020: 9366 e13d 8f5d ed3e 2ae8 163e 9dfd eb3d
00000030: 2402 453e eaa9 913e b13c cfbc 0953 01be
00000040: a8ab aabd 7881 e0bc 4e83 8c3d 9b35 ab3e
00000050: a2b9 b43e 7cf3 c6be 0922 d73d 70b2 433e
00000060: 1024 fe3d e508 ee3e 6fc4 f83e 3858 e23e
00000070: 37b9 5d3e bfe7 fd3d 9741 63bb 3649 5f3e

linear.weight f4 [16, 32]
0.28833348 -0.462033 -0.11142372 0.43436912 0.30223095 -0.52601933 0.1874171 -0.051787853
0.3287833 -0.63044405 0.284862 0.32843533 0.43265918 -0.112441115 0.055190824 0.091960385
0.01706636 -0.11412977 0.4493531 -0.13723557 -0.2943565 -0.55323803 0.39258954 0.16309479
-0.511577 -0.4775531 -0.48323694 -0.4461143 -0.47970426 0.26186135 0.08048946 -0.020421058
0.16308358 -0.5413501 0.04278122 0.32405815 0.24817955 -0.49175268 0.22284523 -0.043036036
0.45410877 -0.5430545 0.4190812 0.21115775 0.34939247 -0.13051935 -0.11252437 0.117471136
0.036463365 -0.05523041 0.46573797 -0.21798192 -0.39122936 -0.54584795 0.212829 0.473077
-0.369502 -0.5189782 -0.4236969 -0.48132488 -0.645385 0.27198708 0.1312343 0.19433527
0.45813558 -0.5040806 -0.11556661 0.34402406 0.21607214 -0.38977063 0.49288324 -0.10496654
0.23899989 -0.54697245 0.20481005 0.40250894 0.2601573 -0.19281542 0.037580185 0.05849137
-0.13937864 -0.14554152 0.20938312 -0.40105727 -0.46070513 -0.70432234 0.40598866 0.3062162
-0.8141318 -0.35773653 -0.44802588 -0.5628823 -0.45457405 0.44151336 0.001525232 0.07441752
0.33478266 -0.68423074 0.007895321 0.35701752 0.32218197 -0.2699341 0.19131094 0.043840613
0.2588166 -0.6295631 0.34426063 0.23255879 0.32050943 -0.3003636 0.04641578 -0.1404911
0.17592205 0.12355836 0.31110874 -0.35821566 -0.3769245 -0.90145165 0.49674517 0.477958
-0.7257568 -0.43276793 -0.5744122 -0.5569919 -0.5910922 0.15236616 -0.04456652 0.25497192
0.28328213 -0.7054474 -0.057647467 -0.032116685 0.25471458 -0.43943453 0.35039097 0.08735913
0.4441168 -0.55165106 0.45997134 0.3099251 0.31581828 -0.026252989 0.004466538 -0.09487621
0.17476274 0.10485466 0.33196574 -0.23255725 -0.33688533 -0.83212745 0.16170962 0.46312338
-0.7506701 -0.5813753 -0.51646864 -0.4885974 -0.6837906 0.13039723 0.0066551045 0.36256868
0.4936836 -0.77115357 0.16676386 0.08825854 0.27258086 -0.6484373 0.45165947 -0.03732955
0.20615456 -0.52913475 0.1762766 0.32708716 0.48921317 -0.14916806 -0.009680115 0.109137855
-0.09364671 -0.13452554 0.19482365 -0.23700306 -0.44973394 -0.85286885 0.49624878 0.17505458
-0.6906119 -0.5054579 -0.42314252 -0.38715833 -0.92002314 0.36942947 0.07012463 0.2968353
0.2779557 -0.6701127 0.12310888 -0.14086442 0.43386668 -0.43301702 0.35022953 0.04947257
0.4675471 -0.4642476 0.25805905 0.42984167 0.38097876 -0.3429111 -0.101359785 -0.041528
-0.10396226 0.08113755 0.3594235 -0.3460546 -0.22868192 -0.8604639 0.19817069 0.18799642
-1.0131458 -0.39722052 -0.5710199 -0.5067346 -0.8612518 0.24820155 0.03750951 0.47070333
0.40272355 -0.9989834 -0.025357336 -0.28702432 0.25999266 -0.5310117 0.44881243 -0.061065324
0.4034209 -0.4625759 0.44837603 0.21951231 0.3582679 -0.4096829 0.0103350775 -0.089699514
-0.01727216 -0.021731004 0.23635474 -0.36422297 -0.2833393 -0.92115414 0.41358566 0.4373939
-0.77007645 -0.41476378 -0.36454332 -0.29188338 -0.9069123 0.10762273 0.021410936 0.2521491
00000000: 72a0 933e 978f ecbe 1f32 e4bd a165 de3e
00000010: 04be 9a3e 34a9 06bf 45ea 3f3e 801f 54bd
00000020: 4956 a83e c864 21bf 6fd9 913e ad28 a83e
00000030: 8185 dd3e 8747 e6bd c60f 623d ba55 bc3d
00000040: c0ce 8b3c debc e9bd 9c11 e63e 7b87 0cbe
00000050: e5b5 96be 02a1 0dbf 7f01 c93e 5202 273e
00000060: b6f6 02bf d781 f4be d56a f7be 1869 e4be
00000070: cc9b f5be b112 863e a8d7 a43d 104a a7bc
00000080: 62ff 263e ec95 0abf 5c3b 2f3d f3ea a53e
00000090: c822 7e3e 02c7 fbbe 8a31 643e 8e46 30bd
000000a0: f280 e83e 9f05 0bbf d091 d63e bd39 583e
000000b0: 92e3 b23e dda6 05be 2d73 e6bd b594 f03d
000000c0: 9c5a 153d 4839 62bd 3575 ee3e a736 5fbe
000000d0: 374f c8be b1bc 0bbf d8ef 593e 2637 f23e
000000e0: 5e2f bdbe c1db 04bf cdee d8be 3770 f6be
000000f0: f437 25bf e441 8b3e 4962 063e d3ff 463e
00000100: bf90 ea3e 6d0b 01bf 30ae ecbd ec23 b03e
00000110: 0442 5d3e 0490 c7be 315b fc3e b3f8 d6bd
00000120: 63bc 743e 6306 0cbf bab9 513e a715 ce3e
00000130: 5633 853e 6871 45be aeed 193d a694 6f3d
00000140: 46b9 0ebe d608 15be 8768 563e 6157 cdbe
00000150: 8be1 ebbe 784e 34bf bfdd cf3e 5fc8 9c3e
00000160: f16a 50bf 3e29 b7be a663 e5be 0e19 10bf
00000170: eebd e8be 0a0e e23e 4bea c73a 3668 983d
00000180: a268 ab3e bf29 2fbf 605b 013c 00cb b63e
00000190: 09f5 a43e cd34 8abe 04e7 433e 3792 333d
000001a0: 9c83 843e 0c2b 21bf ee42 b03e e423 6e3e
000001b0: d019 a43e 42c9 99be 791e 3e3d e6dc 0fbe
000001c0: e924 343e 2a0c fd3d a549 9f3e 0b68 b7be
000001d0: 40fc c0be 89c5 66bf 6255 fe3e e9b6 f43e
000001e0: 33cb 39bf c293 ddbe ae0c 13bf 0597 0ebf
000001f0: d251 17bf e005 1c3e 628b 36bd ae8b 823e
00000200: 5b0a 913e 3398 34bf c01f 6cbd c98c 03bd
00000210: f369 823e 90fd e0be 7266 b33e 58e9 b23d
00000220: 4763 e33e 0139 0dbf 5d81 eb3e 81ae 9e3e
00000230: efb2 a13e 8210 d7bc 095c 923b 754e c2bd
00000240: 01f5 323e 0abe d63d 6af7 a93e 7d23 6ebe
00000250: 3c7c acbe 4e06 55bf 3597 253e 821e ed3e
00000260: ea2b 40bf 03d5 14bf 4a37 04bf 7029 fabe
00000270: e70c 2fbf da86 053e 1013 da3b 9aa2 b93e
00000280: 19c4 fc3e 526a 45bf 25c4 2a3e e5c0 b43d
00000290: b88f 8b3e fdff 25bf e93f e73e dfe6 18bd
000002a0: 2e1a 533e 6075 07bf da81 343e f877 a73e
000002b0: 267a fa3e 83bf 18be 5899 1ebc ab83 df3d
000002c0: d9c9 bfbd 10c1 09be da7f 473e eeb0 72be
000002d0: 8743 e6be 9d55 5abf 5214 fe3e 8241 333e
000002e0: f1cb 30bf b065 01bf 23a6 d8be 9e39 c6be
000002f0: a386 6bbf dc25 bd3e 819d 8f3d ccfa 973e
00000300: 3650 8e3e 828c 2bbf 8220 fc3d c33e 10be
00000310: c623 de3e 68b4 ddbe 4951 b33e c0a3 4a3d
00000320: 5562 ef3e ddb1 edbe 5120 843e 3514 dc3e
00000330: a60f c33e 0b92 afbe b895 cfbd 4419 2abd
00000340: 2aea d4bd 722b a63d 5b06 b83e 122e b1be
00000350: 982b 6abe 5d47 5cbf 42ed 4a3e 2282 403e
00000360: c3ae 81bf 7d60 cbbe 5c2e 12bf 5cb9 01bf
00000370: ff7a 5cbf 8c28 7e3e 92a3 193d 0700 f13e
00000380: c831 ce3e 60bd 7fbf 30ba cfbc daf4 92be
00000390: c21d 853e 62f0 07bf beca e53e a21f 7abd
000003a0: 2f8d ce3e c0d6 ecbe 8b91 e53e d6c7 603e
000003b0: e46e b73e f5c1 d1be 7554 293c 61b4 b7bd
000003c0: 587e 8dbc 3805 b2bc fa06 723e 6f7b babe
000003d0: d911 91be c2d0 6bbf 80c1 d33e 18f2 df3e
000003e0: bb23 45bf eb5b d4be 6ca5 babe bd71 95be
000003f0: 682b 68bf 4e69 dc3d fd65 af3c b019 813e

linear.bias f4 [16]
0.024418069 -0.10219401 -0.012524224 0.019686783 -0.10523139 -0.13477075 -0.1198849 -0.08117001
-0.1559425 -0.03518957 -0.053252194 -0.007949316 -0.07413565 0.061858535 0.10177142 0.002903309
00000000: 6708 c83c 184b d1bd 6732 4dbc 2d46 a13c
00000010: 8e83 d7bd 5801 0abe 3786 f5bd 763c a6bd
00000020: 64af 1fbe f022 10bd f91e 5abd d93d 02bc
00000030: 6fd4 97bd 605f 7d3d 896d d03d 7145 3e3b

linear2.weight f4 [6, 21]
0.5314702 0.63956636 0.23582153 -0.0153442845 -0.31604862 0.4639047 -0.44961992 -0.048316084
-0.045488488 0.36168283 -0.33360913 -0.19113508 0.056522258 0.09914836 0.051780652 -0.21533243
0.010462447 0.09216013 -0.04318653 -0.12007442 0.0064281872 -0.046754513 0.09241628 -0.046817634
0.33127323 0.059613645 0.15557921 0.21513169 0.13207203 0.23883423 -0.13583958 0.19742157
0.021607136 0.1937359 -0.038804997 0.01343783 -0.15263104 0.09522323 -0.2851822 -0.14007573
0.055137496 0.21648158 0.10576841 0.04080161 -0.050188247 0.022173682 -0.124812104 -0.23382062
-0.058554914 -0.0712602 0.06432952 -0.025204344 -0.35045606 -0.10622143 0.23566253 -0.5357979
0.07564599 0.10985004 0.27785978 -0.05983218 -0.099234834 -0.06849119 0.05445703 -0.16849987
-0.119593866 -0.35805517 -0.2800255 0.09353768 -0.13538486 0.2860752 -0.13403638 0.217189
0.20711102 0.19463678 0.1361434 0.2144829 -0.09289098 0.11370455 0.37143606 0.16886269
0.12508696 0.10280378 0.11985742 0.20269696 -0.14330234 -0.12612167 0.05602722 0.33002558
0.24436967 -0.10828593 0.12496983 0.15134045 -0.030576618 -0.09701881 0.060170546 -0.2348421
-0.19256613 0.04630478 0.19199388 -0.018671993 -0.3491183 0.18433936 0.24193797 0.23644176
0.0070656505 -0.13573125 -0.3533738 -0.3046993 -0.07497972 0.061345663 0.044965174 0.1672425
-0.0960177 -0.0104814675 0.15827549 -0.01730452 -0.043404337 0.24114132 -0.2764758 0.19638012
0.24383657 0.27904478 0.21756047 -0.11850838 0.30511004 0.27210832
00000000: 6e0e 083f 9fba 233f 337b 713e 9866 7bbc
00000010: 20d1 a1be eb84 ed3e 9534 e6be 16e7 45bd
00000020: 2352 3abd 7e2e b93e d1ce aabe eab8 43be
00000030: e283 673d 4c0e cb3d f317 543d 1b80 5cbe
00000040: af6a 2b3c 73be bc3d 5ce4 30bd 94e9 f5bd
00000050: 8ba3 d23b a981 3fbd bf44 bd3d d9c3 3fbd
00000060: a59c a93e 702d 743d 2850 1f3e 7b4b 5c3e
00000070: e43d 073e f690 743e 8819 0bbe e128 4a3e
00000080: 7301 b13c b462 463e fdf1 1ebd 582a 5c3c
00000090: 504b 1cbe 6604 c33d 6703 92be 0370 0fbe
000000a0: dbd7 613d 59ad 5d3e 1c9d d83d 971f 273d
000000b0: 3192 4dbd 95a5 b53c 7d9d ffbd ac6e 6fbe
000000c0: 47d7 6fbd def0 91bd 32bf 833d 5779 cebc
000000d0: fa6e b3be 9f8a d9bd 8551 713e 0d2a 09bf
000000e0: 49ec 9a3d 0ff9 e03d a343 8e3e 9712 75bd
000000f0: a23b cbbd 1c45 8cbd 560e 5f3d 3b8b 2cbe
00000100: a1ed f4bd 0253 b7be 815f 8fbe af90 bf3d
00000110: 54a2 0abe 7378 923e d540 09be cb66 5e3e
00000120: e914 543e dd4e 473e 2d69 0b3e 68a1 5b3e
00000130: a03d bebd eedd e83d de2c be3e 57ea 2c3e
00000140: cc16 003e ca8a d23d cf77 f53d cb8f 4f3e
00000150: d9bd 12be 0a26 01be cc7c 653d 1df9 a83e
00000160: 0b3c 7a3e 03c5 ddbd 2ff0 ff3d fef8 1a3e
00000170: d17b fabc ccb1 c6bd 6475 763d 737a 70be
00000180: 0e30 45be 15aa 3d3d 0b9a 443e 02f6 98bc
00000190: a2bf b2be 75c3 3c3e 96be 773e ca1d 723e
000001a0: f986 e73b 22fd 0abe 69ed b4be 8c01 9cbe
000001b0: f88e 99bd 9745 7b3d 672d 383d 9e41 2b3e
000001c0: eea4 c4bd 76ba 2bbc f812 223e 35c2 8dbc
000001d0: bfc8 31bd c0ed 763e 3c8e 8dbe df17 493e
000001e0: 4bb0 793e f5de 8e3e 2cc8 5e3e 86b4 f2bd
000001f0: 6237 9c3e c851 8b3e

linear2.bias f4 [6]
-0.07078767 0.23472576 -0.23653625 -0.14716662 0.5540618 -0.88891387
00000000: 20f9 90bd f35b 703e 8f36 72be d9b2 16be
00000010: fed6 0d3f dc8f 63bf
