A3TGCN2_Checkpoints/Epoch_34.pth (torch, 35255 bytes, 17 tensors)

tgnn._attention f4 [16]
0	0x3fcbfb17	1.5936002
1	0x3f684ffa	0.90747035
2	0x3f06333e	0.5242194
3	0xbd360817	-0.04444131
4	0x3e55e7f4	0.20889264
5	0xbd8df3d2	-0.06931271
6	0xbd8ce1b8	-0.0687899
7	0x3ea09245	0.31361595
8	0x3e294650	0.16530728
9	0x3e22c547	0.15895568
10	0x3e80c6bc	0.25151622
11	0x3ec012b0	0.37514257
12	0x3eac90cf	0.3370423
13	0x3f129c77	0.57269996
14	0x3f3e9f7f	0.7446212
15	0x3fa1fad3	1.265467

tgnn._base_tgcn.conv_z.bias f4 [32]
0	0x3f087d26	0.5331596
1	0x3efb45f6	0.49076813
2	0x3e6f3dbc	0.23363394
3	0xbc81e922	-0.015858237
4	0xbe359abd	-0.17734809
5	0xbec2ecc7	-0.38071272
6	0xbf05a6ff	-0.5220794
7	0xbf0cf7e5	-0.5506576
8	0x3f12219f	0.5708255
9	0x3f0a6eb6	0.5407518
10	0xbf144d28	-0.5793023
11	0xbf097dea	-0.53707755
12	0x3e224dce	0.15849993
13	0x3ddb97fe	0.107223496
14	0x3f026715	0.5093854
15	0x3f055458	0.52081823
16	0xbf0ed672	-0.5579597
17	0x3f133a43	0.57510775
18	0x3ea703a4	0.32619965
19	0x3f1796c9	0.59214455
20	0x3f053983	0.5204088
21	0xbf063006	-0.5241703
22	0xbf098b4f	-0.53728193
23	0x3f11ccb3	0.5695297
24	0xbef147d0	-0.471251
25	0xbf06226e	-0.52396286
26	0xbef04f0f	-0.46935317
27	0x3ee49e8b	0.4465221
28	0x3f13e76a	0.57774985
29	0xbe893ec7	-0.26805708
30	0x3e96ff17	0.29491493
31	0x3f08085b	0.5313775

tgnn._base_tgcn.conv_z.lin.weight f4 [32, 3]
0	0xbe8f3b2c	-0.27974832
1	0xbeb4143d	-0.3517169
2	0xbfeede21	-1.8661538
3	0x3e9b3855	0.30316415
4	0xbf063c64	-0.524359
5	0xbf755263	-0.9582884
6	0xbf448a60	-0.76773643
7	0x3eee3fca	0.46533042
8	0xbf737c27	-0.95111316
9	0xbe4f3fed	-0.2023923
10	0x3f4d28cb	0.8014037
11	0x3fb02821	1.3762246
12	0x3f1e8af9	0.61930805
13	0xbf257151	-0.6462603
14	0x3e698a80	0.2280674
15	0xbdf923b7	-0.12165015
16	0x3f0496a9	0.5179239
17	0x3fede680	1.8585968
18	0xbf0c597d	-0.5482405
19	0xbe3afb1b	-0.18259852
20	0xbe8a8446	-0.27054042
21	0xbd2a3afa	-0.04156015
22	0x3e7b92ba	0.2456769
23	0x3fc0d830	1.5065975
24	0x3e606c79	0.21916379
25	0xbf0743c6	-0.5283779
26	0xbfa34702	-1.2756045
27	0x3eb27943	0.3485814
28	0xbf5b171b	-0.8558213
29	0xbfa40379	-1.281356
30	0x3e1a8ecd	0.15093537
31	0x3f08623a	0.5327488
32	0x3f604544	0.8760569
33	0xbee78bd6	-0.45223874
34	0x3f0c0962	0.5470182
35	0x3f4135df	0.75472826
36	0xbea0e127	-0.31421778
37	0x3f33f808	0.7030034
38	0xbe48016c	-0.19531792
39	0xbf65204a	-0.89502394
40	0x3d96ab52	0.073568955
41	0x3e03e1f6	0.12879166
42	0x3eb830f0	0.35974836
43	0xbef9b4ee	-0.4877085
44	0xbf8e53a4	-1.1119275
45	0xbdaffa1c	-0.085926265
46	0xbe89f631	-0.26945642
47	0xc005bf55	-2.089803
48	0xbe1dfdbc	-0.15428823
49	0x3ed7838d	0.42092553
50	0x3f712b31	0.9420653
51	0x3def02bd	0.11670444
52	0xbf2c8afb	-0.6739957
53	0xbfe32e9e	-1.7748601
54	0xbf043f2f	-0.5165891
55	0xbe551873	-0.20810108
56	0x3d05e539	0.032689307
57	0xbe38db76	-0.18052468
58	0xbef13682	-0.471119
59	0xbfe60586	-1.7970436
60	0x3ec61bf8	0.38693213
61	0xbeee5eb4	-0.46556628
62	0xbf802333	-1.0010742
63	0xbe1f7836	-0.155732
64	0x3ebbeab9	0.36702517
65	0x3f20a837	0.62756675
66	0xbe854c75	-0.26034895
67	0x3f4c7402	0.79864514
68	0x3fcaf907	1.5857247
69	0x3dbcaad9	0.09212274
70	0xbe29e922	-0.1659284
71	0xc00238cb	-2.0347164
72	0x3ec0a813	0.3762823
73	0x3dd078c7	0.101792865
74	0x3fea2743	1.8293232
75	0x3e82680d	0.2547001
76	0x3d727310	0.059191763
77	0x3fc95f94	1.5732293
78	0x3f11607a	0.56787837
79	0x3e942d49	0.289408
80	0x3f5e2abb	0.8678395
81	0xbf049416	-0.5178846
82	0xbecc750d	-0.39933053
83	0xbf32ea7b	-0.6988904
84	0x3dab5558	0.083658874
85	0x3da6f020	0.08151269
86	0xbfb36d67	-1.4017762
87	0x3f41ea52	0.7574817
88	0x3f80a0ea	1.0049107
89	0x3fb6de14	1.4286523
90	0xbd7a483a	-0.061104037
91	0xbfa5441b	-1.2911409
92	0xbf9bad14	-1.2162194
93	0xbc7e328e	-0.015514983
94	0xbf02b424	-0.5105612
95	0xbfaf7486	-1.3707435

tgnn._base_tgcn.linear_z.weight f4 [32, 64]
0	0xbf034685	-0.5127948
1	0xbf382f16	-0.7194685
2	0x3ef90b63	0.486415
3	0x3f4ebdfc	0.80758643
4	0xbe9f968b	-0.31169543
5	0x3f42511d	0.7590502
6	0x3e52135f	0.20515202
7	0x3e8cd367	0.27505037
8	0xbf3eab59	-0.74480206
9	0xbfa86fb5	-1.315909
10	0x3f9e7f4d	1.2382599
11	0x3f260155	0.6484578
12	0x3df4a0d0	0.11944735
13	0xbea29596	-0.3175475
14	0xbf3307bf	-0.69933695
15	0xbef428df	-0.47687432
16	0x3f4226a2	0.758402
17	0xbf8cf0a7	-1.1010941
18	0xbed54577	-0.4165456
19	0xbf85fab3	-1.0467132
20	0xbefb7369	-0.49111488
21	0x3f2a16e0	0.66441154
22	0x3fa2169d	1.2663151
23	0xbe7a738d	-0.24458142
24	0x3e0dc9bb	0.13846485
25	0x3e0f58b4	0.13998681
26	0x3f07e00a	0.5307623
27	0xbf683dfe	-0.9071959
28	0xbe50c63a	-0.20388117
29	0x3ed13451	0.40860227
30	0xbf44484e	-0.7667283
31	0xbf7e27e1	-0.992796
32	0x3ca5dba8	0.020246342
33	0x3d64c704	0.05585386
34	0x3d376430	0.04477328
35	0x3d1089a4	0.035287514
36	0x3cbd8e88	0.023139253
37	0xbcb79138	-0.022408113
38	0x3deae07c	0.11468598
39	0xbc941b58	-0.018079445
40	0xbd60348c	-0.054737613
41	0x3d9ddff8	0.07708734
42	0xbd3d5e3c	-0.046232447
43	0x3dec22ce	0.11530076
44	0x3de290f0	0.11062801
45	0xbdaba19e	-0.083804354
46	0xbdd24a90	-0.10268128
47	0xbd276020	-0.040863156
48	0x3da5223e	0.08063172
49	0xbdd291bc	-0.10281703
50	0x3d8af502	0.06785013
51	0xbdfe2028	-0.12408477
52	0xbcc31510	-0.023813754
53	0xbd06ae1c	-0.032880887
54	0x3c592e50	0.013255671
55	0x3dcec97c	0.10097024
56	0xbdb40a88	-0.08791071
57	0x3b072f80	0.0020627677
58	0x3bc81160	0.006105587
59	0xbd56c170	-0.05243057
60	0x3c0d2900	0.008615732
61	0x3db887ca	0.09010275
62	0xbd9ca6e4	-0.07649019
63	0x3da2020c	0.07910547
64	0xbf51e0e3	-0.81983775
65	0xbe6a1969	-0.22861256
66	0xbe31d086	-0.17364702
67	0x3fbe0b05	1.4847113
68	0xbef4148a	-0.4767192
69	0x3ffaa9af	1.9583033
70	0xbed8bf53	-0.4233347
71	0x3da7a8cd	0.08186493
72	0xbe2ba91b	-0.16763727
73	0xbf4e9a3c	-0.8070409
74	0x3da1c463	0.07898786
75	0x3dbdc0d9	0.092652984
76	0x3ecd54b8	0.40103698
77	0x3f1a192d	0.60194665
78	0xbe7ed800	-0.24887085
79	0xbf200b49	-0.6251722
80	0xbe353eeb	-0.17699783
81	0xbf8f3478	-1.1187887
82	0x3e562950	0.20914197
83	0xbf57922e	-0.8420743
84	0x3d053224	0.03251852
85	0xbe6b4b4a	-0.22977939
86	0x3f82dca4	1.0223584
87	0xbe6a528f	-0.22883056
88	0x3e8d620d	0.2761387
89	0x3dd5f2ff	0.104467385
90	0x3eacf7f9	0.33782938
91	0xbeb328bb	-0.34992012
92	0x3e99b79d	0.30022898
93	0x3f8d407e	1.1035306
94	0xbfba4c5b	-1.4554552
95	0xbf1605cd	-0.586026
96	0x3dbfcfd2	0.093658105
97	0x3d5cda4c	0.05391912
98	0xbd9759c2	-0.07390167
99	0xbd8eab42	-0.069662586
100	0x3ce24090	0.027618676
101	0x3d10e8f8	0.035378426
102	0x3d8797c6	0.06620745
103	0xbdbb660e	-0.09150325
104	0x3df6a7ee	0.12043749
105	0xbcc94720	-0.024570048
106	0x3d339b5c	0.043849334
107	0xbd5b6d64	-0.05357112
108	0x3d433538	0.047658175
109	0x3ddaa082	0.10675146
110	0xbdb84d72	-0.089991465
111	0x3c392780	0.011300921
112	0x3c7af590	0.015317336
113	0xbc93ae30	-0.018027395
114	0xbd0c6ad4	-0.034281567
115	0x3cc63050	0.02419296
116	0x3cbd74d0	0.02312699
117	0xbd519f78	-0.051177472
118	0x3d35655c	0.044286117
119	0x3dd57bda	0.104240134
120	0x3cfa1138	0.030525789
121	0xbd82a736	-0.06379549
122	0xbc99b3e8	-0.018762544
123	0xbd0399bc	-0.032129034
124	0x3dff8eb2	0.12478389
125	0xbd84f17a	-0.064913705
126	0x3d99ab2e	0.07503353
127	0xbdfe9f46	-0.12432723
128	0x3d37e158	0.04489264
129	0xbdf1b328	-0.118017495
130	0xbc5987b0	-0.013276979
131	0xbdc19d9a	-0.09453888
132	0xbdd117b8	-0.10209602
133	0x3cb759e0	0.022381723
134	0x3dbecc76	0.093163416
135	0x3dba0ac0	0.09084082
136	0xbd598f04	-0.053114906
137	0xbd14bb34	-0.036311343
138	0xbcab8b68	-0.020940498
139	0xbb5cc780	-0.0033688247
140	0xbda78b58	-0.081808746
141	0xbb8df180	-0.0043317676
142	0x3d98f48a	0.07468517
143	0x3dd69a4a	0.10478647
144	0x3dc4cf34	0.09609833
145	0xbd78e550	-0.060765564
146	0x3d963b64	0.073355466
147	0x3d881408	0.06644446
148	0x3ddc3500	0.107522964
149	0xbd06be3c	-0.032896265
150	0xbdc35872	-0.09538354
151	0x3c6ca170	0.014442787
152	0x3d854736	0.06507723
153	0xbce7a488	-0.028276697
154	0x3c1e61f0	0.009666905
155	0xbc932458	-0.017961666
156	0xbdd9ba8a	-0.10631283
157	0x3d17105c	0.036880836
158	0x3d02d9d8	0.031946033
159	0x3b2a9d00	0.002603352
160	0xbdd4c39a	-0.103888705
161	0x3d4ce114	0.05001934
162	0x3b9fd340	0.004877478
163	0xbde1abb0	-0.11019075
164	0xbddde0b2	-0.10833873
165	0x3c60b860	0.013715833
166	0x3c726510	0.014794603
167	0x3c23daf0	0.010000929
168	0x3d82217a	0.063540414
169	0xba1b2400	-0.0005918145
170	0x3df3f7fa	0.11912532
171	0xbd11c80c	-0.03559117
172	0xbd9136f0	-0.070905566
173	0xbdb36646	-0.087597415
174	0xbd7a5b80	-0.061122417
175	0x3df685d0	0.120372415
176	0x3d80ac46	0.062828586
177	0xbd3c11f4	-0.04591556
178	0xbdacaaf8	-0.08431047
179	0xbc0933c0	-0.008374155
180	0x3db23ec4	0.08703378
181	0x3df7fda0	0.12108922
182	0xbde94b26	-0.113912866
183	0xbd6f9b30	-0.058497608
184	0xbdd43d52	-0.103632584
185	0xbcbca818	-0.023029372
186	0xbc933dc8	-0.017973796
187	0x3de6c6e8	0.11268407
188	0x3df61a1c	0.12016699
189	0x3dec2bdc	0.11531803
190	0xbd4c32cc	-0.04985313
191	0xbd5ec020	-0.054382443
192	0xbf49e328	-0.7886224
193	0xbf02b89a	-0.5106293
194	0x3eab7812	0.33490044
195	0x3ebd5a6e	0.36983055
196	0xbf0c03e9	-0.54693466
197	0x3fa6a907	1.3020333
198	0xbe1d35a3	-0.15352492
199	0x3e081a0d	0.13291188
200	0xbee4b131	-0.44666436
201	0xbf8a0e5d	-1.0785633
202	0x3f3340ec	0.7002094
203	0x3e982be8	0.29720998
204	0x3f293070	0.66089535
205	0xbecd6fd3	-0.40124378
206	0xbea76c9f	-0.3270006
207	0xbebf09ac	-0.37312067
208	0x3e9242d8	0.28566623
209	0xbf67bab5	-0.9051927
210	0xbe940412	-0.28909355
211	0xbf37bc1d	-0.71771413
212	0xbebd2fdd	-0.3695058
213	0x3eaf7d46	0.34275264
214	0x3faaaf7e	1.3334806
215	0xbcbe2b86	-0.023214113
216	0x3dfaeb1a	0.12251873
217	0xbd28a982	-0.04117728
218	0x3f27cc43	0.65546054
219	0xbf8dbcb7	-1.1073216
220	0x3de10238	0.10986751
221	0x3f80cd7f	1.0062712
222	0xbfd81a55	-1.6883036
223	0xbf58003f	-0.84375376
224	0x3d605048	0.054764062
225	0xbdb0e9ba	-0.0863833
226	0xbdb4fa48	-0.088368
227	0x3d4ed560	0.05049646
228	0xbd3cdb48	-0.04610756
229	0x3d40e620	0.047094464
230	0x3dc69eaa	0.096982315
231	0xbd388f10	-0.04505831
232	0xbc9989f0	-0.018742532
233	0xbdc8f60e	-0.09812556
234	0xbdc6531c	-0.096838206
235	0x3c88dd20	0.016707003
236	0x3cc4a908	0.024006382
237	0xbdcbdb8e	-0.09953986
238	0xbdd33c42	-0.10314228
239	0x3d84be3c	0.06481597
240	0xbb9f6c60	-0.004865214
241	0x3dd9320a	0.10605247
242	0x3dda115a	0.10647841
243	0x3d1e80c8	0.038697034
244	0xbc7f42c0	-0.015579879
245	0x3d43942c	0.04774873
246	0x3db2cc24	0.08730343
247	0x3dec2dd2	0.11532177
248	0x3dc0d344	0.09415296
249	0xbdd7279c	-0.10505602
250	0xbd85e200	-0.06537247
251	0xbdf441da	-0.11926623
252	0xbde0a6a4	-0.10969284
253	0x3c60a5e0	0.013711423
254	0x3df5858c	0.11988363
255	0x3d0a8098	0.033814043

tgnn._base_tgcn.linear_z.bias f4 [32]
0	0xbee4fc15	-0.44723573
1	0x3f3543e3	0.7080671
2	0x3df209fa	0.11818309
3	0x3d4e5c7b	0.050381165
4	0xbec62e11	-0.3870702
5	0xbe060dc7	-0.13091193
6	0xbe7c10e4	-0.24615818
7	0x3c7d1da9	0.015448966
8	0xbea4704a	-0.3211692
9	0x3ce6241c	0.02809339
10	0xbef504e4	-0.47855294
11	0xbedfac26	-0.43686026
12	0xbf29247d	-0.660713
13	0xbf35da50	-0.71036243
14	0xbbc011c0	-0.005861491
15	0x3d8c6e33	0.06856956
16	0x3d792d1c	0.060834035
17	0xbde35078	-0.110993326
18	0xbef58359	-0.47951773
19	0xbec96126	-0.3933193
20	0xbeab4946	-0.3345434
21	0x3efaacd4	0.48959982
22	0xbe323e4a	-0.17406574
23	0xbf1ea6e3	-0.619734
24	0x3ed60428	0.41800046
25	0xbf14f934	-0.58192754
26	0x3df9626d	0.12176976
27	0xbe902c6f	-0.281589
28	0x3e5ad2ac	0.21369427
29	0xbf01edc5	-0.5075343
30	0x3df53c78	0.11974424
31	0xbec15764	-0.37761986

tgnn._base_tgcn.conv_r.bias f4 [32]
0	0x00000000	0.0
1	0x00000000	0.0
2	0x00000000	0.0
3	0x00000000	0.0
4	0x00000000	0.0
5	0x00000000	0.0
6	0x00000000	0.0
7	0x00000000	0.0
8	0x00000000	0.0
9	0x00000000	0.0
10	0x00000000	0.0
11	0x00000000	0.0
12	0x00000000	0.0
13	0x00000000	0.0
14	0x00000000	0.0
15	0x00000000	0.0
16	0x00000000	0.0
17	0x00000000	0.0
18	0x00000000	0.0
19	0x00000000	0.0
20	0x00000000	0.0
21	0x00000000	0.0
22	0x00000000	0.0
23	0x00000000	0.0
24	0x00000000	0.0
25	0x00000000	0.0
26	0x00000000	0.0
27	0x00000000	0.0
28	0x00000000	0.0
29	0x00000000	0.0
30	0x00000000	0.0
31	0x00000000	0.0

tgnn._base_tgcn.conv_r.lin.weight f4 [32, 3]
0	0x3e2dbb1e	0.16965911
1	0xbd19d140	-0.037553072
2	0x3d6d9168	0.058
3	0x3e9d845b	0.30765042
4	0xbe958766	-0.29204863
5	0xbca54bc0	-0.020177722
6	0xbe0fc728	-0.14040816
7	0xbe90129a	-0.28139192
8	0x3dc07464	0.093972
9	0x3c34dfe0	0.011039704
10	0x3dc5845c	0.09644386
11	0x3ea84d07	0.32871267
12	0xbe9065a7	-0.28202555
13	0xbd1d18a0	-0.038353562
14	0xbde90a64	-0.11378935
15	0x3e802c9b	0.2503403
16	0xbd8f5534	-0.06998673
17	0xbeb94f84	-0.36193478
18	0x3caf6ea0	0.021415055
19	0x3e071ea2	0.13195279
20	0x3e253ebe	0.16137215
21	0xbdced154	-0.1009852
22	0x3e17a1f2	0.14807871
23	0x3d8c5ea8	0.06853992
24	0x3e4e33d6	0.20136961
25	0x3e76bd72	0.24095705
26	0xbe3b6a1a	-0.18302193
27	0xbe903fa0	-0.28173542
28	0x3dbb429c	0.09143564
29	0x3e6e993a	0.23300639
30	0x3e130422	0.14357045
31	0xbe3d30cc	-0.18475646
32	0xbe9c0b49	-0.3047736
33	0x3dbbbb6c	0.09166607
34	0x3e8f6c8f	0.2801251
35	0xbe3e1b77	-0.18565165
36	0xbe735202	-0.23761752
37	0x3ea07dbf	0.31345937
38	0xbec0c99d	-0.3765382
39	0x3e9dcd8f	0.3082089
40	0xbc081760	-0.008306354
41	0x3dfacb5c	0.12245819
42	0xbe173ecc	-0.14770049
43	0xbe81fed0	-0.2538972
44	0x3ec9d953	0.39423618
45	0x3e2a6586	0.1664029
46	0xbda73474	-0.081643015
47	0xbe7794e2	-0.24177888
48	0x3e9a265d	0.30107394
49	0xbe358dc1	-0.17729856
50	0x3e7b6c5e	0.24553058
51	0x3e29eec6	0.16594991
52	0xbe8ad3b4	-0.27114642
53	0x3e2e16fa	0.17000952
54	0xbc5f86e0	-0.013642997
55	0x3e8ce079	0.2751501
56	0xbe34e29d	-0.17664571
57	0xbebe0f98	-0.37121272
58	0xbec97850	-0.39349604
59	0xbe73b836	-0.2380074
60	0x3e906677	0.28203174
61	0xbe7e96b2	-0.24862173
62	0xbdc8c428	-0.09803039
63	0xbc0bf8a0	-0.008543164
64	0xbb1da380	-0.0024053752
65	0xbda0a180	-0.07843304
66	0xbe78de44	-0.24303538
67	0xbd90ab74	-0.07063952
68	0xbe9f1f1e	-0.31078428
69	0xbeb5980f	-0.35467574
70	0x3e77e6fe	0.2420921
71	0xbe5984e0	-0.21242094
72	0x3e77a8ae	0.2418544
73	0xbe479047	-0.19488631
74	0x3e3d2cba	0.18474093
75	0xbd960f64	-0.07327154
76	0xbe1f8030	-0.15576243
77	0x3e3d74b6	0.18501553
78	0x3e1e642e	0.15467903
79	0x3dbd081c	0.09230062
80	0x3b54b580	0.0032456815
81	0xbd8479c8	-0.064685404
82	0xbecdfa35	-0.40229955
83	0xbd95e858	-0.07319707
84	0x3eb1456d	0.3462328
85	0x3e967091	0.29382756
86	0x3dbfee94	0.09371677
87	0x3e4b53f2	0.19856241
88	0xbd4ff650	-0.05077201
89	0xbe836d5e	-0.25669378
90	0xbe36b079	-0.17840756
91	0x3e30cd92	0.17265919
92	0x3ecd9f09	0.40160397
93	0x3e143f96	0.14477381
94	0xbd782570	-0.06058258
95	0xbeb693d6	-0.35659665

tgnn._base_tgcn.linear_r.weight f4 [32, 64]
0	0xbd970bf8	-0.0737533
1	0x3ceae498	0.028673455
2	0xbd037fe8	-0.032104403
3	0xbdfe962e	-0.12430988
4	0x3cc3bbe8	0.023893312
5	0x3d472720	0.048621297
6	0x3dcb6352	0.09931053
7	0xbd6555ac	-0.055989906
8	0x3dad23f2	0.08454122
9	0xbde136a2	-0.109967485
10	0x3cdda940	0.027058244
11	0x3cab0898	0.020878121
12	0xbdbc6012	-0.091980115
13	0x3d76ede4	0.060285464
14	0x3de20d46	0.11037688
15	0xbd805a34	-0.06267205
16	0xbd2f4608	-0.042791396
17	0x3c941060	0.018074214
18	0x3db702f4	0.0893611
19	0xbd8e6246	-0.06952338
20	0xbd435ea4	-0.04769768
21	0x3d373864	0.044731513
22	0x3d271ac0	0.040796995
23	0x3d72c288	0.05926755
24	0x3dcc53e4	0.09976938
25	0x3de806dc	0.11329433
26	0x3db67b4c	0.08910236
27	0x3d6b40c8	0.057434827
28	0x3d9384ee	0.07203089
29	0x3d99833c	0.07495734
30	0xbde128e2	-0.10994126
31	0x3b8fd180	0.004388988
32	0xbdd6af22	-0.10482623
33	0x3cbc22c0	0.022965789
34	0x3d5b78b0	0.053581893
35	0xbd720358	-0.05908522
36	0x3ddf665a	0.10908194
37	0x3d61f370	0.0551638
38	0x3d5f8cc0	0.05457759
39	0x3c30be30	0.010787532
40	0xbd70a9e4	-0.05875577
41	0x3cca8908	0.024723545
42	0x3d8e736a	0.06955607
43	0x3dc73ab4	0.097279936
44	0x3dd2c8a8	0.102921784
45	0x3d8c7f9a	0.068602756
46	0x3da0a05e	0.078430876
47	0xbd8dfc74	-0.06932917
48	0xbc9e22a0	-0.01930362
49	0xbd170994	-0.03687437
50	0x3da727a4	0.08161858
51	0xbdb7fa1e	-0.08983253
52	0x3dcff0e8	0.10153371
53	0xbc98ec40	-0.01866734
54	0x3df26fcc	0.1183773
55	0x3d22a514	0.039708212
56	0x3dc75700	0.09733391
57	0xbd0b7104	-0.034043327
58	0x3dd2a194	0.10284725
59	0xbda48dfa	-0.080348924
60	0x3c7b7530	0.015347764
61	0x3b14dc00	0.0022714138
62	0x3df9960e	0.12186824
63	0x3d0200ec	0.03173916
64	0xbd265380	-0.040606976
65	0xbd9a776e	-0.07542311
66	0x3dc64a0c	0.09682092
67	0xbd58f44c	-0.052967355
68	0xbd967008	-0.07345587
69	0xbdfb1ce6	-0.12261371
70	0xbc366e50	-0.011134699
71	0xbdcaceec	-0.099027485
72	0xbcba5e58	-0.022750065
73	0xbd8849e2	-0.06654717
74	0x3dfc6a38	0.12324947
75	0xbd9c8546	-0.076426074
76	0x3dad3030	0.08456457
77	0x3de936b8	0.1138739
78	0x3da30e68	0.07961732
79	0xbc8b27f8	-0.016986832
80	0xbcd47cf8	-0.025938496
81	0x3dcbc44c	0.0994955
82	0x3d9edac8	0.07756573
83	0xbd13f334	-0.03612061
84	0x3dff3852	0.12461914
85	0xbdba6e5c	-0.09103081
86	0x3da1f6ca	0.079083994
87	0xbb9b4420	-0.0047383457
88	0x3d289d20	0.04116547
89	0x3de4afea	0.111663654
90	0x3dee535e	0.11636995
91	0xbcbca678	-0.023028597
92	0xbda7c654	-0.08192125
93	0x3dbd3204	0.09238055
94	0x3dc18e04	0.094509155
95	0x3db830f6	0.089937136
96	0x3d9bb826	0.07603483
97	0x3d429468	0.047504812
98	0x3db2d5d0	0.08732188
99	0xbdd1f0c6	-0.10251002
100	0x3d1ec5a0	0.03876269
101	0x3dfa2d04	0.12215617
102	0x3da72522	0.081613794
103	0x3d094174	0.033509687
104	0xbdf23890	-0.11827195
105	0x3df27578	0.11838812
106	0xbd931e0a	-0.07183464
107	0xbdcb000a	-0.09912117
108	0x3dc13996	0.09434812
109	0xbd553c54	-0.052059487
110	0x3d435e94	0.04769762
111	0x3d1b2e1c	0.03788577
112	0x3c32f150	0.010921791
113	0xbd396e2c	-0.045271084
114	0xbdd3d532	-0.10343398
115	0x3df7b774	0.12095538
116	0xbc844628	-0.016146734
117	0x3d7d3bb8	0.06182453
118	0xbccb6920	-0.024830401
119	0x3ded9cc6	0.11602168
120	0x3dd4eaac	0.103963226
121	0xbd9ffd06	-0.07811932
122	0xbdf6d692	-0.12052645
123	0x3d0ee4fc	0.034886345
124	0xbc1a6d90	-0.009425536
125	0xbcb2baf8	-0.02181767
126	0xbdfc3794	-0.12315288
127	0xbdc2fd28	-0.09520942
128	0x3d5f4618	0.054510206
129	0xbc6467e0	-0.013940781
130	0x3dc343e8	0.095344365
131	0x3d92957a	0.07157417
132	0x3d3ff5e0	0.046865344
133	0x3ca599c0	0.020214915
134	0xbca9f0a8	-0.020744637
135	0x3ca76930	0.0204359
136	0x3db8f19a	0.09030457
137	0xbd194b1c	-0.037425146
138	0x3d808a24	0.06276348
139	0x3d9b82ac	0.07593283
140	0x3dafa004	0.085754424
141	0xbb451cc0	-0.003007695
142	0xbddfbede	-0.10925077
143	0x3d5d7db0	0.054074943
144	0x3df5d726	0.12003927
145	0x3c9cab98	0.019124791
146	0xbd40aadc	-0.047037944
147	0x3bce6620	0.0062987953
148	0xbd363bd4	-0.04449065
149	0xbb9bfe80	-0.0047605634
150	0xbd8be8e6	-0.06831531
151	0xbd1fffe0	-0.03906238
152	0x3d12e5d4	0.035863712
153	0xbca72490	-0.020403177
154	0xbda37908	-0.07982069
155	0xbd8b6eb0	-0.06808221
156	0x3cc7f1e0	0.024407327
157	0xbdb69b60	-0.08916354
158	0x3dc8820c	0.097904295
159	0x3daa62de	0.08319639
160	0xbc0cd650	-0.008596018
161	0x3d593e40	0.05303788
162	0xbda1dc6c	-0.0790337
163	0x3db182bc	0.08667514
164	0xbd778ee0	-0.06043899
165	0xbdecafa8	-0.11556941
166	0xbd636510	-0.055516303
167	0x3d8fe710	0.070264935
168	0xbd02128c	-0.03175597
169	0xbbf7a6c0	-0.00755772
170	0xbda40470	-0.08008659
171	0x3d9b4382	0.075812355
172	0xbdfcb68c	-0.123395056
173	0x3d10e204	0.035371795
174	0xbde81e64	-0.113339216
175	0x3db0003c	0.08593795
176	0x3d13c358	0.036074966
177	0xbd707274	-0.0587029
178	0x3b4c4400	0.003116846
179	0xbcd69f68	-0.026199058
180	0xbd6efbf8	-0.058345765
181	0x3de01ad4	0.10942617
182	0xbde05204	-0.10953143
183	0xbc006000	-0.007835388
184	0x3de3fc48	0.11132103
185	0x3ce363a0	0.027757466
186	0xbdd1f064	-0.10250929
187	0xbde0b8a0	-0.109727144
188	0x3bd88c80	0.006608546
189	0x3d3ce7ec	0.046119615
190	0xbd3b4ff8	-0.04573056
191	0xbdb057ee	-0.08610521
192	0x3afe5280	0.0019403249
193	0x3d12e97c	0.0358672
194	0xbdcf9854	-0.10136476
195	0xbdbc2412	-0.09186567
196	0x3c9187c0	0.017764926
197	0xbda543fc	-0.080696076
198	0xbcead9e8	-0.028668359
199	0xbd664fcc	-0.056228444
200	0x3d7df264	0.06199874
201	0x3dba98e4	0.09111193
202	0xbdf9553e	-0.12174462
203	0x3df50906	0.11964612
204	0x3def95c2	0.11698486
205	0xbde4aa30	-0.11165273
206	0x3da3929e	0.079869494
207	0xbd043d60	-0.032285094
208	0xbd1a90ac	-0.037735626
209	0x3d842178	0.06451696
210	0x3d9d21ce	0.07672463
211	0xbc896fc8	-0.016776934
212	0x3dfb4832	0.122696295
213	0xbdda1364	-0.1064823
214	0xbcdc1398	-0.026864812
215	0xbd776ec8	-0.060408384
216	0xbde0b87c	-0.109726876
217	0x3dff3f20	0.12463212
218	0xbdbb4a14	-0.09144989
219	0xbdb5c16c	-0.08874783
220	0xbdba0acc	-0.090840906
221	0x3d8efa94	0.06981388
222	0xbdca9978	-0.09892553
223	0x3cc4e560	0.024035156
224	0x3dbaa912	0.09114279
225	0x3d23c404	0.039981857
226	0xbcf4e1c0	-0.029892802
227	0xbda5bf1a	-0.0809309
228	0x3dcec654	0.10096422
229	0xbd640ffc	-0.055679306
230	0xbcd4f960	-0.025997818
231	0x3da38822	0.0798495
232	0xbd6f9484	-0.058491245
233	0x3dab87ae	0.08375488
234	0xbdecb038	-0.115570486
235	0x3d91e0ea	0.07122977
236	0x3d774814	0.060371473
237	0x3cfcf620	0.03087908
238	0x3ca51b40	0.020154595
239	0xbb2aa540	-0.0026038438
240	0x3d07de9c	0.03317128
241	0xbda25564	-0.07926443
242	0xbdc66b2c	-0.0968841
243	0xbd94552e	-0.07242809
244	0xbd6e50e4	-0.058182612
245	0x3d78e29c	0.060762987
246	0xbdbf6744	-0.09345868
247	0x3cb6e2b8	0.022324905
248	0xbc80d798	-0.015727803
249	0xbc8b2b18	-0.016988322
250	0x3cb6c680	0.022311449
251	0xbcce8de8	-0.02521415
252	0x3d99cff2	0.075103655
253	0xbd0b6298	-0.034029573
254	0xbdbc9bac	-0.092093796
255	0x3c7c4f80	0.015399814

tgnn._base_tgcn.linear_r.bias f4 [32]
0	0x3d978a1c	0.07399389
1	0xbdd0004e	-0.10156308
2	0xbd7a3594	-0.061086252
3	0x3d4da5b0	0.05020684
4	0x3d8815f2	0.06644811
5	0xbc6e6000	-0.014549255
6	0x3d8bdee4	0.068296224
7	0x3c195df0	0.009360775
8	0xbb1abfc0	-0.0023612827
9	0xbdf94ed4	-0.121732384
10	0xbdf20b78	-0.11818594
11	0x3ddfce3c	0.10928008
12	0x3d54e408	0.05197528
13	0xbdedb93e	-0.11607598
14	0x3d70b454	0.058765724
15	0xbd37261c	-0.04471408
16	0x3d1967b0	0.0374524
17	0x3d8a3e72	0.06750192
18	0x3d087a58	0.0333198
19	0xbc9cb9f0	-0.01913163
20	0xbdb530ae	-0.088471755
21	0x3d3941d8	0.04522881
22	0xbd577730	-0.0526039
23	0xbdd9b9ec	-0.10631165
24	0xbdd5dafe	-0.1044216
25	0x3d67382c	0.056450054
26	0x3dfe8ffc	0.124298066
27	0x3a7eb300	0.0009716004
28	0x3dca6b2a	0.09883721
29	0x3d139bb0	0.036037147
30	0x3d844db6	0.06460135
31	0x3d8d4022	0.06896998

tgnn._base_tgcn.conv_h.bias f4 [32]
0	0x3e992f95	0.29919115
1	0x3cc8583e	0.02445614
2	0xbe864b50	-0.26229334
3	0xbdb5a2cd	-0.088689424
4	0x3e46c904	0.19412619
5	0xbf0a838b	-0.5410697
6	0x3e9af8b5	0.30267873
7	0x3e995177	0.29944965
8	0x3f07c576	0.53035676
9	0xbceb0a82	-0.028691534
10	0xbe8f8758	-0.28032947
11	0x3e36822d	0.17823096
12	0xbecfb11c	-0.4056481
13	0xbbd769d3	-0.0065738945
14	0x3dc02ceb	0.093835674
15	0xbee52a7a	-0.4475897
16	0x3cfc66de	0.03081077
17	0xbe933f2d	-0.28759137
18	0x3e7373bf	0.23774622
19	0xbd9df2c6	-0.07712321
20	0x3db12921	0.08650423
21	0x3ef9d854	0.48797858
22	0x3d48b5ab	0.049001377
23	0x3c544e01	0.012958051
24	0xbe5a6679	-0.21328153
25	0x3e14bf5f	0.14526127
26	0xbe5e90d3	-0.21734934
27	0x3e909006	0.2823488
28	0x3ed54cf9	0.41660288
29	0x3ee41cd9	0.4455326
30	0xbe65efb7	-0.22454725
31	0xbca19a00	-0.019726753

tgnn._base_tgcn.conv_h.lin.weight f4 [32, 3]
0	0x3e5fcea8	0.21856177
1	0xbf2d054b	-0.675862
2	0x3fcdc80e	1.6076677
3	0xbe9314a9	-0.287267
4	0xbf8ca869	-1.0988895
5	0x3f6f6a2a	0.9352137
6	0xbe0789cd	-0.1323616
7	0xbe3e52c6	-0.18586263
8	0x401741c2	2.3633885
9	0xbd579289	-0.05262998
10	0x3f8c6136	1.0967166
11	0xbf31856b	-0.69344205
12	0x3e124b1c	0.14286464
13	0x3f3734b9	0.71564823
14	0xbfbdb1c4	-1.4819875
15	0x3f08207e	0.5317458
16	0x3ea933cf	0.3304734
17	0xbf14b1a4	-0.5808356
18	0xbf124df0	-0.57150173
19	0xbf16cadb	-0.5890328
20	0x3f11061b	0.5664994
21	0xbf093991	-0.53603464
22	0xbea2d6a3	-0.3180438
23	0x3f97d32d	1.1861321
24	0xbd168a9d	-0.036753286
25	0x3f329205	0.6975406
26	0xbd33088c	-0.043709323
27	0x3d88b939	0.066759534
28	0xbf964e0e	-1.174257
29	0x3f80cf12	1.0063193
30	0x3f370eea	0.7150713
31	0x3eab8c0d	0.33505288
32	0xbfa26f24	-1.2690167
33	0xbf0fd51b	-0.5618455
34	0xbf847b54	-1.0350137
35	0xbe47f520	-0.19527102
36	0xbccae2f4	-0.024766423
37	0x3f2d05ff	0.67587274
38	0xbf0ae000	-0.54248047
39	0x3f1c3ea4	0.6103308
40	0x3f984823	1.1897014
41	0xbdddfc04	-0.10839084
42	0x3e4718fc	0.19443125
43	0xbf209912	-0.62733567
44	0x3fed60cc	1.8545165
45	0xbd9672a5	-0.073460855
46	0xbedc523c	-0.4303149
47	0xbfdae20f	-1.7100238
48	0xbf3999c7	-0.7250027
49	0x3daace43	0.083401226
50	0x3fd1914e	1.6372468
51	0xbecacdae	-0.39610046
52	0xbf5ab882	-0.85437787
53	0xbf731fe5	-0.9497054
54	0xbe025cba	-0.12730685
55	0xbf4b692a	-0.7945734
56	0x3f60b207	0.8777165
57	0x3d636dd2	0.055524655
58	0x3fa09929	1.2546741
59	0x3e106ce7	0.14104043
60	0xbe065091	-0.13116671
61	0xbf945a49	-1.1590053
62	0xbeb71439	-0.35757616
63	0x3e142f5f	0.14471196
64	0x3e4fda1b	0.20298044
65	0x3fb35410	1.4010029
66	0x3f360066	0.7109436
67	0x3f886fce	1.065912
68	0x3fdb26d9	1.712123
69	0xbe945890	-0.28973818
70	0xbf7adbb9	-0.9799152
71	0x3fa8ecec	1.3197303
72	0x3eb1e346	0.34743708
73	0x3f10a473	0.5650093
74	0xbf8cd21b	-1.1001619
75	0x3e2b2eb7	0.16717039
76	0xbf088642	-0.5332986
77	0x3fe02318	1.751071
78	0xbdfbc102	-0.12292673
79	0xbf8cb0e1	-1.0991479
80	0xbf0f4668	-0.55966806
81	0xbed6086a	-0.41803294
82	0xbe30ade9	-0.17253841
83	0x3fc0b6c9	1.5055782
84	0xb7be5c48	-2.2692737e-05
85	0xbea661de	-0.32496542
86	0x3fe5c7f9	1.7951652
87	0xbedfe8a6	-0.43732184
88	0x3f2f6448	0.6851239
89	0x3fadf346	1.3589866
90	0x3f1886ec	0.59580874
91	0x3eb9e43b	0.3630694
92	0xbfbcc938	-1.4748907
93	0xbd07f09b	-0.033188444
94	0xbf9b7905	-1.2146307
95	0x3f4765ab	0.7788951

tgnn._base_tgcn.linear_h.weight f4 [32, 64]
0	0xbecf56d1	-0.40495923
1	0xbf6b2dee	-0.9186696
2	0xbf3221de	-0.6958293
3	0x3fa29033	1.2700256
4	0x3f832668	1.0246096
5	0x3e787fc4	0.24267489
6	0xbf1453d2	-0.579404
7	0xbf021ea5	-0.5082801
8	0x3f21c163	0.6318571
9	0xbfbb1b3c	-1.4617686
10	0x3ed1d0f9	0.40979746
11	0xbf3b0e31	-0.7306853
12	0x3e8435ab	0.25822195
13	0x3f2e267c	0.6802747
14	0xbf2bdef7	-0.6713709
15	0xbedb7ef7	-0.42870304
16	0xbee4ad15	-0.446633
17	0xbf0e8a62	-0.55679905
18	0xbf320a1b	-0.6954667
19	0x3f95907b	1.1684717
20	0xbf563bfd	-0.83685285
21	0x3e812e45	0.25230613
22	0x3ebe07d3	0.37115344
23	0xbfa5597c	-1.2917933
24	0x3f17b6eb	0.59263486
25	0xbed1bc74	-0.4096409
26	0xbf4f7764	-0.8104155
27	0xbea17f9b	-0.31542668
28	0xbd159684	-0.036520496
29	0x3effaa6c	0.4993471
30	0x3ec2f839	0.38080004
31	0xbfa6a58a	-1.3019269
32	0xbd84e00e	-0.064880475
33	0x3db3566a	0.087567165
34	0x3da49d12	0.08037771
35	0xbd7ff0ac	-0.062485382
36	0xbd1ca27c	-0.038240895
37	0xbd9ca39e	-0.07648395
38	0x3dec9c56	0.11553256
39	0xbd605348	-0.054766923
40	0x3d795800	0.06087494
41	0xbd125124	-0.035721913
42	0x3dc82b7e	0.097739205
43	0x3dd31a38	0.10307735
44	0x3dc5118a	0.09622486
45	0x3c986d28	0.018606737
46	0x3d47c950	0.04877597
47	0x3cc09158	0.023506805
48	0xbcda7b08	-0.026669994
49	0xbd5757d8	-0.05257401
50	0x3bebc0a0	0.0071945935
51	0xbd9cf302	-0.076635376
52	0xbdb81144	-0.08987668
53	0xbdaecbb2	-0.085349455
54	0x3d6e604c	0.058197305
55	0xbc1faed0	-0.009746268
56	0x3de68c24	0.112571985
57	0x3d979efc	0.07403371
58	0x3d598bc4	0.053111807
59	0xbd197eac	-0.03747432
60	0xbdccfd02	-0.10009195
61	0x3deb8790	0.11500466
62	0x3b203780	0.0024447143
63	0xbde0b286	-0.10971551
64	0x3f33cab0	0.7023115
65	0x3ecb75c6	0.39738292
66	0x3e5e89ae	0.21732208
67	0xbfcffd8d	-1.6249253
68	0xbec8627c	-0.39137638
69	0xbe912d0c	-0.2835468
70	0x3ef289bc	0.47370708
71	0x3f0aa762	0.54161656
72	0xbd25c092	-0.040466852
73	0x3f6b232b	0.9185054
74	0xbe8bd8fb	-0.2731398
75	0x3e8ce152	0.27515656
76	0xbee513c9	-0.44741657
77	0xbe8e00d8	-0.2773502
78	0x3f686a68	0.90787363
79	0xbe351908	-0.1768533
80	0x3d64986c	0.055809423
81	0x3df58019	0.11987323
82	0x3fbc8e7d	1.4730984
83	0xbf08a9b9	-0.53383976
84	0x3eafa878	0.3430822
85	0x3e18414d	0.1486866
86	0x3d188275	0.03723379
87	0x3ec5d019	0.38635328
88	0xbf67befb	-0.9052579
89	0x3f47a31e	0.7798327
90	0x3e4c5e55	0.1995786
91	0x3f2969c1	0.6617699
92	0x3ec14c4f	0.3775353
93	0xbd4d270a	-0.05008606
94	0xbef941d6	-0.4868304
95	0x3f574328	0.8408685
96	0xbdb64c3a	-0.08901258
97	0xbc54ed40	-0.012996018
98	0xbdf54bb6	-0.11977331
99	0x3cac22e0	0.021012723
100	0xbd86b9e8	-0.065784276
101	0x3d64aff8	0.05583188
102	0xbda634da	-0.081155494
103	0xbd80683c	-0.06269881
104	0x3bd2bc00	0.0064311028
105	0x3bde7360	0.006788656
106	0x3db888bc	0.09010455
107	0xbaac2f00	-0.0013136566
108	0x3d3e5290	0.046465456
109	0x3da3c0dc	0.079957694
110	0xbdab2a68	-0.08357698
111	0x3d9ebf04	0.07751277
112	0xbd56d99c	-0.052453622
113	0x3c6a97c0	0.014318407
114	0x3cd62648	0.0261413
115	0x3cc21960	0.02369374
116	0x3ceece50	0.029151112
117	0x3d3a5ed4	0.04550059
118	0xbda88054	-0.08227602
119	0x3d00bbd0	0.031429112
120	0xbc929a28	-0.017895773
121	0x3d96cc68	0.07363206
122	0xbd907bc2	-0.07054855
123	0x3d21f8b0	0.039543808
124	0x3d5a8e54	0.05335839
125	0xbd5403ec	-0.051761553
126	0xbda9106a	-0.08255084
127	0x3dbb045a	0.09131689
128	0x3de5d3a4	0.11222008
129	0x3da7aef6	0.08187668
130	0xbdc55a36	-0.09636347
131	0x3d3d6fe4	0.046249285
132	0xbdcd638c	-0.10028753
133	0xbc88b3a8	-0.01668723
134	0xbdd2ed7c	-0.10299203
135	0x3d889688	0.066693366
136	0x3d9cfb1a	0.07665081
137	0x3da3c694	0.0799686
138	0xbd6b8dd4	-0.057508305
139	0x3df02b22	0.11726977
140	0x3db6bb82	0.08922483
141	0x3c8499c0	0.016186595
142	0xbdbdf162	-0.09274556
143	0x3d928830	0.07154882
144	0x3d15f8d0	0.03661424
145	0x3c0f7990	0.00875701
146	0xbdfa71aa	-0.12228711
147	0xbd974eba	-0.07388063
148	0xbc733e90	-0.014846459
149	0xbdea13ee	-0.114295825
150	0x3db4cbb4	0.08827916
151	0xbcc78858	-0.024357006
152	0xbc9a9d88	-0.018873945
153	0x3d2dc4e8	0.042424113
154	0x3d56e470	0.05246395
155	0xbd9e924c	-0.07742748
156	0x3c9cd498	0.019144341
157	0xbd7349d4	-0.05939658
158	0xbdd89d06	-0.10576825
159	0x3dfcf228	0.12350875
160	0x3cfb0558	0.030642197
161	0xbdae4e70	-0.085110545
162	0xbd8d94b8	-0.069131315
163	0x3d0fd70c	0.035117194
164	0xbdee355a	-0.1163127
165	0xbd2f9d50	-0.042874634
166	0x3da940c4	0.08264306
167	0xbd9bd304	-0.076086074
168	0x3dd230f4	0.10263243
169	0x3d282b9c	0.041057214
170	0xbdd3eb7a	-0.10347648
171	0x3d57ab38	0.05265352
172	0x3df3fe76	0.11913769
173	0x3d4add74	0.0495276
174	0x3dd26c58	0.10274571
175	0xbad36200	-0.0016127229
176	0xbdc09e72	-0.09405221
177	0x3d2487e4	0.040168658
178	0x3d0369a0	0.032083154
179	0x3d59d578	0.053182095
180	0xbca16128	-0.019699648
181	0xbd80a404	-0.062812835
182	0x3d13bf44	0.036071077
183	0xbdc045a4	-0.09388283
184	0x3dd41af0	0.103567004
185	0xbd546054	-0.05184968
186	0xbdffff44	-0.1249986
187	0x3d902bda	0.07039614
188	0x3bd17620	0.0063922554
189	0xbd23f020	-0.040023923
190	0xbd390864	-0.045174018
191	0xbda7f022	-0.082000986
192	0x3f249a00	0.64297485
193	0x3c7169dd	0.014734712
194	0x3f80ab69	1.005231
195	0xbe0f4887	-0.1399251
196	0xbeafd830	-0.34344625
197	0x3f7055df	0.9388103
198	0xbeadebb4	-0.3396889
199	0xbdb6a14e	-0.08917485
200	0xbd0d544d	-0.034504224
201	0x3e5eebae	0.21769592
202	0x3e149fc4	0.14514071
203	0xbf0add37	-0.542438
204	0x3ea3f760	0.3202467
205	0x3e717e51	0.23583342
206	0x3f9eda6d	1.2410408
207	0xbf0cf350	-0.55058765
208	0x3ec8d7a4	0.3922702
209	0xbeaa58b9	-0.33270815
210	0x3d8e0f38	0.069364965
211	0x3e98f702	0.29875952
212	0xbeba7918	-0.36420512
213	0x3ec0f9a8	0.37690473
214	0x3f034be9	0.51287705
215	0x3e36994f	0.1783192
216	0xbc67698a	-0.014124284
217	0x3f8e9418	1.1138945
218	0xbe983201	-0.2972565
219	0x3ec4aec0	0.38414574
220	0x3f2a071e	0.6641711
221	0x3edceb41	0.43148234
222	0xbe1d8b61	-0.153852
223	0x3ca66237	0.020310504
224	0xbc96cd40	-0.018408418
225	0x3dab4216	0.08362214
226	0x3d4ba14c	0.04971437
227	0x3df22a24	0.11824444
228	0xbd281404	-0.041034713
229	0xbd6ecf48	-0.058303148
230	0xbca8ed58	-0.020620987
231	0x3dce4cea	0.10073264
232	0x3dcc16f6	0.09965317
233	0xbd83bb9c	-0.06432268
234	0x3df00750	0.11720145
235	0x3d995782	0.07487394
236	0x3d452908	0.048134834
237	0xbc653130	-0.013988778
238	0x3db54d02	0.08852579
239	0x3d8e4334	0.06946412
240	0x3d9c9006	0.07644658
241	0x3d16424c	0.03668432
242	0xbcd80648	-0.026370183
243	0x3d818732	0.063246146
244	0xbdb573b8	-0.08859962
245	0x3b8ae360	0.004238531
246	0xbdb3aa14	-0.08772674
247	0x3ca22f40	0.019797921
248	0x3dd52eee	0.10409342
249	0xbdeb2824	-0.114822656
250	0xbd057d9c	-0.032590494
251	0xbde08576	-0.10962956
252	0xbdc79e9c	-0.09747049
253	0x3d917008	0.071014464
254	0x3b187700	0.002326429
255	0x3c6d59b0	0.014486715

tgnn._base_tgcn.linear_h.bias f4 [32]
0	0x3e9e2b6d	0.30892506
1	0x3e84b3d7	0.25918457
2	0xbdb67e32	-0.089107886
3	0xbe2a179e	-0.16610572
4	0x3e975e37	0.29564068
5	0x3f1564ff	0.5835723
6	0x3e023cd7	0.12718521
7	0xbdd97f03	-0.10619929
8	0x3e72a708	0.2369653
9	0x3f28859f	0.6582889
10	0x3e59d273	0.21271686
11	0x3e8db6f9	0.2767866
12	0x3e6ad38b	0.2293226
13	0x3ea7c030	0.32763815
14	0xbccf3cb1	-0.025297495
15	0xbe015309	-0.12629332
16	0xbdaaaba8	-0.08333522
17	0xbce08178	-0.027405486
18	0x3e410b36	0.18851933
19	0x3ee76fd9	0.4520252
20	0x3f007c24	0.50189424
21	0xbeb96a5c	-0.36213958
22	0x3e72791e	0.23679015
23	0x3e710470	0.23536849
24	0x3e345a4c	0.1761257
25	0x3f261dd2	0.6488925
26	0x3f37682a	0.71643317
27	0x3f1dd1b7	0.61648124
28	0x3e97f4ca	0.29678947
29	0x3e41384d	0.18869133
30	0xbb634197	-0.0034676546
31	0x3eb53aac	0.35396326

linear.weight f4 [16, 32]
0	0x3eab35de	0.33439535
1	0xbebd9998	-0.37031245
2	0xbde4321f	-0.11142372
3	0x3f8816c2	1.0631945
4	0x3ec87382	0.39150625
5	0xbf215648	-0.6302228
6	0x3ed068dc	0.40705
7	0xbd541f80	-0.051787853
8	0x3ee29ce2	0.44260317
9	0xbf65474d	-0.8956192
10	0x3e9784e7	0.29593584
11	0x3ec5ccc3	0.38632783
12	0x3f094a98	0.53629446
13	0xbeceede8	-0.40415883
14	0x3d620fc6	0.055190824
15	0x3dbc55ba	0.091960385
16	0x3c8bcec0	0.01706636
17	0xbde9bcde	-0.11412977
18	0x3f175000	0.59106445
19	0xbec9ea9d	-0.39436808
20	0xbf23237b	-0.63726014
21	0xbf99174c	-1.1960235
22	0x3f069d0f	0.525834
23	0x3e9c87f1	0.30572465
24	0xbedb24d7	-0.42801544
25	0xbf83a8b8	-1.0285864
26	0xbf3cc5e0	-0.73739433
27	0xbf27d4e5	-0.65559226
28	0xbf22e343	-0.63628024
29	0x3e8c924d	0.2745537
30	0x3da4d7a8	0.08048946
31	0x3e3e4e87	0.18584643
32	0x3e7f6ef6	0.24944672
33	0xbefdfddf	-0.4960775
34	0x3d2f3b5c	0.04278122
35	0x3f69c251	0.9131213
36	0x3eb83597	0.35978386
37	0xbf1d27d4	-0.613889
38	0x3edca4ae	0.4309439
39	0xbd30468e	-0.043036036
40	0x3f19d59f	0.60091585
41	0xbf5ddb50	-0.8666277
42	0x3ee6f847	0.45111296
43	0x3e9c495b	0.30524716
44	0x3edffc5e	0.43747228
45	0xbee4412e	-0.44580978
46	0xbde6732d	-0.11252437
47	0x3df094b5	0.117471136
48	0x3d155a9c	0.036463365
49	0xbd623948	-0.05523041
50	0x3f1d43b6	0.61431444
51	0xbeead32e	-0.45864242
52	0xbf360b50	-0.7111101
53	0xbfa8a1f4	-1.3174424
54	0x3ec17d27	0.37790796
55	0x3f1596fb	0.584335
56	0xbe9a20fb	-0.30103287
57	0xbf85a9c3	-1.0442432
58	0xbf385625	-0.72006446
59	0xbf2d172c	-0.6761348
60	0xbf53742d	-0.82599145
61	0x3e9b522e	0.30336136
62	0x3e066249	0.1312343
63	0x3ebb4bff	0.36581418
64	0x3f0f6874	0.5601876
65	0xbeed570d	-0.46355477
66	0xbdecae30	-0.11556661
67	0x3f4170be	0.75562656
68	0x3ea4b129	0.32166412
69	0xbf0b9321	-0.54521376
70	0x3f2bd563	0.6712248
71	0xbdd6f8b3	-0.10496654
72	0x3ebfefaf	0.37487552
73	0xbf5f1139	-0.87135655
74	0x3e9909ce	0.29890293
75	0x3f0321d4	0.5122349
76	0x3ece9dbf	0.40354726
77	0xbf075f3d	-0.528797
78	0x3d19edae	0.037580185
79	0x3d6f94a6	0.05849137
80	0xbe0eb946	-0.13937864
81	0xbe1508d6	-0.14554152
82	0x3eb885b9	0.36039522
83	0xbf1b8811	-0.60754496
84	0xbf3cf95f	-0.7381801
85	0xbfb58c06	-1.4183357
86	0x3f0f81d8	0.560575
87	0x3ef18783	0.471737
88	0xbf36c93c	-0.7140081
89	0xbf5f5f33	-0.8725464
90	0xbf3e6f6b	-0.7438876
91	0xbf45a51c	-0.7720506
92	0xbf2b88f3	-0.6700584
93	0x3f099386	0.5374073
94	0x3ac7ea4b	0.001525232
95	0x3ea504fb	0.32230362
96	0x3eed85e6	0.4639122
97	0xbf23dcbd	-0.64008695
98	0x3c015b60	0.007895321
99	0x3f152209	0.5825506
100	0x3ee777e7	0.45208666
101	0xbee093cc	-0.4386276
102	0x3ed0471a	0.40679246
103	0x3d339237	0.043840613
104	0x3ecddb1b	0.40206227
105	0xbf5ff639	-0.8748508
106	0x3eea7ea6	0.4579975
107	0x3ebb4021	0.36572364
108	0x3ef0b817	0.4701545
109	0xbf33a0f8	-0.70167494
110	0x3d3e1e79	0.04641578
111	0xbe0fdce6	-0.1404911
112	0x3e3424e9	0.17592205
113	0x3dfd0c2a	0.12355836
114	0x3eeb1708	0.4591601
115	0xbf2bbb8a	-0.67083037
116	0xbf3487cc	-0.7051971
117	0xbfc3a11a	-1.5283539
118	0x3f27451e	0.6533984
119	0x3f246fab	0.6423289
120	0xbf1eefd8	-0.6208472
121	0xbf62e365	-0.88628227
122	0xbf498290	-0.7871485
123	0xbf3d92dc	-0.74052215
124	0xbf4b340d	-0.793763
125	0x3e8b7af3	0.2724224
126	0xbd368b62	-0.04456652
127	0x3f14c879	0.58118397
128	0x3ee508eb	0.44733366
129	0xbf3a1f6b	-0.7270419
130	0xbd6c1fc0	-0.057647467
131	0x3e8a4204	0.2700349
132	0x3edc5918	0.43036723
133	0xbf170ccd	-0.5900391
134	0x3f1a1a3a	0.6019627
135	0x3db2e958	0.08735913
136	0x3f229e8b	0.6352317
137	0xbf456844	-0.7711222
138	0x3f159bf0	0.58441067
139	0x3ef2b5f4	0.47404444
140	0x3ee65eac	0.44994104
141	0xbf105754	-0.5638325
142	0x3b925c09	0.004466538
143	0xbdc24e75	-0.09487621
144	0x3e32f501	0.17476274
145	0x3dd6be0a	0.10485466
146	0x3efc8453	0.49319705
147	0xbf2e9520	-0.68196297
148	0xbf4240f5	-0.75880367
149	0xbfcdc0c0	-1.6074448
150	0x3ebb2014	0.3654791
151	0x3f19c8e3	0.60072154
152	0xbf3157b5	-0.69274455
153	0xbf804d79	-1.0023643
154	0xbf32300f	-0.6960458
155	0xbf207840	-0.62683487
156	0xbf73a1f1	-0.9516898
157	0x3e847f20	0.2587824
158	0x3bda1310	0.0066551045
159	0x3f331794	0.6995785
160	0x3f2974f1	0.66194063
161	0xbf4e6a95	-0.8063138
162	0x3e2ac425	0.16676386
163	0x3e0605d6	0.13088164
164	0x3ede6966	0.43439788
165	0xbf51803e	-0.8183631
166	0x3f2f8d08	0.6857457
167	0xbd18e6df	-0.03732955
168	0x3ebc0822	0.36724955
169	0xbf3b2539	-0.7310367
170	0x3eb1fa0d	0.34761086
171	0x3efeae11	0.49742177
172	0x3f2cda82	0.67520916
173	0xbf2eaf64	-0.68236375
174	0xbc1e9958	-0.009680115
175	0x3ddf83ab	0.109137855
176	0xbdbfc9d9	-0.09364671
177	0xbe09c110	-0.13452554
178	0x3ead8af2	0.3389507
179	0xbf334e62	-0.7004148
180	0xbf5f8e3d	-0.87326413
181	0xbfd2fc9c	-1.648334
182	0x3f2a7e1a	0.66598666
183	0x3ebb2e69	0.36558846
184	0xbf28fe19	-0.6601272
185	0xbf62c966	-0.8858856
186	0xbf15d58c	-0.5852897
187	0xbf0a341c	-0.5398576
188	0xbf9a39d2	-1.2048895
189	0x3f0c8742	0.5489389
190	0x3d8f9d81	0.07012463
191	0x3f37ea1e	0.7184161
192	0x3ee5c1fb	0.44874558
193	0xbf406d64	-0.75166917
194	0x3dfc2082	0.12310888
195	0xbdaef3f3	-0.08542623
196	0x3f180c18	0.59393454
197	0xbf21f4d4	-0.63264203
198	0x3f1cc492	0.6123744
199	0x3d4aa3c0	0.04947257
200	0x3f214e94	0.63010526
201	0xbf24c191	-0.6435786
202	0x3edf9f13	0.43676051
203	0x3f1a30a5	0.60230476
204	0x3f12db12	0.57365525
205	0xbf5b251e	-0.8560351
206	0xbdcf95b8	-0.101359785
207	0xbd2a1944	-0.041528
208	0xbdd4ea2a	-0.10396226
209	0x3da62b72	0.08113755
210	0x3efe05a9	0.49613693
211	0xbf622be5	-0.8834823
212	0xbf33421e	-0.7002276
213	0xbfd6d67f	-1.6784209
214	0x3ec0166d	0.3751711
215	0x3ec3e13b	0.38257775
216	0xbf84cd1e	-1.0375097
217	0xbf466511	-0.77497965
218	0xbf351833	-0.7074005
219	0xbf273c9d	-0.65326864
220	0xbf98728d	-1.1909958
221	0x3edfdab8	0.43721557
222	0x3d19a392	0.03750951
223	0x3f6edf3e	0.9330939
224	0x3f192480	0.5982132
225	0xbf8988df	-1.0744895
226	0xbccfba30	-0.025357336
227	0xbea29d42	-0.31760603
228	0x3ee0f3da	0.43936044
229	0xbf478717	-0.77940506
230	0x3f3e94af	0.74445623
231	0xbd7a1fa2	-0.061065324
232	0x3f139903	0.5765535
233	0xbf2f3136	-0.68434465
234	0x3f20ccf9	0.62812763
235	0x3ed5b35e	0.4173841
236	0x3f0b983f	0.54529184
237	0xbf6becd7	-0.92158264
238	0x3c295475	0.0103350775
239	0xbdb7b461	-0.089699514
240	0xbc8d7e58	-0.01727216
241	0xbcb20538	-0.021731004
242	0x3ec6c669	0.3882325
243	0xbf675c88	-0.90375566
244	0xbf3f318f	-0.74684995
245	0xbfdb7d0c	-1.7147536
246	0x3f18ec87	0.5973591
247	0x3f1ef661	0.62094694
248	0xbf5ef6d6	-0.8709539
249	0xbf3f49ef	-0.7472219
250	0xbf0c0c27	-0.54706043
251	0xbef19cd8	-0.47189975
252	0xbfa00db3	-1.2504181
253	0x3e9b22aa	0.30299884
254	0x3caf65fd	0.021410936
255	0x3f4ab36c	0.79180026

linear.bias f4 [16]
0	0x3eac94d0	0.33707285
1	0x3e2d91a7	0.16950093
2	0x3e602f90	0.21893144
3	0x3e515304	0.20441824
4	0xbbae4348	-0.005318079
5	0xb9e4571d	-0.00043552453
6	0x3a65047a	0.0008736324
7	0xbd23cd05	-0.039990444
8	0xbe24a04d	-0.16076775
9	0xbdfceaaa	-0.12349446
10	0xbe615752	-0.22005966
11	0xbe28e8a5	-0.16494997
12	0xbe4e2257	-0.20130287
13	0xbe3184d6	-0.17335829
14	0xbdb482e3	-0.08814027
15	0xbe194454	-0.14967471

linear2.weight f4 [6, 21]
0	0x3f0c41ae	0.5478772
1	0x3f34907d	0.7053297
2	0x3dfbd931	0.12297285
3	0xbe1a4828	-0.15066588
4	0xbebc2b49	-0.36751774
5	0x3f04e5ee	0.51913345
6	0xbf00db85	-0.5033496
7	0x3f02e4ce	0.5113038
8	0x3ddca48f	0.107735746
9	0x3eb62a15	0.3557898
10	0xbf02f3fd	-0.51153547
11	0xbe4fd745	-0.20296963
12	0x3e200f9e	0.15630957
13	0x3d8327e2	0.064040914
14	0x3e6bf887	0.23044024
15	0xbebb5cb3	-0.3659416
16	0xbe1a868c	-0.15090388
17	0x3e9f04d5	0.31058374
18	0xbd5151d2	-0.05110342
19	0xbe9d39bb	-0.30708107
20	0xbe348ec7	-0.1763259
21	0xbd0823dd	-0.033237327
22	0x3e8ddb68	0.27706456
23	0x3d887d9d	0.06664584
24	0x3e2f8286	0.17139634
25	0xbea4ec97	-0.32211754
26	0x3ed54e28	0.4166119
27	0x3f1e922a	0.6194178
28	0x3e917c51	0.28415158
29	0xbd947f3c	-0.072508305
30	0xbcd4106a	-0.025886733
31	0x3f0a7dc3	0.5409815
32	0xbd434c12	-0.04767997
33	0xbe81e167	-0.2536728
34	0x3e56d64f	0.2098019
35	0xbcdfc33f	-0.02731478
36	0xbe9ecf38	-0.3101747
37	0xbe247030	-0.16058421
38	0xbf0c069e	-0.546976
39	0x3c488996	0.012239834
40	0x3dae6e23	0.08517101
41	0x3e6ed9b4	0.23325235
42	0x3e925011	0.2857671
43	0x3db054a2	0.086098924
44	0xbd86ec87	-0.06588083
45	0xbdab8e90	-0.08376801
46	0xbe7cb7f2	-0.24679545
47	0xbdb24dfc	-0.087062806
48	0x3e80d2c6	0.25160807
49	0x3edef12d	0.43543378
50	0x3e1264f7	0.14296328
51	0xbe996660	-0.29960918
52	0xbe45703f	-0.192811
53	0xbd6c0bd7	-0.05762848
54	0x3e2c45f8	0.16823566
55	0xbf04a9c9	-0.5182157
56	0x3f0bb08b	0.5456626
57	0xbde911ec	-0.113803715
58	0x3c627fc9	0.013824412
59	0xbe25c915	-0.16189988
60	0xbe3d91f6	-0.18512711
61	0xbe998c78	-0.29989982
62	0xbe27f958	-0.16403711
63	0xbe932596	-0.28739613
64	0xbead6484	-0.3386575
65	0xbe807282	-0.25087363
66	0xbe138e6e	-0.14409801
67	0x3e2b7efa	0.16747656
68	0xbe95ade5	-0.29234233
69	0x3d9f947d	0.07791994
70	0xbf3acce4	-0.7296889
71	0x3ea1801f	0.3154306
72	0x3ec6fe09	0.38865688
73	0x3d911402	0.07083894
74	0x3eaeafb9	0.3411844
75	0x3eebe69a	0.46074373
76	0xbead0b6f	-0.33797786
77	0xbe6d6261	-0.2318206
78	0x3f3768a4	0.71644044
79	0x3ef01348	0.4688971
80	0x3dab87ae	0.08375488
81	0xbce79fc4	-0.028274424
82	0x3e8ac543	0.27103624
83	0x3e9bc653	0.30424747
84	0xbd9c036b	-0.076178394
85	0xbe2046c1	-0.1565199
86	0xbc544ea8	-0.012958206
87	0x3ef76fe6	0.4832756
88	0x3f086dc0	0.53292465
89	0xbe99d16c	-0.3004259
90	0xbde4ca6b	-0.11171421
91	0x3e64e3b2	0.22352484
92	0x3ab581eb	0.0013847923
93	0xbebbd2c1	-0.3668423
94	0xbe14010c	-0.14453524
95	0xbeddff94	-0.43359053
96	0xbdc5d26e	-0.09659277
97	0x3c9b00f6	0.018921357
98	0x3f067408	0.525208
99	0xbe18b85a	-0.14914075
100	0xbe8e72be	-0.27821916
101	0x3e91e03c	0.2849139
102	0x3e81d6fc	0.25359333
103	0x3e50e610	0.20400262
104	0x3db07f63	0.08618047
105	0xbe033ac9	-0.12815394
106	0xbec77dca	-0.38963157
107	0xbefa4df7	-0.48887607
108	0xbd79a6ff	-0.060950276
109	0x3ebb205a	0.3654812
110	0xbd7a0c36	-0.0610468
111	0x3d906694	0.07050815
112	0xbf038ad3	-0.51383704
113	0x3e882a93	0.26594982
114	0x3e4e9bd3	0.2017663
115	0x3c084d9c	0.008319285
116	0x3dc3f4e3	0.09568193
117	0x3f03621e	0.5132159
118	0xbe793a5f	-0.24338673
119	0xbdee4b58	-0.116354644
120	0x3ed8faed	0.4237894
121	0x3eda1090	0.4259076
122	0x3e841c99	0.25803068
123	0xbe4ae764	-0.19814831
124	0x3e93d461	0.2887297
125	0x3e1765e1	0.14784957

linear2.bias f4 [6]
0	0xbe6e06bd	-0.23244758
1	0x3e81d4c6	0.25357646
2	0xbfadd547	-1.3580712
3	0x3de6ecb5	0.11275617
4	0x3f27903e	0.6545447
5	0xbf9dd82e	-1.2331598
